output/dmd/restr_e2v/run_003/restr_dmd_best_model_e2v.pth (torch, 273077 bytes, 14 tensors)

convs.0.lin_l.weight f4 [256, 64]
000000 c3 38 c5 3d ce b8 9e 3d de 93 2a bd 30 3a a1 3d
       0.09629967 0.077500924 -0.041644923 0.078724265
000010 14 23 e1 bd 52 c4 f2 bd 13 d3 c0 3c f4 7e 98 3d
       -0.10993019 -0.118538514 0.023538148 0.074460894
000020 25 ba 04 bd a3 e0 03 bd f4 a1 c7 bd 96 2c 99 bd
       -0.032404084 -0.032196652 -0.09747687 -0.07479207
000030 51 54 b6 bc 00 6c dc bd 64 75 2c 3d c0 a4 53 3b
       -0.022257002 -0.10762787 0.04210414 0.0032294244
000040 4d 09 ca 3d 55 97 89 3c d4 a7 e4 bd 96 67 9c 3d
       0.09865055 0.016795794 -0.11164823 0.07636945
000050 ed 8b 99 3d 4f c4 ec 3d fc b1 55 3d ab f5 dc bd
       0.07497392 0.115608804 0.052171692 -0.10789045
000060 e3 12 0f 3c d5 f0 2b bd fd 8c 47 3c 4b 74 d3 3d
       0.00873253 -0.041977722 0.01217961 0.103249155
000070 ac 84 3c 3c 7a 23 e3 3d e0 0f b0 3d cc ff cf bc
       0.011506241 0.11090751 0.08596778 -0.025390528
000080 b9 84 c1 3c 0d e7 61 bd 6e 19 bb 3d 0f 7d bd 3b
       0.023622857 -0.055151988 0.0913571 0.0057827304
000090 70 ca 9a bd e2 72 8a bd ec e6 ab 3d a2 82 b0 3d
       -0.07558143 -0.067601934 0.08393654 0.08618666
0000a0 d3 fe 20 bd 3d 78 46 3b db fa 87 bc c2 ef 48 3d
       -0.03930552 0.003028407 -0.01659911 0.049056776
0000b0 32 c5 1b bd e7 d1 c3 3b 98 52 ca 3d f3 e6 38 3d
       -0.038029857 0.00597595 0.09879035 0.045142125
0000c0 d3 d9 c5 3d 74 8f 01 be 3a db 8d 3c f5 6d f4 bd
       0.09660687 -0.1265238 0.01731645 -0.11935035
0000d0 9c f1 36 3d cb ce f4 bd 5f e0 68 3d 5b 67 8d bd
       0.04466401 -0.11953505 0.056854602 -0.06904479
0000e0 85 03 a7 bd e6 00 7c 3d ea 3b b0 bb a1 2b b3 3d
       -0.08154968 0.061524294 -0.005378236 0.08748556
0000f0 c8 2f 48 3d 37 28 69 bd 27 94 c6 3d 50 2a e0 bd
       0.048873693 -0.056923117 0.096962266 -0.109455705
000100 0c 99 5e bd b3 29 db bc b1 b7 d6 3c ca 8a e8 3c
       -0.054345176 -0.026753282 0.026210638 0.028386492
000110 10 1e a7 bd 8b 1b 5c bc 64 4b 90 bd 23 ce e5 3c
       -0.08160031 -0.013434301 -0.070456296 0.028052395
000120 47 17 e5 bc 46 cf c0 bc 08 42 e4 3d 06 60 d1 3d
       -0.027965201 -0.023536336 0.11145407 0.10223393
000130 71 35 9c bd ce 17 01 bd 82 ea 78 3d 38 2f 54 3d
       -0.07627381 -0.031516843 0.06077052 0.051802844
000140 77 bf e8 bd ee 60 5d bd 9b 73 ad 3d 21 42 d2 3d
       -0.11364644 -0.054047517 0.084693156 0.10266519
000150 ba 82 b7 bc 36 16 be 3b 19 81 27 3d 52 23 6d bb
       -0.022401202 0.0058009876 0.0408946 -0.0036184383
000160 04 63 3f bd 47 da e8 3d 75 bc 7e bd b5 b3 f9 bd
       -0.046725288 0.11369758 -0.062191445 -0.121924795
000170 8d 47 c2 3d 6a 72 53 bd 39 a7 9f 3d a7 67 cf bd
       0.094863035 -0.051622786 0.07795567 -0.10127192
000180 18 f3 97 bd b1 e1 a2 3d c2 82 e4 3d 99 a0 ef bd
       -0.07419413 0.079532035 0.111577526 -0.117005534
000190 fc 44 aa 3d 48 f0 5a 3d 09 00 71 3d 48 fc bc 3d
       0.08313939 0.053451806 0.058837924 0.09227806
0001a0 53 43 94 3d 35 65 eb bd 1b 1c b8 bc 65 21 92 bd
       0.072394036 -0.11493913 -0.02247434 -0.07135276
0001b0 76 42 91 3d 5c fd 60 3c b7 f0 bd 3d ea 1a e1 3c
       0.070927545 0.013732281 0.09274428 0.027478654
0001c0 0e ae c3 bd c2 b5 22 3d 74 be 8b 3d a8 37 00 3d
       -0.09554683 0.03972412 0.068234354 0.031303078
0001d0 93 e8 a3 3c 90 b1 03 3e 57 0c e5 3d 74 a9 f0 bc
       0.020008361 0.12860703 0.11183994 -0.029377677
0001e0 03 23 4c 3d c5 c7 6c 3d 4c 83 d1 3d e0 c4 25 bd
       0.049838077 0.057807703 0.10230121 -0.040470958
0001f0 a0 ca ed bd ed 93 ad bd ba 23 e7 3d 0c fd 63 3c
       -0.11610913 -0.0847548 0.11286111 0.013915312
000200 3f 72 16 3d 17 04 ee 3d 85 86 be 3d 10 b8 a8 bd
       0.036730047 0.11621874 0.09303001 -0.08238232
000210 fe d3 4d bd 33 06 67 bb 5b 86 94 bd 34 24 7b 3c
       -0.050251 -0.0035251498 -0.07252189 0.015328456
000220 f6 cb 5b 3c d9 ba e2 bd 9d 14 6d bd 10 23 a8 bc
       0.013415327 -0.110707946 -0.057880986 -0.020524532
000230 e9 5b b6 3d 69 1d d4 bd 21 0a 0b 3d 90 c2 f2 3d
       0.08904249 -0.10357172 0.033945207 0.11853516
000240 65 8b b2 3d c8 77 4a bd ce 2a af bd 9d fa 96 ba
       0.08717994 -0.04943064 -0.08553086 -0.001151878
000250 dc 48 a6 3d 39 63 85 bb 0b 9a 44 bd e0 62 f5 3c
       0.081193656 -0.004070666 -0.04799847 0.029954374
000260 c8 22 f0 bc 7e 88 54 bd ef e4 c2 3d 14 5a 7e 3c
       -0.02931346 -0.05188798 0.09516322 0.015524406
000270 b2 2d b3 bd 1b ac b0 bd 35 2d 4b bc 72 2e ec 3c
       -0.0874895 -0.086265765 -0.012400915 0.02883074
000280 68 05 be 3d ad 9a 33 3d ba 98 d3 bd e7 cc 8c 3d
       0.09278375 0.043848682 -0.10331865 0.068750195
000290 fd ea 6a bd 32 b7 b0 3d 71 9f 46 3d 65 2c 3c 3d
       -0.05735301 0.08628692 0.0484919 0.045940775
0002a0 ed c4 11 bd 87 ec ed 3d 2b d8 f4 bd d0 8e 85 3d
       -0.035588194 0.1161738 -0.11955293 0.0652138
0002b0 44 a9 ec bd 1a c3 c3 3d 81 70 ab bd b1 12 a9 3c
       -0.11555722 0.09558697 -0.08371068 0.020638796
0002c0 b6 e7 84 bd 93 bc 7e bd e6 7c e8 3d 37 92 b5 bc
       -0.06489508 -0.062191557 0.113519475 -0.022164447
0002d0 9a 5b 68 bc 2b 7a 88 3c c3 7e 93 bc a0 5c c8 3d
       -0.014181996 0.016659817 -0.01800478 0.09783292
0002e0 c8 a5 c8 3d 1d 6e 37 3d 44 45 d3 bd b8 71 f8 bc
       0.09797245 0.044782747 -0.10315946 -0.030327663
0002f0 f6 66 9c bd 4e 57 2d 3d 00 cf d3 3d f6 62 11 bd
       -0.07636826 0.04231959 0.103422165 -0.035494767
000300 20 1a e3 bd 7b 7e fd 3d b9 6e 53 3d 21 76 b5 3d
       -0.11088967 0.1237764 0.051619265 0.08860422
000310 bc 9e dd 3c 45 02 8c bd 19 7e 0d 3d 57 4d b2 bd
       0.02705323 -0.068363704 0.034544084 -0.08706158
000320 77 d3 e2 bd 1f 4f c9 3c 67 59 d8 3d af 12 9f 3c
       -0.1107549 0.02457386 0.10563927 0.019418089
000330 46 c6 bc 3d ef 32 cb 3d c0 6c cd bd c7 c9 17 bd
       0.09217505 0.09921824 -0.10030508 -0.037057664
000340 aa 60 f3 3d db f9 b1 bd 69 c9 be bd 52 e5 92 bd
       0.118836716 -0.08690234 -0.0931576 -0.07172646
000350 f1 d3 f8 3d 23 3d be bd 91 7b 06 bd db f7 50 3d
       0.121497996 -0.09289005 -0.032832686 0.051017623
000360 76 5b a6 3d 6b 85 31 bd b7 09 8e 3c 20 aa 43 bc
       0.081229135 -0.043340128 0.017338617 -0.011942416
000370 ea f5 d0 bd a6 58 95 bd 0d 1d 3a 3d 37 5d 6e 3c
       -0.102031544 -0.07292299 0.04543786 0.014548591
000380 65 dc a6 bd 49 d9 ac 3c 10 21 e1 3d bb d7 db bd
       -0.08147506 0.021099703 0.10992634 -0.10734507
000390 e9 ae ec bc 8e 99 bc 3d 7f a9 63 bd e6 e7 81 3c
       -0.028891997 0.09208976 -0.055581566 0.015857648
0003a0 7c 9d d7 bd 7b 84 cb bd 9b e6 03 bb ff 14 1b 3d
       -0.10528085 -0.09937378 -0.0020126465 0.03786182
0003b0 9a 64 09 bd 30 fd 4f 3c 9a 1a 1d bc 24 24 54 bc
       -0.033543207 0.012694642 -0.009588862 -0.01294807
0003c0 93 a7 81 3d a8 d1 0d 3d 4f 3e 8e 3d 1d 1d 0c 3d
       0.0633079 0.034623772 0.06945478 0.034207452
0003d0 7d 6b bf 3d c3 d8 c6 3d f5 eb 62 bd 46 62 da 3d
       0.09346674 0.09709313 -0.055400807 0.106632754
0003e0 fb 0e 93 3d 63 d3 a3 3d 5b 33 81 3d a6 5c 28 3d
       0.07180592 0.07999303 0.063086234 0.04110398
0003f0 12 11 b3 3c 94 c9 da 3d 5f 3b 04 3d a6 41 cf bd
       0.021858726 0.10682979 0.032283183 -0.10119943

convs.0.lin_l.bias f4 [256]
000000 05 c1 85 bd 38 ea da 3d c3 90 92 3d 4c 34 a7 3d
       -0.06530956 0.10689205 0.07156517 0.08164272
000010 f4 10 bb 3c 4f 67 c3 3d a5 9d a0 bd 4a 58 ed bd
       0.022835232 0.09541189 -0.07842568 -0.115891054
000020 01 23 0c 3d 4c b1 b5 3d 98 ef b9 bd 38 5a b9 bd
       0.03421307 0.08871707 -0.09078902 -0.09050411
000030 16 be e1 3d a6 ef 6b 3d dd e3 8f bd 8a 69 47 bd
       0.11022584 0.057601593 -0.07025883 -0.048684634
000040 95 ed 1f 3d 4f 17 8d bb d0 6c e5 bd e5 0a 92 bd
       0.039044935 -0.004305757 -0.11202395 -0.07130984
000050 61 4a 84 3d 51 df 32 3d bd 5c 66 3c 0b fa 97 bc
       0.06459499 0.043670002 0.0140601965 -0.018551847
000060 c1 4f 95 bd 46 ba cc bc f0 0a 80 3d 01 82 54 bd
       -0.072906025 -0.024991166 0.06252086 -0.051881794
000070 70 87 38 3d 2d 1f ff bd 24 37 97 bd 13 ab ad 3d
       0.04505104 -0.12457118 -0.07383564 0.084798954
000080 4d 7e e3 bb 63 c6 2b 3d 7a 2d 84 bd 13 48 d2 bb
       -0.0069425465 0.041937243 -0.064539865 -0.0064172833
000090 3e 0f 81 bd 96 c7 9b bc 5d 95 12 bd 10 2a 52 3b
       -0.06301735 -0.019016068 -0.035786975 0.0032068528
0000a0 6c 52 7d 3d 23 f3 ac bd dc c0 36 bd e9 13 ab 3d
       0.06184618 -0.08444812 -0.04461752 0.08353407
0000b0 6a 0f 87 bc a1 73 68 bd 12 31 94 3d c7 ff 02 be
       -0.016486842 -0.056750897 0.07235922 -0.12792884
0000c0 53 b5 b0 3d 46 20 c8 3d 3c 6f bb bc 09 8b 74 bc
       0.08628335 0.09771781 -0.02288019 -0.014925727
0000d0 d0 8a b4 3d 6c 42 ac 3b 90 c9 30 3c 1e 3c 3c bc
       0.08815539 0.0052569415 0.010790244 -0.011488942
0000e0 8b cb 81 3d 76 14 9d 3d a6 9f 55 bc 53 c5 a0 3c
       0.06337651 0.07669918 -0.013038551 0.019625342
0000f0 ad 4d 26 3d 25 30 e5 3d 75 5d ec 3d e4 0e 92 bd
       0.04060142 0.111908235 0.11541263 -0.071317464
000100 28 67 04 3d 12 fa 02 3d 4a 02 c3 bd c0 7d b5 bd
       0.03232494 0.031976767 -0.09521921 -0.088618755
000110 fd ca b2 bd c4 7a 3e 3d 00 cc f7 bd b3 4d 7e 3d
       -0.08730123 0.046503797 -0.12099457 0.06208582
000120 ee 29 b1 3b 1d ae f0 bd c8 09 7a bd 50 b9 93 3c
       0.0054066097 -0.117519595 -0.061044484 0.0180327
000130 ce 42 1d 3d b9 1f 8e bd a2 6a cd 3d ca cd 50 bd
       0.038393788 -0.06939644 0.10030104 -0.050977506
000140 66 23 27 bd e3 3c e3 bc 11 07 54 3d 3d 39 f0 3d
       -0.040805243 -0.027738994 0.05176455 0.11729667
000150 a6 89 cf bc 20 e8 58 bc 8d 5f 44 3d 4a 71 8f 3d
       -0.02533419 -0.013238937 0.047942687 0.0700403
000160 f1 14 8c 3b 95 76 81 bd e0 4e e0 3d 81 61 db 3d
       0.0042749573 -0.06321446 0.10952544 0.10711957
000170 e7 c9 3b 3d 92 da be 3d 08 ac c8 3c 58 47 80 39
       0.045846846 0.09319033 0.024496093 0.00024467218
000180 e3 d3 44 bb 99 d3 96 3d ca 4a e1 bd 17 76 8b bd
       -0.003003352 0.07364578 -0.11000593 -0.06809633
000190 1d f3 cc bd e3 d2 cc 3d 3d 18 1e bc f4 de 06 3e
       -0.10007308 0.10001161 -0.009649334 0.13170987
0001a0 97 d7 cd 3d 60 26 87 bd 93 b2 69 3d 5e ac 8b 3c
       0.10050886 -0.06599116 0.057055067 0.017049965
0001b0 c2 a4 16 3d 71 0b 1b 3d 76 c7 e8 3d bd d8 d5 3d
       0.03677822 0.03785271 0.11366169 0.1044173
0001c0 25 3e e4 bb 0d 60 8b bd 29 98 b7 3d 8d f0 b3 3d
       -0.006965416 -0.068054296 0.08964569 0.08786116
0001d0 2c 69 b7 3d 5a 7a 7a bb a4 11 3e 3b 86 83 1d 3d
       0.08955607 -0.00382199 0.0029002214 0.03845551
0001e0 bb a6 da bd 73 8d 72 3c 2a 1e 99 bd 9b ef e7 bd
       -0.106763326 0.014804232 -0.074764565 -0.11324998
0001f0 aa 02 8b bc e6 2d 9f 3b 69 6e 50 3d 78 7d d2 bc
       -0.016969044 0.0048577664 0.050886545 -0.025694594
000200 eb ef 7b 3d 74 ca ed bd f0 05 f1 3c 84 2b e5 bd
       0.0615081 -0.116108805 0.029421777 -0.111899406
000210 ae 8a 73 bd ce c7 94 3d 9c 9d ca bc 27 ad e6 3c
       -0.059458427 0.07264672 -0.024733357 0.028158737
000220 9f 1b f8 3d 48 6c a6 3c 9a 66 02 3e 7a c3 1a 3d
       0.12114643 0.020315304 0.12734452 0.037784077
000230 f0 c6 f8 bc 59 74 9d 3d dc ab fb 3d e1 e0 05 3e
       -0.030368298 0.07688207 0.12288639 0.13074066
000240 b3 f2 02 be 84 71 ec 3d 1f 84 66 bc 09 f7 49 ba
       -0.12787895 0.11545089 -0.014069586 -0.00077043526
000250 5c e3 e8 3c f8 a9 02 be 38 9c cf 3d d1 04 2a bd
       0.028428726 -0.1276015 0.10137218 -0.0415085
000260 d3 33 16 3d a5 45 00 3e b0 54 be 3a 97 8c b5 bd
       0.036670517 0.12526567 0.0014521088 -0.08864706
000270 18 24 c1 bd e8 6f 6c 3d 7d ea 87 bc cf 1b 53 ba
       -0.094307125 0.05772391 -0.016591305 -0.0008053155
000280 5e 28 a1 bd ac d4 d8 bd b6 57 b5 bd 4d f0 95 3d
       -0.078690276 -0.10587439 -0.0885462 0.07321224
000290 7e f1 0d 3d 7b 86 cd bd 08 72 bc bd c1 12 a0 bd
       0.034654133 -0.10035416 -0.09201437 -0.07816077
0002a0 b5 54 04 bc 02 ce 6b bd b6 4f 11 3d a5 07 96 3d
       -0.008076836 -0.05756951 0.03547641 0.07325677
0002b0 40 fb 54 3d b4 e3 7f bd a4 c4 29 3d af ab 80 bd
       0.051997423 -0.062473014 0.041447297 -0.06282746
0002c0 83 9c c7 3d 64 fb bc 3d 9e 26 e5 bd d1 21 28 bd
       0.09746649 0.092276365 -0.11189006 -0.041047875
0002d0 9b b9 b5 3d 59 00 ea 3d 1e f9 8d bd 47 62 f9 bd
       0.08873292 0.114258476 -0.06932281 -0.12176948
0002e0 82 da aa 3d f3 c3 52 bd b8 48 bc bd e1 1a c9 3d
       0.08342458 -0.051456403 -0.091935575 0.0981958
0002f0 c6 e3 99 bd 33 80 ce bd af 11 01 be 1a 0a 3a bd
       -0.075141475 -0.10083046 -0.12604402 -0.04541979
000300 fd d1 47 3d fb 38 d5 3d f4 b7 8b 3c 8d 58 db bd
       0.048784245 0.10411259 0.01705549 -0.10710249
000310 94 72 c9 3c 39 93 79 3d 4b 20 05 3d 97 7b e0 3d
       0.024590768 0.060931418 0.0325015 0.10961073
000320 3b a2 b0 3d 9c 87 ad bd ca ba 13 3d aa 2d 84 bd
       0.08624693 -0.08473131 0.036066808 -0.06454022
000330 12 1c 8a 3d 2b a4 28 bb 20 3f 0c bd 3a b7 40 bd
       0.06743635 -0.0025732617 -0.03423989 -0.04704974
000340 3c ad dd 3c 02 9a 05 3c c2 dc 26 bb 59 e4 76 3d
       0.027060144 0.008154394 -0.0025461172 0.060276363
000350 f4 2a d3 3d f3 29 cc bb ff f8 bc bd 73 67 60 bd
       0.10310927 -0.0062305867 -0.0922718 -0.054786157
000360 46 8b 1e 3d 26 3b d0 bd da 20 d2 bd 4e 58 d9 3d
       0.03870704 -0.10167532 -0.10260172 0.10612546
000370 76 51 0a 3c 8a dc 9c 3d 3d 19 e0 3d 06 6f bf bd
       0.008442273 0.07659252 0.10942314 -0.09347348
000380 58 61 c9 bd 91 c7 db 3d 39 80 09 be 81 c5 96 3d
       -0.0983302 0.10731424 -0.1342782 0.0736189
000390 8b 79 81 bd 97 af 3d 3c bc 31 b5 bc a1 5f ce 3d
       -0.063220106 0.011577508 -0.022118442 0.100768335
0003a0 6d d5 bc bc 46 6a 9e 3d f8 7a c0 bc 64 77 ff 3d
       -0.023050988 0.07735114 -0.023496136 0.12473944
0003b0 f2 e2 d5 3d dd d6 54 3d dc a3 f4 3c e3 2b 8d 3d
       0.10443677 0.051962722 0.02986329 0.06893136
0003c0 5e 77 7d 3d ad a3 f9 3d 86 50 80 3c 66 c6 19 bd
       0.061881416 0.12189422 0.015663397 -0.037542723
0003d0 1f ef 7f bc 6d 17 99 bd 82 7e 14 bd a4 a0 a5 bd
       -0.015620976 -0.07475171 -0.03625346 -0.080872804
0003e0 6e 67 0d bd 8e 00 47 3c da 84 85 bd 91 c7 21 bc
       -0.034522466 0.012146128 -0.0651948 -0.0098742405
0003f0 ae c9 cb 3c 89 cf ea 3d 38 45 18 bd 1d b2 8e bd
       0.024876442 0.114653654 -0.037175387 -0.06967566

convs.0.lin_r.weight f4 [256, 64]
000000 f8 56 e6 3d c2 ed ca 3d 59 8e 70 3d 61 fd f5 bb
       0.11247057 0.0990863 0.058729503 -0.0075070118
000010 51 c1 ef 3c ec a0 95 3c 01 61 49 bd d8 d2 92 bd
       0.029266985 0.01826521 -0.049164776 -0.071691215
000020 d6 80 8f 3d 0b f6 e4 bd 35 fe 87 3d 64 41 df 3a
       0.070069954 -0.111797415 0.06640283 0.0017033038
000030 a3 25 f6 bd b5 c7 a0 bd 4d 75 97 3d 0a 46 91 3d
       -0.120188974 -0.07850591 0.0739542 0.07093437
000040 3c 6b 47 3d 58 6c 65 bd 94 6f d5 3d 4a c1 d6 bc
       0.04868625 -0.056011528 0.104216725 -0.026215214
000050 c6 21 0d bd 77 5e 50 3d b0 54 06 3d a2 cd 41 3d
       -0.034456037 0.05087134 0.032795608 0.047315247
000060 6e bd 62 3d b0 bb 9d 3d b0 3c 86 bd f0 47 f2 3c
       0.055356435 0.07701814 -0.06554544 0.029575318
000070 29 63 d3 bc 23 24 eb 3c 0c 15 4f 3d a1 84 c0 bd
       -0.02580412 0.028703755 0.05055718 -0.09400297
000080 e3 7b ee bb bf de 56 3d ae 4c 6a 3c 90 2e 1b bd
       -0.007277952 0.05245852 0.014300508 -0.037886202
000090 14 63 7e bc 5b ae 20 bc 1e ab 08 bd ac 5f d5 3d
       -0.015526552 -0.009807195 -0.033366315 0.104186386
0000a0 91 b9 22 3b f3 5f 1d 3d b3 4d fd bc 76 f0 d0 3d
       0.0024829844 0.038421582 -0.030920839 0.10202114
0000b0 f9 4e de 3b b7 23 53 bc 63 75 3a bd db 38 ed bd
       0.0067843166 -0.012886933 -0.045522105 -0.1158311
0000c0 c4 70 49 bd 1b b4 17 bd 98 8b db 3d 65 02 a3 bd
       -0.049179807 -0.037036996 0.10719985 -0.07959441
0000d0 6e 73 c5 3d 57 7d ab 3c a4 ff db 3d c3 03 bb bd
       0.09641157 0.02093379 0.10742119 -0.09131577
0000e0 17 9f 83 3d 25 da b7 3d 3b 5d 20 3d f7 50 e8 3d
       0.06426828 0.08977155 0.03915141 0.11343568
0000f0 01 12 fe 3a cf a4 e0 bc f8 86 b3 3c 7b 2b f4 3d
       0.0019384028 -0.027422337 0.021914944 0.11922356
000100 0d 58 1d 3c 97 8e a9 bd 71 8e 93 bd 74 35 36 3d
       0.0096035125 -0.0827915 -0.07204903 0.04448457
000110 d2 9a 51 bd 2a d0 7a bd 86 e0 7e 3d aa 4a ca 3d
       -0.05117304 -0.061233677 0.06222584 0.09877522
000120 e6 f3 be 3d 66 33 cf bc 54 b0 da bd 10 b3 ed 3d
       0.09323864 -0.025293063 -0.10678163 0.11606419
000130 98 e6 88 bc b4 c5 67 bc 8f 31 6c 3d a5 e4 c7 3b
       -0.016711518 -0.014146257 0.05766445 0.0061002546
000140 cb dc 24 3d 02 7c c8 bd 7b 47 e0 3d b9 08 17 3c
       0.040249627 -0.097892776 0.10951134 0.009218388
000150 73 04 39 3d 24 61 0e bd 95 3f 82 3c 21 dd 34 3d
       0.04517026 -0.03476061 0.015899459 0.044156197
000160 90 36 89 bd b0 6f 9c bd 2d a4 29 bd 42 a4 e7 bd
       -0.0669986 -0.0763849 -0.041416336 -0.113106266
000170 d8 16 31 bd b9 35 ee 3d b3 29 e9 3d a5 35 1b bd
       -0.043234676 0.116313405 0.113849066 -0.037892956
000180 d9 f7 38 3d 61 6d c8 bd 93 12 07 3c 25 01 89 3c
       0.04515824 -0.09786487 0.0082441745 0.016724179
000190 de 84 3a bd 62 25 db 3d 73 2b 08 3d e3 72 7f bd
       -0.04553687 0.107004896 0.03324456 -0.062365424
0001a0 0c aa b6 bd 87 44 27 3d 26 a9 d4 bd 92 d7 de 3d
       -0.089191526 0.040836837 -0.10383825 0.108809605
0001b0 9f 3c 00 3e 72 bf 27 3b cb 99 d2 3c 70 26 78 3b
       0.12523125 0.0025596288 0.0257081 0.0037864707
0001c0 0d 4a 49 3d d8 ad 0a 3d 84 ad 87 3d 92 cb d9 3d
       0.049142886 0.033857197 0.06624892 0.10634531
0001d0 4c 26 ef bd a3 a3 cc bd 0e bb 84 3d 0d 81 33 3d
       -0.116772264 -0.09992149 0.0648099 0.043824244
0001e0 9a 29 47 3d 17 c5 46 ba 0e 26 e8 3d bc c7 db 3d
       0.04862366 -0.0007582469 0.11335383 0.10731456
0001f0 cf 3d ac bb 97 48 19 bb 04 8d 99 bd 12 3b b7 bd
       -0.0052563916 -0.0023389214 -0.074976 -0.08946814
000200 60 2f 5e bc 3e 0d 27 3c c0 a8 04 bd 72 a0 ba bd
       -0.0135611 0.010196028 -0.032387495 -0.09112634
000210 12 d7 7c bd ab 13 87 bd c8 71 e5 3d ad f0 e5 bd
       -0.061728545 -0.06595548 0.11203343 -0.11227546
000220 d5 7a da bd 11 da e0 bd d2 06 96 bd 18 cf a0 bd
       -0.106679596 -0.10979093 -0.073255196 -0.07852
000230 2a 0a 16 3b 43 bc 9b 3c ac 48 5e 3d b2 e2 72 bb
       0.0022894242 0.019010669 0.054268524 -0.003706139
000240 34 87 96 bd 1b 35 c2 3d 83 94 c9 3d 77 ee 17 3d
       -0.07350007 0.09482785 0.098427795 0.037092652
000250 e3 ba 94 bc c0 41 c5 3d 14 90 88 3d 62 02 b1 bd
       -0.01815552 0.096316814 0.06668106 -0.086430326
000260 83 a6 22 ba 66 51 16 bd 79 42 d9 3d 78 29 e4 bd
       -0.0006204622 -0.03669872 0.10608382 -0.11140722
000270 83 72 f2 bd 7e 8d 35 3d 67 db ad bd 5b fd e5 3c
       -0.118382476 0.04432439 -0.08489113 0.02807491
000280 81 3e 21 3d 78 d1 d3 bc 82 26 57 3d 4d e3 bb 3d
       0.03936625 -0.025856718 0.05252696 0.091742136
000290 f7 88 73 3a 76 62 36 bc c6 8d 7d 3d c9 14 bc bd
       0.00092901237 -0.011131873 0.061902784 -0.09183652
0002a0 bd cf 02 be b5 6e 48 3d d1 f8 bd bd d4 62 67 bd
       -0.12774558 0.048933703 -0.092759736 -0.056490734
0002b0 10 ee 9a 3d 65 5f a4 bc 48 98 9d 3d 42 72 8d bd
       0.07564938 -0.020065019 0.07695061 -0.069065586
0002c0 00 c0 39 bd 19 5c 3e bd 90 31 86 3c 11 52 d9 bc
       -0.04534912 -0.04647455 0.016381055 -0.02652839
0002d0 ce f7 6c 3d c3 95 f0 3d d3 8a c2 3d 89 0d 54 3d
       0.057853512 0.11747315 0.09499135 0.05177072
0002e0 49 52 76 bd f7 2d 12 3d 70 10 9e bd 69 c3 26 bd
       -0.060137067 0.035688367 -0.07717979 -0.0407137
0002f0 f1 cd 33 bd cd 46 6d 3c 7b 52 d7 3d b8 9a 55 bc
       -0.043897573 0.014482212 0.10513779 -0.013037376
000300 5a 6c cf bd e3 46 f3 3d 7f 3a f6 bd 67 42 bc bb
       -0.10128088 0.11878755 -0.12022876 -0.0057452205
000310 c2 bb 42 3d 3c 29 a1 bd 52 a5 1d bd 7c 94 11 3c
       0.04754234 -0.07869193 -0.03848774 0.008885499
000320 fc 86 54 bd 8f ea ce bc 9d 8a 13 bd 36 a2 92 3d
       -0.051886544 -0.02525833 -0.036020864 0.071598455
000330 0d 22 3d 3d 1d 78 84 b9 9c e9 55 3d de b1 33 bd
       0.04617505 -0.00025266493 0.05222474 -0.0438708
000340 8c e8 a2 bc bd ac b6 3d 70 a9 31 3d 26 01 c6 3d
       -0.019886278 0.08919666 0.04337448 0.09668188
000350 5e 82 8b 3c 55 0f a5 bd be 09 83 3d e7 36 01 3e
       0.017029937 -0.08059565 0.063983425 0.126186
000360 d3 30 da bd c7 32 af bc 20 e7 52 bd 58 50 1d 3d
       -0.10653844 -0.021386517 -0.05148995 0.0384067
000370 6e c7 53 bd c6 f3 9f bd f7 db 8f 3d 60 1c b8 bd
       -0.051703863 -0.07810168 0.07024377 -0.08989787
000380 8a ad e7 3d 4d f7 8d bd be 99 db bd ec 5c e3 bd
       0.11312397 -0.069319345 -0.10722683 -0.11101708
000390 8b 70 22 bd 26 ee 09 3b cf 60 78 3d d7 6e 9a 3d
       -0.03965811 0.0021046489 0.0606392 0.07540672
0003a0 83 46 49 bd 47 cb de 3d 6c 70 92 3d a0 3d cb bd
       -0.04913951 0.10878616 0.07150349 -0.099238634
0003b0 06 53 14 bd ba ba a6 bd 5e dc 83 bd 5b 0a 4c 3d
       -0.03621199 -0.08141084 -0.06438516 0.049814563
0003c0 d6 39 84 bc 32 e2 05 bd 99 ac be bd 27 0b 27 3c
       -0.01614086 -0.03268642 -0.09310264 0.01019553
0003d0 23 e0 ff 3d a8 54 16 bd d1 bc a7 3d cd ef c4 3d
       0.124939226 -0.03670183 0.08190311 0.09616051
0003e0 76 5d da 3d 27 5b cc 3c 71 4b d5 bd f9 5d d3 bd
       0.106623575 0.024945809 -0.1041478 -0.10320658
0003f0 00 93 71 3d 12 f8 80 bd 36 54 03 bb f8 19 63 bd
       0.05897808 -0.06297316 -0.0020039207 -0.055444688

convs.1.lin_l.weight f4 [64, 256]
000000 fd 5c 76 3d ab d0 7a 3d af 61 13 3d 84 30 f1 3b
       0.060147274 0.061234158 0.03598183 0.00736052
000010 c9 01 71 3d f9 04 48 bd cc 59 cd bc 81 09 17 3c
       0.058839593 -0.048832867 -0.025067233 0.0092185745
000020 af c9 4c 3d f1 72 f1 ba 80 fa 35 3d bd f9 fa bc
       0.049997028 -0.0018421096 0.04442835 -0.030636663
000030 5c 41 30 bc fb 3f 32 3d 9e e7 95 bc 09 c8 d9 bc
       -0.01075777 0.043518048 -0.01829892 -0.026584642
000040 55 58 22 3c 7d 93 77 bd 3f 9d 3f bd 70 45 1f 3d
       0.009908755 -0.06044339 -0.04678082 0.03888458
000050 ff 41 fd bc c6 f1 b0 3c 88 41 5b bd ff 89 62 bd
       -0.030915258 0.021599662 -0.053529292 -0.055307385
000060 aa 73 0c bd f0 3c 3b bc 9b 58 75 3d 36 7b f4 3c
       -0.034289993 -0.011428103 0.059898954 0.029843908
000070 91 33 41 bd 34 d6 da bc 1a 8e 36 3d a5 46 6b bc
       -0.04716832 -0.026713468 0.044569112 -0.014360105
000080 7f d2 18 bc c6 e7 87 bc 2e fb 51 bd 57 a1 2f bc
       -0.00932753 -0.01659001 -0.051264934 -0.010719619
000090 38 62 04 bd 22 40 72 bd 66 75 93 bc 75 38 1e bd
       -0.03232023 -0.059143193 -0.018000316 -0.03862806
0000a0 8a b4 a0 3c 08 bd 5a bb 3b 29 64 bd f1 93 21 bb
       0.019617338 -0.0033376832 -0.055703383 -0.002465483
0000b0 31 60 53 bd b3 c0 bc bc 0c d2 45 3d c9 15 c5 3c
       -0.051605407 -0.023041105 0.04829602 0.02405824
0000c0 95 b1 40 3c 3b 3a 1c bc f0 de 5b bd 0c 09 d0 3c
       0.011761089 -0.009535368 -0.053679407 0.025394939
0000d0 f9 e0 83 bc 17 e7 e8 3a 95 9a 84 3c 06 da 4b 3c
       -0.016098486 0.0017769065 0.016186992 0.012442118
0000e0 63 cd 10 3d 47 22 39 3d 99 e6 56 3d 84 75 84 3b
       0.035352122 0.045198705 0.05246601 0.0040423293
0000f0 07 a0 aa bb 07 ec 07 3d 49 b8 33 3d 2b 2d ff bc
       -0.005207065 0.033184078 0.04387692 -0.031149467
000100 f0 77 ed 3b b6 8f 53 3d 74 88 33 bd 98 2b c3 3c
       0.0072469637 0.051650725 -0.043831304 0.023824498
000110 fe a8 27 3d db 61 14 3c b7 1c 8c bc e4 52 6b 3d
       0.040932648 0.009056534 -0.017103536 0.057452098
000120 56 25 f0 3b 64 3c 85 bd 09 1b 47 bc 38 26 c0 bc
       0.0073286695 -0.06505659 -0.012152442 -0.023455724
000130 a8 f1 d0 3c ae ba 19 bd b2 62 95 bc 04 56 01 3d
       0.025505856 -0.037531547 -0.018235538 0.03157617
000140 30 ce 05 bd 87 0a b2 ba 12 4b 2b bb 4e 3a 2d 3d
       -0.03266734 -0.001358346 -0.0026137275 0.04229193
000150 5c 0f 18 bd a7 34 0f bd 03 ad 00 bc 5e c2 44 bd
       -0.037124023 -0.034962323 -0.007853749 -0.048036925
000160 cf 98 0e 3d dc ac 57 3d a2 2a d3 3c ea 46 8b bc
       0.0348137 0.052655086 0.025777165 -0.017001588
000170 00 3d d3 3c b0 23 cb bc 76 a2 ce bc ac ba 2a 3d
       0.025785923 -0.02479729 -0.025223952 0.04168193
000180 77 5c b5 3a 50 bd 5b 3c 8c e4 38 bc 17 cd 1d 3d
       0.0013836761 0.013411835 -0.011284959 0.038525667
000190 62 44 21 3d 3c d2 b7 3a 09 1f a5 3c 0b 87 92 3c
       0.039371856 0.0014024447 0.0201564 0.01788666
0001a0 2c d0 5a bb 60 1d 40 bd a8 fb 55 bd e6 95 7f bd
       -0.003338824 -0.046903014 -0.05224195 -0.062398814
0001b0 88 3f ab bc 7e b6 2a 3d fe aa 04 3c c9 af b7 bc
       -0.020904317 0.041677944 0.008097408 -0.022422688
0001c0 13 cd f5 3c 86 2e a9 3c 13 c6 7d 3c 3f ab ff bc
       0.030005014 0.020652067 0.015489119 -0.031209586
0001d0 c2 69 30 3c 7d 99 6b bd 7c b3 77 3c 76 66 74 bc
       0.010767402 -0.057519425 0.015118476 -0.014917007
0001e0 2b aa 55 bd 54 c6 96 3c 2f 1d cc bb 6e af 6d 3b
       -0.052164238 0.018405117 -0.006229065 0.0036267894
0001f0 50 fd dc b9 75 18 97 bd e8 4c 28 bc 65 1c 82 bd
       -0.00042150402 -0.07377712 -0.010272242 -0.06353072
000200 ef f8 30 3d 0a ca 17 bc 24 a3 96 bb 04 51 c3 bc
       0.04320615 -0.009264478 -0.0045970846 -0.023842342
000210 68 ea 03 3d 54 55 47 bd eb 9a 02 3d 90 d5 85 bd
       0.03220597 -0.04866536 0.031886023 -0.065348744
000220 5e cb c4 3c 1a d1 fc 3c 74 29 3d 3d 3e 06 65 bc
       0.024022754 0.030861426 0.04618211 -0.013978539
000230 04 11 98 3b ab d9 ae bc ee 0f 09 3d 1e f3 81 3d
       0.0046407003 -0.021344027 0.033462457 0.06345199
000240 b8 55 1e bd 4c 08 df 3c 9c 60 51 bb 21 9a a6 bc
       -0.038655967 0.027225636 -0.0031948453 -0.020337166
000250 39 28 e6 3c 26 1b 23 bc ae 84 2b 3c 91 2b ea bc
       0.028095352 -0.009955203 0.010468645 -0.028585227
000260 7b f4 59 bd 01 56 90 bc 7c 69 39 bd 7c fd 80 bd
       -0.05321167 -0.017619135 -0.045266613 -0.06298348
000270 62 ec 89 bd 14 df 12 3d 35 dd ae 3c 5f db 16 3d
       -0.067345396 0.035857275 0.021345714 0.036830302
000280 ef f5 62 bd f7 a9 24 3d 9a d2 2f 3d 30 a2 19 3d
       -0.05541032 0.040201154 0.042925455 0.03750819
000290 c9 e1 88 bd dc ae 1c bc 23 f0 32 3d e6 eb 8b bd
       -0.0668369 -0.009563174 0.043686043 -0.068321034
0002a0 fa 6d ac 3c 91 48 26 3d d1 93 d8 bc ba 26 d0 bc
       0.021048535 0.04059655 -0.026437672 -0.025409091
0002b0 21 ac d4 bc 30 f5 2c 3d f2 c2 e8 bc 17 3e a5 bb
       -0.025960984 0.042226017 -0.02841327 -0.005042802
0002c0 13 53 21 3d 9b 87 bf b9 c2 a8 7e 3d 02 77 7d bc
       0.039385866 -0.00036531393 0.06217266 -0.015470268
0002d0 cb 38 39 bd 19 83 95 3c c7 12 0d 3b 84 82 73 3d
       -0.045220178 0.018250989 0.0021526085 0.05945064
0002e0 31 5c 37 3d 8f cb 18 3d 39 9d 16 3d 07 77 2f 3d
       0.044765655 0.037303504 0.036771033 0.042838123
0002f0 a9 04 4e bd 56 70 a2 3b d8 5f 6b 3d 00 d8 64 3d
       -0.050297413 0.004957239 0.05746445 0.055870056
000300 05 a4 5f 3c 58 5a d0 bc e9 4c 80 3d 4d 10 32 bd
       0.013649945 -0.025433704 0.062646694 -0.043472577
000310 73 3b 84 bd 35 fa 5f bd 50 38 1e 3c 17 4c 56 bd
       -0.064566515 -0.054681975 0.009656981 -0.05231866
000320 8f a6 e6 b9 1d 29 bd 3c 4e 22 a5 3c 60 7d d5 3c
       -0.00043993114 0.023090893 0.02015796 0.02606076
000330 e2 1f 55 3d 5d 6f 8f bc 50 50 12 bd 2c ff 8c bc
       0.05203236 -0.017509157 -0.035721123 -0.01721152
000340 b3 b8 a3 bb 3b 6f 76 bd 36 aa 91 bc 46 c4 21 3d
       -0.004996383 -0.06016467 -0.017781358 0.03949382
000350 bc d2 2f bd 8b df c7 3c e6 cf fc 3c 7d 03 89 3c
       -0.04292558 0.024398586 0.030860852 0.016725296
000360 29 40 2b bc 56 90 e7 bc 8f 59 de 3c 20 5a 97 3c
       -0.010452309 -0.028267067 0.027142314 0.018475592
000370 16 98 28 bd 66 90 51 bc 04 b9 57 3c 27 30 c9 bb
       -0.041160665 -0.012790775 0.01316667 -0.0061397734
000380 32 5b 40 3d 76 b2 35 bd 4c 5b e4 3c a8 c9 be 3c
       0.04696197 -0.044359647 0.027875565 0.023289517
000390 93 be 8b bc 27 e1 ee 3c da b7 a6 bc 25 63 fa bb
       -0.017058646 0.029160095 -0.02035134 -0.0076412135
0003a0 18 25 c8 bc d4 34 a9 3c f8 3e 02 3d 42 83 3d 3d
       -0.02443175 0.020655073 0.031798333 0.046267755
0003b0 72 d8 15 bd 29 2b 43 3d c2 02 bd ba 33 cd b6 3c
       -0.03658337 0.047648583 -0.0014420378 0.022314643
0003c0 c6 25 10 bd af b4 e4 3a 78 0b 24 3d 8b 0e 7a 3d
       -0.035192274 0.0017448867 0.04005 0.061049026
0003d0 15 08 2b bd d8 5f 4f 3d 09 84 60 bd cf 1b 5f bd
       -0.041755755 0.050628513 -0.05481342 -0.05446988
0003e0 43 6d 96 bb 4d 4e 52 bc 7a b4 37 3c e2 9d 2d bc
       -0.0045906617 -0.012836051 0.011212463 -0.010596724
0003f0 a5 94 f4 3c c1 a6 cc 3a 73 0a b1 bc 58 1d 82 bd
       0.029856035 0.0015613661 -0.021611428 -0.06353253

convs.1.lin_l.bias f4 [64]
000000 74 f0 9d bb 21 92 33 bd c6 15 11 bd 0c fb 0f 3d
       -0.004819924 -0.04384053 -0.035421155 0.035151526
000010 c7 ca c3 3c f0 40 d7 3c 5a 55 1b 3c 8c cc 7a bd
       0.023900403 0.026276082 0.009480799 -0.061230227
000020 23 44 8e bd db 88 21 ba 17 cd 1d bd 04 83 4e 3d
       -0.0694659 -0.00061620557 -0.038525667 0.050417915
000030 c0 ec a3 3c 96 87 2a 3d f0 a0 86 3c 17 49 0d 3c
       0.020010352 0.04163321 0.016434163 0.008623383
000040 c4 98 57 3d 31 08 9a 3c 55 82 31 3d 9b 66 3a bd
       0.052635923 0.018802734 0.043337185 -0.04550801
000050 3f 1f d8 3c d9 45 41 bd bb 20 08 bd 87 80 52 3d
       0.026382087 -0.047185753 -0.03323434 0.051392104
000060 30 90 5d 3c b7 07 46 bc 1e 9c 6a 3c a8 8f 49 bd
       0.0135231465 -0.0120868 0.014319448 -0.049209267
000070 66 75 3e 3d 70 95 10 bd 65 97 c5 3c 5e 77 2a bd
       0.04649868 -0.035298765 0.024120042 -0.041617744
000080 f6 24 be 3c 3d 01 73 bc 1a 26 13 bd 56 72 c6 bb
       0.023210984 -0.014831838 -0.03592501 -0.0060561104
000090 8a db 6e bd fa 11 1d bd f9 5e 85 bc f8 fb c3 3b
       -0.058314838 -0.038347222 -0.016280638 0.0059809648
0000a0 e6 05 63 bd 42 1a 91 bc d1 4e 9a 3c 52 6d 33 bd
       -0.055425547 -0.017712716 0.01883641 -0.043805428
0000b0 e8 48 ed 3c fd 4f 14 bc 6b c5 6b bc fe a6 1e bd
       0.028965428 -0.009052274 -0.01439033 -0.038733475
0000c0 2d a3 26 bb 63 8f 40 bd 6d 7b a7 bc d0 95 51 bd
       -0.002542685 -0.047011744 -0.020444596 -0.051168263
0000d0 58 6d de 3c 6c c6 40 3d e5 b6 b8 bc e8 4b 3c 3d
       0.027151749 0.04706423 -0.022548148 0.045970827
0000e0 69 de 48 3d 47 4f 10 bd 05 d6 17 3d bd cf 25 bd
       0.04904023 -0.035231855 0.03706934 -0.040481318
0000f0 0b 12 45 bb 8a 49 12 3c 84 5d a8 3c 89 bd 44 bc
       -0.003007057 0.008928666 0.020552404 -0.012008079

convs.1.lin_r.weight f4 [64, 256]
000000 ab 30 66 bd 78 3d 4b 3b a8 20 22 bd 0b 7e a6 3c
       -0.056198757 0.003101198 -0.039581925 0.020323774
000010 2a 9f f2 bc 79 ff 14 3d 92 bd d9 b9 c8 66 f0 3c
       -0.029616911 0.03637645 -0.00041530706 0.029345885
000020 b4 6a 76 ba 61 7f 43 bd 08 b5 a0 3c f4 5d 14 bb
       -0.0009400055 -0.0477289 0.019617572 -0.0022639008
000030 45 de fd 3c 18 06 7e bd aa 2e f9 3c 88 04 43 bd
       0.030989775 -0.06201753 0.030417759 -0.047611743
000040 2e 9d 3b 3d fa 02 52 bd bc 39 0a bd e3 07 4b bd
       0.045804195 -0.05127237 -0.033746466 -0.04956807
000050 8d 81 75 bc 1f 55 9b bc 47 ec 84 3c 86 1b b4 bc
       -0.014984501 -0.018961487 0.016225947 -0.02198578
000060 28 41 0a bd a2 d1 2b 3d b6 4e b0 bc b7 72 f7 3b
       -0.033753544 0.04194797 -0.021521907 0.007551517
000070 ec b5 f1 3c 95 d2 09 3d 0a c4 61 bd e4 d0 12 3d
       0.029505692 0.033648092 -0.055118598 0.035843745
000080 c0 a1 68 bd 01 06 50 3d 54 1c bb bc 29 07 ea 3c
       -0.05679488 0.050786976 -0.022840656 0.028567867
000090 4e 1a 41 3d 02 ab ba bc 78 d9 bb bc 6e 10 86 bd
       0.047144227 -0.022786621 -0.022930846 -0.065461025
0000a0 d3 0e 18 3c b4 c8 f0 bc df 73 4c 3d ab 0e 58 bd
       0.009280878 -0.029392578 0.04991519 -0.052748363
0000b0 44 3b 66 bd 18 45 b0 bc 1b ca 62 3b 47 95 31 3c
       -0.056208864 -0.021517321 0.0034605328 0.010838813
0000c0 e8 44 5e 3d f6 ea f0 3c 48 fa 8f bb 9e 61 85 ba
       0.054264933 0.029408913 -0.0043938495 -0.0010176187
0000d0 8a 12 20 3d 35 99 24 bd dc 9b 56 bd f4 d2 5b bd
       0.03908018 -0.040185172 -0.052394733 -0.053667977
0000e0 98 a7 a2 bb ec 12 ab 3c 78 2b 30 3d 6f 4a 8e bd
       -0.0049638264 0.020883046 0.043010205 -0.06947791
0000f0 33 b9 81 bc e3 3b 4b 3d 03 23 53 bd 1a 74 57 3d
       -0.01583538 0.04961766 -0.05154706 0.052600957
000100 4f de c4 bc 45 3e 5f bd 43 77 33 bd 0d c6 22 bd
       -0.024031786 -0.054502744 -0.04381491 -0.039739657
000110 14 52 55 3d 19 bb 0d 3d cd 08 33 bd 7e eb 3c 3d
       0.05208023 0.03460226 -0.043709565 0.04612302
000120 0b 92 7f bd d5 77 4a bb 39 bc 15 bc a4 b0 da bc
       -0.062395137 -0.003089418 -0.009139114 -0.026695557
000130 1e a2 42 3d b5 ff b8 3c 79 16 2d 3d 57 00 d2 bc
       0.04751789 0.022582868 0.04225776 -0.025634928
000140 80 2a fc 3b 58 e0 61 bd ea 47 59 3d d0 a6 4f 3c
       0.007695496 -0.05514559 0.0530471 0.012674049
000150 0b 30 ef bc b7 b3 b9 bc 2d 51 84 bd b7 e3 43 bb
       -0.029197713 -0.022668703 -0.064607956 -0.0029890367
000160 ad 91 76 bd 87 9c 44 3d 74 ff 82 bc a2 5e c8 3b
       -0.06019752 0.04800084 -0.01599095 0.0061147967
000170 91 85 7f 3c 38 f2 8b 3d 8f 23 2c bd db d5 bc bc
       0.01559581 0.06833309 -0.0420261 -0.023051193
000180 58 93 42 bd de 66 33 bd 3a d2 29 3c 46 38 1b 3d
       -0.0475038 -0.043799274 0.010365063 0.037895463
000190 fa df ef bb 70 5e 46 3d 20 c8 59 3d 80 8d 62 bb
       -0.0073204013 0.048429906 0.05316937 -0.0034569204
0001a0 e3 fc 70 ba 97 85 47 bd 9a 61 47 3d 74 bf 03 bd
       -0.00091929565 -0.048711386 0.048677064 -0.032165006
0001b0 fa 63 aa 3c 81 06 6e 3b b8 d4 7f 3c 40 94 21 3d
       0.020799626 0.0036319795 0.015614681 0.039448023
0001c0 e4 f9 04 3d 0f 2c 4d bd cd eb f0 bc 16 9a 41 3c
       0.032464877 -0.050090846 -0.029409314 0.011816522
0001d0 48 44 ef bb 10 cd 46 bd ef 80 83 ba 2d e6 d1 3b
       -0.007301841 -0.048535407 -0.0010032932 0.006405613
0001e0 8d 17 0d 3d e9 74 38 bc b2 0b 01 bd 48 e9 48 bb
       0.034446288 -0.011258342 -0.031505294 -0.0030656625
0001f0 ba 7f a4 3b 85 9d 36 3d 7d 9a 2e 3d 21 d6 f2 3c
       0.005020109 0.044583816 0.0426278 0.02964312
000200 97 a5 53 bb f8 2f d1 bc ab da b2 bb 01 7a 8e bb
       -0.0032294744 -0.025535569 -0.005458196 -0.00434804
000210 86 95 47 3c ce f4 b7 3c db 03 25 3c e8 6c fc 3a
       0.012181645 0.0224556 0.01007172 0.0019258531
000220 90 26 36 bd 28 57 52 3d 00 f1 df 3c 4b 2a 16 bd
       -0.04447037 0.05135265 0.027336597 -0.036661427
000230 97 5a 44 bd d6 bc f8 bc 63 82 25 3d bb 70 34 bc
       -0.047937956 -0.030363481 0.04040755 -0.011013205
000240 81 f2 34 bd d5 8a 0b bd 1e 4d 94 3c 46 15 f8 bc
       -0.044176582 -0.034067947 0.018103179 -0.030283581
000250 11 91 3b bd b7 57 0c 3c 6a 83 f5 bc 6c fd bd 3b
       -0.045792643 0.008565835 -0.02996989 0.0057980325
000260 09 6a ef 3c d0 cf a8 3c 55 1d 02 bd 40 2b 39 3c
       0.029225366 0.020606905 -0.031766254 0.0113018155
000270 f7 4d 72 bd 10 e8 0c bd 08 ab 6b bd 02 48 ed 3c
       -0.059156384 -0.034401 -0.057536155 0.028965
000280 b2 d1 8b bb 60 98 2c 3d 3c be 71 bd ff b2 96 bc
       -0.004266941 0.042137504 -0.059019312 -0.018395899
000290 8e 56 c5 bc b3 12 19 bd cb 24 12 bd fa ac d2 3c
       -0.024089124 -0.03737135 -0.03567962 0.025717247
0002a0 78 2c 09 bd e7 8e 43 bd 21 44 ee 3b 32 b1 1c bd
       -0.033489674 -0.047743704 0.007271305 -0.038254924
0002b0 01 2a 16 3d b6 39 4b bd 05 21 7c 3d 7e 73 64 bc
       0.03666115 -0.049615584 0.061554927 -0.013943551
0002c0 a8 fe 4f 3c 3e eb ad bc 01 fa e8 3c 15 f7 cf bc
       0.012694992 -0.021230336 0.028439524 -0.025386373
0002d0 57 5e 60 bd 0f b6 40 3d ca c3 ee bb 60 84 f9 38
       -0.05477747 0.047048625 -0.0072865235 0.00011897902
0002e0 66 b8 f0 bb 76 2d 61 bd f9 85 25 bc 6f bb f0 bc
       -0.0073462008 -0.054974996 -0.010102742 -0.02938625
0002f0 a5 8c 00 bd 7d b5 07 3d bd 3a c0 3c fe 57 3c 3d
       -0.03138413 0.033132065 0.023465509 0.045982353
000300 ad 13 2f bd f4 45 6e 3d 49 68 36 3c 15 f8 7c 3d
       -0.042743374 0.05817218 0.011133262 0.061760027
000310 6a 9c 93 3a 0f 4d 60 bc 44 3e 26 bc c2 9a 67 bd
       0.0011261825 -0.013690247 -0.010146681 -0.056544073
000320 c8 b1 54 bd 87 df 25 3d 7b e8 55 3d 4f ee 75 3d
       -0.051927358 0.040496375 0.052223664 0.060041722
000330 9b 8c 27 bd 71 a7 5c bc b9 8c 84 3d 04 39 00 3d
       -0.040905576 -0.0134676555 0.06472153 0.031304374
000340 9b 40 62 bd df 35 17 3d bc 4c 83 3c 65 db 5c 3d
       -0.055237394 0.03691661 0.0160278 0.05392017
000350 48 cf 57 3b 90 45 ca 3c 6a ce 40 bc 8e 16 80 bc
       0.0032929946 0.024691373 -0.011767963 -0.015635755
000360 1e 91 e1 3c 62 2a 3d bd 0c 91 82 3d e0 2c 97 ba
       0.027535018 -0.046182998 0.06375322 -0.001153376
000370 1e a0 ed 3c 71 58 e9 bb d5 09 da bb b7 f9 77 3c
       0.029007014 -0.0071211387 -0.006654004 0.01513522
000380 e1 97 ab bc cb b7 2c bd 2f 80 06 bc 21 db 22 3d
       -0.020946445 -0.042167466 -0.008209272 0.03975976
000390 13 4a 84 3c 90 a4 04 3d 75 3e 10 3d 5c 47 cf 3c
       0.016148603 0.0323835 0.035215814 0.025302581
0003a0 33 de 32 bd ad 96 64 3d a5 47 c4 bc d3 ae bf 3c
       -0.043668937 0.055807758 -0.023959944 0.023398792
0003b0 b3 74 d5 bc 7e 65 77 bd 67 e7 38 3d 1d 5f c1 3c
       -0.026056623 -0.060399525 0.045142557 0.023604924
0003c0 4d 3e 90 bc b0 cd 62 bd 5f 6f 43 bb dc 55 57 bc
       -0.017607832 -0.05537194 -0.002982102 -0.013143029
0003d0 dd 52 0f 3d 0a bd 11 bc eb a7 52 bd b8 cf 20 3d
       0.034991134 -0.008895168 -0.05142967 0.039260596
0003e0 d4 e3 70 bd 25 4a 8e 3c 80 ab 21 3c 0e b4 f3 bb
       -0.058811024 0.01736934 0.009867549 -0.0074372357
0003f0 fd b2 2d 3d ee 79 f8 bc 92 ca 01 bd a9 56 27 3d
       0.042407025 -0.030331578 -0.031687327 0.04085413

bns.0.weight f4 [256]
000000 bf 0c 7f 3f 20 33 7e 3f 69 7a 7f 3f 0b 0c 80 3f
       0.99628824 0.9929676 0.9979616 1.0003675
000010 88 e1 7f 3f 21 f0 7e 3f c6 1a 7f 3f 5c c8 7e 3f
       0.9995351 0.9958516 0.9965023 0.99524474
000020 08 27 7e 3f 1e 36 7d 3f 6b 29 7c 3f cb 87 7e 3f
       0.99278307 0.989107 0.985007 0.99425954
000030 d1 78 7e 3f 3a df 7f 3f e6 1c 7e 3f 9d a1 7d 3f
       0.994031 0.9994999 0.99262846 0.9907473
000040 4a 77 7f 3f cc b1 7d 3f 2d 5c 7f 3f 5e 5b 7e 3f
       0.99791396 0.9909942 0.99750024 0.99358165
000050 ec 93 7e 3f ce e3 7e 3f 90 9e 7e 3f 4a 0a 80 3f
       0.9944446 0.9956635 0.994607 1.000314
000060 9d 52 7f 3f fc cb 7b 3f cd 6b 7f 3f 62 c4 7f 3f
       0.9973543 0.9835813 0.99773866 0.9990903
000070 66 31 7e 3f e2 e9 7d 3f 69 73 7f 3f e1 d6 7f 3f
       0.99294126 0.99185 0.99785477 0.99937254
000080 c4 12 7e 3f 95 10 7e 3f 75 df 7e 3f ad 9a 7c 3f
       0.99247384 0.9924405 0.9955972 0.98673517
000090 f3 08 7f 3f 2a 8e 7d 3f e1 7e 7c 3f af 48 7e 3f
       0.9962303 0.9904505 0.986311 0.99329656
0000a0 43 30 80 3f b7 bc 7e 3f f5 e7 7c 3f 93 03 7e 3f
       1.0014728 0.99506706 0.9879144 0.99224204
0000b0 5d ef 7c 3f 9f e8 7d 3f 76 02 7e 3f aa 38 7e 3f
       0.9880274 0.99183077 0.99222505 0.9930521
0000c0 45 0a 7d 3f 41 c7 7f 3f c3 9b 7f 3f 76 96 7e 3f
       0.98843795 0.9991341 0.9984705 0.99448335
0000d0 6c 08 7e 3f df e7 7b 3f aa f7 7e 3f c5 0c 7e 3f
       0.992316 0.9840068 0.99596655 0.99238235
0000e0 3e a1 7d 3f f7 aa 7e 3f ae c8 7d 3f 6b 40 7e 3f
       0.9907416 0.9947962 0.9913434 0.99317044
0000f0 e7 2a 7d 3f 1a cf 7d 3f de d1 7d 3f c9 37 7f 3f
       0.9889359 0.99144137 0.99148357 0.99694496
000100 9d 52 80 3f 57 6c 7d 3f 42 52 7f 3f bf 22 7e 3f
       1.0025212 0.9899344 0.9973489 0.9927177
000110 0b f0 7d 3f 48 ac 7e 3f 86 b3 7e 3f 8f 41 7e 3f
       0.991944 0.9948163 0.9949268 0.99318784
000120 26 05 7f 3f 66 9a 7e 3f d1 57 7f 3f 5a b1 7c 3f
       0.9961723 0.99454343 0.9974337 0.98708117
000130 11 69 7c 3f 25 4b 7f 3f 90 39 7e 3f ce 29 7f 3f
       0.9859782 0.99724036 0.99306583 0.99673164
000140 73 93 7e 3f 0f bd 7d 3f fd a9 7d 3f 7c 20 7f 3f
       0.9944374 0.99116606 0.99087507 0.9965894
000150 14 00 7e 3f a2 00 7f 3f c7 9d 7e 3f 79 52 7d 3f
       0.9921887 0.9961034 0.994595 0.9895397
000160 21 cc 80 3f f6 74 7f 3f 78 b5 7d 3f b2 bc 7c 3f
       1.0062295 0.99787843 0.99105024 0.98725426
000170 77 12 7e 3f 82 ef 7c 3f f4 27 7c 3f 0f ed 7d 3f
       0.99246925 0.9880296 0.98498464 0.9918985
000180 05 11 7f 3f 75 fb 7e 3f a8 53 7e 3f b9 ee 7c 3f
       0.99635345 0.9960244 0.993464 0.9880176
000190 38 43 7e 3f 3d 7b 7f 3f d3 ff 7e 3f 24 ed 7d 3f
       0.9932132 0.9979742 0.99609107 0.9918997
0001a0 95 a5 7f 3f a9 5f 7e 3f 5a dd 7f 3f ba 91 7e 3f
       0.99862033 0.99364716 0.9994713 0.9944111
0001b0 d1 38 7d 3f 05 eb 7e 3f dc a6 7c 3f 15 2e 7f 3f
       0.9891482 0.9957736 0.9869211 0.9967969
0001c0 c4 5d 7e 3f 6a 49 80 3f 6c e5 7f 3f fe 4c 7e 3f
       0.99361825 1.0022404 0.99959445 0.9933623
0001d0 54 8c 7d 3f 86 49 7d 3f b0 bd 7d 3f 21 58 80 3f
       0.9904225 0.9894031 0.99117565 1.0026895
0001e0 fe b6 7d 3f 60 78 7f 3f ce 00 80 3f 0b fe 7c 3f
       0.9910735 0.9979305 1.0000246 0.9882514
0001f0 72 c7 7e 3f 63 a3 7d 3f e0 9e 7e 3f 25 5f 7f 3f
       0.9952308 0.99077433 0.99461174 0.99754554
000200 fd d9 7d 3f 54 78 7c 3f 35 b1 7d 3f f6 74 7f 3f
       0.9916075 0.98621106 0.9909852 0.99787843
000210 b4 26 7d 3f 89 44 7e 3f 1e 51 7d 3f 6c bd 7e 3f
       0.9888718 0.99323326 0.989519 0.99507785
000220 46 b1 7e 3f 31 21 7f 3f 9d d8 7d 3f 5e be 7d 3f
       0.9948925 0.9966002 0.9915865 0.991186
000230 aa cb 7d 3f 82 40 7e 3f 73 50 7c 3f 14 b3 7d 3f
       0.9913889 0.9931718 0.98560256 0.99101377
000240 7e 84 7d 3f bc a7 7c 3f 67 d0 7e 3f c1 c7 7d 3f
       0.9903029 0.9869344 0.99536747 0.99132925
000250 b1 3c 7c 3f 18 24 80 3f 5a 02 7f 3f b7 74 80 3f
       0.9853011 1.0011015 0.99612963 1.0035619
000260 28 8e 7f 3f 91 fd 7c 3f 5d 5e 7d 3f 88 ef 7e 3f
       0.9982629 0.9882441 0.9897211 0.99584246
000270 b0 9b 7e 3f 95 e0 7e 3f 83 68 7e 3f 92 9b 7e 3f
       0.9945631 0.99561435 0.9937822 0.9945613
000280 cb a4 7e 3f 0d 8b 7e 3f 04 33 7e 3f ae 85 7d 3f
       0.99470204 0.99430925 0.99296594 0.99032104
000290 e1 29 7d 3f 7c 6b 7f 3f 48 cb 7e 3f bd 81 7d 3f
       0.9889203 0.99773383 0.9952893 0.9902609
0002a0 e5 52 7e 3f 1a ef 7f 3f 34 09 7e 3f 9d 13 7f 3f
       0.99345237 0.99974215 0.9923279 0.996393
0002b0 48 e5 7e 3f d1 9a 7d 3f df 17 7f 3f 40 06 7d 3f
       0.99568605 0.99064356 0.996458 0.9883766
0002c0 35 2b 80 3f 0d 97 7e 3f 1b 6e 7e 3f 6e a5 7d 3f
       1.0013186 0.99449235 0.9938676 0.9908055
0002d0 a2 9a 80 3f 85 d7 7e 3f 30 b4 7f 3f 7c a4 7e 3f
       1.004719 0.99547607 0.9988432 0.99469733
0002e0 44 f6 7e 3f 0d d7 7e 3f 53 c4 7f 3f 39 82 7c 3f
       0.9959452 0.9954689 0.9990894 0.98636204
0002f0 12 0f 7e 3f 34 b0 7e 3f 44 02 7e 3f 2f 64 7e 3f
       0.99241745 0.99487615 0.9922221 0.9937162
000300 a1 42 7f 3f d7 d0 7d 3f ec 1a 7f 3f e4 19 7d 3f
       0.9971104 0.9914679 0.99650455 0.9886763
000310 af b5 7e 3f 23 fa 7c 3f 9f 0e 7f 3f f0 4c 7c 3f
       0.9949598 0.9881918 0.99631685 0.985549
000320 34 05 7f 3f 0e 6e 7d 3f d2 d8 7b 3f 44 d7 80 3f
       0.99617314 0.98996055 0.98377717 1.0065694
000330 ec ad 7f 3f 91 bb 7d 3f 47 79 7e 3f cf f8 7d 3f
       0.9987476 0.9911433 0.99403805 0.99207777
000340 42 c1 80 3f 62 45 7c 3f c6 5b 7f 3f 35 ca 7c 3f
       1.0058978 0.9854337 0.9974941 0.98746043
000350 c9 f1 7d 3f 10 39 80 3f f5 40 7e 3f 5e 29 7f 3f
       0.9919706 1.0017414 0.99317867 0.99672496
000360 bf 76 7e 3f 48 63 7f 3f 5b fb 7e 3f f9 02 7f 3f
       0.9939994 0.99760866 0.9960229 0.9961391
000370 45 62 7e 3f 39 c7 80 3f 17 f2 7f 3f e2 f3 7c 3f
       0.993687 1.0060798 0.99978775 0.98809636
000380 e8 4b 7d 3f 7b e8 7e 3f a6 7d 7e 3f bf 15 80 3f
       0.9894395 0.9957349 0.99410474 1.0006636
000390 bb 24 80 3f a9 0d 7e 3f e0 31 7d 3f 22 b9 80 3f
       1.0011209 0.99239594 0.9890423 1.0056498
0003a0 9d fd 7c 3f 72 ff 7d 3f 13 dc 7d 3f e8 3e 7e 3f
       0.98824483 0.99217904 0.9916393 0.9931474
0003b0 67 41 7d 3f cc c2 7d 3f 05 8f 7d 3f 74 4c 7e 3f
       0.9892792 0.9912536 0.99046355 0.9933541
0003c0 41 7a 7e 3f 21 92 7d 3f f1 03 7e 3f b9 12 7f 3f
       0.99405295 0.990511 0.99224764 0.99637944
0003d0 dd 68 7f 3f 8e 67 80 3f 38 2e 7f 3f d5 4e 7f 3f
       0.99769384 1.0031602 0.996799 0.99729663
0003e0 77 4a 7f 3f c5 f8 7d 3f 4f 7d 7e 3f 0d c1 7e 3f
       0.99723 0.9920772 0.99409956 0.9951332
0003f0 34 6e 7d 3f 10 65 7f 3f e8 b9 7f 3f 7f 80 7e 3f
       0.9899628 0.99763584 0.99893045 0.9941482
