output/oi/prev_e2v/run_002/prev_oi_best_model_e2v.pth (torch, 404149 bytes, 14 tensors)

convs.0.lin_l.weight f4 [256, 128]
0	0xbc406d41	-0.011744798
1	0x3c31113d	0.010807333
2	0x3cb5a39d	0.022172743
3	0x3c2f61ef	0.0107045015
4	0x3dad85f3	0.084728144
5	0xbda18c7c	-0.078881234
6	0xbd1e2b2a	-0.038615383
7	0xbd5c355c	-0.053761825
8	0x3d32ed0e	0.043683104
9	0x3d8e0307	0.06934171
10	0xbdac1f58	-0.08404416
11	0x3c201395	0.009770294
12	0xbc63742d	-0.013882679
13	0x3c2e0f72	0.0106238
14	0x3c269b23	0.010168823
15	0xbca6aebd	-0.020346994
16	0xbd9bee31	-0.07613791
17	0xbc318ce3	-0.010836813
18	0xbcc2b5b0	-0.023768276
19	0x3d5da11d	0.054108728
20	0xba2423e9	-0.00062614545
21	0x3cfe555b	0.03104656
22	0xbd3b5979	-0.045739625
23	0x3db4b4f4	0.088235766
24	0x3d840c5a	0.064476684
25	0x3cf15d78	0.029463515
26	0x3d84c247	0.06482368
27	0xbc827cdd	-0.01592868
28	0x3d9c751f	0.076395266
29	0x3da854c1	0.082192905
30	0xbdb16ff7	-0.08663934
31	0x3b20c926	0.0024533956
32	0xbd87d6e6	-0.066327855
33	0x3ced6aae	0.028981533
34	0x3d813be0	0.063102484
35	0xbd13d2e7	-0.036089804
36	0xbd815259	-0.06314535
37	0xbd56aa80	-0.052408695
38	0xbd8f4b41	-0.069967754
39	0x3d6c6603	0.057714473
40	0x3d4bcd15	0.04975613
41	0xbd104aac	-0.035227463
42	0x3c94f80d	0.018184686
43	0x3cf00580	0.029299498
44	0xbd8df876	-0.06932156
45	0xbd5914fa	-0.05299852
46	0x3d2bfd19	0.04198942
47	0x3d8b6a9f	0.06807446
48	0xbd1b4f3f	-0.03791737
49	0xbd54c876	-0.051948987
50	0x3d5ec16e	0.054383688
51	0x3d8b5423	0.06803157
52	0x3d889617	0.06669252
53	0xbc9371a4	-0.017998524
54	0xbd0c0b80	-0.034190655
55	0x3d2b739c	0.0418583
56	0xbd0e1524	-0.03468813
57	0xbd397565	-0.04527797
58	0x3d6257d9	0.05525956
59	0x3cda80dc	0.026672773
60	0x3d1d1e33	0.03835888
61	0x3c976fc8	0.018485919
62	0x3d3fe785	0.046851654
63	0xbd55bb48	-0.05218056
64	0x3daeb3bf	0.085303776
65	0xbc8aa47d	-0.016924137
66	0x3d996c10	0.074913144
67	0x3d935616	0.07194154
68	0x3ccb14e5	0.024790237
69	0x3d88c86f	0.06678855
70	0x3d36471b	0.044501405
71	0x3d7ae72a	0.06125561
72	0xbcbbfd3f	-0.022947906
73	0x3cb51d2b	0.022108635
74	0xbd14bc2d	-0.03631227
75	0xbdb1034c	-0.08643207
76	0x3d826b05	0.063680686
77	0xbad050fe	-0.0015893278
78	0xbd7b2c33	-0.06132145
79	0xbbf99634	-0.0076167826
80	0xbc0f14fd	-0.008733031
81	0x3bb19c6a	0.0054202573
82	0xbc77308d	-0.015087259
83	0xbdb27a06	-0.087146804
84	0xbd0fdb55	-0.03512128
85	0x3d159554	0.036519364
86	0xbda6289d	-0.08113215
87	0xbc79c62a	-0.015245
88	0xbd075289	-0.033037696
89	0x3cca7c16	0.024717372
90	0xbce7e808	-0.028308883
91	0x3d9265cf	0.07148325
92	0x3da92b70	0.08260238
93	0xbc0fdaa8	-0.008780159
94	0x3b7da3b1	0.0038702304
95	0xbda82ca0	-0.082116365
96	0x3d8ae2ef	0.067815654
97	0x3cbb0e5f	0.022834001
98	0x3d42608f	0.047455367
99	0xbd0c0654	-0.034185722
100	0xbc36d96e	-0.011160238
101	0xbd620174	-0.055177167
102	0x3d615ee8	0.05502215
103	0x3d3bcf5b	0.045852046
104	0x3c2084e1	0.009797306
105	0x3d191b6f	0.03737968
106	0xbd55e9b7	-0.05222484
107	0xbbb11bc4	-0.0054049212
108	0xbd90e6e9	-0.070752926
109	0x3d8831ac	0.06650099
110	0x3dac3c42	0.08409931
111	0x3c13311b	0.008983876
112	0x3c6e9118	0.01456096
113	0xbd0daed8	-0.034590572
114	0x3ce046c8	0.027377501
115	0xbcdf30b1	-0.027244898
116	0xbd8eacf2	-0.069665805
117	0xbc1fd83f	-0.009756147
118	0xbc7c2461	-0.015389533
119	0xbd7b35f5	-0.061330754
120	0xbd6df6dc	-0.05809675
121	0xbd6f44f7	-0.05841538
122	0xbceb0f01	-0.028693678
123	0xbd924576	-0.07142155
124	0x3d06f475	0.032947976
125	0xbcf6fdd1	-0.030150326
126	0xbc56db27	-0.013113773
127	0xbc2d1967	-0.010565138
128	0xbda56ddf	-0.08077597
129	0x3d8f2051	0.06988586
130	0x3ceea5f3	0.029131865
131	0x3d3d8fd9	0.046279762
132	0x3c0a0f18	0.00842645
133	0xbdad01a8	-0.084475815
134	0xbd4e02eb	-0.05029575
135	0x3d968d2c	0.07351145
136	0x3c1d7644	0.009610716
137	0x3b57d8c5	0.0032935601
138	0x3d06abf2	0.032878824
139	0x3db4f2e1	0.08835388
140	0xbd25c940	-0.04047513
141	0xbd349c2f	-0.04409426
142	0xbd8d70ac	-0.06906256
143	0xbda59223	-0.08084514
144	0xbd972882	-0.07380773
145	0x3d5ee0db	0.054413658
146	0x3d80125a	0.062535
147	0x3da224d8	0.07917184
148	0x3bdf91eb	0.0068228147
149	0xbdad8514	-0.08472648
150	0xbd7dffd2	-0.062011547
151	0xbdb285b0	-0.08716905
152	0xbd446eef	-0.047957357
153	0xbb0e20f4	-0.0021687122
154	0xbd8c5b58	-0.0685336
155	0x3ce28c33	0.027654743
156	0x3c716f9f	0.014736085
157	0x3d265a36	0.040613376
158	0x3b8eb734	0.0043553356
159	0xbcab7c82	-0.020933393
160	0xbd607658	-0.05480036
161	0xbd80011d	-0.06250212
162	0xbd9b0393	-0.07569041
163	0x3b4eafd4	0.0031537907
164	0xbc65752d	-0.014004988
165	0x3d3b07a2	0.045661576
166	0x3b473b5e	0.0030400376
167	0xbc93c24d	-0.018036986
168	0xbd34038e	-0.043948703
169	0x3d084a3e	0.033273928
170	0xbbf8197c	-0.0075713973
171	0x3ca85e18	0.02055268
172	0x3cf42702	0.029803757
173	0xbd4269e0	-0.04746425
174	0x3d9dd8c9	0.07707364
175	0xbdad007a	-0.084473565
176	0x3b0bfb9a	0.0021359683
177	0x3d8effdd	0.06982396
178	0x3d8873e6	0.06662731
179	0xbd9401f1	-0.07226933
180	0x3d1720da	0.036896564
181	0x3c34b650	0.011029795
182	0xbd2c7885	-0.042107124
183	0x3cc5c7af	0.024143068
184	0x3d08227f	0.033236023
185	0x3d9df613	0.077129506
186	0x3d856961	0.0651424
187	0xbd526672	-0.05136723
188	0x3d8844e7	0.06653767
189	0x3d12c598	0.03583297
190	0xbaffb776	-0.0019509632
191	0x3d324513	0.043522906
192	0x3d5fa20f	0.05459791
193	0x3daf5342	0.08560802
194	0x3d0c76ae	0.03429287
195	0x3d4caeec	0.049971506
196	0x3da50e33	0.08059349
197	0x3ab7cfd7	0.0014023733
198	0xbd4f62ea	-0.05063144
199	0xbd743763	-0.059623133
200	0x3cfbd919	0.030743169
201	0x3d92943e	0.07157181
202	0xbb2cc249	-0.002636092
203	0x3d70982e	0.05873888
204	0xbdb42be1	-0.08797432
205	0x3a7c5aaa	0.0009626547
206	0xbcfd99fd	-0.030957216
207	0x3d82bdaf	0.063838355
208	0x3cc8e1cc	0.02452173
209	0x3c1eaa07	0.009684092
210	0xbd9a7eeb	-0.07543739
211	0xbd8bf985	-0.068347014
212	0xbd95b05b	-0.07309028
213	0x3b7d1f5a	0.0038623423
214	0xbd038cdb	-0.032116752
215	0xbd8e1c5f	-0.06939005
216	0x3bff7281	0.0077956324
217	0xbd1c0b3c	-0.03809665
218	0x3d24a0ca	0.040192403
219	0xbd809cfa	-0.06279941
220	0xbd9c5937	-0.07634204
221	0x3d54d813	0.051963877
222	0xbd4da423	-0.05020536
223	0x3c11c1f9	0.008896344
224	0xbca59c72	-0.0202162
225	0xbdb4c832	-0.08827247
226	0xbd53db9a	-0.0517231
227	0x3c962334	0.018327333
228	0xbd2c1a9e	-0.04201757
229	0xbc3e620f	-0.011620059
230	0xbd97dec8	-0.07415539
231	0xbd5ad4d3	-0.05342562
232	0x3bd4608c	0.006481236
233	0xbb87c5ff	-0.004143476
234	0xbd814d09	-0.063135214
235	0xbbbcd039	-0.0057621268
236	0xbd3f262e	-0.04666727
237	0xbce5ac8a	-0.028036375
238	0xbd959c4d	-0.07305203
239	0x3d9fcff6	0.07803337
240	0xbc8a5d96	-0.016890328
241	0xbc506a6f	-0.012720688
242	0xbd594f92	-0.0530544
243	0x3da910b2	0.082551375
244	0x3d92ff95	0.07177655
245	0x3d863350	0.06552756
246	0x3bebd35f	0.0071968283
247	0xbd56c7c3	-0.0524366
248	0x3d04055b	0.03223167
249	0xbd279f1e	-0.04092323
250	0xbd2adb0f	-0.041712817
251	0xbc1cd20c	-0.009571563
252	0x3d4c0493	0.04980905
253	0x3b71df21	0.0036906677
254	0x3d083ffa	0.033264138
255	0x3d16a8bd	0.036782015

convs.0.lin_l.bias f4 [256]
0	0xbd69b29a	-0.057055093
1	0xbc3fcf05	-0.011707072
2	0x3b98d5e7	0.004664171
3	0x3d0de75c	0.03464447
4	0xbd90a16f	-0.07062041
5	0x3d48f2cd	0.049059678
6	0xbc2d3a59	-0.010572993
7	0x3b03c826	0.0020108311
8	0x3d213c8f	0.039364394
9	0xbd416084	-0.047211185
10	0xbd6882f3	-0.056765508
11	0x3cdded88	0.027090803
12	0x3db19afa	0.086721376
13	0x3d9c2684	0.07624534
14	0xbdaa5e0a	-0.08318718
15	0xbdb2a3a9	-0.08722622
16	0x3d5377ae	0.051627807
17	0xbc822a0d	-0.015889192
18	0x3caa2a7d	0.020772213
19	0x3d3508ce	0.04419785
20	0xbd8b5b35	-0.06804506
21	0x3d5ab3be	0.05339407
22	0xbb2e6061	-0.002660774
23	0x3cf7c311	0.030244382
24	0x3d4471f4	0.047960237
25	0xbb8f2a41	-0.0043690507
26	0xbdac640f	-0.08417522
27	0xbc977c80	-0.018491983
28	0x3d181209	0.037126575
29	0x3d361bf7	0.044460263
30	0xbd328dfc	-0.043592438
31	0x3d9fc0ef	0.07800471
32	0xbc55d66c	-0.01305161
33	0x3b7b701c	0.0038366383
34	0x3d895de9	0.06707365
35	0x3d8d6041	0.069031246
36	0xbc64a956	-0.013956388
37	0xbc8c3ffb	-0.017120352
38	0x3cdb88c0	0.026798606
39	0xbb858f75	-0.0040759393
40	0x3d996001	0.074890144
41	0xbb531b13	-0.0032212182
42	0xbc0d8aa6	-0.008639013
43	0xbbe2d9ac	-0.006922921
44	0xbda50370	-0.08057296
45	0xbd0cd4f2	-0.034382768
46	0xbd2f58c7	-0.042809274
47	0xbd399971	-0.04531235
48	0xbd143424	-0.036182538
49	0xbd98c4d9	-0.07459421
50	0x3b7e87ca	0.003883826
51	0xbd99487c	-0.074845284
52	0x3d25a45d	0.040439952
53	0x3d89fae1	0.067373045
54	0xbd825bbe	-0.06365155
55	0xbd0b1ac4	-0.033961073
56	0xbd49ac4c	-0.04923658
57	0x3d4ef79e	0.050529115
58	0x3cc93f98	0.024566457
59	0xbc952d15	-0.018209973
60	0x3d040e3d	0.03224014
61	0x3be1c385	0.006889763
62	0xbd8d8ddf	-0.069118254
63	0x3cd0c965	0.025486657
64	0x3d0d16d7	0.03444561
65	0x3d941a0b	0.0723153
66	0x3db28200	0.08716202
67	0x3d9a0800	0.07521057
68	0x3d1c465d	0.03815304
69	0x3da6740e	0.081276044
70	0x3d1d7478	0.03844115
71	0xbd986f35	-0.07443086
72	0x3d2b9dea	0.041898645
73	0xb9e31371	-0.000433113
74	0x3d448782	0.047980793
75	0xbb914863	-0.004433678
76	0xbd3b42f0	-0.045718133
77	0x3d3ab3a9	0.045581494
78	0x3d84375c	0.064558715
79	0x3db36ec8	0.08761364
80	0xbd638a15	-0.055551607
81	0x3d1f4459	0.03888354
82	0x3dadf64b	0.08494242
83	0xbca7ed60	-0.020498931
84	0x3d8871fe	0.06662367
85	0xbd89f2e6	-0.06735782
86	0x3c2e5093	0.010639328
87	0xbc5119e5	-0.012762521
88	0x3da0f93a	0.07860036
89	0x3d02c479	0.031925652
90	0x3c5052d2	0.012715058
91	0x3d5870ca	0.05284194
92	0xbd6884a9	-0.05676714
93	0xbc5da187	-0.013527281
94	0x3d56eda4	0.052472726
95	0x3da340e7	0.079713635
96	0xbd427cf4	-0.047482446
97	0xbd86232b	-0.065496765
98	0xbc0eee5f	-0.008723824
99	0xbd4e3680	-0.050344944
100	0xbd2f7526	-0.04283633
101	0xbc765df2	-0.015037047
102	0x3d17cc02	0.03705979
103	0xbcb15c19	-0.02165036
104	0xbcfd0be6	-0.030889463
105	0x3cbf1c17	0.023328824
106	0xbc8b2848	-0.016986981
107	0xbb7e45b7	-0.0038798878
108	0xbb11891e	-0.0022206972
109	0x3dac871f	0.0842421
110	0x3d8118bb	0.06303545
111	0xbb4949f9	-0.0030714257
112	0xbd3c595f	-0.04598367
113	0x3cbcd89c	0.023052506
114	0x3b930515	0.00448669
115	0x3d11e61e	0.035619847
116	0xbd72a08c	-0.05923514
117	0xbd9f10a1	-0.077668436
118	0xbd272520	-0.04080689
119	0xbda2bf45	-0.07946638
120	0x3d816e4d	0.06319866
121	0x3d9e5210	0.07730496
122	0x3d13950c	0.036030814
123	0xbcc2d5c6	-0.023783576
124	0xbd274413	-0.040836405
125	0xbc7ade54	-0.015311796
126	0xbd620f8d	-0.05519061
127	0xbd715eba	-0.05892823
128	0x3d829a0a	0.06377037
129	0xbd11cd98	-0.03559646
130	0x3cdf8561	0.02728528
131	0x3bbef383	0.0058273687
132	0x3cdcb286	0.026940595
133	0x3c4cd423	0.012501749
134	0x3d3e5d9d	0.046475995
135	0xbd2a0430	-0.0415079
136	0x3c14cf3b	0.009082611
137	0x3d96ea8e	0.073689565
138	0xbd4d46ae	-0.050116234
139	0xbca84d67	-0.02054472
140	0x3daf34ea	0.085550144
141	0xbd0d388d	-0.03447776
142	0x3c2debc1	0.01061529
143	0xbd1d7ef5	-0.038451154
144	0x3d8b4f47	0.0680223
145	0x3cc1646d	0.023607457
146	0x3c54f3d8	0.01299759
147	0x3d8bdd01	0.068292625
148	0xbda16bce	-0.0788189
149	0x3c6bb5a7	0.014386571
150	0xbd734252	-0.05938942
151	0xbd67a985	-0.05655815
152	0x3c6d6dff	0.014491557
153	0xbd1ba90d	-0.038003016
154	0xbdb2f58c	-0.087382406
155	0xbd784b42	-0.060618646
156	0x3d25f2b0	0.040514648
157	0xbd118a6d	-0.035532404
158	0xbd8a50e9	-0.06753714
159	0xbd9e6e0d	-0.07735834
160	0x3d38b76d	0.045096803
161	0x3bf14c00	0.0073637962
162	0x3d368614	0.04456146
163	0xbcbe7389	-0.02324845
164	0x3d2d9ace	0.04238396
165	0x3c91dd5d	0.01780575
166	0x3ce0d39d	0.027444655
167	0x3d521e1c	0.051298246
168	0x3d3e0669	0.046392832
169	0xbc75d17c	-0.015003558
170	0xbd9afdb9	-0.07567925
171	0x3d9d1db7	0.07671683
172	0xbc890454	-0.016725697
173	0xbdb47354	-0.088110596
174	0x3c702f2a	0.014659682
175	0x3d83f786	0.06443696
176	0x3d09aabf	0.0336101
177	0x3d855779	0.06510825
178	0x3d9b5681	0.07584859
179	0x3d6097ea	0.054832377
180	0x3d02cab2	0.031931587
181	0x3a860bce	0.0010226907
182	0xbd060c9c	-0.03272687
183	0xbce53438	-0.027979001
184	0xbc80825b	-0.015687158
185	0x3ca7707f	0.020439385
186	0xbda1bf2d	-0.07897792
187	0x3d4c66bf	0.049902674
188	0xbd7d6bfc	-0.06187056
189	0x3d3206db	0.04346357
190	0x3d7567af	0.059913334
191	0x3d58bbe9	0.05291358
192	0x3cc170ec	0.023613416
193	0xbb93de60	-0.004512593
194	0x3c20149d	0.00977054
195	0x3d3250e0	0.04353416
196	0x3d564d28	0.052319676
197	0x3d8f9572	0.07010926
198	0x3cc85f66	0.024459552
199	0x3d76f77d	0.060294617
200	0xbc0aa11a	-0.008461261
201	0x3d0dcd17	0.034619417
202	0x3b6f28ee	0.0036492902
203	0x3d314736	0.043280803
204	0x3d223cf0	0.039608896
205	0x3d060b4c	0.032725617
206	0xbc10437d	-0.008805153
207	0xbc45c7e0	-0.01207158
208	0xbd790e64	-0.06080474
209	0x3d695cb9	0.056973193
210	0xbd6ede95	-0.05831774
211	0xbd11eb51	-0.035624806
212	0xbcf2569e	-0.029582318
213	0xbd9fddb5	-0.07805959
214	0x3d986fe4	0.074432164
215	0xbda76865	-0.081742086
216	0x3db05449	0.08609826
217	0xbcf811d9	-0.030281948
218	0xbd3050c0	-0.04304576
219	0x3c27fce6	0.010253167
220	0xbcc26fc9	-0.023734944
221	0x3d7b1e82	0.06130839
222	0x3da7e3dd	0.08197758
223	0xbc01814d	-0.007904363
224	0x3d1683b7	0.036746707
225	0xbd4cd4da	-0.05000768
226	0x3b714edb	0.0036820683
227	0xbd44db25	-0.048060555
228	0xbd0f5699	-0.034994695
229	0xbc93b8bd	-0.018032426
230	0x3d3ca731	0.046057884
231	0x3d04d3c9	0.032428537
232	0x3b27c6d1	0.0025600682
233	0x3d3b0025	0.045654435
234	0xbd315188	-0.043290645
235	0x3ac8466d	0.0015279778
236	0xbda7f324	-0.08200672
237	0xbd90308d	-0.0704051
238	0xbd990c9a	-0.07473107
239	0xba53d90e	-0.0008081355
240	0xbc4fed85	-0.012690906
241	0xbcb1b3eb	-0.021692237
242	0xbd0f31f2	-0.03495974
243	0xbd666e83	-0.056257736
244	0xbc0566f1	-0.008142219
245	0x3d9cc95d	0.076555945
246	0xbdb4d1bc	-0.08829066
247	0x3d57e32c	0.052706882
248	0x3cc7a6c2	0.024371509
249	0xbd17eef8	-0.037093133
250	0x3d90406c	0.070435375
251	0x3d8ef75d	0.069807746
252	0x3bed995f	0.0072509493
253	0xbd81a17a	-0.06329627
254	0x3c765461	0.015034766
255	0xbc3dd7af	-0.0115870675

convs.0.lin_r.weight f4 [256, 128]
0	0xbc5d5b2f	-0.013510509
1	0x3d9a2517	0.075266056
2	0x3c322706	0.010873562
3	0x3bc24d9c	0.005929662
4	0xbd2a880f	-0.04163366
5	0x3daef916	0.08543603
6	0xbd8997b9	-0.06718392
7	0x3d1054cf	0.03523713
8	0x3d8dea6f	0.0692948
9	0xbcd447db	-0.02591317
10	0x3d8af2e2	0.067846075
11	0x3d9a18cf	0.07524263
12	0xbd4740f6	-0.048645936
13	0xbd54cabe	-0.051951163
14	0xbd540517	-0.051762667
15	0x3d5e1c7a	0.054226376
16	0xbc944219	-0.018097924
17	0x3c193a05	0.009352212
18	0xbbe5ef72	-0.0070170695
19	0xbccf1406	-0.025278103
20	0xbcde9bc2	-0.02717388
21	0xbcf80de8	-0.030280069
22	0x3c8d66c7	0.017260922
23	0xbcae684c	-0.021289967
24	0x3d94b9fe	0.07262038
25	0x3db2babe	0.087270245
26	0x3ca3b72a	0.0199848
27	0x3d712c92	0.058880396
28	0xbda3e48b	-0.080025755
29	0x3d2376a8	0.03990808
30	0x3c9cc394	0.019136228
31	0xbd84067a	-0.06446548
32	0xbc947822	-0.01812369
33	0xbbf049ce	-0.007333017
34	0x3c401431	0.011723564
35	0x3d98fdf6	0.07470314
36	0xbc857031	-0.016288849
37	0xbd49cbc6	-0.0492666
38	0xbd911e38	-0.07085842
39	0xbd239210	-0.039934218
40	0x3d25d7bf	0.040488955
41	0xbd431853	-0.04763062
42	0xbd2d6826	-0.04233565
43	0xbc2a20b5	-0.0103837745
44	0xbda42850	-0.080155015
45	0x3bca6201	0.0061762338
46	0x3d913f8f	0.07092201
47	0x3d9ba15f	0.075991385
48	0x3b5006a0	0.003174223
49	0x3ccc7236	0.024956804
50	0xbd4998ba	-0.049217917
51	0xbd900a7f	-0.07033252
52	0xba573e91	-0.0008210922
53	0xbcba7b55	-0.022763887
54	0x3d974f79	0.07388205
55	0xbd57c400	-0.052677155
56	0x3d274b1a	0.040843107
57	0xbcf71a6b	-0.030163964
58	0xbc18554f	-0.009297683
59	0x3c5f0196	0.013611218
60	0xbd030815	-0.03199013
61	0xbd96469d	-0.07337687
62	0xbd9d1f9c	-0.07672045
63	0xbd96fe19	-0.07372684
64	0x3d9c01c5	0.07617525
65	0x3d9c8aad	0.07643638
66	0x3c192602	0.009347441
67	0xbbbd1459	-0.005770248
68	0x3d5e7466	0.054310225
69	0x3d0425f4	0.032262757
70	0x3d14f5d4	0.036367252
71	0x3ccb4e57	0.024817629
72	0xbcd28d95	-0.025702277
73	0x3c234786	0.009965783
74	0x3da43219	0.08017368
75	0x3aec99a5	0.0018051161
76	0xbb4f4ba2	-0.0031630774
77	0x3da9bb29	0.08287651
78	0x3da5b5f7	0.08091348
79	0xbd5f03c8	-0.054446965
80	0x3d7dfcb2	0.062008567
81	0x3b3065fb	0.0026916254
82	0x3ced2b1f	0.028951226
83	0xbcbeb99b	-0.023281863
84	0x3d504b12	0.050852843
85	0x3d03fb1a	0.03222189
86	0x3c142ead	0.0090443315
87	0x3c5eecec	0.013606291
88	0xbdaab68e	-0.08335601
89	0xbd3ea8ca	-0.04654769
90	0x3d35ba4e	0.044367127
91	0x3d6a650c	0.057225272
92	0xbcf69f7c	-0.030105345
93	0x3cc84583	0.024447208
94	0xbae2c590	-0.001730131
95	0x3d961b38	0.0732941
96	0xbcbe8560	-0.023256958
97	0x3cca7d45	0.024717936
98	0xbd0f8e8d	-0.035048056
99	0xbca738cd	-0.020412827
100	0x3d4157fb	0.047203045
101	0x3d6d6694	0.057959154
102	0x3d4ac594	0.04950483
103	0xbd4f47cd	-0.050605584
104	0x3cf4cb4a	0.029882092
105	0x3c6402af	0.013916655
106	0x3cfc59fb	0.030804625
107	0x3d2341f6	0.039857827
108	0xbd996805	-0.07490543
109	0x3d75d41f	0.060016748
110	0x3d834805	0.06410221
111	0xbd35973e	-0.04433369
112	0xbd68b196	-0.056809984
113	0xbd6fa0ff	-0.058503147
114	0x3adfc9e9	0.0017073724
115	0xbc80676a	-0.015674312
116	0xbd0cbb79	-0.034358475
117	0x3d90ef33	0.07076874
118	0xbd185c43	-0.037197363
119	0xbd104726	-0.035224102
120	0xbca51eca	-0.020156283
121	0xbdafb185	-0.08578781
122	0xbda12c00	-0.078697205
123	0xbd01d673	-0.031698655
124	0x3c31a7b9	0.010843211
125	0xbd743020	-0.059616208
126	0x3d451298	0.048113436
127	0xbba1cb53	-0.004937568
128	0x3c3a2b80	0.01136291
129	0xbccfdc6b	-0.025373658
130	0xbbc3dd29	-0.005977292
131	0xbcd1b9e5	-0.025601337
132	0xbd787ab3	-0.06066389
133	0xbd859b39	-0.06523747
134	0x3d18c1e0	0.03729427
135	0xbae3b9d0	-0.0017374102
136	0xbd900e69	-0.070339985
137	0xbdabebda	-0.083945945
138	0xbd503edb	-0.050841194
139	0x3da30aff	0.07961082
140	0x3ce61c51	0.028089674
141	0xbd1bf423	-0.038074624
142	0xbcb1e928	-0.021717623
143	0x3d92d6c1	0.07169867
144	0xbc7bd7b5	-0.015371253
145	0x3c17a3db	0.009255375
146	0x3ceabb48	0.028653756
147	0x3cf84226	0.03030498
148	0x3d8ee43c	0.06977126
149	0xbd88995e	-0.066698775
150	0xbd0ff188	-0.03514245
151	0x3da4dc80	0.080498695
152	0xbd8701d5	-0.06592146
153	0xbb91e665	-0.004452514
154	0xbcde58ab	-0.02714189
155	0x3d8dad28	0.069177926
156	0x3d260afc	0.04053782
157	0xbb22d4cb	-0.0024846073
158	0x3b660404	0.0035097608
159	0x3d97c2cf	0.07410204
160	0x3a1aff51	0.0005912679
161	0xbc9bdca4	-0.019026108
162	0xbc925c73	-0.017866349
163	0x3c1686d7	0.009187422
164	0x3db01863	0.085984014
165	0x3d100e2e	0.035169773
166	0xbd3b672c	-0.04575269
167	0xbd43bb3d	-0.047785986
168	0x3cd74e44	0.026282437
169	0xbd759d8a	-0.059964694
170	0x3d80b22a	0.06283982
171	0xbd5d8883	-0.054085266
172	0x3cdc0ec1	0.026862504
173	0xbc80048c	-0.015627168
174	0x3cc67ab5	0.024228433
175	0x3d48e3dc	0.04904543
176	0x3c8d49e3	0.017247146
177	0x3d3fd071	0.046829645
178	0xbda29906	-0.07939343
179	0x3d8fcf61	0.07021976
180	0x3d0b0661	0.03394163
181	0x3da0b9aa	0.078479126
182	0x3da8c95b	0.082415305
183	0x3d997d25	0.074945726
184	0xbcf903e9	-0.030397372
185	0xbc9d0dff	-0.019171713
186	0xbc32b5a6	-0.010907566
187	0x3d7ac988	0.06122735
188	0x3d5faf8b	0.05461077
189	0xbda17984	-0.078845054
190	0x3ce1b5a1	0.027552428
191	0x3cfac01a	0.03060918
192	0xbca84894	-0.02054242
193	0x3d684402	0.056705482
194	0xbda3576e	-0.0797566
195	0x3daa2bcf	0.08309137
196	0xbd175793	-0.03694875
197	0xbd8814b8	-0.06644577
198	0x3d86a735	0.06574861
199	0xbda6db86	-0.081473395
200	0x3da20cae	0.07912575
201	0x3c842875	0.016132573
202	0x3bca3644	0.0061710197
203	0x3d3562bb	0.04428361
204	0xbd8485a6	-0.06470804
205	0x3b7aa4fc	0.003824531
206	0xbd85bf19	-0.065305896
207	0x3bcaf088	0.0061932243
208	0x3cc6abdd	0.024251873
209	0x3d8dda0b	0.06926354
210	0xbda8d94e	-0.082445726
211	0x3d8f9cef	0.070123546
212	0xbd5cc307	-0.05389693
213	0xbcad5400	-0.021158218
214	0x3d60300e	0.05473333
215	0x3d7578a4	0.059929505
216	0x3da682a2	0.08130385
217	0xbdb087e2	-0.086196676
218	0xbdb44785	-0.08802704
219	0x3c46e8b3	0.012140441
220	0x3b94bd1f	0.0045391466
221	0x3cc22917	0.023701234
222	0xbd9078dc	-0.07054302
223	0x3d8efa1d	0.06981299
224	0xbd66652e	-0.056248836
225	0x3c7dda08	0.015493877
226	0xbd5d4b7b	-0.054027062
227	0x3da19d6f	0.07891356
228	0xbdaa6e4e	-0.0832182
229	0xbd516536	-0.051121913
230	0xbdaae1ad	-0.083438255
231	0x3d30cf34	0.043166354
232	0xbcdc0a75	-0.026860455
233	0x3d50e42b	0.050998848
234	0x3c6320dc	0.013862815
235	0x3db0b16b	0.0862759
236	0x3cd7e13d	0.02635252
237	0x3b5fa64e	0.0034126225
238	0xbbb2c7e5	-0.005455958
239	0x3ca70518	0.020388171
240	0x3db1e27b	0.08685776
241	0x3c19e7ed	0.009393674
242	0x3c9d94aa	0.019235928
243	0x3d3d7894	0.04625757
244	0xbc528b46	-0.012850588
245	0x3d5bd9ad	0.05367439
246	0x3d32544e	0.04353743
247	0x3d22a8ce	0.039711766
248	0xbc6e3ebd	-0.014541325
249	0xbc236d82	-0.009974839
250	0x3b1153b2	0.002217513
251	0xbd5d4bde	-0.05402743
252	0x3cf50cf3	0.029913401
253	0x3bf843da	0.007576448
254	0xbd6683b8	-0.05627796
255	0xbdaa7636	-0.08323328

convs.1.lin_l.weight f4 [64, 256]
0	0xbd365513	-0.044514727
1	0x3c0e4b37	0.008684925
2	0x3d495d0e	0.04916101
3	0xbd1f1995	-0.038842756
4	0x3d77eb7d	0.060527314
5	0xbd69571c	-0.05696784
6	0xbc2a4a2b	-0.01039366
7	0x3bbe2a90	0.0058034137
8	0xbd085824	-0.033287182
9	0xbd1ef3d1	-0.03880674
10	0x3b3274d1	0.0027230273
11	0xbc9f53b8	-0.0194491
12	0xbd79b8c7	-0.060967233
13	0xbcc8c346	-0.024507176
14	0x3cf1ddf9	0.02952479
15	0x3c817b59	0.015805887
16	0xbc5bdbe6	-0.013419127
17	0x3c801598	0.015635297
18	0xbc6a0f93	-0.01428594
19	0xbc86b619	-0.016444253
20	0x3cf452d2	0.029824648
21	0xbcb84c96	-0.022497457
22	0xbd5e056c	-0.05420439
23	0xbd7faa3f	-0.06241822
24	0x3d0ac04e	0.033874802
25	0x3d6f29bd	0.058389414
26	0x3cf6f731	0.030147167
27	0xbcd0dec4	-0.025496848
28	0xbcb5133e	-0.022103902
29	0xbd366395	-0.044528563
30	0xbb9d7cc0	-0.004806131
31	0xbd34908e	-0.04408317
32	0xbd69131e	-0.056902997
33	0xbd65b30c	-0.056078956
34	0x3d2fe7df	0.04294574
35	0xbc0cff55	-0.008605798
36	0x3cce5afb	0.025189867
37	0x3c2c53c2	0.010518016
38	0xbcdfd230	-0.027321905
39	0xbc3c3e9e	-0.0114895385
40	0x3d117560	0.03551233
41	0x3d186780	0.03720808
42	0x3b5678ca	0.0032725804
43	0x3d6d2fdb	0.057906967
44	0x3cc3f0e1	0.023918571
45	0xbaa361e8	-0.0012465091
46	0xbcc3059e	-0.02380639
47	0x3d7e9672	0.062155195
48	0x3d1585f7	0.036504712
49	0x3a96c4bc	0.0011502723
50	0x3cc0ac4b	0.023519656
51	0x3c1b969c	0.009496357
52	0x3d794bf5	0.060863454
53	0x3cb5d54d	0.022196436
54	0x3d1fa4ba	0.038975455
55	0xbc07997e	-0.0082763415
56	0x3d6c4dd4	0.05769141
57	0x3d694d5c	0.05695854
58	0x3d0bec8d	0.03416114
59	0xbd36226f	-0.044466432
60	0xbd6bf26c	-0.05760424
61	0x3d2e5846	0.042564653
62	0x3d3e94cb	0.04652862
63	0xbc35827d	-0.011078474
64	0xbbc248a2	-0.0059290687
65	0x3d0251cc	0.03181629
66	0xbc929265	-0.017892072
67	0xbcea5e44	-0.028609402
68	0xbbefe939	-0.0073215035
69	0x3d4eb2a1	0.050463323
70	0xbc4c23e3	-0.012459728
71	0x3d295d99	0.041349027
72	0xbbf1e4a5	-0.007381993
73	0xbd269110	-0.040665686
74	0xbce0c279	-0.027436482
75	0x3cb1ff0d	0.021728063
76	0xbcab1625	-0.020884583
77	0xbc53bfcb	-0.012924145
78	0x3d4c301e	0.049850576
79	0xbd3bddb3	-0.045865726
80	0xbd7b35db	-0.061330657
81	0xbcc1b9b7	-0.023648126
82	0xbcf451b8	-0.029824123
83	0xbcb109c6	-0.021611106
84	0xbcc1ce7c	-0.02365803
85	0xbb8e7d10	-0.0043484047
86	0x3d044bd9	0.032298896
87	0xbcbf42ff	-0.023347376
88	0xbcc8b741	-0.024501445
89	0x3d405f66	0.04696598
90	0x3b63fa5a	0.0034786672
91	0xbd017cf1	-0.031613294
92	0x3d34a5cc	0.04410343
93	0xbc9b4adc	-0.018956594
94	0xbd4d441d	-0.050113786
95	0x3cfbecd3	0.030752575
96	0x3cb88e1d	0.022528702
97	0xbd6b27b9	-0.05741093
98	0xbcc66e00	-0.024222374
99	0x3d58b8be	0.05291056
100	0x3cb3bb05	0.021939764
101	0xbd3c791b	-0.046013933
102	0x3d0cffda	0.034423687
103	0x3d5584bf	0.05212855
104	0xbd724c93	-0.059155058
105	0xbd17b210	-0.037035048
106	0xbd099e11	-0.03359801
107	0x3d07a57c	0.033116803
108	0x3d4d37f7	0.0501022
109	0xbc1cd17f	-0.009571432
110	0xbd7fe6b7	-0.062475886
111	0xbd11e27f	-0.035616394
112	0xbd2c9710	-0.042136252
113	0x3d4f9d0d	0.050686885
114	0x3d0c3df3	0.034238767
115	0xbce3a513	-0.027788674
116	0x3d6b79b3	0.05748911
117	0xbd68c035	-0.056823928
118	0x3b847625	0.0040424042
119	0x3d587f4f	0.052855786
120	0x3cb26648	0.021777287
121	0xbc3bc92d	-0.011461538
122	0x3d59e778	0.05319926
123	0xbb279a83	-0.0025574274
124	0xbcae61d3	-0.02128688
125	0x3c6bc125	0.014389311
126	0x3d0bd764	0.03414096
127	0x3b18aff4	0.0023298236
128	0xbc245235	-0.010029365
129	0xbbf6f8f4	-0.0075370017
130	0x3d4070a1	0.04698241
131	0x3d55afba	0.05216954
132	0xbd4358f3	-0.04769225
133	0x3cf51da9	0.02992137
134	0xbb87ae36	-0.0041406406
135	0xbcb37b3b	-0.021909347
136	0xbd072af3	-0.032999944
137	0xbce700a5	-0.02819855
138	0x3a939209	0.0011258732
139	0x3c437544	0.011929814
140	0xbd738502	-0.059453018
141	0xbbc72b49	-0.006078158
142	0x3cf632fe	0.030053612
143	0xbd5064f6	-0.050877534
144	0x39a42e23	0.00031314892
145	0x3cdd6b30	0.02702865
146	0xbd3d9df4	-0.046293214
147	0x3b12eebb	0.0022420126
148	0x3d7510fa	0.059830643
149	0x3cbec548	0.02328743
150	0x3bbbbcdc	0.005729301
151	0x3b624bf2	0.003453013
152	0xbd619d58	-0.055081695
153	0xbd492acc	-0.04911308
154	0x3cdd8f32	0.02704582
155	0xbd4d5f7f	-0.0501399
156	0x3cd785af	0.026308862
157	0xbb4289a8	-0.00296841
158	0xbc5df36b	-0.013546805
159	0x3d05fab7	0.032709803
160	0x3d053e41	0.032530073
161	0x3d45af08	0.048262626
162	0x3bc58aea	0.0060285227
163	0x3d34d060	0.044144034
164	0xbd1da802	-0.038490303
165	0xbd140239	-0.036134932
166	0x3c57bdb4	0.013167787
167	0x3d411250	0.047136605
168	0x3c75a328	0.014992513
169	0x3c8f4ed4	0.017493643
170	0x3c826002	0.01591492
171	0x3b780c9c	0.0037849313
172	0x3c8ecf04	0.017432697
173	0xbd778dc3	-0.06043793
174	0x3d40123e	0.046892397
175	0xbd120624	-0.035650387
176	0xbd7372de	-0.059435718
177	0x3c7b7dd5	0.015349825
178	0xbd1be5ce	-0.038060956
179	0x3d0f9eb3	0.035063457
180	0x3d442e26	0.047895573
181	0xbd7d2cfc	-0.06181048
182	0xbc582fff	-0.013195037
183	0xbd72e521	-0.059300546
184	0xbc390526	-0.011292731
185	0xbd2e6808	-0.04257968
186	0xbc437851	-0.011930541
187	0x3c8e6301	0.017381193
188	0x3ba71a73	0.0050995885
189	0xbd6fe8f6	-0.05857178
190	0xbd76e38e	-0.060275607
191	0x3d373bd3	0.044734787
192	0x3d61538d	0.05501132
193	0xbc9eeda1	-0.01940042
194	0xbd004780	-0.031318188
195	0x3c95da83	0.018292671
196	0xbc29642d	-0.010338825
197	0xbd7108c4	-0.05884625
198	0xbc88ca75	-0.016698102
199	0x3ca0a434	0.019609548
200	0xbc01f58d	-0.007932079
201	0x3d740a52	0.059580155
202	0x3d09ab13	0.033610415
203	0xbc355f9e	-0.01107016
204	0xbcc13d79	-0.023588883
205	0x3d57542f	0.052570518
206	0x3c25cf52	0.01012023
207	0xbc995e0d	-0.018721605
208	0x3d61d372	0.05513329
209	0xbce241df	-0.0276193
210	0xbd2f678f	-0.04282337
211	0xbd68b23b	-0.0568106
212	0xbd42a83f	-0.047523733
213	0xbd02c2b4	-0.031923965
214	0xbd3cbe81	-0.046080116
215	0x3d748bf9	0.0597038
216	0xbd30e75f	-0.043189403
217	0xbd282ff7	-0.041061368
218	0x3d039896	0.03212794
219	0x3c905cbd	0.017622346
220	0xbc84b32b	-0.016198715
221	0xbd4f7244	-0.05064608
222	0x3cf7cf7a	0.0302503
223	0xbd6a59ba	-0.057214476
224	0xbd004f79	-0.03132579
225	0x3d68b1b5	0.0568101
226	0x3d4bd8f1	0.04976744
227	0xbd674062	-0.056457885
228	0xbd7fbc20	-0.06243527
229	0x3d5595af	0.052144703
230	0xbbfbb97e	-0.0076820245
231	0xbca1a3a7	-0.019731356
232	0xbd5f72fd	-0.05455302
233	0x3cefd75a	0.029277492
234	0x3cdc869c	0.026919656
235	0x3d603a55	0.05474313
236	0xbb50a8b4	-0.0031838836
237	0xbd08785a	-0.0333179
238	0xbd61c2b1	-0.055117313
239	0x3d2ea8ee	0.042641573
240	0x3d56e489	0.05246404
241	0x3d699b09	0.05703262
242	0x3cc2dd9b	0.02378731
243	0xbca7dd03	-0.020491129
244	0x3d280803	0.041023266
245	0x3cd7c735	0.026340107
246	0xbc4ad065	-0.012378787
247	0xbd2531f6	-0.04033085
248	0xbbaad16e	-0.0052129542
249	0x3d06dbcc	0.03292446
250	0x3d308829	0.043098602
251	0xbd7f929c	-0.062395677
252	0x3cfce070	0.030868739
253	0x3c78eb39	0.0151928
254	0x3ce5dd15	0.028059522
255	0x3c95f7f7	0.018306715

convs.1.lin_l.bias f4 [64]
0	0x3d35bb94	0.04436834
1	0xbd7532d0	-0.05986291
2	0x3d3684c5	0.044560213
3	0xbd22ae8c	-0.039717242
4	0x3c68431e	0.014176158
5	0x3bee22dd	0.0072673396
6	0xbd6005d8	-0.054693073
7	0x3bead4fe	0.007166504
8	0xbd488648	-0.048956186
9	0xbc2ae061	-0.010429473
10	0x3cf91aa4	0.030408211
11	0xbd48cbd7	-0.04902252
12	0xbd38dd62	-0.045133002
13	0x3ab8742d	0.0014072709
14	0xbd3388b4	-0.043831542
15	0x3b5b9317	0.003350442
16	0xbd2e42ca	-0.042544164
17	0xbd3d52c8	-0.046221524
18	0xbd1e87b5	-0.03870364
19	0x3d2590fa	0.040421464
20	0x3c0d587b	0.008627052
21	0xbd24bd90	-0.040219843
22	0x3d07e1e5	0.033174414
23	0x3d34aade	0.044108264
24	0x3caaa531	0.020830723
25	0x3c4329e9	0.011911848
26	0x3b951ec6	0.0045507876
27	0x3d52762c	0.05138223
28	0xbbbffb63	-0.005858825
29	0x3d6a388d	0.057182837
30	0xbbc795e4	-0.0060908664
31	0x3bc4bd11	0.006003984
32	0xb9fdb240	-0.00048388727
33	0xba31696d	-0.0006767724
34	0xbc96bb78	-0.018399939
35	0xbd6afddb	-0.057371
36	0x3d48187f	0.048851486
37	0xbd57e9a7	-0.052713063
38	0xbd51858b	-0.051152747
39	0x3c21bb15	0.009871264
40	0x3d0a43cc	0.033756062
41	0xbd24067f	-0.040045258
42	0xbb9fd89e	-0.0048781177
43	0xbc607b9f	-0.013701349
44	0x3bbbd497	0.00573213
45	0x3d3837cb	0.044975083
46	0xbd1a4e7f	-0.037672516
47	0x3d29e282	0.04147578
48	0x3b98723c	0.0046522897
49	0xbca0e3af	-0.019639818
50	0x3c8a869a	0.016909886
51	0xbd19cd2d	-0.037549186
52	0x3cbd6a80	0.023122072
53	0x3ce97495	0.028497973
54	0xbd7af86b	-0.061272066
55	0x3d4efdba	0.05053494
56	0x3d1c0e8c	0.03809981
57	0x3c8b20fe	0.016983505
58	0xbc86161d	-0.016367966
59	0xbd549014	-0.051895216
60	0xbcdd7a65	-0.027035901
61	0xbce2f7df	-0.027706085
62	0xbc89c343	-0.01681674
63	0x3ce9ae87	0.028525604

convs.1.lin_r.weight f4 [64, 256]
0	0xbc1e4e99	-0.009662294
1	0xbd5e76a6	-0.05431237
2	0xbd58c26b	-0.052919786
3	0x3ca50852	0.020145569
4	0x3b4ddba9	0.0031411445
5	0x3d25d32c	0.040484592
6	0x3d794551	0.06085712
7	0x3c7a3282	0.015270831
8	0x3a7fcb1f	0.00097577454
9	0x3c8affa9	0.016967611
10	0x3c89d36c	0.016824447
11	0x3cb2d879	0.021831738
12	0x3c727277	0.014797798
13	0xbc83c1bc	-0.01608359
14	0xbd5e411d	-0.054261316
15	0x3d5e85ef	0.054326948
16	0x3d108582	0.035283573
17	0xbc7047f9	-0.014665597
18	0xbd21942c	-0.03944795
19	0x3d57b072	0.052658506
20	0x3cc377ac	0.023860775
21	0x3c9b45cc	0.01895418
22	0x3baa5c4b	0.0051989905
23	0xbc029fa0	-0.007972628
24	0x3d76d64c	0.060262963
25	0x3d2bb635	0.041921813
26	0x3c71b684	0.014752988
27	0xbcb3568c	-0.021891855
28	0xbc07fc1c	-0.008299854
29	0xbd0aa4e1	-0.033848647
30	0x3d51cbcb	0.051219743
31	0xbd7cd3e1	-0.0617255
32	0xbbfb47e7	-0.0076684835
33	0xbcbf3dc0	-0.023344874
34	0xbd0b90fa	-0.034073807
35	0xbd660ec2	-0.056166418
36	0x3cb014f1	0.02149436
37	0x3d1cc8ee	0.03827756
38	0x3bc623cd	0.0060467483
39	0xbd10b037	-0.0353243
40	0xbd52bf49	-0.051451955
41	0xbcb5e120	-0.022202075
42	0xbd226ae5	-0.039652724
43	0x3c48e7d7	0.012262306
44	0xbc5800e3	-0.013183805
45	0x3d0ade9a	0.033903696
46	0x3c192526	0.009347236
47	0xbd17a377	-0.037021127
48	0xbd35c9ff	-0.04438209
49	0xbd221a3d	-0.039575804
50	0xbd11dfd3	-0.035613846
51	0x3b7488b6	0.0037312931
52	0xbd0df8cb	-0.034661096
53	0xbd04d0be	-0.032425635
54	0x3d103eeb	0.035216253
55	0x3d1aab4f	0.03776103
56	0x3bc345e2	0.0059592584
57	0xbc52a640	-0.01285702
58	0xbb1165d3	-0.0022185936
59	0xbc835503	-0.016031748
60	0xbd6722ae	-0.056429558
61	0xbcb2be76	-0.021819334
62	0xbd64fcfe	-0.055905335
63	0x3cae5db4	0.021284916
64	0x3bb847d2	0.005623796
65	0xbcd9665e	-0.02653807
66	0xbcfca361	-0.030839624
67	0xbd55d0de	-0.052201144
68	0xbcf67578	-0.03008531
69	0xbcf5e34a	-0.030015606
70	0xbd3d4142	-0.046204813
71	0xbd1c4900	-0.038155556
72	0xbcfd4abc	-0.030919425
73	0x3c06ee22	0.008235486
74	0x3ccf69fd	0.025319094
75	0x3cf96d78	0.030447707
76	0x3ca5445e	0.020174202
77	0x3ce8e903	0.028431421
78	0x3c5c9823	0.013464007
79	0xbbb95d67	-0.0056568864
80	0x3c5ce714	0.013482828
81	0x3c2885db	0.01028582
82	0x3b83984a	0.004015957
83	0x3d514939	0.05109522
84	0x3d79ec54	0.061016396
85	0x3cd406ac	0.025882088
86	0x3d55c758	0.052192062
87	0xbd298f2d	-0.04139631
88	0x3ced8491	0.028993877
89	0x3d1c12a2	0.038103707
90	0xbc964b61	-0.01834649
91	0x3d059dc8	0.032621175
92	0x3ca46bee	0.020070996
93	0xbbe11f5e	-0.0068701943
94	0x3cf71446	0.030161034
95	0xbd6a2645	-0.057165403
96	0x3d65f0df	0.056137916
97	0x3c6e3464	0.014538858
98	0xbd742741	-0.059607748
99	0xbd356ad3	-0.04429133
100	0x3d4cd266	0.05000534
101	0x3c8ab35b	0.016931226
102	0x3b523527	0.0032075138
103	0xbd08a1a1	-0.033357266
104	0xbd081c13	-0.0332299
105	0x3d6f08e5	0.05835809
106	0xbd0480ae	-0.03234928
107	0x3cf065de	0.029345449
108	0x3d5ee3d3	0.05441649
109	0x3cf97faa	0.030456383
110	0xbca4c7ba	-0.020114768
111	0xbc2440e5	-0.010025238
112	0xbd0cad6b	-0.03434507
113	0xbce933ff	-0.028467176
114	0xbd13dbc5	-0.03609826
115	0xbc634926	-0.01387242
116	0xbd77be0a	-0.06048397
117	0x3d396d42	0.045270212
118	0xbd47e97a	-0.048806645
119	0x3cee0ec7	0.02905978
120	0xb9e069de	-0.00042803487
121	0x3d14fe1c	0.03637515
122	0x3bfb6c23	0.007672803
123	0x3cdfeaa6	0.027333569
124	0x3d455bc0	0.048183203
125	0x3a1581cc	0.000570324
126	0x3c0ea0aa	0.0087052975
127	0xbb1d685d	-0.0024018504
128	0xbb71a277	-0.0036870518
129	0x3cdb95b6	0.026804786
130	0x3d4b9b14	0.04970844
131	0xbd6f7bd9	-0.05846772
132	0x3d218f23	0.039443146
133	0xbcd58a8e	-0.026067045
134	0xbb5c8b29	-0.0033652282
135	0x3a8ab0a4	0.0010581207
136	0x3beb6e0f	0.007184751
137	0x3d30762e	0.043081455
138	0xbcbb9605	-0.022898683
139	0x3d0e6210	0.03476149
140	0x3d69641c	0.056980237
141	0x3d2cf2c8	0.04222372
142	0xbd11b0ee	-0.035569124
143	0x3d47109b	0.04859982
144	0x3c2806a2	0.010255488
145	0x3cb13270	0.021630496
146	0x3d4788c9	0.048714433
147	0x3d774008	0.0603638
148	0x3b26b1eb	0.0025435637
149	0x3be76eab	0.007062753
150	0xbc4b1df4	-0.012397278
151	0xbca3ba83	-0.019986397
152	0xbd38612c	-0.045014545
153	0x3c697c0a	0.014250765
154	0xbc156ad5	-0.009119709
155	0xbd4757e2	-0.048667796
156	0x3ce1294a	0.027485508
157	0xbc5ffe58	-0.01367148
158	0xbcc88b4f	-0.02448049
159	0x3d47bf0b	0.048766177
160	0x3c960f02	0.018317703
161	0xbc6edc86	-0.014578944
162	0xbd4b4b8d	-0.049632598
163	0xbc231668	-0.009954073
164	0xbd3b6df5	-0.04575916
165	0x3d3cb482	0.046070583
166	0xbcf8c52d	-0.030367458
167	0xbcf6e09b	-0.030136397
168	0xbd531ebb	-0.05154298
169	0xbd2e37ab	-0.042533558
170	0xbc93860e	-0.018008258
171	0x3bb511c6	0.0055258004
172	0xbd5882da	-0.052859165
173	0x3c15ca0f	0.009142413
174	0x3d09351b	0.03349791
175	0x3d0e1d3a	0.03469584
176	0xbd35b9c0	-0.044366598
177	0xbd5af276	-0.053453885
178	0x3c875ca2	0.016523663
179	0x3d659801	0.056053165
180	0x3d4ca70d	0.049964
181	0x3c5e309b	0.013561393
182	0xbd62f9a4	-0.055413857
183	0xbd1df21c	-0.03856097
184	0x3cddb176	0.027062159
185	0xbd37170f	-0.044699725
186	0x3d0d78b3	0.034538936
187	0xbd332f72	-0.04374642
188	0xbd0f83de	-0.035037868
189	0x3d065d11	0.0328036
190	0xbd65e7ec	-0.05612938
191	0xbd5394ce	-0.051655583
192	0x3d439acc	0.047755048
193	0x3d3772d7	0.044787254
194	0xbd3439bb	-0.04400037
195	0x3c5a867b	0.013337727
196	0xbd7ce725	-0.061743874
197	0x3cd6c548	0.026217118
198	0xbb044e98	-0.0020188447
199	0xbd4d31c9	-0.050096307
200	0x3cdc3a44	0.026883252
201	0x3982b041	0.00024926852
202	0x3d2717c7	0.04079416
203	0xbd5d5bc4	-0.054042593
204	0x3c81b217	0.01583199
205	0x3d57d50f	0.052693423
206	0x3c18c517	0.009324334
207	0xbd5905d4	-0.052984074
208	0x3d779c19	0.0604516
209	0xbd270ba6	-0.040782593
210	0xbca7597c	-0.020428412
211	0x3a9bb55b	0.001187961
212	0xbc088683	-0.008332851
213	0xbcbb02b5	-0.02282844
214	0x3ba84120	0.0051347166
215	0x3c289cd9	0.010291302
216	0xbd213038	-0.039352626
217	0xbd2b4a9b	-0.041819196
218	0x3cdafb93	0.026731288
219	0x3d2cad83	0.04215766
220	0x3d0e053a	0.034672953
221	0x3d3f248d	0.046665717
222	0x3d0676fb	0.032828312
223	0xbb432800	-0.002977848
224	0x3d27d776	0.040976964
225	0x3c5c2431	0.013436363
226	0x3d77f1c2	0.060533293
227	0x3d18741a	0.037220098
228	0x397361c2	0.00023210704
229	0x3b0ebcf2	0.00217801
230	0xbd0ca232	-0.03433437
231	0x3ca484e7	0.020082904
232	0xbc655338	-0.013996892
233	0xbcfd328d	-0.030907894
234	0x3d15f13e	0.03660702
235	0xbd609ba5	-0.054835934
236	0xbb6443f7	-0.003483055
237	0xbd53d08e	-0.051712565
238	0x3cc113a8	0.023568943
239	0x3c20661d	0.009789971
240	0x3d008a63	0.031381976
241	0x3d14e099	0.036347006
242	0x3d428ef2	0.047499605
243	0x3c4af6be	0.0123879295
244	0x3c3c66b4	0.011499096
245	0x3c8d2553	0.017229712
246	0x3be1e12c	0.0068932977
247	0x3d73cb06	0.05951979
248	0x3d53dfc5	0.051727075
249	0xbd5bbd11	-0.053647105
250	0x3d33eb22	0.043925412
251	0x3c1d6088	0.009605534
252	0xbd0fac02	-0.03507615
253	0x3b62ed12	0.0034626168
254	0xbd106d5b	-0.03526054
255	0xbc184f3e	-0.009296237

bns.0.weight f4 [256]
0	0x3f7fffb9	0.99999577
1	0x3f800042	1.0000079
2	0x3f800048	1.0000086
3	0x3f800022	1.000004
4	0x3f7ffdda	0.9999672
5	0x3f7fffb4	0.99999547
6	0x3f80004f	1.0000094
7	0x3f7ffe3a	0.99997294
8	0x3f7fffab	0.99999493
9	0x3f80007b	1.0000147
10	0x3f80009e	1.0000188
11	0x3f7fffea	0.9999987
12	0x3f800050	1.0000095
13	0x3f800039	1.0000068
14	0x3f800075	1.000014
15	0x3f7fff01	0.9999848
16	0x3f800067	1.0000123
17	0x3f80001d	1.0000035
18	0x3f800070	1.0000134
19	0x3f7fff76	0.9999918
20	0x3f800024	1.0000043
21	0x3f80001c	1.0000033
22	0x3f80004a	1.0000088
23	0x3f80004b	1.000009
24	0x3f800005	1.0000006
25	0x3f800019	1.000003
26	0x3f7ffe6d	0.999976
27	0x3f800041	1.0000077
28	0x3f80007b	1.0000147
29	0x3f7fff1c	0.9999864
30	0x3f7fff1d	0.99998647
31	0x3f7fff50	0.9999895
32	0x3f7fff08	0.9999852
33	0x3f80004e	1.0000093
34	0x3f800014	1.0000024
35	0x3f80004e	1.0000093
36	0x3f800010	1.0000019
37	0x3f7fffde	0.999998
38	0x3f7fffc2	0.9999963
39	0x3f7fff6e	0.9999913
40	0x3f7fffca	0.9999968
41	0x3f80007f	1.0000151
42	0x3f80000e	1.0000017
43	0x3f7fff91	0.9999934
44	0x3f800037	1.0000066
45	0x3f7fff53	0.9999897
46	0x3f7fffeb	0.99999875
47	0x3f7fff60	0.99999046
48	0x3f800041	1.0000077
49	0x3f7fffcb	0.99999684
50	0x3f8000cf	1.0000247
51	0x3f800023	1.0000042
52	0x3f800023	1.0000042
53	0x3f7fff22	0.99998677
54	0x3f7ffca3	0.9999487
55	0x3f7fff88	0.99999285
56	0x3f800010	1.0000019
57	0x3f7fff95	0.9999936
58	0x3f7ffff1	0.9999991
59	0x3f80003f	1.0000075
60	0x3f7fff29	0.9999872
61	0x3f80001e	1.0000036
62	0x3f800039	1.0000068
63	0x3f800007	1.0000008
64	0x3f7fff85	0.99999267
65	0x3f7fff76	0.9999918
66	0x3f80000a	1.0000012
67	0x3f80000d	1.0000015
68	0x3f800019	1.000003
69	0x3f800043	1.000008
70	0x3f7ffef7	0.9999842
71	0x3f800030	1.0000057
72	0x3f7ffff8	0.9999995
73	0x3f800065	1.000012
74	0x3f800075	1.000014
75	0x3f7fffc7	0.9999966
76	0x3f800083	1.0000156
77	0x3f800060	1.0000114
78	0x3f800024	1.0000043
79	0x3f7ffebd	0.99998075
80	0x3f7fff78	0.9999919
81	0x3f7fffdd	0.9999979
82	0x3f7ffff5	0.99999934
83	0x3f800046	1.0000083
84	0x3f7ffe51	0.9999743
85	0x3f800063	1.0000118
86	0x3f800068	1.0000124
87	0x3f80005a	1.0000107
88	0x3f800050	1.0000095
89	0x3f800024	1.0000043
90	0x3f7fff8e	0.9999932
91	0x3f800027	1.0000046
92	0x3f800019	1.000003
93	0x3f7fffd7	0.99999756
94	0x3f800068	1.0000124
95	0x3f800005	1.0000006
96	0x3f7fffa6	0.99999464
97	0x3f800064	1.0000119
98	0x3f7fffd3	0.9999973
99	0x3f800072	1.0000136
100	0x3f7fff93	0.9999935
101	0x3f7ffffd	0.9999998
102	0x3f800029	1.0000049
103	0x3f800024	1.0000043
104	0x3f7fff69	0.999991
105	0x3f7ffed7	0.9999823
106	0x3f80002b	1.0000051
107	0x3f800056	1.0000103
108	0x3f800070	1.0000134
109	0x3f7fff6c	0.9999912
110	0x3f800049	1.0000087
111	0x3f7fff5a	0.9999901
112	0x3f7fff47	0.999989
113	0x3f7ffe8f	0.999978
114	0x3f80000d	1.0000015
115	0x3f7fff00	0.99998474
116	0x3f7fffa5	0.9999946
117	0x3f7fffeb	0.99999875
118	0x3f7fff6c	0.9999912
119	0x3f80003e	1.0000074
120	0x3f7fffd1	0.9999972
121	0x3f7fff20	0.99998665
122	0x3f7fffdd	0.9999979
123	0x3f8000af	1.0000209
124	0x3f7fffff	0.99999994
125	0x3f800026	1.0000045
126	0x3f800023	1.0000042
127	0x3f7fffe8	0.99999857
128	0x3f7fffea	0.9999987
129	0x3f800051	1.0000097
130	0x3f800009	1.0000011
131	0x3f8000a1	1.0000192
132	0x3f800008	1.000001
133	0x3f7ffec0	0.9999809
134	0x3f800018	1.0000029
135	0x3f7fff8e	0.9999932
136	0x3f7fff3f	0.9999885
137	0x3f7fffea	0.9999987
138	0x3f7fff55	0.9999898
139	0x3f7fff8f	0.99999326
140	0x3f7fffb8	0.9999957
141	0x3f800025	1.0000044
142	0x3f80009a	1.0000184
143	0x3f7ffdad	0.99996454
144	0x3f7fffd1	0.9999972
145	0x3f7ffefe	0.9999846
146	0x3f80002e	1.0000055
147	0x3f7fffde	0.999998
148	0x3f7fffd4	0.9999974
149	0x3f7fff8e	0.9999932
150	0x3f80000a	1.0000012
151	0x3f7fff39	0.99998814
152	0x3f7fffb4	0.99999547
153	0x3f7ffffb	0.9999997
154	0x3f7fffd4	0.9999974
155	0x3f7fffbc	0.99999595
156	0x3f7fff26	0.999987
157	0x3f7ffea9	0.99997956
158	0x3f7ffd34	0.9999573
159	0x3f800083	1.0000156
160	0x3f80002d	1.0000054
161	0x3f80003e	1.0000074
162	0x3f7fff14	0.99998593
163	0x3f80000f	1.0000018
164	0x3f7fff16	0.99998605
165	0x3f800008	1.000001
166	0x3f800011	1.000002
167	0x3f7ffeed	0.9999836
168	0x3f80003b	1.000007
169	0x3f800035	1.0000063
170	0x3f7fffbc	0.99999595
171	0x3f7ffff2	0.99999917
172	0x3f800087	1.0000161
173	0x3f80001e	1.0000036
174	0x3f7fffbb	0.9999959
175	0x3f800032	1.000006
176	0x3f800036	1.0000064
177	0x3f800051	1.0000097
178	0x3f7fff9c	0.99999404
179	0x3f80001b	1.0000032
180	0x3f80006c	1.0000129
181	0x3f7fffb8	0.9999957
182	0x3f800008	1.000001
183	0x3f7fff59	0.99999005
184	0x3f80000a	1.0000012
185	0x3f7ffed6	0.99998224
186	0x3f7fff7c	0.99999213
187	0x3f7fff0e	0.9999856
188	0x3f7fff36	0.99998796
189	0x3f7fff6e	0.9999913
190	0x3f80002a	1.000005
191	0x3f800064	1.0000119
192	0x3f7fff8a	0.99999297
193	0x3f800014	1.0000024
194	0x3f80004b	1.000009
195	0x3f7ffece	0.99998176
196	0x3f800072	1.0000136
197	0x3f7ffeed	0.9999836
198	0x3f7fffb6	0.9999956
199	0x3f80003b	1.000007
200	0x3f80003d	1.0000073
201	0x3f800027	1.0000046
202	0x3f7ffff7	0.99999946
203	0x3f7fffeb	0.99999875
204	0x3f80001d	1.0000035
205	0x3f800009	1.0000011
206	0x3f800077	1.0000142
207	0x3f7ffff1	0.9999991
208	0x3f800004	1.0000005
209	0x3f80003c	1.0000072
210	0x3f7fffc6	0.99999654
211	0x3f7fff9b	0.999994
212	0x3f80002b	1.0000051
213	0x3f7fffac	0.999995
214	0x3f7fff56	0.99998987
215	0x3f7fffd3	0.9999973
216	0x3f7ffea4	0.99997926
217	0x3f7fffdb	0.9999978
218	0x3f80003e	1.0000074
219	0x3f7ffec8	0.9999814
220	0x3f7ffeec	0.99998355
221	0x3f7fff91	0.9999934
222	0x3f7ffd20	0.99995613
223	0x3f800028	1.0000048
224	0x3f800066	1.0000122
225	0x3f7ffeae	0.99997985
226	0x3f7ffe5e	0.9999751
227	0x3f800057	1.0000104
228	0x3f7fff16	0.99998605
229	0x3f80001c	1.0000033
230	0x3f800022	1.000004
231	0x3f7ffe60	0.9999752
232	0x3f80001e	1.0000036
233	0x3f800021	1.0000039
234	0x3f7fffa8	0.99999475
235	0x3f7fff2a	0.99998724
236	0x3f7fffc5	0.9999965
237	0x3f7fffb3	0.9999954
238	0x3f800092	1.0000174
239	0x3f7fffb1	0.9999953
240	0x3f800016	1.0000026
241	0x3f800025	1.0000044
242	0x3f800033	1.0000061
243	0x3f7ffcda	0.99995196
244	0x3f7fff07	0.99998516
245	0x3f7fffaa	0.9999949
246	0x3f7fff9a	0.9999939
247	0x3f80004a	1.0000088
248	0x3f80000d	1.0000015
249	0x3f80000c	1.0000014
250	0x3f800052	1.0000098
251	0x3f7ffe91	0.9999781
252	0x3f7fffce	0.999997
253	0x3f7ffed8	0.99998236
254	0x3f80002e	1.0000055
255	0x3f7ffe95	0.99997836

bns.0.bias f4 [256]
0	0xb6a9f39e	-5.0649533e-06
1	0x3683199b	3.907085e-06
2	0x36e87970	6.928276e-06
3	0x3617b9dc	2.2608938e-06
4	0xb7cef6cb	-2.4672036e-05
5	0xb6ecc3bc	-7.0561346e-06
6	0x37029d98	7.7852965e-06
7	0xb7a3d4c7	-1.9530196e-05
8	0xb72e40a9	-1.0386263e-05
9	0x372b0c62	1.0195277e-05
10	0x36eee90e	7.120084e-06
11	0x3658b8fe	3.2294188e-06
12	0x36ce5660	6.149334e-06
13	0x3737dbd5	1.0958834e-05
14	0x37044207	7.883186e-06
15	0xb7894062	-1.6361653e-05
16	0x37052c67	7.937756e-06
17	0x365b59b7	3.2685764e-06
18	0x37234640	9.731913e-06
19	0xb703d5d8	-7.857998e-06
20	0xb6b11e02	-5.2785044e-06
21	0x36538fde	3.1525192e-06
22	0x37064c28	8.004754e-06
23	0x362edc2e	2.6056182e-06
24	0x363ed219	2.84345e-06
25	0x36ad42d0	5.1635798e-06
26	0xb7b44f29	-2.1494534e-05
27	0x36f598b4	7.319346e-06
28	0x37580828	1.2876502e-05
29	0xb73ff986	-1.1442584e-05
30	0xb7502394	-1.240605e-05
31	0xb6b275bf	-5.318521e-06
32	0xb74fbf48	-1.2382698e-05
33	0x36da56ff	6.507034e-06
34	0xb619c3f9	-2.2912848e-06
35	0x3713374c	8.774758e-06
36	0x360bf99d	2.0857908e-06
37	0xb64682ac	-2.958036e-06
38	0xb70ff719	-8.580996e-06
39	0xb77219e2	-1.443035e-05
40	0x3668e5d3	3.470447e-06
41	0x3740a2a6	1.1481961e-05
42	0xb639f683	-2.7710637e-06
43	0xb7225b6c	-9.677238e-06
44	0x365ee2c0	3.3212564e-06
45	0xb6b2d982	-5.3301346e-06
46	0x35df293e	1.6626798e-06
47	0xb7105ed0	-8.605144e-06
48	0x363317e8	2.6686994e-06
49	0xb5b38751	-1.3375922e-06
50	0x37a9bc30	2.0234002e-05
51	0x3720915c	9.570587e-06
52	0x370bc7a3	8.331527e-06
53	0xb7311f3f	-1.0557297e-05
54	0xb82d6504	-4.1340492e-05
55	0xb7109947	-8.6187565e-06
56	0xb5e35818	-1.6938457e-06
57	0xb704408d	-7.8828425e-06
58	0xb6bbbca6	-5.594996e-06
59	0x3756379f	1.2768344e-05
60	0xb6c56e97	-5.883932e-06
61	0x36a26f90	4.840964e-06
62	0x36bba358	5.59205e-06
63	0x36ccaafc	6.099579e-06
64	0xb6e6b86a	-6.8760028e-06
65	0xb6c73e45	-5.9379113e-06
66	0x35c776dc	1.4861248e-06
67	0x3557463b	8.019594e-07
68	0x36783312	3.6984607e-06
69	0x36ebe930	7.0306924e-06
70	0xb749f92b	-1.20385475e-05
71	0x36a312c9	4.8599654e-06
72	0xb60b33b8	-2.0742718e-06
73	0x370d46fb	8.420781e-06
74	0x374dc4b6	1.22647525e-05
75	0x364a9b3c	3.0190704e-06
76	0x37609938	1.3387114e-05
77	0x369dd076	4.7032327e-06
78	0x36ca4aaa	6.028761e-06
79	0xb78b0d32	-1.6576236e-05
80	0xb6a90d64	-5.0381514e-06
81	0xb27fdd00	-1.4893203e-08
82	0xb68038bb	-3.8213016e-06
83	0x370c4588	8.360839e-06
84	0xb6df9da6	-6.6642706e-06
85	0x3703ed74	7.863495e-06
86	0x3721317a	9.6078675e-06
87	0x3669677b	3.477994e-06
88	0x36abd32b	5.1207803e-06
89	0xb5fff035	-1.906889e-06
90	0x35fa64b8	1.8655765e-06
91	0x369f8efd	4.7552153e-06
92	0x36dd18b2	6.589188e-06
93	0x34842aee	2.4618151e-07
94	0x37453b0e	1.1755865e-05
95	0xb64b41c2	-3.0287633e-06
96	0x366301d9	3.3826711e-06
97	0x375e6999	1.32568175e-05
98	0x35932615	1.0963437e-06
99	0x3763a374	1.3568311e-05
100	0xb6d8c821	-6.4605997e-06
101	0x3624bda0	2.454828e-06
102	0x36d1f450	6.257127e-06
103	0x36bac0f9	5.565697e-06
104	0xb70aab2c	-8.265295e-06
105	0xb766c6f4	-1.3755391e-05
106	0x34fc84ae	4.7035195e-07
107	0x37055872	7.9480105e-06
108	0x374b38ad	1.2112939e-05
109	0xb72c92a0	-1.0286138e-05
110	0x368a2089	4.116508e-06
111	0xb6107037	-2.152299e-06
112	0xb710eeed	-8.638698e-06
113	0xb7599344	-1.2968496e-05
114	0xb68103eb	-3.8449557e-06
115	0xb753af68	-1.261742e-05
116	0xb6af99d6	-5.2333153e-06
117	0x347ee42c	2.3738602e-07
118	0xb6ca580c	-6.030319e-06
119	0x36eb8340	7.0188253e-06
120	0xb681c59c	-3.8675043e-06
121	0xb749ef5f	-1.20362665e-05
122	0x3664cba6	3.4093187e-06
123	0x376bfb90	1.4065663e-05
124	0xb5b5891f	-1.3525458e-06
125	0xb64ebdfe	-3.0806982e-06
126	0x36965e82	4.4813505e-06
127	0xb64dfc68	-3.06943e-06
128	0xb648da0c	-2.9929242e-06
129	0x373a143d	1.1091176e-05
130	0xb586717a	-1.0016804e-06
131	0x37953b14	1.7789695e-05
132	0x36939bb2	4.3990667e-06
133	0xb7333e1c	-1.0683692e-05
134	0x36c31e82	5.8150044e-06
135	0xb6b1c1a3	-5.2975533e-06
136	0xb4faa58c	-4.668658e-07
137	0x364b33b8	3.0279461e-06
138	0xb75e0ce6	-1.3235234e-05
139	0xb6c3af2c	-5.8318456e-06
140	0xb71cb1fe	-9.339767e-06
141	0x366a92da	3.4954196e-06
142	0x377e251c	1.514822e-05
143	0xb79bb00a	-1.8559414e-05
144	0xb65d830b	-3.3007843e-06
145	0xb6ebd9ac	-7.028886e-06
146	0x36ce936c	6.1564406e-06
147	0xb6c118d1	-5.7547372e-06
148	0xb6eef34c	-7.121276e-06
149	0xb68eb5d1	-4.253096e-06
150	0xb65cf59e	-3.2925523e-06
151	0xb6ecf51b	-7.061882e-06
152	0xb62c67a8	-2.5690333e-06
153	0xb699898c	-4.575768e-06
154	0xb6bcdeb2	-5.6287618e-06
155	0xb66a7ce2	-3.4941409e-06
156	0xb63ececc	-2.8432578e-06
157	0xb797dd59	-1.8103676e-05
158	0xb7ff6eba	-3.044993e-05
159	0x37549274	1.26702835e-05
160	0x3684c3ee	3.956716e-06
161	0x369e1cb7	4.71211e-06
162	0xb73db61c	-1.13076785e-05
163	0xb5f973bd	-1.858563e-06
164	0xb730dd04	-1.0541877e-05
165	0x34ec3bd6	4.4001962e-07
166	0x369009dc	4.292682e-06
167	0xb790ad2a	-1.7246773e-05
168	0x36d8a911	6.4569836e-06
169	0x36d7c95d	6.430941e-06
170	0xb68ddab7	-4.227589e-06
171	0x361d03fd	2.3397145e-06
172	0x375a7670	1.3021388e-05
173	0x3465d4d9	2.140472e-07
174	0xb5e20340	-1.6839258e-06
175	0x354d7b68	7.654803e-07
176	0x35140232	5.513749e-07
177	0x36f40a9e	7.2730027e-06
178	0xb6888633	-4.0687387e-06
179	0x36804924	3.823212e-06
180	0x36b74c9a	5.4627426e-06
181	0xb69764eb	-4.511899e-06
182	0x365a9530	3.257137e-06
183	0xb6c41522	-5.8437154e-06
184	0x35a40201	1.2219535e-06
185	0xb7610428	-1.3412013e-05
186	0xb65a5c6c	-3.2538328e-06
187	0xb6fb9230	-7.4974014e-06
188	0xb7550c9f	-1.2698728e-05
189	0xb6d5079c	-6.3487805e-06
190	0x36bf120e	5.6943454e-06
191	0x372c09fa	1.0254322e-05
192	0xb71297e3	-8.737642e-06
193	0x359d9894	1.1741818e-06
194	0x37515fea	1.24797025e-05
195	0xb7a12cc8	-1.9213549e-05
196	0x37522582	1.2525708e-05
197	0xb7103d0d	-8.597283e-06
198	0x357f739c	9.5163136e-07
199	0x37445d4e	1.1704235e-05
200	0x3710cdae	8.630957e-06
201	0x368e81e0	4.247049e-06
202	0xb6491bc4	-2.9967496e-06
203	0x365e1aff	3.3096292e-06
204	0x373178d9	1.0578159e-05
205	0x36ba4160	5.5508426e-06
206	0x3779f151	1.4897742e-05
207	0x36585841	3.2237879e-06
208	0x358dd3d5	1.056697e-06
209	0x37221c9b	9.662613e-06
210	0xb4525ddc	-1.959192e-07
211	0xb6ae5115	-5.1950433e-06
212	0xb4910d04	-2.7017825e-07
213	0xb69bcdd7	-4.643323e-06
214	0xb6d8f568	-6.4658707e-06
215	0xb6796edc	-3.716842e-06
216	0xb79b293e	-1.8496645e-05
217	0x36a5e3c6	4.9438995e-06
218	0x36c65112	5.9102977e-06
219	0xb77ee2dc	-1.51924e-05
220	0xb766fb64	-1.37676e-05
221	0xb6df0fcc	-6.647757e-06
222	0xb7d8acfa	-2.5829755e-05
223	0x36d7c184	6.4300275e-06
224	0x370fd7a5	8.573673e-06
225	0xb775b15c	-1.4644433e-05
226	0xb7932463	-1.754071e-05
227	0x36fb436c	7.488232e-06
228	0xb724b7f2	-9.81799e-06
229	0x365a8db2	3.256701e-06
230	0xb5184704	-5.6727754e-07
231	0xb7dbace5	-2.6187345e-05
232	0x360dece9	2.1148537e-06
233	0x36ac71c4	5.1392435e-06
234	0xb6a63828	-4.953723e-06
235	0xb74641bc	-1.1817025e-05
236	0x3611b2c6	2.1710744e-06
237	0xb695ccb5	-4.464377e-06
238	0x37851009	1.5862302e-05
239	0xb740bdb4	-1.14882605e-05
240	0x3655aad0	3.18389e-06
241	0x36c0fda8	5.7515754e-06
242	0x36a4cffc	4.9117934e-06
243	0xb80b7b5c	-3.325507e-05
244	0xb79e0bae	-1.8840507e-05
245	0xb6fd32a6	-7.545884e-06
246	0xb7082270	-8.11425e-06
247	0x36c1b2d5	5.772667e-06
248	0x35a4b602	1.2271923e-06
249	0xb5064e1f	-5.003257e-07
250	0x371cbc36	9.342146e-06
251	0xb7aed449	-2.084127e-05
252	0x363eff02	2.846064e-06
253	0xb787c360	-1.6184233e-05
254	0x37120b15	8.704858e-06
255	0xb6f6157f	-7.333874e-06
