output/dmd/restr_e2v/run_005/restr_dmd_best_model_e2v.pth (torch, 273077 bytes, 14 tensors)

convs.0.lin_l.weight f4 [256, 64]
00000000: b760 f53c 3d91 75bd a094 83bd f231 0ebd
00000010: c0d9 fc3d d2f8 0b3d 0fb5 e3bd f1ac 53bd
00000020: 3e47 ee3d 9782 063d d817 1b3d c1c6 b5bc
00000030: 1902 cfbc d655 bebd 0261 f63c 9011 a63d
00000040: 2c96 05be 3df1 f2bd b6ea e13d 20c5 1ebd
00000050: 238d aa3d 635a 93bd 6a7c debd 7213 223a
00000060: c2cf d3bd 6406 b03d febe f83d 5041 be3d
00000070: 4ad8 8ebd ed90 86bd 57ee 92bd 631a d6bd
00000080: 435d 96bc 459f 4fba 1e0b 933d fc79 b7bd
00000090: d5e9 643a c901 bcbc a144 8abd 4b15 1d3d
000000a0: 8468 7b3d 317d e1bd dc98 e6bd 60a2 96bd
000000b0: e61a 9a3d e015 b23c b408 06bd b7e7 6a3c
000000c0: 75d8 f1bd c381 903d 2c51 d0bb d795 e43c
000000d0: 737e 34bd e1f7 773d 85fd f13d 7f9b 723d
000000e0: e979 2cbc 8508 acbd 446f 863d d81a 44bd
000000f0: c524 82bd a62c ad3d aa78 a4bd c595 833d
00000100: e420 8abb 0ca6 3c3c b670 c63c a475 993d
00000110: 47d9 8a3d 3921 5bbd 8b63 a23d 7bc1 743d
00000120: 1598 2c3d 6aed a3bd fffb 98bd e4b8 863d
00000130: f578 7abd 7df1 cabb ba7c 8d3c 32cd 9fbd
00000140: 3a7f d5bc 624b 4cbd 7206 723d 09b8 14bd
00000150: 35c0 b0bd 8389 5abc 646c 893c e6b6 d6bd
00000160: ecec eb3c 5250 b4bd 63e0 40bd f61b edbc
00000170: 7367 823c e63b cbbd 3784 953d 07de 273d
00000180: 2e30 2fba 53be b9bd b165 aabc ea28 f5bd
00000190: 930d 8dbd 0de4 9cbd a611 c1bd e8a2 c93b
000001a0: b3ed 68bc 91df e3bd bc64 c2bd f577 c83d
000001b0: d681 74ba f789 bcbd c4b5 c63d 1b26 503d
000001c0: 1867 19bc a9e7 0abd 0d7d f6bc d5aa 8fbd
000001d0: 6b82 373d aff0 d5bd d044 f0bd 2737 8a3d
000001e0: 4a12 f5bd c202 cb3c 210f b83d 459f 8bbd
000001f0: 716c b4bc 4ca6 6abd a960 41bd 0520 2c3d
00000200: 2193 03bd ed6e e6bb 4b04 f33d fb3a c83d
00000210: ecd7 aebd 5a27 9dbc 073b 99bc 6851 c13d
00000220: 31bd d8bc 177a f43c 5c64 80bd 5018 86bd
00000230: ef22 ecbc 6645 e53d e455 f13d 4984 343c
00000240: b855 fcbd 273d f8bb 6579 e83c f6bf 87bd
00000250: efaa 933a 72b1 4f3d e689 9cbd 8801 ac3c
00000260: 9ee3 ae3d b76e 963d 52e4 0a3d 1187 b33d
00000270: 712b 9abd 210f 3a3d 39b8 033d fc5d 993d
00000280: fbc7 f93d 008f 6a3d adbb d5bd 6551 8f3d
00000290: 40ea c7bd b66e 093d 6854 8bbc 5573 75bd
000002a0: 2976 8f3c d105 693d be79 d93d 1752 c73d
000002b0: e5b5 9fbc a727 523d a1bb c0bd cfa9 babd
000002c0: b0cb 833d d93c 873d 8a3a 61bd 323f 5cbd
000002d0: 6225 d6bc 4c64 873c a4e3 aabc aaa4 8abd
000002e0: 6a4a d03b 179b bb3d 1051 40bd f48f d53d
000002f0: 4508 01bd 7a50 9cbd 3856 053e 35f2 fdbd
00000300: 1eef ea3d 0107 ed3d 4a6f e13d b158 c6bd
00000310: 7aca e43c fcec 99bd 9982 f3bc 3593 083d
00000320: 0f95 ba3d b8b1 61bc 4d64 a5bd 967c 933d
00000330: bb7e 21bd a94b 84bd befa 523d 6f70 a53c
00000340: c0f7 d2bd 55f7 e43d 275b 063c e25a 02bd
00000350: 124c 00bd 8b59 d6bd b64f 18bd 6b84 9cbd
00000360: ad85 c23c 5203 54bb 622e e4bd 17a7 2dbc
00000370: a2ae e93d e4a1 b8bc 5f26 8bbd d9cc b83d
00000380: ddb4 6a3d 9148 f1bd 4a53 013d 3dad ff3c
00000390: 77ea 863d f685 023d 42c8 41bd 912f f43d
000003a0: e1a3 af3d dbd1 7dbd 9f34 e3bd 412d 513d
000003b0: 1219 abbd 44ca 2fbd 6535 a93d e3f1 0dbd
000003c0: 667d ef3d 6c03 f0bd d231 a8bd 0803 4e3d
000003d0: 2cc2 763b 29e9 733d eccd abbd e324 ad3d
000003e0: 007c e03d 3ad5 6a3b 7dfb bdbc ae67 8bbc
000003f0: 7d21 f63d 5ff0 ee3d 6a5f 20bd 13ae 3abd
0.029953344 -0.059952963 -0.06424832 -0.0347156 0.1234622 0.03417284 -0.111185186 -0.0516786
0.11634682 0.032839384 0.037864536 -0.0221895 -0.025269555 -0.09293716 0.030075554 0.081088185
-0.13045567 -0.11862419 0.11031096 -0.03876221 0.08327701 -0.07194974 -0.10863574 0.0006182707
-0.10342361 0.08594969 0.12145804 0.09289801 -0.069748476 -0.06570611 -0.07174366 -0.104542516
-0.018355018 -0.00079201563 0.07179855 -0.089588135 0.00087323535 -0.02295007 -0.06751371 0.038350385
0.06137897 -0.110102065 -0.11259624 -0.07355189 0.07524662 0.021738946 -0.032723144 0.014337472
-0.11808864 0.07056 -0.0063573327 0.02790348 -0.044065904 0.06053913 0.11815933 0.059230324
-0.0105271125 -0.084000625 0.06564191 -0.047877163 -0.063546695 0.08455782 -0.08030827 0.06425051
-0.0042153466 0.011514198 0.024223667 0.07493141 0.067797236 -0.05349848 0.079291426 0.05975483
0.042137224 -0.080042675 -0.074699394 0.06578234 -0.06115051 -0.0061933384 0.017271388 -0.0780281
-0.026061643 -0.04987658 0.059088178 -0.036308322 -0.086304106 -0.013338449 0.016775317 -0.10484104
0.028799497 -0.088043824 -0.04708899 -0.028943997 0.015918469 -0.09923534 0.073006086 0.040983226
-0.00066828995 -0.090695046 -0.020800443 -0.11970694 -0.06887355 -0.07660685 -0.09427194 0.006153453
-0.014216828 -0.11126626 -0.0949187 0.09788505 -0.00093272084 -0.09206002 0.09702638 0.05081759
-0.009362958 -0.033912335 -0.030088926 -0.070150055 0.04480211 -0.104462974 -0.11731875 0.06748801
-0.11966379 0.024781588 0.089872606 -0.068174876 -0.022024365 -0.0572875 -0.047211323 0.042022724
-0.032122735 -0.0070322664 0.11866053 0.09776875 -0.085372776 -0.019183803 -0.018704904 0.09439355
-0.026457401 0.029843373 -0.06269142 -0.06547606 -0.028825251 0.11194877 0.117839605 0.011017867
-0.12321037 -0.0075756493 0.028378198 -0.066284105 0.0011266152 0.050706334 -0.076434895 0.020996824
0.08539508 0.07345336 0.03390915 0.08765996 -0.07527817 0.045424584 0.03215811 0.07488629
0.12196346 0.05726528 -0.10436187 0.06997947 -0.097614765 0.033552848 -0.017008021 -0.059924442
0.017512398 0.056890313 0.106189236 0.09732454 -0.019495914 0.051307347 -0.094107874 -0.0911442
0.06435335 0.06603403 -0.054987468 -0.053771205 -0.026140872 0.016527317 -0.0208605 -0.067696884
0.006356527 0.091604404 -0.046952307 0.104278475 -0.031502027 -0.07632537 0.13021171 -0.12399713
0.11471389 0.115736015 0.11007555 -0.09684885 0.02792858 -0.07515904 -0.02972536 0.033343513
0.09110462 -0.013775282 -0.080757715 0.07201497 -0.0394275 -0.064597435 0.051508658 0.020195214
-0.10301161 0.11179987 0.008200443 -0.031824954 -0.031322546 -0.10466298 -0.037185393 -0.07642444
0.023745382 -0.0032350612 -0.11141659 -0.010598919 0.11410262 -0.022538133 -0.06794428 0.090234466
0.05730139 -0.11781419 0.03157357 0.031210536 0.06587689 0.031866036 -0.04731012 0.11923135
0.08576179 -0.061967712 -0.11094021 0.051068548 -0.08354391 -0.042917505 0.08262137 -0.03465451
0.1169384 -0.11719403 -0.082126275 0.05029586 0.0037652357 0.05954853 -0.08388886 0.08454301
0.10961151 0.003583266 -0.023191208 -0.017017212 0.12018106 0.11666941 -0.039153494 -0.045576166

convs.0.lin_l.bias f4 [256]
00000000: 12bf 9abd d297 db3d 4b6f 5e3d 9f73 9abc
00000010: ca97 4dbd 8cc9 fcbd fa58 50bd 67f2 9d3c
00000020: 2b64 01be 5bf8 92bd 2031 c93d e853 573c
00000030: 7fb7 ffbd d600 d13b 74a2 bfbc 0e3e 043e
00000040: 2de4 c63d 3e33 69bd 62f1 0abd 3521 eabd
00000050: 5b37 d53c 1458 f5bd b6a3 c7bd ad73 38bd
00000060: 4254 c33d 1ba1 eabd 9ba4 bfbd 8465 fbbd
00000070: c084 aabd 8b3c d33d a967 e63c 6b47 9b3d
00000080: b25b a13b f7fb 89bd 185e d33d ae61 6fbd
00000090: a987 9f3d 0e01 3fbc dfe1 f83d 138f ea3d
000000a0: 606b 393d 8587 ecbd bbce 85bd 1353 46bd
000000b0: 5067 fb3d 5f3c 28bd d3df 65bd 9f40 cbbd
000000c0: 779e 3abd 61d0 71bd 72b2 02bd 05bb 63bd
000000d0: 56b4 86bd 6ac7 a0bd 942e e8ba 9926 88bd
000000e0: edc6 c03a 603f b1bd 6186 723c 5518 9f3d
000000f0: d5da 093d 3778 d33d da58 a13d fd06 513d
00000100: acf0 a73d a158 833d 2ecc 2e3d 032a f7bd
00000110: 97ca dabd 9cdd 873d fa7e dabd 01d0 09bd
00000120: 9fe4 60bc 3dd5 533d f050 e9bd f198 dabd
00000130: 2542 db3d 165b 8fbd bfb9 823c b530 ca3d
00000140: f55b 03be 4fe1 753d 9608 19bd 2c97 a4bd
00000150: ad0e c03c d8ca 0cbe b268 e0bd f240 fa3d
00000160: 6fdf 22bd bd54 04ba 456f c7b9 e8ae e53d
00000170: 7b83 bfbd 6942 1d3d 044c 11bd b526 913d
00000180: 1dfa f1bd effc 183d ffd7 83bd 902c 843c
00000190: 1eed 5dbc 85fc fcbc b069 823d 18d8 e83d
000001a0: 3e2f b13d c8b5 d23d 631a ce3d 2321 453d
000001b0: d582 05bd de86 c5bd cb94 b0bc a0bb c9bd
000001c0: 0eae 56bb a3cf ac3c 6d80 f33c 5ec6 a83d
000001d0: 2b61 6bbd 2372 3bbd 07bd bbbc 6cb8 55bc
000001e0: 458b c7bd 09b5 10bd 9bc1 4e3d 2b9a 503d
000001f0: d86b 803d 68f1 a93b a847 eb3b 7a07 e73d
00000200: ff96 e13d 512a e73c 68ca d03d 9b44 93bd
00000210: 7c2c 9abc baec c2bb ff35 d93d 4ec1 713b
00000220: 3742 d93c 8ef0 82bc 6f5a 0abc eca8 e33d
00000230: ef18 9abd 1bba e1bd 4010 6dbd a87a 093c
00000240: f860 603d 0b90 3bbb f13a 0a3c 9789 c43d
00000250: ad02 103d 045e 92bd 6849 ad3d 780d b2bd
00000260: da90 ae3c 71a5 81bd da55 cf3d cdc1 673d
00000270: 506c 8abb ec4e c53d e98f 18bb 76c1 a83c
00000280: 5b25 ea3d b1e7 dbbd 5d6f f23c 3699 4cbc
00000290: 3bde 96bc 4b64 fbbc cd49 cabd 9970 d03d
000002a0: 2d10 30bd 184f 95bd 9480 66bd 17b3 e63d
000002b0: 0a6a 123d aeda dfbc d495 a93d 79de 2fbd
000002c0: e0af 213c 6584 0fbe f00d c43d 14f4 f5bc
000002d0: 2b92 85bd a842 47bd 2f9d 2e3d 811f 823c
000002e0: d4ae 25bd b203 d5bd 783b ec3c 2080 eabd
000002f0: 59f8 80bd 01b9 38bd ea11 af3d 0223 da3d
00000300: dc08 d13d 0251 b13d 4f66 803d aa2d d83d
00000310: 8aae 95bd 6a8c 173b 8c21 64bc 40e6 473d
00000320: a8fd 2c3d 32b7 4a3d 73e7 80bc 069e df3d
00000330: 8c2b f6bd 7583 b63d b082 d9bd 1888 0dbd
00000340: ba9a 3fbd a939 adbd eb24 8a3b c08a 11be
00000350: 5059 b83d ccb3 833c 7d8c ba3d d525 8ebd
00000360: 1868 d2bc da92 2abd 939a 96bd a288 1a3d
00000370: 9630 213c d696 aa3d 93e4 c4bc bf99 303d
00000380: 35ec 5a3d cdcf 7fbb f00a 073d 8402 283d
00000390: a817 eebd 5367 a03d 6f23 21bd 54b4 febd
000003a0: 741d f3bd 10da 4dba d7ab debd 1f02 d83c
000003b0: 7b48 a4bd 1c35 9a3d 1d72 07bd 13c2 9ebd
000003c0: c467 9bbc e792 8dbd 20f4 783d e16f 9a3d
000003d0: cfd0 5e3d d363 b8bc cdef ff3d 6f74 8a3d
000003e0: 6138 42bd 1480 c8bd e4c6 e9bd 6c50 d73d
000003f0: 5e49 263d a033 b2bb 7ece 13bd 3016 ab3c
-0.07555975 0.10722317 0.054305356 -0.01885396 -0.050193585 -0.123431295 -0.050866105 0.019280626
-0.12635867 -0.07176276 0.09823823 0.013142563 -0.12486171 0.0063782735 -0.023392893 0.12914297
0.0971149 -0.056933634 -0.033921607 -0.11432115 0.026027372 -0.1197969 -0.09748022 -0.045032192
0.09537555 -0.1145651 -0.09357568 -0.12275222 -0.08326101 0.10314282 0.0281256 0.07581981
0.004924261 -0.067375116 0.10320681 -0.058442764 0.07789547 -0.011657966 0.121524565 0.114530705
0.045268416 -0.11549286 -0.06533571 -0.04841907 0.12275565 -0.0410732 -0.05612166 -0.09924435
-0.04556128 -0.059036616 -0.03190846 -0.055598278 -0.06577365 -0.07850535 -0.0017714077 -0.06647987
0.0014707722 -0.08654666 0.014802546 0.07768313 0.03365596 0.103256635 0.07878275 0.051032055
0.082002014 0.06413389 0.04267519 -0.1206856 -0.10683172 0.066340655 -0.1066875 -0.033645634
-0.0137263825 0.05171703 -0.11392391 -0.106737025 0.107059754 -0.06999795 0.015957711 0.098725714
-0.12828048 0.060029324 -0.037361704 -0.08036646 0.023444498 -0.13749254 -0.10957469 0.122194186
-0.039763864 -0.00050480274 -0.0003803914 0.11215001 -0.0935125 0.03839341 -0.035472885 0.07087461
-0.118152834 0.03735059 -0.06437682 0.01613453 -0.013545303 -0.03088213 0.063678145 0.113693416
0.08651589 0.10288578 0.100636266 0.048127305 -0.032595474 -0.096448645 -0.021555325 -0.0985024
-0.0032757553 0.021095103 0.029724324 0.082409605 -0.057465713 -0.045763146 -0.022917284 -0.013044458
-0.097433604 -0.0353289 0.050477605 0.050928276 0.062705696 0.0051862486 0.007180173 0.11280723
0.11015128 0.02821842 0.10194856 -0.0719082 -0.01882004 -0.00594863 0.10606002 0.00368889
0.026520832 -0.015983846 -0.008444413 0.11116204 -0.07524287 -0.11021825 -0.057876825 0.00839106
0.054779977 -0.0028619792 0.008436904 0.09596556 0.0351588 -0.07146838 0.08461267 -0.08693975
0.021309305 -0.063303836 0.10123797 0.056581307 -0.0042243376 0.09634194 -0.0023279137 0.020600062
0.11432906 -0.10737551 0.029594118 -0.0124877 -0.018416515 -0.030687472 -0.09877358 0.10177726
-0.042984176 -0.072904766 -0.056274965 0.112646274 0.035745658 -0.027325954 0.082805306 -0.042936776
0.009868592 -0.14015348 0.09572971 -0.030023612 -0.0652202 -0.048647553 0.04263037 0.015884163
-0.040449932 -0.104010954 0.02883695 -0.11450219 -0.062973686 -0.04509831 0.08548339 0.106512085
0.10206768 0.08658029 0.06269514 0.10555585 -0.07308681 0.0023124465 -0.013924014 0.048803568
0.042234093 0.049491115 -0.015735364 0.109188125 -0.12020025 0.08911792 -0.1062063 -0.034553617
-0.046778418 -0.084582634 0.0042158267 -0.14213085 0.0900141 0.016076945 0.09108827 -0.0694081
-0.025684401 -0.041643955 -0.073537014 0.03772796 0.009838244 0.08329551 -0.024034774 0.043115374
0.05344792 -0.003903377 0.032969415 0.041018024 -0.11625606 0.078322075 -0.039340433 -0.124367386
-0.11870852 -0.0007852623 -0.108726196 0.026368199 -0.08021637 0.07529661 -0.03306781 -0.077518605
-0.018970378 -0.06912785 0.06077969 0.075408705 0.054398354 -0.022508537 0.1249691 0.06760489
-0.04741705 -0.09790054 -0.114148885 0.10513386 0.040597312 -0.005438283 -0.0360856 0.020884603

convs.0.lin_r.weight f4 [256, 64]
00000000: 0244 bb3b ebf0 dcbc d470 e1ba 8e7b 583d
00000010: 16f0 da3b 1e65 9abd 4049 b4bb ed36 e23d
00000020: 9aec 923d fdb9 e4bd aa3b 73bd 492a d5bd
00000030: 78b7 2fbd f039 a5bc e146 db3d 67a5 db3d
00000040: b179 4e3d cd86 7a3d 6ba5 48bd 16dc dfbd
00000050: 536f e83c fc31 8c3d 6173 43bd cb1b 05bd
00000060: cb50 70bc 6b73 853b a586 91bd 3b3c b83c
00000070: 0d2e 063d 3f55 fb3d 9a8f d73d 2961 dd3c
00000080: 9e12 01bc fed6 c3bd d3fd 283d e471 f73d
00000090: b501 123d 2699 eabd 67cb 963d f8fb d33d
000000a0: 0e6e fdbc 51d6 f7bd 15ee 99bd c59e 01bd
000000b0: cd78 8b3d 40ea d43d a558 c83c 6eca 95bc
000000c0: b172 623d 2e81 e9bc 5d2c 3fbd 9684 a5bd
000000d0: c4e4 c63d 2ffc a1bd 233c 483d 7fdf 6fbc
000000e0: 74d5 9d3d 0ab7 abbd 071a 60bc 17e6 d5bd
000000f0: 1618 0c3d 9dc7 7d3d d65b 42bd 6f23 4bbd
00000100: 446e e2bd 46d6 2fbd bbd4 5d3d 6bfe 99bd
00000110: 6f04 913d 2214 933d 7a81 b53d 3ae2 6fbc
00000120: 2446 70bc 72bb f5bd b259 db3d d487 eabd
00000130: 8d0d 9dbd 5955 9a3d 7248 df3c d024 c53d
00000140: 3fb2 473d d3a5 adbd 98f9 c63d 2fc6 90bd
00000150: e6cb 06be 2e8d 653c fae2 36bd ddf7 b3bd
00000160: c8c1 e0bd bb9e 99bd 404a 8fbd ac24 ec3d
00000170: 05ba 87bd 4c8c e33b dd07 8ebd ad35 33bb
00000180: f9e3 a6bd 35c5 8f3d 3a71 98bd f819 da3d
00000190: 70ce d1bd 731d 53bd 6b74 283d 97b7 ef3d
000001a0: 0847 4cbc c248 fc3c 8891 e03d 0065 0ebd
000001b0: aeeb d93d bfdb 833d 48e1 5cbc e2c9 5c3d
000001c0: 25a1 edbd 66ea b13d 78f9 d7bd f553 8b3d
000001d0: b97e 823d e7b9 38bd c09c 5bbd e11f 593d
000001e0: ba15 f03d 28ed a13d 19ea 96bc 45c2 d63c
000001f0: 82b3 153d c4be 01bc d257 d43d d92f be3d
00000200: 9304 6ebd bf0a 583d 74a2 ea3d 6e58 a8bd
00000210: c764 eebd 7174 edbd ea2d 8dbd d7c6 b2bd
00000220: 895a e53d 643c ffbd 24f6 ca3d 13fa 11bd
00000230: 97c0 e13d 4d74 8fbd a18e 3c3d 918a 0dbd
00000240: b439 a93d 573e 883d 932c 053b 0d43 2f3c
00000250: 845f 38bd cc8b bd3d 0b6b ec3d f829 4a3c
00000260: c2c1 9c3d 08ab 45bd ccf9 c5ba 899a c53d
00000270: 79fe 5e3d 744d f3bd 6a5e 8bbd c967 dabd
00000280: b714 16bd 1be9 e7bc e333 7fbd 78f8 00be
00000290: e5e3 ccbc 706a 073d d93e 6cbc cb3f 36bc
000002a0: 5f13 c93d f8ab a43d 331d 853d 8de2 97bd
000002b0: 3cca 5a3d aec9 9d3d 0bd6 ed3d abf1 bfbd
000002c0: 656e 13bd 09cb 4f3d 5e50 d23c b8ed 69bd
000002d0: dfeb efbb 17cd 0b3d 3afd dc3d 69df 0f3d
000002e0: e348 b33d 8d4f 8ebd 8f30 cbbc 96b2 2a3d
000002f0: ed77 e0bc 316e 473d deb8 3cbd c4be abbd
00000300: ba9c f83d 1222 e03d 664e 9abd 9401 0f3d
00000310: 7e44 223d 3d6d 8a3d ba78 d8bd 5094 3dbc
00000320: 25d7 cebd ff8b 2dbd 9a72 55bc 9f39 003d
00000330: b53e 493d 8e0a 353c bbc6 953c 3c1f ce3d
00000340: 4d1b d83d b4f8 e23d 9a93 873d 222b ec3d
00000350: 5ecd d9bd bc87 c73c 119f f13d 37d3 bdbd
00000360: 0d43 9ebd fb92 b2bd 9993 c23d 9601 793d
00000370: 710b 9d3d d838 a03c 020a 38bc fb1e 893c
00000380: 67f3 d33d e12d e83d be1f 163d fe4f 013c
00000390: f47c 6f3d 5369 e03d f62f 1abd c3b9 923c
000003a0: 2f4d 55bd 2e24 2dbd 9ac6 503d 5d07 033c
000003b0: 6173 593d 8634 f43d 4b56 afbb 89a5 17bc
000003c0: b0e5 bb3d 4de5 9b3d 6c6f 67bd 6e84 edbc
000003d0: 5565 7cbb ae92 d4bd fd67 863d 1bfd 123d
000003e0: 0da5 c5bd 1584 83bd 7959 cdbd bca7 b03d
000003f0: a65b 23bb 78ef bbbd 8071 d13d 1aa1 c53d
0.0057148943 -0.026970347 -0.0017199763 0.052852206 0.0066814525 -0.07538818 -0.005501896 0.110456325
0.071740344 -0.11168287 -0.059383072 -0.10408456 -0.04289958 -0.020169228 0.107068785 0.10724907
0.050409023 0.061163712 -0.04898588 -0.1093065 0.028373396 0.06845471 -0.047717456 -0.03249721
-0.0146677 0.004072597 -0.071057595 0.022489658 0.03275876 0.12272119 0.10525437 0.027023869
-0.007877974 -0.09562491 0.04125769 0.1208227 0.03564616 -0.11454992 0.07363015 0.103507936
-0.030936267 -0.121014245 -0.07516114 -0.031645555 0.0681015 0.10396242 0.024456332 -0.018285003
0.05528516 -0.02850398 -0.046673167 -0.080819294 0.09711602 -0.07909428 0.048885476 -0.014640688
0.077067286 -0.08384521 -0.01367808 -0.10444277 0.034202658 0.061957944 -0.047450863 -0.04959434
-0.11056188 -0.042928956 0.054157954 -0.075192295 0.07080924 0.071815744 0.08862586 -0.014641339
-0.01466516 -0.11998643 0.107104674 -0.114516884 -0.076686 0.0753581 0.027256224 0.09626162
0.048753973 -0.08478894 0.09715575 -0.070690505 -0.13163719 0.014010711 -0.044650055 -0.087875105
-0.10974461 -0.075009786 -0.06996584 0.11530432 -0.06627277 0.006944215 -0.069350936 -0.0027345226
-0.08148951 0.07020036 -0.07443471 0.106494844 -0.10244453 -0.051541757 0.04112665 0.11704939
-0.012468107 0.030796412 0.10965258 -0.03476429 0.106406555 0.064383976 -0.013481446 0.053903468
-0.116030015 0.08687286 -0.10545629 0.06803123 0.06371827 -0.045099165 -0.053616285 0.053008918
0.11722894 0.07906562 -0.018422173 0.026215682 0.036548145 -0.007919017 0.10368313 0.0928647
-0.05810983 0.052744623 0.11456767 -0.082199916 -0.116403155 -0.11594475 -0.06893523 -0.08729332
0.11198909 -0.124626905 0.09910229 -0.03563888 0.11023062 -0.070046045 0.04603446 -0.034555975
0.08262959 0.066525154 0.0020320758 0.0106971385 -0.045012966 0.0925518 0.11543854 0.012339108
0.07654144 -0.04825881 -0.0015104352 0.09648616 0.054441903 -0.118800074 -0.068051174 -0.10664327
-0.03664085 -0.028309396 -0.062305342 -0.12594783 -0.025011012 0.03306049 -0.014419281 -0.011123608
0.09818148 0.08040613 0.0649971 -0.07416258 0.053415522 0.07704483 0.11613091 -0.093722664
-0.035993952 0.05073074 0.025673088 -0.057111472 -0.007321819 0.034131136 0.10790487 0.03512517
0.087541364 -0.06948767 -0.024803428 0.04167422 -0.027400935 0.04868907 -0.04607474 -0.08385995
0.12139268 0.109439984 -0.075344846 0.034913614 0.0396161 0.06759117 -0.10569902 -0.011571005
-0.10099629 -0.04236984 -0.013027811 0.03130495 0.049132068 0.01104988 0.018283239 0.10064551
0.10552082 0.110825926 0.0661995 0.115316644 -0.10634874 0.024356715 0.11797918 -0.09268802
-0.07727633 -0.087194405 0.09500808 0.060792528 0.07668198 0.019558355 -0.011232855 0.016738405
0.1034916 0.11336876 0.036651365 0.007892607 0.058468774 0.10957589 -0.037643395 0.017910844
-0.05207556 -0.04227083 0.05097065 0.007997361 0.05308855 0.119240806 -0.005350863 -0.009255775
0.09174669 0.07612095 -0.056502745 -0.028993811 -0.0038512547 -0.103795394 0.06562803 0.03588591
-0.096506216 -0.06421677 -0.10026831 0.08625743 -0.0024926453 -0.091765344 0.102267265 0.09649868

convs.1.lin_l.weight f4 [64, 256]
00000000: 2099 3fbd 3326 11bd e112 3a3c d08b 9a3c
00000010: a015 623a 202f 66bd 6e65 8dbd 38bd 5abd
00000020: 2fab 4ebd 105c a9bc 82c1 053d e85d 0a3d
00000030: aad5 c5bb 24e5 2dbd 0f0c 203d 0d7a 113d
00000040: 0efa 293b 94f7 e93c d9b8 8ebd defb 973c
00000050: f2fe 14bd 7c26 8cbd 8f2b 133d fdeb 3ebd
00000060: a35b 61bd 0267 a0bd b5d5 5fbd 4e8b afbc
00000070: dda2 a03b acbc 1bbc 8074 0c3d 316b 0a3d
00000080: f4e6 62bd 51b9 8abd 2702 023c 4d4a e0bc
00000090: 998b 94bd c64a 6a3a b7cc b4bb 9a9c 7ebd
000000a0: 0703 913c 9c25 4ebd 2158 ffbc d778 1abd
000000b0: 8f4b 7abd 87b4 333d b16d d1bc a2fc 173c
000000c0: 7ef4 ed3c a80c 4cba 63c5 7e3c cf4f 7bbd
000000d0: e5f5 80bd 8c3b 25bd 64d6 8abc 31ac c93c
000000e0: 3d8c 35bc 370d c83b 23cc 5dbd d0b3 b13c
000000f0: 2466 8dbd a6fa afbd 5a35 923c 8c99 65bd
00000100: 17a7 b73c 8d43 cf3c 5608 9e3c 7c01 f9bc
00000110: 6b77 0f3d bb57 67bd 3aec 193c 9cc2 30bd
00000120: 6080 823c 12b5 073d 7349 4cbc bff9 b33c
00000130: 3f93 65bd a1fa 1c3a f0c7 86bd 8ee5 08bd
00000140: d0ad 6c3c 5861 c9bb 13f7 88bd b6ff abbc
00000150: 571b 43bd 58e9 76bc 16d7 04bd 5d13 a3bc
00000160: 20fc 8ebd 986e 2e3d aa02 adbb 11fe fcbb
00000170: f1c8 9abd cf8b 9fbd d82d 9cbd d857 3bbc
00000180: 9ee0 b63c 8e9d 82bd 15d6 6ebd f4d5 3cbd
00000190: 987e 91bc 3d18 7ebd deef 8dbd 7841 1cbd
000001a0: c23f b0bc 2773 5fbd 57f3 d13c 6871 a7bc
000001b0: cdb4 9e38 1587 80bd 0f7f 57bc f686 84bd
000001c0: 7dd3 33bd ea48 8e3b b1e5 b1bd 8624 62bd
000001d0: b35e 79bd 721c 83bd b1bd 20bd 01de b23c
000001e0: fb47 18bd 78bb 8abd 580c 083d d1b6 dc3b
000001f0: 17d0 f6bc 5577 7cbd 3ac4 d3bc c975 12bc
00000200: 4efa 533d b26a d13c ed6d 0e3a 61d1 273d
00000210: f1e4 8fbc f8d7 e3bc 25dd 9bbd 5437 6dbd
00000220: 25ff 04bd bbbc d7bc eb97 5c3c deac 5fbd
00000230: d9b3 083d a014 76bc 2933 a7bd 7b67 4ebd
00000240: 8e31 033d 78b4 633c 2810 16bd b054 ba3a
00000250: bef0 2e3d 7756 0c3c 0d39 28bd 5990 efbc
00000260: 0d0c ee3c 3f93 a53c c987 0fbc 3d5d 88bd
00000270: e20b 193b ef31 cbbc ff58 1cbd 09d7 093d
00000280: 56fe 5cbd 3c4f c8ba e131 383d 0888 d2bb
00000290: a256 77bd 70e3 c93c 6c15 98bd 4a32 fbbc
000002a0: bf5c 48bc ba7d 55bd cf1b 68bd 5736 90bc
000002b0: c7ac 8cbd fab0 de3b c550 95bd 43ff 2e3d
000002c0: cc87 5abd 9e42 55bc 80bd 45bd ad44 883c
000002d0: 640e 07bd 26a4 08bc aacb 193d b7e7 26bb
000002e0: 5869 0037 23f7 97bc c151 3a3b acf5 13bd
000002f0: 8b05 8d3c 3fdc 7e3c 9771 f4bb 9237 81bd
00000300: 480c 0b3c c4cf a7bd c8cf 1d3d 4448 3dbd
00000310: bb2a 0fbd 94b5 82bc 88b0 68bd 1c18 fc3c
00000320: cd89 9abd 9ce1 cf3c f201 203d d954 6dbc
00000330: 2c04 b33b c7be 83bd 38fb 2fbb fa2b 74bd
00000340: 9404 e1bc 28ae 6dbc 40df 86bd a4d8 69bd
00000350: 7b90 9c3c fe92 78bd 3e30 d63c e7a7 82bd
00000360: c7f4 89bd f343 ed3c b9a5 333c 023f 15bb
00000370: 0783 bdbb ae63 1bbd 6380 8fbd 9e75 4ebd
00000380: 8f54 cc3b c6a9 a33c 5c80 6cbc 27cc 8abd
00000390: 598f 143c 7fc8 033d 644e 3c3c 5e1e 023d
000003a0: 5721 85bd 1709 6ebd ae5d aabc b2c5 073d
000003b0: b342 143d d360 cbb9 2b65 103d e299 05bd
000003c0: 60b6 60bd 5ed8 9a3c 7268 4d3d 7edb c3bd
000003d0: 6996 72bd 6846 eebc 765b c93b 60f7 cdbc
000003e0: 5428 d63c 4d38 76bd ca6f 8cbd e46e 58bd
000003f0: 0f8e 9fbd 8c66 e03a 9ef9 88bc 41e3 a6bd
-0.04677689 -0.03543682 0.01135704 0.018865496 0.0008624438 -0.056197286 -0.06904112 -0.05340311
-0.050456222 -0.020673782 0.032655247 0.033780962 -0.0060374336 -0.042454854 0.039074 0.035516787
0.0025936398 0.028560437 -0.06968851 0.018552717 -0.036375947 -0.06843278 0.035930213 -0.046611775
-0.055019032 -0.07832147 -0.054647166 -0.02142873 0.0049022273 -0.009505432 0.03429079 0.033793632
-0.055396035 -0.067736275 0.0079350835 -0.02737918 -0.07253189 0.0008937534 -0.005517568 -0.062161066
0.017701639 -0.050328836 -0.031169953 -0.037712898 -0.061107215 0.043873336 -0.025565 0.009276541
0.029047247 -0.00077838684 0.01554999 -0.06135541 -0.06296901 -0.04033999 -0.016947933 0.02461824
-0.011080799 0.006105091 -0.054149758 0.021692187 -0.069042474 -0.08592729 0.017847706 -0.056054637
0.022418542 0.025300765 0.019291084 -0.030396216 0.035025995 -0.05648015 0.0093947 -0.043154344
0.015930355 0.033131666 -0.0124686835 0.021969674 -0.056048628 0.00059882744 -0.06581104 -0.033422045
0.014445737 -0.0061456375 -0.06687751 -0.020995956 -0.047633495 -0.015070282 -0.032431684 -0.019906694
-0.06981683 0.04258594 -0.0052798586 -0.0077207168 -0.07557858 -0.07790338 -0.076259315 -0.011434518
0.022323903 -0.063777074 -0.058309633 -0.04610248 -0.01776056 -0.062034834 -0.06930517 -0.038148373
-0.021514777 -0.054553177 0.025628729 -0.020439819 7.567704e-05 -0.06275765 -0.013152852 -0.06471054
-0.043902863 0.004342188 -0.08686388 -0.055210613 -0.060881328 -0.0640191 -0.039243404 0.021834375
-0.03717802 -0.06774038 0.033214897 0.0067356606 -0.030128522 -0.06163724 -0.025850404 -0.008939215
0.05175238 0.025563572 0.00054332503 0.040971164 -0.017565222 -0.027812943 -0.07610539 -0.057914093
-0.032469887 -0.02633511 0.013463954 -0.05460822 0.03337464 -0.015019566 -0.08164055 -0.050391655
0.03202968 0.013898008 -0.0366365 0.0014215913 0.04271006 0.008565537 -0.041070033 -0.029243635
0.02905848 0.020211814 -0.008760401 -0.06658409 0.002335303 -0.024804084 -0.03817081 0.03365234
-0.05395349 -0.0015282403 0.044969443 -0.0064249076 -0.060385354 0.024644583 -0.07425961 -0.030663628
-0.012229144 -0.052121855 -0.056667145 -0.017604036 -0.06868892 0.0067959996 -0.07290796 0.042723905
-0.053352162 -0.013016371 -0.048276424 0.01663431 -0.03297271 -0.008339917 0.037547745 -0.0025467703
7.653922e-06 -0.018550461 0.0028430077 -0.036122963 0.017214557 0.01555544 -0.00745983 -0.06309427
0.008486815 -0.08193925 0.038528234 -0.046211496 -0.03495286 -0.015955724 -0.05680898 0.030773215
-0.07545815 0.025376134 0.039064355 -0.014485561 0.005463144 -0.06432872 -0.002685262 -0.05961225
-0.027468003 -0.014506854 -0.0658555 -0.05709137 0.019111862 -0.060687058 0.02614605 -0.06379681
-0.06736141 0.028963065 0.010964804 -0.0022773151 -0.005783442 -0.03793686 -0.0700691 -0.050405137
0.006235666 0.019978415 -0.0144349 -0.0677722 0.00906738 0.03217363 0.011493299 0.03176724
-0.065005 -0.058114138 -0.020796623 0.03314752 0.03619642 -0.00038791317 0.03525273 -0.032617457
-0.054861426 0.018902 0.050148435 -0.09563349 -0.059225474 -0.029086307 0.006144936 -0.025142372
0.026142277 -0.060112286 -0.068572596 -0.05284013 -0.077907674 0.0017120405 -0.01672059 -0.08148814

convs.1.lin_l.bias f4 [64]
00000000: 1a09 14bd ec52 e7bb 64f4 84bd 1c5b 883c
00000010: e49a b1b9 4411 9cbc ba83 77bc efec 7b3d
00000020: 4178 4e3d 4303 3dbd 75cf 7d3c ed45 7b3d
00000030: 8ef9 11bd 2cba dab8 e396 5abd 7d56 6fbc
00000040: 4c73 1a3c c6f1 adbc eeb4 eb3c f136 20bd
00000050: de33 d73c 7413 ffbc c7ca a9bc 81de 10bd
00000060: fbe3 f4bb 3ab4 07bd ae57 753b d9ec 05bd
00000070: 6702 773d 4cae 68bd 43c8 d23a 49b7 1bbc
00000080: 6abc 473d 101f 8b3d 35a3 17bd 21e1 88bc
00000090: 0b38 ec3b ca6b 53bd 0b08 b83c b5ee 2bbc
000000a0: be8f 3abd 5488 e6bc 9c56 eebc 9eec 07bd
000000b0: 9cab cc3c a746 213d e664 a53d c711 253d
000000c0: 5c9f 493c 6a1b 6abc d6f5 d73c b557 7e3d
000000d0: 10e3 e43c 26dc c3ba 2fec 5ebc 602a 783d
000000e0: a587 4e3d 4f92 5ebc 1608 a9bc 7aca 00bd
000000f0: 4b4f 3ebc 8f97 663d ab81 843c c306 973c
-0.036141492 -0.0070594456 -0.06491926 0.016645007 -0.00033875473 -0.019051202 -0.01510709 0.061505254
0.05040765 -0.04614569 0.015491356 0.061345983 -0.035638385 -0.00010429727 -0.053366553 -0.014608023
0.009426903 -0.02123345 0.028772797 -0.039114896 0.02626985 -0.031137206 -0.020726575 -0.035368446
-0.0074734665 -0.03313086 0.0037436294 -0.03269658 0.060305025 -0.056806847 0.0016081411 -0.009504148
0.04876367 0.06793034 -0.03702088 -0.016708912 0.0072088293 -0.051616468 0.022464773 -0.010493924
-0.04554724 -0.028141178 -0.029094033 -0.03318464 0.024984173 0.03937402 0.080758855 0.040300157
0.012306061 -0.014288763 0.02636234 0.062095363 0.027940303 -0.0014942929 -0.013606115 0.060587287
0.05042233 -0.013584687 -0.020633738 -0.031443097 -0.011615585 0.05629688 0.016175112 0.018435841

convs.1.lin_r.weight f4 [64, 256]
00000000: 01fd 0a3d 8e68 343d 25ce 53bc eaa8 b6bc
00000010: e522 98bd a903 0d3c 8a20 93bb 0dd5 61bd
00000020: 12e1 37bc 91bf 593c 5bfb 88bd 3d51 2cbd
00000030: c500 47bd 9f46 5cbd b2f4 21bd 7833 2f3b
00000040: d4ec 5e3d a908 b4bc cdee 05bc 6cbc 3ebd
00000050: 1f94 33bd e862 38bd 4fca 82bd 3c8c 4eba
00000060: 4984 55bd f62f a9bd 4267 9abd ed45 953c
00000070: f950 f13c 7b03 3ebd ec07 08bd 96c0 f43c
00000080: b1d9 0e39 7171 acbd ce25 b9bc f9b3 68bd
00000090: af23 12bd d758 26bd 37db 7c3c 34e3 dabb
000000a0: fdec 98bc 0250 af3c 7d4f 98bc d49f 8dbd
000000b0: c8d3 71bd 0220 c23c 6835 63bc d459 4c3d
000000c0: e6c4 ba3c b222 48bd bab5 433d 9554 a1bc
000000d0: 6da8 a7bc 93e7 533d 3991 50bd 146a 46bc
000000e0: e1af 063d e0d3 19bd 3617 a8bc 9e67 30bd
000000f0: 66dd aebc c6c0 34bc 8d4c 8dbb 0eef e1bc
00000100: 0a2b 713b 8c27 fb3c 8827 a23c 8712 31bd
00000110: 2bf8 5b3d 09c7 e43c c4a6 81bd ccf4 7fbd
00000120: 9613 4fbd e3ae 703b 8564 a8bc 5880 373d
00000130: 10a7 3fbd edd2 3abc 01dd 0dbd f10b 80bd
00000140: ec5f 91bd 2374 093d 38b9 b1bd e464 eabc
00000150: 6090 273d 9a39 053c a2c2 78bc ff8e 503c
00000160: 34f2 acbc bbee 32bc 14c5 0b3d cfa4 d53c
00000170: 9576 3cbd c145 62bc 82e9 773c d521 c2bc
00000180: 1b40 15bd f063 e73c 50a3 33bd 57e3 12bc
00000190: ea60 333d 50af e93b d8d3 953c 205e 233d
000001a0: 1db3 5c3d 71f3 0e3d 8706 bd3c 8dcc f2b9
000001b0: 02d5 323d aa45 fbbc 067c d63c 0d3d 4f3d
000001c0: 70fd af3c 5b9c 1cbd c90c a8bd 726d 003d
000001d0: 4ba6 8ebc 4e35 16bd 8fed d5bb a3d2 6ebd
000001e0: 3635 29bd 0cd0 e83c e3f1 86bd 9bd1 7639
000001f0: 8329 5abd 4929 123d dd93 77bc 53fc 343d
00000200: 9bbb 8ebc a686 b2bc b2b2 6a3c 077f 84bc
00000210: 3c2e 5fbd efc9 eb3c 6601 1fbd 65f9 a23c
00000220: 8d4e eabc e681 80bd 23de 14bd 74e5 02bd
00000230: 01b7 1e3c 8c7a 57bd 69da a5bc 7013 5dbc
00000240: 77a7 6f3d e5e4 c03c d442 17bd 2752 373d
00000250: 6dab 603d c942 ecbc 74db 41bd e065 363d
00000260: f8e7 973c 7a64 83bd 525b a4bc 86c8 59bd
00000270: 2ba7 d63c 6350 463c 0599 0cbc ec36 40bd
00000280: d462 093d f3f4 6ebc bbc0 55bd 151e 353d
00000290: a5fa 3bba ce47 65bd b8cb 5bbd 5e6d 5abc
000002a0: 18ab 85bd 974d d6bc 258c 21bc 8a4e 7ebd
000002b0: ac41 023d 0ded 9bbd 663d 083d 726f 96bd
000002c0: 2774 cb3c cb1c 88bc 1db6 fabc de85 6ebd
000002d0: d190 a6bc 7753 85bd 1519 98bd a207 8abc
000002e0: 2c21 16bb 2714 203c 59c8 97bd f2f5 f1bc
000002f0: a974 6dbc 2c66 48bd baaa 063d 62e1 a2bd
00000300: b47f 8e3c b9ad 6bbd 4db5 57bd 8163 16bd
00000310: 598e 8d3a efca 5cbd 60c1 38bc f857 3dbd
00000320: e6fc 78bc d75e 393c a379 8dbc 1993 673b
00000330: 18cb 44bd 4951 97bc c6ba 38bd 9b0f 1e3c
00000340: 4169 a7bd b312 0cbc a177 07bc fa3b f9ba
00000350: 8612 6bbd dbd6 15bd a728 5b3d f621 1d3d
00000360: 6672 1fbd 780d 473d e6fe b1bc 34c3 19bd
00000370: 1128 363d fb47 9abd 1bfc 4abd 556c 6dbc
00000380: 84b5 89bd b4c7 30bd 89cc ae3c df2f 26bc
00000390: 6f28 f6ba e6fc 1e3d 50b4 743c 3082 66bd
000003a0: eafa 99bd 5be3 78bd 05a7 62bd 18ba 53bd
000003b0: a891 163d b656 7dbd d39e 9cbc 9d69 103d
000003c0: 1ddf 9fbd 20f2 7e3c 64a2 30bd e024 f1bc
000003d0: 4341 54bd aef2 3b3d fabc 343c a51d 84bc
000003e0: 225b 1cbd 1c06 29bd 42e0 79bd 0122 513d
000003f0: b203 603d 39b6 77bd 9726 033d 3537 eb3c
0.03393269 0.044045024 -0.012927567 -0.022297341 -0.074285306 0.00860683 -0.004489963 -0.05513482
-0.011223095 0.013290302 -0.06688567 -0.042069662 -0.04858472 -0.053778287 -0.03954 0.0026733559
0.054425076 -0.021976786 -0.00817461 -0.04656641 -0.04384243 -0.0450162 -0.063862436 -0.0007879173
-0.05212811 -0.08261101 -0.07539226 0.01822182 0.029457556 -0.046390038 -0.03321068 0.029876988
0.00013623272 -0.08420075 -0.022601034 -0.05681226 -0.03567856 -0.040612068 0.015433124 -0.0066799168
-0.018667692 0.021400455 -0.01859259 -0.069152504 -0.05903986 0.023696903 -0.0138677135 0.049890354
0.022798967 -0.048861213 0.04778073 -0.019693652 -0.020466054 0.05173452 -0.050919745 -0.012110252
0.032882575 -0.037555575 -0.02051888 -0.043067567 -0.021345805 -0.011032289 -0.004312104 -0.02757981
0.0036799335 0.030658506 0.01979424 -0.04323056 0.05370347 0.027926939 -0.06330636 -0.062489316
-0.050555788 0.0036725334 -0.020555744 0.044800133 -0.046790183 -0.011402828 -0.034634594 -0.06252278
-0.07098374 0.033558022 -0.08677906 -0.028612562 0.04090917 0.008131409 -0.015183123 0.012729405
-0.021111585 -0.010921176 0.034123495 0.026079563 -0.046011526 -0.013810576 0.015131356 -0.023697773
-0.03643809 0.028245896 -0.04385692 -0.008965335 0.043793596 0.0071314946 0.018289492 0.039884686
0.053881753 0.034900133 0.023074402 -0.0004631024 0.04366017 -0.030672867 0.026182186 0.050595332
0.021483153 -0.03823505 -0.082055636 0.031354375 -0.017413279 -0.03667193 -0.0065285633 -0.058306348
-0.04131051 0.028419517 -0.06589105 0.00023538472 -0.053262245 0.035683904 -0.015110937 0.044185948
-0.017423442 -0.021792721 0.014324831 -0.016173853 -0.054487452 0.028782813 -0.038819693 0.019894311
-0.028601909 -0.06274776 -0.03634466 -0.031957105 0.009687186 -0.052607104 -0.020245748 -0.013493404
0.058509316 0.023546645 -0.036928967 0.04475608 0.054850984 -0.02884044 -0.047328427 0.04453075
0.018543229 -0.06415649 -0.020063076 -0.05316975 0.026202759 0.012104127 -0.008581405 -0.046927378
0.033541515 -0.014584768 -0.052185755 0.04421814 -0.0007170833 -0.05597668 -0.05366108 -0.013331739
-0.06526774 -0.026160045 -0.009860073 -0.06208662 0.03180091 -0.07613573 0.03326168 -0.07345475
0.02483566 -0.016615292 -0.030604417 -0.058233134 -0.020332726 -0.0651006 -0.07426659 -0.016849343
-0.0022907956 0.00977043 -0.0741126 -0.029536221 -0.014493146 -0.048925564 0.03287766 -0.079531446
0.017394878 -0.05753872 -0.052663136 -0.036715988 0.0010799869 -0.05390447 -0.011276573 -0.04622647
-0.015197014 0.0113141155 -0.017269915 0.003533548 -0.048045248 -0.018471377 -0.045099996 0.009647275
-0.081743725 -0.00854938 -0.008268268 -0.0019015067 -0.057390712 -0.036581855 0.053505566 0.038362466
-0.03892746 0.04859683 -0.02172799 -0.037539676 0.044471804 -0.075332604 -0.049556833 -0.01449116
-0.067240745 -0.0431592 0.021337764 -0.010143249 -0.0018780361 0.0388154 0.014935568 -0.0562765
-0.07518561 -0.060763698 -0.055335063 -0.051691145 0.036760002 -0.061850272 -0.019118702 0.03525697
-0.07806227 0.015560657 -0.043123618 -0.029436529 -0.05182005 0.045885734 0.011031384 -0.016127417
-0.03817285 -0.041265592 -0.061004885 0.05105782 0.054691024 -0.060476515 0.032019224 0.028712848

bns.0.weight f4 [256]
00000000: fadf 7f3f 3050 7f3f ba7f 7d3f 93d4 7d3f
00000010: f452 7d3f d706 7f3f baa7 7f3f f42f 7e3f
00000020: e756 7e3f af2f 7e3f ecad 7d3f 9d09 7f3f
00000030: 80a1 7d3f 0c2e 7e3f 9772 7c3f 36a3 7d3f
00000040: a2f9 7e3f 1424 7d3f e607 7f3f b871 7d3f
00000050: 07aa 7e3f 7e14 803f ed87 7d3f aedf 7d3f
00000060: e524 7e3f d170 803f 7da4 7f3f 4748 7e3f
00000070: 88bb 7e3f 1d0d 7d3f 10bb 7e3f 5822 7d3f
00000080: 1946 7d3f 2067 7e3f ee9f 7e3f f75f 7d3f
00000090: d1d2 7d3f e9b1 7d3f 0ac3 7d3f 582e 7e3f
000000a0: ce6b 7d3f 1ba5 7e3f c158 7f3f ecd9 7c3f
000000b0: 70a4 7e3f 0423 7f3f cc1c 7f3f b2e6 7d3f
000000c0: 51c8 7e3f 98ef 7d3f 3e70 7e3f 5ce3 7f3f
000000d0: 2071 7e3f a4ff 7d3f afcb 7f3f a65d 7f3f
000000e0: 9d7c 7e3f 9c48 7d3f d2fe 7d3f 18f3 7c3f
000000f0: 1c8a 7c3f 41af 7e3f 3f7e 7e3f 6cc3 803f
00000100: 2b27 803f 349b 7f3f 7013 7f3f d00e 803f
00000110: 2335 7d3f 3887 7c3f 4525 7e3f 1661 803f
00000120: 1a5d 7c3f 3239 7e3f 44e5 7e3f 6de7 7c3f
00000130: 59d1 803f 830f 7d3f f03b 7e3f ae1a 803f
00000140: 0729 7e3f ca2c 7d3f 1bf5 7d3f 0506 803f
00000150: f97b 7d3f a058 7d3f 4b54 7f3f 4f73 7b3f
00000160: bc02 803f 689d 7c3f 30bb 7d3f af3c 7f3f
00000170: 79f1 813f 562e 7e3f b68e 7f3f 47ab 7d3f
00000180: 6192 7e3f d3e2 7e3f 4f9b 803f 024c 7e3f
00000190: 610b 7f3f 0637 7d3f eec1 7d3f 77b4 7e3f
000001a0: 4164 7e3f 2787 7d3f cba6 7f3f ab5e 7f3f
000001b0: 3dcc 7d3f 4908 7d3f a5b6 7b3f 3353 7f3f
000001c0: 7b99 7e3f d246 813f d3cd 7d3f cfc4 7e3f
000001d0: f870 7d3f f496 7e3f ec0d 7e3f 49b5 7f3f
000001e0: de34 803f d063 7e3f 7f3a 7f3f b9ef 7d3f
000001f0: 116b 7d3f 051a 7e3f 1e0b 7e3f ed8e 7d3f
00000200: d4f0 7d3f 8139 7d3f 2a4a 803f dd25 7e3f
00000210: ee4c 7e3f 5b66 7e3f 0d06 7f3f 0ae9 7c3f
00000220: ccbe 7d3f e555 7d3f c133 7e3f 2cd8 7e3f
00000230: b82f 7e3f e959 7e3f 7dab 7e3f 685b 7d3f
00000240: 969b 7d3f 6853 803f f500 7f3f 047e 7d3f
00000250: 4664 7c3f 94e5 7f3f 7895 7d3f a065 7d3f
00000260: f070 7e3f 5134 7e3f 7ec1 7f3f 6aa0 7e3f
00000270: d533 7f3f acd3 7d3f 68c8 7f3f cc7f 7e3f
00000280: e920 7d3f f95b 7e3f a8eb 7b3f dce3 7d3f
00000290: 1fa1 7c3f 8a1b 7d3f f9f4 7e3f 3d5f 7e3f
000002a0: 9d2b 7f3f fb40 7d3f 9a71 7e3f 3c7a 7d3f
000002b0: 8546 7e3f b408 7e3f 183d 7e3f 1af8 7d3f
000002c0: 95d9 7e3f d3b0 7e3f 3cee 7d3f dcec 7e3f
000002d0: 1f24 7e3f b650 7f3f 2d42 7e3f f5dc 7d3f
000002e0: 7359 7e3f 4b44 7d3f 02f1 7e3f 922d 803f
000002f0: 8cd0 7b3f 9aa4 7e3f 587b 7d3f f4a2 7f3f
00000300: efc5 7d3f 6647 7e3f b29e 7d3f 112e 803f
00000310: aa23 803f 6e18 7f3f b335 7c3f 33bf 7f3f
00000320: a349 7d3f e8bb 7e3f a346 7d3f 5da6 7d3f
00000330: f103 803f 03c6 7e3f 276c 7e3f 224d 7e3f
00000340: 3111 7e3f a7df 803f 7d76 7f3f 2790 813f
00000350: 9f65 7c3f a9e2 7e3f 35ee 7d3f f1fc 7c3f
00000360: 8e0a 7f3f 735b 7b3f a092 7f3f e251 7d3f
00000370: 3f8f 7c3f 0733 7e3f e8eb 803f a860 7e3f
00000380: 4b18 803f 31a9 7f3f d557 803f 21d1 7d3f
00000390: 739b 803f faa1 7c3f 1646 7e3f f62d 803f
000003a0: 60f6 7e3f 68a4 7f3f 4774 803f c897 7e3f
000003b0: 42ff 803f 0a8f 7e3f 3248 7b3f 62b8 7e3f
000003c0: 5835 7c3f 93e8 7d3f 578d 7b3f 62bb 7e3f
000003d0: 3768 7f3f 7035 7c3f 526a 7c3f 4d1b 7e3f
000003e0: e2d3 7e3f 7298 7f3f 9080 7f3f aade 7c3f
000003f0: 67fb 7a3f 35a1 7f3f 42f7 7f3f 84af 803f
0.99951136 0.9973173 0.9902302 0.9915249 0.989547 0.9961981 0.99865305 0.9929192
0.9935135 0.9929151 0.9909351 0.99624044 0.99074554 0.9928901 0.9861235 0.99077165
0.9959966 0.98883176 0.9962143 0.99001646 0.9947819 1.0006254 0.9903553 0.99169433
0.99275047 1.0034429 0.99860364 0.99329036 0.995049 0.98848134 0.99504185 0.9888053
0.98935086 0.99376106 0.99462783 0.98974556 0.99149805 0.99099594 0.9912573 0.99289465
0.9899262 0.9947068 0.997448 0.9877002 0.9946966 0.99662805 0.99653316 0.9918014
0.9952441 0.99193716 0.9939002 0.999563 0.99391365 0.992182 0.9992017 0.9975227
0.99408895 0.9893892 0.9921695 0.9880843 0.9864824 0.99486166 0.99411386 1.0059638
1.0011953 0.99846196 0.99639034 1.000452 0.98909205 0.9864383 0.9927562 1.0029628
0.9857956 0.99306023 0.9956858 0.9879063 1.0063888 0.98851794 0.9931021 1.0008142
0.9928135 0.9889647 0.99202126 1.0001837 0.9901729 0.98963356 0.99737996 0.9822282
1.0000834 0.9867768 0.9911375 0.9970197 1.0151817 0.99289453 0.99827135 0.99089473
0.99442106 0.99564856 1.0047396 0.9933473 0.9962674 0.98912084 0.9912404 0.9949412
0.99371725 0.9903435 0.9986388 0.99753827 0.9913977 0.9884077 0.9832557 0.99736327
0.9945294 1.0099738 0.9914219 0.99519056 0.990005 0.99449086 0.99239993 0.99885994
1.0016134 0.9937105 0.9969863 0.9919391 0.98991495 0.9925845 0.99235713 0.9904621
0.991956 0.9891587 1.0022633 0.99276525 0.99336135 0.9937493 0.9961861 0.9879309
0.9911926 0.9895919 0.9929772 0.995486 0.99291563 0.9935594 0.9948042 0.989676
0.9906553 1.0025454 0.99610835 0.9902041 0.98590505 0.99959683 0.99056196 0.9898319
0.9939108 0.9929858 0.9990462 0.9946352 0.99688464 0.9915111 0.9991517 0.9941375
0.9887834 0.9935909 0.9840646 0.9917581 0.9868335 0.98870146 0.9959255 0.9936407
0.99675924 0.9892728 0.9939209 0.9901464 0.99326354 0.9923203 0.9931197 0.992067
0.99550754 0.9948856 0.9919164 0.9958017 0.99273866 0.9973253 0.99319726 0.9916528
0.9935524 0.9893233 0.995865 1.0013907 0.9836509 0.9946991 0.9901633 0.9985802
0.9913015 0.99327695 0.99070275 1.0014058 1.0010884 0.9964665 0.9851944 0.9990112
0.98940486 0.9950547 0.9893591 0.99081975 1.0001203 0.9952089 0.9938378 0.99336445
0.9924498 1.0068253 0.99790174 1.0122117 0.9859256 0.99564606 0.991916 0.9882346
0.9962548 0.98186415 0.99833107 0.9895307 0.98656076 0.9929661 1.0071993 0.99366236
1.0007414 0.9986754 1.0026804 0.9914723 1.0047439 0.98684657 0.9932569 1.0014026
0.9959469 0.9986024 1.0035485 0.9945035 1.0077899 0.9943701 0.98157036 0.99500096
0.98518896 0.99183005 0.9826254 0.99504673 0.99768394 0.9851904 0.9859973 0.9926041
0.9954206 0.9984199 0.99805546 0.9877726 0.9803986 0.9985536 0.9998666 1.0053563

bns.0.bias f4 [256]
00000000: 8cf7 ff3b 8dcf 303b e520 2039 318e 5a3a
00000010: 85ec 96ba 5dd3 003c 675d 043c 679c da3a
00000020: bcd4 bd3a 17e7 c83a f22d 07bb df5e 5f3b
00000030: 75f6 b5ba 1bea b23a 4897 b1bb e78f debb
00000040: 4a73 2f3b 634e a9bb 9a4d 333b 731b 7bbb
00000050: 117c 063b 0383 3e3c 9a30 a9bb f1d1 e3b9
00000060: 04b5 933a 18a9 153c 0973 083c 2468 413b
00000070: 1d8c 5e3b 89f0 4cbb 430f 40ba 9e77 b0bb
00000080: 7284 c8ba 534c 0e3b eeab 553b 63d1 90ba
00000090: b18a f8ba 42c0 85bb 3799 243b e89c 57bb
000000a0: 4260 d139 c502 913b a0f8 863b cccc 94bb
000000b0: 53ae 68bb 909f cb3b e234 c33b d47a 82ba
000000c0: 643c 273b bf5a 43bb f548 08ba a04a 3e3c
000000d0: 5029 f23b 8662 ebb8 d456 083c 2267 193c
000000e0: 932d 0e3b 59d3 2bba 50b2 f03a b866 bfb9
000000f0: 5220 43bb d551 7f3b 10aa 5d3b 63da 8b3c
00000100: 5cc2 f23b 7183 e93b dabc ed3a 03c7 ad3b
00000110: ee8d 2fbb d752 3dbb d8cd 303b f3ff 3d3c
00000120: 8c97 febb 579d 33ba 2e81 833b b92d 89bb
00000130: 8c39 453c bf03 a6bb 6a70 a13a b922 383c
00000140: 6439 c53a 9d8a a2bb f498 e3b8 5273 203c
00000150: 5503 06bb 9ac4 f33a 8797 cd3b 5591 25bc
00000160: 51aa 163c c40b f4bb ecb1 8abb 7aa3 053c
00000170: 0834 a63c 6225 343b f28b ce3b cb84 d23a
00000180: 4175 8d3b 3bcb d6ba a5fb 6a3c 5dc1 953b
00000190: 24c6 143b 15e7 4aba daa0 cb39 c3b3 103b
000001a0: 9a34 7a3b f693 9abb 6246 ed3b 44d8 b93b
000001b0: 5ee8 743a b072 49bb 734c cbbb c8c0 cf3b
000001c0: 5ba7 c23b 13e3 993c 97f6 a13a bdec d63b
000001d0: 2128 aaba 368a c139 1d36 143b d5f9 053c
000001e0: aa98 253c 3c50 f0ba a811 de39 1d3d e8ba
000001f0: 0be1 35bb bbfe b6b9 e9e4 94ba 7a7a 95bb
00000200: 8ccc 273a 8293 88bb 7cc5 ee3b b8ea ae39
00000210: 35d3 cf39 6c2d 11b9 be2e 8d3b 43b6 c1bb
00000220: d263 b7ba c9b7 293b 8d9a 8f3a aaca 3e3b
00000230: 6e76 2a3b 725e ae39 51cc a93b c279 e7ba
00000240: 1956 efba b95c 2f3c fcbc c43b f655 55ba
00000250: 4637 3fbc fafc f43b 5916 0c3a 8732 943a
00000260: e756 1139 f600 823b 2a07 1b3c 89ff 6b3a
00000270: bc60 553a 5504 dc3a 4887 2c3c 2d24 943b
00000280: d6ad 41bb 0728 fb3a 4fb9 1dbc 1f5a c1ba
00000290: b1c4 d9bb cf6a 22bb dd29 853b 58d1 0bbb
000002a0: e89c c43b 2bab 48ba 4b19 9b3a a52d 9aba
000002b0: ac51 ac39 a876 f0ba 1bbd 16bb 0100 9c38
000002c0: 06e8 973b 9273 2a3b 8322 3339 2d3d 5d3b
000002d0: 16c9 053a c456 663b e483 a83a f2ff eaba
000002e0: 065d cf3a 05c9 8e38 f832 4f3b 5a80 253c
000002f0: 905a 14bc 979c 9e3b eec6 6b38 a241 ec3b
00000300: 4afb 07bb fcae 2a3b e1eb 1cba a1a5 123c
00000310: 67cb 263c 0f9d 8d3b fbcc 10bc 5ebf a63b
00000320: 3d26 0dbb 7783 623b 257f d9ba 6a04 733b
00000330: 6042 2e3c caac 25b7 1983 df3a 1a52 3c3b
00000340: 5b4f 243b 9888 703c df9a d83b d962 b53c
00000350: 0fce b2bb 4fb4 b43b 1052 f4b9 3316 febb
00000360: cff6 043c 84a1 2ebc 8e26 b83b 454a 0cbb
00000370: 8d89 b4bb 4eda 58ba 9d98 833c f2ad 9a39
00000380: 8697 083c b14f fd3b 35e5 213c 5601 8839
00000390: 889e 833c d0e2 12bb 871b 883b 2d9f 1f3c
000003a0: b70f 6c3b e327 1b3c eadc 673c 5da4 4b3b
000003b0: d0dd 423c 1d14 b63a 403e 30bc 4f9c 313b
000003c0: b4fa 01bb b3b8 d239 15c8 02bc dfea ee3b
000003d0: a8b0 323c 7753 26bc 3b2d e7bb c63c 8fb8
000003e0: 79ce c83a ab80 c83b 2c9b d63b 7892 23bc
000003f0: 4db6 21bc 6991 043c 9736 1d3c 957a 983c
0.0078114923 0.0026979179 0.00015271043 0.0008337228 -0.001151458 0.007862893 0.0080789095 0.0016678692
0.0014482955 0.0015327659 -0.002062675 0.0034083647 -0.0013882654 0.0013650091 -0.0054196455 -0.006792057
0.0026771598 -0.005166815 0.0027359487 -0.0038315922 0.0020520727 0.011627915 -0.0051632645 -0.00043453233
0.0011269157 0.009134553 0.008328208 0.0029511536 0.0033958026 -0.00312713 -0.0007326493 -0.005385353
-0.0015298261 0.0021712973 0.0032603699 -0.001104873 -0.0018962232 -0.004081757 0.0025115737 -0.003289992
0.00039935304 0.004425379 0.004118994 -0.0045410153 -0.0035504296 0.0062140897 0.005957232 -0.0009954819
0.0025518173 -0.0029808728 -0.000519886 0.011614472 0.0073901787 -0.00011224025 0.008321483 0.009362968
0.0021694645 -0.00065546256 0.0018363688 -0.0003650689 -0.0029773903 0.0038958688 0.003382329 0.017071908
0.0074084233 0.0071262647 0.0018137947 0.005303265 -0.0026787478 -0.0028888488 0.0026978161 0.011596668
-0.0077695306 -0.00068517536 0.004013202 -0.004186359 0.012037646 -0.0050663645 0.0012316827 0.011238747
0.0015047011 -0.0049603716 -0.00010852693 0.0097931195 -0.0020448763 0.001859802 0.006274167 -0.010105451
0.00919588 -0.0074476916 -0.0042326357 0.008156652 0.020288482 0.0027488102 0.006303304 0.0016061304
0.0043169563 -0.0016387472 0.014342223 0.00457017 0.0022701109 -0.00077401224 0.0003883902 0.0022079803
0.0038178326 -0.0047173453 0.0072410563 0.005671533 0.0009342487 -0.0030738525 -0.006204182 0.00634012
0.0059403605 0.018785035 0.0012356815 0.006558983 -0.001298193 0.00036914804 0.0022615262 0.00817724
0.010107199 -0.0018334459 0.00042356295 -0.0017718408 -0.0027752544 -0.00034903534 -0.0011359724 -0.0045617195
0.00064010243 -0.004167975 0.0072867256 0.00033362745 0.00039639478 -0.00013845199 0.0043085506 -0.00591162
-0.0013991541 0.0025896898 0.0010956094 0.0029112496 0.002601053 0.00033258233 0.005181827 -0.0017660188
-0.0018259912 0.010703259 0.006003974 -0.00081381144 -0.011670893 0.007476446 0.0005343906 0.0011306562
0.00013860651 0.0039673997 0.009462157 0.0009002616 0.000813972 0.0016785959 0.0105303 0.004520914
-0.0029553077 0.0019161709 -0.009626701 -0.001475159 -0.006645762 -0.00247829 0.0040638284 -0.0021334495
0.00600015 -0.00076549005 0.0011833099 -0.0011762871 0.00032867247 -0.0018345909 -0.00230009 7.4386604e-05
0.0046358136 0.0026008827 0.00017083627 0.0033758387 0.00051035115 0.0035146931 0.0012856689 -0.0017929061
0.001582057 6.8085305e-05 0.0031616073 0.010101402 -0.009054795 0.0048404443 5.6213634e-05 0.0072099725
-0.0020749145 0.002604424 -0.00059860764 0.008950622 0.010180331 0.0043217014 -0.008837934 0.0050887307
-0.0021537684 0.0034563222 -0.0016593678 0.0037081488 0.010635942 -9.874997e-06 0.001705262 0.002873546
0.0025071714 0.014681004 0.006610259 0.02214186 -0.005456693 0.0055146585 -0.00046600448 -0.007754111
0.008115484 -0.0106586255 0.0056198305 -0.0021406573 -0.0055095614 -0.0008272276 0.016063983 0.00029502768
0.008336907 0.007730447 0.009881307 0.00025940937 0.016066805 -0.0022413023 0.004153672 0.00974254
0.003602011 0.009469959 0.014151791 0.003107331 0.0118937045 0.0013891492 -0.010757029 0.0027101224
-0.0019833269 0.00040191933 -0.007982274 0.0072911824 0.010906376 -0.0101517355 -0.0070549524 -6.830091e-05
0.0015320323 0.006118854 0.0065492596 -0.009983651 -0.009870124 0.008091309 0.009595535 0.01861314
