output/oi/restr_e2v/run_005/restr_oi_best_model_e2v.pth (torch, 90293 bytes, 14 tensors)

convs.0.lin_l.weight f4 [64, 32]
0.09718386 0.18823448 -0.004443512 0.11916023 -0.07855043 -0.029343536 -0.058583442 -0.012608828
0.1507283 -0.08213478 0.029097995 0.07773449 -0.1795647 -0.12643307 -0.0684625 -0.06863383
-0.013186323 -0.02092452 -0.12208085 -0.07747562 -0.08787403 -0.16123116 0.04088039 0.10032592
-0.04714 -0.11916987 0.05944925 0.09876187 0.04544789 -0.19163708 0.12068182 -0.025578346
-0.10579853 0.034267414 -0.07967272 0.11975159 0.08680643 0.012325817 -0.040820226 -0.13615301
0.09384896 -0.069841914 -0.07903789 0.10982305 -0.10603225 -0.009254685 -0.047641244 -0.083213165
-0.09103471 -0.053380203 -0.11331189 -0.09014544 -0.026368957 -0.031845715 0.014763616 -0.038824327
0.10137268 0.097267635 0.021313094 0.16302828 -0.035102636 0.16619134 0.028188376 0.08661611
-0.08198865 -0.10914466 0.11536173 0.13246629 0.10096043 -0.14101212 0.053057574 0.083115265
0.16256677 -0.08434739 0.12071116 0.05946663 -0.06651828 0.17116734 0.13742341 -0.08749805
0.05075592 0.16222766 0.007646884 0.084286466 0.11990793 -0.07051275 0.019432383 -0.03601938
-0.023923697 0.0198321 -0.059361856 -0.042846188 -0.07894437 0.16751006 -0.09395132 -0.13195814
-0.023026576 0.18315981 0.067787595 -0.042914145 0.09407447 0.10413054 0.13627402 0.033075918
-0.07070617 -0.08556341 0.07994135 -0.09667766 0.22447267 -0.03609711 0.10853591 -0.061137017
-0.06383158 0.113388956 0.041806307 -0.09274348 -0.16833887 0.016168265 0.09672501 0.11413486
0.058564804 0.070588596 -0.112870395 0.039541356 0.09823637 -0.08591761 0.20342754 0.06416609
0.18606831 0.027873877 0.056609467 0.07127825 -0.14063619 0.008938281 0.037193954 0.09313971
-0.07889385 -0.024857024 0.058553852 0.005803701 -0.00686814 0.021504777 -0.021829978 0.0065836892
-0.061817963 -0.10900891 0.11493066 0.07271426 0.04918757 0.011839798 -0.047759093 0.06808363
0.14732395 -0.12155842 -0.080991894 0.06800857 0.1348884 0.124928124 0.17856967 0.18001024
0.047821365 -0.06029366 0.08593155 0.07806444 -0.035289753 0.1172766 -0.14673847 -0.010790714
-0.14163965 0.09050028 0.08235743 -0.16909474 0.047648795 -0.12278661 0.08494213 0.1680619
0.06286294 0.09757051 0.24097593 -0.17447239 -0.16794437 0.0025494674 -0.12521341 -0.13346955
0.022149194 -0.13704307 0.13519906 0.13768038 -0.14829764 0.057854973 -0.11571034 0.10333926
-0.062741905 -0.0063691135 0.07907834 -0.09925646 0.08397986 0.032522455 0.16199836 -0.014801188
0.044425875 0.05724361 -0.17793445 0.14043815 -0.09318911 0.062258173 -0.18311211 -0.13376768
-0.01483072 0.082683 0.18600652 0.17335401 -0.009188964 0.173722 -0.116929986 0.06425516
0.038933437 0.095223755 -0.078627065 -0.10670906 -0.15624422 0.10109603 -0.034218777 0.053211834
0.123062864 -0.03479668 0.14211147 0.19893798 0.09668116 0.06134437 -0.024326736 -0.07889879
-0.007213075 0.05801086 0.0743744 0.022630986 0.15949206 0.14187941 0.16311269 0.1616661
0.07272758 0.01682435 -0.15374623 -0.160813 -0.13606015 -0.12441745 0.08447439 -0.005278096
0.08654776 0.02780594 -0.09264959 0.019614443 0.021949403 -0.13130388 0.14753465 0.11656939
00000000: 5508 c73d 8ac0 403e e19a 91bb 470a f43d
00000010: 0cdf a0bd db61 f0bc 31f5 6fbd 4295 4ebc
00000020: 8558 1a3e 4836 a8bd eb5e ee3c 4333 9f3d
00000030: cfdf 37be ac77 01be 1136 8cbd e58f 8cbd
00000040: 730b 58bc e669 abbc 8605 fabd 8aab 9ebd
00000050: 4df7 b3bd c819 25be 3272 273d ad77 cd3d
00000060: df15 41bd 550f f4bd 0f81 733d aa43 ca3d
00000070: 9127 3a3d 833c 44be 0828 f73d ae89 d1bc
00000080: e6ac d8bd fd5b 0c3d 732b a3bd 5240 f53d
00000090: 92c7 b13d 39f2 493c 1c33 27bd b26b 0bbe
000000a0: e233 c03d 4709 8fbd 9ede a1bd e8ea e03d
000000b0: 7027 d9bd f6a0 17bc 7723 43bd aa6b aabd
000000c0: 6870 babd 33a5 5abd 1010 e8bd 2c9e b8bd
000000d0: b603 d8bc a770 02bd 18e3 713c 4206 1fbd
000000e0: 7b9c cf3d 4134 c73d cc98 ae3c e3f0 263e
000000f0: c8c7 0fbd 102e 2a3e 4feb e63c c963 b13d
00000100: aae9 a7bd 3c87 dfbd c542 ec3d 3ea5 073e
00000110: 58c4 ce3d 7b65 10be e652 593d 5638 aa3d
00000120: e777 263e 53be acbd 6a37 f73d 4893 733d
00000130: bc3a 88bd 7e46 2f3e b9b8 0c3e 2d32 b3bd
00000140: 71e5 4f3d 021f 263e b692 fa3b 629e ac3d
00000150: 4a92 f53d fd68 90bd a930 9f3c 0f89 13bd
00000160: a1fb c3bc ee76 a23c 6b25 73bd 7c7f 2fbd
00000170: 96ad a1bd c287 2b3e 8d69 c0bd 0920 07be
00000180: 3ba2 bcbc 3f8e 3b3e 39d4 8a3d bec6 2fbd
00000190: 1eaa c03d 6442 d53d 6b8b 0b3e 9d7a 073d
000001a0: 65ce 90bd de3b afbd 4ab8 a33d f0fe c5bd
000001b0: 2adc 653e 90da 13bd 1348 de3d cf6a 7abd
000001c0: 22ba 82bd 7838 e83d 173d 2b3d 4bf0 bdbd
000001d0: 0661 2cbe 4f73 843c c317 c63d 8abf e93d
000001e0: a6e1 6f3d c190 903d 9828 e7bd 1ef6 213d
000001f0: 2630 c93d 92f5 afbd 4f4f 503e 8369 833d
00000200: b188 3e3e c257 e43c 54df 673d 55fa 913d
00000210: ef02 10be de71 123c b058 183d 08c0 be3d
00000220: 1993 a1bd f5a0 cbbc 2ad6 6f3d f92c be3b
00000230: 220e e1bb c92a b03c c8d4 b2bc fdbb d73b
00000240: d534 7dbd 1040 dfbd c460 eb3d 37eb 943d
00000250: e878 493d b6fb 413c 0a9f 43bd 6e6f 8b3d
00000260: 17dc 163e 9ff3 f8bd 14df a5bd 1448 8b3d
00000270: 2f20 0a3e 51da ff3d f8da 363e 9b54 383e
00000280: 56e0 433d 7cf6 76bd e1fc af3d 40e0 9f3d
00000290: fd8b 10bd b72e f03d 9c42 16be 89cb 30bc
000002a0: fc09 11be 3658 b93d 03ab a83d 2c27 2dbe
000002b0: 622b 433d 8c77 fbbd 24f6 ad3d 6b18 2c3e
000002c0: 49be 803d 0cd3 c73d 65c2 763e e4a8 32be
000002d0: 9cf9 2bbe f714 273b f237 00be 3eac 08be
000002e0: 3a72 b53c 0555 0cbe 9f71 0a3e 16fc 0c3e
000002f0: 56db 17be 56f9 6c3d 8bf9 ecbd 89a3 d33d
00000300: d47e 80bd ffb3 d0bb d3f3 a13d f946 cbbd
00000310: a2fd ab3d 4436 053d e6e2 253e af80 72bc
00000320: e8f7 353d 4778 6a3d 7334 36be 05cf 0f3e
00000330: efd9 bebd 6d02 7f3d be81 3bbe 65fa 08be
00000340: 8cfc 72bc b455 a93d 7e78 3e3e b783 313e
00000350: 4f8d 16bc 2ee4 313e fd78 efbd 3698 833d
00000360: ab78 1f3d ac04 c33d 3a07 a1bd 488a dabd
00000370: 7cfe 1fbe 6f0b cf3d fd28 0cbd a7f4 593d
00000380: 6208 fc3d f786 0ebd ab85 113e 66b6 4b3e
00000390: c600 c63d 3c44 7b3d dd48 c7bc b095 a1bd
000003a0: a95b ecbb cc9c 6d3d 9b51 983d 9e64 b93c
000003b0: e351 233e d648 113e 0307 273e cc8b 253e
000003c0: 33f2 943d 38d3 893c a76f 1dbe 2aac 24be
000003d0: 5a53 0bbe 93ce febd e900 ad3d e1f3 acbb
000003e0: f43f b13d 48c9 e33c 11bf bdbd 78ae a03c
000003f0: 3ccf b33c 8674 06be 5313 173e efbb ee3d

convs.0.lin_l.bias f4 [64]
0.1388431 0.02380456 -0.10360639 0.0733143 -0.113988824 0.08012111 -0.15822509 0.16669674
-0.048296984 0.0863603 -0.08972279 -0.068946965 0.053397264 -0.10122333 0.10773785 -0.052608185
-0.062159587 -0.15917844 -0.12324658 0.12513989 0.07200164 0.044048175 -0.021705098 0.04548918
-0.10728467 -0.09164315 -0.007786769 0.04127189 -0.13798678 -0.07558039 -0.07828642 -0.04185758
0.015909739 0.04919183 0.071676575 -0.05022129 -0.031303722 0.060787488 0.08536578 0.057214692
0.12814637 0.049836766 -0.1534768 -0.12307428 -0.059372656 0.09422441 0.09938796 0.02105917
-0.03159443 0.12281035 -0.114426516 0.032634873 -0.10477079 0.05547048 0.06974001 0.110315666
0.054093793 -0.071470074 0.018947748 0.12907597 -0.04565119 0.03642901 0.13983409 0.09196876
00000000: e32c 0e3e c801 c33c 962f d4bd cf25 963d
00000010: f972 e9bd 8916 a43d c205 22be 8db2 2a3e
00000020: 0fd3 45bd abdd b03d 95c0 b7bd 1134 8dbd
00000030: 17b7 5a3d 2d4e cfbd a9a5 dc3d ae7b 57bd
00000040: 0d9b 7ebd acff 22be b468 fcbd ac24 003e
00000050: 9975 933d dc6b 343d e4ce b1bc dd52 3a3d
00000060: 11b8 dbbd 67af bbbd 2728 ffbb b70c 293d
00000070: 684c 0dbe e4c9 9abd a154 a0bd db72 2bbd
00000080: 2455 823c 5f7d 493d 2bcb 923d d7b4 4dbd
00000090: 5538 00bd 4dfc 783d 41d4 ae3d f459 6a3d
000000a0: cd38 033e a321 4c3d 0629 1dbe 5e0e fcbd
000000b0: be30 73bd baf8 c03d ea8b cb3d 4884 ac3c
000000c0: 2969 01bd fe83 fb3d 7358 eabd 25ac 053d
000000d0: 1192 d6bd 0435 633d dad3 8e3d 2eed e13d
000000e0: 7491 5d3d e75e 92bd 4f38 9b3c 7e2c 043e
000000f0: befc 3abd 9636 153d ab30 0f3e 1e5a bc3d

convs.0.lin_r.weight f4 [64, 32]
0.03861832 0.13744965 -0.18826221 0.02100687 -0.10214651 -0.058553588 0.029008318 -0.14220348
0.21023816 -0.020935256 0.16933896 -0.032642405 0.08545273 0.08190558 -0.19830248 -0.07191948
0.1013223 -0.16315074 0.0746124 0.08628015 0.15170209 0.12705345 -0.15703565 -0.13028544
0.17422232 0.17701486 -0.03182938 0.13301642 0.09498062 0.027445683 -0.03224161 -0.082566
-0.060183425 -0.082555875 0.029110536 0.075601526 0.069604404 0.039420035 -0.12260854 0.12802951
-0.109909326 0.14328612 -0.20731528 -0.08411549 0.08066633 0.18284872 0.04766259 0.1293491
-0.18474165 0.0029867725 0.03459233 0.10836342 0.18541807 -0.16112609 -0.0391672 -0.06868267
0.06301073 -0.15589312 0.043886315 0.1839253 -0.15140325 0.17944214 0.14771838 -0.011713937
-0.07320175 -0.042839076 -0.104013205 0.05888333 -0.08084996 0.123175964 -0.046956796 0.080221266
0.05914175 -0.04839606 -0.025427725 -0.00039968485 0.2154109 0.106856115 0.090604626 -0.13539566
-0.19321987 0.0057267733 -0.109023795 0.17566215 -0.05172622 0.15755434 0.0993011 0.14578114
-0.081720784 0.15881146 -0.067726284 0.05673597 0.07249113 0.026473528 0.17727494 -0.08994534
0.1697471 0.09181049 -0.058360808 0.050458517 0.02623533 0.023701785 -0.037453957 0.18324801
-0.055742376 -0.14116728 0.09323219 -0.13352828 -0.027335567 -0.12090176 0.045847543 -0.04702
0.025186371 0.031100975 0.099633366 -0.09595513 -0.041091442 0.040779065 -0.041098263 0.0559613
-0.081255935 -0.029102353 -0.04613725 -0.04725808 -0.15263711 0.06724288 0.12798643 0.11825334
0.023901686 0.08899579 -0.08789084 0.08303877 -0.07529753 0.20107731 -0.09953234 0.08637609
-0.12178886 -0.029079499 0.1526001 0.061999023 0.17488667 0.0412755 0.015950525 -0.10537355
0.1258519 0.009745642 -0.12478511 0.13017276 -0.16070911 0.02557432 0.038322117 0.103990875
0.08709245 -0.08121963 -0.03376762 -0.0009254593 0.008337742 0.11598234 0.12308896 0.038577616
0.14044885 -0.07451102 -0.13915227 -0.0025841119 0.063458964 0.0646311 0.045949083 0.1427332
0.14553156 -0.10377045 -0.09118804 0.042050317 0.013168722 -0.10998778 -0.16673243 0.078933135
-0.03641375 0.082924135 0.17132568 0.09139063 0.063439414 0.016781267 0.12062516 0.14856718
-0.0291593 -0.21586308 -0.12670311 -0.07610792 0.18978502 -0.048191726 0.07613014 0.13383508
-0.08619637 -0.10703462 -0.023405846 0.012342826 0.15049477 0.056158602 0.15674962 0.020220164
-0.1005315 -0.031619053 -0.1624019 0.14978388 0.08173255 0.034091238 0.09302615 0.054064933
-0.03638503 0.10547926 0.19409652 -0.03909317 0.15482335 0.04093488 0.14007443 0.08703406
-0.0051089125 -0.11021989 -0.022757769 -0.1672381 0.19745816 0.16358002 -0.113928705 0.13969159
0.112176314 0.11601314 0.15561791 -0.11344044 0.016102022 -0.04378269 -0.09759013 -0.0325131
-0.14739652 0.15639757 0.023852965 -0.14584868 0.05631011 0.1614834 0.068700574 -0.12673204
-0.015163306 0.14229724 0.00448531 0.14692275 0.11073795 -0.08236269 -0.10818951 -0.17803267
0.1087788 0.04509281 0.06123298 0.15300524 -0.05102878 -0.07342539 -0.13030714 0.047505643
00000000: 3e2e 1e3d 9abf 0c3e cfc7 40be 9916 ac3c
00000010: 3032 d1bd e3d5 6fbd daa2 ed3c ca9d 11be
00000020: ac48 573e 6a80 abbc 3167 2d3e 0bb4 05bd
00000030: d701 af3d 1dbe a73d ce0f 4bbe 854a 93bd
00000040: 1182 cf3d fd10 27be 63ce 983d a6b3 b03d
00000050: cb57 1b3e 4d1a 023e f4cd 20be 8c69 05be
00000060: 5667 323e 6243 353e 865f 02bd 7535 083e
00000070: 3385 c23d c5d5 e03c c70f 04bd 5d18 a9bd
00000080: e582 76bd 0e13 a9bd 3879 ee3c f9d4 9a3d
00000090: c18c 8e3d e776 213d 301a fbbd 2b1a 033e
000000a0: 2418 e1bd 99b9 123e 754a 54be be44 acbd
000000b0: 6434 a53d b23c 3b3e d939 433d 1774 043e
000000c0: ea2c 3dbe babd 433b b0b0 0d3d a4ed dd3d
000000d0: 3cde 3d3e 3dfe 24be c96d 20bd 80a9 8cbd
000000e0: c50b 813d 72a2 1fbe 23c2 333d ea56 3c3e
000000f0: 7409 1bbe aebf 373e 7d43 173e d0eb 3fbc
00000100: cdea 95bd 0778 2fbd e004 d5bd a62f 713d
00000110: aa94 a5bd ae43 fc3d c555 40bd 0c4b a43d
00000120: 9f3e 723d f23a 46bd ce4d d0bc cb8c d1b9
00000130: ad94 5c3e 61d7 da3d eb8e b93d 29a5 0abe
00000140: 6edb 45be a8a7 bb3b de47 dfbd c7e0 333e
00000150: dfde 53bd ed55 213e 605e cb3d a747 153e
00000160: 3a5d a7bd 799f 223e 14b4 8abd fa63 683d
00000170: 3b76 943d 03df d83c 9087 353e 4335 b8bd
00000180: 2fd2 2d3e 2307 bc3d be0b 6fbd 97ad 4e3d
00000190: 7aeb d63c 3f2a c23c 5269 19bd 5ea5 3b3e
000001a0: 1e52 64bd 288e 10be 85f0 be3d a3bb 08be
000001b0: d7ee dfbc 589b f7bd a2ca 3b3d 0b98 40bd
000001c0: a653 ce3c 79c7 fe3c 940c cc3d 2084 c4bd
000001d0: 804f 28bd f307 273d a756 28bd ad37 653d
000001e0: 8369 a6bd 0f68 eebc 6afa 3cbd b091 41bd
000001f0: e74c 1cbe a3b6 893d e00e 033e cf2e f23d
00000200: 78cd c33c 6d43 b63d 1d00 b4bd 3b10 aa3d
00000210: 9735 9abd 36e7 4d3e 9dd7 cbbd f3e5 b03d
00000220: 706c f9bd 2138 eebc 3343 1c3e b0f2 7d3d
00000230: 7e15 333e 8010 293d adaa 823c 16ce d7bd
00000240: 52df 003e 2fac 1f3c 568f ffbd 024c 053e
00000250: ee90 24be 3d81 d13c a7f7 1c3d 2bf9 d43d
00000260: 875d b23d 7a56 a6bd ea4f 0abd 869a 72ba
00000270: 069b 083c 2688 ed3d 1116 fc3d 9003 1e3d
00000280: d3d1 0f3e 3c99 98bd ef7d 0ebe 345a 29bb
00000290: c6f6 813d 4f5d 843d 1b35 3c3d a728 123e
000002a0: 3a06 153e 9a85 d4bd ccc0 babd f43c 2c3d
000002b0: a0c1 573c 4641 e1bd e8bb 2abe b2a7 a13d
000002c0: 9626 15bd 21d4 a93d 0070 2f3e 032b bb3d
000002d0: 86ec 813d de78 893c 530a f73d ff21 183e
000002e0: 7cdf eebc 360b 5dbe 76be 01be 78de 9bbd
000002f0: 0157 423e b064 45bd 1eea 9b3d 100c 093e
00000300: b987 b0bd f834 dbbd 9ebd bfbc 9139 4a3c
00000310: 4d1b 1a3e 9006 663d f982 203e c2a4 a53c
00000320: 76e3 cdbd fb82 01bd af4c 26be f260 193e
00000330: 6563 a73d 41a3 0b3d 7e84 be3d 3173 5d3d
00000340: 7808 15bd 8305 d83d 3dc1 463e 2920 20bd
00000350: 038a 1e3e 55ab 273d ac6f 0f3e ea3e b23d
00000360: aa68 a7bb f7ba e1bd 806e babc 7740 2bbe
00000370: 7932 4a3e 8581 273e 7453 e9bd 500b 0f3e
00000380: b2bc e53d 4c98 ed3d 4d5a 1f3e 7653 e8bd
00000390: 63e8 833c 7a55 33bd 56dd c7bd 752c 05bd
000003a0: 1def 16be af26 203e 4b67 c33c 5b59 15be
000003b0: 6ea5 663d e85b 253e e3b2 8c3d 0bc6 01be
000003c0: 846f 78bc 5eb6 113e 82f9 923b eb72 163e
000003d0: 94ca e23d c5ad a8bd 7692 ddbd 324e 36be
000003e0: 6bc7 de3d 3db3 383d 6fcf 7a3d 68ad 1c3e
000003f0: 8e03 51bd 0d60 96bd 3c6f 05be 4795 423d

convs.1.lin_l.weight f4 [128, 64]
-0.00086283614 -0.05684657 0.026996905 0.04487595 -0.075293824 -0.11479294 -0.088054575 0.0795625
0.116182804 -0.12954058 -0.015800929 -0.07972169 0.07919032 0.03133671 -0.1251529 0.056438528
-0.03805539 0.07324041 -0.044404842 0.04358659 0.1007923 -0.09564747 0.0011094761 -0.10355137
-0.01493852 -0.105679214 -0.07824683 0.11406949 -0.03199223 0.093724556 0.090934515 -0.12687616
0.09152404 -0.07151483 0.14080697 0.04833633 0.0691844 -0.10935432 -0.034987606 -0.08635055
-0.1002328 0.0048092385 -0.0011262314 0.01772908 -0.12261937 0.05145205 -0.12822932 -0.021193085
0.07132432 0.12030658 0.052476075 -0.033167526 0.0015763061 -0.022519259 -0.12256501 -0.04486369
-0.048979994 0.053237423 0.12253229 -0.06899996 0.08282351 -0.05988027 0.09854555 -0.08831924
-0.062329844 -0.041918512 -0.07625182 -0.09389288 -0.019702151 -0.017275603 0.10849612 0.070971124
0.13832326 0.03187866 -0.083653174 0.109179325 0.07088698 0.08447949 0.04196748 0.09836098
0.08787161 -0.06106806 0.09275774 0.060422108 -0.054703824 0.04405146 0.017974678 0.068712175
0.11961093 0.02255671 -0.07888841 -0.03686988 0.030488813 0.07126007 0.020110508 0.120490864
0.06505215 0.00669614 0.10336473 -0.043411247 0.036740456 0.12728375 0.0059380364 0.14395672
-0.07642506 0.10880989 -0.04579723 -0.07931643 -0.023285666 -0.05586806 0.068337746 -0.10633666
-0.07937658 0.09886936 0.04781006 -0.01867465 -0.048647273 -0.058772698 -0.102956064 0.09633764
0.043026745 0.058659438 0.09929891 0.09153194 0.049803145 0.007358821 -0.061954737 0.0035771476
-0.1253532 -0.09154842 0.014184297 -0.04746921 -0.0035287873 0.03754471 0.10133624 -0.008745767
-0.13358648 -0.13337211 -0.11806648 0.03804905 0.10248358 0.06641921 0.09771084 -0.0038649854
-0.032263536 -0.017045528 -0.0967246 -0.10646084 -0.034254875 -0.033119135 -0.03244852 0.10931216
-0.04044835 -0.11720239 -0.0462843 -0.125131 0.041276757 -0.04162339 -0.07748522 0.06385875
-0.05833887 -0.031215897 -0.1347558 0.12048803 -0.0453556 -0.10801289 0.09481522 0.056490846
-0.038524665 -0.13240105 0.019318247 -0.093217306 0.030216834 0.08131077 -0.09974443 0.037190404
-0.0798965 -0.040408198 -0.068417914 -0.13111004 -0.0437213 -0.17144255 0.048109196 0.08960443
-0.04892347 -0.10920205 -0.14185973 0.09160656 -0.021214506 0.11819325 -0.026610937 0.056348335
0.09065904 -0.041939564 -0.011497871 0.0057646637 -0.1210994 -0.02189139 0.019072283 0.030367117
-0.12785642 -0.111707255 -0.046113864 6.19257e-05 0.114359185 0.037602913 -0.0647691 -0.024243277
0.048138864 0.08662562 0.088049054 -0.038263764 -0.12315024 -0.013682675 -0.10122125 0.050531577
0.101061754 -0.02760667 -0.030248804 -0.09390317 0.09159951 -0.103942685 0.046240725 -0.035265476
0.14362688 0.06913658 0.112785675 -0.013378006 0.10258226 -0.051319312 -0.010338906 -0.10578129
0.075437844 0.09979961 0.08377686 0.010303803 0.084666446 0.12934116 0.09230915 -0.12312738
-0.09043914 -0.025922198 -0.10238373 0.03491014 0.00073219027 -0.110410586 0.086002976 0.110877916
0.060564417 0.02990458 0.09955936 0.005172838 0.10062635 0.11233463 0.055855498 -0.008443938
00000000: f42f 62ba f3d7 68bd 9d28 dd3c d8cf 373d
00000010: a633 9abd 9018 ebbd f555 b4bd aaf1 a23d
00000020: 40f1 ed3d 49a6 04be f370 81bc 2045 a3bd
00000030: 892e a23d ec5a 003d 1528 00be 162c 673d
00000040: f8df 1bbd 11ff 953d dae1 35bd da87 323d
00000050: 326c ce3d d2e2 c3bd d76b 913a be12 d4bd
00000060: b2c0 74bc 586e d8bd e03f a0bd 449d e93d
00000070: 490a 03bd a9f2 bf3d e03b ba3d d3eb 01be
00000080: f570 bb3d 5e76 92bd b42f 103e 51fc 453d
00000090: 8db0 8d3d 28f5 dfbd 2a4f 0fbd 8fd8 b0bd
000000a0: db46 cdbd d196 9d3b 0e9e 93ba 933c 913c
000000b0: dd1f fbbd 63bf 523d 8c4e 03be 1f9d adbc
000000c0: 7c12 923d 4c63 f63d 27f1 563d acda 07bd
000000d0: 0e9c ce3a 4f7a b8bc 5d03 fbbd fdc2 37bd
000000e0: 3f9f 48bd 7c0f 5a3d 36f2 fa3d da4f 8dbd
000000f0: 5f9f a93d 0445 75bd 40d2 c93d b8e0 b4bd
00000100: 944d 7fbd bfb2 2bbd ea29 9cbd e94a c0bd
00000110: 6866 a1bc 9185 8dbc 3733 de3d 4f59 913d
00000120: 9da4 0d3e 3393 023d 5b52 abbd 6999 df3d
00000130: 312d 913d 9503 ad3d 18e6 2b3d 7b71 c93d
00000140: 08f6 b33d 8122 7abd c5f7 bd3d 2c7d 773d
00000150: 1e11 60bd 4e6f 343d a23f 933c f8b8 8c3d
00000160: 93f6 f43d d9c8 b83c 3f90 a1bd df04 17bd
00000170: adc3 f93c cdf0 913d cbbe a43c eac3 f63d
00000180: 103a 853d 4b6b db3b e3b0 d33d fecf 31bd
00000190: 297d 163d ac56 023e dc93 c23b 6469 133e
000001a0: be84 9cbd b8d7 de3d e095 3bbd a770 a2bd
000001b0: 95c1 bebc e8d5 64bd a9f4 8b3d 09c7 d9bd
000001c0: 3090 a2bd 057c ca3d 7bd4 433d 94fb 98bc
000001d0: 5d42 47bd a4bb 70bd a1da d2bd ab4c c53d
000001e0: d03c 303d e144 703d 3a5d cb3d 1975 bb3d
000001f0: 62fe 4b3d 4422 f13b 40c4 7dbd 946e 6a3b
00000200: 975c 00be bd7d bbbd 4165 683c 136f 42bd
00000210: 3a43 67bb 7bc8 193d 6089 cf3d 684a 0fbc
00000220: e5ca 08be b392 08be d7cc f1bd 52d9 1b3d
00000230: e9e2 d13d cb06 883d 9f1c c83d b24b 7dbb
00000240: c526 04bd 10a3 8bbc 8c17 c6bd 2408 dabd
00000250: d74e 0cbd eea7 07bd bde8 04bd 0edf df3d
00000260: 2bad 25bd cf07 f0bd 9b94 3dbd 5722 00be
00000270: d111 293d 4a7d 2abd 92b0 9ebd 60c8 823d
00000280: bdf4 6ebd 7bb8 ffbc 6dfd 09be 6ec2 f63d
00000290: cbc6 39bd dd35 ddbd 7b2e c23d f262 673d
000002a0: 0acc 1dbd 2494 07be 4d41 9e3c b7e8 bebd
000002b0: 4b89 f73c 4386 a63d cf46 ccbd f754 183d
000002c0: c7a0 a3bd 1183 25bd b11e 8cbd b641 06be
000002d0: 1b15 33bd a38e 2fbe 260e 453d 8782 b73d
000002e0: fa63 48bd 53a5 dfbd ad43 11be 389c bb3d
000002f0: 0bca adbc 4d0f f23d 2eff d9bc 83cd 663d
00000300: 72ab b93d d2c8 2bbd 9161 3cbc 81e5 bc3b
00000310: f602 f8bd 9355 b3bc 7a3d 9c3c 76c4 f83c
00000320: cbec 02be c6c6 e4bd e4e1 3cbd 1bde 8138
00000330: 2635 ea3d 8305 1a3d a9a5 84bd d699 c6bc
00000340: 422d 453d c668 b13d 1053 b43d 77ba 1cbd
00000350: 3136 fcbd 4c2d 60bc 164d cfbd 33fa 4e3d
00000360: 77f9 ce3d 6227 e2bc 57cc f7bc 4e50 c0bd
00000370: 8698 bb3d e7df d4bd ea66 3d3d 8872 10bd
00000380: ed12 133e 7b97 8d3d 2dfc e63d 6d2f 5bbc
00000390: a616 d23d 3334 52bd 8464 29bc dca3 d8bd
000003a0: 287f 9a3d bd63 cc3d 3493 ab3d 48d1 283c
000003b0: 9a65 ad3d 0272 043e 940c bd3d 352a fcbd
000003c0: 2838 b9bd ca5a d4bc 90ae d1bd effd 0e3d
000003d0: 75f0 3f3a f21e e2bd 5422 b03d f613 e33d
000003e0: 6512 783d 73fa f43c c7e5 cb3d e980 a93b
000003f0: 3015 ce3d b30f e63d bcc8 643d 7158 0abc

convs.1.lin_l.bias f4 [128]
0.1040772 0.110701025 -0.13168709 0.10018013 0.03991065 -0.08892798 -0.13264084 -0.10483529
-0.16009286 0.055883374 -0.09650965 -0.10852788 -0.077814 -0.037971962 -0.074344285 0.020058773
-0.018073678 0.03486694 0.032438014 0.05925987 0.0345247 0.008157857 -0.04987663 0.066603236
-0.0012891452 0.025943097 -0.035742924 -0.08532444 -0.042839088 0.020228539 0.06635843 0.14034238
0.038861096 -0.05272531 -0.06733332 0.103331536 -0.12368074 -0.011362979 -0.023150504 0.016905883
-0.042629484 -0.12854753 0.0885213 0.12884422 0.025417991 0.10753454 -0.10357593 0.07107091
0.013420247 -0.032195445 -0.033311494 -0.017175857 -0.031723082 6.7431756e-05 -0.05149708 0.05538742
0.086608574 0.0120623065 -0.07893843 -0.11963741 -0.08330833 -0.015046852 0.03894672 0.04904155
0.11346612 0.06619469 -0.044407386 0.06066821 -0.029979711 0.041173108 0.10779456 0.07250994
-0.12716885 0.013484459 0.03768474 -0.007656113 -0.063057125 0.062427007 0.07221712 -0.034415703
0.069896705 -0.06771991 -0.08782198 -0.029395644 -0.02604836 -0.04078235 -0.09985075 0.13857958
0.11800216 0.061539695 -0.027043592 -0.14879943 -0.028703975 0.05900528 0.09372022 -0.053679742
-0.123401634 0.09317985 -0.0073806145 0.019486815 -0.006550488 -0.115242176 -0.11515286 -0.058122333
-0.037199974 -0.06619735 -0.03346682 0.099864535 -0.059436347 -0.06256777 0.077308536 0.057803534
0.09614496 0.094545014 0.1218942 -0.09524574 -0.087974705 -0.018946113 -0.025775252 0.03161365
-0.10565933 0.14845112 -0.067793384 0.057794474 -0.03914601 -0.084556654 0.062230516 -0.07692893
00000000: 6d26 d53d 38b7 e23d fbd8 06be 3d2b cd3d
00000010: 5a79 233d df1f b6bd 00d3 07be e2b3 d6bd
00000020: 62ef 23be f7e5 643d daa6 c5bd dd43 debd
00000030: f25c 9fbd 7d88 1bbd d141 98bd 4c52 a43c
00000040: 400f 94bc a3d0 0e3d b9dd 043d 7aba 723d
00000050: c669 0d3d 88a8 053c 704b 4cbd 4767 883d
00000060: 89f8 a8ba 9e86 d43c 2c67 12bd 94be aebd
00000070: 0a78 2fbd 52b6 a53c eee6 873d eab5 0f3e
00000080: d02c 1f3d 7ff6 57bd 0de6 89bd 7c9f d33d
00000090: 544c fdbd ca2b 3abc 20a6 bdbc 357e 8a3c
000000a0: 419c 2ebd f7a1 03be a84a b53d bdef 033e
000000b0: 6439 d03c 123b dc3d 9e1f d4bd a08d 913d
000000c0: 98e0 5b3c 5fdf 03bd a271 08bd 62b4 8cbc
000000d0: 10f0 01bd 266a 8d38 9aee 52bd ebdd 623d
000000e0: d65f b13d fba0 453c 79aa a1bd 7504 f5bd
000000f0: 8f9d aabd 1287 76bc 9986 1f3d cbdf 483d
00000100: ed60 e83d 1591 873d 85e4 35bd 3b7f 783d
00000110: 0398 f5bc 22a5 283d 65c3 dc3d 1780 943d
00000120: 8d38 02be eced 5c3c 505b 1a3d 21e0 fabb
00000130: 1824 81bd 76b3 7f3d 92e6 933d 7bf7 0cbd
00000140: 0126 8f3d bcb0 8abd 03dc b3bd 22cf f0bc
00000150: 5f63 d5bc 650b 27bd 8d7e ccbd cee7 0d3e
00000160: 1eab f13d 0c11 7c3d 868a ddbc e15e 18be
00000170: 9924 ebbc 85af 713d 63f0 bf3d 4adf 5bbd
00000180: ffb9 fcbd 14d5 be3d 15d9 f1bb d0a2 9f3c
00000190: 7aa5 d6bb 1704 ecbd 43d5 ebbd af11 6ebd
000001a0: 005f 18bd 7a92 87bd 8114 09bd c785 cc3d
000001b0: 8773 73bd 8823 80bd f053 9e3d 66c3 6c3d
000001c0: a6e7 c43d d1a0 c13d aba3 f93d 3310 c3bd
000001d0: 152c b4bd e134 9bbc 9f26 d3bc 517d 013d
000001e0: eb63 d8bd 9203 183e 42d7 8abd e6b9 6c3d
000001f0: 9157 20bd 0a2c adbd 6de5 7e3d ea8c 9dbd

convs.1.lin_r.weight f4 [128, 64]
0.052707855 0.087646976 -0.07780078 0.040908754 0.02560437 -0.0043835663 0.0096490905 0.04197669
0.10916337 0.022414535 0.101142325 0.015181905 0.10536595 0.025531664 -0.092549495 -0.028829616
-0.10344818 -0.018047895 0.1241779 0.03923963 0.07506782 -0.12506716 0.07612222 -0.12541299
-0.044041403 0.106665716 -0.006588938 0.025017386 -0.049469456 0.049585488 0.12720951 0.109355465
0.10564877 -0.06905289 0.07514628 -0.024865063 -0.07244456 -0.07025371 -0.098677866 0.11627755
-0.08625799 0.023096403 0.027807849 -0.07315319 0.024580477 0.007961536 -0.0788469 -0.00788392
-0.06594331 -0.037041012 0.062470082 0.047738113 0.09813238 0.07246293 -0.035253312 -0.037467614
0.020328565 -0.06861961 -0.11184579 0.04727428 -0.0434941 -0.06473139 -0.07632528 0.08492388
-0.09865748 0.06433026 0.09263975 0.052987117 0.14453524 -0.014931313 0.10768663 -0.096677504
-0.047317706 -0.061093908 0.0348325 0.07118123 -0.07372706 -0.039025024 -0.0106529435 -0.06284553
-0.03718215 0.035630304 -0.04361613 0.005450848 -0.0054518846 -0.03862276 -0.081 -0.10462165
0.015018679 -0.12398876 0.03539512 -0.050745092 -0.10269993 0.08904958 -0.05979673 -0.064028196
-0.08382913 0.041097496 0.091116585 0.017957235 -0.09939459 0.043816485 -0.029467938 0.16957648
-0.029666359 0.0066465773 0.121968545 -0.015946364 0.06843272 0.08107149 -0.036313836 -0.061709367
0.039540846 0.12971453 -0.015991095 -0.0037298936 0.03255406 0.07620443 -0.11127888 0.098013334
0.09577715 0.035033636 -0.04082241 0.012002922 0.03871398 -0.02318941 0.063689545 0.06365495
-0.105460554 -0.012769711 0.07679826 0.009710381 0.0055465163 0.0109339645 -0.09170105 0.041564003
0.022346307 0.062963516 -0.023378532 0.106002666 -0.023909666 -0.10791346 -0.1026057 0.022203567
0.06640406 -0.00018278538 -0.14027612 0.023575725 -0.06896621 -0.06013366 -0.10096319 0.12650946
-0.035829134 -0.12745573 -0.13391563 0.0763353 0.020704824 0.08335062 -0.08295586 -0.0025986636
0.057904582 -0.14080623 -0.095633276 0.034750488 -0.09490954 -0.11350842 -0.05541669 0.007415501
0.0482796 0.045433886 -0.04637871 -0.061821226 0.09443074 -0.059891652 -0.03362923 0.04004122
0.057218753 -0.08829045 0.09028146 0.081433706 0.015488762 -0.08767076 -0.05794778 0.039176438
-0.11293441 -0.011202203 0.08317148 -0.14815839 0.056391332 -0.10484102 -0.15636957 -0.0116784
-0.04983115 0.04786286 -0.032122623 0.06556149 0.023294095 0.0014359663 -0.08008003 0.1022152
0.04735199 0.0020491993 0.07288345 0.09268736 0.079818346 0.022267539 -0.10265182 -0.044737767
0.081190005 0.04218438 -0.06393641 -0.036491215 -0.010249959 0.11049652 -0.10345484 0.06303457
-0.11271291 0.0068112174 -0.009567102 -0.109008834 0.014044814 -0.009067391 -0.028868236 -0.0011828181
-0.026835768 0.0041888147 0.07365302 0.07757266 -0.041687902 0.01772299 0.07072449 0.11932608
-0.015663035 0.016476328 -0.032595363 0.056792993 -0.06603139 0.103931464 -0.038517293 -0.117677525
-0.00476495 0.010381156 0.028921273 -0.11893969 -0.01899607 0.021576827 -0.0042935493 -0.0643705
-0.12975928 0.0054304763 -0.05172135 0.043084975 -0.08693262 -0.03378402 -0.065897845 -0.06790003
00000000: 31e4 573d 4280 b33d 0456 9fbd f08f 273d
00000010: 41c0 d13c 05a4 8fbb 3817 1e3c c0ef 2b3d
00000020: 0c91 df3d b09e b73c b523 cf3d 86bd 783c
00000030: 1aca d73d c827 d13c 978a bdbd 162c ecbc
00000040: a4dc d3bd 2ed9 93bc fc50 fe3d bcb9 203d
00000050: 28bd 993d 9b11 00be f7e5 9b3d 436c 00be
00000060: c264 34bd 8e73 da3d 05e8 d7bb 43f1 cc3c
00000070: 7ca0 4abd 271a 4b3d 3643 023e c2f5 df3d
00000080: 625e d83d 9a6b 8dbd 4be6 993d d1b1 cbbc
00000090: d05d 94bd 2de1 8fbd 9f17 cabd ed22 ee3d
000000a0: 07a8 b0bd ab34 bd3c 49cd e33c 57d1 95bd
000000b0: ff5c c93c 1a71 023c 7c7a a1bd 8f2b 01bc
000000c0: 490d 87bd 51b8 17bd a1e0 7f3d 0a89 433d
000000d0: a1f9 c83d 7267 943d c765 10bd a477 19bd
000000e0: 1788 a63c 7088 8cbd 680f e5bd ada2 413d
000000f0: df26 32bd e491 84bd 6e50 9cbd 92ec ad3d
00000100: ef0c cabd 95bf 833d e9b9 bd3d 0509 593d
00000110: 0c01 143e 77a2 74bc cf8a dc3d dbfe c5bd
00000120: 36d0 41bd 9b3d 7abd 86ac 0e3d 77c7 913d
00000130: 36fe 96bd b4d8 1fbd af89 2ebc 28b5 80bd
00000140: 4f4c 18bd 15f1 113d d4a6 32bd 079d b23b
00000150: b9a5 b2bb e632 1ebd 54e3 a5bd e043 d6bd
00000160: e810 763c d2ed fdbd 79fa 103d 16da 4fbd
00000170: 5754 d2bd a05f b63d 6aed 74bd 3721 83bd
00000180: 9bae abbd d955 283d 559b ba3d 0d1b 933c
00000190: 648f cbbd ea78 333d bf66 f1bc 75a5 2d3e
000001a0: dd06 f3bc 88cb d93b a5ca f93d f3a1 82bc
000001b0: 7426 8c3d cf08 a63d d1bd 14bd f6c2 7cbd
000001c0: 95f5 213d e3d3 043e c2ff 82bc 3b71 74bb
000001d0: 6857 053d 1111 9c3d 2ee6 e3bd 37bb c83d
000001e0: cf26 c43d 6e7f 0f3d 6635 27bd e7a7 443c
000001f0: 8d92 1e3d b8f7 bdbc aa6f 823d 875d 823d
00000200: b4fb d7bd 0d38 51bc 6848 9d3d 4a18 1f3c
00000210: 8dbf b53b 5f24 333c c3cd bbbd 043f 2a3d
00000220: 9a0f b73c 04f3 803d 5684 bfbc ed17 d93d
00000230: 34de c3bc bb01 ddbd f022 d2bd 41e4 b53c
00000240: dafe 873d 14aa 3fb9 8ba4 0fbe e121 c13c
00000250: 283e 8dbd b64e 76bd cac5 cebd b28b 013e
00000260: 92c1 12bd c183 02be 2e21 09be af55 9c3d
00000270: 2a9d a93c bbb3 aa3d c3e4 a9bd 574e 2abb
00000280: 5b2d 6d3d 822f 10be 61db c3bd 8756 0e3d
00000290: ef5f c2bd 1a77 e8bd 9cfc 62bd bbfd f23b
000002a0: d4c0 453d e218 3a3d 9af7 3dbd 4138 7dbd
000002b0: e764 c13d f350 75bd cebe 09bd 4302 243d
000002c0: 365e 6a3d a0d1 b4bd 7ce5 b83d b7c6 a63d
000002d0: 94c4 7d3c ba8c b3bd a75a 6dbd 7977 203d
000002e0: 284a e7bd 7289 37bc cf55 aa3d d5b6 17be
000002f0: 99fa 663d e4b6 d6bd 581f 20be c356 3fbc
00000300: bf1b 4cbd d90b 443d 0393 03bd 1a45 863d
00000310: 42d3 be3c 0937 bc3a 0001 a4bd 3456 d13d
00000320: 29f4 413d dc4b 063b eb43 953d dfd2 bd3d
00000330: cd77 a33d 6a6a b63c 1e3b d2bd f33e 37bd
00000340: f246 a63d 87c9 2c3d 18f1 82bd d077 15bd
00000350: 72ef 27bc 004c e23d 22e0 d3bd 4518 813d
00000360: 07d6 e6bd a230 df3b 56bf 1cbc 0640 dfbd
00000370: 381c 663c 658f 14bc 147d ecbc ca08 9bba
00000380: afd6 dbbc 5342 893b 65d7 963d 6ade 9e3d
00000390: efc0 2abd ce2f 913c 00d8 903d 3b61 f43d
000003a0: c44f 80bc 5df9 863c b782 05bd c59f 683d
000003b0: 773b 87bd 05da d43d 4fc4 1dbd ea00 f1bd
000003c0: 4c23 9cbb b915 2a3c 4eec ec3c a796 f3bd
000003d0: a59d 9bbc e3c1 b03c e7b0 8cbb aed4 83bd
000003e0: 9edf 04be 23f2 b13b c4d9 53bd df79 303d
000003f0: bb09 b2bd 1d61 0abd 73f5 86bd 2c0f 8bbd

bns.0.weight f4 [64]
0.9533154 1.0146846 0.9687149 0.9256821 1.0097209 0.93546003 0.9936242 0.9979373
0.977088 1.0062348 0.9652119 0.993732 0.9117808 0.9696699 0.98565143 0.9965671
0.94711226 0.95592284 0.9290888 1.0003315 0.9860873 0.9977397 0.99111325 0.9268887
0.9570325 0.98952997 0.96605176 0.9958095 0.97143555 0.9733967 0.98034996 1.0145171
0.9252309 1.0018463 1.0880495 0.99281615 0.9576361 1.0101675 0.99756086 1.0366604
0.9229069 0.93669856 0.97823346 1.0054053 1.0065616 1.0409902 0.9785868 0.9449405
0.9876007 1.030801 1.0062873 0.9725095 0.97754884 1.0110786 0.95020914 0.9518143
0.9396858 0.9933818 1.0043459 0.9654542 0.99593997 1.0171956 1.041302 0.8957728
00000000: 7a0c 743f 2fe1 813f b3fd 773f 81f9 6c3f
00000010: 893e 813f 4f7a 6f3f 285e 7e3f d278 7f3f
00000020: 7022 7a3f 4dcc 803f 2118 773f 3865 7e3f
00000030: 776a 693f 493c 783f a753 7c3f 051f 7f3f
00000040: f375 723f 5cb7 743f c3d8 6d3f dd0a 803f
00000050: 3870 7c3f de6b 7f3f 99b9 7d3f 9448 6d3f
00000060: 1500 753f d651 7d3f 2b4f 773f 5fed 7e3f
00000070: 00b0 783f 8730 793f 37f8 7a3f b2db 813f
00000080: efdb 6c3f 803c 803f 3545 8b3f 3329 7e3f
00000090: a427 753f 2b4d 813f 2660 7f3f 4ab1 843f
000000a0: a043 6c3f 7acb 6f3f 826d 7a3f 1fb1 803f
000000b0: 03d7 803f 2b3f 853f aa84 7a3f 9fe7 713f
000000c0: 66d3 7c3f 4af1 833f 06ce 803f 62f6 783f
000000d0: a440 7a3f 066b 813f e840 733f 1aaa 733f
000000e0: 408f 703f 454e 7e3f 688e 803f 0228 773f
000000f0: ecf5 7e3f 7733 823f 6249 853f 5e51 653f

bns.0.bias f4 [64]
-0.033306908 0.030898185 -0.024155755 -0.068434656 -0.004785857 -0.041852977 -0.0063466625 -0.008335746
-0.003029039 0.008570603 -0.01612926 -0.014601369 -0.0553217 -0.032897923 -0.020171084 -0.017917175
-0.0397683 -0.014129812 -0.059444208 -0.001094627 0.0015426396 0.009491908 0.016754797 -0.07472217
-0.044111233 -0.020700287 -0.014999065 0.034453347 -0.021612708 -0.04962083 -0.015018074 0.00986224
-0.061145026 0.010136148 0.10216172 -0.018909015 -0.04306982 0.010849917 -0.006686575 0.041188736
-0.07115034 -0.045881182 -0.0032659767 0.016360447 0.012511367 0.06458707 -0.032670442 -0.06149165
-0.022211663 0.037097096 -0.013732027 -0.028013282 0.013661013 0.0034973659 -0.036154516 -0.061015885
-0.04332447 -0.0081833 -0.0028850466 -0.03142938 0.01634044 -0.00050911144 0.06114049 -0.08506912
00000000: d36c 08bd 311e fd3c 4ae2 c5bc 7827 8cbd
00000010: aed2 9cbb 076e 2bbd aaf7 cfbb a792 08bc
00000020: d782 46bb b76b 0c3c 8321 84bc 953a 6fbc
00000030: 0299 62bd f9bf 06bd d43d a5bc 0ac7 92bc
00000040: 16e4 22bd ba80 67bc c57b 73bd 9679 8fba
00000050: 6532 ca3a f383 1b3c 5b41 893c f007 99bd
00000060: fbad 34bd a693 a9bc a3be 75bc f41e 0d3d
00000070: 220d b1bc 363f 4bbd 5e0e 76bc 3c95 213c
00000080: 3573 7abd 1612 263c 2a3a d13d 14e7 9abc
00000090: fb69 30bd dac3 313c 0e1b dbbb 85b5 283d
000000a0: 45b7 91bd e8ed 3bbd ff09 56bb 5806 863c
000000b0: 7afc 4c3c 3a46 843d 71d1 05bd abde 7bbd
000000c0: 3cf5 b5bc 20f3 173d 4cfc 60bc 1c7c e5bc
000000d0: 71d2 5f3c 1034 653b c216 14bd cbeb 79bd
000000e0: 0075 31bd 3f13 06bc 0d13 3dbb 18bc 00bd
000000f0: 63dc 853c e475 05ba 736e 7a3d b838 aebd

bns.0.running_mean f4 [64]
0.10458335 0.008514092 -0.090044275 0.1265399 0.0025273843 0.10087263 -0.08366127 0.058330137
0.009976684 0.111047514 -0.13491842 -0.060735196 0.05754519 0.14327557 0.007710075 0.017260576
0.054915197 -0.08429363 -0.041082803 0.18066421 0.058740765 0.03458711 0.0079315 -0.16853549
-0.021300301 0.08490045 0.019441556 0.042513393 -0.014923473 -0.06483468 0.08292591 0.0018634008
0.075927526 -0.0016506568 0.0872376 0.06336736 -0.016023368 0.045021173 -0.056723606 0.03844838
0.064128004 -0.040517095 -0.086188756 -0.09740126 -0.032280453 0.023417408 0.038003974 0.026890337
-0.06866225 0.12613331 -0.056249775 -0.01725899 0.033253063 -0.03577309 0.034982562 0.08592398
-0.022068415 -0.09781694 -0.051130254 0.0730314 0.108905435 0.0063557927 0.13659656 0.044527467
00000000: cc2f d63d b17e 0b3c 2269 b8bd ad93 013e
00000010: 79a2 253b 4f96 ce3d 9a56 abbd 95eb 6e3d
00000020: 3f75 233c e16c e33d 0e28 0abe 78c5 78bd
00000030: 81b4 6b3d d5b6 123e cca4 fc3b 0d66 8d3c
00000040: c2ee 603d 24a2 acbd 7146 28bd 0a00 393e
00000050: 289a 703d 37ab 0d3d 1ff3 013c 9194 2cbe
00000060: f87d aebc 4ae0 ad3d e643 9f3c 8622 2e3d
00000070: 9581 74bc 0bc8 84bd 0fd5 a93d 5b3d f43a
00000080: e47f 9b3d da5a d8ba a0a9 b23d bfc6 813d
00000090: 7043 83bc 1f68 383d 0357 68bd 0c7c 1d3d
000000a0: 8b55 833d 41f5 25bd bb83 b0bd 507a c7bd
000000b0: 8238 04bd ddd5 bf3c 0eaa 1b3d 2049 dc3c
000000c0: cb9e 8cbd 1729 013e 2a66 66bd ba62 8dbc
000000d0: 5d34 083d ce86 12bd e049 0f3d e9f8 af3d
000000e0: d2c8 b4bc 3f54 c8bd f56d 51bd 7d91 953d
000000f0: d009 df3d 4144 d03b f8df 0b3e 6f62 363d

bns.0.running_var f4 [64]
0.009957563 0.009792938 0.0068259053 0.010788912 0.009318421 0.011461329 0.009326951 0.014830471
0.00849212 0.01004797 0.008419363 0.010986479 0.008016449 0.008795155 0.01059905 0.014652687
0.009247663 0.00882179 0.007462076 0.007713275 0.010482119 0.014994205 0.008293526 0.011828804
0.009136099 0.008137222 0.015002174 0.009249265 0.010192845 0.01191609 0.00820283 0.008620232
0.011105295 0.010118935 0.010150469 0.008674564 0.0090519935 0.012158772 0.009228731 0.012197792
0.011057051 0.011580681 0.011117715 0.007820959 0.01369143 0.011780491 0.0087199025 0.00747892
0.013603398 0.007580198 0.015734281 0.009148084 0.009647609 0.009824938 0.010183606 0.007010561
0.012539859 0.009789133 0.008856364 0.009729286 0.008036296 0.013002688 0.01031111 0.008143832
00000000: 0c25 233c 8f72 203c d8ab df3b fac3 303c
00000010: 4aac 183c 4cc8 3b3c 11d0 183c 81fb 723c
00000020: 8822 0b3c 3ea0 243c 5ef1 093c a200 343c
00000030: 6d57 033c 8e19 103c a3a7 2d3c d311 703c
00000040: 8383 173c 4589 103c 6e84 f43b a4bf fc3b
00000050: 32bd 2b3c 41aa 753c 92e1 073c 9acd 413c
00000060: 94af 153c fc51 053c aecb 753c 3b8a 173c
00000070: e4ff 263c b43b 433c 2a65 063c e03b 0d3c
00000080: fcf2 353c e4c9 253c 274e 263c c21f 0e3c
00000090: d04e 143c 9635 473c 1a34 173c 3fd9 473c
000000a0: a228 353c e6bc 3d3c 1427 363c 7b23 003c
000000b0: 0552 603c f602 413c ecdd 0e3c ba11 f53b
000000c0: c9e0 5e3c 4f63 f83b 2ee5 803c d8e1 153c
000000d0: 0111 1e3c c7f8 203c 24d9 263c d9b8 e53b
000000e0: fb73 4d3c 9a62 203c 481a 113c 9567 1f3c
000000f0: abaa 033c 3a09 553c eeef 283c b56d 053c

bns.1.weight f4 [128]
0.27961007 0.28263944 0.24901794 0.25589883 0.26430845 0.28007728 0.27567586 0.27386484
0.26900893 0.27732068 0.281908 0.27436784 0.27192482 0.26645908 0.26448524 0.2683227
0.25375137 0.26200682 0.27067584 0.24674106 0.2911836 0.26866144 0.27676713 0.2715164
0.26213738 0.29296827 0.2421598 0.28856453 0.28586465 0.26539847 0.26709187 0.26089403
0.28542128 0.27307835 0.27192563 0.27634045 0.2580913 0.2766229 0.27770713 0.26586458
0.25893578 0.2494687 0.26515475 0.2713404 0.26932973 0.28350624 0.279889 0.26046595
0.26569223 0.28291366 0.27391878 0.26107168 0.27775294 0.2719533 0.27299884 0.2745115
0.27055925 0.24805908 0.29631126 0.2697369 0.28860676 0.25969034 0.28098992 0.24494445
0.27291584 0.27471262 0.27729547 0.2429247 0.25681075 0.26402575 0.27735665 0.26555324
0.2707732 0.26783022 0.26620734 0.26658446 0.25744802 0.24202193 0.25288922 0.25003844
0.25495017 0.23751374 0.26356468 0.2785101 0.27037013 0.25996098 0.26305446 0.2806141
0.2590859 0.28170303 0.2712194 0.27832198 0.27026728 0.25916988 0.27368182 0.25849098
0.26845893 0.27479032 0.25689274 0.27743748 0.27244967 0.28396365 0.25310218 0.2689203
0.24642757 0.26547748 0.26743552 0.29198155 0.25598803 0.27184516 0.2681798 0.2566094
0.2752545 0.29253644 0.27247867 0.251466 0.25490665 0.2601299 0.2664067 0.2683978
0.25947118 0.2672656 0.24810517 0.27986452 0.26040876 0.25452858 0.26032072 0.28603917
00000000: 0d29 8f3e 1eb6 903e 8ffe 7e3e 2c05 833e
00000010: 7053 873e 4a66 8f3e 6325 8d3e 0338 8c3e
00000020: 8abb 893e fafc 8d3e 3f56 903e f179 8c3e
00000030: bb39 8b3e 536d 883e 9c6a 873e 9861 893e
00000040: b3eb 813e c225 863e 0696 8a3e b0a9 7c3e
00000050: 0416 953e fe8d 893e 6cb4 8d3e 3304 8b3e
00000060: df36 863e f0ff 953e bdf8 773e bbbe 933e
00000070: da5c 923e 4fe2 873e 44c0 883e e793 853e
00000080: bd22 923e edd0 8b3e d639 8b3e 7f7c 8d3e
00000090: 8b24 843e 84a1 8d3e a12f 8e3e 671f 883e
000000a0: 3b93 843e b974 7f3e 5dc2 873e 21ed 8a3e
000000b0: 96e5 893e bb27 913e 9c4d 8f3e cb5b 853e
000000c0: d008 883e 0fda 903e 153f 8c3e 30ab 853e
000000d0: a235 8e3e 773d 8b3e 81c6 8b3e c58c 8c3e
000000e0: be86 8a3e 3303 7e3e 1cb6 973e f41a 8a3e
000000f0: 44c4 933e 22f6 843e e9dd 8f3e b8d2 7a3e
00000100: a0bb 8b3e 22a7 8c3e acf9 8d3e 41c1 783e
00000110: b37c 833e 622e 873e b101 8e3e 98f6 873e
00000120: c9a2 8a3e 0b21 893e 544c 883e c27d 883e
00000130: 3ad0 833e 99d4 773e b27a 813e 0a05 803e
00000140: d488 823e cd36 733e f3f1 863e e098 8e3e
00000150: f46d 8a3e 9b19 853e 13af 863e a7ac 8f3e
00000160: e8a6 843e 613b 903e 45dd 8a3e 3880 8e3e
00000170: 7960 8a3e eab1 843e 0620 8c3e ee58 843e
00000180: 7373 893e 51b1 8c3e 7287 833e 490c 8e3e
00000190: 867e 8b3e af63 913e 9c96 813e ecaf 893e
000001a0: 8257 7c3e aaec 873e 4fed 883e 9b7e 953e
000001b0: dd10 833e 4a2f 8b3e dd4e 893e 4f62 833e
000001c0: 28ee 8c3e 56c7 953e 5382 8b3e 27c0 803e
000001d0: 2083 823e bf2f 853e 7566 883e 706b 893e
000001e0: 68d9 843e 09d7 883e 480f 7e3e 674a 8f3e
000001f0: 4c54 853e 9251 823e c248 853e ba73 923e

bns.1.bias f4 [128]
0.004155117 0.012715963 -0.000532522 -0.0019921307 -0.0032781686 -0.0054250653 -0.009088096 0.008549551
0.006150601 0.0034858712 -0.0023277467 -0.00924246 0.001039202 0.0022481598 -0.004607123 -0.00848206
-0.0002292866 -0.0031751124 -0.0061869905 0.0020010604 0.0074740546 -0.004053028 0.010285403 0.0033063854
0.0008682045 0.00963744 0.0018373005 -0.0034402993 -0.011128522 0.0007577206 0.0051039876 0.011784194
-0.00090187177 0.0011790103 -0.004471478 0.00103735 -0.00052754313 -0.0040326067 -0.0042832564 -0.0044693127
0.009508582 0.00567547 -0.0034862235 -0.00804965 0.001033892 0.0027935093 -0.004842837 0.006495374
-0.0018730621 -0.012034335 -0.0033907532 0.011926358 0.010801051 0.0070689805 0.0005988507 -0.008034271
0.003180417 0.00044022728 -0.013783346 0.0014061644 0.011363827 0.0031549234 0.006443078 -0.0030244773
-0.0016417031 -0.004301721 -0.0040137316 -0.00058109383 -0.0038819788 0.006541246 0.0069921366 -0.008407077
-0.005213215 -0.0045198123 0.003660905 0.0013159366 0.0009047161 0.004369375 -0.0037974275 -4.3334167e-05
0.008721149 0.0013501014 -0.0036002076 0.0011585016 -0.0057839355 -0.010115185 -0.0018709418 -0.0072259493
-0.0034126728 0.011430225 -0.003383889 0.0004696979 0.0040160976 0.00013217452 0.0022709472 -0.00044541847
0.008463805 0.0037923176 0.00093451265 -0.008372785 -0.00077566336 -0.0006285559 0.0068917274 -0.002982792
0.00013883611 -0.0037367058 -0.002982982 0.011835505 -0.0004015212 -0.004619091 -0.0021583105 0.007466273
0.009114642 0.009508867 -0.0004836581 -0.0035546306 0.0022672145 0.0019234241 0.0044816923 -0.010566017
-0.001971624 0.0026179696 -0.0052825576 0.005307792 0.0059889574 -0.0036140697 0.005369784 0.000359413
00000000: a627 883b 9d56 503c f298 0bba 688e 02bb
00000010: 8bd6 56bb bfc4 b1bb 3de6 14bc 6a13 0c3c
00000020: fb8a c93b 3773 643b 1c8d 18bb b06d 17bc
00000030: d535 883a dd55 133b 59f7 96bb 57f8 0abc
00000040: a76c 70b9 8c15 50bb 3dbc cabb 3924 033b
00000050: eae8 f43b 43cf 84bb 1b84 283c f1af 583b
00000060: 3898 633a 5ae6 1d3c 93d1 f03a a576 61bb
00000070: 6854 36bc c5a1 463a 5a3f a73b 7e12 413c
00000080: 976b 6cba 0589 9a3a 7a85 92bb b1f7 873a
00000090: d24a 0aba f523 84bb 8f5a 8cbb 5073 92bb
000000a0: e2c9 1b3c 4bf9 b93b 2079 64bb aee2 03bc
000000b0: a983 873a 4f13 373b a9b0 9ebb 25d7 d43b
000000c0: 8981 f5ba a92b 45bc 6637 5ebb c566 433c
000000d0: e4f6 303c e8a2 e73b 31fc 1c3a 2da2 03bc
000000e0: 8b6e 503b 4ece e639 8bd3 61bc 0c4f b83a
000000f0: 582f 3a3c d5c2 4e3b 7520 d33b 4f36 46bb
00000100: 6a2e d7ba 74f5 8cbb 9f85 83bb 8c54 18ba
00000110: cc68 7ebb f357 d63b 4b1e e53b d6bd 09bc
00000120: 9ed3 aabb ef1a 94bb cbeb 6f3b 817b ac3a
00000130: 782a 6d3a f92c 8f3b 43de 78bb b5c1 35b8
00000140: 26e3 0e3c e3f5 b03a 76f1 6bbb ddd8 973a
00000150: 2b87 bdbb 29ba 25bc 643a f5ba a8c7 ecbb
00000160: 26a7 5fbb d745 3b3c 3dc4 5dbb c941 f639
00000170: 7899 833b 5498 0a39 2cd4 143b 0e87 e9b9
00000180: c5ab 0a3c 8888 783b 15fa 743a 012e 09bc
00000190: e355 4bba acc5 24ba 00d4 e13b f27a 43bb
000001a0: 8994 1139 85e3 74bb 227e 43bb b5e9 413c
000001b0: 4383 d2b9 be5b 97bb 7172 0dbb a3a7 f43b
000001c0: 9455 153c 14cb 1b3c 7e93 fdb9 cef4 68bb
000001d0: 8c95 143b 671b fc3a 29db 923b 161d 2dbc
000001e0: 5d36 01bb 3e92 2b3b 4e19 adbb fdec ad3b
000001f0: 043f c43b 07da 6cbb 03f5 af3b 996f bc39

bns.1.running_mean f4 [128]
0.0072994083 0.07103319 -0.120196775 0.02500167 0.04771039 -0.06535768 -0.11794632 -0.0884927
-0.07155448 0.13660876 -0.15018648 -0.13748442 -0.0010523541 0.052318603 -0.040074762 -0.0794998
-0.01893772 0.040751792 0.03127183 -0.066517636 -0.010219092 -0.042277806 0.08805124 -0.019480571
0.03638489 0.06814515 0.056748535 -0.05910822 -0.029281836 0.044229988 0.1015388 0.10982703
0.022680614 0.017698525 -0.12616265 0.1498692 -0.16898806 -0.031000493 -0.20271143 -0.03238312
0.0026645164 -0.11418295 -0.011312416 0.032916985 0.016692275 0.07710719 0.07618697 0.15602197
-0.10977436 -0.0057510124 -0.017414976 0.20812383 -0.00768789 -0.0026855976 -0.030845901 -0.0136224525
-0.022145087 0.07765834 -0.013038319 -0.03376887 -0.007372438 0.08037265 -0.0033515538 -0.008997376
0.08738989 0.010843226 0.028766774 -0.037293773 -0.1260608 0.12998335 0.021967577 0.030558217
-0.06725169 0.029951185 0.04380228 -0.016068019 0.007843644 -0.1449766 -0.13467349 -0.047501903
0.046985928 -0.108232975 0.11217942 -0.017696897 -0.05427122 -0.18117596 0.06293779 0.12543395
0.1294804 0.013047917 0.15051022 0.0058885477 -0.036129564 -0.11576664 0.02551579 -0.07658547
0.067897364 -0.016756613 0.028318537 -0.13671193 0.022030817 -0.10687283 -0.015764518 0.037034094
0.0168127 -0.03277867 0.035692703 0.097724915 -0.031353813 0.0692483 0.03205402 0.087970756
0.04049438 0.0025403816 -0.04939787 -0.13374081 -0.060352903 0.014808486 -0.07370597 -0.11589702
-0.0115914 0.14567068 -0.08306525 0.019932905 0.04791533 0.016696652 0.04505079 0.04624203
00000000: e02f ef3b d979 913d ba29 f6bd 4dd0 cc3c
00000010: f86b 433d 3fda 85bd d78d f1bd a93b b5bd
00000020: 288b 92bd 2be3 0b3e 7cca 19be b7c8 0cbe
00000030: 25ef 89ba 084c 563d 6f25 24bd cbd0 a2bd
00000040: 4723 9bbc 5aeb 263d e416 003d 663a 88bd
00000050: fa6d 27bc 7e2b 2dbd 3554 b43d b895 9fbc
00000060: 5308 153d af8f 8b3d 2771 683d 761b 72bd
00000070: 76e0 efbc 812a 353d 93f3 cf3d feec e03d
00000080: b2cc b93c 7ffc 903c c830 01be 5077 193e
00000090: 350b 2dbe bff4 fdbc 9693 4fbe 2aa4 04bd
000000a0: 2b9f 2e3b c0d8 e9bd b657 39bc f6d3 063d
000000b0: 3dbe 883c 60ea 9d3d ea07 9c3d 39c4 1f3e
000000c0: 61d1 e0bd fd72 bcbb daa9 8ebc 6a1e 553e
000000d0: b2ea fbbb da00 30bb 8bb0 fcbc b530 5fbc
000000e0: 9d69 b5bc 560b 9f3d ac9e 55bc 3a51 0abd
000000f0: 7e94 f1bb 6a9a a43d bea5 5bbb bb69 13bc
00000100: 78f9 b23d c9a7 313c 4ca8 eb3c 5bc1 18bd
00000110: 1516 01be 5b1a 053e 59f5 b33c 3a55 fa3c
00000120: 41bb 89bd 305c f53c 056a 333d 14a1 83bc
00000130: a182 003c bf74 14be d9e7 09be 5b91 42bd
00000140: 5174 403d 40a9 ddbd 53be e53d 15f9 90bc
00000150: 804b 5ebd 3186 39be 87e5 803d c271 003e
00000160: 8396 043e eec6 553c 5a1f 1a3e b8f4 c03b
00000170: 98fc 13bd 0f17 edbd 7d06 d13c d8d8 9cbd
00000180: c60d 8b3d 2a45 89bc 47fc e73c 36fe 0bbe
00000190: f979 b43c 24e0 dabd 9724 81bc 10b1 173d
000001a0: caba 893c ed42 06bd 8332 123d 0024 c83d
000001b0: db6c 00bd 0dd2 8d3d 134b 033d 032a b43d
000001c0: 6fdd 253d 887c 263b 6c55 4abd 5af3 08be
000001d0: 9b34 77bd 4b9f 723c 28f3 96bd 6b5b edbd
000001e0: dbe9 3dbc b22a 153e 1d1e aabd 554a a33c
000001f0: dd42 443d 6bc7 883c 2d87 383d 4868 3d3d

bns.1.running_var f4 [128]
0.0015262598 0.0015672089 0.0019086392 0.0013312546 0.0009608452 0.0015047423 0.0022759964 0.0016244003
0.00158523 0.0013691544 0.0018225241 0.0019129255 0.0016676158 0.0017322258 0.0014635043 0.001808116
0.0012944641 0.0014874765 0.0012772896 0.0017041318 0.0016237502 0.0014280855 0.0011338537 0.001491258
0.0023411312 0.0017027924 0.002203815 0.0017168433 0.0016988756 0.0014808124 0.0013295659 0.0014362643
0.001094348 0.0010419698 0.0025194683 0.0018434128 0.0026370364 0.001476143 0.0018162095 0.00169216
0.0016516296 0.0013943437 0.0012115687 0.0012191484 0.001597594 0.0012249702 0.001359174 0.0020365599
0.002263157 0.0019279459 0.0015145204 0.0018197633 0.0013476431 0.0017346843 0.0010719481 0.0015004099
0.001074978 0.0013543847 0.0013965827 0.0020712407 0.0012937422 0.0012630854 0.0013689236 0.0018939963
0.0014829676 0.0018671722 0.0013806866 0.0013171926 0.0017936985 0.0014991856 0.0016293908 0.0017040998
0.0015439736 0.0016285625 0.0010483613 0.0012412515 0.0016786762 0.0021147192 0.0029802546 0.0015158934
0.0014571056 0.0022821003 0.001727815 0.0015600002 0.0015252033 0.002968767 0.0014548332 0.0020127068
0.0015449149 0.001454949 0.0019423871 0.0011329242 0.0015523513 0.0016419864 0.0013317387 0.0013281165
0.0010874976 0.0013915243 0.0016519066 0.0015846584 0.0015894948 0.0014790007 0.0023833008 0.0022074746
0.0014622095 0.0012609308 0.0018983555 0.0014230853 0.0012576787 0.0016685959 0.0015172673 0.0017301275
0.0016324747 0.0017001317 0.0012551141 0.002168344 0.0016990623 0.0012826503 0.0013582276 0.0014300201
0.0015360067 0.0016385386 0.001358185 0.0015510687 0.002086251 0.0016665005 0.0012648462 0.0016447766
00000000: c80c c83a ce6a cd3a 4e2b fa3a 7e7d ae3a
00000010: 3be1 7b3a c63a c53a e228 153b d4e9 d43a
00000020: 7ec7 cf3a 3375 b33a c3e1 ee3a 21bb fa3a
00000030: e793 da3a da0b e33a 0ed3 bf3a 4efe ec3a
00000040: 02ab a93a 6ef7 c23a ba6a a73a 2d5d df3a
00000050: 04d4 d43a 992e bb3a d19d 943a 5176 c33a
00000060: aa6d 193b 3b30 df3a e16d 103b b407 e13a
00000070: ceac de3a d217 c23a d444 ae3a 0841 bc3a
00000080: 3a70 8f3a b492 883a aa1d 253b ab9e f13a
00000090: 21d2 2c3b 247b c13a e10d ee3a 78cb dd3a
000000a0: 7e7b d83a 69c2 b63a 80cd 9e3a d5cb 9f3a
000000b0: 5c66 d13a 2e8f a03a 5026 b23a ce77 053b
000000c0: 7951 143b 21b3 fc3a df82 c63a 2085 ee3a
000000d0: 66a3 b03a 595e e33a 9c80 8c3a 67a9 c43a
000000e0: 47e6 8c3a 9c85 b13a 8a0d b73a a7bd 073b
000000f0: c992 a93a 1d8e a53a 746d b33a f83f f83a
00000100: 2360 c23a e7bb f43a 28f8 b43a a6a5 ac3a
00000110: 891a eb3a 5280 c43a 4891 d53a 1a5c df3a
00000120: 285f ca3a 7d75 d53a 2b69 893a 7db1 a23a
00000130: 0707 dc3a 1a97 0a3b 6050 433b f1b0 c63a
00000140: 5afc be3a 4a8f 153b da77 e23a ec78 cc3a
00000150: 55e9 c73a a58f 423b 1ab0 be3a 9ee7 033b
00000160: be7e ca3a fdb3 be3a b297 fe3a a17e 943a
00000170: 4478 cb3a ec37 d73a bc8d ae3a 3214 ae3a
00000180: 5d8a 8e3a cf63 b63a ca84 d83a 50b4 cf3a
00000190: 9856 d03a 07db c13a 2731 1c3b 47ab 103b
000001a0: 9ca7 bf3a d145 a53a 3ed2 f83a d286 ba3a
000001b0: b2d8 a43a cab4 da3a 0bdf c63a 72c5 e23a
000001c0: c3f8 d53a f4d6 de3a a482 a43a c71a 0e3b
000001d0: 12b3 de3a 9a1e a83a 8e06 b23a 836f bb3a
000001e0: d553 c93a 3bc4 d63a 2005 b23a 3b4d cb3a
000001f0: 7cb9 083b 7a6e da3a 32c9 a53a 8b95 d73a
