output/oi/restr_e2v/run_008/restr_oi_best_model_e2v.pth (torch, 90293 bytes, 14 tensors)

convs.0.lin_l.weight f4 [64, 32]
-0.14103016 -0.11191563 -0.18358132 -0.04779432 0.016114218 0.013808821 0.17375405 -0.13816373
-0.030217027 -0.12980475 -0.18494512 -0.120175466 -0.0713608 0.1341605 -0.011291738 -0.05174065
0.021658521 0.097303346 -0.031294327 -0.020144612 -0.05782674 -0.11464748 -0.0161016 -0.03105302
0.050717782 -0.11090718 -0.21894516 0.13218215 -0.026627813 0.14921045 -0.00433257 -0.026113588
0.13638598 0.12432976 0.113069005 -0.07398998 0.16459079 -0.02663398 -0.11052755 0.03229141
0.19759862 -0.10272758 -0.071697734 0.09542069 0.18998408 0.05550706 0.1005987 0.07634585
-0.09220034 0.07429381 -0.08879807 -0.04634637 0.13638625 -0.12602514 0.025249396 0.09862471
-0.13367756 0.029816344 0.117140636 -0.065601446 0.008713292 0.008666856 0.019831957 0.03629944
0.086833894 -0.088087164 0.04931183 0.066659994 0.14653143 0.04017603 -0.024914432 -0.004310065
-0.046767395 0.019600281 0.006190499 0.11652595 -0.04110987 0.13007657 -0.141483 0.00036406866
-0.1590369 -0.12038042 -0.06919382 0.09876294 -0.121727675 0.024797477 0.034348477 -0.05929303
-0.052701905 -0.075387016 0.03991073 -0.025957685 -0.022744436 0.17045331 -0.12088396 -0.09028233
-0.11314802 -0.009058065 -0.07667955 0.03812697 0.059610896 -0.06357505 -0.02564385 -0.11939954
-0.041572753 0.035071198 0.064695284 0.18095846 -0.034749404 -0.0034082916 -0.098038904 -0.1071322
-0.102463655 -0.097214885 -0.13460487 -0.1229217 0.13407601 0.15511861 0.026801493 -0.16366163
-0.016703455 0.12272872 -0.116349585 -0.07891886 -0.019474845 0.11039618 -0.004027584 0.15762354
-0.05728114 -0.08100645 0.008291356 -0.15958117 -0.05623583 -0.050904714 -0.0054660835 0.060901817
-0.048136763 0.051079735 -0.020322412 -0.04276448 0.06406189 -0.18032047 0.121137425 -0.0052136825
0.13871029 -0.11071298 0.049068846 0.05129093 -0.116618596 0.1314181 0.13706495 -0.13723026
-0.16099612 0.1405966 -0.16895635 0.037949823 0.13074669 0.12931593 0.13413253 0.18172128
-0.17012689 -0.030444505 -0.034708466 0.074591026 0.022390991 -0.051655132 0.059642572 0.16329238
-0.030757561 -0.0657995 -0.051896233 -0.16107321 0.11727641 0.08042393 0.17156897 0.16557063
-0.12034863 -0.005284057 -0.04218951 -0.13762255 -0.10223644 -0.05977933 0.031393364 -0.027002545
0.11898642 0.106478065 -0.14641942 0.18873318 0.13069172 0.10501308 0.075844266 0.008372954
-0.14005606 -0.058168527 -0.14455433 0.0323767 0.0106986975 -0.080377564 -0.044091206 -0.10698208
0.032257963 0.09024126 -0.15515493 -0.14561215 0.091673866 0.045422718 0.05785506 0.08650318
-0.11413601 -0.02708379 0.091140136 0.026755996 -0.08493683 -0.093553536 -0.06295352 -0.07713346
-0.09796215 -0.16476087 -0.13639055 0.14608182 -0.1288331 0.033855725 -0.0037721125 0.127466
0.025512347 0.16371484 0.020803096 0.002671072 0.15110931 0.064530596 -0.04396208 0.14313142
-0.16812079 -0.12936693 0.027742522 -0.03023259 -0.074029095 0.028198138 0.029990222 0.02030461
-0.13491756 0.13163735 -0.029239656 -0.17870027 0.053204928 0.035217226 0.045682877 0.04729829
-0.034576625 0.009820996 0.04446006 -0.12547234 0.13843964 0.15069848 0.057128035 0.09521845
00000000: 366a 10be 0634 e5bd befc 3bbe fac3 43bd
00000010: f701 843c 653e 623c 95ec 313e cb7a 0dbe
00000020: b389 f7bc 89eb 04be 4162 3dbe 8e1e f6bd
00000030: 9c25 92bd 5f61 093e fb00 39bc 01ee 53bd
00000040: 366d b13c fa46 c73d 7b2e 00bd 5006 a5bc
00000050: bbdb 6cbd 4ccc eabd 81e7 83bc e762 febc
00000060: 73bd 4f3d 4e23 e3bd 2933 60be c25a 073e
00000070: 9222 dabc a0ca 183e 3bf8 8dbb 2aec d5bc
00000080: c4a8 0b3e 9aa0 fe3d b990 e73d 0f88 97bd
00000090: 7d8a 283e 812f dabc 455c e2bd ff43 043d
000000a0: 4b57 4a3e d662 d2bd 43d6 92bd ec6b c33d
000000b0: 308b 423e 5f5b 633d b106 ce3d 375b 9c3d
000000c0: 88d3 bcbd 5a27 983d c3db b5bd b1d5 3dbd
000000d0: d6a8 0b3e bc0c 01be d2d7 ce3c c1fb c93d
000000e0: c5e2 08be 6841 f43c 6ee7 ef3d 0d5a 86bd
000000f0: 32c2 0e3c 6eff 0d3c a176 a23c b9ae 143d
00000100: f8d5 b13d 0b67 b4bd 34fb 493d 0985 883d
00000110: 560c 163e 9f8f 243d 5a19 ccbc 723b 8dbb
00000120: 2b8f 3fbd c590 a03c abd9 ca3b 28a5 ee3d
00000130: d362 28bd cb32 053e ebe0 10be 78e0 be39
00000140: 92da 22be 028a f6bd 7db5 8dbd 3944 ca3d
00000150: 5c4c f9bd 1424 cb3c fdb0 0c3d 40dd 72bd
00000160: f4dd 57bd 8264 9abd 6f79 233d 36a5 d4bc
00000170: 8a52 babc 508b 2e3e 0292 f7bd f1e5 b8bd
00000180: 26ba e7bd 4768 14bc 2b0a 9dbd 072b 1c3d
00000190: 8e2a 743d a333 82bd 0d13 d2bc bf87 f4bd
000001a0: 3148 2abd d1a6 0f3d f67e 843d 2d4d 393e
000001b0: 6455 0ebd a55d 5fbb 9fc8 c8bd 2068 dbbd
000001c0: 77d8 d1bd 9918 c7bd dcd5 09be 5fbe fbbd
000001d0: 394b 093e 6ad7 1e3e ce8e db3c ea96 27be
000001e0: afd5 88bc 3259 fb3d b148 eebd 36a0 a1bd
000001f0: b689 9fbc 6417 e23d d3f9 83bb 1168 213e
00000200: a19f 6abd b6e6 a5bd 78d8 073c 3f69 23be
00000210: 8b57 66bd 7681 50bd d51c b3bb 2f74 793d
00000220: 0e2b 45bd fc38 513d 307b a6bc cf29 2fbd
00000230: e132 833d eea5 38be e616 f83d 8ad7 aabb
00000240: 120a 0e3e 7dbd e2bd 6afc 483d 7016 523d
00000250: bbd5 eebd 7792 063e c15a 0c3e 1786 0cbe
00000260: 2bdc 24be 8ef8 0f3e e502 2dbe 4671 1b3d
00000270: 76e2 053e 656b 043e 0a5a 093e 2515 3a3e
00000280: be35 2ebe c166 f9bc 772a 0ebd 2ec3 983d
00000290: 506d b73c 5594 53bd c54b 743d 1e36 273e
000002a0: 48f7 fbbc e3c1 86bd 2591 54bd 60f0 24be
000002b0: 9d2e f03d 4db5 a43d c7af 2f3e 598b 293e
000002c0: 5879 f6bd e225 adbb e8ce 2cbd edec 0cbe
000002d0: 5761 d1bd 2cdb 74bd 5496 003d 7134 ddbc
000002e0: 27af f33d 2c11 da3d f9ee 15be 4543 413e
000002f0: 0dd4 053e 1911 d73d 3d54 9b3d b72e 093c
00000300: db6a 0fbe 1f42 6ebd 0d06 14be 6e9d 043d
00000310: 9749 2f3c fe9c a4bd fb98 34bd 6c19 dbbd
00000320: ed20 043d 69d0 b83d efe0 1ebe 5a1b 15be
00000330: 82bf bb3d 2c0d 3a3d 6df9 6c3d 9428 b13d
00000340: 24c0 e9bd d3de ddbc aea7 ba3d 642f db3c
00000350: 5cf3 adbd ff98 bfbd c6ed 80bd 26f8 9dbd
00000360: 61a0 c8bd 13b7 28be f7a9 0bbe 7996 153e
00000370: d3ec 03be 4dac 0a3d 8c35 77bb 7286 023e
00000380: 45ff d03c dda4 273e 416b aa3c 270d 2f3b
00000390: 66bc 1a3e 9e28 843d 9511 34bd 0b91 123e
000003a0: db27 2cbe c478 04be 4944 e33c 56aa f7bc
000003b0: 919c 97bd c8ff e63c 0eae f53c da55 a63c
000003c0: d427 0abe f1cb 063e 0188 efbc 34fd 36be
000003d0: 69ed 593d f03f 103d f81d 3b3d dabb 413d
000003e0: 38a0 0dbd 3ee8 203c c01b 363d d27b 00be
000003f0: 1fc3 0d3e b450 1a3e 16ff 693d e401 c33d

convs.0.lin_l.bias f4 [64]
-0.16442792 -0.09083474 0.030390058 -0.14448503 -0.056354027 0.114224225 -0.11584765 -0.12969439
-0.027874753 -0.107004315 -0.023185909 0.094456375 -0.07328699 -0.09167718 0.100592814 0.03531636
0.03654601 0.05150037 -0.09613868 0.17062104 0.102256894 0.040483195 0.05998367 -0.013962986
0.06854012 -0.15620852 0.057203997 -0.029720882 0.017793624 -0.013064208 0.10643707 -0.03072536
0.017623404 -0.15941039 0.04697226 0.008911811 -0.19279285 0.12308362 0.16395105 0.0669923
0.009933581 -0.17140073 -0.050921977 0.13265678 0.002688006 0.026175791 -0.1043725 -0.025808558
0.14241244 -0.110158145 -0.088352166 0.18293734 0.09965722 -0.045996908 -0.047412217 0.09707244
0.12745787 -0.059024725 0.006845202 -0.11953852 0.037688322 0.1267095 0.1473877 0.094623834
00000000: cb5f 28be 9007 babd 92f4 f83c e2f3 13be
00000010: 7bd3 66bd 64ee e93d 8841 edbd 9bce 04be
00000020: 9859 e4bc 1425 dbbd 60f0 bdbc 5872 c13d
00000030: 7d17 96bd 3fc1 bbbd 9b03 ce3d e3a7 103d
00000040: 45b1 153d 0df2 523d 5be4 c4bd 48b7 2e3e
00000050: 106c d13d b5d1 253d 70b1 753d 02c5 64bc
00000060: c35e 8c3d 20f5 1fbe bd4e 6a3d 3579 f3bc
00000070: efc3 913c 430b 56bc aefb d93d c0b3 fbbc
00000080: f55e 903c 7a3c 23be fc65 403d d802 123c
00000090: 7d6b 45be 4413 fc3d c9e2 273e 4233 893d
000000a0: 75c0 223c ac83 2fbe 9093 50bd 2ed7 073e
000000b0: 4229 303b 9d6e d63c 40c1 d5bd 786c d3bc
000000c0: 91d4 113e 989a e1bd fbf1 b4bd ed53 3b3e
000000d0: 1619 cc3d 4167 3cbd 5033 42bd eacd c63d
000000e0: 5184 023e e9c3 71bd b74d e03b 9dd0 f4bd
000000f0: 125f 1a3d 23c0 013e cdec 163e 24ca c13d

convs.0.lin_r.weight f4 [64, 32]
-0.00012952657 -0.14949128 0.0061081205 0.099994026 -0.11277209 -0.01415865 0.106456034 -0.13085377
0.07646697 0.1870331 -0.059569657 0.025192305 0.02049377 -0.16480303 0.0698902 0.020443264
-0.12165389 -0.033665583 -0.15602943 -0.14523062 0.15615162 0.052098177 -0.10888153 -0.020560654
0.09543691 0.06464881 -0.025481138 0.12590194 0.09869854 0.10483566 -0.030207675 0.06988284
0.055987325 -0.10762488 0.05056586 -0.07786336 -0.021032289 0.16150317 -0.0027330816 -0.10842565
-0.19142883 0.07494126 -0.034810662 -0.06553644 0.1252621 0.15145376 -0.15459757 0.11278963
0.02108034 -0.11492835 0.02779246 0.05383869 -0.051821355 -0.050543267 0.008275709 -0.1687021
-0.08003491 -0.052916106 -0.054399557 0.18752497 0.009702537 -0.027761558 -0.23144323 -0.03399576
-0.122394815 0.10813141 -0.06594591 0.05999557 0.058334455 -0.17148623 0.06553545 0.09551344
0.067810684 0.16428718 -0.017593252 0.11695861 0.1175501 -0.041609332 0.15380082 0.15531242
0.13517965 -0.013973077 -0.1736106 -0.13898492 -0.075409785 -0.15434407 0.0088880705 -0.01712395
0.14651076 -0.088318355 -0.045879155 -0.043470975 0.10971992 -0.042633094 -0.014743287 0.07281144
0.047929354 -0.013888173 0.054646946 -0.09561398 -0.14753231 0.12829265 0.009307337 -0.009582305
-0.118554056 -0.015183954 -0.07765532 -0.0032136238 -0.15739061 -0.03584174 -0.07619661 -0.002920278
-0.13737848 0.124480926 -0.1720384 0.07534778 -0.09741554 0.11771459 -0.06380095 -0.037954826
0.059976183 -0.1636995 0.069992386 -0.14795633 0.08654998 -0.15384331 -0.16201451 0.08257487
0.0069043855 0.13541207 -0.03911975 -0.08473351 0.058411963 -0.14742966 -0.18283853 -0.11381723
0.10074719 0.1298137 0.114028886 0.021411275 -0.16961023 -0.07492415 0.13999867 -0.15258434
0.008962898 0.06423146 -0.053097084 0.04605944 -0.009031096 0.11010876 0.010678612 0.08255951
-0.19602688 -0.13083307 -0.068382435 0.016479561 0.030157788 0.13859206 0.089561455 0.15499121
-0.1793873 0.079669714 0.10912168 0.028315058 -0.121735804 0.09364191 0.059992854 0.12655944
-0.1469372 0.15254916 0.056809995 0.12951961 -0.1226902 -0.117447056 0.054935094 0.17463766
0.1190157 -0.11579032 -0.053145383 -0.0032208017 -0.11379021 -0.053833224 0.06419981 0.12939647
-0.01698867 -0.02282842 -0.023633333 0.095346674 -0.089488566 -0.11607337 0.012978673 -0.0130474605
-0.07016058 0.12666693 -0.0032049783 0.029966736 0.1316387 -0.14363356 -0.067657374 0.10565958
0.05491426 -0.031854827 0.008843239 -0.13952827 -0.15828663 -0.11449067 0.14798488 0.24672836
-0.029899823 -0.008455511 0.19125332 0.05104451 -0.062023256 -0.07325764 -0.16988814 -0.06695358
0.025643963 -0.020079335 0.1073165 0.08806109 0.020514976 -0.01560651 -0.05526135 0.05048538
-0.15682873 0.13559887 -0.12987825 0.13853389 0.15848158 -0.002535271 -0.2037905 0.17070542
-0.013859812 0.017045064 -0.00025436663 0.10348683 0.04182378 -0.18507814 -0.12203323 0.04240776
-0.070838876 -0.07328015 0.071579546 0.13112898 -0.042646505 -0.09079696 -0.11152162 0.15503015
-0.0739317 -0.08061348 0.064442046 -0.03915467 0.09107713 -0.024402607 0.051817887 0.019997027
00000000: 86d1 07b9 3e14 19be a126 c83b abc9 cc3d
00000010: 0ef5 e6bd aff9 67bc 9f05 da3d 88fe 05be
00000020: b79a 9c3d 9b85 3f3e 50ff 73bd 1860 ce3c
00000030: 8de2 a73c 20c2 28be 9822 8f3d a278 a73c
00000040: ad25 f9bd ece4 09bd 2ec6 1fbe 56b7 14be
00000050: 36e6 1f3e e664 553d 48fd debd d16e a8bc
00000060: 6d74 c33d 9866 843d d2bd d0bc 70ec 003e
00000070: 7622 ca3d 14b4 d63d 1676 f7bc bc1e 8f3d
00000080: f752 653d 6f6a dcbd 261e 4f3d d376 9fbd
00000090: e84b acbc 1661 253e 801d 33bb 440e debd
000000a0: eb05 44be ce7a 993d a095 0ebd f837 86bd
000000b0: b544 003e b216 1b3e d34e 1ebe 40fe e63d
000000c0: adb0 ac3c 8e5f ebbd 03ad e33c f585 5c3d
000000d0: a142 54bd 7506 4fbd d796 073c 3ec0 2cbe
000000e0: 58e9 a3bd 8fbe 58bd 12d2 5ebd 8c06 403e
000000f0: 64f7 1e3c 356c e3bc 74ff 6cbe 233f 0bbd
00000100: 22aa fabd 0074 dd3d a60e 87bd eabd 753d
00000110: 1cf0 6e3d 169a 2fbe 7337 863d 8d9c c33d
00000120: 54e0 8a3d e63a 283e b91f 90bc ff87 ef3d
00000130: 1bbe f03d 8c6e 2abd f67d 1d3e 380a 1f3e
00000140: 896c 0a3e 55ef 64bc fac6 31be 1052 0ebe
00000150: 7270 9abd 5f0c 1ebe 459f 113c 8747 8cbc
00000160: eb06 163e 41e0 b4bd c8eb 3bbd 9f0e 32bd
00000170: d6b4 e03d 0aa0 2ebd d48d 71bc 2a1e 953d
00000180: 9251 443d 388b 63bc 7ad5 5f3d 43d1 c3bd
00000190: b612 17be 265f 033e cd7d 183c 1aff 1cbc
000001a0: 78cc f2bd 1ec6 78bc c109 9fbd a99b 52bb
000001b0: 012b 21be cace 12bd f80c 9cbd 2362 3fbb
000001c0: f2ac 0cbe dbef fe3d d62a 30be f04f 9a3d
000001d0: cc81 c7bd 5914 f13d 13aa 82bd 8576 1bbd
000001e0: 96a9 753d d7a0 27be 2b58 8f3d dd81 17be
000001f0: 1e41 b13d 1a89 1dbe 22e7 25be 031d a93d
00000200: 2f3e e23b 76a9 0a3e 083c 20bd c388 adbd
00000210: 6241 6f3d cdf7 16be 063a 3bbe 0219 e9bd
00000220: 8b54 ce3d e2ed 043e fa87 e93d b366 af3c
00000230: 4eae 2dbe d571 99bd d05b 0f3e 123f 1cbe
00000240: 1ed9 123c c98b 833d 547c 59bd d3a8 3c3d
00000250: 29f7 13bc b480 e13d 58f5 2e3c f614 a93d
00000260: 45bb 48be 1bf9 05be 170c 8cbd 2500 873c
00000270: 770d f73c 14eb 0d3e ff6b b73d 04b6 1e3e
00000280: 4eb1 37be e029 a33d 307b df3d fbf4 e73c
00000290: 9f50 f9bd 54c7 bf3d 11bb 753d cc98 013e
000002a0: b576 16be d935 1c3e 99b1 683d caa0 043e
000002b0: 0045 fbbd 1588 f0bd 9f03 613d 37d4 323e
000002c0: 81be f33d 7a23 edbd f9ae 59bd 1614 53bb
000002d0: d70a e9bd 3a80 5cbd 317b 833d 8280 043e
000002e0: d32b 8bbc ab02 bbbc b19a c1bc 1e45 c33d
000002f0: c845 b7bd e0b7 edbd 80a4 543c 04c5 55bc
00000300: 5ab0 8fbd fab4 013e 9d0a 52bb cd7c f53c
00000310: 4ccc 063e ad14 13be f38f 8abd 0d64 d83d
00000320: c6ed 603d 357a 02bd 3ce3 103c 80e0 0ebe
00000330: e415 22be 167a eabd 5989 173e 5ca6 7c3e
00000340: 79f0 f4bc fc88 0abc e9d7 433e 0c14 513d
00000350: 190c 7ebd 1a08 96bd 28f7 2dbe f51e 89bd
00000360: 4a13 d23c 6b7d a4bc c1c8 db3d 5f59 b43d
00000370: 060f a83c 73b2 7fbc ba59 62bd c2c9 4e3d
00000380: b697 20be 6eda 0a3e cefe 04be d4db 0d3e
00000390: ff48 223e ca26 26bb 75ae 50be 67cd 2e3e
000003a0: 4414 63bc 17a2 8b3c 835c 85b9 e7f0 d33d
000003b0: 694f 2b3d 2085 3dbe 8fec f9bd c2b3 2d3d
000003c0: f913 91bd e713 96bd 4c98 923d ad46 063e
000003d0: 1aae 2ebd c2f3 b9bd 7265 e4bd 39c0 1e3e
000003e0: 8169 97bd ae18 a5bd 31fa 833d a660 20bd
000003f0: a586 ba3d fae7 c7bc fe3e 543d ced0 a33c

convs.1.lin_l.weight f4 [128, 64]
0.029370267 -0.025356773 -0.0074779843 0.021939913 0.11216384 0.08873104 0.14664282 -0.07252874
-0.06519278 0.07038286 0.03215848 -0.04926505 -0.04288479 -0.029065877 0.07169829 0.0131791355
-0.08465396 0.109860145 0.11715011 -0.09678308 0.021788957 0.11705992 -0.0032352589 0.040920157
-0.110451125 0.046920992 0.12124412 0.008795731 0.015102145 -0.04724996 0.06330258 -0.10169235
-0.07534364 0.08366872 0.09236193 0.10242494 0.0004834361 0.087625735 -0.02500107 0.07186798
-0.09710267 -0.11660158 0.0140333455 -0.08476003 0.0033876663 -0.06629707 -0.02544391 0.00652763
0.08348666 0.00987612 -0.026308296 0.07149105 0.04562691 -0.088374294 -0.051805258 -0.101248585
0.030062018 0.08671795 0.01872899 0.00273915 -0.0049868403 0.056153037 0.008504904 0.0024025112
-0.076910116 -0.048743416 0.07564885 0.012004764 -0.09360003 -0.07092624 -0.019067101 -0.005913781
0.082392454 -0.07171868 -0.029004361 -0.037308827 -0.022162516 -0.043710504 0.12466884 0.005570197
0.070162736 -0.027277304 -0.09060027 0.06912373 0.055794045 -0.004165416 0.024402203 -0.10582055
-0.044798657 0.0022649057 0.00632963 0.08360191 -0.046499077 -0.025592247 0.091943845 0.078139074
0.045858063 0.098964535 -0.116475746 -0.06410807 0.11571839 -0.054767914 -0.034408223 0.098879255
-0.006694031 0.024176972 -0.027905492 -0.039260183 -0.004612077 0.02794197 0.076132685 -0.10416344
0.06463 0.006739963 0.1194126 0.12852761 0.038160723 0.1160894 -0.040192835 0.03309988
-0.010388377 -0.09908695 0.095678136 -0.05078587 0.12421838 0.03669659 -0.014502487 0.06351839
-0.07391419 -0.11816441 -0.04628687 0.06906078 -0.02137969 0.04269671 -0.120091856 -0.07743889
-0.10525674 0.025919786 0.028197391 0.12663949 -0.0212941 -0.047503103 0.13017067 0.026534393
0.05932138 -0.06538469 -0.113670774 -0.11794116 0.1135525 -0.09681276 0.052166346 -0.07241424
0.12577142 -0.100860976 -0.021233002 0.092556044 0.07180484 0.0082733445 0.08707068 -0.12153088
-0.045040753 0.020760207 0.07983476 0.02535366 0.043610983 -0.07247975 0.08807748 0.022599436
0.062283833 0.060756892 0.09007253 -0.08604743 -0.041528307 -0.11728965 0.060418665 -0.06453391
0.007921203 -0.05372981 0.080085345 -0.08989444 -0.062115863 -0.041631725 0.043888133 0.032342356
0.034180716 -0.15895005 0.07839618 0.07002868 0.11537172 -0.074519515 0.042054113 0.006951921
0.081429675 0.11503246 0.030090658 0.11563956 -0.026921082 0.03078862 0.11526509 0.052485067
0.14500485 -0.044061147 0.09557098 -0.0034842556 0.07877022 0.16078 0.06711916 0.070622236
-0.011035195 0.16695641 0.041698657 0.108969994 -0.03993316 0.100001484 -0.017752105 0.11096957
-0.018978117 -0.02496884 0.11087409 -0.061810188 0.13085708 0.018739227 0.088315174 0.080301374
-0.0018982271 -0.099483535 0.09717824 0.04064985 0.063158944 -0.08216086 0.021114156 0.10495566
0.120752506 0.10162918 -0.010831917 -0.10067105 0.13284203 0.054305855 -0.06321348 0.059134796
-0.047589466 0.03664985 0.06294937 0.06496848 -0.07705135 0.06574014 -0.025583178 -0.12310248
-0.04640589 -0.008504239 -0.07628243 -0.062955834 0.028911358 -0.09542014 0.04239534 0.118521914
00000000: ea99 f03c 02b9 cfbc e109 f5bb 55bb b33c
00000010: 28b6 e53d 9fb8 b53d 8929 163e f389 94bd
00000020: cb83 85bd e424 903d 9cb8 033d 26ca 49bd
00000030: f6a7 2fbd 901b eebc 8ed6 923d 4ded 573c
00000040: 0e5f adbd 5bfe e03d 66ec ef3d 3536 c6bd
00000050: c17e b23c 1dbd ef3d a306 54bb e59b 273d
00000060: 3334 e2bd 3a30 403d d64e f83d f81b 103c
00000070: fd6e 773c 2d89 41bd c8a4 813d 1444 d0bd
00000080: c44d 9abd 825a ab3d 4028 bd3d 2bc4 d13d
00000090: b275 fd39 1f75 b33d 0bcf ccbc 852f 933d
000000a0: c4dd c6bd cfcc eebd 1eec 653c ab96 adbd
000000b0: 9c03 5e3b c2c6 87bd bf6f d0bc bbe5 d53b
000000c0: 0efb aa3d 73cf 213c 7f84 d7bc e669 923d
000000d0: 48e3 3a3d 95fd b4bd c031 54bd 6b5b cfbd
000000e0: 9f44 f63c 2e99 b13d 8a6d 993c 5083 333b
000000f0: a668 a3bb ba00 663d 2758 0b3c 7373 1d3b
00000100: 0d83 9dbd 2da7 47bd c9ed 9a3d a1af 443c
00000110: 5fb1 bfbd c741 91bd 9c32 9cbc 64c8 c1bb
00000120: 60bd a83d 3ee1 92bd 8e9a edbc 24d1 18bd
00000130: 2a8e b5bc c909 33bd 6052 ff3d 3386 b63b
00000140: 7bb1 8f3d a774 dfbc a28c b9bd be90 8d3d
00000150: 4c88 643d 0b7e 88bb 21e7 c73c 72b8 d8bd
00000160: cc7e 37bd d06e 143b c968 cf3b 7a37 ab3d
00000170: d175 3ebd d5a6 d1bc 0e4d bc3d 6107 a03d
00000180: aad5 3b3d ebad ca3d d68a eebd 184b 83bd
00000190: c3fd ec3d 5254 60bd a3ef 0cbd 3581 ca3d
000001a0: 9a59 dbbb c90e c63c 0f9a e4bc 49cf 20bd
000001b0: e820 97bb 8fe6 e43c 74eb 9b3d a453 d5bd
000001c0: bc5c 843d e8da dc3b 988e f43d be9c 033e
000001d0: 6b4e 1c3d 48c0 ed3d 3ea1 24bd bd93 073d
000001e0: 0334 2abc 19ee cabd e6f2 c33d d804 50bd
000001f0: 3566 fe3d 2a4f 163d d79b 6dbc ee15 823d
00000200: 5360 97bd 2f00 f2bd 4d97 3dbd bd6f 8d3d
00000210: 7624 afbc bfe2 2e3d b8f2 f5bd 4898 9ebd
00000220: d890 d7bd bb55 d43c 37fe e63c c8ad 013e
00000230: f770 aebc 9d92 42bd 764b 053e a85e d93c
00000240: fafa 723d 69e8 85bd 39cc e8bd 238b f1bd
00000250: 378e e83d c545 c6bd 61ac 553d eb4d 94bd
00000260: 39ca 003e 3390 cebd d5f0 adbc 068e bd3d
00000270: 6a0e 933d ec8c 073c 1d52 b23d 2fe5 f8bd
00000280: a77c 38bd 4f11 aa3c 6880 a33d 7bb2 cf3c
00000290: 6ea1 323d 4370 94bd f761 b43d 7422 b93c
000002a0: 551d 7f3d 38dc 783d f277 b83d a339 b0bd
000002b0: 9619 2abd 8e35 f0bd 9079 773d 5b2a 84bd
000002c0: efc7 013c ca13 5cbd c903 a43d 931a b8bd
000002d0: 346d 7ebd 0786 2abd 0bc4 333d 6b79 043d
000002e0: 1401 0c3d cdc3 22be 2d8e a03d 326b 8f3d
000002f0: 0248 ec3d b09d 98bd ef40 2c3d f1cc e33b
00000300: 9ac4 a63d 2396 eb3d af80 f63c 6fd4 ec3d
00000310: 9a89 dcbc 6a38 fc3c 1a10 ec3d 95fa 563d
00000320: 277c 143e 7679 34bd b8ba c33d 1c58 64bb
00000330: 4852 a13d 83a3 243e c575 893d 64a2 903d
00000340: f6cc 34bc 9ff6 2a3e 36cc 2a3d a92b df3d
00000350: f490 23bd 94cd cc3d dd6c 91bc 0444 e33d
00000360: ff77 9bbc 748b ccbc f411 e33d ae2c 7dbd
00000370: 66ff 053e 0283 993c 96de b43d 0c75 a43d
00000380: efcd f8ba 06be cbbd 6305 c73d 7580 263d
00000390: 7a59 813d f443 a8bd 98f7 ac3c fef2 d63d
000003a0: 174d f73d f622 d03d 5a78 31bc a02c cebd
000003b0: be07 083e d16f 5e3d 1276 81bd 5437 723d
000003c0: 2ced 42bd 271e 163d 99eb 803d 320e 853d
000003d0: 19cd 9dbd c4a2 863d d093 d1bc 271d fcbd
000003e0: 1a14 3ebd 5d55 0bbc f639 9cbd fdee 80bd
000003f0: 83d7 ec3c a26b c3bd bca6 2d3d 9ebb f23d

convs.1.lin_l.bias f4 [128]
-0.0196296 0.022607801 0.082961425 0.07384508 0.0036439027 0.0317703 -0.00018476722 0.051593933
-0.013779459 -0.05360268 -0.103853375 0.0754837 -0.06760449 0.14885569 0.09700244 -0.030818403
0.06609659 0.124240376 0.0710859 -0.06021183 -0.020440042 -0.10229325 0.09878175 -0.009178167
-0.08493957 -0.11955052 -0.04221093 0.06308946 0.13310686 0.09071795 -0.050017193 -0.10668678
-0.10004436 -0.02139656 -0.1003538 -0.03696425 0.11523847 0.09118474 0.0675135 -0.10570361
-0.11194756 -0.015517183 0.0023711892 0.069371045 -0.0627438 0.072336756 0.006368892 -0.1665826
0.11807161 -0.13456361 0.04240228 -0.0062184604 0.07261385 0.028777698 0.012223012 0.018090127
0.044485472 0.033528253 0.119922355 -0.12708893 -0.05954356 0.0429506 0.015289976 0.06205956
0.01731543 0.114289664 0.090407096 0.13173142 0.021498635 -0.13915177 -0.12230984 -0.109865844
0.10300362 -0.053748902 -0.037403565 0.12800251 0.13024184 -0.14831884 0.043816265 0.012926055
-0.07636498 -0.10717574 -0.15365972 -0.14239648 -0.01367099 0.03137152 0.020807927 -0.029998835
-0.07299515 0.008655724 0.016108457 -0.0971055 -0.057546988 0.094385006 0.06353957 -0.045275476
-0.06445384 -0.02439342 0.004750318 0.068306714 -0.11506933 0.02155956 -0.10798364 0.07172119
0.059226654 -0.069097996 0.033603292 0.13455813 -0.049730424 0.09348649 -0.03568969 -0.09023269
-0.049810696 -0.010796484 -0.0245146 -0.103865124 0.08445599 -0.07578428 0.005753103 -0.057806816
-0.09519226 0.1097135 -0.104551405 0.081858605 0.11439756 0.058166567 0.1161306 0.06088366
00000000: 41ce a0bc ff33 b93c aee7 a93d 173c 973d
00000010: 8bce 6e3b 9321 023d 13be 41b9 2954 533d
00000020: 3dc3 61bc 7c8e 5bbd 14b1 d4bd 3397 9a3d
00000030: 3974 8abd a06d 183e 37a9 c63d e076 fcbc
00000040: a65d 873d bd71 fe3d 7c95 913d aea0 76bd
00000050: e071 a7bc 207f d1bd 164e ca3d 0660 16bc
00000060: ccf4 adbd e7d6 f4bd 5ee5 2cbd 0c35 813d
00000070: 2a4d 083e 55ca b93d d4de 4cbd 997e dabd
00000080: 0fe4 ccbd d747 afbc 4b86 cdbd d367 17bd
00000090: 2602 ec3d 11bf ba3d 8544 8a3d 227b d8bd
000000a0: c344 e5bd c83b 7ebc f465 1b3b 6812 8e3d
000000b0: d27f 80bd 4b25 943d 23b2 d03b a194 2abe
000000c0: 87cf f13d 0bcb 09be 03ae 2d3d 3ac4 cbbb
000000d0: 92b6 943d 35bf eb3c 0743 483c bf31 943c
000000e0: 6636 363d ec54 093d da99 f53d 9a23 02be
000000f0: f3e3 73bd f8ec 2f3d cf82 7a3c 2a32 7e3d
00000100: 17d9 8d3c b310 ea3d 5b27 b93d 9ae4 063e
00000110: e81d b03c cd7d 0ebe 957d fabd 5801 e1bd
00000120: 90f3 d23d cf27 5cbd 7b34 19bd 1713 033e
00000130: 1e5e 053e e5e0 17be af78 333d cec7 533c
00000140: 3e65 9cbd f47e dbbd f958 1dbe 62d0 11be
00000150: 4afc 5fbc 6c7f 003d 6375 aa3c 1ec0 f5bc
00000160: 7b7e 95bd bdd0 0d3c e2f5 833c 40df c6bd
00000170: 64b6 6bbd ed4c c13d 0921 823d c772 39bd
00000180: 6000 84bd b6d4 c7bc 8ea8 9b3b 64e4 8b3d
00000190: 78a9 ebbd ad9d b03c 8726 ddbd 8fe2 923d
000001a0: a697 723d 4083 8dbd 9ba3 093d 9bc9 093e
000001b0: 21b2 4bbd d875 bf3d 5a2f 12bd ebcb b8bd
000001c0: 4d06 4cbd bce3 30bc d8d2 c8bc 3db7 d4bd
000001d0: 43f7 ac3d ca34 9bbd 8784 bc3b d7c6 6cbd
000001e0: 29f4 c2bd 79b1 e03d 0c1f d6bd 7ca5 a73d
000001f0: 4549 ea3d 1140 6e3d e1d5 ed3d 2561 793d

convs.1.lin_r.weight f4 [128, 64]
-0.050129153 0.046086498 0.104270875 -0.031619743 -0.10531224 -0.04687634 0.09142326 0.03113941
-0.05020417 -0.08427375 -0.09151183 0.04511289 -0.068399906 0.024856847 -0.03638001 -0.085961625
-0.073924445 0.028895559 -0.00030401585 0.06766606 0.046089478 0.025385333 0.035714738 0.067342
-0.078759536 0.034384143 -0.010032364 -0.02339725 -0.08263604 0.06182912 0.11809697 0.01100936
0.053624447 -0.035384253 0.10055982 0.060738735 0.101757035 0.11270603 0.027034683 -0.032414977
-0.047285926 0.17597052 0.13481116 0.073540986 0.0058508967 0.010602743 0.0130650215 -0.01209191
0.08834191 -0.11411118 -0.1302093 -0.049064882 -0.105685785 -0.09124712 5.0738607e-05 -0.045985356
0.0015202197 0.046985596 0.003992292 -0.07261708 -0.0751601 -0.015647871 -0.0018116363 -0.045378126
-0.03332851 0.042293042 0.046420794 0.023254523 0.008392151 -0.010131917 -0.08018303 -0.033019975
-0.0802132 -0.030311316 -0.13069677 -0.032485567 0.12804867 0.03350462 0.01782027 0.021426639
0.041054018 0.033664983 0.101243034 -0.045260813 0.11895904 -0.13563558 0.010038193 0.011063566
0.06139585 -0.026696771 -0.0758637 -0.0135484105 0.026679205 0.12120996 -0.086644106 -0.026312657
-0.102315895 0.10210397 -0.052442506 0.0061696055 -0.046641443 0.030244924 0.013030842 -0.050014887
-0.09107906 0.0276358 0.05616194 -0.059610177 0.020672636 -0.10492136 0.019165272 0.0565595
0.08794099 0.045590997 0.033660453 -0.011939005 0.08731637 -0.08314568 0.03906982 0.01993338
0.12181291 0.12471819 -0.013103352 -0.06315466 -0.13062672 -0.073795855 -0.07236328 -0.0378013
0.097168796 -0.09320044 0.018435152 0.09118543 0.08235807 0.017971613 -0.003397958 -0.077067465
-0.023402728 0.05252463 0.071249105 -0.019184174 -0.07785621 0.027762417 -0.04261366 -0.03989955
-0.0705151 0.014708731 0.11832421 -0.00522859 0.07414802 -0.10008364 -0.008942104 0.11873382
0.05075268 -0.067374304 -0.09626864 -0.056650862 0.023344407 -0.057424925 0.029397538 -0.015480359
-0.033902295 -0.00798651 -0.106006615 0.06954818 0.0014951911 -0.028104773 -0.02908672 -0.04798541
-0.035011824 0.061187867 -0.12547535 0.09236009 -0.07003113 -0.053935632 0.066659585 -0.0051762233
0.022671312 -0.034827724 -0.072936885 0.086819075 -0.044253033 0.08246813 -0.007844867 0.017440716
0.068215415 -0.117282785 0.06574192 -0.07248181 -0.045133654 -0.062236525 -0.04583606 0.01895418
0.09141443 0.12441104 -0.02969962 0.029067842 0.045617312 -0.047989465 0.0056411703 0.12658828
0.083570145 0.03773934 -0.012142705 0.050377734 0.020948095 0.10222339 0.04092387 0.018303769
0.1438719 0.101255044 0.017686915 -0.041364055 -0.012018926 0.055466633 -0.0722487 -0.05119527
0.07525913 -0.09222961 -0.095984 0.14254057 -0.07222929 -0.03243117 -0.06913287 0.09185503
0.016646354 -0.062022656 -0.016745716 0.011650169 0.050131064 0.037029304 0.048942458 0.111357674
0.0075336862 0.056485288 0.04776 0.076889716 0.086692005 -0.09557149 -0.09890277 -0.08349659
0.0017478256 0.07252288 0.13568896 0.047948632 0.060750086 0.13281389 0.025995722 0.05637704
0.03745085 0.0189832 0.14495623 0.021470843 -0.046397537 0.00260496 -0.086751476 0.106911555
00000000: 3a54 4dbd 32c5 3c3d f88b d53d b483 01bd
00000010: f2ad d7bd 6801 40bd 1e3c bb3d 1318 ff3c
00000020: e3a2 4dbd b797 acbd 8e6a bbbd 4bc8 383d
00000030: 4015 8cbd 96a0 cb3c 3503 15bd a60c b0bd
00000040: b365 97bd 61b6 ec3c 5164 9fb9 8194 8a3d
00000050: 52c8 3c3d e7f4 cf3c 9e49 123d 9aea 893d
00000060: ae4c a1bd 63d6 0c3d c95e 24bc 97ab bfbc
00000070: 163d a9bd 8840 7d3d d3dc f13d 9a60 343c
00000080: 4fa5 5b3d 14ef 10bd 4ff2 cd3d 2ec9 783d
00000090: fe65 d03d 6bd2 e63d d777 dd3c 91c5 04bd
000000a0: e3ae 41bd 9e31 343e f00b 0a3e a89c 963d
000000b0: e1b8 bf3b 21b7 2d3c ac0e 563c 251d 46bc
000000c0: 9aec b43d 1fb3 e9bd 9655 05be 42f8 48bd
000000d0: ca71 d8bd c5df babd 2ad0 5438 245b 3cbd
000000e0: 1c42 c73a f873 403d c6d1 823b 43b8 94bd
000000f0: 8aed 99bd f72f 80bc 6d74 edba 6ade 39bd
00000100: 7a83 08bd 783b 2d3d bb23 3e3d 4580 be3c
00000110: 3c7f 093c 5700 26bc 0037 a4bd f43f 07bd
00000120: d146 a4bd 704f f8bc 60d5 05be 960f 05bd
00000130: 311f 033e 243c 093d d1fb 913c eb86 af3c
00000140: 4228 283d 4be4 093d 8258 cf3d 6763 39bd
00000150: cca0 f33d 0ee4 0abe 3c77 243c f643 353c
00000160: 377a 7b3d 30b3 dabc 6d5e 9bbd 27fa 5dbc
00000170: 598e da3c ed3c f83d 7772 b1bd a48d d7bc
00000180: ff8a d1bd e31b d13d f4cd 56bd 672a ca3b
00000190: 190b 3fbd 34c4 f73c 507f 553c 69dc 4cbd
000001a0: a987 babd 7964 e23c 100a 663d cd29 74bd
000001b0: a959 a93c 03e1 d6bd 7d00 9d3c efaa 673d
000001c0: 681a b43d a0bd 3a3d 8bdf 093d d19b 43bc
000001d0: edd2 b23d 4848 aabd ad07 203d 544b a33c
000001e0: 0c79 f93d 406c ff3d 71af 56bc 3b57 81bd
000001f0: 03c3 05be 4822 97bd 3333 94bd 89d5 1abd
00000200: 6f00 c73d dfdf bebd 5105 973c 6dbf ba3d
00000210: 59ab a83d 3439 933c 46b0 5ebb 8cd5 9dbd
00000220: 14b7 bfbc 1124 573d 0deb 913d 2128 9dbc
00000230: 1473 9fbd 026e e33c a98b 2ebd b66d 23bd
00000240: 396a 90bd e4fc 703c f753 f23d 9854 abbb
00000250: ebda 973d a7f8 ccbd e781 12bc b82a f33d
00000260: 0be2 4f3d 8afb 89bd 7e28 c5bd bc0a 68bd
00000270: c53c bf3c 6636 6bbd 1bd3 f03c 55a1 7dbc
00000280: 22dd 0abd dad9 02bc ff19 d9bd 476f 8e3d
00000290: 4afa c33a fb3b e6bc 4647 eebc 598c 44bd
000002a0: 8f68 0fbd 21a0 7a3d 9c7c 00be 4927 bd3d
000002b0: 7b6c 8fbd 9ceb 5cbd d284 883d 4f9d a9bb
000002c0: 30b9 b93c 84a7 0ebd ef5f 95bd 33ce b13d
000002d0: ab42 35bd 0de5 a83d c287 00bc d5df 8e3c
000002e0: 86b4 8b3d f531 f0bd b3a3 863d 5871 94bd
000002f0: 11de 38bd baeb 7ebd 98be 3bbd cc45 9b3c
00000300: 7d37 bb3d 37cb fe3d 9e4c f3bc af1f ee3c
00000310: 38d9 3a3d 9a90 44bd 91d9 b83b 5ca0 013e
00000320: d326 ab3d 9194 1a3d 32f2 46bc e258 4e3d
00000330: 579b ab3c 7f5a d13d ca9f 273d c9f1 953c
00000340: 2853 133e ce5e cf3d 26e4 903c 5b6d 29bd
00000350: 08eb 44bc fb30 633d 20f7 93bd 22b2 51bd
00000360: 7521 9a3d e1e2 bcbd 4293 c4bd 28f6 113e
00000370: f3ec 93bd 8cd6 04bd 8995 8dbd 7d1e bc3d
00000380: ef5d 883c 780b 7ebd 502e 89bc 5ae0 3e3c
00000390: 3b56 4d3d 0aac 173d e377 483d 7e0f e43d
000003a0: 24dd f63b 1e5d 673d fd9f 433d 5b78 9d3d
000003b0: 948b b13d fcba c3bd 898d cabd 4300 abbd
000003c0: 4c17 e53a e086 943d 0cf2 0a3e c965 443d
000003d0: 15d5 783d 5d00 083e fbf4 d43c 9ceb 663d
000003e0: 1066 193d a882 9b3c 686f 143e 9fe3 af3c
000003f0: 580b 3ebd fab7 2a3b c2aa b1bd 72f4 da3d

bns.0.weight f4 [64]
1.0400463 0.96677977 0.9840154 1.0364752 0.9638393 0.99239576 1.021625 0.9780253
1.0835893 0.96410024 0.930088 0.9852911 1.0018098 1.0044532 0.91536576 0.9369614
0.9675843 1.0420936 0.9698862 0.99061716 0.9790274 0.93130684 0.9707819 0.9569131
0.9944919 0.9357278 0.898648 0.99216604 0.96184903 0.96214044 0.99748975 1.0021363
1.0136799 1.0084022 0.95410544 0.97278994 0.95152694 0.9387249 0.9296662 0.9979407
0.98037934 1.0017301 1.0015081 1.0605124 0.97146446 0.98286295 0.99434644 0.9425808
0.95987064 1.0285639 1.0128918 0.9606746 0.94678366 0.99814564 1.0060247 0.90049696
0.92966413 1.0357803 0.9845169 0.95862496 0.9851837 0.9519941 0.9507837 1.0216191
00000000: 3d20 853f e17e 773f 6fe8 7b3f 38ab 843f
00000010: 2cbe 763f a60d 7e3f 9cc4 823f de5f 7a3f
00000020: 0eb3 8a3f 46cf 763f 3f1a 6e3f 0a3c 7c3f
00000030: 4e3b 803f ec91 803f 6955 6a3f b4dc 6f3f
00000040: 9bb3 773f 5363 853f 764a 783f 1699 7d3f
00000050: 8aa1 7a3f 206a 6e3f 2a85 783f 42f8 743f
00000060: 0597 7e3f db8b 6f3f cc0d 663f 98fe 7d3f
00000070: bd3b 763f d64e 763f 7d5b 7f3f 0146 803f
00000080: 43c0 813f 5313 813f 4140 743f c308 793f
00000090: 4597 733f 4650 703f 9bfe 6d3f 0b79 7f3f
000000a0: 24fa 7a3f b138 803f 6b31 803f dfbe 873f
000000b0: e5b1 783f e89c 7b3f 7d8d 7e3f fa4c 713f
000000c0: 15ba 753f fba7 833f 70a6 813f c5ee 753f
000000d0: 6a60 723f 7986 7f3f 6bc5 803f f886 663f
000000e0: 78fe 6d3f 7394 843f 4d09 7c3f 7268 753f
000000f0: 0035 7c3f e3b5 733f 9066 733f 6ac4 823f

bns.0.bias f4 [64]
0.06942943 -0.026671844 -0.025374537 0.04092686 -0.021504093 0.00283291 0.039569452 0.015906865
0.100566715 -0.041352272 -0.066221505 -0.025245436 0.007585532 -0.0074652536 -0.09441372 -0.021850245
-0.0243155 0.056780033 0.013782936 0.007965028 -0.015282086 -0.070201114 -0.023349961 -0.029103639
-0.021637142 -0.058094244 -0.07596233 0.027833926 -0.0061833784 0.019298611 0.01665277 0.021737216
0.025001245 0.003747134 -0.03204815 0.004399565 0.0002837219 -0.04960588 -0.0810318 0.01513776
-0.020757347 -0.0006619257 -0.02608344 0.08886059 -0.03258543 -0.0135652535 0.027443303 -0.028426778
-0.04017518 0.04280445 0.0002790713 -0.013920964 -0.05510492 -0.00281407 0.02604863 -0.08759803
-0.0689089 0.028249312 -0.020725004 -0.019006262 0.018947888 -0.050501406 -0.04075811 0.0336843
00000000: 0431 8e3d e97e dabc 43de cfbc eca2 273d
00000010: 5a29 b0bc 58a8 393b 9413 223d 1d4f 823c
00000020: ecf5 cd3d 0061 29bd 249f 87bd 84cf cebc
00000030: 0e90 f83b 169f f4bb fb5b c1bd 49ff b2bc
00000040: 4d31 c7bc 2e92 683d d3d1 613c c07f 023c
00000050: b761 7abc 9ac5 8fbd 6b48 bfbc c16a eebc
00000060: 6040 b1bc 3bf4 6dbd 2392 9bbd f903 e43c
00000070: f09d cabb 1f18 9e3c 646b 883c 3f12 b23c
00000080: 69cf cc3c 7a92 753b ec44 03bd 3a2a 903b
00000090: 82c0 9439 892f 4bbd 00f4 a5bd 5e04 783c
000000a0: 500b aabc 1585 2dba f0ac d5bc 8afc b53d
000000b0: 4d78 05bd cc40 5ebc c7d0 e03c 46df e8bc
000000c0: bb8e 24bd b853 2f3d 5150 9239 c114 64bc
000000d0: b2b5 61bd 436c 38bb f063 d53c 9966 b3bd
000000e0: 1c20 8dbd 1a6b e73c 7cc7 a9bc 05b3 9bbc
000000f0: 9a38 9b3c 90da 4ebd faf1 26bd 8cf8 093d

bns.0.running_mean f4 [64]
0.064486444 -0.07774551 -0.03756388 -0.049277958 0.03438372 -0.015034467 0.06644431 -0.09067538
-0.05611865 -0.03236134 -0.14085893 0.13365427 -0.022228016 0.028566405 0.054722242 -0.07649451
-0.0732325 0.08968511 0.05252868 0.08174935 0.09012763 -0.1463601 -0.06428085 -0.13867861
-0.081988655 -0.087788954 0.055971842 0.056874614 0.0134102795 -0.023852967 -0.05507956 -0.12128078
-0.045224134 0.06325529 -0.00078518025 -0.011437961 -0.016671818 -0.05720784 0.027133362 0.036070816
0.07154117 0.090865776 0.04401894 0.1669861 0.01486633 0.09251505 -0.009190401 -0.10876961
0.17304198 0.003275643 -0.045677133 0.046970394 -0.0659988 -0.07434634 0.13281196 -0.058298316
-0.11847149 -0.01644994 0.11626232 -0.00412336 0.06759414 0.010234761 -0.093589924 -0.03925285
00000000: 7811 843d 0a39 9fbd 95dc 19bd afd7 49bd
00000010: f2d5 0c3d 2053 76bc f413 883d 03b4 b9bd
00000020: abdc 65bd 538d 04bd 533d 10be aadc 083e
00000030: 8717 b6bc 1804 ea3c 6e24 603d 27a9 9cbd
00000040: ecfa 95bd d4ac b73d 5028 573d 346c a73d
00000050: d694 b83d 6cdf 15be aea5 83bd c401 0ebe
00000060: abe9 a7bd b2ca b3bd bb42 653d 5bf5 683d
00000070: cab6 5b3c 4c67 c3bc 1b9b 61bd 0f62 f8bd
00000080: f13c 39bd fd8b 813d 8ed4 4dba 4966 3bbc
00000090: 5693 88bc c552 6abd c946 de3c febe 133d
000000a0: 2d84 923d d617 ba3d 344d 343d 67fe 2a3e
000000b0: e891 733c 8878 bd3d 5693 16bc 9ac2 debd
000000c0: eb31 313e 2cac 563b f217 3bbd 0764 403d
000000d0: 612a 87bd e542 98bd dcff 073e 37ca 6ebd
000000e0: 2ea1 f2bd 06c2 86bc f01a ee3d 401d 87bb
000000f0: cc6e 8a3d b3af 273c 13ac bfbd 99c7 20bd

bns.0.running_var f4 [64]
0.008355425 0.007870518 0.0064452044 0.008183307 0.011857892 0.009765511 0.010015136 0.008538246
0.011455933 0.009098099 0.009208249 0.009224872 0.007419793 0.010041807 0.010585712 0.011108467
0.008074876 0.011278996 0.008857063 0.007403219 0.00768634 0.008711299 0.010854966 0.0073513887
0.008716912 0.010907799 0.011153604 0.010086363 0.009028196 0.013407687 0.009867619 0.010413194
0.010298583 0.01131594 0.008279056 0.009501342 0.007349156 0.010321737 0.0095063085 0.007813573
0.0077497372 0.008565696 0.007702858 0.012774413 0.009963589 0.0098490575 0.012797235 0.011844227
0.006284635 0.01462753 0.0114908535 0.010340186 0.009062058 0.010121236 0.010836209 0.0071354974
0.012324442 0.009593046 0.00926262 0.008714212 0.00974784 0.01243114 0.009173621 0.011479325
00000000: 31e5 083c 58f3 003c 4b32 d33b 4713 063c
00000010: 9b47 423c 86ff 1f3c 8616 243c 00e4 0b3c
00000020: aab1 3b3c 3110 153c 32de 163c eb23 173c
00000030: bc21 f33b 6486 243c b26f 2d3c 4a00 363c
00000040: 7c4c 043c 8acb 383c 371d 113c b496 f23b
00000050: b1dd fb3b d6b9 0e3c 07d9 313c ebe3 f03b
00000060: 61d1 0e3c a0b6 323c 9bbd 363c 4641 253c
00000070: 00eb 133c eaab 5b3c cbab 213c 1a9c 2a3c
00000080: 63bb 283c 7e66 393c e1a4 073c 84ab 1b3c
00000090: 30d1 f03b 811c 293c 59c0 1b3c 8004 003c
000000a0: 82f1 fd3b 2257 0c3c 4268 fc3b c64b 513c
000000b0: 523e 233c f15d 213c 7eab 513c 4a0e 423c
000000c0: 57ef cd3b 4fa8 6f3c 2244 3c3c e269 293c
000000d0: 0779 143c 8ad3 253c 5b8a 313c e4d0 e93b
000000e0: 75ec 493c 272c 1d3c 3ec2 173c 0ec6 0e3c
000000f0: 68b5 1f3c fbab 4b3c f54c 163c c713 3c3c

bns.1.weight f4 [128]
0.2722434 0.2593557 0.2644539 0.26463363 0.26980373 0.28352225 0.2773841 0.22138004
0.2827923 0.2757131 0.25556666 0.26499927 0.24441785 0.2739796 0.2675209 0.26998717
0.24417116 0.28614986 0.28009877 0.27919245 0.27000037 0.27571157 0.2976736 0.26361638
0.29197386 0.28899014 0.25658485 0.29009014 0.26104423 0.28085732 0.28531238 0.259877
0.28249335 0.2757675 0.26633677 0.27063805 0.27170894 0.2987029 0.29065284 0.2680013
0.27195352 0.29630837 0.2804585 0.27084842 0.25083 0.2614125 0.25420204 0.26794162
0.27529687 0.280267 0.24334991 0.2663192 0.2747211 0.28959268 0.31102243 0.25481984
0.2685956 0.26852298 0.27173963 0.26323503 0.25828016 0.2736806 0.2611387 0.29569936
0.26670268 0.28773582 0.26464963 0.2922096 0.27306265 0.2705059 0.28992245 0.27025053
0.30592975 0.2759924 0.28866786 0.27038625 0.27092668 0.27681345 0.28781915 0.2724734
0.2533519 0.29882458 0.2657912 0.26844975 0.24994057 0.27282983 0.26865453 0.26925436
0.268081 0.28661484 0.28308734 0.27915436 0.25662744 0.29875425 0.27647704 0.27204183
0.29623923 0.26731393 0.2836464 0.23899247 0.25548556 0.27400738 0.27188042 0.2797915
0.27857056 0.26163286 0.2715388 0.23794918 0.26627868 0.27328384 0.2805153 0.29212946
0.2865619 0.2712722 0.26049682 0.2739598 0.26380962 0.26578566 0.27311775 0.29323348
0.28731075 0.27997097 0.23653461 0.2712016 0.27483353 0.26204455 0.27287352 0.2545904
00000000: 7d63 8b3e 45ca 843e 8066 873e 0f7e 873e
00000010: b723 8a3e d429 913e 4a05 8e3e 73b1 623e
00000020: 27ca 903e 442a 8d3e a2d9 823e fcad 873e
00000030: ac48 7a3e 0e47 8c3e 80f8 883e c23b 8a3e
00000040: 0108 7a3e 3c82 923e 1b69 8f3e 50f2 8e3e
00000050: 7d3d 8a3e 112a 8d3e ad68 983e baf8 863e
00000060: 997d 953e 84f6 933e 175f 833e b286 943e
00000070: 97a7 853e 88cc 8f3e 7714 923e 990e 853e
00000080: f8a2 903e 6631 8d3e 4b5d 883e 1291 8a3e
00000090: 6f1d 8b3e 96ef 983e 73d0 943e 7737 893e
000000a0: 7e3d 8b3e bbb5 973e 4298 8f3e a5ac 8a3e
000000b0: ca6c 803e dcd7 853e c526 823e a52f 893e
000000c0: b6f3 8c3e 287f 8f3e b830 793e fd5a 883e
000000d0: 3ea8 8c3e 7e45 943e 553e 9f3e bf77 823e
000000e0: 5d85 893e d87b 893e 7521 8b3e bec6 863e
000000f0: 4c3d 843e dd1f 8c3e f9b3 853e e865 973e
00000100: 418d 883e 1c52 933e 2880 873e 7f9c 953e
00000110: dece 8b3e c07f 8a3e b770 943e 475e 8a3e
00000120: d3a2 9c3e e04e 8d3e 46cc 933e 1170 8a3e
00000130: e7b6 8a3e 7eba 8d3e 085d 933e a281 8b3e
00000140: 57b7 813e 89ff 983e c915 883e 3f72 893e
00000150: 6cf0 7f3e 5ab0 8b3e 168d 893e b5db 893e
00000160: ea41 893e 2ebf 923e d3f0 903e 52ed 8e3e
00000170: ac64 833e 51f6 983e 668e 8d3e 1149 8b3e
00000180: abac 973e 5fdd 883e 1a3a 913e 71ba 743e
00000190: 01cf 823e b24a 8c3e e933 8b3e d540 8f3e
000001a0: cda0 8e3e bef4 853e 2207 8b3e f3a8 733e
000001b0: ae55 883e dceb 8b3e b49f 8f3e fe91 953e
000001c0: 3eb8 923e 31e4 8a3e d75f 853e 7544 8c3e
000001d0: 0e12 873e 0f15 883e 17d6 8b3e b322 963e
000001e0: 651a 933e 5b58 8f3e 2136 723e f0da 8a3e
000001f0: fbb6 8c3e b42a 863e 14b6 8b3e ac59 823e

bns.1.bias f4 [128]
1.3111447e-05 0.0031437422 0.0022777144 -0.002357551 0.005558966 -0.0004727561 -0.0019431764 0.0060923956
0.0065626735 0.0034038299 -0.0016228876 0.00743751 0.0019490056 -0.00039736961 0.0070018345 -0.010200244
0.00025744192 -0.0006831933 0.0060468763 -0.008396413 -0.0055599734 -0.007417184 0.00893623 -0.00019535232
-0.0038469164 -0.0043176957 0.0043616304 -0.003421769 0.0030379018 0.0020231917 0.0047598775 -0.0057648784
-0.0029793938 0.011928102 0.0037535778 -0.0041163894 0.00522339 -0.009506974 0.0060935803 0.004019698
0.0014013313 -0.009341835 -0.0010102206 0.0005143242 0.0011374548 -0.0034939477 -0.0036878262 4.278056e-05
-0.0009300282 -0.0039899163 -0.0036700354 0.004120758 -0.0029207307 -0.007969498 -0.013519298 -0.0021238483
-0.0024055354 -0.0019924683 -0.008602257 -0.00545979 0.0054163397 0.002730869 -0.0013945338 -0.009855934
0.0038873854 0.0065201214 -0.0019229656 -0.009173138 0.00580415 -0.006574465 -0.014066655 0.0044170134
-0.011674495 -0.0040441607 -0.0076542674 -0.004888228 -0.0020428514 -0.004274584 0.00037753154 -0.0017523728
-0.0029563978 -0.0048652976 0.0047839684 0.0036790867 -0.0054006274 -0.00039741446 -0.008025155 -0.0004573718
-0.0059334706 0.0034179897 0.010318736 0.004024269 0.0007232571 0.0065763798 -0.010798971 0.006071253
-0.008607043 0.0012526091 -0.0051192557 -0.0038615838 -0.0027030152 -0.007177878 -0.00609473 -0.004894299
-0.0074812034 0.0015455456 -0.0032645103 0.008043023 -0.0011551396 0.007504544 0.009078835 0.003801996
0.010528738 -0.0032571089 0.0023764975 -0.0013429144 0.001593252 -0.0005954426 -0.002353516 0.005406952
-0.0060269623 0.008312159 -0.0044460027 0.0010921394 -0.0028033818 0.0040413626 0.003091718 0.0010108618
00000000: 3cf9 5b37 3e07 4e3b b545 153b 2481 1abb
00000010: fd27 b63b 40dc f7b9 2eb2 feba b8a2 c73b
00000020: b20b d73b ca12 5f3b 12b7 d4ba 5bb6 f33b
00000030: c775 ff3a 0c56 d0b9 a56f e53b ed1e 27bc
00000040: 45f9 8639 5418 33ba e024 c63b 1c91 09bc
00000050: 7030 b6bb d90b f3bb 4469 123c 7dd7 4cb9
00000060: 8c1c 7cbb 757b 8dbb 02ec 8e3b c23f 60bb
00000070: 8917 473b 8697 043b bff8 9b3b 4ee7 bcbb
00000080: ef41 43bb 166e 433c 96fe 753b c7e2 86bb
00000090: f928 ab3b 24c3 1bbc a8ac c73b acb7 833b
000000a0: e0ac b73a 7f0e 19bc 6169 84ba b6d3 063a
000000b0: a616 953a b7fa 64bb 75af 71bb 476f 3338
000000c0: 23cd 73ba d8bd 82bb fa84 70bb 6c07 873b
000000d0: bb69 3fbb 7f92 02bc 0c80 5dbc 4330 0bbb
000000e0: 30a6 1dbb 1294 02bb 7bf0 0cbc 0ae8 b2bb
000000f0: 8d7b b13b 61f8 323b cac8 b6ba c97a 21bc
00000100: 81c3 7e3b bea6 d53b 050c fcba ee4a 16bc
00000110: bd30 be3b 9c6e d7bb d477 66bc 98bc 903b
00000120: 6246 3fbc e184 84bb a6d0 fabb 6e2d a0bb
00000130: 5ce1 05bb cf11 8cbb 6def c539 e0af e5ba
00000140: 20c0 41bb 136d 9fbb d6c2 9c3b d51c 713b
00000150: bff7 b0bb 115c d0b9 f17b 03bc 67cb efb9
00000160: 8f6d c2bb 5a00 603b ea0f 293c 04de 833b
00000170: f698 3d3a ac7e d73b 2bee 30bc 5df1 c63b
00000180: 8e04 0dbc 962e a43a 6ebf a7bb a012 7dbb
00000190: 1225 31bb 6834 ebbb 4db6 c7bb 5b60 a0bb
000001a0: e224 f5bb e893 ca3a 65f1 55bb e2c6 033c
000001b0: 0e68 97ba aee8 f53b 65bf 143c e82a 793b
000001c0: ba80 2c3c 3875 55bb 03bf 1b3b bb04 b0ba
000001d0: aad4 d03a 7a17 1cba 723d 1abb cd2c b13b
000001e0: d37d c5bb b92f 083c c6af 91bb 1e26 8f3a
000001f0: f1b8 37bb 686d 843b 6c9e 4a3b e57e 843a

bns.1.running_mean f4 [128]
0.020670759 0.014915368 -0.016803214 0.14612143 -0.016743775 -0.038523156 0.053961203 0.1857787
-0.04898211 -0.025394093 -0.071603745 0.067794055 0.009122154 0.08928024 0.110206775 -0.083483435
0.12190499 0.03586149 0.14087619 0.030863572 -0.017857274 -0.13850304 -0.07804803 -0.00021275191
-0.050986458 -0.13684995 0.13903356 -0.08935139 0.075526394 0.11697861 -0.019788072 -0.008871342
-0.13299794 0.020615133 -0.069548875 0.10428302 0.05068731 0.033911906 0.07576842 -0.026841927
-0.092893295 0.11012488 0.04486976 0.005243899 -0.13400903 -0.039710395 0.0020949435 -0.124573514
0.0038226042 -0.16233031 0.058496498 0.08035172 0.034035597 -0.053271793 -0.029709898 0.091882445
-0.03713322 0.093967795 -0.060335767 0.011071622 0.019053407 0.0028201712 -0.02113507 0.039097346
-0.095219165 0.074081264 -0.040336564 0.107549414 -0.0778035 -0.08064536 -0.080675386 -0.061698012
-0.002245473 -0.04630765 -0.03311388 0.062366333 0.10230208 -0.070758596 -0.040002253 -0.036302578
-0.12635164 -0.08607055 -0.14917931 -0.06070638 -0.11644704 0.03903535 0.02773064 0.010416577
0.0037805242 -0.015979849 0.054739665 0.06497285 0.058091074 0.12008321 0.06666483 -0.055735692
0.052328 -0.0017229044 -0.051671915 0.17092122 -0.09459571 -0.13916913 -0.06951107 -0.016795697
0.025560575 -0.016115692 0.046184015 0.27489963 0.0007116026 0.070927836 -0.068906374 -0.08979115
0.021682069 0.03123556 -0.031042686 0.029650623 0.075513564 -0.024290964 -0.055672433 -0.05629397
-0.025100665 0.08423286 -0.19351369 -0.044061545 0.0917811 0.02856418 0.09230526 -0.06344212
00000000: b955 a93c 965f 743c e5a6 89bc dba0 153e
00000010: 3e2a 89bc 75ca 1dbd 6c06 5d3d c63c 3e3e
00000020: 77a1 48bd 4607 d0bc fca4 92bd 9cd7 8a3d
00000030: 1675 153c 8fd8 b63d 17b4 e13d 5df9 aabd
00000040: 53a9 f93d 7fe3 123d d941 103e 9ad5 fc3c
00000050: 6b49 92bc bed3 0dbe a5d7 9fbd 2816 5fb9
00000060: 2dd7 50bd 6522 0cbe d05e 0e3e ddfd b6bd
00000070: 95ad 9a3d 7b92 ef3d 981a a2bc 1b59 11bc
00000080: 9d30 08be 11e1 a83c a46f 8ebd 5692 d53d
00000090: 7f9d 4f3d 36e7 0a3d 792c 9b3d 9ae3 dbbc
000000a0: d73e bebd 2789 e13d 5ac9 373d 03d5 ab3b
000000b0: aa39 09be 5ea7 22bd 524b 093b 6620 ffbd
000000c0: a884 7a3b eb39 26be 069a 6f3d 718f a43d
000000d0: e968 0b3d 8633 5abd 2c62 f3bc dd2c bc3d
000000e0: 0119 18bd 3072 c03d a322 77bd c065 353c
000000f0: e415 9c3c 9fd2 383b 7423 adbc 8a24 203d
00000100: 4402 c3bd ebb7 973d f437 25bd de42 dc3d
00000110: 7157 9fbd 6529 a5bd 2339 a5bd 0eb7 7cbd
00000120: c928 13bb 17ad 3dbd 6ba2 07bd d773 7f3d
00000130: c183 d13d e2e9 90bd 67d9 23bd 03b2 14bd
00000140: 5362 01be c245 b0bd 76c2 18be 41a7 78bd
00000150: c97b eebd 88e3 1f3d 5e2b e33c 4aaa 2a3c
00000160: acc2 773b 2ce8 82bc b336 603d 7c10 853d
00000170: e8f0 6d3d 30ee f53d 9287 883d 1c4b 64bd
00000180: e355 563d 14d3 e1ba eea5 53bd f905 2f3e
00000190: 65bb c1bd 5a82 0ebe d25b 8ebd 2197 89bc
000001a0: 6964 d13c 0e05 84bc 732b 3d3d a5bf 8c3e
000001b0: d88a 3a3a 9d42 913d c91e 8dbd 6ce4 b7bd
000001c0: 989e b13c b8e1 ff3c 3b4d febc dde5 f23c
000001d0: dba6 9a3d d8fd c6bc c708 64bd 8294 66bd
000001e0: e99f cdbc 4782 ac3d 7428 46be e179 34bd
000001f0: bbf7 bb3d 6dff e93c 8a0a bd3d f1ed 81bd

bns.1.running_var f4 [128]
0.0015897648 0.001115695 0.0012479416 0.0017168876 0.0010008864 0.0014073679 0.0013094052 0.0031895372
0.0012875345 0.0012887137 0.0016132726 0.0013027778 0.0011977162 0.001415257 0.0012964973 0.0013779604
0.0014451696 0.0014236916 0.0016553595 0.0010830427 0.00130826 0.0024176585 0.0011853768 0.0012179052
0.0012111663 0.0014649098 0.0012075908 0.0011789215 0.0014375317 0.0011232668 0.0013964525 0.0011715356
0.0012574947 0.0013573881 0.0012312725 0.0011895951 0.0015764701 0.0011784784 0.0015441991 0.0014190471
0.0012149238 0.0012739281 0.0012499606 0.0012976323 0.0013813003 0.0011767226 0.0012011207 0.001804956
0.0009319329 0.0017976046 0.0011237292 0.0012534977 0.0013860589 0.0015572385 0.0012567912 0.001265402
0.0012038129 0.0013878513 0.0014677536 0.0011413876 0.0013519 0.0010449325 0.0013778699 0.0014121755
0.0017346822 0.0011105126 0.0011423904 0.001323808 0.001352363 0.0015769354 0.0015487482 0.0014277529
0.0011633487 0.0012222459 0.0011630263 0.0011572351 0.0010633154 0.0015868604 0.0011685553 0.0010432351
0.002400954 0.0012960363 0.001676419 0.0014174195 0.001491362 0.0011892635 0.0012147188 0.0009846969
0.0014142417 0.0010323633 0.001338056 0.0015292501 0.0012001449 0.0011312659 0.00140134 0.0011450391
0.0010532071 0.0012834421 0.0012227064 0.001608419 0.0015810021 0.0016714882 0.0011106904 0.0013428425
0.0010675122 0.0011129826 0.001234128 0.0050339857 0.000944675 0.0011829585 0.0011895358 0.0011158664
0.001196202 0.0015413066 0.001287876 0.0012500825 0.0012734829 0.00094387034 0.001292274 0.0014698006
0.0013634146 0.0014715699 0.0026462227 0.0012302451 0.0011042906 0.0013166382 0.0013166353 0.0015514925
00000000: a85f d03a 833c 923a f991 a33a 3009 e13a
00000010: 2d30 833a 6e77 b83a 59a0 ab3a 8e07 513b
00000020: 7dc2 a83a 0eea a83a 7274 d33a f8c1 aa3a
00000030: b0fc 9c3a 2580 b93a 3bef a93a ae9c b43a
00000040: d86b bd3a 2a9b ba3a a6f8 d83a e2f4 8d3a
00000050: ec79 ab3a 9471 1e3b a55e 9b3a 1ea2 9f3a
00000060: ffbf 9e3a 3702 c03a 0648 9e3a 0b86 9a3a
00000070: 8f6b bc3a 943a 933a 2c09 b73a 368e 993a
00000080: 85d2 a43a 63ea b13a a662 a13a 30ec 9b3a
00000090: 8fa1 ce3a 2c77 9a3a b966 ca3a 52ff b93a
000000a0: 143e 9f3a eff9 a63a b8d5 a33a 5115 aa3a
000000b0: bf0c b53a 423c 9a3a ec6e 9d3a 4694 ec3a
000000c0: f54c 743a 9a9d eb3a 184a 933a 674c a43a
000000d0: 6bac b53a 411c cc3a eaba a43a d8db a53a
000000e0: 42c9 9d3a 90e8 b53a a361 c03a 9d9a 953a
000000f0: 3d32 b13a 1ef6 883a a499 b43a bf18 b93a
00000100: 475e e33a 9f8e 913a 43bc 953a a083 ad3a
00000110: c641 b13a 2cb1 ce3a 5eff ca3a 7023 bb3a
00000120: 817b 983a c433 a03a b070 983a 5eae 973a
00000130: f25e 8b3a 33fe cf3a 362a 993a 29bd 883a
00000140: 5359 1d3b c3df a93a 4abb db3a b5c8 b93a
00000150: ce79 c33a 10e1 9b3a 3337 9f3a f210 813a
00000160: 145e b93a 5d50 873a b661 af3a 1e71 c83a
00000170: 2e4e 9d3a fc46 943a 2bad b73a 2315 963a
00000180: c40b 8a3a 2c39 a83a 3843 a03a 96d1 d23a
00000190: a139 cf3a d615 db3a 9694 913a 5102 b03a
000001a0: c4eb 8b3a 80e1 913a 77c2 a13a 22f4 a43b
000001b0: 11a4 773a 800d 9b3a 33ea 9b3a 4342 923a
000001c0: e1c9 9c3a ab05 ca3a f3cd a83a cfd9 a33a
000001d0: ffea a63a 116e 773a 8561 a93a 53a6 c03a
000001e0: 9ab4 b23a b1e1 c03a 406c 2d3b 2d40 a13a
000001f0: d8bd 903a 0c93 ac3a f392 ac3a 735b cb3a
