output/dmd/prev_e2v/run_007/prev_dmd_best_model_e2v.pth (torch, 207541 bytes, 14 tensors)

convs.0.lin_l.weight f4 [256, 32]
000000 b5 9c 83 3c 08 11 f9 3c 0b 86 49 bd 9f 9e 08 be
       0.016065935 0.030403629 -0.0492001 -0.13341759
000010 0d 69 0a 3e 33 dd db bc cc 6c 1b bc f1 5c 01 be
       0.13516636 -0.026838874 -0.009486388 -0.1263311
000020 19 4d dd bd 9d 85 b8 3d ff bd 73 3d 55 d7 46 3d
       -0.10805721 0.0900986 0.059507366 0.0485452
000030 df 9a fc bd 99 de 5b 3d 23 27 f0 bd a7 88 27 3e
       -0.12334227 0.053679083 -0.11726215 0.16360722
000040 d7 94 c0 bd 68 bb b1 bb 40 b7 91 bd f1 61 aa 3c
       -0.09403389 -0.005423952 -0.0711503 0.020798655
000050 fd 36 44 3d 82 e8 7b 3c 57 9f 70 bd 29 ae a3 3d
       0.047904003 0.015375258 -0.05874571 0.07992203
000060 f2 3a 01 3d c1 ab 39 be bf aa b6 3d 75 2b 2b be
       0.031550355 -0.18131925 0.08919286 -0.16715796
000070 9e 0a 00 be aa e3 a1 bd b4 8d 21 3d 78 ad f9 bd
       -0.1250405 -0.079047516 0.03944178 -0.1219129
000080 15 cf cb bd d5 25 a5 3c cc c5 f9 3d a3 26 fc 3d
       -0.09951607 0.020159641 0.1219593 0.12312057
000090 e2 bd 75 3c df 0d 74 3d 30 38 50 bd c9 4d 5f 3c
       0.014998885 0.05958354 -0.050834835 0.013629385
0000a0 ef a5 c8 bd 83 f3 51 3d 20 e1 37 bb af f2 05 be
       -0.09797274 0.05125762 -0.002805777 -0.13080858
0000b0 76 c6 f6 3d 00 80 13 3e d8 00 d6 bd e4 6f 2d bc
       0.12049572 0.14404297 -0.1044938 -0.010585759
0000c0 26 d3 b1 3c ac 23 1f bd f7 ed 92 3d 1a 8b 28 3d
       0.021707129 -0.03885238 0.071742944 0.041148283
0000d0 a0 7c 8f 3d 36 59 9e bd 2b a4 d1 bd 95 fd 9e 3d
       0.07006192 -0.077318594 -0.10236391 0.07763211
0000e0 a9 9b 11 3c 32 5c 9e 3d 9b d0 ed 3d 83 f5 8f 3d
       0.00888721 0.077324286 0.11612054 0.070292495
0000f0 21 23 79 bc 37 75 f3 bd 1e ab ba bc 22 17 a1 3d
       -0.015206129 -0.11887591 -0.022786673 0.0786574
000100 13 a1 fb 3c e7 18 2a be eb 8b 49 bd 85 2c 0c 3e
       0.030716455 -0.16611062 -0.0492057 0.13688858
000110 f5 61 16 3d b8 51 c4 bd 19 27 16 be 06 3c 9c bd
       0.036714513 -0.09585899 -0.14663352 -0.07628636
000120 82 11 0d be fa 98 ee bd 53 db f3 bc dd b4 37 3d
       -0.1377621 -0.11650272 -0.029767668 0.04485022
000130 e0 70 3e bd af a6 c7 bd dd d6 0f 3d e1 33 15 3e
       -0.046494365 -0.09748589 0.03511702 0.14570571
000140 52 11 62 bc 66 27 b0 3d 7b 66 86 bd c9 85 f1 bd
       -0.013798075 0.08601265 -0.06562515 -0.117930956
000150 53 6d 22 be 53 d4 1d bd 5a 01 a8 bc 6f e3 ac bd
       -0.15862016 -0.038532566 -0.020508457 -0.08441817
000160 a2 98 15 be 8d 44 d2 bb 49 62 09 3e 9b 49 67 bd
       -0.14609006 -0.0064168633 0.13416399 -0.05646668
000170 bf 91 4d bd f7 34 27 3d 38 23 e8 bd bc d0 0e be
       -0.050187822 0.040821996 -0.113348424 -0.13946813
000180 16 8b a6 3c 78 5e 09 be f0 50 22 3e 31 7c c8 3d
       0.020329993 -0.13414943 0.15851188 0.09789313
000190 95 79 32 3e b1 20 25 3c 57 56 81 3d de 12 1f 3e
       0.17429192 0.010078595 0.06315296 0.15534541
0001a0 91 fe c6 3c 9f d6 da 3d a7 2f 11 3e 9a 0a 96 bd
       0.024291309 0.10685467 0.14178334 -0.07326241
0001b0 0d 63 25 be 6f 11 0b be c5 a7 0e 3e 73 52 0e 3d
       -0.16151066 -0.13580869 0.13931186 0.0347466
0001c0 e5 40 90 3d af bb 06 be 8b be 3f 3d c7 54 27 3e
       0.07043628 -0.13157533 0.046812575 0.16340934
0001d0 17 87 1b 3e b3 71 13 be d6 ef 23 be 08 48 09 be
       0.15188251 -0.14398842 -0.16009459 -0.13406384
0001e0 ca b0 69 3c 80 0f 1d be 2e bf ea bd b3 94 e0 3d
       0.014263341 -0.15337944 -0.11462246 0.10965862
0001f0 68 b0 db bd d2 ec b9 3d c5 bf 0f 3e 67 d7 af bd
       -0.10727006 0.09078373 0.14037998 -0.085860066
000200 4a 44 96 bd 23 48 e3 bd 0e cb d0 bd c3 85 81 bd
       -0.07337244 -0.11097743 -0.101949796 -0.06324341
000210 47 92 d0 bd bf 33 b3 3d 60 c3 1a be 9d 5a b3 3d
       -0.1018415 0.08750104 -0.15113592 0.087575175
000220 3c 52 9a bd 18 df e4 3d a2 86 33 3e b8 cf 29 be
       -0.07535216 0.11175364 0.17531827 -0.16583145
000230 05 4d 1b be 1e cc fa bd 61 3a 0f bc 0e 7a b4 3c
       -0.151661 -0.122459635 -0.008741946 0.022030856
000240 35 e8 9d 3d 62 87 34 3d f6 e7 b1 bd aa fd 3f bb
       0.077103056 0.044074424 -0.08686821 -0.0029295483
000250 3f 2a 0a 3e f1 7b d7 3c 4b b0 97 3d d4 c6 eb 3d
       0.13492678 0.026304217 0.07406672 0.11512533
000260 9c cc 0a be 41 b6 c7 bd 15 90 66 3d c6 35 02 be
       -0.13554615 -0.09751559 0.05628975 -0.12715825
000270 a5 e3 83 3d a2 59 94 bc 6f 96 25 be ba b0 47 bd
       0.06439904 -0.018109147 -0.16170667 -0.048752524
000280 a6 ef bc bd b6 68 a1 3c 46 0e 41 3d eb 0b 60 bd
       -0.09225397 0.01970325 0.047132753 -0.054698866
000290 76 9b 53 bd 23 f5 ea 3c 6d c6 00 3e fc 4c 06 3e
       -0.05166193 0.028681343 0.12575693 0.13115305
0002a0 5a 5c 42 3d 78 91 47 3a d6 bd a6 bd ca 75 d7 3d
       0.047451355 0.0007612924 -0.08141677 0.10520513
0002b0 ff bd b3 bc c1 5a fa 3c 14 1d 4c bc cf 6a c2 bd
       -0.021941183 0.030560853 -0.012458105 -0.09493028
0002c0 48 9a da bd 77 46 8f 3b eb 7b 9b 3d f2 4d 22 3e
       -0.10673958 0.0043724137 0.07591995 0.15850046
0002d0 b9 ad 21 3e de c1 53 3d f7 81 ad 3c 78 c6 2f be
       0.15788926 0.051698558 0.021180136 -0.17165554
0002e0 c6 fd 49 bd c4 c4 1e 3e 7e 23 c0 bd 94 21 0b 3d
       -0.049314283 0.15504748 -0.093817696 0.03396757
0002f0 1b 1b de bd 53 17 55 3d ab 7d f6 bd 4e 3c 66 3d
       -0.10845014 0.052024197 -0.12035688 0.056209855
000300 69 c5 25 be 1c 83 8d bd a3 b8 ab 3d 48 23 87 3d
       -0.16188587 -0.06909773 0.08384826 0.06598526
000310 98 a0 32 3e d5 fe 7e 3d 00 ba a3 bd cb 86 d0 3d
       0.17444074 0.062254746 -0.07994461 0.1018196
000320 25 e9 b5 3d 5d 70 a2 bc 1d a9 11 be 00 5d a0 bc
       0.088823594 -0.01982897 -0.14224668 -0.019575596
000330 87 c6 1c 3e 1c 38 f3 bd 16 f6 01 be 7a fd 48 3d
       0.15310107 -0.118759364 -0.1269153 0.04906986
000340 cf 3a 4f 3d 7e 98 b9 3d f0 14 8c 3c 3a c8 51 3d
       0.050593194 0.09062289 0.017099828 0.05121634
000350 e9 5f f7 bd 86 b3 1a be 5e be 1e 3e 29 65 2f 3e
       -0.1207884 -0.15107545 0.15502307 0.17128433
000360 bc 78 13 3e 9f 40 f9 3d b1 a1 b3 bd 58 b5 c8 3d
       0.14401525 0.121705286 -0.087710746 0.098002136
000370 0e 31 24 3e d0 29 11 bd 6b f3 0e be 82 2b c4 bd
       0.16034338 -0.035440266 -0.13960044 -0.09578611
000380 fa 6e f3 3c af 1c 2b 3e 54 f4 c7 bc 2c 4f f6 3d
       0.029716004 0.1671016 -0.024408497 0.120268196
000390 ad af 9d 3d 9a b8 11 bc fb d3 bd bd 22 79 a8 bd
       0.07699523 -0.00889411 -0.09268948 -0.08226229
0003a0 57 34 d8 bb 47 bc 98 bd 32 b8 0d be 7f b1 62 bd
       -0.0065980363 -0.07457786 -0.13839796 -0.055345055
0003b0 e7 2f 51 3d 13 5b bf 3d ee 2d 19 be c7 d8 48 3e
       0.051071074 0.09343543 -0.14958927 0.19613944
0003c0 3a 4d e0 3d be 76 cc bd 2d 73 48 3a b5 9b ac bd
       0.1095223 -0.09983586 0.0007646557 -0.08428136
0003d0 83 a0 0a be 4a 93 1e 3d 29 72 f8 3d a4 5c d9 3c
       -0.13537793 0.038714685 0.12131149 0.026533432
0003e0 ae 2c f3 3d 0b 25 20 be 64 92 8a bd 02 61 fc 3d
       0.11873756 -0.15639131 -0.06766203 0.1232319
0003f0 c5 b9 20 3e 1f 17 9b bd 87 d5 90 bc 9a ec 5d 3d
       0.15695865 -0.075727694 -0.017679943 0.05418072

convs.0.lin_l.bias f4 [256]
000000 aa e9 28 be 4f eb 47 be 04 31 af bb f5 3f 2e 3e
       -0.16495386 -0.19523357 -0.0053464193 0.17016585
000010 9e aa a5 3d 86 1b d0 3c c4 8e 5a bd b3 9a 65 bd
       0.08089183 0.02540375 -0.05335881 -0.056055736
000020 bc 6b 70 3b 98 91 bd 3d a0 4a 3c 3e c0 1a 72 bd
       0.0036685308 0.092562854 0.18387842 -0.059107542
000030 99 21 0a 3e 26 6d b0 bb 0f 32 94 bd 0a eb 19 3e
       0.13489379 -0.0053841053 -0.072361104 0.15031067
000040 08 d1 3f 3d d8 e6 83 3d 0b 63 ff bd ff 0d b5 bc
       0.046830207 0.06440514 -0.12470063 -0.0221014
000050 30 f3 be 3d 17 61 f4 bd 14 32 0a 3e 67 4d 19 3c
       0.09323728 -0.11932581 0.13495666 0.009356833
000060 cb 85 7c 3d 4a f6 e0 3d 71 e7 16 bd f8 9b 01 be
       0.061651032 0.10984476 -0.036841813 -0.12657154
000070 f6 61 10 3e f6 97 d1 bd 8c 75 09 3d ac cc 42 bd
       0.14099869 -0.102340624 0.033559367 -0.04755847
000080 b8 ba 1b 3c 69 1e f6 3b c1 e3 1c be 7a 23 c0 bd
       0.009504966 0.0075109494 -0.15321256 -0.093817666
000090 5b 27 da bb b5 1e 87 3c 69 7a d8 3d f4 05 e5 3d
       -0.0066575236 0.016494134 0.10570223 0.11182776
0000a0 30 06 32 3e bd e1 8d bd 1c d8 34 be 72 b2 b5 3d
       0.17385173 -0.06927822 -0.17660564 0.08871926
0000b0 6b 4c 72 3d e8 e8 fa bd 56 91 0f be a4 03 33 be
       0.05915491 -0.122514546 -0.14020285 -0.17481858
0000c0 91 5c a9 3d fb 70 2a be 06 ae 18 3e c0 3a 6f bd
       0.08269609 -0.16644661 0.14910135 -0.058405638
0000d0 95 94 80 3d 74 f6 0a be 1e 86 f6 3d 7f 99 b1 bd
       0.0627834 -0.13570577 0.120372996 -0.08671855
0000e0 76 9c 0f be 01 6f 02 3e d1 fd 26 be 8c f0 11 be
       -0.14024529 0.12737657 -0.16307761 -0.14251918
0000f0 1f ba b8 bd 90 e2 08 be a3 69 8f bd 85 13 cf 3c
       -0.09019875 -0.13367677 -0.070025705 0.025277862
000100 98 e9 19 3e 93 96 9a 3d f0 31 20 be ae 4f 93 bd
       0.15030515 0.07548251 -0.1564405 -0.07192932
000110 b6 8a 38 bc db b6 08 3e 32 05 0a 3e a3 52 93 3d
       -0.01126354 0.13351004 0.13478544 0.07193496
000120 b8 0b 24 be 09 cd f6 3d 13 75 ac 3c 99 11 fb bd
       -0.16020095 0.12050826 0.02105192 -0.12259216
000130 c0 d5 97 bd cc 35 c2 bd 8f 2f 65 3d ca c9 a3 3d
       -0.074138165 -0.09482917 0.05595356 0.079974726
000140 e3 e2 9a 3d 04 3a 98 bb c7 7a 16 3e b4 88 56 3d
       0.075628065 -0.004645588 0.14695273 0.052376464
000150 54 90 11 3d 0e 4d b5 bd 0e 75 24 3d 5a 5d 8d 3c
       0.035538033 -0.08852588 0.040150695 0.017256428
000160 51 d1 3a bd c5 c9 da bd 68 17 2e bd 0a 41 22 3d
       -0.045609776 -0.10683016 -0.04250279 0.039612807
000170 ea 4d a0 3d 74 96 4d 3c 4c d9 7a bd 66 06 b3 3d
       0.07827361 0.012548078 -0.061242387 0.08741455
000180 fc b0 18 be 2e ec ca 3d 8c 2f 2a 3e 2e 5b b1 bd
       -0.14911264 0.09908329 0.166197 -0.08659969
000190 24 9c c1 3d ca 8b d4 3c e2 c7 e4 3d 16 91 c4 3c
       0.094536096 0.025945563 0.11170937 0.023994964
0001a0 82 fe a1 3d b8 90 66 3d 8e df db bb a0 57 01 3e
       0.07909872 0.05629036 -0.0067099994 0.12631083
0001b0 4e c9 e2 bd e3 34 a5 bd 31 4e bf 3d 6b 1e 23 3e
       -0.11073552 -0.08066728 0.09341086 0.15929572
0001c0 1a 58 2f bd 96 6a c0 bd 21 d9 de 3d e7 ee c8 3d
       -0.04280863 -0.0939533 0.10881258 0.09811192
0001d0 51 8f 56 bd bf 95 83 3c 80 9b b8 bc f0 89 29 3d
       -0.05238277 0.016062615 -0.022535086 0.041391313
0001e0 0f eb 20 be 11 93 c6 3c be 70 a2 3c b0 ef fb 3c
       -0.15714668 0.024240049 0.01982915 0.03075394
0001f0 cd 98 65 3c f8 a7 09 bd 18 96 97 bd 68 78 fb bd
       0.014013481 -0.033607453 -0.07401675 -0.12278825
000200 49 fd e8 3d 7e cc 1d 3e d3 d9 d8 3d 2f ce 88 bd
       0.11376435 0.15410039 0.10588422 -0.066799514
000210 98 c1 56 bd 92 db 32 3d 10 92 c7 3c 20 ef 32 3e
       -0.05243072 0.04366643 0.02436164 0.17474031
000220 1c 28 a9 3d db 30 f6 3d e1 a4 79 3d 28 d4 2b bb
       0.082596034 0.12021037 0.060948256 -0.0026218984
000230 f7 e7 a9 bd cc d3 fb bd 35 7a ad bd 9f a0 09 3d
       -0.08296197 -0.122962564 -0.08470575 0.033600446
000240 25 fe ef bd 59 fc c8 bd ce e7 fe bd 27 37 60 bd
       -0.11718396 -0.098137565 -0.12446557 -0.054740097
000250 d2 4f 4c 3d 6a 2c 17 3e 95 d8 0e be ab d8 0e be
       0.04988081 0.14763036 -0.13949807 -0.1394984
000260 41 5f d4 bd bc 69 18 3e 1a a4 5e bd 9f e1 34 3e
       -0.10369731 0.14884084 -0.05435572 0.17664193
000270 a7 0b bf bd 4b 8f fa bd 93 2b 78 3d bb 8e 28 3d
       -0.093283944 -0.12234362 0.06058843 0.041151743
000280 ed 0e fd 3d 9d f1 0b 3e ec 45 fc bd 6d 85 ef bc
       0.123563625 0.13666387 -0.12318024 -0.029238427
000290 d3 d1 b5 bd 58 e5 bd bd a0 1f b9 ba ac b4 e6 3d
       -0.088779114 -0.092722595 -0.0014123805 0.11264929
0002a0 5d 0d 27 3e 83 e5 0b be 49 e9 34 3c c3 8b cf 3d
       0.16313691 -0.1366177 0.011041948 0.10134079
0002b0 72 b8 38 bb ed b5 16 be c2 c1 39 3e 49 66 27 3e
       -0.002818611 -0.14717837 0.18140319 0.16347612
0002c0 50 0e 23 3e 3c 9c 02 3e 5d e4 1e be 14 3a 8f bd
       0.15923429 0.12754911 -0.15516801 -0.069934994
0002d0 c8 a1 27 3e 88 b0 da 3d 94 60 bd bd 17 80 00 3d
       0.16370308 0.10678202 -0.092469364 0.031372156
0002e0 9c b3 b6 bc 74 9e f0 3d fd 2d 0a 3e 83 e6 eb 3d
       -0.022302441 0.117489725 0.13494106 0.11518576
0002f0 e4 d8 9f bd 19 8b 2d 3c 3f d6 71 3d 56 79 27 be
       -0.078050405 0.0105922455 0.05904221 -0.1635488
000300 47 18 0f 3d e6 68 57 3d 4e 1d 9f 3d aa a3 79 3d
       0.034935262 0.052590273 0.07769261 0.060947098
000310 7b e6 c9 bd 42 f9 f6 3d 9e dc 83 bd 84 9d a5 3d
       -0.09858414 0.12059261 -0.06438564 0.08086684
000320 bb 81 42 3e 98 33 2b bc 85 3b bc bd 5a 0a 82 bd
       0.18994801 -0.010449313 -0.0919104 -0.06349631
000330 31 53 1a bd c3 18 0c 3e 30 a8 b2 3d 65 62 1f be
       -0.037676994 0.13681321 0.087234855 -0.15564878
000340 24 5e 80 3c b2 e9 ac bd 9c a3 b4 3d d8 f0 a4 bc
       0.01566989 -0.08443011 0.088202685 -0.020134374
000350 11 f3 1c 3e 3d 1c 2d bd bc 0a b3 3d 8e a3 de 3c
       0.15327097 -0.04226326 0.08742282 0.027177598
000360 ec 88 dc 3c 3d 36 ad bd c0 3c cc 3d 13 c5 8b 3d
       0.026920758 -0.08457611 0.09972525 0.06824698
000370 55 32 cb bd 01 ab 0b 3e 87 b9 d5 3d 01 3e dc bc
       -0.099217094 0.13639452 0.10435777 -0.026885035
000380 c6 a6 34 3e ed 6d 9a 3c 1d d1 b5 bd 73 b8 aa 3d
       0.17641744 0.018851245 -0.08877776 0.08335962
000390 6d f8 98 3d 7e e4 ad 3d 35 b4 3a 3d 69 a9 b5 bd
       0.074692585 0.08490847 0.045582015 -0.08870203
0003a0 97 af 49 bc 9a ac d6 bd cd 0d b9 3b 8b 15 a8 bc
       -0.01230993 -0.1048214 0.005647397 -0.020518085
0003b0 b3 41 03 3e fe b3 36 be 98 da f1 bd c3 c4 38 bd
       0.12818031 -0.17842099 -0.118092716 -0.04510952
0003c0 22 cb 5c bd 06 3d fe bd ef 3e 1e be 7a 53 ae 3d
       -0.05390466 -0.12413983 -0.15453695 0.08512016
0003d0 c8 f8 c5 3d 7a 19 f2 bd c3 2d 1d be 2a 7a 3c 3d
       0.09666592 -0.118212655 -0.15349488 0.046014942
0003e0 4f 82 f8 3c 97 db c1 bd 01 69 60 3d 4e 3c 82 bd
       0.030335573 -0.094657116 0.05478764 -0.063591585
0003f0 cc ed 07 3e d3 e9 78 3d a5 14 5e 3d 83 d4 31 bd
       0.13274306 0.060769867 0.054218907 -0.043415558

convs.0.lin_r.weight f4 [256, 32]
000000 ab 50 3e 3e 51 14 f9 3d 36 e8 93 bd 93 65 91 3c
       0.1858546 0.12162078 -0.07222025 0.01774863
000010 44 56 8b bd e4 ca 0c 3e 9d ad 2c be ef c7 79 3d
       -0.06803563 0.13749272 -0.16863103 0.060981687
000020 6d 9c b5 bd 5e d8 d0 bd ca 3b 29 3e ad 01 85 3c
       -0.088677265 -0.10197519 0.16526714 0.01623615
000030 83 bb d0 bd 8f 8d 34 3c f8 92 d6 bd 82 f0 76 bd
       -0.10192015 0.011020078 -0.10477251 -0.06028796
000040 66 cd db 3c b4 0f 16 be 42 51 13 be de 53 8e 3d
       0.02683134 -0.14654428 -0.14386466 0.0694959
000050 55 fb 34 be e9 ea eb bd 1c e0 0a 3e ff d3 c5 3d
       -0.17674 -0.11519415 0.13562053 0.09659576
000060 a5 c5 20 3e 5c 10 1f be 02 cb ff bd 4c 45 e4 3d
       0.15700395 -0.15533584 -0.124898925 0.1114603
000070 2b f0 9e bd 2c 2d 7e bd ae 65 12 bd 60 17 25 3d
       -0.07760652 -0.062054798 -0.0357415 0.040305495
000080 84 35 39 bd e7 be 88 bd 00 fe fc bd ad 65 ed 3d
       -0.045217052 -0.06677037 -0.12353134 0.11591659
000090 7c 43 46 bd da 8f ef 3d 1f 40 f6 3c cc cc 0f bc
       -0.048404202 0.116973594 0.030059872 -0.008776855
0000a0 7b e9 a3 bd 25 da e2 3d 1a 20 21 3e 92 50 a2 bc
       -0.08003517 0.11076764 0.15734902 -0.01981381
0000b0 9a 44 89 bd 45 1b 91 bd 08 57 fe bd d4 d3 b7 3c
       -0.06702538 -0.070852794 -0.12418944 0.022439875
0000c0 4e 8a 19 be 96 76 38 3e 32 ec 3f bd a2 45 9e bd
       -0.14994165 0.18013987 -0.046856113 -0.07728125
0000d0 e0 00 ba bd 5c 1b 02 be 0b 31 4c bd d5 6b b2 bd
       -0.09082198 -0.1270575 -0.04985146 -0.087119736
0000e0 32 d3 57 3e f3 43 08 3c af e2 29 3e ee cc c9 3d
       0.21076658 0.008316982 0.16590379 0.0985354
0000f0 61 52 18 bd e0 6e d3 3b 93 2e f2 3d 87 9d 2b bc
       -0.037187938 0.0064524263 0.118252896 -0.010474569
000100 08 56 3c bd 88 e6 22 3e e9 c1 90 bc ee 4e a1 3d
       -0.045980483 0.15908253 -0.017670589 0.07876383
000110 67 f6 ce bd 80 1a a9 3d db 2e 45 3d 75 19 07 be
       -0.10105591 0.082570076 0.048140388 -0.13193305
000120 b2 ea 92 bd 47 e7 16 3d 10 4b 18 bd 07 46 aa bd
       -0.07173671 0.036841657 -0.03718096 -0.08314138
000130 0a 1c 82 3d a8 79 83 3a ff bf bd bd b3 73 d4 bd
       0.06353004 0.0010030763 -0.09265136 -0.103736304
000140 02 1c d5 bd 0d 4e de 3b e2 db 92 3d a9 83 02 bd
       -0.10405733 0.0067842067 0.071708456 -0.031863842
000150 a8 c6 e7 bd c9 b1 f7 bc 84 79 d6 3c 7e 3a 0c be
       -0.113171875 -0.030236142 0.02618099 -0.13694188
000160 58 18 d1 3d 17 21 96 bc d9 a1 e3 bd 15 3e 8f bd
       0.10209721 -0.018326325 -0.11114854 -0.06994263
000170 6f ac 1f be b7 7b 84 bd e4 41 60 3b b2 9f 83 3d
       -0.15593122 -0.06468909 0.0034218961 0.06426944
000180 6b be 26 3d be 72 0e be a9 84 4c 3d 80 e9 21 bd
       0.04070894 -0.13910958 0.049931202 -0.039529324
000190 10 84 9d 3d a1 f7 d4 3d b1 01 36 3e 60 99 00 3e
       0.076912045 0.10398794 0.17774083 0.12558508
0001a0 94 b2 0b 3e 43 8d a0 3b 82 49 a2 3d 96 d2 d9 3b
       0.13642341 0.004899652 0.07924177 0.0066474183
0001b0 44 2b 07 3c ca 86 be bd 0d 70 09 3d 0e 8d 1a 3c
       0.008250061 -0.09303053 0.033554126 0.009433044
0001c0 15 0b de bc 3f 36 eb bc 39 1b 69 bd 6b 2a af bd
       -0.027104894 -0.02871239 -0.056910727 -0.085530125
0001d0 ac 52 a1 3c fd a4 06 3e a4 93 b8 bc 9f 28 24 3e
       0.019692741 0.13148876 -0.022531338 0.1603112
0001e0 40 f2 ca 3d a5 14 a0 3d 8d 72 d2 3d 6c 04 28 be
       0.09909487 0.07816438 0.10275755 -0.16407937
0001f0 ef 85 87 3d 25 dd 4b 3d f5 96 bb bd fb 09 21 3e
       0.06617343 0.049771447 -0.09159652 0.15726463
000200 b7 9d c2 bc c5 77 2d 3d 0e 2f 12 be 7a 65 45 3c
       -0.023756845 0.04235055 -0.14275762 0.01204812
000210 7a 92 1a 3e 4f 29 57 bb 4b 86 1e 3e 0e 05 78 3c
       0.15094939 -0.0032831018 0.15480916 0.015137924
000220 81 04 34 be cf dc 07 be 47 03 b2 3c ff 76 8a bc
       -0.17579843 -0.13267826 0.021730078 -0.016902445
000230 89 a9 dc bc df e5 6b 3d 33 39 a3 3c d3 cf 16 3e
       -0.02693631 0.05759227 0.019924736 0.14727716
000240 f8 6c 9f 3d d9 b1 0c bd ad 29 9e 3d d0 f3 8c bd
       0.07784456 -0.034349296 0.07722793 -0.06882441
000250 74 5a 01 bc 01 35 0f be b1 fb a7 bd d6 f7 24 3e
       -0.007895101 -0.13985063 -0.08202303 0.16110167
000260 b2 d1 b3 bb 9f c5 35 bd 59 42 ef 3d a9 dd 85 3d
       -0.005487644 -0.04437792 0.11682577 0.06536419
000270 9a 2d ba bd 17 ae 00 be 1b 1c fe 3d 82 3d 8f 3c
       -0.09090729 -0.1256641 0.124077044 0.017485384
000280 87 52 2a be 62 87 56 3b 37 69 78 3d 65 43 dc 3d
       -0.16633044 0.0032734503 0.060647216 0.10755042
000290 b7 a0 b2 3c 65 23 db bd 13 7b 34 3d fa 90 ff bd
       0.02180515 -0.1070011 0.044062685 -0.12478824
0002a0 59 ac d2 3d 69 fa 09 be 0a d5 b1 bc 72 ab 2e bd
       0.10286779 -0.1347443 -0.02170803 -0.04264397
0002b0 04 ae 89 bb 5d 7f 95 3d d1 89 a2 bd 60 30 e1 3c
       -0.0042016525 0.07299683 -0.07936443 0.027488887
0002c0 95 22 b4 3d e2 9e 10 3e ae aa d7 bd 1f 90 c1 3c
       0.087956585 0.14123109 -0.105306014 0.023628293
0002d0 89 bd 1a 3e 1d 1a d0 bd af 5a c5 3d b9 93 51 bd
       0.15111364 -0.10161231 0.09636437 -0.05116627
0002e0 a0 d2 34 3c 32 a8 62 3d 66 33 de 3b 83 01 e8 3d
       0.011036545 0.055336185 0.0067810295 0.11328413
0002f0 d7 fe 07 be ea 85 94 3c 1d 26 8b 3d ab 00 07 bd
       -0.13280807 0.018130261 0.06794379 -0.03295962
000300 e2 13 15 3e 5e e6 8c 3d 4d 6b 08 be 6b e3 a7 bc
       0.14558366 0.068798766 -0.13322182 -0.020494184
000310 7b bd 5e 3d 78 8f ec 3c 01 9f bb bc bd bd a1 3d
       0.05437992 0.028877005 -0.022902967 0.07897518
000320 c7 57 2d be b5 82 ba bd 26 f8 13 be f5 ad 0b bd
       -0.16928016 -0.09106962 -0.1445013 -0.034101445
000330 df c3 94 3d 47 1e 88 3c 58 ab 08 3e 4d 3d ca 3d
       0.07263922 0.016616 0.13346612 0.098749734
000340 3e bd 9d bc 2a 83 8c 3b dc a4 01 bd 65 eb 14 3e
       -0.019255277 0.004288097 -0.031651363 0.14542921
000350 45 9a 8b bc 5e e0 ca 3d 8b 92 e9 bd f6 7e ec bb
       -0.017041335 0.09906076 -0.11404904 -0.0072172834
000360 c7 04 8b bd 30 88 00 be 9f 05 14 be fa 92 0f bd
       -0.067880206 -0.12551951 -0.1445527 -0.035052277
000370 98 da 80 bd 3a 68 ac 3d 66 00 2a 3e 31 26 d5 3d
       -0.062916934 0.08418317 0.16601714 0.10407675
000380 a8 cf 0b be 7e c4 83 3d 81 14 c5 bd fb b8 11 be
       -0.13653433 0.06433962 -0.096230514 -0.1423072
000390 42 d5 27 be c3 a3 2e be 2c f2 13 3e 68 63 09 be
       -0.16389945 -0.17054658 0.1444785 -0.13416827
0003a0 0a cb 09 bd 0b f1 9e 3d 8c 28 1b bd db 2e dd bd
       -0.0336409 0.07760819 -0.037880465 -0.107999526
0003b0 6b b1 0e 3e c0 e6 58 bc 56 d5 39 be 0a 31 2e be
       0.13934867 -0.013238609 -0.18147787 -0.17010894
0003c0 ec 90 e4 bd 5f 6a 18 be 29 78 97 bd 48 d5 1b 3e
       -0.11160454 -0.14884327 -0.073959656 0.15218079
0003d0 4a 0d 56 3d 70 5e 5b 3d c9 28 91 bd 27 2f c7 3d
       0.052258767 0.05355686 -0.07087857 0.097257905
0003e0 94 ab 86 bd 88 d6 0e 3d 67 94 c7 bd 45 40 9d bd
       -0.06575695 0.03487256 -0.097451024 -0.07678274
0003f0 fd 00 7b 3c 92 5e 28 3e a7 b1 ae bd 54 20 c8 3d
       0.01532006 0.16442326 -0.08529978 0.09771791

convs.1.lin_l.weight f4 [64, 256]
000000 8e 78 95 bd cc d0 83 3d fa 0d 98 3d 78 3a 4c 3d
       -0.072983846 0.06436309 0.07424541 0.049860448
000010 aa 92 e0 3c 2a 05 e1 bc 63 d4 4b 3b 1d 0f 0c bd
       0.027413685 -0.027468283 0.0031101934 -0.0341941
000020 d7 83 07 3d 86 6f 86 bd 69 13 45 3d d6 e4 6c bd
       0.033084717 -0.0656424 0.048114214 -0.057835422
000030 0e ef 79 bc 0f 48 d7 bb 14 9d 07 bc b9 f0 d2 3a
       -0.015254749 -0.0065698694 -0.008277196 0.001609347
000040 5e c2 81 3d e5 f9 56 3d 54 cb 03 3d 68 3d 4d 3d
       0.06335901 0.05248441 0.03217633 0.05010739
000050 59 8c 07 bd db 52 df bb 4c 41 41 bd 0f ac bc bc
       -0.03309283 -0.006815297 -0.047181413 -0.023031263
000060 65 ed 89 3d b2 58 13 3d 72 1a 1e bd 60 25 98 3c
       0.067347325 0.03597326 -0.03859944 0.01857251
000070 45 a2 d4 3c e2 6f fc bb ba e0 df 3b 32 bf 85 3d
       0.025956282 -0.007703767 0.0068322094 0.06530608
000080 4a 14 9c 3c 1b a3 85 3d ef 65 fd 3c 85 f1 f7 bc
       0.019052643 0.065252505 0.030932395 -0.030266533
000090 1f 6b a6 3c ae c5 0b 3d 4b e5 8e 3d 81 67 16 bd
       0.020314751 0.03412407 0.06977328 -0.036719803
0000a0 5f 7c 99 3c 49 47 a4 bc 12 a1 a6 bc 30 23 a0 3d
       0.018736063 -0.020053523 -0.020340476 0.078192115
0000b0 2c 15 a3 3c a6 28 da 3a c5 23 0f bc e2 3b 82 3c
       0.019907556 0.0016644194 -0.008736555 0.015897695
0000c0 f8 3f c6 3d 5f 78 11 3d ea 10 d5 3c 0d f8 2f bd
       0.0968017 0.035515185 0.026009042 -0.04296117
0000d0 c6 26 9b 3d 15 19 2a 3d 9a 89 3d 3d c4 0d da 3c
       0.07575755 0.041527826 0.046273805 0.026617892
0000e0 09 45 c5 3b 07 16 b3 bb ba c9 3e 3d 04 f9 1d 3d
       0.0060201925 -0.0054652723 0.0465791 0.038567558
0000f0 f4 a9 cd 3c 94 46 28 bd 12 a5 ce bc 31 d6 27 bc
       0.025105454 -0.041082934 -0.025225196 -0.010243938
000100 54 8a 82 3d 57 ac 7b bd e9 70 49 3b 47 8c 2a 3d
       0.0637404 -0.061443653 0.0030737466 0.041637685
000110 57 72 9c 3c 4e b6 ee 3b d5 45 64 bc 51 8b a1 3b
       0.01909749 0.007284916 -0.013932665 0.004929938
000120 b7 bd 07 3c a2 b4 2d 3b 86 15 8a bc 6d 5a c8 bb
       0.008284978 0.002650537 -0.016855966 -0.006114295
000130 61 47 7e 3d a3 cf 8f 3d d8 e5 75 bd 1b 58 56 3d
       0.06207979 0.070220254 -0.06003365 0.052330118
000140 28 5c 5a bd 4d 47 35 3c e6 2b 4d 3d d4 7d d7 3c
       -0.053310543 0.011064363 0.050090693 0.026305117
000150 79 9d 4d bd f9 38 82 3d f4 66 11 bd 84 2c 3c bc
       -0.050199006 0.06358523 -0.035498574 -0.011485223
000160 21 a1 b5 bb 0a de 9c bc a9 6e d0 bc 1a 4b 80 3d
       -0.0055428897 -0.019148845 -0.025443392 0.062643245
000170 71 e7 a2 3b 06 c4 17 3c 79 b8 2c 3c d7 88 86 3c
       0.0049714376 0.009263044 0.010542029 0.016422672
000180 af 0d 16 bc 0e 16 f8 3c 4e 52 39 bd ab 9b b1 3c
       -0.009158536 0.030283954 -0.045244507 0.021680674
000190 4b 6b 0a 3d 52 7e 7d 3c ff 13 78 3d 76 ec bd 3c
       0.03379373 0.015472012 0.060565945 0.023184042
0001a0 7a 90 95 3b 34 dd 1b 3c 45 f8 96 3d 99 9a 7c 3c
       0.004564342 0.009513188 0.073715724 0.015417718
0001b0 a7 a9 8e 3c 91 b4 81 bd b6 cf 04 bd df 88 a7 3c
       0.01741488 -0.063332684 -0.03242465 0.020451007
0001c0 cd 17 97 3d 2e e5 75 3d 54 05 04 bd 30 c6 1e bd
       0.073775865 0.060033016 -0.032231644 -0.038763225
0001d0 ab 1a 2b bc 7d 2f a1 3c d1 8d 6f 3d 00 87 31 3d
       -0.01044337 0.019675964 0.058484856 0.043341637
0001e0 e5 c6 ce bb a7 96 1e 3d b9 f5 de 3c be 57 85 3c
       -0.006310331 0.038717892 0.027216779 0.01627719
0001f0 b2 d3 1d 3d 2a 61 c1 3c f3 4d 0e bd ed b7 a6 3d
       0.038531967 0.023605902 -0.034742307 0.0814055
000200 21 ba 3c 3c 5f f3 cb 3c b9 79 25 3d d3 28 5a 3c
       0.011518986 0.024896322 0.040399287 0.013315397
000210 38 db 36 3d c2 82 05 3d e7 89 40 bd 87 3f 46 bc
       0.044642657 0.032595403 -0.047006514 -0.012100107
000220 20 2a 4f bd f6 4d 2b bd df 43 38 3c 26 ca b3 3c
       -0.050577283 -0.041822396 0.0112466505 0.021946978
000230 22 3f 8f 3d 80 e0 62 3d 94 0a c9 3c 19 b4 5d 3d
       0.069944635 0.05538988 0.024541177 0.054126833
000240 b8 e4 0f 3d 6e 34 16 bc 76 d1 70 bd 05 50 53 bd
       0.035130233 -0.009167774 -0.058793508 -0.051589984
000250 9c b3 61 3d 33 6a b0 3c 1b 6f b7 3b d1 88 23 bd
       0.05510293 0.021535015 0.0055979616 -0.0399254
000260 68 f8 16 3d 63 29 17 3d 98 ea cb 3c 84 fe 09 bc
       0.036857992 0.036904704 0.024892136 -0.008422498
000270 5c 25 10 3d c3 1e 4e 3d f5 4a f8 3b 92 96 55 3d
       0.03519188 0.050322305 0.007577295 0.05214555
000280 b5 f5 4c 3c f4 a3 19 3d bb 6f 31 bd 43 e7 1b 3d
       0.012509753 0.037509874 -0.043319445 0.038062345
000290 6f e9 b9 bc 25 27 d0 3c 22 eb dd 3c 33 c5 82 3d
       -0.022694318 0.02540929 0.02708966 0.06385269
0002a0 46 f9 21 bd dc d1 a4 3b a5 ea 5c 3d d0 f5 15 bd
       -0.039544366 0.0050299 0.053934712 -0.03661138
0002b0 3b a2 96 3d 8e a7 bf bb 1b 38 97 3d f1 5c 5a 3d
       0.07355162 -0.0058488315 0.07383748 0.053311292
0002c0 16 aa 59 3d ed 36 13 bd 22 6a 67 bd 98 83 f3 3c
       0.053140722 -0.035941053 -0.0564977 0.029725835
0002d0 60 ce a6 3b 6d 3e 38 bd 1a 56 5d bd f6 bf 41 3d
       0.00509052 -0.04498141 -0.05403719 0.04730221
0002e0 e1 63 36 3d 14 fb 1d 3d 4b 5c 46 3d 93 a9 d6 bb
       0.044528846 0.038569525 0.04842786 -0.0065509765
0002f0 f1 8a 47 3d 7c 17 33 bc 9f 68 63 3b ff 29 1e 3d
       0.04871649 -0.010930892 0.003469981 0.03861427
000300 e8 95 9b 3b 27 36 10 3c a2 0b 9b 3d c5 c5 64 bc
       0.004748095 0.008801973 0.07570578 -0.013963168
000310 ab 6c a0 3d 36 e9 47 3c 4e 16 3d bd 53 93 db bc
       0.07833227 0.012201598 -0.04616385 -0.026803648
000320 69 1b cd 3c 8c 4c 7d bd 7f 2b 5d 3d 70 ac b2 ba
       0.025037484 -0.06184058 0.05399656 -0.0013631713
000330 89 66 11 3d c2 44 b5 3c 94 7e 35 3d 63 51 34 bb
       0.035498176 0.022127513 0.044310167 -0.002751433
000340 6b ea 1e 3d 05 79 6f bd 4f 82 be bc 3e bf 9d 3d
       0.038797777 -0.058465023 -0.023255495 0.07702492
000350 fd a6 b6 3d cc bc bf bc 4e c7 32 3c 44 6e 97 3b
       0.08918569 -0.023405455 0.010911776 0.004621299
000360 3d 8e d1 bc 8e fd 0e 3d 4c b1 d7 bb 90 f4 30 3c
       -0.02558052 0.034909777 -0.0065824147 0.010800496
000370 4d 79 75 3d 24 6a d8 3c da 0f d0 bc 27 0a 89 3d
       0.059930135 0.0264178 -0.025398184 0.066913895
000380 fb 19 78 bc 84 aa 4d bd 63 de 8a 3b f9 48 e1 bc
       -0.015142913 -0.050211444 0.0042379363 -0.027500616
000390 4b 6c 31 bc d5 ca 98 bc 32 88 78 3b 56 e6 86 3c
       -0.010829042 -0.018651405 0.0037922976 0.016467255
0003a0 72 42 1d bd 69 65 41 bd 32 93 39 bd d0 ae 41 bd
       -0.038393445 -0.047215853 -0.045306392 -0.047285855
0003b0 6d f0 83 3d d2 24 34 bd e3 05 69 3d 60 05 de 3c
       0.06442342 -0.043980427 0.05689038 0.027102172
0003c0 30 a1 c4 3b de 40 35 3d 0a d4 5f 3b 9f db ab 3d
       0.0060006604 0.044251315 0.0034153485 0.08391499
0003d0 1b 35 83 bc 1d 4e e1 bb 12 e3 ab bb 46 de 32 bd
       -0.016016534 -0.006875767 -0.0052455748 -0.043669008
0003e0 04 48 f9 bb fb 52 36 3c 6a 06 84 bb 4f 6a ef 3a
       -0.007607462 0.0111281825 -0.004029085 0.0018265935
0003f0 fd 2c 52 3d e8 7a 2b bc c9 61 87 bb 5f d0 5a 3d
       0.051312435 -0.010466315 -0.00413153 0.053421374

convs.1.lin_l.bias f4 [64]
000000 ec 6f 2f 3c 41 aa 6a bd 81 7c ff 3c 3d 41 ff 3c
       0.010707837 -0.057291273 0.031187298 0.031159038
000010 0b 11 9a 3d 1d 64 99 bd 35 f3 f7 bc 6d c0 2e 3d
       0.07522782 -0.07489798 -0.030267337 0.04266398
000020 c5 34 45 bc ca 35 14 bc e4 f1 5c bc 7c 18 22 bc
       -0.012036507 -0.009046027 -0.013485406 -0.009893533
000030 c1 00 d9 bc 79 4a b4 ba 84 2d fb 3c b3 a2 4c 3c
       -0.026489617 -0.0013755105 0.030661352 0.012489962
000040 65 ec 4e bd 00 15 38 bd 20 4d b9 3c 6f e7 d0 3a
       -0.050518412 -0.044941902 0.022619784 0.0015938113
000050 51 7a 5b 3d 60 01 5e 3d fc 64 48 3d 89 84 04 bc
       0.053583447 0.05420053 0.04892443 -0.0080882395
000060 d7 61 57 3c d3 0a 49 bc 10 4d e8 39 f8 83 49 3d
       0.013145885 -0.012270647 0.00044307904 0.04919812
000070 fa 2c 16 bd c6 e6 a3 3c d9 20 4b 3d 69 76 95 3d
       -0.036663987 0.020007502 0.049591873 0.072979756
000080 29 5d 54 3d 3a e3 a6 3d c5 6c 39 bd f0 7a 9a 38
       0.051846657 0.08148809 -0.045269746 7.366191e-05
000090 87 57 06 bd f7 df 65 3d 9a 7b 91 3d 49 dd 9a bd
       -0.032798316 0.056121793 0.07103653 -0.07561738
0000a0 8a ff 12 bd 1f af d1 bc a9 25 9c 3d 65 02 b9 bd
       -0.035888232 -0.0255962 0.076243706 -0.0903366
0000b0 7d 7d ac 3c 42 f0 cf bc af b0 d4 bd f8 ad 31 bd
       0.021055931 -0.025383119 -0.10385262 -0.0433788
0000c0 f7 c4 a6 bd 11 6e 27 bd 46 4f 2d 3d 5e 11 af 3b
       -0.08143037 -0.040876452 0.04231193 0.0053426465
0000d0 db d2 85 bd 5c 12 82 bc 5b ac 1f bd 11 9d bb bc
       -0.06534358 -0.015877895 -0.03898273 -0.022902044
0000e0 23 56 e3 3d c1 37 12 bc 72 b9 ff bc 79 98 a5 bd
       0.11100414 -0.008924426 -0.031216357 -0.080857225
0000f0 a7 90 84 bc 2b f0 86 3d 3e a9 11 3c ae f0 15 bd
       -0.016182257 0.06588777 0.008890448 -0.036606483

convs.1.lin_r.weight f4 [64, 256]
000000 3c 54 46 bd 4d 0d 15 bd 6e f6 89 3c 6e d7 a5 3c
       -0.048420176 -0.036389638 0.01684114 0.020244326
000010 f6 32 08 3d a0 1c 6b 3d 87 d6 87 3d e8 76 9c bd
       0.033251725 0.057400346 0.06632715 -0.07639867
000020 6e f0 88 3c a6 3c e6 3a ee b4 c4 bb 49 f1 6e bd
       0.016716208 0.0017565682 -0.006003014 -0.058335576
000030 ad 5b 0b bd 78 67 b9 bc 45 05 1b 3d 16 7b 1c bd
       -0.034022976 -0.022632346 0.037846822 -0.03820332
000040 22 fa 79 bc 44 fc 96 bc 66 53 29 bd ae b6 d1 bc
       -0.01525739 -0.018430836 -0.0413393 -0.025599804
000050 93 1e 4e bd 47 62 8d bd a1 cc 1b bc ec 05 b3 3c
       -0.050322127 -0.069035105 -0.009509237 0.02185341
000060 ee c2 fa 3c da eb 87 3d 5b 87 40 bd 11 fb 11 3b
       0.030610528 0.06636782 -0.047004085 0.0022274891
000070 e3 e7 0b 3d 59 94 e9 3a 74 84 91 bc f4 2c af 3c
       0.03415669 0.00178207 -0.017763354 0.02138374
000080 a6 46 be bc 5d 90 94 bc c9 59 86 bc 18 fa 6c 3b
       -0.023227047 -0.018135244 -0.016400235 0.003615981
000090 fe 7d ab 3d 5f 27 bc 3d dd e3 48 3d ff 35 56 bd
       0.083736405 0.09187197 0.049045432 -0.05229759
0000a0 86 31 e8 3a 78 72 44 3c c3 7c d1 3c 64 3c 26 3d
       0.0017714954 0.011990182 0.025572186 0.040584937
0000b0 c0 50 a1 3b c7 51 0d 3d d1 7b 44 3c d7 89 8f 3d
       0.004922956 0.034501817 0.011992411 0.07008713
0000c0 cc c7 30 3c 58 65 93 bc bf 3c a3 3b 91 02 69 bd
       0.010789823 -0.01799266 0.0049816067 -0.056887213
0000d0 f0 30 d8 3c 67 a1 6a bd 2d 26 88 ba 3d 94 f3 3c
       0.026390523 -0.05728283 -0.0010387354 0.029733771
0000e0 3f ad 2d 3d 93 b9 2f 3d 66 e8 43 bc ef 00 a4 bb
       0.04240155 0.042901587 -0.011957264 -0.005004994
0000f0 7a 31 fc 3c 9e 18 d9 bb c2 5a 3e bc 4a 91 6a 3d
       0.030785311 -0.006625249 -0.011618318 0.057267465
000100 a6 92 cf 3c b0 db 5f bd 04 28 5d bd a6 4c 0b bd
       0.025338482 -0.05465287 -0.05399324 -0.034008645
000110 05 9e c6 3d cf 17 47 bd 79 ca 14 3d 67 ee 76 bd
       0.096981086 -0.04860669 0.036325905 -0.060285952
000120 c7 f2 0e bd 3a 71 6e 3c fc c9 a4 3d d6 ca 80 3d
       -0.0348995 0.0145533625 0.08046338 0.06288688
000130 c7 a4 20 bd cd e6 30 3d cf d6 3f bd f2 4c d8 3c
       -0.039219644 0.04318886 -0.046835717 0.026403878
000140 c0 03 71 3d 8a 7b 8a 3d 37 9a 83 bc 24 57 4f bd
       0.058841467 0.067618445 -0.016064746 -0.050620213
000150 9c f0 33 bc 30 0f 9f 3c 87 5d 20 3d d6 88 bc 3c
       -0.010982659 0.019416422 0.039151695 0.023014467
000160 17 33 df ba e5 44 62 3c 7f 35 1c 3d 58 4a 1c bc
       -0.0017028776 0.013810371 0.038136955 -0.009539209
000170 b8 18 00 3d 61 02 5e 3c d5 8e 1a 3d a5 73 80 bd
       0.031273574 0.013550372 0.03773387 -0.062720574
000180 8a fd cb bc 2d 4c f6 3c 12 19 96 ba 42 b9 4b 3d
       -0.02490117 0.03006562 -0.0011451563 0.049737222
000190 ce 83 23 3d d7 6f 5a bd 04 b4 2d 3d 7d 0e f7 bc
       0.03992062 -0.053329315 0.042408004 -0.030158276
0001a0 30 95 c3 bc 55 44 f4 bc 3a 4b 21 3d e0 96 2a 3d
       -0.02387485 -0.02981774 0.039378382 0.04164779
0001b0 6a bd 21 bd 47 69 f7 bb d7 2a e2 bb 65 f2 8f 3d
       -0.03948728 -0.007550392 -0.0069020796 0.07028655
0001c0 ca f7 1c 3d d0 eb 5a bc 51 13 98 ba 4f ab 06 3d
       0.038322248 -0.013361886 -0.0011602436 0.032878216
0001d0 9e 00 8b bb af c2 97 bc 5c 9a 39 3d 6f b8 c2 bc
       -0.004242017 -0.01852545 0.045313224 -0.023769585
0001e0 91 ee a7 bb 8a e1 57 bc 1d 43 4d 3d 9f 2a 4a 3d
       -0.005124875 -0.013176331 0.050112832 0.049357053
0001f0 a3 5e 21 3d 6b 1f 5b 3d 0c 4c 09 bd 18 f0 ee bb
       0.039396893 0.05349676 -0.03351979 -0.007291805
000200 fd 52 71 3c 2e 34 48 3d dd d4 43 3d 53 bf ab 3d
       0.014729259 0.048877887 0.047810424 0.083861016
000210 63 bb 98 bd d6 52 60 3c e0 a4 8b 3d 83 00 72 bd
       -0.07457616 0.013691625 0.06818557 -0.05908252
000220 ce 8e 5b bc b0 5b 40 3d 88 6e f5 3b 68 96 c9 3c
       -0.0134007465 0.04696244 0.007489983 0.024607852
000230 86 1a 30 3d 95 f6 94 3d c4 3c d2 3b 31 00 ed bc
       0.042994045 0.07273594 0.0064159352 -0.028930755
000240 f0 68 e7 3c 24 d0 4f 3d b0 ca d4 bb a1 47 06 bd
       0.02824828 0.050735608 -0.006493889 -0.032783154
000250 93 19 5d 3d b3 45 03 3d eb 71 a2 3c 96 6f a5 bc
       0.053979468 0.032048892 0.019829711 -0.02019481
000260 47 a7 81 bc 50 c4 4c 3d c2 1f 18 bd df 96 89 3c
       -0.015826834 0.049991906 -0.03713966 0.016795574
000270 1c 4e 0c bc c1 87 04 3d 21 fe a0 3d d4 8d 0a 3d
       -0.008563545 0.032356028 0.07860971 0.033826664
000280 c7 84 a0 bc 9b 46 00 bd 4f ec 39 bd 58 a8 63 bd
       -0.019594563 -0.031317335 -0.045391377 -0.055580467
000290 5c c5 2d bd 59 05 e6 bc 90 a6 7b 3c 5d 46 3c 3d
       -0.042424545 -0.028078722 0.015359536 0.04596554
0002a0 e3 3a a7 bb ea d6 c7 3d 9a 39 2c 3d 4e 36 11 bd
       -0.0051034554 0.097577885 0.04204712 -0.03545218
0002b0 f2 0a 77 bc 24 7f b1 3a bd a0 90 3d e2 52 f7 bc
       -0.015078293 0.0013541919 0.070619084 -0.030190889
0002c0 86 5b fc 39 76 d6 e4 3c 07 cd bd bc fd 6c 99 3d
       0.00048133376 0.027934294 -0.023169054 0.07491491
0002d0 e5 28 95 bd 78 e8 6d bd c9 52 f4 bc 59 1c 2f 3c
       -0.07283191 -0.058083028 -0.029824631 0.010687911
0002e0 94 6a 38 3d db 6a ae 3b 5a dd 85 3d 5e 2a d5 3c
       0.045023516 0.0053227968 0.0653636 0.026021179
0002f0 c1 64 8f 3d 25 bc a2 bc 27 f3 61 bc f7 3b 08 bc
       0.07001639 -0.019865105 -0.013790882 -0.008315078
000300 3c 62 e1 bc a5 a4 80 3d f3 df 66 39 10 a3 60 bd
       -0.027512662 0.062814035 0.00022017937 -0.05484301
000310 1a 73 c3 3d a8 20 68 3d a0 fa 31 bd fe 71 d7 bc
       0.09543438 0.05667177 -0.043451905 -0.026299473
000320 ec 3b ae 3d 55 19 e0 3b aa 47 00 3d ff 74 86 3d
       0.08507523 0.0068389573 0.031318344 0.06565284
000330 0f 69 d1 3c d1 73 11 bd c4 16 da bc 14 a1 aa 3d
       0.025562791 -0.03551084 -0.026622184 0.083315045
000340 eb 90 09 3b 42 ff 8b bd 06 5f 59 3d 32 fe 83 3d
       0.002099092 -0.06835796 0.053069137 0.06444968
000350 2f 41 07 bd 5d 5b 4c 3d 77 60 56 3c 9a f3 bd bc
       -0.03302115 0.04989182 0.013084522 -0.023187447
000360 bf 8a 07 bc 62 e0 d4 3c 25 6f 83 3d 99 84 73 bc
       -0.008272826 0.0259859 0.064176835 -0.014863157
000370 5f ed 94 3a 01 3f b4 3c f8 7a 87 bc 8a b1 f5 bb
       0.0011362246 0.022002699 -0.016538128 -0.007497971
000380 fb 08 b6 bc 23 a7 18 bd d8 d7 18 3d 36 9f 1d 3d
       -0.02222108 -0.03726877 0.03731522 0.038481914
000390 4b 13 36 bd ea 1c d1 3c cd 08 05 bd ea 1f 5f 3d
       -0.044451993 0.025526483 -0.032479096 0.054473795
0003a0 1d eb fe 3c 8c 91 43 bb 6f 0c c0 3d c7 f4 f9 3c
       0.03111797 -0.0029841391 0.093773715 0.030512227
0003b0 7b 96 58 bc 1a 70 d4 b9 c4 b2 5d 3d b4 f4 b5 3d
       -0.013219471 -0.00040519313 0.054125562 0.08884564
0003c0 2d 4f fd bc ca c0 7e 3c a5 c9 65 3d ec 74 f2 bb
       -0.030921543 0.015548894 0.056100506 -0.007399192
0003d0 18 4b 94 3b a4 8c f4 bc 61 ff 0f 3d 0e 02 5c 3c
       0.0045255534 -0.029852219 0.035155658 0.013428224
0003e0 cf bb 02 bd 6e d4 1a 3d 7a 15 cd 3b fc 09 45 3d
       -0.03191739 0.037800245 0.0062586637 0.048105225
0003f0 02 72 0c 3d 24 bf 19 bd a0 8e cd 3c 54 0f c7 bb
       0.034288414 -0.0375358 0.025092423 -0.0060748253

bns.0.weight f4 [256]
000000 f9 aa 79 3f cf e9 7a 3f a4 17 74 3f 59 49 72 3f
       0.9752651 0.98013014 0.9534857 0.9464317
000010 80 e6 72 3f 46 79 73 3f 87 7a 73 3f be a0 73 3f
       0.94882965 0.95106924 0.95108837 0.9516715
000020 00 6d 74 3f 96 25 74 3f 94 f9 74 3f df 39 74 3f
       0.9547882 0.9536985 0.95693326 0.95400804
000030 90 08 71 3f a7 34 72 3f 2a 21 75 3f 7e c0 73 3f
       0.9415369 0.9461159 0.9575373 0.95215595
000040 81 bf 75 3f f8 5b 71 3f a2 14 74 3f 40 34 72 3f
       0.95995337 0.9428096 0.95343983 0.9461098
000050 05 71 72 3f 53 23 76 3f 6d 4b 76 3f 3d b5 72 3f
       0.94703704 0.9614765 0.9620884 0.948078
000060 46 9c 75 3f d3 4e 72 3f f2 56 75 3f 28 51 74 3f
       0.9594158 0.94651526 0.95835793 0.95436335
000070 1b 33 75 3f 15 1b 70 3f 35 0a 70 3f bb 61 70 3f
       0.95781106 0.93791324 0.93765575 0.93899125
000080 70 47 77 3f 87 64 72 3f da 32 72 3f 81 8f 70 3f
       0.9659338 0.9468464 0.94608843 0.9396897
000090 b9 c5 70 3f 89 97 71 3f d4 c7 73 3f c4 b1 70 3f
       0.940517 0.9437185 0.9522679 0.9402125
0000a0 ee e3 74 3f 66 41 73 3f 0e 82 77 3f af d3 76 3f
       0.95660293 0.95021665 0.9668282 0.96416754
0000b0 94 c4 73 3f f7 b8 73 3f 85 35 71 3f 3a cd 70 3f
       0.9522183 0.9520411 0.9422229 0.9406315
0000c0 3c ac 79 3f cd 2c 73 3f 37 67 74 3f 22 63 74 3f
       0.97528434 0.94990236 0.95469993 0.95463765
0000d0 ec 37 73 3f 04 95 74 3f f1 1a 72 3f 7b 25 73 3f
       0.95007205 0.9553988 0.9457236 0.94979066
0000e0 26 de 76 3f 8c 69 71 3f c4 3b 6a 3f 51 72 74 3f
       0.9643272 0.94301677 0.91497445 0.95486933
0000f0 97 95 70 3f 07 b0 73 3f 8f 34 73 3f 72 44 73 3f
       0.93978256 0.9519047 0.95002073 0.95026314
000100 37 b7 74 3f 48 b8 75 3f 00 fe 73 3f 46 c5 78 3f
       0.95592064 0.95984316 0.9530945 0.97176015
000110 0f ab 71 3f f3 fe 73 3f 97 f9 76 3f e1 41 73 3f
       0.9440164 0.95310897 0.96474594 0.950224
000120 2f a8 77 3f 38 a2 71 3f 26 00 74 3f d1 8f 6d 3f
       0.96741 0.9438815 0.95312726 0.9279757
000130 70 56 73 3f 81 56 73 3f 5e 98 6f 3f b1 6e 73 3f
       0.9505377 0.9505387 0.9359187 0.95090777
000140 08 92 73 3f 90 06 73 3f 2f 67 74 3f 4a b0 6f 3f
       0.951447 0.9493189 0.95469946 0.9362837
000150 ad cf 76 3f 6a 64 70 3f ff be 76 3f ad 4b 70 3f
       0.9641064 0.9390322 0.96385187 0.9386547
000160 96 99 74 3f d8 92 74 3f 5f 79 76 3f a7 89 73 3f
       0.95546854 0.95536566 0.9627895 0.95131916
000170 63 b9 72 3f 22 4f 73 3f 92 f4 72 3f f7 5f 74 3f
       0.9481413 0.9504262 0.94904435 0.9545893
000180 e3 b5 77 3f 6c b0 77 3f 30 d5 6f 3f 40 76 72 3f
       0.9676191 0.96753573 0.93684673 0.94711685
000190 bd af 73 3f a7 43 75 3f cc 96 73 3f 0b 2d 71 3f
       0.9519003 0.95806354 0.9515197 0.94209355
0001a0 bc b8 78 3f 5f b5 71 3f 4a 21 75 3f 00 ee 74 3f
       0.9715688 0.94417375 0.9575392 0.9567566
0001b0 c5 20 6f 3f 58 b8 70 3f 6b 96 74 3f e7 f4 72 3f
       0.9340938 0.94031286 0.9554202 0.9490494
0001c0 8c 0e 78 3f ac bc 7c 3f 2d 64 76 3f 5b 43 78 3f
       0.96897197 0.9872539 0.96246606 0.96977776
0001d0 76 68 72 3f 0e ee 74 3f 80 62 7a 3f b2 f6 72 3f
       0.94690645 0.9567574 0.9780655 0.9490768
0001e0 5d 94 71 3f 7f f3 6f 3f 4c a3 73 3f 1f fc 74 3f
       0.9436701 0.9373092 0.95171046 0.95697206
0001f0 ec 90 75 3f a8 84 6c 3f 8b a3 72 3f ab 65 73 3f
       0.9592426 0.9238992 0.94780797 0.9507701
000200 03 7e 74 3f ee 66 72 3f 31 3d 70 3f 39 9e 74 3f
       0.9550478 0.9468831 0.9384337 0.9555393
000210 81 b6 73 3f 6a 21 77 3f 17 e7 71 3f e6 75 76 3f
       0.95200354 0.9653536 0.9449324 0.9627365
000220 97 f4 75 3f 51 fb 70 3f 47 cc 71 3f 50 07 76 3f
       0.9607634 0.9413348 0.9445233 0.9610491
000230 e0 6f 75 3f 8d 8c 73 3f 58 07 72 3f 4d 5e 73 3f
       0.9587383 0.9513634 0.94542456 0.95065767
000240 e4 22 77 3f 49 9c 76 3f 6b f3 73 3f 6a 3d 72 3f
       0.96537614 0.9633222 0.952933 0.9462496
000250 82 b1 71 3f 01 cc 74 3f 53 66 6e 3f 6c 41 75 3f
       0.9441148 0.95623785 0.93124884 0.9580295
000260 a0 f3 71 3f fe 0b 75 3f e2 1e 72 3f d9 6f 78 3f
       0.9451237 0.95721424 0.94578373 0.97045666
000270 68 84 73 3f ac 55 74 3f 9a 92 73 3f 83 f2 75 3f
       0.9512391 0.95443225 0.9514557 0.9607317
000280 f3 35 71 3f 6d 57 72 3f 9e dd 76 3f 25 b1 76 3f
       0.94222945 0.9466465 0.9643191 0.9636405
000290 57 5d 74 3f a2 38 71 3f bf 71 74 3f 50 3f 72 3f
       0.95454925 0.9422704 0.9548606 0.9462786
0002a0 92 60 73 3f 3f 36 77 3f 30 71 71 3f 44 ee 75 3f
       0.9506923 0.9656715 0.94313335 0.9606669
0002b0 3e 47 72 3f f9 95 73 3f 74 41 72 3f a6 7d 72 3f
       0.94639957 0.95150715 0.94631124 0.94722974
0002c0 10 8d 71 3f be 0e 77 3f 3d e2 71 3f 92 01 77 3f
       0.9435587 0.9650687 0.9448584 0.9648677
0002d0 4d 57 74 3f 56 89 73 3f bd a3 75 3f ac c7 75 3f
       0.9544571 0.95131433 0.9595297 0.960078
0002e0 ef 38 74 3f 5f 85 73 3f c2 c6 74 3f d4 63 77 3f
       0.95399374 0.95125383 0.9561578 0.966367
0002f0 32 4b 77 3f 5f 01 73 3f 47 cd 76 3f e9 65 75 3f
       0.96599114 0.9492397 0.9640698 0.9585863
000300 06 db 74 3f c3 dc 74 3f d3 81 73 3f c8 4c 73 3f
       0.95646703 0.95649356 0.9511997 0.95039034
000310 c1 5e 77 3f 3d bb 74 3f 72 c8 70 3f f8 90 75 3f
       0.9662896 0.955982 0.94055855 0.9592433
000320 fa 71 74 3f 8c 22 73 3f ee e9 6f 3f 02 3b 75 3f
       0.95486414 0.9497459 0.93716323 0.95793164
000330 2e 68 71 3f 4f 6f 71 3f 8b 5c 76 3f 2f 1a 77 3f
       0.9429959 0.9431047 0.9623496 0.9652433
000340 00 4f 77 3f 04 00 76 3f 65 f6 6c 3f 90 f0 75 3f
       0.9660492 0.96093774 0.9256347 0.96070194
000350 80 04 72 3f d7 91 78 3f 78 07 73 3f 26 fb 73 3f
       0.94538116 0.97097534 0.9493327 0.953051
000360 4c 7e 6f 3f 57 48 73 3f c3 db 77 3f c1 e9 71 3f
       0.9355209 0.95032257 0.96819705 0.94497305
000370 ca 56 75 3f c0 d4 75 3f 0d a8 75 3f 7b b0 70 3f
       0.95835555 0.96027756 0.9595955 0.9401929
000380 84 bf 73 3f 73 d1 71 3f 06 96 73 3f f4 b6 71 3f
       0.95214105 0.9446022 0.9515079 0.9441979
000390 75 49 75 3f 8d 52 72 3f 1d 4e 70 3f 08 26 76 3f
       0.9581521 0.9465721 0.9386919 0.9615178
0003a0 65 71 6e 3f b0 3e 73 3f 78 3c 6e 3f ad 20 72 3f
       0.93141776 0.9501753 0.9306102 0.9458111
0003b0 90 83 74 3f 7f 4a 75 3f 40 1c 72 3f 27 ee 74 3f
       0.9551325 0.95816797 0.94574356 0.9567589
0003c0 52 05 70 3f d2 5a 77 3f 86 ae 70 3f e6 47 73 3f
       0.9375812 0.96622956 0.940163 0.95031583
0003d0 36 0b 76 3f 69 29 73 3f f1 fb 76 3f 98 36 73 3f
       0.96110857 0.9498506 0.9647818 0.9500518
0003e0 0b 9d 73 3f 15 e6 71 3f fe 2a 76 3f 7a 2d 77 3f
       0.95161504 0.944917 0.9615935 0.96553767
0003f0 57 26 70 3f 75 c0 73 3f 9b 5a 73 3f 9e ba 70 3f
       0.938085 0.9521554 0.9506013 0.94034755
