output/dmd/prev_e2v/run_006/prev_dmd_best_model_e2v.pth (torch, 207541 bytes, 14 tensors)

convs.0.lin_l.weight f4 [256, 32]
0	0x3b445e5d	0.0029963471
1	0x3e0bc145	0.13647945
2	0x3e1b704d	0.15179558
3	0x3d8f3865	0.06993178
4	0x3d9ae0a7	0.0756238
5	0x3a9eb7af	0.0012109185
6	0x3d7d7cfb	0.06188677
7	0x3e227417	0.15864597
8	0xbe36849c	-0.17824024
9	0xbe0d357d	-0.13789935
10	0xbe0c547e	-0.13704106
11	0xbd9205ce	-0.071300134
12	0xbd5f673d	-0.054541815
13	0xbdb40368	-0.08789712
14	0xbd92d2ac	-0.07169089
15	0x3d66b695	0.056326468
16	0xbd59471f	-0.053046342
17	0xbd602975	-0.054727037
18	0xbe0d843d	-0.13819976
19	0xbe04653f	-0.12929247
20	0x3e1d544e	0.15364191
21	0xbe1d2f1e	-0.15350005
22	0x3df884a8	0.12134677
23	0xbe1d5e50	-0.15368009
24	0xbe299729	-0.1656157
25	0xbd6277b7	-0.05528995
26	0xbd424320	-0.047427297
27	0x3de0782e	0.109604225
28	0x3c97b23b	0.018517604
29	0xbdad288d	-0.08455
30	0xbe051717	-0.1299709
31	0x3de40211	0.11133207
32	0xbc921d41	-0.017836215
33	0xbdd23b16	-0.10265176
34	0xbc854ea6	-0.016272854
35	0x3d11e4f2	0.03561873
36	0x3dd4738b	0.103736006
37	0xbd28c698	-0.04120502
38	0x3e13664f	0.14394496
39	0xbd584366	-0.05279865
40	0xbdee9be9	-0.11650831
41	0x3dcca905	0.099931754
42	0xbdde2ba9	-0.10848171
43	0xbc67124a	-0.014103482
44	0x3cde7cd1	0.027159126
45	0x3d523629	0.051321182
46	0xbda7651f	-0.08173584
47	0xba4165ef	-0.0007377555
48	0xbda6f424	-0.08152035
49	0xbd527d51	-0.051389042
50	0x3d0cd638	0.034383982
51	0x3e39564d	0.18099327
52	0xbdeddf3a	-0.11614843
53	0x3e25be1e	0.16185805
54	0x3db09be6	0.08623485
55	0x3b7652ba	0.003758593
56	0xbe10e2dc	-0.1414904
57	0x3de92c11	0.11385358
58	0x3da3b66b	0.07993778
59	0x3d61381f	0.054985162
60	0xbda3af42	-0.07992412
61	0x3e0448ca	0.12918392
62	0x3e05bb72	0.13059786
63	0x3d5db4ef	0.05412763
64	0x3d729050	0.05921966
65	0xbdca895c	-0.098894805
66	0x3dcdf7de	0.100570425
67	0xbdfce48d	-0.1234828
68	0xbd9604bd	-0.073251225
69	0x3d4995b7	0.049215045
70	0xbbabf569	-0.005247761
71	0x3d3e28de	0.046425693
72	0xbce2ab57	-0.027669592
73	0x3ce27925	0.027645657
74	0xbda22531	-0.0791725
75	0xbbf26f08	-0.00739849
76	0x3d7d6b37	0.061869826
77	0xbb474b92	-0.0030410034
78	0xbd7c7a64	-0.06164016
79	0xbe1319e8	-0.14365351
80	0x3de60ef3	0.1123332
81	0xbde0a5ef	-0.10969149
82	0x3d8c6b81	0.06856442
83	0x3dfdf1e0	0.123996496
84	0x3de580df	0.11206221
85	0xbc0a858c	-0.008454692
86	0x3e3f8786	0.18704042
87	0xbda6c95c	-0.08143875
88	0xbe12a7e2	-0.14321855
89	0xbe14273b	-0.1446809
90	0xbd66b1d0	-0.05632192
91	0xbe119d16	-0.1422008
92	0xbc471726	-0.012151515
93	0x3c0e67ff	0.008691787
94	0x3dee5c37	0.11638682
95	0xbd39c583	-0.045354377
96	0x3d09c725	0.033637185
97	0x3cc4d5a8	0.02402766
98	0xbdf1629d	-0.11786387
99	0x3c8080c4	0.0156864
100	0xbe01adf7	-0.12664019
101	0x3e0237a3	0.12716536
102	0xbcf0f8c0	-0.029415488
103	0xbde2a48f	-0.11066543
104	0xbcaca4b9	-0.02107464
105	0x3df3f31b	0.11911603
106	0x3e069d39	0.13145913
107	0x3e0a23af	0.13490175
108	0x3c976f9b	0.018485835
109	0xbe0b34b3	-0.13594322
110	0x3c5e07f5	0.013551702
111	0x3e177922	0.14792302
112	0x3de6d4cc	0.112710565
113	0x3e123e9e	0.14281699
114	0x3e15fe49	0.14647783
115	0x3d1e0e49	0.038587842
116	0xbddd7519	-0.1081335
117	0x3da7a43a	0.081856206
118	0x3e18ce83	0.14922528
119	0x3d139f89	0.036040816
120	0x3e1e1e69	0.15441288
121	0x3dc2f805	0.09519962
122	0xbd82ab1e	-0.06380294
123	0xbdbfc331	-0.09363402
124	0xbdf3cfc4	-0.119048625
125	0xbdc9fcbb	-0.09862658
126	0x3dd2ab91	0.1028663
127	0x3deefceb	0.11669334
128	0x3e2db159	0.16962184
129	0xbcd988c7	-0.026554478
130	0xbd2bd107	-0.04194739
131	0x3e16a499	0.14711227
132	0x3e0e8259	0.13916911
133	0x3e0b1e82	0.13585857
134	0x3e0bf733	0.13668518
135	0xbe21071b	-0.15725367
136	0x3dacee8c	0.08443937
137	0x3d8f1edd	0.069883086
138	0x3def5e14	0.11687866
139	0xbc042263	-0.008064839
140	0x3df8a7b1	0.121413596
141	0xbdbb63a5	-0.09149865
142	0xbd096279	-0.033541176
143	0xbddc8175	-0.107668795
144	0x3b2e18ac	0.0026564999
145	0x3d828428	0.06372863
146	0x3cd69a45	0.026196608
147	0xbddda7b0	-0.108229995
148	0x3cd07e10	0.025450736
149	0x3d9d4f17	0.07681101
150	0x3d51a358	0.051181167
151	0xbd114dbf	-0.035474535
152	0x3d87ce16	0.06631105
153	0x3ddb1544	0.106974155
154	0x3e115f31	0.14196469
155	0xbd90465d	-0.07044671
156	0x3de17fe3	0.110107206
157	0x3da80cfe	0.08205603
158	0xbd9584f5	-0.0730075
159	0xbdf6d52c	-0.12052378
160	0x3c19d9b0	0.00939028
161	0x3cbe4d09	0.023230093
162	0xbd895cb2	-0.06707133
163	0x3cefe2d9	0.029282974
164	0x3c69f2fc	0.014279123
165	0x3cfa5534	0.030558206
166	0xbe26e6f5	-0.1629904
167	0x3d3024ce	0.04300385
168	0xbe1841a5	-0.14868791
169	0x3d6c91a9	0.0577561
170	0xbda7a7b6	-0.08186285
171	0x3b5a5c20	0.003331907
172	0xbddb8ad0	-0.10719836
173	0x3dbf1006	0.09329228
174	0xbdc3fd51	-0.09569801
175	0xbd810ba4	-0.063010484
176	0xbd491143	-0.049088728
177	0x3d9c84eb	0.076425396
178	0xbc0694a9	-0.008214154
179	0xbdcec118	-0.100954235
180	0xbdf1a6f1	-0.1179942
181	0x3e17c29b	0.1482033
182	0xbdbbc006	-0.09167485
183	0xbde5498a	-0.11195667
184	0x3d09eaa4	0.033671036
185	0x3e14cae7	0.14530526
186	0xbdf7769a	-0.12083168
187	0xbe1af0a5	-0.15130861
188	0xbe21f82d	-0.15817328
189	0xbe1204a3	-0.14259581
190	0xbbf306fb	-0.0074166036
191	0x3d6b61de	0.05746638
192	0x3c470a0f	0.012148394
193	0x3d6e731f	0.058215257
194	0xbe1dbc43	-0.15403847
195	0xbc05846e	-0.0081492495
196	0x3e00ba19	0.1257099
197	0xbbb24630	-0.005440496
198	0xbd711afc	-0.058863625
199	0x3d1c03c3	0.038089525
200	0xbe272fa2	-0.16326764
201	0xbda0188b	-0.07817181
202	0x3d44c4a2	0.048039086
203	0xbdfd8146	-0.123781726
204	0x3d8d39ea	0.06895812
205	0x3e19c4ae	0.15016434
206	0x3e00a742	0.12563804
207	0x3e001161	0.1250663
208	0x3c52ee08	0.012874134
209	0xbe2edfac	-0.17077512
210	0xbe01c3a7	-0.12672292
211	0xbe0a80be	-0.13525674
212	0x3a6e6bab	0.0009095023
213	0x3e28ccfe	0.16484448
214	0xbdbe4d6b	-0.0929211
215	0xbdc8d12c	-0.09805521
216	0x3dbf36cc	0.093366235
217	0xbe18d072	-0.14923266
218	0xbe1d2169	-0.15344776
219	0x3e21b1e0	0.1579051
220	0xbe112ecd	-0.1417801
221	0x3df9d274	0.12198344
222	0x3d940c76	0.07228939
223	0xbcdd5d59	-0.02702205
224	0x3caafd6d	0.020872796
225	0x3e1c5182	0.15265468
226	0x3e384a0a	0.17996994
227	0xbdfd8245	-0.123783626
228	0x3d9a6f3a	0.07540746
229	0x3d4a9b58	0.049464554
230	0x3dd58e48	0.104275286
231	0x3e14cca0	0.14531183
232	0xbe120ad6	-0.14261946
233	0x3e1cdc67	0.15318452
234	0x3b550bf0	0.0032508336
235	0xbe180e1a	-0.1484913
236	0xbd9e1878	-0.07719511
237	0xbcd81199	-0.026375579
238	0xbd904c85	-0.07045845
239	0xbe13183f	-0.14364718
240	0xbdb65656	-0.08903186
241	0x3e1d6257	0.15369545
242	0x3e01136b	0.12605064
243	0x3d05dfe3	0.03268422
244	0xbc26a429	-0.010170975
245	0x3cd546f3	0.026034808
246	0x3dd5a1bc	0.10431239
247	0xba26a98e	-0.0006357663
248	0x3dd4606e	0.10369955
249	0x3dbd93a8	0.09256679
250	0x3e0773a3	0.13227706
251	0xbda6ed6a	-0.08150752
252	0x3e1396d7	0.1441301
253	0x3d3514b4	0.044209197
254	0x3c8b3dba	0.016997207
255	0x3d612ad7	0.054972496

convs.0.lin_l.bias f4 [256]
0	0x3e2f95ca	0.17146984
1	0xbc87a768	-0.016559318
2	0xbdb5e8e2	-0.088823095
3	0xbdc3a648	-0.095532
4	0x3ddd7f22	0.10815264
5	0x3dba2ccf	0.09090578
6	0x3d4704c6	0.048588537
7	0x3e03357a	0.12813368
8	0xbd89d56b	-0.06730159
9	0xbdaedc50	-0.08538115
10	0x3d22c78a	0.039741077
11	0x3d873994	0.06602779
12	0xbbf23d79	-0.007392582
13	0xbe1e7805	-0.15475471
14	0xbc6908ef	-0.014223321
15	0x3e1eb5ed	0.15499087
16	0x3d4020b4	0.046906188
17	0x3dee0920	0.11622834
18	0xbe0a7cd0	-0.13524175
19	0x3c47b563	0.012189242
20	0xbbc21992	-0.0059234584
21	0xbe1b6689	-0.15175833
22	0x3cef9006	0.02924348
23	0x3dcc848e	0.0998622
24	0x3b65aed7	0.003504684
25	0x3d5deb90	0.054179728
26	0x3ddeaaae	0.10872398
27	0xbdab0ae3	-0.08351686
28	0x3db36824	0.087600976
29	0xbe1fdc4f	-0.15611385
30	0xbd58fa9d	-0.05297338
31	0x3c23ea51	0.010004596
32	0x3d052d2b	0.03251378
33	0x3cf2f3f1	0.029657336
34	0xbde2d8b1	-0.11076487
35	0xbdf5bbc0	-0.11998701
36	0xbe30e1e7	-0.17273675
37	0x3c91d6b5	0.017802576
38	0x3e3a87b5	0.1821583
39	0xbcb1de0c	-0.021712326
40	0xbd3cb1f3	-0.046068143
41	0x385bb19d	5.2379084e-05
42	0xbcacfe5e	-0.021117385
43	0xbe2ca2ff	-0.16859053
44	0xbe1f8b7c	-0.15580553
45	0xbcadb33b	-0.021203628
46	0x3e1c6034	0.15271074
47	0x3e19d9ea	0.15024534
48	0x3e05dd0e	0.13072607
49	0x3da1ed54	0.07906595
50	0x3cee5f94	0.02909831
51	0x3d9369ba	0.071979
52	0xbd5c1069	-0.053726587
53	0xbe20ed80	-0.15715599
54	0xbdbecc9a	-0.093163684
55	0xbbbe1ece	-0.005802012
56	0x3e188d04	0.14897543
57	0xbd1b792f	-0.037957367
58	0x3daa4bf4	0.08315268
59	0x3e03737b	0.12837021
60	0xbdacd699	-0.08439369
61	0xbd4b7e94	-0.04968126
62	0x3de0ace3	0.109704755
63	0xbdf0a961	-0.117510565
64	0x3d5214bb	0.0512893
65	0x3d30f61f	0.04320347
66	0xbc96a7ac	-0.018390499
67	0xbd90ed0f	-0.07076465
68	0xbb687d63	-0.0035475127
69	0xbe07281d	-0.13198896
70	0x3df3ec20	0.11910272
71	0x3d8a1138	0.067415655
72	0xbe0b5ff3	-0.1361082
73	0xbd24b7db	-0.0402144
74	0xbe201cd3	-0.15635996
75	0x3c671bea	0.014105776
76	0xbd423b9e	-0.047420137
77	0xbd995256	-0.074864075
78	0xbc095dc8	-0.008384176
79	0x3e30c952	0.17264298
80	0xbda27a18	-0.07933444
81	0x3e0567cd	0.13027878
82	0xbdb783f1	-0.08960713
83	0x3ba7cc2a	0.005120774
84	0xbe2fb472	-0.17158678
85	0xbdda6229	-0.10663254
86	0xbe1c7e6e	-0.15282604
87	0xbe1521df	-0.14563702
88	0xbe03cf50	-0.12872052
89	0x3dd50301	0.104009636
90	0xbdd46d0c	-0.103723615
91	0x3d7baab8	0.061442107
92	0xbcea1935	-0.028576473
93	0x3d593eb2	0.053038307
94	0xbde48019	-0.11157245
95	0x3ddbae4b	0.10726603
96	0xbe1c423a	-0.15259638
97	0xbc8ab344	-0.016931184
98	0xbddb79d4	-0.10716596
99	0x3d72260d	0.05911832
100	0x3e08b30d	0.13349552
101	0x3d6ab3c2	0.057300337
102	0x3c46c77d	0.012132523
103	0x3c21a240	0.009865344
104	0x3db1b66d	0.08677373
105	0xbdd59321	-0.10428453
106	0x3c87bffa	0.016571034
107	0xbd907754	-0.0705401
108	0x3dab0618	0.08350772
109	0x3cb4a7df	0.022052703
110	0xbe25f068	-0.16204989
111	0x3a59de1e	0.0008310991
112	0xbd083263	-0.033251178
113	0x3deab0e2	0.11459519
114	0x3d511853	0.051048588
115	0x3d77825a	0.060427047
116	0xbde91535	-0.11380998
117	0xbdd50549	-0.10401399
118	0x3dbed4ef	0.093179576
119	0xbbf7d5c3	-0.007563324
120	0x3def9801	0.11698914
121	0x3c288ee8	0.010287978
122	0xbde40906	-0.111345336
123	0xbdf25288	-0.11832148
124	0x3dcc93f3	0.099891566
125	0x3d4bf919	0.049798105
126	0xbe1d4c43	-0.15361123
127	0xbca72162	-0.02040166
128	0x3e27fe97	0.16405712
129	0xbe08d412	-0.13362148
130	0x3d558b1e	0.052134626
131	0x3ca8250c	0.020525478
132	0x3e0dcd40	0.13847828
133	0xbd9aa68c	-0.075512975
134	0xbe0e20e3	-0.13879733
135	0xbe09b79d	-0.13448949
136	0x3e219eda	0.15783253
137	0x3ce03f91	0.02737406
138	0x3cc30eec	0.023810826
139	0x3e1b4cb3	0.15165977
140	0xbdcf0bba	-0.101096585
141	0x3e1527b4	0.14565927
142	0x3ca4dd1c	0.020124964
143	0x3def0354	0.11670557
144	0xbd93240e	-0.07184611
145	0x3b8095d8	0.0039241128
146	0xbd96360c	-0.073345274
147	0x3d9cd63f	0.07658052
148	0xbd0d9d96	-0.034574114
149	0x3e40aa66	0.18815002
150	0x3de2179a	0.11039658
151	0xbd65780c	-0.05602269
152	0xbe12b39e	-0.14326331
153	0x3db3bc20	0.08776116
154	0xbdb5c649	-0.088757105
155	0xbd6020a1	-0.054718617
156	0xbe054f2c	-0.13018483
157	0x3cee4d78	0.029089674
158	0x3d017c18	0.031612486
159	0xbdd980a3	-0.10620239
160	0x3b9dff38	0.004821684
161	0xbd8c7665	-0.068585195
162	0xbe2b1fa7	-0.16711293
163	0x3e135ca4	0.14390808
164	0x3e32a7f2	0.17446879
165	0xbd23a548	-0.039952546
166	0xbd73f552	-0.059560128
167	0x3dcc9dd1	0.099910386
168	0xbd71c746	-0.059027933
169	0x3c2f92ad	0.010716123
170	0x3d6bc296	0.05755862
171	0x3e20294c	0.15640754
172	0x3b719fe8	0.0036868993
173	0x3db92c79	0.090416856
174	0x3ca6dce6	0.020369004
175	0x3e0b7a84	0.13620955
176	0xbde05c7e	-0.109551415
177	0x3c1e0fb3	0.009647298
178	0xbca70c5b	-0.020391634
179	0x38d1aeb2	9.998436e-05
180	0xbbe3c3a9	-0.0069508147
181	0x3dbeba80	0.09312916
182	0xbda68356	-0.08130519
183	0xbe0daa0a	-0.13834396
184	0xbe0edd5c	-0.1395163
185	0xbd60ae3f	-0.054853674
186	0xbc09a4f0	-0.008401141
187	0xbdc61446	-0.096718356
188	0x3d1f0b03	0.03882886
189	0xbd3c29a0	-0.045938134
190	0xbe22d228	-0.15900481
191	0xbb9f031b	-0.004852665
192	0x3e0bc4ae	0.13649246
193	0xbe153993	-0.14572744
194	0xbdc9ba05	-0.098499335
195	0xbd35dde3	-0.04440106
196	0x3db7c063	0.08972242
197	0xbdc2b43e	-0.09507035
198	0x3db00e1f	0.085964434
199	0x3dbb310c	0.09140214
200	0xba21369e	-0.0006149801
201	0xbd9242ce	-0.07141648
202	0xbdbe3418	-0.0928728
203	0xbd4ef7eb	-0.0505294
204	0x3b8d016e	0.004303149
205	0xbd2801b5	-0.041017253
206	0x3d8c710a	0.06857498
207	0xbd32957e	-0.043599598
208	0xbddaa6f9	-0.10676379
209	0xbd76c178	-0.0602431
210	0x3d2009d0	0.039071858
211	0x3d30350b	0.043019336
212	0xbe0cbbb8	-0.13743484
213	0xbdd81293	-0.10550418
214	0xbdc07d67	-0.093989186
215	0xbdeda624	-0.116039544
216	0x3da9dcdb	0.08294078
217	0x3e095d7b	0.13414566
218	0x3dcb79bb	0.099353276
219	0xbd38396c	-0.044976637
220	0xbbe49fd1	-0.0069770594
221	0x3e08107f	0.13287543
222	0xbd20ecbb	-0.039288264
223	0xbbe32327	-0.0069316807
224	0xbe104df2	-0.14092234
225	0xbdc2a113	-0.09503379
226	0xbd13b834	-0.03606434
227	0xbd97b617	-0.07407778
228	0xbd7c0d52	-0.06153614
229	0xbcbdec64	-0.023184009
230	0x3c0c6be6	0.008570647
231	0x3db3de3b	0.087826215
232	0xbdbb36ba	-0.09141298
233	0xbe39a63a	-0.18129817
234	0xbbbff184	-0.0058576483
235	0x3ced937e	0.029000994
236	0xbd16f356	-0.036853157
237	0x3dc35ae8	0.09538823
238	0xbe1a2bc7	-0.15055762
239	0x3e256b03	0.16154103
240	0xbd0412bb	-0.032244425
241	0xbdd7c3c5	-0.10535387
242	0xbdef8f04	-0.116972
243	0x3cc56583	0.024096256
244	0x3dbd95a9	0.09257061
245	0xbbf9e2d0	-0.007625915
246	0x3c2b02fa	0.010437721
247	0xbe04606b	-0.12927406
248	0x3d9d9bc7	0.07695728
249	0x3df043c2	0.11731674
250	0xbe148323	-0.1450315
251	0xbc7ae144	-0.015312497
252	0xbd24d259	-0.040239666
253	0x3d106e08	0.035261184
254	0xbccb4024	-0.024810858
255	0x3e243764	0.16036755

convs.0.lin_r.weight f4 [256, 32]
0	0x3e23d839	0.16000451
1	0xbe003af5	-0.1252249
2	0x3e1bb8fb	0.15207283
3	0xbd2a08ba	-0.04151223
4	0x3a8f453a	0.0010930665
5	0xbc9f6f37	-0.019462211
6	0xbd8fb76c	-0.07017407
7	0x3ddec4d0	0.10877383
8	0xbe011868	-0.12606966
9	0xbe29b5f4	-0.16573316
10	0xbba6e789	-0.005093519
11	0xbd529f2b	-0.051421326
12	0xbddc3f00	-0.10754204
13	0xbdc4791e	-0.09593414
14	0x3d0dce04	0.0346203
15	0xbbdc6bab	-0.006726702
16	0xbd87b018	-0.06625384
17	0xbb3425d4	-0.0027488368
18	0xbda0fcee	-0.078607425
19	0xbddfb572	-0.1092328
20	0x3d888544	0.066660434
21	0xbe197dfd	-0.14989467
22	0xbd7c9fb5	-0.061675746
23	0x3db737f2	0.089462176
24	0x3e0060a7	0.1253687
25	0xbc27010e	-0.010193123
26	0x3d3fa713	0.046790194
27	0x3df14dc3	0.1178241
28	0x3d3a7a54	0.045526817
29	0xbd2b1d50	-0.041776
30	0x3e1c371f	0.15255402
31	0x3e00d855	0.12582524
32	0xbe0cee8d	-0.13762875
33	0xbb8f7036	-0.0043773903
34	0x3ca9236e	0.020646777
35	0x3dbeb633	0.093120955
36	0xbe17a59c	-0.14809269
37	0xbdf984ed	-0.12183557
38	0x3daa2a81	0.08308888
39	0x3e38bcae	0.18040726
40	0xbab9013e	-0.001411475
41	0x3bd32b1e	0.006444349
42	0xbc74c699	-0.0149399275
43	0x3ce99403	0.02851296
44	0x3d554833	0.052070808
45	0x3e010b3b	0.1260194
46	0x3d6cdd1d	0.057828058
47	0x3da57abe	0.08080052
48	0xbdc4c3e2	-0.09607674
49	0xbe2896b1	-0.16463734
50	0xbe07bfcc	-0.13256758
51	0xbd2fc444	-0.042911783
52	0x3d2881f1	0.041139547
53	0xbd6163e0	-0.05502689
54	0xbcfc473f	-0.030795692
55	0xbe07314c	-0.13202399
56	0x3e10e9a3	0.14151625
57	0x3bf76f65	0.007551121
58	0xbd80a8b6	-0.06282179
59	0xbe334d07	-0.17509852
60	0xbddf3aa0	-0.10899854
61	0x3bd8715b	0.00660531
62	0xbd89f08e	-0.06735335
63	0x3e15d8b8	0.14633453
64	0xbdfdda4d	-0.12395153
65	0x3de54a00	0.11195755
66	0xbe03bcba	-0.12864962
67	0xbbaaa2d1	-0.0052073975
68	0xbde255ab	-0.11051496
69	0xbd54b6b8	-0.051932067
70	0xbda2ff71	-0.07958878
71	0x3dc112b6	0.09427397
72	0x3dccb579	0.09995551
73	0xbc0d5cb9	-0.008628064
74	0x3dcf4ee0	0.10122466
75	0x3d3e75cc	0.04649906
76	0x3d23852a	0.039921917
77	0xbd80017f	-0.06250285
78	0x3c6ef032	0.014583634
79	0xbda6240d	-0.08112345
80	0xbbef9489	-0.007311408
81	0x3dd75c3e	0.10515641
82	0x3dc8b679	0.09800429
83	0x3dd55b21	0.10417772
84	0x3db16f85	0.08663849
85	0xbe24d51e	-0.16096923
86	0xbcce5028	-0.025184706
87	0x3cc527db	0.024066856
88	0xbe438305	-0.19092949
89	0xbe1b7eda	-0.15185109
90	0xbd9bfaeb	-0.07616218
91	0xbe19a501	-0.1500435
92	0x3dd1f55c	0.10251877
93	0x3db1d5ae	0.08683334
94	0xbe033ae0	-0.12815428
95	0xbc69cfe7	-0.014270759
96	0x3bf75f06	0.0075491695
97	0xbd64bf28	-0.055846363
98	0x3c383cb8	0.011244945
99	0xbd865f24	-0.065611154
100	0xbdaa0229	-0.08301193
101	0xbde90105	-0.113771476
102	0x3e224a85	0.1584874
103	0xbe25d093	-0.16192846
104	0xbd7f5b0c	-0.06234269
105	0xbca94802	-0.020664219
106	0x3c1af0ac	0.009456795
107	0xbd915c23	-0.07097652
108	0xbbad8132	-0.0052949423
109	0xbe1bb72b	-0.15206592
110	0x3e3d2f4e	0.18475077
111	0xbe27484f	-0.16336177
112	0xbd11878e	-0.035529666
113	0x3dc61dc3	0.09673645
114	0x3d6e42d2	0.058169194
115	0xbe1e4442	-0.15455726
116	0x3e318669	0.1733643
117	0x3ddaca4c	0.10683116
118	0xbd7d7f28	-0.061888844
119	0xbcee716c	-0.029106818
120	0x3dcbb086	0.099457785
121	0xbd4f55a2	-0.050618775
122	0x3d390334	0.04516907
123	0xbcf93ce9	-0.030424552
124	0x3e032727	0.12807904
125	0xbe0e8634	-0.13918382
126	0x3defcae0	0.11708617
127	0x3e361b00	0.17783737
128	0xbcf09d4e	-0.029371884
129	0x3c9bdffe	0.019027706
130	0xbdbe5648	-0.092938006
131	0xbe0d1fad	-0.13781615
132	0x3da568ec	0.08076653
133	0xbc91d138	-0.017799959
134	0xbd6b0606	-0.05737879
135	0xbe1c4837	-0.15261923
136	0xbdec78a1	-0.11546446
137	0xbe23167d	-0.15926547
138	0xbdd687c1	-0.10475112
139	0x3d5890c7	0.052872445
140	0xbc1c8bd9	-0.009554827
141	0xbe24794d	-0.16061898
142	0xbe09575b	-0.1341223
143	0x3e10e8d2	0.14151314
144	0x3a550008	0.000812531
145	0x3d35c436	0.044376574
146	0x3db9a936	0.090654776
147	0x3dee0f43	0.11624005
148	0xbe2a07e7	-0.16604577
149	0xbc2d8801	-0.010591508
150	0x3d9d4950	0.07679999
151	0xbd627bab	-0.05529372
152	0x3dcd2c6b	0.10018238
153	0x3e2523e3	0.16126971
154	0xbd5866cc	-0.05283241
155	0xbe25d32d	-0.16193838
156	0x3ce1b003	0.02754975
157	0xbdc04b92	-0.09389414
158	0x3d57b7d0	0.05266553
159	0xbe0c8170	-0.13721251
160	0xbda28384	-0.07935241
161	0xbdeff133	-0.11715927
162	0x3e35ed6b	0.17766349
163	0xbd67dd94	-0.056607798
164	0x3d1700d2	0.036866017
165	0x3d573e93	0.05254991
166	0x3d2119dc	0.039331302
167	0x3d8a81e9	0.0676306
168	0xbe0a37ab	-0.13497798
169	0x3c94290e	0.018085983
170	0xbd75252b	-0.0598499
171	0x3c759542	0.014989199
172	0xbcb94d39	-0.02261983
173	0x3e0ee02c	0.13952702
174	0xbe029496	-0.12751994
175	0x3d298d60	0.04139459
176	0xbd4698be	-0.04848551
177	0x3e278acd	0.16361542
178	0xbc083b7d	-0.008314964
179	0xbe280504	-0.16408163
180	0x3dd07c20	0.10179925
181	0x3e12275d	0.14272828
182	0x3dd0f4fe	0.102029786
183	0xbc8ac888	-0.016941324
184	0x3e0e8aa9	0.13920082
185	0xbdc575c0	-0.096416
186	0x3df18bc5	0.11794237
187	0xbc0be91d	-0.008539465
188	0x3d9555e4	0.07291773
189	0xbe252419	-0.16127051
190	0xbdf1f88d	-0.118149854
191	0x3d408b45	0.047007818
192	0x3dd1c00d	0.10241709
193	0x3e19c3af	0.15016054
194	0xbe096585	-0.13417633
195	0xbe0f2a0d	-0.13980885
196	0xbd9779cf	-0.0739628
197	0xbe2f1458	-0.17097604
198	0xbb2c6b4a	-0.0026309066
199	0xbd991c91	-0.07476152
200	0xbda5b09d	-0.08090327
201	0x3cd55505	0.026041517
202	0x3d424a8e	0.047434382
203	0xbe19100c	-0.14947528
204	0xbe06b366	-0.13154373
205	0x3e033abe	0.12815377
206	0x3af14e47	0.0018410169
207	0x3df0299e	0.11726688
208	0xbd4cab35	-0.049967963
209	0xbe0ba282	-0.1363621
210	0xbcd66d95	-0.0261753
211	0xbe184113	-0.14868574
212	0xbe272091	-0.16321017
213	0x3cafc3a7	0.021455599
214	0xbdfd5231	-0.123691924
215	0xbdd5adb2	-0.104335204
216	0x3c8b2208	0.016984
217	0xbdc1e3df	-0.09467291
218	0xbda2a21e	-0.07941078
219	0x3e2502a1	0.16114284
220	0x3bf48f87	0.007463399
221	0xbd1f8312	-0.038943358
222	0x3b81c0df	0.0039597596
223	0xbe05d94d	-0.13071175
224	0xbd9054cf	-0.07047426
225	0x3dae10e9	0.08499319
226	0x3e463c9c	0.19359058
227	0x3ce26f61	0.027641
228	0xbd7beb85	-0.061503906
229	0xba90522c	-0.0011010817
230	0xbddf0d21	-0.10891176
231	0xbd8936c9	-0.066999026
232	0xbe071674	-0.13192159
233	0xbd8dffd6	-0.069335625
234	0xbe064059	-0.13110484
235	0x3c379828	0.0112057105
236	0xbdea262a	-0.114330605
237	0xbdd83720	-0.10557389
238	0x3d051267	0.032488253
239	0xbce762ef	-0.028245417
240	0xbd92ae17	-0.07162111
241	0xbd4a86be	-0.049444906
242	0x3e0cc78b	0.13747995
243	0xbd1df15e	-0.038560264
244	0xbda57fc8	-0.08081013
245	0xbd9988c6	-0.074967906
246	0xbde3d755	-0.11125056
247	0xbe23be43	-0.15990548
248	0x3defd2a7	0.117101006
249	0x3d98f0a4	0.074677736
250	0x3d493fb6	0.049133025
251	0x3d0474cb	0.032337945
252	0xbde9c5ed	-0.114147045
253	0xbd274216	-0.04083451
254	0x3e1a3009	0.15057386
255	0xbd99ae2d	-0.075039245

convs.1.lin_l.weight f4 [64, 256]
0	0xbca9f7ac	-0.020747982
1	0x3d79a37e	0.060946934
2	0x3dd2bfd6	0.10290496
3	0x3d461247	0.048357274
4	0xbd10736d	-0.03526633
5	0x3db0d813	0.08634963
6	0x3d97ecbd	0.07418201
7	0x3c8cb8fc	0.017178051
8	0xbd5a3d56	-0.05328115
9	0xbc7eaa50	-0.015543535
10	0x3dbd4b6f	0.092429034
11	0xbcde715d	-0.027153665
12	0x3d9f247c	0.07770631
13	0xbc8d4e8c	-0.017249368
14	0xbd11417e	-0.03546285
15	0x3ce756b2	0.028239582
16	0xbcfda57b	-0.030962696
17	0x3caec0cd	0.021332169
18	0x3e1f94ba	0.15584078
19	0xbc45a491	-0.0120631615
20	0x3d421bee	0.047389917
21	0x3bd0e663	0.0063751205
22	0x3c3c65cd	0.011498881
23	0xbcf59fb5	-0.02998338
24	0x3d076484	0.033054844
25	0xbd180cce	-0.037121587
26	0x3cd7df3a	0.02635156
27	0xba0a0f24	-0.00052665384
28	0x3dc9ff65	0.09863166
29	0x3cdced29	0.026968556
30	0x3db8eaef	0.09029185
31	0xbd4a23d1	-0.049350563
32	0xbd457018	-0.048202604
33	0xbd3ea00b	-0.046539348
34	0x3ce8a7b2	0.028400276
35	0xbccd988d	-0.025097156
36	0xbd3c41d3	-0.045961212
37	0x3dcc8d2a	0.099878624
38	0x3d4e4bfb	0.05036543
39	0xbc2f3d94	-0.010695834
40	0x3db2b049	0.0872503
41	0x3cc563b3	0.024095392
42	0xbc7610c7	-0.0150186485
43	0x3d7e3937	0.062066283
44	0x3dd8b7bd	0.1058192
45	0x3cf2af14	0.0296245
46	0x3dab7152	0.083712235
47	0xba952cbf	-0.0011381133
48	0xbc9414d9	-0.018076347
49	0x3d08bf5c	0.03338562
50	0x3dabc14f	0.0838648
51	0xbd43c70d	-0.04779725
52	0x3c9f7db4	0.01946912
53	0xbd32df1d	-0.04366981
54	0x3d2dde0d	0.042448092
55	0x3da5d523	0.08097293
56	0x3d8cdfb1	0.06878603
57	0x3eab0d44	0.33408558
58	0x3d195ce1	0.03744209
59	0x399d8442	0.00030043913
60	0x3da52ce5	0.080652036
61	0x3d78ab49	0.060710225
62	0xbc91a6ed	-0.017779792
63	0x3c9f0ade	0.019414362
64	0xbc33b347	-0.010968036
65	0x3bee6b15	0.0072759488
66	0x3d0b50c0	0.034012556
67	0x3db29f82	0.0872183
68	0x3d9695a1	0.07352758
69	0x3ccd417d	0.025055641
70	0x3c12bc42	0.008956017
71	0x3c09f188	0.008419402
72	0x3c927e6a	0.017882545
73	0x3ddef81f	0.10887169
74	0xbbbb6b23	-0.005719559
75	0x3da1fa42	0.07909061
76	0xbc8b64bf	-0.017015813
77	0x3cd482d4	0.02594129
78	0x3e0693ed	0.13142367
79	0xbb1909e6	-0.0023351847
80	0x3961c0c7	0.00021529487
81	0x3a93eb96	0.001128542
82	0x3e0e88db	0.13919394
83	0xbd177204	-0.03697397
84	0x3d2a1459	0.04152331
85	0xbd1b21e8	-0.037874132
86	0x3d2110db	0.039322715
87	0xbc950804	-0.018192299
88	0x3cce7779	0.025203453
89	0x3d007fc0	0.031371832
90	0x3de26bfd	0.110557534
91	0x3cf6f6a1	0.030146899
92	0xb98d1775	-0.00026911093
93	0x3d0abf2a	0.033873715
94	0x3d766063	0.060150515
95	0xbb1a9d2f	-0.0023592224
96	0x3e028caa	0.12748972
97	0xbc4fa5f0	-0.01267384
98	0x3d05a8b5	0.032631595
99	0xbcc29d9b	-0.023756793
100	0x3c88d200	0.016701698
101	0x3d930700	0.071790695
102	0x3d9e49e5	0.07728938
103	0x3db0d5ba	0.08634515
104	0x3d2be255	0.041963894
105	0xbcd84a51	-0.026402624
106	0x3d250bdf	0.040294524
107	0x3c82cfa1	0.015968146
108	0x3d07969d	0.03310262
109	0x3cbe29f7	0.02321337
110	0xbb9599e1	-0.004565463
111	0x3c9486cb	0.01813068
112	0x3d8c6493	0.068551205
113	0x3c284375	0.010269989
114	0x3cce69a6	0.025196861
115	0x3c077a42	0.008268895
116	0x3dd4b265	0.103855886
117	0xbc5cfb56	-0.0134876575
118	0xbc5c3a56	-0.013441643
119	0xbd577f0f	-0.052611407
120	0x3c8bc604	0.017062195
121	0x3d201edf	0.03909194
122	0x3d8bdb1f	0.068289034
123	0x3d1271f3	0.0357532
124	0x3d4c60ec	0.04989712
125	0x3bf13750	0.00736133
126	0xbd1d810a	-0.03845314
127	0x3ccc849a	0.024965573
128	0x3cdb8964	0.026798911
129	0x3c38a6db	0.01127025
130	0xbd3a38ff	-0.045464512
131	0xbd79fad8	-0.06103024
132	0x3da087a2	0.0783837
133	0x3df0fee8	0.117673695
134	0x3cea8ab7	0.028630598
135	0xbc7adfbb	-0.015312131
136	0x3dc85961	0.09782673
137	0x3d8205f2	0.0634879
138	0xbc7a3eee	-0.015273793
139	0x3cf7895b	0.030216863
140	0x3ac006e1	0.0014650488
141	0x3c9cf936	0.019161802
142	0x3e44fcb5	0.19237025
143	0x3de5da23	0.11223247
144	0x3dae14e2	0.08500077
145	0xbd1d701a	-0.038436987
146	0x3cf58c88	0.029974237
147	0xbd244b5a	-0.040110923
148	0xbd278c39	-0.04090521
149	0x3c84bf79	0.016204583
150	0x3e0df790	0.13863969
151	0xbd2e3035	-0.042526443
152	0x3d8ed20f	0.06973659
153	0xbd0183c1	-0.03161979
154	0x3b25f10e	0.0025320682
155	0x3d267aa2	0.040644296
156	0x3de3420b	0.11096581
157	0x3b3d676f	0.0028900763
158	0x3e00e5f7	0.12587725
159	0x3d371dd4	0.04470618
160	0x3e0a158c	0.13484782
161	0x3d742c00	0.059612274
162	0x3c549cec	0.012976866
163	0x3db88305	0.09009365
164	0xbc4e7ebe	-0.01260346
165	0xbd277e1f	-0.040891763
166	0x3d136bd5	0.03599151
167	0x3e213dca	0.15746227
168	0x3d04d77a	0.032432057
169	0x3d60ca16	0.054880224
170	0xbd1421bc	-0.036164984
171	0x3ce1de94	0.027571954
172	0xbc9bdad7	-0.01902525
173	0x3d1d5030	0.03840655
174	0xbc4bde71	-0.012443171
175	0x3dadfb18	0.08495158
176	0x3d66ce24	0.056348935
177	0x3dfef582	0.12449171
178	0x3e26fba3	0.1630693
179	0x3cd4fca5	0.025999377
180	0xbc532dc7	-0.012889332
181	0x3dedc243	0.11609318
182	0x3d951104	0.07278636
183	0x3ddebce7	0.10875874
184	0xba839b81	-0.0010040851
185	0x3d364d49	0.0445073
186	0x3d3deb44	0.046366945
187	0xbd514ccc	-0.05109863
188	0x3e57a236	0.21057972
189	0xbc6498db	-0.013952459
190	0x3ddbd092	0.10733141
191	0x3d3d2fb5	0.046188075
192	0xbd7bf858	-0.061516136
193	0x3c12281d	0.008920697
194	0x3d2c7bf5	0.042110402
195	0x3d271fc8	0.040801793
196	0x3d798a62	0.060922988
197	0x3d329ae9	0.043604765
198	0xbca49de1	-0.020094814
199	0x3cd1cbe9	0.025609927
200	0x3e0ca3e3	0.13734393
201	0x3d1d4615	0.038396914
202	0xbd5293f1	-0.05141062
203	0x3d54a2ab	0.051912945
204	0xbd1380e1	-0.03601158
205	0x3e2b61fe	0.167366
206	0x3ca72cb7	0.020407064
207	0x3d7f294c	0.062295243
208	0x3c78cd7e	0.015185712
209	0xbd40d47c	-0.04707764
210	0x3d49687d	0.049171913
211	0xbc6f379b	-0.01460066
212	0x3cd12cee	0.02553412
213	0x3d9996e3	0.074994825
214	0x3cc5a9f3	0.02412889
215	0x3ddb4ea6	0.107083604
216	0x3c9033ca	0.01760282
217	0x3da224f1	0.07917202
218	0x3d0b2e57	0.03397974
219	0xbc932b6f	-0.017965047
220	0x3e00cc97	0.12578045
221	0x3e35b947	0.17746459
222	0x3ca301db	0.019898346
223	0x3dfe8037	0.12426799
224	0x3def1619	0.11674137
225	0x3d6dbbee	0.05804055
226	0x3c179407	0.009251601
227	0x3e1231e6	0.14276847
228	0x3d149b0f	0.036280688
229	0x3cc0f6cd	0.023555184
230	0xbc44856f	-0.011994704
231	0xbd073a14	-0.033014372
232	0xbb6f6507	-0.0036528723
233	0xbcc2d951	-0.023785265
234	0xbc8b76bf	-0.017024396
235	0x3da71d8d	0.08159933
236	0x3de363e7	0.11103039
237	0x3dab2ff8	0.08358759
238	0x3d2f0fe9	0.042739782
239	0xbd8655dc	-0.06559345
240	0x3d89750a	0.067117766
241	0x3e04cf3c	0.12969679
242	0x3ce9c449	0.028535979
243	0xbd5ce9cf	-0.053933915
244	0x3d414c5b	0.04719196
245	0xbd14b71b	-0.036307435
246	0xbdb09a4b	-0.08623179
247	0xbc91c5fd	-0.017794603
248	0xbc404f72	-0.011737691
249	0x3c0dce8a	0.0086552
250	0xbd1d481d	-0.03839885
251	0x3b89799e	0.004195406
252	0x3d3bc86e	0.04584544
253	0xbd0cae0a	-0.034345664
254	0x3dc8ec06	0.09810643
255	0x3dbadde4	0.091243535

convs.1.lin_l.bias f4 [64]
0	0x3da569f2	0.08076848
1	0x3cd0adc7	0.025473488
2	0xbd54e070	-0.051971853
3	0x3c89db57	0.016828222
4	0x3dc23a47	0.09483772
5	0xbda2acf3	-0.07943144
6	0x3c1e6006	0.009666448
7	0xbcc347e2	-0.023837987
8	0xbd4e56d3	-0.05037577
9	0x3d7b83bd	0.061404932
10	0x3bc5ac09	0.006032471
11	0xbc067fda	-0.008209193
12	0x3d9a198d	0.07524405
13	0xbd5d0a93	-0.053965162
14	0x3d4725d8	0.048620075
15	0x3bb7edeb	0.005613079
16	0xbc6c78c9	-0.014433094
17	0x3c6ea39b	0.014565374
18	0xbd8fdfdc	-0.0702512
19	0x3c7d884a	0.015474388
20	0x3d2f00d5	0.042725403
21	0x3d3a37d6	0.045463406
22	0x3bb4f3b7	0.005522217
23	0x3cdca49c	0.02693396
24	0x3c610d87	0.013736135
25	0xbcb229ee	-0.02174851
26	0x3d638ff1	0.055557195
27	0xbc01af64	-0.007915352
28	0xbcd70754	-0.026248612
29	0x3d2c1a9d	0.042017568
30	0x3d7a60ab	0.061127346
31	0x3d04f928	0.032464176
32	0xbd2f3364	-0.04277362
33	0x3d174ae1	0.036936644
34	0x3d0d04b1	0.034428302
35	0xbd5570e7	-0.052109625
36	0xbbb8bcd4	-0.0056377444
37	0x3cce2b6d	0.025167191
38	0x3cf52bab	0.02992805
39	0x3c157ad0	0.009123519
40	0xbd145c57	-0.036220875
41	0xbc2741a4	-0.010208521
42	0x3cce8063	0.025207704
43	0x3d802117	0.062563114
44	0x3dc20cb0	0.09475076
45	0x3cdbf945	0.02685226
46	0xbd91efb2	-0.071257964
47	0xbc917e5b	-0.017760446
48	0xbd2dc8e0	-0.042427897
49	0xbccf6c5b	-0.025320223
50	0x3cb51f8a	0.022109766
51	0x3c1216bf	0.008916556
52	0x3d191993	0.037377905
53	0x3cb2ba7d	0.02181744
54	0x3d880b58	0.06642789
55	0x3d3d2573	0.046178292
56	0xbc9f6fdf	-0.019462524
57	0x3bcc571f	0.0062359716
58	0x3d3b134b	0.045672696
59	0x3ce036c3	0.027369862
60	0xbb164b03	-0.0022932894
61	0x3d623012	0.055221625
62	0x3d2b695d	0.04184853
63	0x3b4b8e40	0.003106013

convs.1.lin_r.weight f4 [64, 256]
0	0x3d310810	0.04322058
1	0x3dde13ce	0.10843621
2	0xbd08038f	-0.03320652
3	0xbd466131	-0.048432533
4	0xbd3b6b6a	-0.045756735
5	0x3d879dc2	0.06621887
6	0x3d23e13e	0.04000973
7	0x3db7e667	0.08979493
8	0x3db5735b	0.08859893
9	0xbd440773	-0.047858667
10	0xbda906d7	-0.08253258
11	0x3d9f9264	0.07791594
12	0xbd4b36ed	-0.04961293
13	0xbbd23516	-0.0064150197
14	0x3ba83fc4	0.0051345546
15	0xbd72f482	-0.059315212
16	0xbd29f01f	-0.041488763
17	0xbc4881fc	-0.012238022
18	0x3cff1695	0.031138698
19	0x3d8e159c	0.069377154
20	0x3c556ff4	0.01302718
21	0x3d50e3c4	0.050998464
22	0x3d97b22d	0.07407031
23	0x3ca901af	0.020630686
24	0x3d7d8e36	0.0619032
25	0xbcde53c0	-0.027139544
26	0x3d036be0	0.0320853
27	0xbce16622	-0.027514521
28	0xbda5ceee	-0.08096109
29	0x3cf0fcf3	0.02941749
30	0x3dbc9288	0.09207636
31	0x3d2096e9	0.03920642
32	0xbd8e1ab5	-0.06938688
33	0x3da976d9	0.082746215
34	0x3d0b3a19	0.033990953
35	0x3df96bfc	0.121787995
36	0xb961fc48	-0.00021551654
37	0x3c8fd75e	0.01755875
38	0x3d416ef3	0.04722495
39	0x3dff2ba3	0.12459495
40	0x3d37ce0e	0.044874243
41	0x3d51c366	0.051211737
42	0x3b9a38ca	0.004706477
43	0xbd5a29c6	-0.053262495
44	0x3d0d9034	0.03456135
45	0xbc44e192	-0.012016671
46	0x3d63825c	0.055544242
47	0xbd1b255f	-0.037877437
48	0x3d73d13e	0.05952572
49	0xbb2c601d	-0.0026302405
50	0xbc4b2b3a	-0.012400443
51	0xbc86af1a	-0.016440917
52	0xba96b31e	-0.0011497473
53	0x3d189e4f	0.03726035
54	0xbc290cc2	-0.010317983
55	0x3d1f3c50	0.038875878
56	0x3cce4e90	0.025183946
57	0x3df03947	0.11729675
58	0x3dc51b6d	0.09624372
59	0xbc7e6006	-0.015525823
60	0xbc002d21	-0.00782326
61	0xb99c6810	-0.0002983217
62	0x3c387892	0.011259215
63	0xbd05b73d	-0.032645453
64	0xbd90f60d	-0.070781805
65	0x3dcb2872	0.09919824
66	0xbd822d1a	-0.06356259
67	0x3dbf5807	0.09342962
68	0x3dacebcd	0.08443413
69	0x3dac9b30	0.08428037
70	0xbd13d46c	-0.036091253
71	0x3d96da2a	0.0736583
72	0xbcc9fd20	-0.024656832
73	0x3bb1d5df	0.0054271067
74	0x3d220d1e	0.03956329
75	0x3cf6ef9f	0.030143557
76	0x3c852df1	0.016257258
77	0x3c1c513e	0.009540854
78	0x3cd2ef5e	0.025748905
79	0xbd920392	-0.07129587
80	0xbd82d33b	-0.06387945
81	0xbd09c9ba	-0.033639647
82	0x3e03a0d9	0.12854327
83	0xbdda0bc9	-0.10646779
84	0x3d8bd2ba	0.06827302
85	0x3d222c0e	0.039592795
86	0xbd9b9536	-0.07596819
87	0x3d1993fc	0.037494645
88	0x3ce61115	0.028084317
89	0xbe0288ca	-0.12747493
90	0x3db977b5	0.090560354
91	0x3cbf8836	0.02338038
92	0x3dc4921c	0.09598181
93	0xb8aebd41	-8.332218e-05
94	0x3dfd3eb5	0.12365476
95	0xbd4fc3a5	-0.05072369
96	0x3d197c60	0.03747213
97	0xbdbf044a	-0.0932699
98	0x3d072d11	0.033001963
99	0xbd6e316c	-0.0581526
100	0xbc1624df	-0.009164064
101	0x3d494a0d	0.049142886
102	0x3d8484e1	0.06470657
103	0xbccaf834	-0.024776556
104	0x3b45a6da	0.0030159266
105	0x3c5cb286	0.013470298
106	0x3d0cb122	0.034348615
107	0x3c377bd8	0.01119896
108	0x3dc6d4ad	0.097085334
109	0xbd4cfa27	-0.05004325
110	0x3d72f2df	0.05931365
111	0x3d20ffeb	0.039306562
112	0xbd9bcd48	-0.07607514
113	0x3ce6ebdd	0.02818864
114	0x3ca63958	0.020291016
115	0x3e06eff6	0.13177475
116	0x3d4233c5	0.047412653
117	0x3c3f0c8b	0.011660705
118	0x3c4f28bd	0.01264399
119	0xbcf24a36	-0.029576402
120	0x3c38a681	0.011270166
121	0x3d99d59e	0.07511447
122	0x3d97794e	0.07396184
123	0x3ce137b5	0.027492383
124	0x3d113810	0.035453856
125	0xb9808612	-0.00024513953
126	0xbcdd432b	-0.027009567
127	0xbc82a7f6	-0.01594923
128	0x3d7e30e6	0.062058352
129	0x3dabdd08	0.08391768
130	0xbd0bd14e	-0.034135155
131	0x3d00b1fb	0.031419735
132	0xba2b8354	-0.0006542702
133	0x3d1f6f1f	0.038924333
134	0xb9a25184	-0.00030959782
135	0x3c1be51b	0.009515072
136	0xbd7bbd91	-0.06146008
137	0x3d37dc61	0.044887904
138	0x3d9bdee8	0.07610875
139	0x3d8f7db3	0.07006397
140	0x3d2efd8b	0.042722266
141	0xbdc01c55	-0.09380404
142	0xbd83ec8a	-0.064416006
143	0xbb6fb943	-0.003657893
144	0x3e0159bd	0.12631889
145	0xbd4841e0	-0.04889095
146	0x3ccb3358	0.024804756
147	0x3d816d1b	0.06319638
148	0x3d58b9b3	0.05291147
149	0xbd2c7365	-0.042102236
150	0x3bd895b4	0.006609643
151	0xbc92c14d	-0.017914439
152	0xbca47c63	-0.020078843
153	0xbd2b48e9	-0.04181758
154	0x3ded3e8f	0.11584198
155	0xbd6caed2	-0.05778391
156	0x3dbd2e00	0.092372894
157	0xbcf96e99	-0.030448245
158	0xbd1e2665	-0.038610835
159	0xbd9c2ba5	-0.07625512
160	0x3d5aa5b4	0.053380683
161	0x3d0e7737	0.03478166
162	0xbc85064a	-0.01623835
163	0x3dfc57f2	0.12321462
164	0x3c89aa4c	0.016804837
165	0xbc7b6672	-0.015344249
166	0x3dea3f23	0.114378236
167	0x3d4a29c1	0.049356226
168	0xbcd2734f	-0.025689749
169	0xbca02b05	-0.019551763
170	0xbd830ba7	-0.06398707
171	0x3d9ce20e	0.07660304
172	0x3d0c1a58	0.03420481
173	0x3dc39b23	0.09551074
174	0xbd7519f7	-0.059839215
175	0x3d46e043	0.048553716
176	0x3dd025bd	0.10163448
177	0x3db58c67	0.0886467
178	0x3dd4d7e2	0.10392739
179	0x3d4a0e65	0.049330134
180	0xbd9151e6	-0.07095699
181	0x3d534f24	0.051589146
182	0x3cd58598	0.026064679
183	0x3bca0518	0.006165158
184	0x3cd644b2	0.026155803
185	0x3d73788d	0.059441138
186	0xbcb3e826	-0.021961283
187	0xbd84fbb8	-0.06493324
188	0x3d8c6f43	0.06857159
189	0x3cdbb9e8	0.026822045
190	0x3cbd7fcf	0.023132233
191	0x3db03d9b	0.086055
192	0x3db8301c	0.08993551
193	0xbca6b761	-0.020351114
194	0xbd765c9b	-0.06014691
195	0x3ba27ab8	0.004958477
196	0x3d490e7a	0.04908607
197	0xbd1dc79b	-0.038520437
198	0xbb12a43a	-0.0022375719
199	0x3c761e4e	0.015021874
200	0x3c337210	0.010952488
201	0x3b6c3fdf	0.0036048812
202	0xbb3860ea	-0.0028133937
203	0x3cf64c18	0.030065581
204	0x3e0932cb	0.13398282
205	0x3dcd14c7	0.100137286
206	0xbd39b6b1	-0.045340244
207	0xbd9852d8	-0.07437676
208	0xbc105107	-0.008808381
209	0xbc682f67	-0.014171458
210	0x3d357f00	0.04431057
211	0x3dee5c9e	0.11638759
212	0xbd552c34	-0.05204411
213	0x3ce82589	0.02833821
214	0x3af211da	0.0018468455
215	0xbd4ff80c	-0.050773665
216	0x3cd55442	0.026041154
217	0x3d62e08f	0.055389937
218	0x3dbc9ce5	0.09209613
219	0x3dfe4329	0.124151535
220	0x3d1f873b	0.038947325
221	0xbc6ed36e	-0.014576776
222	0x3d4fceba	0.05073426
223	0x3e036c06	0.12834176
224	0x399aee45	0.00029550694
225	0x3d029d9e	0.031888597
226	0xbd65f012	-0.056137152
227	0x3d6ad42e	0.057331257
228	0x3b20b5a4	0.0024522329
229	0xbd2630e2	-0.040573962
230	0x3d80309e	0.06259273
231	0xbd7ceded	-0.06175034
232	0x3dc6d887	0.09709268
233	0x3dce3b75	0.10069934
234	0x3d9939ef	0.07481753
235	0xbcdd3c8b	-0.027006408
236	0xbcd1f859	-0.025631117
237	0xbd026f24	-0.031844273
238	0x3d773d95	0.060361464
239	0x3d8441bf	0.064578526
240	0x3c22efb1	0.009944842
241	0x3b9c9f33	0.00477972
242	0xbd911c37	-0.0708546
243	0x3ce88fb1	0.02838883
244	0x3d2ed258	0.04268107
245	0x3be07253	0.006849566
246	0x3bc689be	0.0060589006
247	0x3d2627fc	0.040565476
248	0xbc72db81	-0.014822842
249	0x3bbdd059	0.0057926592
250	0xbde85021	-0.113434084
251	0x3d25511d	0.04036056
252	0x3dd51ee7	0.10406285
253	0x3d8eeb87	0.06978517
254	0xbc9c869d	-0.019107157
255	0x3da9b495	0.082863964

bns.0.weight f4 [256]
0	0x3f77149e	0.96515834
1	0x3f737cb8	0.9511218
2	0x3f744913	0.95424
3	0x3f74dae1	0.9564648
4	0x3f71cd00	0.9445343
5	0x3f7553b3	0.9583084
6	0x3f74350b	0.9539344
7	0x3f77636e	0.9663609
8	0x3f72efa7	0.9489693
9	0x3f71fddd	0.9452799
10	0x3f70a9f5	0.94009334
11	0x3f74ac53	0.95575446
12	0x3f75cb93	0.96013755
13	0x3f72787a	0.9471508
14	0x3f7325b1	0.9497939
15	0x3f74d4d1	0.9563723
16	0x3f7559cb	0.9584014
17	0x3f73f32a	0.95292914
18	0x3f76ea3f	0.9645118
19	0x3f747642	0.9549295
20	0x3f75835b	0.9590356
21	0x3f75f5cc	0.9607818
22	0x3f762140	0.96144485
23	0x3f750597	0.95711654
24	0x3f6ffa30	0.9374113
25	0x3f754bbe	0.958187
26	0x3f76374d	0.9617813
27	0x3f70544c	0.93878627
28	0x3f7014db	0.9378182
29	0x3f75d32a	0.96025336
30	0x3f73edc8	0.952847
31	0x3f760875	0.96106654
32	0x3f73eb14	0.95280576
33	0x3f768cc2	0.9630853
34	0x3f751be7	0.957457
35	0x3f6f8231	0.9355803
36	0x3f73da34	0.95254827
37	0x3f74763a	0.954929
38	0x3f7625ca	0.9615141
39	0x3f771dce	0.96529853
40	0x3f737d88	0.9511342
41	0x3f7714c9	0.9651609
42	0x3f746449	0.95465523
43	0x3f74daa0	0.95646095
44	0x3f7466bc	0.9546926
45	0x3f712515	0.9419721
46	0x3f6c88ee	0.9239644
47	0x3f729a89	0.9476705
48	0x3f74589a	0.95447695
49	0x3f6fd42c	0.93683124
50	0x3f7607dd	0.9610575
51	0x3f76129d	0.9612215
52	0x3f71e789	0.9449392
53	0x3f72188c	0.94568706
54	0x3f74e793	0.95665854
55	0x3f74965d	0.95541936
56	0x3f705845	0.9388469
57	0x3f5b848a	0.85749114
58	0x3f755bcf	0.95843214
59	0x3f6d3966	0.9266571
60	0x3f77318b	0.9655997
61	0x3f72a9e4	0.9479048
62	0x3f76515e	0.96217906
63	0x3f748568	0.9551606
64	0x3f7673f5	0.96270686
65	0x3f738df1	0.9513846
66	0x3f6f9598	0.93587637
67	0x3f74b534	0.95588994
68	0x3f73164c	0.949559
69	0x3f74b7f2	0.9559318
70	0x3f71f0fa	0.94508326
71	0x3f75b7a2	0.95983326
72	0x3f754c2d	0.9581936
73	0x3f73bdbd	0.9521139
74	0x3f75c5b5	0.960048
75	0x3f6f1823	0.93396205
76	0x3f72c243	0.9482767
77	0x3f740c00	0.9533081
78	0x3f69e880	0.9137039
79	0x3f711ecc	0.9418762
80	0x3f730861	0.9493466
81	0x3f70b17d	0.94020826
82	0x3f77fca3	0.9686987
83	0x3f784949	0.96986824
84	0x3f6f78f8	0.9354396
85	0x3f73fb0b	0.95304936
86	0x3f6f41ac	0.9345958
87	0x3f719e5e	0.94382274
88	0x3f71501f	0.9426288
89	0x3f73767c	0.9510267
90	0x3f754c1f	0.95819277
91	0x3f74123c	0.95340323
92	0x3f72cbbf	0.9484214
93	0x3f75e97f	0.9605941
94	0x3f760bfc	0.96112037
95	0x3f754b80	0.9581833
96	0x3f728d37	0.94746727
97	0x3f71690f	0.9430093
98	0x3f73701a	0.9509293
99	0x3f743d9e	0.9540652
100	0x3f731581	0.9495469
101	0x3f756f93	0.95873374
102	0x3f79f6e3	0.97642344
103	0x3f74d206	0.9563297
104	0x3f772737	0.9654421
105	0x3f74f142	0.9568063
106	0x3f72328c	0.9460838
107	0x3f733f3b	0.9501836
108	0x3f702109	0.9380041
109	0x3f743554	0.9539387
110	0x3f72b3a0	0.94805336
111	0x3f743dca	0.9540678
112	0x3f76e536	0.964435
113	0x3f7014e5	0.9378188
114	0x3f7483b9	0.9551349
115	0x3f73a0fd	0.95167524
116	0x3f787c09	0.9706426
117	0x3f760f19	0.9611679
118	0x3f76912b	0.9631526
119	0x3f6dfe8c	0.9296653
120	0x3f71cc3a	0.9445225
121	0x3f7281a9	0.94729096
122	0x3f770e1a	0.9650589
123	0x3f70a541	0.9400216
124	0x3f74c4ce	0.956128
125	0x3f775a96	0.966226
126	0x3f73e388	0.9526906
127	0x3f72b4e0	0.94807243
128	0x3f71bc0a	0.9442755
129	0x3f72cb9e	0.94841945
130	0x3f73e673	0.9527351
131	0x3f749506	0.9553989
132	0x3f75d4c0	0.96027756
133	0x3f76707c	0.9626539
134	0x3f724c97	0.94648117
135	0x3f7417e3	0.9534895
136	0x3f752e91	0.9577418
137	0x3f72ea1b	0.94888467
138	0x3f74b0d7	0.95582336
139	0x3f7348ba	0.95032847
140	0x3f72995d	0.94765264
141	0x3f7607da	0.9610573
142	0x3f79bcb0	0.9755354
143	0x3f75fba1	0.9608708
144	0x3f78575f	0.9700832
145	0x3f711e44	0.94186807
146	0x3f733d8d	0.95015794
147	0x3f77949f	0.9671115
148	0x3f740d79	0.9533306
149	0x3f761211	0.9612132
150	0x3f70ec04	0.9411013
151	0x3f73a587	0.9517445
152	0x3f763af5	0.9618371
153	0x3f73cabe	0.95231235
154	0x3f74be40	0.956028
155	0x3f73fa9c	0.95304275
156	0x3f6bee6d	0.92160684
157	0x3f71ef9c	0.9450624
158	0x3f740a11	0.9532786
159	0x3f728108	0.94728136
160	0x3f75cf13	0.96019095
161	0x3f6f4150	0.93459034
162	0x3f747a29	0.954989
163	0x3f78b7d8	0.97155523
164	0x3f75a666	0.9595703
165	0x3f71c5b0	0.9444227
166	0x3f74f1e7	0.95681614
167	0x3f768ac1	0.9630547
168	0x3f71ed63	0.9450285
169	0x3f74465b	0.95419854
170	0x3f74ed2a	0.95674384
171	0x3f735460	0.9505062
172	0x3f7354b0	0.950511
173	0x3f736a84	0.95084405
174	0x3f749de6	0.95553434
175	0x3f74eb71	0.95671755
176	0x3f7497ba	0.95544016
177	0x3f729d6f	0.94771475
178	0x3f75800d	0.95898515
179	0x3f73b37a	0.95195735
180	0x3f724b8c	0.94646525
181	0x3f75eb61	0.96062285
182	0x3f728d3a	0.94746745
183	0x3f6f1686	0.93393743
184	0x3f76706c	0.9626529
185	0x3f73ca24	0.9523032
186	0x3f707885	0.939339
187	0x3f727852	0.94714844
188	0x3f772149	0.96535164
189	0x3f74f11a	0.9568039
190	0x3f745400	0.95440674
191	0x3f747ffe	0.955078
192	0x3f76a962	0.9635221
193	0x3f73a72e	0.9517697
194	0x3f73981b	0.9515397
195	0x3f731a01	0.94961554
196	0x3f6fa62b	0.9361293
197	0x3f7242b2	0.9463302
198	0x3f766770	0.96251583
199	0x3f7663bd	0.9624594
200	0x3f7246d9	0.94639355
201	0x3f740c6b	0.9533145
202	0x3f716646	0.9429668
203	0x3f67f370	0.9060583
204	0x3f74b7b6	0.9559282
205	0x3f718986	0.9435047
206	0x3f75f699	0.96079403
207	0x3f71f8e4	0.945204
208	0x3f72eafb	0.948898
209	0x3f715427	0.9426903
210	0x3f72c577	0.9483256
211	0x3f758a0d	0.95913774
212	0x3f7388e3	0.9513075
213	0x3f776874	0.9664376
214	0x3f73b7fe	0.95202625
215	0x3f73747a	0.95099604
216	0x3f7277f5	0.9471429
217	0x3f74ea4c	0.9567001
218	0x3f744abf	0.95426553
219	0x3f774a44	0.96597695
220	0x3f70565b	0.9388177
221	0x3f7003ec	0.93755984
222	0x3f737254	0.95096326
223	0x3f766c56	0.9625906
224	0x3f76f724	0.96470857
225	0x3f73200e	0.94970787
226	0x3f75e0d9	0.96046215
227	0x3f7513be	0.9573325
228	0x3f73790c	0.9510658
229	0x3f7264c0	0.9468498
230	0x3f735cbc	0.95063376
231	0x3f724ae7	0.9464554
232	0x3f7422f0	0.9536581
233	0x3f74c2b8	0.9560962
234	0x3f75b0a0	0.95972633
235	0x3f75997d	0.9593733
236	0x3f74c6a3	0.95615596
237	0x3f725ecb	0.9467589
238	0x3f74ef1b	0.95677346
239	0x3f74800b	0.9550788
240	0x3f74098d	0.95327073
241	0x3f76e953	0.96449775
242	0x3f7283a0	0.94732094
243	0x3f707f02	0.939438
244	0x3f75642c	0.95855975
245	0x3f70e692	0.9410182
246	0x3f7286d4	0.9473698
247	0x3f72f227	0.94900745
248	0x3f7565d8	0.95858526
249	0x3f739fff	0.9516601
250	0x3f7744cb	0.96589345
251	0x3f74b867	0.95593876
252	0x3f720847	0.9454388
253	0x3f74df05	0.956528
254	0x3f714556	0.94246423
255	0x3f746143	0.9546091

bns.0.bias f4 [256]
0	0x3b67041d	0.0035250254
1	0xbc1a1152	-0.009403544
2	0xbbdb6f4a	-0.0066966163
3	0xbc23341a	-0.009961152
4	0xbc595c2d	-0.013266605
5	0xbc323afd	-0.010878322
6	0x3a7a60ae	0.00095511496
7	0x3b1eeddc	0.0024250662
8	0xbbb65b40	-0.005565077
9	0xbc88eb32	-0.016713712
10	0xbc98ca8b	-0.018651268
11	0x3ad6d988	0.0016391734
12	0xbbc0a867	-0.00587945
13	0xbc77d906	-0.015127426
14	0x3b822f98	0.003972959
15	0xbaeda2e6	-0.0018130213
16	0xbb37a305	-0.0028020751
17	0x3b79ba75	0.0038105522
18	0x3c83b5d6	0.016077917
19	0xbb809791	-0.003924318
20	0x3c9fc817	0.01950459
21	0x3ad725d8	0.0016414477
22	0xbb15a0e1	-0.0022831487
23	0x3c15014f	0.00909455
24	0xbc1a2c40	-0.009409964
25	0xbc27587f	-0.01021397
26	0x3c30b16e	0.01078449
27	0xbc6dce5d	-0.014514533
28	0xbbe45d2f	-0.006969116
29	0xbbbe95e1	-0.005816207
30	0xbc4726fc	-0.012155291
31	0x3b762af8	0.0037562232
32	0xbb8535c8	-0.004065249
33	0xba864578	-0.0010244092
34	0xbb4747b2	-0.0030407724
35	0xbc737ae4	-0.014860842
36	0x3aa5d7aa	0.0012652774
37	0x39936ea4	0.0002812046
38	0x3b0f5b05	0.002187432
39	0x3c787c2c	0.015166324
40	0xbb7fe20d	-0.003904465
41	0x3bf3a038	0.007434871
42	0x3b21dac8	0.0024697054
43	0x3908db82	0.00013051744
44	0xbb73eabe	-0.0037218775
45	0xbb28103a	-0.0025644437
46	0xbcac6d73	-0.021048283
47	0xbc401ea0	-0.011726052
48	0xbbecf1b2	-0.0072309608
49	0xbcd54456	-0.026033562
50	0x3b720c7c	0.003693371
51	0x3bdefb0d	0.00680483
52	0x3b7525d7	0.0037406588
53	0xbbac5010	-0.0052585676
54	0x3baae7e5	0.0052156323
55	0xbb93674f	-0.0044983993
56	0xbcb111ab	-0.02161487
57	0xbc6e6f24	-0.014552865
58	0x3a23a805	0.00062429934
59	0xbcce7826	-0.025203776
60	0x3c3ea5e1	0.011636228
61	0xbbc18cbb	-0.005906669
62	0x3b0df89e	0.002166308
63	0xbc378fd5	-0.011203726
64	0x3b061db3	0.002046448
65	0xbb74402e	-0.00372697
66	0xbc5640a3	-0.013076934
67	0xbc2c15b8	-0.010503225
68	0xbb9aed6b	-0.0047280095
69	0x3b1306c4	0.0022434453
70	0xbc397511	-0.011319415
71	0xba00d6b9	-0.00049148087
72	0xba82cc0d	-0.0009979025
73	0xbbccf324	-0.0062545706
74	0xbb8cca9f	-0.0042966153
75	0xbcaff7ef	-0.021480529
76	0xbc471572	-0.012151109
77	0xbbd48001	-0.006484986
78	0xbc6be8f5	-0.014398803
79	0xbcadc31d	-0.021211201
80	0xbbef70ee	-0.0073071634
81	0xbc814723	-0.015780991
82	0x3c25493f	0.010088264
83	0xbb00a18e	-0.0019627544
84	0xbb631963	-0.0034652583
85	0xbb89a652	-0.004200735
86	0xbca6e321	-0.020371975
87	0xbc8949e5	-0.016758868
88	0xbbc5377b	-0.0060185767
89	0xbb6a67fa	-0.0035767541
90	0x3bed0f16	0.0072344644
91	0xbbcf65cd	-0.0063292743
92	0xbc32137f	-0.010868906
93	0x3ae21bba	0.0017250695
94	0x3b769e9c	0.003763116
95	0xbc2c0eda	-0.010501588
96	0xbc1cfbf3	-0.009581554
97	0xbc1db360	-0.009625286
98	0x3a58aa3e	0.0008265114
99	0xbb9e55e1	-0.004832015
100	0xbc759d76	-0.014991155
101	0xbb37bc06	-0.0028035655
102	0x3cc5f151	0.02416292
103	0xbad25b4f	-0.0016048941
104	0x3bb8af0c	0.0056361016
105	0xbb6ab906	-0.003581585
106	0xbb87c02a	-0.004142781
107	0xbc1ea6ac	-0.009683292
108	0xbc797bcf	-0.015227272
109	0xba8ca4a6	-0.0010730221
110	0xbc3e7edb	-0.011626924
111	0xbbc82088	-0.0061073937
112	0x3af2ea1d	0.0018532906
113	0xbcbcff62	-0.023070995
114	0x3a72b2fc	0.0009258238
115	0xbaaf0c0b	-0.001335503
116	0x3a4bb44c	0.0007770702
117	0xbb9d8ae8	-0.0048078187
118	0xbb8bef39	-0.004270461
119	0xbca49b40	-0.02009356
120	0xbbb784c0	-0.005600542
121	0xbc46415e	-0.012100546
122	0x3c120c2e	0.008914037
123	0xbc3b4cd3	-0.011431891
124	0xbb9a4b6e	-0.004708699
125	0xbb69b9e4	-0.0035663778
126	0xbbcbfdff	-0.006225347
127	0xbc80e5a9	-0.01573451
128	0xbc7134f3	-0.014722097
129	0x395daee8	0.0002114136
130	0xbb6a2f52	-0.0035733772
131	0xbbf189e5	-0.0073711746
132	0x3c251fd6	0.010078391
133	0xbb1f9397	-0.0024349445
134	0xbbf2cc6d	-0.0074096234
135	0xbb8df4ec	-0.0043321755
136	0x3c16fdd1	0.009215788
137	0xbb505f71	-0.0031795169
138	0x3bbe8709	0.0058144373
139	0xbbe3904f	-0.006944693
140	0xbbf08452	-0.0073399926
141	0xbaad4348	-0.0013218904
142	0x3c653f1c	0.013992097
143	0x3c0740bb	0.008255179
144	0x3c13d79d	0.009023574
145	0xbc746389	-0.014916309
146	0xbbe7687a	-0.007062015
147	0x3c8a88ec	0.016910993
148	0xbc110e3b	-0.00885349
149	0xbbb84321	-0.0056232368
150	0xbc2a4d8e	-0.010394467
151	0xbb12eccc	-0.0022418974
152	0xbc0c4d1a	-0.008563304
153	0xbc0c105f	-0.008548825
154	0x3b7c1099	0.0038462041
155	0xbbac4200	-0.0052568913
156	0x3b464944	0.0030256072
157	0xbc81b1fb	-0.015831938
158	0xbc77c1b5	-0.015121867
159	0xbc220970	-0.009889945
160	0x3c588d19	0.013217234
161	0xbbdfd082	-0.006830276
162	0xbbb4191a	-0.0054961564
163	0x3cb56213	0.022141492
164	0x3b370ebe	0.002793237
165	0xbc2a35d6	-0.010388812
166	0x3a99a766	0.0011722862
167	0x3c31f41b	0.010861422
168	0xbc1b09d1	-0.00946279
169	0xbab5c45c	-0.0013867724
170	0xbb69a303	-0.003565014
171	0x38d05654	9.934293e-05
172	0xbc1924f1	-0.009347186
173	0x3b1cf8af	0.0023951938
174	0xbb1a4e0a	-0.002354505
175	0xbbd1ab4a	-0.006398593
176	0xbab92e27	-0.0014128134
177	0xbbb3d6b8	-0.005488243
178	0x3ba85396	0.0051369173
179	0xbb94de7f	-0.004543125
180	0xbc006ba2	-0.007838162
181	0x3b055da3	0.0020350001
182	0xbc11c086	-0.008895999
183	0xbc486b58	-0.012232624
184	0xba2c103c	-0.00065636984
185	0xbac7cd4c	-0.0015243678
186	0xbc98dd82	-0.01866031
187	0xbc4365e8	-0.011926152
188	0x3c16c49d	0.00920215
189	0xbc62658b	-0.013818155
190	0xbbe05348	-0.0068458654
191	0x3b927d59	0.004470509
192	0x3c17bf7d	0.009261963
193	0xbb41d890	-0.0029578544
194	0xbc030627	-0.007997072
195	0xbc75f24d	-0.015011382
196	0xbc59c03e	-0.013290463
197	0xbc55bdfe	-0.013045786
198	0x3b2b53ee	0.0026142555
199	0xbab6cc5e	-0.0013946404
200	0xba9e11be	-0.0012059731
201	0xbc11397c	-0.008863803
202	0xbc6546fa	-0.013993973
203	0xbc8a4528	-0.01687868
204	0xbb9307d4	-0.004487017
205	0x3b6d6472	0.00362232
206	0xbb7deb7a	-0.0038745091
207	0xbba2d3b0	-0.004969083
208	0xbc2f67c2	-0.01070589
209	0xbc4298ce	-0.011877252
210	0xbb8ffdf1	-0.004394286
211	0x3bf2431d	0.0073932544
212	0xbbd42313	-0.0064739077
213	0x3c106c8b	0.008814941
214	0x3b8276bb	0.003981439
215	0xbbcf4b88	-0.0063261427
216	0xbc9b6043	-0.0189668
217	0x3c13ae7a	0.009013766
218	0xbbc1e81f	-0.0059175636
219	0x3be7d936	0.007075454
220	0x3bb41996	0.005496214
221	0xbc51865f	-0.012788384
222	0xbb81019a	-0.0039369585
223	0x3ba6f23e	0.0050947955
224	0x3b9fda04	0.0048782844
225	0xbbb69616	-0.005572091
226	0xbc11ac3d	-0.008891162
227	0x3c2c5e42	0.01052052
228	0xbbdfe7d2	-0.006833055
229	0xbc0cc1ec	-0.008591156
230	0xbbdb3f0c	-0.0066908654
231	0xbc40883f	-0.011751234
232	0xb9731032	-0.00023180319
233	0x3bf4cc2a	0.0074706273
234	0x3b5e7dda	0.0033949525
235	0x3b3b2299	0.0028554557
236	0xbc0ca870	-0.0085850805
237	0xbc3c604d	-0.011497569
238	0xbabb965a	-0.0014311776
239	0x3911e772	0.00013914498
240	0xb96ee0c0	-0.00022781175
241	0x3bbb8cd8	0.005723577
242	0xbba6fdc7	-0.0050961706
243	0xbc217dd3	-0.009856659
244	0x3b99c553	0.0046927123
245	0xbc8a3a20	-0.01687342
246	0xbbd5e096	-0.006527017
247	0xbc4d61ad	-0.012535495
248	0xbc3de20b	-0.011589537
249	0xbc5190d3	-0.012790876
250	0xbbfdc4bc	-0.0077444
251	0x3c443b28	0.011976995
252	0xbba832a9	-0.0051329923
253	0x3b820536	0.0039679063
254	0xbb762001	-0.0037555697
255	0x3ae98c66	0.0017818331
