output/dmd/prev_e2v/run_009/prev_dmd_best_model_e2v.pth (torch, 207541 bytes, 14 tensors)

convs.0.lin_l.weight f4 [256, 32]
00000000: db60 00bd 1066 15be 4f67 e23d be9d 2f3d
00000010: 4635 febd c53c 74bd 3755 23be 9d73 d03d
00000020: 6435 b43d cf6e 9e3c 06b9 0c3d 1971 a23d
00000030: d945 bc3d 91d4 793d fd0b 103e 2333 413d
00000040: 3135 183e 6e2c a73d cbb3 1cbe 19d2 1fbd
00000050: 1eb6 993d fec6 cdbd a525 21be c2e0 b33d
00000060: 58b3 393d bbd7 11be ec9d 10be 4610 8ebd
00000070: ee11 3c3c 0438 9abd d725 d0bd 58e8 bb3d
00000080: 2038 033e 29dd a43d e3b1 08bd 4a7e d7bd
00000090: 791c 273e f337 33be 0ba0 9abd 7027 40bd
000000a0: a2b1 933d 23bd 08be f0f6 d03d ffbb 28bd
000000b0: 4c14 39bd 8341 013d 339a 72bd a102 8d3d
000000c0: 4341 22be 98ea 893d 92d5 f0bc 65b8 dc3d
000000d0: 7537 16be 184b c7bd 7664 c23d 7578 b2bd
000000e0: 292d d33d 481c 803d 4c95 353c deab efbd
000000f0: 34f8 fb3c 4808 bbbd 3f37 c83d c97d 22bd
00000100: fc83 193e e452 8ebc 7fde 623d b580 873d
00000110: b32f a9bd 1276 dd3d b9c4 2abd 4cc9 af3d
00000120: e638 823d af82 303d aab6 fabc 2110 343e
00000130: 2d2b 363e 1a1c 163e 4a5c 323d 4644 2a3e
00000140: 1ebf 9ebc 4798 6cbd 340e f2bd 39c5 efbd
00000150: 1db2 31be f851 0dbe 1f2b 90bd 8e48 183e
00000160: 128d 79bd e5da 16be e080 23be 19c1 4cbc
00000170: 3b3a 26bd 02eb a43d e3a2 4dbd 9560 41bd
00000180: 391f b03c 5621 f73d 7a82 acbc 0e53 c53d
00000190: 4e8a 8ebd 411d 03be f23f cc3d ac56 7ebd
000001a0: e0dc cbbc 0ec7 3a3d d7b8 ca3d 5eea 0ebe
000001b0: 4f68 97bd c157 063e 3317 083e 407c fdbd
000001c0: 07cb d93d 2068 45be 0aa6 553d 67a8 203e
000001d0: c065 11be 794e 95bd 961d ce39 70e4 24be
000001e0: 4c43 f53d 745d d4bd 0e6c 843d 946f 083e
000001f0: b2fb b73d 89f7 35bc 4c16 5bbd c80a 04be
00000200: 33c4 e23d ab6c f2bd 7289 fd3c 9076 d8bc
00000210: aca5 39be 6c86 413d 0dcc ba3d 2ee8 083d
00000220: c771 183e ea2b 6e3d abfb b23d bc90 eb3d
00000230: 7292 363e 110f 103e 5f1d 0ebd 20ba fdbd
00000240: 448a f5bd 8a4a 383d a1e9 36be e12a 84bd
00000250: 5083 023e 54b3 293e b0ce b23c 59de 55bc
00000260: 8331 063e 5137 d03d d819 1f3e 9bac 673d
00000270: 6488 0fbd 7ff7 1dbe d22e bb3d 261a 19bb
00000280: 073e aebb 7c93 e73d 97fb 9e3d 6514 51bb
00000290: 54a4 583d ffde ee3d 8af2 1fbe 1945 f0bc
000002a0: 5c6d ed3d e583 97bd 545e 143e 5467 6ebd
000002b0: 1b4c 1e3e 7f4c 5f3d 0b7a 17be 1d36 2cbd
000002c0: 9a49 6a3d 283c 6abd 80b3 4c3d c88e 333e
000002d0: 4061 da3d cd9b 1a3e 7a44 d8bd bfad e3bd
000002e0: a835 53bd ea33 23be 25d4 283d 6ac7 c73d
000002f0: 4537 9b3d a6c5 ce3c be7a fb3d 656f a73d
00000300: f84e 373e efd2 c63d efdd a2bc 9295 f73c
00000310: 60ec 223e ca68 413d fca4 2fbe 28b9 c9bd
00000320: 6fd8 913d 24e0 e1bc c132 073e 7c15 bc3d
00000330: 954c 76bd 9e5a 073e 809e 8c3c 8f8e 503d
00000340: 9301 c7bd ad92 05bc 938f 5c3d aea2 b93d
00000350: f5bb 193e a495 f13d e24c 02be ad58 7c3d
00000360: 9c64 c23b c0d6 093d 27c3 23be 9e74 5dbd
00000370: 032e de3d 5c89 5a3d 73e1 afbd 9690 c3bd
00000380: e37d 773d 0ff8 aabd e3e8 17be 3bc3 bd3d
00000390: 44f4 043c eddf bdbb c0d6 b7bd 04a7 4fbd
000003a0: c963 30be 69f2 873c 4ce9 1f3e 3912 8d3d
000003b0: 1b25 dd3d 6a4f 1fbe c417 dd3d 55c2 2d3e
000003c0: c19f 00be 6db8 0dbe 13db 163d 8e6a f83d
000003d0: 8856 9b3d 5dd8 cfbd a984 0abe 1fe5 d43d
000003e0: 8a98 953d d9d6 02be 5045 93bd b4fe 3abc
000003f0: 9020 17be 6697 1c3e f9f1 103c 8508 d43c
-0.03134237 -0.14589715 0.11054861 0.042875044 -0.12412505 -0.059628267 -0.15950476 0.101783015
0.08799246 0.019339947 0.03435614 0.07931728 0.0919301 0.060993735 0.14067073 0.04716791
0.14864041 0.08162771 -0.1530296 -0.039018724 0.07505439 -0.100477204 -0.15737016 0.087831035
0.04533705 -0.14242451 -0.14122742 -0.06936698 0.011478884 -0.075302154 -0.101634674 0.091751754
0.12814379 0.080499955 -0.03337277 -0.105221346 0.16319455 -0.17501812 -0.07550057 -0.04691261
0.07211615 -0.133534 0.102033496 -0.041194912 -0.045185372 0.031556617 -0.059229087 0.06885267
-0.15845208 0.06734198 -0.029398713 0.10777358 -0.14669593 -0.0973112 0.09491818 -0.087143816
0.10311348 0.06255394 0.011082958 -0.11702703 0.030758 -0.09132439 0.09776162 -0.03967074
0.14991754 -0.01737351 0.05538797 0.06616346 -0.08261051 0.10813536 -0.041691516 0.08583316
0.06358509 0.04309338 -0.03060468 0.17584278 0.17789908 0.14659157 0.043545045 0.16627607
-0.019378241 -0.05776241 -0.11819115 -0.11707539 -0.17353101 -0.138008 -0.07039475 0.14871427
-0.06092555 -0.14731939 -0.1596713 -0.01249721 -0.040582877 0.08052637 -0.05020417 -0.04721125
0.021499263 0.12066905 -0.02105831 0.09634982 -0.06959973 -0.12804128 0.09973134 -0.062094375
-0.024885595 0.04559999 0.09898537 -0.13956591 -0.07392942 0.13119413 0.132901 -0.123772144
0.106344275 -0.19278002 0.0521603 0.1568924 -0.14198971 -0.07290358 0.00039313425 -0.16102767
0.119757265 -0.10369387 0.06465922 0.13323814 0.08983554 -0.01110638 -0.05348806 -0.12894738
0.11072578 -0.11837133 0.030949328 -0.026423723 -0.18129605 0.047247335 0.09120951 0.03342455
0.14887153 0.05814735 0.08739408 0.11502215 0.17829302 0.14068247 -0.03469598 -0.12389016
-0.11989263 0.04499296 -0.1786256 -0.06453491 0.12745404 0.16572315 0.021827072 -0.0130535
0.13104825 0.10166801 0.15537202 0.056561094 -0.03504218 -0.15426444 0.0913979 -0.0023361533
-0.005317453 0.11307427 0.07762831 -0.0031903025 0.05289109 0.11663627 -0.15619865 -0.029329823
0.11593124 -0.07398204 0.14489108 -0.05820401 0.1545872 0.05451631 -0.1479265 -0.042043794
0.0571991 -0.057186276 0.049975872 0.17534935 0.1066308 0.15098496 -0.10559936 -0.11117124
-0.051564842 -0.15937772 0.04121794 0.09754832 0.07578901 0.02524073 0.122792706 0.08175544
0.17901218 0.09708201 -0.019881217 0.030222688 0.15910482 0.047219075 -0.1715278 -0.09849769
0.071213596 -0.027572699 0.13202955 0.09183785 -0.060131628 0.13218161 0.017165422 0.050917204
-0.09717097 -0.008152646 0.05384786 0.09064232 0.15013106 0.1179612 -0.12724641 0.061608005
0.0059324037 0.033652067 -0.15992413 -0.054066293 0.1084862 0.053353652 -0.08587923 -0.09549062
0.06042279 -0.08348095 -0.14834933 0.09265753 0.008114878 -0.0057945163 -0.08976507 -0.050696388
-0.17225565 0.016595082 0.1561634 0.06888241 0.10798093 -0.15557638 0.107955486 0.16968663
-0.12560941 -0.13839884 0.03683002 0.12129699 0.07584864 -0.1014869 -0.13527168 0.10395264
0.07304485 -0.1277727 -0.07190955 -0.011413265 -0.14758515 0.15292129 0.008846753 0.025882969

convs.0.lin_l.bias f4 [256]
00000000: 0e38 5a3c facf 933d 6766 873d ee79 00be
00000010: b3ca c0bd 4dec bc3c 7ba9 053d e43b 713d
00000020: 6e2f f0bd 7c71 13be d136 09bd d12a a3ba
00000030: e27f ccbd c72c 01be ec9d 5c3d 5632 4e3d
00000040: adb2 743d e55a dfbd c504 cfbd 709c 0cbe
00000050: c704 a9bc 6e82 c0bc b75b 4abd 3467 1e3d
00000060: 480b ee3d f8f1 3fbd ee9a 9fba 6179 4cbd
00000070: f4fa 55bd f77a 563d ad09 abbd b26c afbd
00000080: 73c7 b9bd 08a5 15be a0a0 fc3d b4a7 f83d
00000090: 82bf 63bd 2e1d 933d d980 8cbd a99c 16be
000000a0: 2668 60bd d670 633d 242b a33d 264c b03d
000000b0: ce76 863c 8476 07be 3909 27bd 66d1 ea3c
000000c0: 6975 293e 8c74 0abe cba2 bbbd 553d ee3c
000000d0: 3efe 2dbe df91 013e 53c1 1c3e e053 273e
000000e0: 60d8 e6bd 6f24 98bd 2c5c a1bd c039 e83c
000000f0: 75a3 463e 66aa 0dbe d576 113e 4182 7bbd
00000100: 32f0 08be 2681 923d 1e2a 253d 3580 cb3c
00000110: 5ec8 1f3e 55f0 2fbd ba55 163c 9f80 21bd
00000120: 770e 043e a8c5 3b3d 9306 a9bc f03e fb3d
00000130: a241 5dbd 5b07 e73c 6644 a0b9 4024 b2bd
00000140: cacb 49bd 58a2 9f3c e88a 45bc 6437 99bc
00000150: 5715 433e e306 173e 7c2b cdbd 5756 ba3d
00000160: ce5d 8dbc 3ce6 0f3e 391c e3bb 2b81 04be
00000170: 0a38 10bd 1f75 29bd e2e8 813c fe35 e93d
00000180: eb70 afbd 0132 f83d ae88 6b3d 4b6f 2fbe
00000190: b1c7 0c3e 732c 483d b312 0dbe dad5 283e
000001a0: 4c25 1e3e fdec 743c 9fd6 073e 70d1 793d
000001b0: d9de c2bd e936 f13d f7b9 ea3d 7fe5 e6bd
000001c0: d29b 0ebd ab8c 8fbd 6300 0e3e 40fc 123e
000001d0: 9c34 dfbc 06a8 3d3d a1ee 0dbe b34c 00be
000001e0: d1f9 333d ad4e c13c 1e62 28bd ea92 57bc
000001f0: 021c 0c3e a74e 1cbd ed52 18be 4cda 03be
00000200: 56e7 bebd b434 ef3d d94f 293e 4c24 073e
00000210: 572a db3b 8803 323e a614 88bd 7360 22bd
00000220: 7fcf ca3d ac9d b43d 6628 d73d c61b f53d
00000230: da02 82bd eee9 b83a 218f 3ebe ed24 a33d
00000240: e362 23bc 641a 36ba e028 0abd 1840 5a3e
00000250: 2777 afbd b8cf a6bd e018 f03d 3292 d3bd
00000260: 9821 373e f0e8 35bd f3fa e9bc dafa 23be
00000270: 3e0b 0abe 9355 c6bd 31ce ce3d 14ec 133d
00000280: 5ef0 49bb 0872 1e3e ec28 ec3c 0fa3 5c3d
00000290: 735b 603d 6f8a 0d3e a24c 1d3e 0ba7 c4bd
000002a0: 94e1 d9bd 054a 1dbe 30db b93d 3d04 28bd
000002b0: ea65 043c 6fc9 c23d 6ae7 babd bde8 8a3d
000002c0: 2805 28be 1a3f 64bd ac5b aabc d774 a23b
000002d0: 0e18 4d3d 1c34 f93d 550a 0f3e 1f1f 153e
000002e0: 15fe c9bd 522f b6bd d8d8 90bd 3c02 863d
000002f0: fffa 9e3d 2019 37bd 8dbd 1bbd 31d2 5abb
00000300: ce8a cdbd 79e6 0dbe b5da cabd 0949 213e
00000310: 25ec 32bd b5f5 103e 2e9f 4fbd 7299 4e3e
00000320: 324e d6bc 134a adbd f4ca 00bd 12ef c83d
00000330: 0300 dc3d 3ee8 cbbb 6ff4 a13d b886 fbbb
00000340: 18ec 083e c7ee 14be d083 14be 5b02 13be
00000350: a6a0 d2bd 9e17 c73d efe1 6f3d ac56 fdbd
00000360: fe25 4dbd 3f08 713d 14b0 ab3d 9d5a 79bd
00000370: 37b4 a6bd e9cd eabc c801 263c 0974 69bd
00000380: 45ba 14be 52c6 0dbe 6176 8d3d e4c0 08be
00000390: 6d18 c9bd ad4b 0d3e a86c 2f3c ff3a 18be
000003a0: 92a1 373d e6e2 ebbb 8dca a13d 4c2d d4bd
000003b0: c35b ea3d b202 7bbb 43e2 0e3d 021b 5dbd
000003c0: acb7 33bd adc5 f4bd 25f1 16be 005a d9bd
000003d0: 24df 56bc d959 ebbd fc51 87bd eaad 9cbd
000003e0: 7ae1 f83c 1181 113d 53c9 c73c e992 e8bd
000003f0: a266 ae3d b34d 2b3e e382 0abe 8d3a 523c
0.013319029 0.07217403 0.066113286 -0.12546512 -0.09413662 0.023061896 0.032632332 0.058895007
-0.117277965 -0.1439876 -0.033499543 -0.0012448673 -0.09985329 -0.12614737 0.053861544 0.050340973
0.05974071 -0.10906009 -0.101083316 -0.13731551 -0.02063216 -0.023499694 -0.049403872 0.03867264
0.116232455 -0.04686162 -0.001217691 -0.049920443 -0.05224128 0.052363362 -0.08351455 -0.08565654
-0.09071245 -0.14613736 0.12335324 0.12141362 -0.055602558 0.071833 -0.06860513 -0.14708199
-0.054786824 0.05552753 0.07967213 0.08608274 0.016414072 -0.13228804 -0.04078028 0.028664302
0.16548695 -0.13521022 -0.0916191 0.02908198 -0.16991517 0.12653302 0.15308122 0.1634059
-0.11271739 -0.07428824 -0.078789085 0.02834785 0.19398291 -0.13834533 0.14205487 -0.061403517
-0.13372877 0.07153539 0.04032337 0.024841407 0.15603778 -0.042953808 0.009175712 -0.039429303
0.12896143 0.045842797 -0.020633018 0.12267864 -0.05401767 0.02820175 -0.0003056854 -0.086983204
-0.049266614 0.019486591 -0.012057044 -0.01870317 0.19051109 0.14748721 -0.100180596 0.09098499
-0.017256644 0.14052671 -0.0069308546 -0.12939899 -0.035209693 -0.04137146 0.015858117 0.11387251
-0.08566459 0.121189125 0.057503395 -0.17132299 0.13748051 0.048870515 -0.13776664 0.16487828
0.15443915 0.0149490805 0.13265465 0.06099075 -0.09515161 0.117780514 0.11461251 -0.11274242
-0.03481657 -0.07009252 0.13867335 0.14354038 -0.027246766 0.046302818 -0.13860561 -0.12529258
0.043939415 0.023597086 -0.041109197 -0.013157586 0.13682559 -0.038160946 -0.14875384 -0.12876242
-0.093214676 0.11679974 0.16534366 0.1319744 0.006688397 0.1738416 -0.066445634 -0.039642762
0.09902858 0.08819136 0.10505752 0.11968188 -0.063482 0.0014107802 -0.18609287 0.079660274
-0.009972307 -0.00069466815 -0.033730388 0.21313512 -0.085676484 -0.08145088 0.117234945 -0.10330619
0.17883909 -0.0444116 -0.028562045 -0.16013661 -0.13480851 -0.09684291 0.10097922 0.036113814
-0.0030813436 0.15473187 0.028828107 0.053866442 0.054774713 0.1382234 0.15361264 -0.096021734
-0.10638729 -0.15360267 0.0907501 -0.041019667 0.008080939 0.09511077 -0.0912617 0.067826726
-0.16408217 -0.05572424 -0.020795666 0.004957776 0.05007177 0.12168142 0.13968785 0.14562653
-0.098629154 -0.088957444 -0.0707261 0.06543395 0.077627175 -0.044701695 -0.038022567 -0.0033389444
-0.100362405 -0.1385745 -0.09904996 0.15750517 -0.043682236 0.1415623 -0.050688915 0.20175722
-0.026160333 -0.08461394 -0.03144355 0.09811224 0.1074219 -0.006222754 0.0790795 -0.007675972
0.13371313 -0.14544211 -0.14503407 -0.14356367 -0.102845475 0.097213015 0.058565076 -0.12370047
-0.05008506 0.058845755 0.083831936 -0.06087743 -0.08139842 -0.028662639 0.010132261 -0.056995425
-0.14524181 -0.13845184 0.069073446 -0.13354832 -0.09819112 0.137984 0.010707058 -0.14866255
0.04483182 -0.0071986793 0.078999616 -0.10360202 0.114432834 -0.0038301167 0.03488375 -0.053980835
-0.043876335 -0.11951766 -0.14740427 -0.10612869 -0.013114724 -0.114917465 -0.06607434 -0.07650359
0.030380953 0.035523478 0.024387991 -0.11356146 0.085156694 0.16728859 -0.13526492 0.012831342

convs.0.lin_r.weight f4 [256, 32]
00000000: dd19 dcbd 85c5 363e 3caf bcbd 6a0f 22be
00000010: 02d2 843d 7138 dcbd 38cd d63d cd4b 7a3d
00000020: 8f81 443e 3ba4 833d d41b b0bd 2ad9 bebd
00000030: 5828 a7bc ac38 38be b7d6 013d 1bab 233e
00000040: aba8 8dbd 6e50 1e3e 6940 fdbd ea30 bc3d
00000050: 0e12 c3bd 8755 b2bb 53ff b43d ebe9 12be
00000060: a23f 993d 12d1 a3bd ccd4 1c3e 4406 ebba
00000070: b673 12be 7835 42bd 4b95 0ebb 16f7 c7bd
00000080: 9402 33bd f6f3 89bd fdfe 133e a954 0bbe
00000090: d444 103e 0864 d6bd 9e16 d5bc 98fd 083e
000000a0: a79d 313e ae9c 91bd af51 063e d71c 173e
000000b0: bbee e53d bfab cb3d dddd 883d be1b 013d
000000c0: 0be4 97bd 3caa cc3d c817 e7bd 29b9 273e
000000d0: 9f69 2b3c adb2 6abd 5e0d efbd 1d7a d53d
000000e0: c35e 11be f1ef b9bd db89 30bd f4a7 ae3d
000000f0: ba3c b2bd 8b78 bf3d 6979 02be 0444 30be
00000100: e385 38bb 164f 5b3d 1959 1cbd 4cd4 9cbd
00000110: 957a 8ab9 a0ef 19bd f725 813d 45a3 193c
00000120: 4ebf dfbd ada5 05be 7390 b2bd 2406 093d
00000130: c576 d03c 1c9d 99bc 8acd aabd c15f 8f3c
00000140: a642 7c3d 6098 193e 36cb 81bd 7724 b0bc
00000150: b3ee 123e f6e0 d93d 9b5f f53c 63cf 0fbe
00000160: 363a f0bc a018 e9bc 7178 3dbd 5f91 cb3c
00000170: dd91 073e 319f e23d d0ad 1ebe 9eae d6bd
00000180: 118f 7ebc e523 03be 811d 11be 4562 9e3d
00000190: 6235 b5bd de54 31be e139 0dbc 3665 c13d
000001a0: 65f7 c5bd c752 43bc 17cd 3dbc 5a78 da3d
000001b0: 0e56 27be f31f bdbc 7d84 6d3b e481 563d
000001c0: d4ad febd c149 4b3d 5602 f63d ad78 e13c
000001d0: 964c 6ebd a54b ff3d ea35 92bd 6b55 c63d
000001e0: 033a 75bd c893 a53d 319a ec3c b6c7 ab3d
000001f0: 39a3 933c 9bc4 093e f5ef 0d3d 494f 08be
00000200: cf6b 0bbe 6a7a 2fbd 6eb3 d0bd 128a c839
00000210: 4a9a 253e cfbb 0cbe 9578 0c3e f269 703d
00000220: d129 bdbc 1beb cc3c 9b74 053e 60bc 80bc
00000230: 6661 ff3d b520 063d 9c60 b03d b3b3 4abd
00000240: 7d51 133e daf1 c73d ef61 a33c 30a8 243d
00000250: 3563 e5bd 3d47 14be 80c8 c03b 1c22 20be
00000260: b711 013e 81bd 983d 2ca0 333e 5a49 01bd
00000270: 3209 3c3e b80a 8a3b c532 883c d83f 50bd
00000280: 6ab2 233c aad6 33be c5d1 1ebe 6192 ca3d
00000290: 84dd abbd 8066 153e 337d 8fbc 756f 32bc
000002a0: 3b7f 14be 8fa6 2c3e 7768 47bd 3f8c 473e
000002b0: b0bc 843d 5f26 213c bf28 95bd cef7 babd
000002c0: eaca 813d 9b18 1dbd 0bf8 fcbd 916a 51bd
000002d0: de29 0f3e 02e9 8b3d 3327 083e d4d8 c0bb
000002e0: 5e27 153e 09f9 823d 0892 ddbd c33c 2dbd
000002f0: 85f9 af3c 0f09 943d ffe7 f63d add2 88bd
00000300: 32cd 83bb 6d28 c4bd 8767 5a3d af68 b2bd
00000310: 467a b43d e240 6c3d e852 0c3e 17b2 febd
00000320: ac87 7abd 1c68 08be 77dd e03d db9b b0bd
00000330: cb0b 953c f8a3 09be ff7f fa3d 62c6 b8bd
00000340: 9201 e23d 5928 dc3d bb95 2dbd b4af 74bd
00000350: fb00 8abc 64a4 ca3d 2bcd 0c3e 7703 a6bd
00000360: 4f33 69bd 21cc 10be 38a7 d6bd 8802 f6bd
00000370: 5e09 ae3d 4ad3 24be c2db 0b3e ba4a 8939
00000380: 2857 b13c df52 dbbd c1a3 103e 7b1c 213d
00000390: eec8 a73d 1c5e eebd 92f9 f4bd afd5 56bc
000003a0: 3c82 f7bd 67c9 2fbe 44dc c83d 2478 0c3e
000003b0: 59db d1bd 8623 63bd 2bda 383c b4c3 22bd
000003c0: 8af9 12be 0ccb ac3d e470 a4bd 0d86 25be
000003d0: b7ca 50bd 8d87 78bd 1e95 823d faf0 df3d
000003e0: ac9b 8d3d 14cb e2bd d5b0 a4bd 4995 afbd
000003f0: 5379 41be 6182 2cbc e155 f53b 0eb7 333d
-0.107471205 0.17848785 -0.09213111 -0.15826192 0.06485368 -0.10752953 0.10488361 0.061107446
0.19190048 0.06427809 -0.08599058 -0.093187645 -0.02040498 -0.17990369 0.03169891 0.1598324
-0.069169365 0.15460369 -0.12365801 0.09189017 -0.09524928 -0.0054423246 0.08837762 -0.14347045
0.0748284 -0.07998861 0.1531555 -0.0017930944 -0.14301953 -0.047414273 -0.0021756466 -0.09763925
-0.04370363 -0.06735985 0.14452739 -0.13606514 0.14088756 -0.10468298 -0.026011761 0.13377988
0.17345296 -0.071099624 0.13117097 0.14757095 0.11227175 0.09944867 0.06682942 0.031520598
-0.074165426 0.09993407 -0.11283833 0.16379227 0.010462194 -0.057299305 -0.116724715 0.10423682
-0.14196305 -0.09078968 -0.04310022 0.08528128 -0.08702989 0.093491636 -0.12741627 -0.17213446
-0.0028155975 0.05354222 -0.038170908 -0.0765768 -0.00026412742 -0.03758204 0.06306069 0.009377305
-0.1092516 -0.13051482 -0.08718958 0.03345312 0.025447259 -0.018751673 -0.08339985 0.017501714
0.061587 0.14999533 -0.063375875 -0.021501763 0.14348869 0.10638611 0.029952815 -0.14043956
-0.029324632 -0.028454125 -0.04625744 0.024849592 0.13239236 0.110655196 -0.15495992 -0.10482524
-0.015537039 -0.12806661 -0.14171411 0.07733587 -0.088480726 -0.1731753 -0.008619756 0.094431326
-0.096663274 -0.011921591 -0.011584542 0.106674865 -0.16341421 -0.023086524 0.00362423 0.052369967
-0.12435499 0.049630884 0.12012164 0.027523363 -0.058178507 0.124656 -0.071391895 0.09684261
-0.059869777 0.08084828 0.028882118 0.08387701 0.018022167 0.13453905 0.03465267 -0.13311495
-0.13615344 -0.042841353 -0.101904735 0.00038249843 0.16172138 -0.13743518 0.13717873 0.058694787
-0.023091229 0.02501445 0.13032763 -0.015714824 0.12469749 0.032746036 0.08612177 -0.04948778
0.14386554 0.097629264 0.01994416 0.04019946 -0.11200563 -0.144803 0.0058832765 -0.15638012
0.12604414 0.0745802 0.1754157 -0.031564094 0.18362883 0.0042127036 0.016625771 -0.050842136
0.009991268 -0.17562357 -0.15509708 0.09891201 -0.0839186 0.14589882 -0.017515754 -0.010890831
-0.1450166 0.16860412 -0.04868361 0.19487093 0.06481302 0.009835809 -0.07283162 -0.09129296
0.06337531 -0.038353544 -0.12351998 -0.05112702 0.13980815 0.06831552 0.13296203 -0.005885223
0.14565799 0.06395156 -0.10818869 -0.042294275 0.021481285 0.0722829 0.120559685 -0.06680808
-0.004022264 -0.09578023 0.053321388 -0.08711373 0.08812384 0.057679065 0.13703501 -0.12436312
-0.061164543 -0.13320965 0.10979741 -0.08623477 0.0181941 -0.13441455 0.122314446 -0.090222135
0.11035456 0.10749883 -0.042379122 -0.059737876 -0.01684617 0.09894636 0.1375014 -0.081061296
-0.056933697 -0.14140369 -0.10481113 -0.120122015 0.084978804 -0.16096225 0.1365805 0.00026186352
0.021648005 -0.10709166 0.14124967 0.0393338 0.08192621 -0.11639044 -0.11961664 -0.01311247
-0.12085387 -0.17166673 0.09807637 0.13717705 -0.10246915 -0.0554538 0.011282484 -0.03973742
-0.14353004 0.084371656 -0.08029345 -0.16164418 -0.050974574 -0.060676146 0.06376098 0.109346345
0.06914458 -0.1107389 -0.080415405 -0.08573396 -0.18893938 -0.010529132 0.007487044 0.043875746

convs.1.lin_l.weight f4 [64, 256]
00000000: 487e 09bd 9134 ecbc b0f4 383d 9aac 38bc
00000010: 0755 c7bc 909d fe3b 0cd5 a23c a475 d6bc
00000020: 9491 0f3d eee3 b7bc d6c9 093d b91f 1abd
00000030: c046 0c3d fd58 923c c66f 7dbd 65dc 763a
00000040: b3a7 98bd 89f7 f53c b51e 43bd 58c7 9a3c
00000050: 9c32 d33c ac58 a43c 4548 de3c 05a9 1b3d
00000060: 54c7 213c aafe dc3c 60f6 95bb 4b06 193c
00000070: 7a30 9d3c 6e73 4ebd 29ec 01bd c8cc 70bc
00000080: a7a0 273d fe78 16bb 3e6e 2d3d af16 2a3c
00000090: 8c4e 7ebd 45a9 9e3c 5c36 31bd 331c 10bd
000000a0: ef7b 193d 8155 a3bc 0329 673c ff6c 05bd
000000b0: 4e3d 063d 27e7 603c 4198 4d3d ca08 a43c
000000c0: 493a 75bc 53aa 82bc 4cfc b53c 6a9b 34bd
000000d0: 9e0f efbc 7042 cd3c a770 8939 f8bc d3bc
000000e0: e473 183d 8fb5 143d 4727 47bd 8649 5b3d
000000f0: 41c0 a4bc ff1a e63c 4d83 abba 615e 48bd
00000100: b5c9 d63c 949d 733c aa1e 50bd ffef 32bd
00000110: c2c5 e0bc b16d 853c 1e4b ad3a ee25 1f3d
00000120: 34d8 c239 54fa 6e3d 640e 33bc 4b5f 123d
00000130: 0459 b4bc 77e1 943b 5416 1abc c335 7abd
00000140: 3164 30bd ca21 51bc 6e39 11bc 71e9 d6bc
00000150: 6168 39bd f4e7 613d cded b63c 25bc e83b
00000160: d074 ffbc 601f 25bd ee46 82bd b489 39bd
00000170: 17f8 babc 0102 63bc 3b0c ab3c bb20 873d
00000180: 6218 d73c 1efc 7cbd e38f 5cbc 2363 34bd
00000190: 12ac 48bc 352b 623d 6a28 bebb a3b0 273d
000001a0: 8d10 14bd 0d6a c6bc 78b0 a73b 3707 293d
000001b0: a1b9 2e3d dcb1 693c 4eaf 96bd 60a6 2dbc
000001c0: c2d0 9f3c 3f74 6ebd ff67 ef3c 4d53 aebc
000001d0: b96c 4d3d 45ad 09bd fdf8 943c 2389 14bd
000001e0: b1a7 8ebc 0555 3cbd d4ab d83c 44cf 93bc
000001f0: 1076 7dbd a64a 7dbc f989 07bd 767a f8bc
00000200: b649 8eba 2c3a b6bc 398f 31bc 3e47 04bd
00000210: 4e4f 373d 5578 06bc fcb6 b33c 904f 93bc
00000220: 95e9 ad39 5803 f53c f127 a53c f5be 343d
00000230: 30a9 d9bc 7254 43bd c25c 09bb bafe cfbb
00000240: a2cb 78bd 989a 22bd 0980 7fbd 4019 2b3d
00000250: 346d 1dbd c6e3 bf3c c689 fdbc 02be a2bc
00000260: 79de 2c3d b8e6 54bd 5c0d 0c3c 10db 92bc
00000270: dd58 f73c 4f1b 18bb 5829 633c 00ca 133d
00000280: b51f 483c f850 f9bc c004 0bbd 6ceb 463d
00000290: 0820 8cbc 9899 37bd 6938 f8bc 5765 c1bc
000002a0: 1e5b 4d3c 5f30 92bc c407 52bd c0ab 883d
000002b0: c846 783d 9bc9 3fbc cccb 48bd 0013 00bb
000002c0: 38e9 773d 103b 5ebb 1586 c6bc cbce 70bd
000002d0: 1a3f 20bd aadc 89bc e581 873d 1aa2 303d
000002e0: 0fde 0dbc f090 f43c b3af 383d 9f4d 3cbc
000002f0: f900 e93c 9d53 95bc 6990 6e3d d6a9 433d
00000300: 3f36 aabc 84db 533c b511 c23c ecc5 3ebd
00000310: ccd9 f93b 6c3a 65bd f852 783d e2f9 b53c
00000320: 2425 553d 57e6 efbc 15fd 6a3d 5cbb 153d
00000330: 0467 eabc 2c75 e839 71d1 1fbc 1d68 30bd
00000340: ded9 843c 48fb 7e3c 4276 293d 52e3 483d
00000350: 6c2e 4d3d 8208 633d 45a6 5f3c 6223 3abd
00000360: 461c 173c 514a 9cbc b6ea 2b3c 5520 52bd
00000370: 1687 933d 3ada b73c 1375 553d 9872 7d3d
00000380: 0369 5bbd 5ec6 c1bc 2d26 45bc 75a7 993b
00000390: 0c85 9c3b 85c0 6fbd e153 28bd e78a 373d
000003a0: cd08 b73c b67f 4a3d 51b7 47bd 0f38 2bbd
000003b0: c85b 823c 2d1c 2ebd b71f 483b 63bc 19bd
000003c0: 1fb2 93bd a3c4 3c3d 485d 8fbc 6a6d 0e3d
000003d0: 67df b43b 2fb1 163c 12de c63c c330 663d
000003e0: 1f23 25bd 480b a5bc fb93 213c 9772 703c
000003f0: eb2f 00bd 6691 2cbd e430 2b3c 3952 f8bc
-0.033567697 -0.02883366 0.045155227 -0.01127162 -0.024332536 0.0077702478 0.01987698 -0.026179142
0.035050943 -0.022447553 0.03363975 -0.03762791 0.03424716 0.017864699 -0.061874174 0.00094169966
-0.07453861 0.03002526 -0.047636706 0.018893883 0.025780968 0.020061813 0.02713407 0.038002986
0.009874184 0.026976902 -0.0045764893 0.009339879 0.019188154 -0.05040305 -0.03171936 -0.014697261
0.040924694 -0.00229603 0.042341463 0.010381385 -0.062086627 0.019367823 -0.04326473 -0.035183143
0.037471708 -0.019938232 0.014108899 -0.03257465 0.03277331 0.013726986 0.05019403 0.020023722
-0.01496751 -0.015950358 0.022215031 -0.044093527 -0.029182252 0.025056094 0.0002621461 -0.025846943
0.037219897 0.03630596 -0.048621442 0.053536914 -0.020111205 0.028089045 -0.0013085395 -0.04891813
0.026219228 0.0148691125 -0.050810494 -0.04368591 -0.027438048 0.016287657 0.0013221239 0.038854532
0.00037163647 0.0583442 -0.010928724 0.03573541 -0.022015102 0.004543479 -0.0094047375 -0.061086427
-0.0430643 -0.012764404 -0.00886379 -0.02623436 -0.04526556 0.05515285 0.02233019 0.0071025067
-0.03118363 -0.040313125 -0.06361185 -0.04529734 -0.022823377 -0.013855458 0.020879855 0.0659804
0.026256744 -0.061763875 -0.01346204 -0.044039857 -0.012248056 0.055216987 -0.0058031576 0.04093994
-0.036148597 -0.02422049 0.0051174723 0.041266646 0.0426575 0.014263596 -0.073576555 -0.010598749
0.019508723 -0.05821633 0.029224394 -0.021279955 0.050152514 -0.03361251 0.018185133 -0.036263596
-0.017413946 -0.04597952 0.026449122 -0.018043168 -0.06188017 -0.015459692 -0.033090565 -0.030331831
-0.0010855708 -0.022244535 -0.01083737 -0.032294504 0.044753365 -0.0082074 0.02193784 -0.017982274
0.00033171164 0.029908821 0.020160647 0.044127423 -0.026569933 -0.047687955 -0.002095983 -0.0063475044
-0.060741074 -0.039698213 -0.062377963 0.041772127 -0.038434222 0.02342404 -0.030949485 -0.019865993
0.042204354 -0.051977843 0.008548107 -0.017926723 0.03019374 -0.0023209637 0.013864838 0.036081314
0.012214591 -0.030434117 -0.033940077 0.04856436 -0.017105117 -0.044824213 -0.030300336 -0.023607893
0.012533931 -0.01784533 -0.051276937 0.06673384 0.060614377 -0.011705781 -0.04902248 -0.0019542575
0.06052515 -0.0033909716 -0.024233857 -0.058790963 -0.03912268 -0.016828854 0.06616572 0.043123342
-0.0086589 0.029854268 0.045089435 -0.011493116 0.028442847 -0.018228346 0.05824319 0.04776939
-0.02077782 0.012930755 0.023690084 -0.04657547 0.0076248404 -0.05596392 0.060626 0.02221388
0.052037373 -0.02928464 0.057370264 0.036555633 -0.028613575 0.00044337788 -0.009754525 -0.04306804
0.016217168 0.01556284 0.041372545 0.049044915 0.0500931 0.055428036 0.013650482 -0.0454439
0.0092230495 -0.019078406 0.010492971 -0.051300365 0.072035 0.022442926 0.052113604 0.061876863
-0.053566944 -0.02365416 -0.012033028 0.004689152 0.0047766026 -0.05853321 -0.04109562 0.044810202
0.022343064 0.0494382 -0.04875881 -0.04180151 0.015912905 -0.04250734 0.0030536482 -0.037533175
-0.07211708 0.046085965 -0.017500535 0.034772314 0.0055197957 0.009197517 0.024275813 0.056198847
-0.040316697 -0.02014698 0.009861941 0.014675758 -0.031295698 -0.04213085 0.010448668 -0.030312644

convs.1.lin_l.bias f4 [64]
00000000: 41b2 433c 9296 31bd ab49 c2bd b9c0 e1bc
00000010: c74a c33a d542 9abd 42ce 663d f248 3c3c
00000020: 0844 8f3c 9b44 92bc e022 ef3c 3e4d f83c
00000030: 9227 02bc d27a 4d3c ceff 22b8 9145 453d
00000040: 39b8 46bd b94d af3b e26a b33d 38b4 92bd
00000050: f498 853d b872 4f3c 5d89 7e3d d08a 833b
00000060: 5f5e 183d 04cc 0fbd 417b 40bd 6894 cabb
00000070: 3919 f0bb 85e2 9bbc c0b8 183d 9c8c 76bd
00000080: d0ce 9bbd dcf5 64bd 11fd 903b fa69 bfbd
00000090: 6aa3 4ebc 58fa 79bd fe9b 213d d7ac 82bd
000000a0: 5ceb 6a3d 098b 363d 5228 94bd a819 dfbc
000000b0: 958d 94bd 6074 443d 0876 ba3d 2682 a93c
000000c0: a201 d2bb eb4c db3d 8bb3 a4bd 3bb6 1cbd
000000d0: 0332 253d 16b6 b53d b389 9dbc 6e8f 18bd
000000e0: 0d39 ffbb 47d9 613d 62f0 a63c 8880 d3bd
000000f0: 0152 343d d961 b33c cdb7 793d ca91 2dbd
0.0119443545 -0.043356486 -0.09486707 -0.027557718 0.0014899605 -0.075322784 0.056349047 0.011492001
0.017488495 -0.01785498 0.029191434 0.03031027 -0.007944005 0.01254149 -3.8862046e-05 0.048162047
-0.048515532 0.0053498414 0.08760621 -0.0716328 0.06523314 0.012661628 0.06214272 0.0040143505
0.037199374 -0.035106674 -0.046992544 -0.006182242 -0.0073272255 -0.019028911 0.037285566 -0.06019269
-0.07607806 -0.055898532 0.004424699 -0.09346385 -0.012612203 -0.061029762 0.039455406 -0.06380623
0.057353362 0.044566188 -0.07234253 -0.027233914 -0.07253567 0.047962546 0.09104544 0.020691942
-0.006408886 0.1070803 -0.080420576 -0.038259726 0.040330898 0.08872621 -0.0192307 -0.03724616
-0.0077887834 0.055138852 0.020378295 -0.1032725 0.044023518 0.021897243 0.0609663 -0.042375363

convs.1.lin_r.weight f4 [64, 256]
00000000: 1211 1a3d 96ca 2f3d c678 ab3c 352c 31b9
00000010: d6c1 77bd 291f 7f3d 9bb1 9aba 81c8 8e3b
00000020: 024f 2c3d 734b 4abd 5038 5c3d d20e 25bd
00000030: a02a 583d 587c 063d 0e77 ec3c 75bd 51ba
00000040: 8af0 0bbd 1ed0 e2bc 0295 41bc 8e4f ccbc
00000050: df1e 2e3c 429f 323c 08b4 c23c 34c7 c4bb
00000060: 869c 80bd ac8c f2bb fc52 22bd 0f91 6d3c
00000070: 62e7 533c 62fd d73c 094f 353d 4f51 e5bb
00000080: 7588 863b aa37 b4ba a22b 833c 5fc4 443d
00000090: 2235 76bd dcfd 563d 3b17 c0bc 9feb 5abd
000000a0: 8493 cb3c e269 a6bc 297f 4abd 9ee9 7f3c
000000b0: 7b5d 64bd 5236 fcbc bf02 6c3d 42e3 d1bd
000000c0: 4019 74bd 92fb 6a3d 3d72 133d 092f 27bd
000000d0: 2e5d debb 8c7b c1bb d5cd 3fbd 9947 4dbd
000000e0: cd08 583d 237c 3b3d c85e 303d 97fb 663c
000000f0: 9c47 0cbd b7c7 143c f642 303c 6c42 8ebc
00000100: 7263 253d d68e 433c eea4 43bd 196c 5e3d
00000110: 4f12 093d ce44 7a3d b162 e6bc b1da 5bbd
00000120: 4d2b 483d df46 053c 001c 5b3d b959 163d
00000130: 402b 383c 3c35 34bd 614b 63bd 57d3 7abd
00000140: c3a5 cb3c 1cce 03bd 82db 2f3c b8f5 2abd
00000150: 54d5 093c 83eb ddba 9501 23bd 4811 25bd
00000160: bfa1 73bc 0e49 0ebb 83e5 83bd d8ad cdbc
00000170: 9d42 083d 805d e43c 8045 143d 6208 933c
00000180: 5db9 c83c 46d2 ac3c 8a0a a1bd 4c16 9fbc
00000190: fc4e 8d3c 7284 e8bb 1885 27bc 8ab2 aabb
000001a0: 58a8 7d3c 4989 a0bc 5be3 4e3d 9242 1f3d
000001b0: 7afd 0bbd 5dae 84bc f9c2 55bc 5f41 56ba
000001c0: f8ea f3bc d203 8dbd ccfc 8dbd 1e7c fabb
000001d0: d079 9f3c b114 8dbd 1383 50bd 45b7 52bd
000001e0: 8c6c 033d 0eb6 6b3d 280f 1dbd 2789 4d3b
000001f0: f967 95bc dab1 e3bc e966 f4bc dd1f b9bd
00000200: c2ad ddbb 0ff9 cb3c e143 093d db44 993c
00000210: 7776 fb3c 5bb2 5dbd 8043 583d 5a35 afbc
00000220: 400e 093d c09e 3cbd 9e0e 05bd 0d25 4e3d
00000230: 1af1 68bc 31d5 11bd 61bc e3bc 4f5b b53c
00000240: 14b4 4ebd d37f 23bd bc63 e6bc 5f0a da39
00000250: a709 29bd 8a7b 65bd 3fca 7c3d e38a 823c
00000260: 5174 1ebd 2f77 b53c e3b3 373c abf2 23bd
00000270: 8bf9 d9bc f6bc b2bd 7925 863d 6efb e5bc
00000280: ae66 d5bd 4adf 86bd 7c67 0a3d 539b 503b
00000290: 2093 87bb 34b7 d93c 3c3d c53c f151 fe3b
000002a0: 0dfb 69bb 2f40 64bd c1df 843c ae7a 063d
000002b0: 58b5 73bd 2476 e83c ddd7 0cbc 9be0 3e3c
000002c0: 7b47 6d3d 9552 c83c 8437 563d 2db0 dcbc
000002d0: 87da 79bd 6db7 43bd 5883 123c 7069 733d
000002e0: 709c 893d 5d84 11bd ef69 97bd 3c67 683d
000002f0: e666 88bd 2fc9 57bc 8a49 9c3c bb59 c7bc
00000300: a2fa 76bd c6fa cdbc efe2 16bb 00ca 1e3d
00000310: ea26 893c 8e1c 25bd 2b60 393d 51aa 27bd
00000320: b025 003d ab26 8cb9 585b 493c 0860 7e3d
00000330: c4c6 49bd 8a6d b6bb aa0d 22bd 552d 2abd
00000340: a824 0bbc 3084 38bd b3f9 013d a949 4d3c
00000350: 4cb8 a83c 164a 1dbb b38a 1cbd bf94 8239
00000360: a048 1abd 6c11 d2bc 5b5a 733d faba e83b
00000370: 4a6c 563d ac54 6fbb 63b2 ba3c c00d 573d
00000380: 14e3 23bb 5186 81bd aad0 3fbd d7aa 7ebd
00000390: 7763 50bd dc23 cfbc 848a ea3b ab2e b9bc
000003a0: 68a6 323d 54d7 503d 1375 b43c 15ae 5fbd
000003b0: 4a8a 313d a240 58bd 6ef5 0f3c ae72 5ebd
000003c0: 6751 3abd 1620 04bd 6b8f 053c c22e ee3c
000003d0: 9f63 79bd 4e4e 8bbd c1a2 03bd d6a7 1e3d
000003e0: 840a 68bd a512 2a3c c825 433d 92b9 e3bc
000003f0: 5b8a 1dbd bce2 673d 8301 81bc f9cf b53c
0.037613936 0.04291781 0.020931613 -0.00016896504 -0.06048759 0.062285576 -0.0011802198 0.004357398
0.042067535 -0.04938836 0.05376464 -0.040297337 0.052775025 0.032833427 0.028865363 -0.00080009486
-0.034164943 -0.027687129 -0.011815311 -0.024940278 0.010627477 0.010902228 0.023767486 -0.006005192
-0.062798545 -0.0074020233 -0.03962992 0.014499917 0.012933584 0.02636594 0.044264827 -0.006998218
0.0041056224 -0.0013749499 0.016012017 0.048038837 -0.060109265 0.052488193 -0.023448577 -0.053447362
0.024850614 -0.02031416 -0.049437676 0.0156196635 -0.055753212 -0.03078762 0.057619806 -0.10248424
-0.059594393 0.057368822 0.035997618 -0.04081634 -0.00678601 -0.0059046205 -0.046827156 -0.05011711
0.052742768 0.045772683 0.04305914 0.01409807 -0.03424798 0.009080819 0.010758152 -0.017365657
0.04037804 0.01193591 -0.04776471 0.05430231 0.033464726 0.061100774 -0.028123232 -0.053675357
0.04886942 0.008134573 0.0534935 0.03670666 0.01124078 -0.04399608 -0.05549181 -0.061236706
0.024859315 -0.032178983 0.010733487 -0.041738242 0.008412678 -0.001693115 -0.03979643 -0.040299684
-0.014870106 -0.0021711024 -0.0644026 -0.02510731 0.033266652 0.027876616 0.036199093 0.017948333
0.02450245 0.02109636 -0.07863338 -0.019419812 0.017249577 -0.007095867 -0.010224603 -0.005209272
0.015482031 -0.019596713 0.05050979 0.038881846 -0.03417728 -0.016196424 -0.013046973 -0.0008173193
-0.029775128 -0.06885494 -0.06932983 -0.0076441905 0.019467264 -0.06888712 -0.050906252 -0.05144431
0.03208594 0.057546668 -0.038344532 0.0031362267 -0.018238055 -0.027794767 -0.029834228 -0.090392806
-0.0067650983 0.024899034 0.033512 0.01870959 0.030696137 -0.05412517 0.052798748 -0.021387745
0.033460855 -0.046049833 -0.032484643 0.050328303 -0.014217639 -0.035603706 -0.027799787 0.022138266
-0.050464705 -0.039916825 -0.028123729 0.00041587927 -0.04126897 -0.05602602 0.061716314 0.015935367
-0.038685147 0.022151558 0.011212322 -0.040026348 -0.02660825 -0.08727448 0.06550116 -0.028073993
-0.10419975 -0.06585558 0.033790097 0.0031830862 -0.0041374117 0.026576616 0.02407705 0.007761233
-0.0035702616 -0.055725273 0.016219975 0.03283184 -0.059499115 0.028376646 -0.008596388 0.01165023
0.057929497 0.02445344 0.052299038 -0.026939476 -0.06099942 -0.04778235 0.008942448 0.059426725
0.06719291 -0.035526622 -0.07393252 0.056739077 -0.06660251 -0.0131705245 0.019078035 -0.024334779
-0.060297616 -0.025143992 -0.0023023447 0.03876686 0.016742188 -0.040310435 0.04525773 -0.04093391
0.03128594 -0.0002673169 0.012289844 0.0621033 -0.049261823 -0.0055672573 -0.039563812 -0.04154714
-0.008492626 -0.04504794 0.031732272 0.012529769 0.020595692 -0.0024000457 -0.03821821 0.00024906357
-0.037666917 -0.025643073 0.05941234 0.0071023675 0.052349366 -0.0036518974 0.02279014 0.052503347
-0.0025007175 -0.06324447 -0.046829857 -0.062174644 -0.050876107 -0.025285654 0.0071576256 -0.02260526
0.04361573 0.050986603 0.022028482 -0.054609377 0.043344773 -0.052796014 0.008786542 -0.054308586
-0.045487788 -0.032257162 0.008151869 0.02907503 -0.06088602 -0.06802045 -0.032137636 0.03873428
-0.056650653 0.010380422 0.047643453 -0.027798448 -0.038462024 0.056612715 -0.015747791 0.022193896

bns.0.weight f4 [256]
00000000: e371 773f 1ae1 803f c6b6 733f 07bb 733f
00000010: cb9c 6f3f 6fcf 6d3f 7625 763f 9be5 773f
00000020: 7cce 683f 4571 733f 8d8c 713f 156c 763f
00000030: bbd7 743f 6616 733f d926 773f 704c 723f
00000040: ad83 723f 7ede 753f 8b4c 793f cc07 723f
00000050: 130f 733f de39 733f 26c7 763f 7544 763f
00000060: 416e 773f 44ab 763f 7b99 723f 8562 733f
00000070: b08e 743f 44b4 763f a8c0 723f a3d1 753f
00000080: 471b 723f 66a1 713f 2221 6e3f 9aff 743f
00000090: ffa3 743f 2c4a 713f 70a6 773f fd84 763f
000000a0: 6ea9 763f c795 733f 2907 753f 35e9 763f
000000b0: 3eaf 6f3f 6f3d 773f d759 723f f129 743f
000000c0: 87a0 633f 56a9 6c3f 7309 7a3f b009 753f
000000d0: 2b4b 713f 36ed 753f 8cf0 743f 7418 5a3f
000000e0: d6c3 733f 782d 733f d896 743f 438f 753f
000000f0: 720d 683f 52cb 763f 8978 743f 3210 733f
00000100: 7fb5 753f c8c2 753f b0cf 793f 5351 753f
00000110: d4c1 713f 9bdf 6b3f 3df1 773f c8dc 6d3f
00000120: ddea 753f f0c4 713f 2f04 7a3f 31e2 743f
00000130: fd49 743f e842 763f 1803 783f 8b2b 783f
00000140: eaee 713f 5d9c 723f c95b 773f 113c 773f
00000150: 910d 793f 20d2 763f cd7e 753f af15 713f
00000160: 253c 713f 30b1 723f 4f28 753f bedc 753f
00000170: d8ab 733f 4751 6e3f 0d66 733f 5747 733f
00000180: 53ce 713f 46b4 733f 1252 5d3f e518 733f
00000190: 8f39 713f 777a 733f 969b 6f3f 56ce 6e3f
000001a0: be8f 743f 9c9b 723f 1b7b 743f 25da 733f
000001b0: ad40 753f adc1 713f 81ec 733f dc96 713f
000001c0: 18b8 713f 144b 6e3f a8c6 703f 26c9 743f
000001d0: 4080 753f e9ec 7e3f b15e 733f eddc 733f
000001e0: 2914 753f 7477 743f 56d6 713f 39ab 743f
000001f0: d51c 723f 942e 6a3f 096c 783f 89a9 7a3f
00000200: 5497 793f dcbf 6f3f facb 763f 618a 753f
00000210: aae7 743f f3ea 743f 07ad 713f 9f91 743f
00000220: ed1d 743f 5a5c 743f 841d 723f f42c 6d3f
00000230: f17d 733f cd16 723f f9ac 713f 6aa6 6b3f
00000240: ac40 743f e5cb 743f 8359 743f 0861 6f3f
00000250: 473c 743f 532e 773f 8e62 753f 389c 753f
00000260: 01bb 743f 143e 743f dac8 723f d90d 763f
00000270: 798e 763f 2904 753f ab86 783f dbf6 743f
00000280: e481 723f 83d5 713f b4c8 713f 6e33 733f
00000290: 7890 753f 5404 743f c194 753f 75e9 773f
000002a0: 79d8 763f d722 6e3f 733a 753f 0cc2 753f
000002b0: 2021 753f 162f 753f 1144 743f 67e3 753f
000002c0: 017f 753f ae3b 6e3f 0add 783f e42e 713f
000002d0: a8cc 703f 263a 6d3f f4a7 733f 167e 733f
000002e0: 48ce 6b3f 9951 743f 537f 7d3f 5235 783f
000002f0: 3cb5 6f3f 83a7 703f 2cd9 743f 7ebc 743f
00000300: 124f 703f 749f 753f 1128 743f ad07 7a3f
00000310: 42f0 733f 71fe 6c3f e899 723f 132d 783f
00000320: 8dd7 773f f9f3 753f a4fd 6f3f 3e40 6f3f
00000330: 6953 723f fb8d 713f c351 733f 2846 753f
00000340: c65c 713f 97e1 743f d6e2 743f c274 733f
00000350: ec9b 7e3f f901 733f 2b8b 713f 8af0 733f
00000360: 2e56 733f 953b 753f 517f 703f 94a6 723f
00000370: 4fea 713f 8d73 743f 1385 743f 1b0d 743f
00000380: 35c1 763f 7ad7 793f a657 743f dac0 743f
00000390: 18ea 753f d09d 713f 6cd6 723f d7be 783f
000003a0: ac85 763f 5015 783f 659c 723f 654f 743f
000003b0: 5acf 6d3f 2dc5 753f 7ad7 733f 1d19 763f
000003c0: 1e3c 7b3f a924 743f 032b 743f b1de 753f
000003d0: 270e 733f 4c84 753f a91c 763f 866f 743f
000003e0: 5e87 713f 3b75 723f d387 763f 506e 753f
000003f0: 04ac 783f 1806 733f 6846 733f e452 713f
0.9665815 1.0068696 0.95200765 0.95207256 0.9359862 0.92894644 0.9615091 0.96834725
0.9094007 0.9509471 0.9435509 0.9625867 0.9564168 0.9495605 0.9654365 0.94647884
0.9473217 0.9604262 0.9738242 0.9454315 0.94944876 0.95010173 0.96397626 0.9619821
0.9665261 0.9635508 0.9476544 0.95072204 0.95530224 0.96368814 0.9482522 0.96023005
0.9457287 0.943869 0.93019307 0.9570252 0.9556274 0.942538 0.9673834 0.96296674
0.9635228 0.9515042 0.9571405 0.96449596 0.93626773 0.96578115 0.94668335 0.953765
0.8891682 0.92445886 0.9767067 0.95717907 0.9425532 0.9606508 0.95679545 0.8519356
0.95220697 0.94991255 0.9554267 0.95921725 0.90645516 0.9640399 0.9549642 0.9494659
0.95980066 0.9600034 0.9758253 0.95827216 0.94436383 0.9213807 0.96852475 0.9291501
0.960615 0.9444113 0.97662634 0.9565764 0.954254 0.9619584 0.9687972 0.9694144
0.9450518 0.9476984 0.9662443 0.9657603 0.97286326 0.96414375 0.9589661 0.9417371
0.942324 0.94801617 0.9576463 0.9603995 0.9518409 0.9309277 0.9507759 0.9503073
0.9445545 0.9519695 0.86453354 0.9495986 0.9422845 0.9510874 0.9359678 0.93283594
0.95531833 0.9476869 0.95500344 0.9525474 0.9580181 0.9443615 0.9528275 0.9437082
0.9442153 0.9308331 0.94053125 0.9561943 0.9589882 0.99580246 0.9506636 0.9525898
0.95733887 0.9549477 0.94467676 0.95573765 0.94575244 0.9147732 0.9703985 0.9791494
0.97496533 0.9365213 0.96404994 0.95914274 0.9566599 0.95671004 0.94404644 0.955347
0.95358163 0.9545342 0.9457629 0.9264672 0.95114046 0.9456604 0.9440456 0.920508
0.9541118 0.9562362 0.95449084 0.9350743 0.95404476 0.9655506 0.9585351 0.95941496
0.95597845 0.95407224 0.94837725 0.9611488 0.96311146 0.9570947 0.97080487 0.9568917
0.9472945 0.9446642 0.94446874 0.9500035 0.95923567 0.95319104 0.95930105 0.968406
0.9642406 0.9302191 0.9579231 0.9599922 0.9575367 0.9577497 0.9541636 0.96050113
0.9589692 0.93059814 0.9721228 0.94212174 0.9406228 0.9266685 0.9517815 0.95114267
0.92111635 0.9543701 0.99022406 0.9695636 0.93635917 0.940056 0.9564388 0.95600116
0.9387065 0.9594643 0.95373636 0.9766796 0.9528848 0.92575747 0.9476609 0.9694378
0.9681328 0.960754 0.937464 0.934574 0.94658524 0.9435727 0.95046633 0.95810175
0.94282186 0.9565672 0.95658624 0.95100033 0.9945667 0.94924885 0.9435298 0.9528891
0.95053375 0.9579404 0.9394427 0.9478543 0.9449815 0.95488816 0.95515555 0.953325
0.9638856 0.97594416 0.9544624 0.9560677 0.96060324 0.9438143 0.9485843 0.971662
0.9629772 0.9690752 0.9476989 0.95433646 0.9289452 0.9600399 0.95250666 0.9613207
0.98138607 0.9536844 0.9537813 0.96042925 0.9494347 0.95904994 0.9613748 0.9548267
0.9434718 0.9471013 0.96301 0.9587145 0.97137475 0.94931173 0.95029306 0.94267106

bns.0.bias f4 [256]
00000000: 8f78 983c 023e 0d3d 25bd cfbb 272c c8bb
00000010: 844d 28bc 8924 07bd 2e8e 8e3c 348a 323c
00000020: 8fea 36bc 82d0 0cbc c87f 9bba ad55 ac3c
00000030: 854a 89bb 6aa7 8c38 0f32 e03b b91f 83bc
00000040: d35b 5f3b 5521 da3b 1d10 833c 18df 51bc
00000050: 4a5a fabb 4322 613b f5c9 583c ee4a 3a3c
00000060: 7f82 1b3b 2dbb b53a 6ba3 6cbc b55e 3abc
00000070: e709 c0bb 4acb f63b 5614 31bc 79bc 873c
00000080: 8b8e 19bc 11d9 84bb 4016 a1bc 0c85 f53b
00000090: 6c9c 95b8 b643 6dbc 7c4c 9fbb a37d d03b
000000a0: 9276 df3b a487 523b da30 8c3c 3a67 bbbb
000000b0: 7c65 e3bc 1f64 483c f538 9ebc 23de 6eba
000000c0: 195c cb3a 84d8 11bc 8a72 023c 50b8 16bc
000000d0: ea80 c9bc 2cb8 d73b 5354 223b 90d2 42bc
000000e0: f12c 27bc e441 17bc 6c03 7dbb cf83 12bc
000000f0: 7ae2 c2bc e74e 15bc f55a c1ba e3c9 6c3b
00000100: ba6d 14bc 2642 f4bb 013c 083d 1257 2bbc
00000110: 1209 d7bb 6aaf 16bd 7459 113b 3b8d 2cbc
00000120: c2c0 cd3b a99c 33bc baa8 273c f397 81bb
00000130: fcef 1fbb 140a e13b a013 c73b a248 763c
00000140: 9190 76bc 5770 70bc bdde 273c f270 d03c
00000150: 6ddb 903c bd84 6f3b 614c fa3b 8b99 86bc
00000160: fc38 97bc 47b2 3cbc ddb2 6dbb b74e 2b3b
00000170: 7a62 55bc 4c61 6bbc fec0 2dbc 3bdd 05bc
00000180: af6b 79bc 836d 00bc be04 20bc 8518 0fbc
00000190: 351f 06bd 10c0 29bc c3ac a7bc f50b 8abc
000001a0: 9a7d 97ba 904b 4c3c e863 59bc 4b4a 1bbc
000001b0: 2aff 023c 02c3 4a3b 056b f3bb 2f96 77bc
000001c0: 340c ebbb 25de e6bc 611f 83bc cfe3 c73b
000001d0: 2356 cdbb 304b e03c 84b9 3fbc 2bdd 543b
000001e0: faf0 503a df31 f23b 23b7 6cbc 477b 863b
000001f0: 7e9b 4abc 1fa7 cbbc 289f 893c 7041 913c
00000200: 5eef 4e3b 8436 8abc bab9 ad3c a9cf a93b
00000210: 2ffd 3dbc ea41 d23b 4c5e 7abc 1b5c 23bc
00000220: 3319 2abb fe30 9cbb 8483 50bc ae28 02bd
00000230: 2654 ffbc fd49 86bb 5d43 9cbc cea4 f2bc
00000240: 2eda f33a 4099 40bb 5d31 fcbb 1f43 18bc
00000250: 7dfa 32bc e89e 243b 2dc9 0d3b 9cff 943b
00000260: fadf cbbb c1d6 223c 2972 e63b b7ea 073c
00000270: 224a 8f3c 2edf ef3b f2cb e73c 8a15 433c
00000280: 60eb d3b9 3370 a6bc 8baf 53bc a8f4 63bc
00000290: 1693 e8b9 7fb7 50bc c2dc bbbb 7646 373c
000002a0: b509 dd3a 7dbb 86bc db5b 01bc 2fec abbb
000002b0: a20f 80bc 3486 733a 2b15 a93b dc5c 763c
000002c0: 947c 14bc 883a 78bc e6cf 283c 2443 02bc
000002d0: 48e8 c1bc 5a75 70bc ae16 79bc 13bc a3bc
000002e0: d0f1 88bc 153e 01bc a9c6 813c 3839 05bc
000002f0: c33c 90bc 52c0 93bc 6be8 873b 068d babb
00000300: fd2e 8abc 9502 2c3b 8a84 083b d49f 103c
00000310: bb57 1ebc a438 3ebc 6da8 afbb 04e3 103c
00000320: e02f 033c 88ed 883b 97ca b33c efb7 9fbc
00000330: 29cd b5bc 6145 9ebc 4109 6ebc 06ca 5cbc
00000340: e65b 63bc 5cf7 853b 3e56 3fbc 7b1a fb3a
00000350: 09e9 ce3c 8cf1 033b a020 a33a 17c3 393c
00000360: f1e2 b4bc 6707 babb 8080 70bc f6f9 5dbc
00000370: cd62 27bd fc1a 3eb9 c5e9 823c aa76 20bc
00000380: 7ec3 513c c89d 3b3c 8f9e 0cba e68c ccbb
00000390: f6e1 37bc 42c9 a2bc 1dad 503a 868f 6d3c
000003a0: 1ecb da3b 9106 083c f981 d039 dd8c 57ba
000003b0: 8036 9dbc 9e88 853c 8d0d e43b e7de 483c
000003c0: c95f 793c 4e38 d1bb 6da6 833b 694a f23b
000003d0: b32c 583b f3a9 6d3c 3399 37bc 96ba 1ebc
000003e0: 03d6 55bc 1ffa 37ba e710 283c cd18 d3bb
000003f0: c4eb 993c 2e4a 593c ac57 e9bb ea3b 86bc
0.018612174 0.034482963 -0.0063396865 -0.006108779 -0.010272387 -0.032993827 0.017401781 0.010897208
-0.011164322 -0.008594634 -0.0011863643 0.021036947 -0.0041897916 6.7069035e-05 0.006841905 -0.016006337
0.003408183 0.0066568055 0.015998894 -0.012809537 -0.007640158 0.0034352697 0.013231744 0.011370404
0.0023728905 0.0013864987 -0.014443259 -0.011375119 -0.0058605555 0.007531558 -0.010808071 0.016569363
-0.009372364 -0.0040541966 -0.01966393 0.007492667 -7.1340095e-05 -0.014481476 -0.0048614126 0.0063626333
0.0068195546 0.0032124305 0.017113138 -0.0057190927 -0.027758352 0.012230902 -0.019314269 -0.00091120804
0.0015515118 -0.008901719 0.007961879 -0.009199217 -0.024597604 0.0065832343 0.00247695 -0.011891022
-0.010203586 -0.009232018 -0.0038606776 -0.008942558 -0.023789633 -0.00911305 -0.0014751839 0.0036131076
-0.009059364 -0.0074541746 0.03326035 -0.010457771 -0.0065623606 -0.03678838 0.0022178562 -0.010531719
0.006279082 -0.010962644 0.010233099 -0.0039548813 -0.0024404516 0.0068676565 0.0060753375 0.015031965
-0.015049116 -0.014675221 0.010245976 0.025444482 0.017682755 0.0036547624 0.0076384996 -0.016430637
-0.01845979 -0.011517114 -0.003626994 0.0026139447 -0.013023967 -0.014366459 -0.010605095 -0.008170421
-0.015223428 -0.00783861 -0.009766756 -0.008733873 -0.032744605 -0.010360733 -0.020468121 -0.016851405
-0.0011557818 0.012469187 -0.013268448 -0.009478162 0.007995406 0.0030938988 -0.007428529 -0.01511149
-0.0071730856 -0.028182099 -0.016006174 0.006100155 -0.006266372 0.027379602 -0.011701945 0.003248046
0.00079704786 0.007391199 -0.01444796 0.0041040513 -0.012366174 -0.024859963 0.016799524 0.017731398
0.003157578 -0.016871698 0.021206725 0.0051822257 -0.011596008 0.006416549 -0.015281271 -0.00997069
-0.0025954961 -0.0047665825 -0.012726668 -0.031777076 -0.031168055 -0.0040981756 -0.01907509 -0.0296196
0.0018604451 -0.002938822 -0.0076963142 -0.009293347 -0.010923979 0.002511913 0.0021634803 0.0045470726
-0.0062217684 0.009938897 0.007032652 0.0082957065 0.017491404 0.0073203063 0.02829549 0.011906991
-0.00040420424 -0.020317173 -0.012920271 -0.013913311 -0.00044360076 -0.012739061 -0.0057331035 0.011186233
0.0016863855 -0.016446823 -0.007895435 -0.005246661 -0.015632454 0.0009289712 0.005159994 0.015036788
-0.009062905 -0.015150674 0.010303473 -0.007950578 -0.02367033 -0.014676416 -0.015203161 -0.019987142
-0.016716868 -0.007888337 0.015841799 -0.008131318 -0.017607098 -0.018036041 0.0041475794 -0.005693081
-0.016868109 0.0026246656 0.0020830953 0.0088271685 -0.009664471 -0.011610184 -0.005360654 0.008843187
0.00800702 0.0041787066 0.021947188 -0.019496886 -0.022192555 -0.019320192 -0.0145285735 -0.0134759005
-0.013876891 0.0040883254 -0.011678277 0.0019157672 0.025257604 0.0020132987 0.0012445636 0.011338017
-0.02208087 -0.005677152 -0.014679074 -0.013548365 -0.04086571 -0.00018129864 0.01598061 -0.009793917
0.012802957 0.011451192 -0.0005364203 -0.0062423823 -0.011223307 -0.019871358 0.0007960366 0.014499551
0.0066770455 0.008302347 0.0003976969 -0.00082225894 -0.019191027 0.016300496 0.006959623 0.012260175
0.015220591 -0.006384886 0.0040176422 0.0073941243 0.0032985627 0.014505851 -0.011205959 -0.00968804
-0.013051513 -0.0007018167 0.010257936 -0.0064421655 0.01878918 0.013262315 -0.007121047 -0.016385991
