output/oi/prev_e2v/run_005/prev_oi_best_model_e2v.pth (torch, 404149 bytes, 14 tensors)

convs.0.lin_l.weight f4 [256, 128]
000000 22 76 a1 bd 58 66 23 bd b4 5c 7d 3d b6 1a 11 3d
       -0.0788386 -0.039892524 0.061855987 0.035425864
000010 80 38 b1 bd 31 98 83 3b 94 7e 96 3d c2 99 a4 bd
       -0.08653355 0.0040159454 0.073483616 -0.080371395
000020 00 2b 66 3b 09 9d 43 3d 78 5c 4b 3a 68 4d 65 3c
       0.0035120845 0.047757182 0.00077576144 0.013995506
000030 79 4b 4a 3d 27 69 9a bd 22 4c b2 bd 48 6d 16 3d
       0.049388383 -0.075395875 -0.087059274 0.036725312
000040 d2 d1 07 3d 2d f6 a2 3d f6 29 64 3d 4b b0 f2 bc
       0.033159085 0.079571106 0.05570408 -0.029625079
000050 dd 5e 36 3d 8c 68 0e bd 47 9b 1c bd 6c 08 11 bd
       0.044524062 -0.034767672 -0.03823402 -0.035408422
000060 bf 91 8c bd 54 c6 69 3d 3a e4 5f bd 33 ea 98 bd
       -0.06863736 0.057073906 -0.054661013 -0.07466545
000070 a7 9b a5 bd e5 7e 1c bc 6b ef 4d 3d 68 95 21 bd
       -0.08086329 -0.009551738 0.050277155 -0.039449126
000080 ff 03 82 3c fb 2b 96 bd cb 85 d0 bc 0c a2 9a bd
       0.015871046 -0.07332607 -0.025454422 -0.07550439
000090 c0 00 5b bd f2 77 a1 bd 44 b0 46 bd 23 83 ae bd
       -0.053467512 -0.07884206 -0.048507944 -0.08521106
0000a0 12 ae 89 3d 8a a2 3b bc 1e e2 c4 3a fa d0 d3 3c
       0.067226544 -0.011452327 0.0015021001 0.025856484
0000b0 cd 1f 1a bd 0c e5 8d 3d 36 e6 8e 3d c1 f4 e7 3c
       -0.037627984 0.06928453 0.06977503 0.02831495
0000c0 7c 36 85 3d b1 a1 81 bd f2 cf 7a 3c 2d 2b 99 bd
       0.06504533 -0.06329668 0.015308367 -0.07478938
0000d0 dd f9 af bc de 3e 7b 3d f1 75 7f 3c 05 51 d5 bc
       -0.021481449 0.06133925 0.015592084 -0.02603961
0000e0 9a 00 53 3b 43 35 e8 bc 89 24 00 bc 89 1c 80 bc
       0.0032196403 -0.02834571 -0.007821211 -0.015638607
0000f0 f8 2d 95 3b df 48 9e bd 89 88 a0 3d 14 a8 64 bd
       0.004552599 -0.07728743 0.07838542 -0.055824354
000100 2f 13 85 3d e7 ed d9 3c 88 14 94 3d 6f 5f f0 bc
       0.064977996 0.026602698 0.072304785 -0.029342381
000110 ea 28 90 bd b5 61 1f 3d d5 a7 0a bd 7c e6 0c 3d
       -0.07039054 0.03891154 -0.033851463 0.034399495
000120 d5 75 40 3d dc 2c 93 bc 96 aa 98 3c dd ea 94 bd
       0.046987373 -0.017965727 0.01863603 -0.07271359
000130 f2 9f 64 bd da 02 95 3c 95 c1 d7 3c 94 d8 a7 3d
       -0.0558166 0.018189836 0.026337424 0.08195606
000140 63 a2 a6 3d 3c 33 f4 bc c9 45 ae bd 4b d0 a7 3b
       0.081364416 -0.029809587 -0.08509404 0.005121266
000150 53 98 71 bc ee 37 2a bd b0 f5 0c 3d 15 ec a5 bd
       -0.01474579 -0.041557245 0.034413993 -0.0810167
000160 af f5 ac 3d 59 0a 9b 3d dc 8b e3 bc 58 9b 4e bd
       0.08445298 0.07570333 -0.027776651 -0.050441116
000170 4e 9e 5f 3c 17 48 03 bd b2 bd 70 3d eb 83 8b bc
       0.013648583 -0.032051172 0.058774658 -0.017030677
000180 2e 4f a1 3c 9f 27 0c 3d 3c a9 b3 bc 8f c9 56 bd
       0.019691076 0.034217473 -0.021931283 -0.052438315
000190 f7 e7 ab 3d e4 d2 ad bd fa 3e 9f bd 4a f9 95 bc
       0.08393853 -0.0848749 -0.07775684 -0.018307347
0001a0 15 fb 8f bd 90 70 9e bd e4 2a 83 bc 1e f7 a2 3d
       -0.07030312 -0.07736313 -0.016011663 0.0795729
0001b0 d0 6e 74 3d db b2 25 bd 31 65 8c 3d f6 33 41 bd
       0.05967599 -0.040453773 0.06855238 -0.047168694
0001c0 86 3b a7 3b 80 99 ce bb af 31 a2 3d ab 58 d8 bc
       0.0051035313 -0.0063049197 0.07919633 -0.026409468
0001d0 c9 b8 45 bd 2d 6e f4 bb f4 4c 8c bd fe bc 7a 3d
       -0.048271928 -0.007459423 -0.06850615 0.061215393
0001e0 52 32 97 3c 90 6e 03 bd dd 5b 31 bd a5 5c 06 bd
       0.018456612 -0.032087862 -0.0433005 -0.032803196
0001f0 87 76 12 bd 39 5d 94 3d 3a 83 fc 3c 9e 65 35 bc
       -0.035757568 0.07244343 0.030824292 -0.011071591
000200 dc 23 ea bc e3 ea b4 bd 3f 91 96 3c 57 0f 7e 3c
       -0.028581552 -0.088338636 0.018379806 0.015506587
000210 ff 81 1f bd 18 22 97 3d 6f f6 f6 3b 01 48 1e bd
       -0.038942333 0.0737955 0.0075367014 -0.038642887
000220 6e a3 84 3d 37 3d ad 3d 2c bc e1 bc 19 de 69 3d
       0.06476484 0.084589414 -0.027555548 0.057096574
000230 b5 27 e7 3b e8 63 01 3d c3 0e a0 bc 8d 50 90 bd
       0.007054294 0.03158942 -0.019538289 -0.07046614
000240 a9 9a 99 bd 9b 70 1a bc f3 5e 52 bd d3 a7 9a bd
       -0.07500202 -0.009426261 -0.051360082 -0.07551541
000250 44 b2 f8 3b cc 8f 9e bd 97 24 b1 3c a4 74 b2 bd
       0.0075896103 -0.07742271 0.021623893 -0.08713654
000260 da f7 9a 3b d7 3c 9e bc e0 0b 56 bd 68 bd 6e bd
       0.0047292532 -0.01931612 -0.05225742 -0.0582861
000270 20 ef ad bd d7 35 8c bb 45 a4 08 3d 97 a9 cf bc
       -0.08492875 -0.004278879 0.033359785 -0.025349421
000280 ca 9b 33 3d ca f3 9c bd 9f bb 58 bd dd a8 39 bd
       0.043849744 -0.076636866 -0.052913304 -0.045327056
000290 e6 9d d9 bb 0f 34 4b bc a4 15 f7 bc 09 fa 6f 3d
       -0.0066411374 -0.012402548 -0.030161686 0.05858806
0002a0 f5 40 ca bb 39 b4 de 3c ed 15 5b 3d eb bf a6 bd
       -0.0061722943 0.027185546 0.053487707 -0.08142074
0002b0 97 5d 8f 3d 0b de f6 bc 6f 22 b1 bd 67 5c 31 3d
       0.07000273 -0.030135175 -0.08649146 0.043301012
0002c0 0c 0a 33 bd ec e3 11 3d 66 e1 9b bd 67 dd 46 3d
       -0.043710753 0.035617754 -0.07611351 0.04855099
0002d0 d1 7c 6a bd 91 38 d5 3c cf 89 d6 3c f0 b0 b3 3b
       -0.05724794 0.02602795 0.02618876 0.005483739
0002e0 22 c2 17 3d 9e 3e 84 bd dc 7a a0 3d 5b 62 e1 ba
       0.037050374 -0.06457256 0.078359336 -0.001719545
0002f0 48 27 b3 3d 23 a5 3e ba 59 67 a8 bd 6d a4 99 3d
       0.08747727 -0.0007272532 -0.08222837 0.07502065
000300 6c 52 5c 3d ff 77 35 bd fd 06 3f bd 51 3f 6d bd
       0.05378954 -0.04430389 -0.046637524 -0.05792171
000310 c8 ac b3 bc 34 1a c9 3c 27 2f b2 3d 5b 04 9a 3d
       -0.021932974 0.024548627 0.087004 0.07520362
000320 9c 55 57 bc 19 4c af bc 9b 1e 6d 3d b0 c9 05 3d
       -0.013142969 -0.02139859 0.057890516 0.032663047
000330 16 61 ad bd 52 96 88 3d 5d cc 9d bd 92 80 44 bd
       -0.08465783 0.06669296 -0.07704995 -0.047974177
000340 95 cb 15 bc 9c 96 29 bd d4 8a d9 bc 57 c7 43 3d
       -0.009142776 -0.041403398 -0.026555456 0.047797527
000350 7f 32 13 bd 83 4a 13 3d 87 03 8c 3d a0 1a 41 3d
       -0.03593683 0.03595973 0.0683661 0.047144532
000360 1c 92 ee bc 7e 50 87 bd 26 21 f0 3c ba bd ff bc
       -0.029122405 -0.066071495 0.029312681 -0.031218398
000370 1a 74 e4 3c 90 92 67 bd 59 ef 3c 3c 11 aa 88 bd
       0.027887393 -0.056536257 0.011531674 -0.066730626
000380 c6 e9 f3 bc 77 b1 3e bd 24 8b 80 3d 7a 7f 44 3d
       -0.029774558 -0.046555962 0.06276539 0.047973134
000390 40 d5 62 3d 30 60 2c 3d 2d 02 02 bc 83 e5 f4 bb
       0.055379152 0.04208392 -0.007935089 -0.007473649
0003a0 82 ed 0c bd 04 38 7f 3c ed 51 e8 bc 3c 05 05 bd
       -0.034406193 0.01557732 -0.028359378 -0.032475695
0003b0 85 12 dc bb 64 52 66 bd 0d c2 82 3c 95 8e 24 3d
       -0.006716075 -0.056230918 0.015961671 0.04017504
0003c0 1f b8 37 bd 01 a2 a4 bc 84 1d 8c bd d8 96 dd 3c
       -0.044853326 -0.02009678 -0.06841567 0.027049467
0003d0 4f 2e e3 bc bc d8 06 3c 37 fc c1 bc 09 4f 96 3d
       -0.027732043 0.008230384 -0.023679836 0.073392935
0003e0 ce 8b 8f bd f4 a4 b0 3d 71 b2 1d 3d f7 fb 4b 3d
       -0.070090875 0.08625212 0.038500253 0.04980084
0003f0 7d 63 8c 3d be 5c 36 3d b0 4c b1 bd ee 20 90 bd
       0.068549134 0.04452204 -0.08657205 -0.07037531

convs.0.lin_l.bias f4 [256]
000000 e3 70 a1 bd c6 11 2e 3d 24 a0 43 bb 80 43 a9 bd
       -0.078828596 0.04249742 -0.002985009 -0.08264828
000010 1b fc 7c 3d 54 fd 78 bc dd 94 e0 3b 99 ee 98 bd
       0.061763864 -0.015197117 0.0068536834 -0.07467384
000020 bf 51 0d 3c 37 47 a9 3c 36 1e 84 3d 63 5d 82 bd
       0.008625447 0.02066384 0.06451075 -0.06365468
000030 ed ad a2 3d 44 84 b4 bd ac 51 b3 bc 60 6b a5 bd
       0.0794333 -0.0881429 -0.02188953 -0.08077121
000040 c6 0d 8f 3c d0 0d 85 bd 6f bc 76 3d 61 06 ab bd
       0.017462622 -0.06496775 0.060238298 -0.08350826
000050 79 a1 74 bd 75 d1 f5 bc dd ed a6 39 e1 c8 6f bd
       -0.059724305 -0.030007103 0.0003183921 -0.058541182
000060 1c 0c 9f 3d 11 7c a4 3d 8a 4d 26 bd c9 e7 58 3c
       0.077659816 0.08031476 -0.04060129 0.013238856
000070 9d 4f a2 bc 85 fe 14 3c f0 ee 5d bd 1f 7e 00 bc
       -0.019813353 0.009093885 -0.054182947 -0.00784257
000080 fe 3f 41 3d db 34 87 3d 19 8e 97 3d 31 cf a0 3d
       0.04718017 0.06601878 0.0740015 0.078520186
000090 c4 db 7f bd 13 61 a8 bd 94 f7 a7 bd 61 65 61 3d
       -0.062465444 -0.082216404 -0.08201519 0.055028323
0000a0 e8 4e 9a 3c 85 8a 22 3d 20 01 49 3b 6c 5e 94 3c
       0.018836454 0.039682884 0.0030670837 0.01811143
0000b0 59 be 19 3d ea 5e ff 3c 0b 30 b0 3d 11 28 9b 3d
       0.037535045 0.031173188 0.086029135 0.075760014
0000c0 ed 66 af 3d 20 1a 21 bd 25 1e b4 bd 61 99 7a 3d
       0.085645534 -0.039331555 -0.08794812 0.06118143
0000d0 73 7e 2f bc d5 99 41 3d 8e 79 e1 3b 7e 4d 67 bd
       -0.0107113 0.047265846 0.0068809455 -0.056470387
0000e0 d8 94 07 bd 42 02 19 bd 03 99 47 3d f9 fd bd bb
       -0.033100933 -0.03735567 0.048729908 -0.005798098
0000f0 54 16 08 3d 47 92 85 3d 62 94 ac bc 39 92 cc bb
       0.03322442 0.06522041 -0.021066848 -0.006243017
000100 aa 51 1a bd a4 c4 66 3d 37 3d 44 3d ba d4 70 3d
       -0.037675537 0.056339875 0.04790994 0.05879662
000110 24 1c 82 3d 59 23 18 3c cf a0 7c bd fc 94 10 bd
       0.06353024 0.009285771 -0.061676797 -0.035298333
000120 b3 1e f5 bc 09 b8 51 3d e5 24 9d 3d 6b ab 4d 3d
       -0.029921865 0.0512009 0.07673053 0.050212305
000130 49 93 b3 bd c7 f0 35 bd e0 a7 0e bc 6a 81 3e 3d
       -0.08768327 -0.044419076 -0.008707017 0.046510138
000140 63 67 ad bd 55 4b 78 bd aa 8e 98 3d de cc 6f 3c
       -0.08466985 -0.060618717 0.07449086 0.0146362465
000150 01 55 a5 bd d2 dd 4e bd d5 1c 2d bc ac 79 f9 3c
       -0.08072854 -0.050504513 -0.010565956 0.030453525
000160 fd 9b a4 bd 79 e0 22 bd 18 74 81 bc 2b e8 8b bc
       -0.08037565 -0.039764855 -0.015802428 -0.01707848
000170 2a f4 89 3d 71 89 6b bd fa e9 9f 3c aa 5f 92 bd
       0.06736024 -0.05750412 0.019520748 -0.07147153
000180 ff 3a 35 bd 70 8f 8a 3d f6 0f 9a bd af a4 54 bd
       -0.044245716 0.0676564 -0.075225756 -0.051914867
000190 73 04 03 bd c6 49 03 bb b5 89 33 3d 15 2a 64 3d
       -0.031986665 -0.0020032986 0.0438325 0.055704195
0001a0 85 02 5b bd ab 96 85 3d de 99 6f bd 55 52 66 3d
       -0.0534692 0.06522878 -0.05849635 0.05623086
0001b0 5c 02 ea bc d9 d2 7a bc 20 f2 21 3b 5c 93 2a 3d
       -0.028565578 -0.015309059 0.0024710968 0.04164444
0001c0 86 47 24 3d 74 d0 d1 bc 15 75 2a bd a9 4a ba 3c
       0.040107273 -0.025612094 -0.041615564 0.022740679
0001d0 6c 2e ad bd 48 df a1 bd c9 60 1e 3d 41 6d 01 3d
       -0.0845612 -0.07903916 0.03866652 0.031598333
0001e0 8b d8 37 3c 02 43 8a bd fe 30 6c 3d c3 e5 8d 3d
       0.011221061 -0.06751062 0.05766391 0.06928589
0001f0 34 1b f3 bc 5c 42 4d 3d 73 a1 72 3d 45 24 8c bd
       -0.029676057 0.050112113 0.059236 -0.06842855
000200 d6 5f 89 bc db ad 26 bd 64 7e 2f bd 3c ba 9c 3d
       -0.016769331 -0.040693145 -0.042845145 0.07652709
000210 f8 95 88 bc 06 61 6c 3d 89 f5 9d 3d e8 07 b7 bc
       -0.016673073 0.057709716 0.07712848 -0.022342637
000220 af 3b 22 3d 4b 85 b3 3d 89 27 32 bd cc 52 5d 3d
       0.0396077 0.08765658 -0.043494735 0.05403404
000230 92 b9 12 bd 4b 93 91 3d 58 5b b2 3d fa 05 16 3d
       -0.035821505 0.07108172 0.08708829 0.036626793
000240 02 50 a6 3d 1f f8 c7 3c cb e3 32 bd 16 59 88 bd
       0.08120729 0.024410306 -0.04367427 -0.06657617
000250 3c 87 a1 bd 3c c9 33 3d 7a b1 99 3c ad 0a 3e bd
       -0.07887122 0.043893084 0.018761385 -0.0463969
000260 e6 67 f3 3c 5b 21 f5 3c 29 49 10 bd 4d dc e3 bb
       0.029712629 0.029923132 -0.03522602 -0.006953752
000270 1c cc 98 3d 68 5e a0 3c d4 de 90 3c af 66 87 3a
       0.07460806 0.019576266 0.017684378 0.0010330285
000280 4d ed 9e 3d 6c 0b 07 3b 64 aa 71 3b f4 bb 9a 3d
       0.07760105 0.0020606173 0.0036875242 0.075553805
000290 09 51 fd bc 01 1d 8f bd d7 87 9d bc 06 14 a7 bd
       -0.03092243 -0.06987954 -0.019229813 -0.08158116
0002a0 68 28 db bc fc 6e bd bc d0 55 1f 3d 25 dd 8e bd
       -0.026752666 -0.02312421 0.038900197 -0.06975774
0002b0 82 8a 86 bd 32 31 fa bc 2a 36 07 bd a1 a6 1f bd
       -0.06569387 -0.030541036 -0.03301064 -0.03897727
0002c0 8d 0e b3 bc d4 8f fd bc 8a ec 6d 3d ba 5d f2 3b
       -0.021857524 -0.030952372 0.05808691 0.007396427
0002d0 3c e4 ab 3d 19 c0 27 3d 16 d5 97 3d 99 d4 c5 bb
       0.083931416 0.040954683 0.0741369 -0.0060373065
0002e0 df 8f 30 bd 38 8d 68 bd 72 37 2a bd ee 53 0d bd
       -0.043105956 -0.0567753 -0.041556783 -0.03450387
0002f0 1f 1b 9c bd 0b ab d4 bc ae 07 98 bd c4 71 d6 bc
       -0.076223604 -0.025960466 -0.0742334 -0.026177295
000300 31 99 22 bc 20 dd b2 bd df 07 6f 3c 3b 26 88 bd
       -0.009924219 -0.087335825 0.014589279 -0.06647917
000310 9d 88 86 3d c7 fc 63 3d f4 50 02 bc 66 32 7a 3d
       0.06569026 0.05566099 -0.007953871 0.06108322
000320 91 42 a7 bd 44 bc 71 3d 08 cf ed bc ec 52 2a 3d
       -0.081669934 0.059017435 -0.029029384 0.041582987
000330 1a a6 8e bb 33 31 a7 3d 28 49 d2 3c 11 8c 57 3c
       -0.004353297 0.08163681 0.02566965 0.013155953
000340 2c 78 9d bd 84 0c 37 3d 8a b1 13 bc 94 4d fb bc
       -0.076889366 0.04468967 -0.009014497 -0.03067664
000350 fc 3e 36 bd 49 22 9a bd df b6 15 bd d3 dd c0 bc
       -0.04449366 -0.075260706 -0.036551353 -0.023543274
000360 30 e1 0f bd 84 19 62 bd 2d 6d 83 3d 57 39 fa bc
       -0.035126865 -0.055200115 0.06417308 -0.03054492
000370 05 4e b9 bc 92 f2 9c bc 24 c5 b1 3d af fb 20 3d
       -0.02262021 -0.019158635 0.0868018 0.039302524
000380 b5 27 83 3d 2b a5 4f 3d 98 d0 82 3a 8c 6a 4f bd
       0.06404058 0.050694626 0.0009980379 -0.05063872
000390 41 00 84 bd 8b 08 3a bd b4 a4 90 3d 3e e9 8d 3c
       -0.06445361 -0.045418303 0.07062665 0.017323133
0003a0 95 4a 65 bb d7 56 11 bd 19 fd 7f 3b d5 58 44 bc
       -0.0034987081 -0.035483208 0.003906077 -0.01198407
0003b0 19 c8 90 3c f1 a5 4b 3c 82 4e 73 3d 7e 5e cb 3c
       0.017673539 0.0124297 0.059401043 0.02482533
0003c0 e6 c7 4b bd fc 3f b0 3d 40 76 04 bd d1 c6 65 bd
       -0.049751185 0.08605954 -0.032339334 -0.05609781
0003d0 2e 1d 6f bc c4 66 75 3d cf 34 a0 3d 8f 6b 49 3c
       -0.014594359 0.059912458 0.078225724 0.01229371
0003e0 88 0d c1 bc bf 1c 94 3b 1b 3f 35 bc fe 76 39 3d
       -0.023566023 0.0045200284 -0.011062409 0.045279495
0003f0 8d 0e 80 bd fa 93 98 bd 48 2f 47 3d 8f 3b ac 3b
       -0.06252775 -0.07450099 0.048629075 0.0052561234

convs.0.lin_r.weight f4 [256, 128]
000000 81 36 c6 bc b4 44 95 3d bc 14 2c bd 83 2e 7e bd
       -0.024195911 0.07288495 -0.04201196 -0.062056076
000010 c3 20 d2 3c 0a 38 9d 3d f7 22 35 3d 6d 87 ac 3d
       0.025650388 0.07676704 0.0442228 0.08424268
000020 88 ca 5b bd 3b 50 88 bd c2 71 3b 3d f4 f7 ae bd
       -0.053659946 -0.06655928 0.045762785 -0.08543387
000030 9a be 2f bc ff 07 86 bd 9d 4d 77 3d a3 38 24 3d
       -0.010726595 -0.06544494 0.060376752 0.040093075
000040 db 2c 6d bd 8e c4 73 bc 62 d5 91 3b 4f 72 7e bc
       -0.057904106 -0.014878405 0.004450486 -0.015530183
000050 91 ab a7 3d 42 57 24 3d e6 76 05 bd 39 16 0d 3d
       0.081870206 0.040122278 -0.032584094 0.03444502
000060 8a 09 2a 3c e4 4e b3 bd e6 83 70 bd 90 e6 27 bd
       0.010378251 -0.087552816 -0.05871954 -0.040991366
000070 24 c6 76 bd cc d1 8f bc 14 6e e3 bc bc 84 aa 3d
       -0.060247555 -0.017556094 -0.02776245 0.08326098
000080 9d 81 73 3d f0 20 1a bd 16 5f 91 3d ee 7d 9f 3d
       0.05944978 -0.037629068 0.07098214 0.07787691
000090 a0 a3 4e 3c 2b 31 4f bd 1b b3 77 3d 40 56 84 3d
       0.012612253 -0.050584 0.060473543 0.064617634
0000a0 54 80 97 3d 3c 1d 05 bd 8f 1f c3 bc 08 9b 59 3d
       0.073975235 -0.032498583 -0.02381876 0.053126365
0000b0 e7 84 27 bb 7b 62 a8 bd da e0 f5 3a e1 12 45 bd
       -0.0025561394 -0.08221909 0.0018759028 -0.048113707
0000c0 3b fe a0 bb 64 26 0a 3d 0b 04 58 3d f4 5c 11 bd
       -0.004913119 0.03372802 0.05273823 -0.035489038
0000d0 d7 8d 97 3c ba 27 84 bd 9a 67 b1 3d 3e 0d 87 3d
       0.018500252 -0.0645289 0.086623386 0.065943226
0000e0 ff aa a5 bc f5 d7 ac bc 48 42 8f bd be 8f 2d bd
       -0.020223139 -0.02109907 -0.06995064 -0.04237341
0000f0 44 24 80 3d 34 ac 18 bd 97 d1 9b bd 44 f3 f1 3c
       0.06256917 -0.0372736 -0.076083355 0.029534943
000100 51 c6 62 bc fe 18 15 bd 74 e8 64 bd 55 76 45 3d
       -0.013841228 -0.036400788 -0.055885747 0.048208553
000110 57 26 89 3d 98 95 70 3d 87 8b b2 3d c5 5b a7 bd
       0.06696766 0.058736414 0.08718019 -0.081718005
000120 38 63 3e bd 7a d2 b0 bc 05 20 63 3d 84 d8 03 3d
       -0.04648134 -0.021584738 0.055450458 0.032188907
000130 ad ae bd 3b 52 d6 b6 3c d6 fa 87 bd 0d ae 65 bd
       0.0057886452 0.022318993 -0.0663964 -0.05607419
000140 27 96 28 3d b8 87 16 3d 2e 11 5d bb b4 71 5a bd
       0.04115882 0.036750525 -0.0033732164 -0.053331092
000150 21 0c 83 3d 0e 56 07 bc a8 63 7a 3a 72 7b 6c bd
       0.06398798 -0.008260263 0.0009551593 -0.057734914
000160 02 79 ae 3c 36 64 ff bc b7 50 43 bd 23 f2 b1 3d
       0.021297935 -0.031175714 -0.047684398 0.08688762
000170 12 56 f1 3b 76 27 2a 3d 7f 49 a2 bd 2e 38 01 3d
       0.0073649967 0.04154154 -0.079241745 0.031547718
000180 68 08 c5 3c 31 20 53 bc a5 e5 91 3d 54 16 3f 3d
       0.02405186 -0.012886093 0.07123879 0.046652153
000190 f5 41 5e 3d c8 fb f7 bc 0d 74 a1 3d 84 02 b5 bd
       0.05426212 -0.030271426 0.07883463 -0.088383704
0001a0 1c 94 74 3d 88 38 9f bd 66 dc 23 bd 44 a2 a7 bd
       0.05971156 -0.07774454 -0.04000511 -0.081852466
0001b0 6b 7b a0 3d b4 16 89 3d 05 e1 c7 bc 75 3b 91 bc
       0.0783604 0.066937834 -0.02439929 -0.017728547
0001c0 bb 06 15 3d 1a 19 3a bd 44 73 c2 3c 8d ad 19 bd
       0.03638337 -0.045434095 0.023736604 -0.037519027
0001d0 a0 ad 23 3d 3c 3c 77 3c 74 77 6f 3d bd 03 73 3d
       0.039960504 0.015090045 0.05846353 0.059329737
0001e0 b1 d2 95 bd 0c 03 9c 3d 9a 57 99 3d 9a d7 e5 3c
       -0.07315577 0.07617769 0.07487412 0.028056908
0001f0 00 fe 14 3d d3 0b 0e 3d 33 20 57 3d 28 5b f0 bc
       0.036375046 0.034679245 0.052520942 -0.029340342
000200 bc 38 8f 3d 3b 3f c2 bc a8 6d 8e ba 55 f5 21 3d
       0.06993243 -0.023711791 -0.001086642 0.039540607
000210 e6 93 20 3d 19 6a de 3b 3f 15 84 3d b5 87 3b bd
       0.039203547 0.00678755 0.06449365 -0.045783717
000220 d8 87 a7 bd 24 aa 18 bd f0 73 46 bc 92 17 a9 3d
       -0.08180207 -0.037271634 -0.012112603 0.08256449
000230 fe 9b 04 bd 27 39 b3 bc bf a5 55 3c 7a 25 66 bd
       -0.03237533 -0.021877838 0.013040005 -0.056188084
000240 75 f8 81 3d 08 91 83 bc 94 67 69 3c 61 ca c3 3c
       0.063462175 -0.016060367 0.014245886 0.023900213
000250 31 4f 2c 3d 6d 9a 9e 3d 99 02 3b 3d b1 cf a9 3d
       0.04206771 0.07744298 0.045656774 0.08291567
000260 07 f7 24 bd 95 08 aa 3d 32 bc 44 3d 4a c5 72 bd
       -0.040274646 0.08302418 0.04803104 -0.05927018
000270 4d a1 a1 bd 9f 67 7a bc e2 02 65 3d cc 98 76 3d
       -0.07892094 -0.015283494 0.055910952 0.060204312
000280 84 b7 2e bd 9c 70 11 3d 41 d4 8f bc 71 62 39 3d
       -0.042655483 0.035507783 -0.017557265 0.045259897
000290 5f 72 9c 3c 28 24 5a 3d 4e c1 fe bc 13 ff 0d 3d
       0.019097505 0.053257138 -0.031098034 0.034667086
0002a0 0f cc 0a bd 4e 80 4c 3c 1e 0e 21 bd 5b ad 80 bb
       -0.03388601 0.012481762 -0.039320104 -0.0039269156
0002b0 73 c9 70 3d a7 bd 3b 3d dc 8d 60 bd 7b 1e 99 3d
       0.058785867 0.045835163 -0.054822788 0.07476517
0002c0 b6 69 66 bd 14 10 0f 3c a1 2e 5a bd c3 90 7f 3d
       -0.056253158 0.008731861 -0.053267125 0.062393915
0002d0 25 8f 1f 3d 41 49 15 bd 67 29 5d 3c 95 fd 43 bd
       0.038954873 -0.036446813 0.013498641 -0.047849257
0002e0 13 70 38 bd 54 72 75 bc cb 17 aa 3d ae 18 86 3d
       -0.045028757 -0.014980871 0.083053194 0.06547676
0002f0 36 26 88 3c 2d 8a 8f bc d4 ed 37 3b 3b c2 b3 bd
       0.016619783 -0.017521942 0.002806534 -0.08777281
000300 85 d8 ad bd f7 4a 86 3d 6c 72 cb 3b 88 d4 a7 bd
       -0.084885634 0.06557267 0.0062087085 -0.08194834
000310 cf 48 e6 3c ae c3 a1 3b 72 20 22 bd c5 60 a2 bd
       0.02811089 0.004936657 -0.039581724 -0.079286136
000320 1c 8d 87 bd 3f c1 9c bd c0 d0 13 3d 34 57 89 bc
       -0.06618711 -0.07654046 0.03608775 -0.016765215
000330 f2 1f 97 bd 71 df a0 bd 91 a1 68 3d a6 36 42 3d
       -0.0737914 -0.07855118 0.056794707 0.047415398
000340 fe f1 9d 3d 7c 57 76 bc df 14 9d 3d 52 22 aa 3c
       0.07712172 -0.015035506 0.076699965 0.020768318
000350 a3 de b1 3d c5 28 74 bd 03 d1 05 bd db c4 89 3d
       0.08685043 -0.059609193 -0.032670032 0.06727
000360 29 a6 06 3d 37 e7 74 bd a4 be c6 bc ac 66 54 3d
       0.032873306 -0.059790816 -0.024260826 0.051855728
000370 31 00 af bd dd df ce 3c 26 ae 97 3d 5e 15 1e 3d
       -0.085449584 0.02525323 0.07406263 0.038594596
000380 94 a8 ae bd e0 cc 0d bd 56 08 05 3d 2b 8e a9 3d
       -0.085282475 -0.034619212 0.032478653 0.082790695
000390 1a 0b 3e bd a4 03 af 3d 66 e1 ae 3d 52 c2 49 bc
       -0.046397306 0.08545616 0.08539085 -0.012314396
0003a0 25 5d 65 bc 5c 26 9c bd fd ce b2 3d ae bc 86 bd
       -0.013999258 -0.07624504 0.08730886 -0.065789565
0003b0 85 32 a5 3c 9e a5 89 3c 31 2b 46 bd 81 c1 01 bd
       0.020165691 0.016802605 -0.048381034 -0.03167868
0003c0 f3 0a c5 bc c9 9d 73 3d c1 c2 47 bd bd 19 bb 3c
       -0.024053073 0.059476648 -0.048769716 0.022839421
0003d0 e5 c1 86 bd 53 34 85 3d 4c e6 17 bd 57 42 ef 3c
       -0.06579951 0.06504121 -0.037084863 0.029206438
0003e0 34 77 83 bd c2 02 84 bd 54 07 e8 3c dc 79 b1 3c
       -0.064192206 -0.064458385 0.028323807 0.021664552
0003f0 bc 09 3c 3d 62 16 65 bd f8 dd 20 3d ac 72 1a bc
       0.04590772 -0.05592955 0.039274186 -0.009426754

convs.1.lin_l.weight f4 [64, 256]
000000 23 86 0d bd aa fa ac bc 55 6a e0 3c 7a 4c 82 3b
       -0.03455175 -0.02111562 0.027394453 0.003976402
000010 f0 83 89 3c ec d2 ce bb a5 68 c7 3b 95 96 8f 3c
       0.016786546 -0.006311765 0.0060854726 0.017527858
000020 f4 38 79 bd df c5 29 bc cb 4f 5a 3d 92 a3 70 bc
       -0.06084533 -0.010362118 0.053298753 -0.014687436
000030 ea ec b0 bc 5b 9b 4a bd 1a 5c 35 bc 7a ce 14 bd
       -0.021597344 -0.049464565 -0.011069322 -0.036329724
000040 f2 5a 26 bd 99 24 1c 3b 33 1e f8 bc 83 21 fa bc
       -0.040614076 0.0023825525 -0.030287838 -0.030533558
000050 75 7e 94 bc 0e d0 a0 3c e3 f6 0a 3d 85 f3 4c bd
       -0.018126706 0.019630458 0.033926856 -0.050036926
000060 1c f8 1d 3d 20 ff 13 bd d7 37 07 3d ed fe 71 bd
       0.038566694 -0.036131978 0.033012237 -0.059081007
000070 d9 92 55 3a 5e 5f 88 bb ad 68 d5 3c 88 e4 16 bd
       0.0008147187 -0.0041617593 0.02605089 -0.036839038
000080 69 55 9d 3b 26 da b8 3c 9e 7a 28 bc 59 af fc 3c
       0.0048014414 0.022564959 -0.01028314 0.030845331
000090 21 02 8e 3c d9 5d 4a bb 52 70 9b ba 62 fa 52 ba
       0.017335 -0.0030878691 -0.0011859036 -0.0008048174
0000a0 c6 08 77 bd e9 4a 65 3d 25 86 61 bd 88 35 44 bc
       -0.0603111 0.055979643 -0.05505957 -0.0119756535
0000b0 5f 28 69 3c 22 16 93 3c b4 14 23 bb 1b 23 ae bc
       0.014230817 0.01795489 -0.0024884166 -0.021256974
0000c0 72 34 21 3b 4a 49 cd ba 8b 4c 06 bd 76 42 58 bd
       0.002459791 -0.0015662101 -0.03278784 -0.052797757
0000d0 c2 bc 36 bd 95 2e 19 3c 63 0b f3 3b d1 3d 71 bd
       -0.044613607 0.009349485 0.007417129 -0.058896843
0000e0 9f b7 3e 3d f3 8a 08 bd 58 7e 70 3d 41 5b 0f 3d
       0.046561833 -0.033335637 0.05871424 0.034999136
0000f0 fd 3b 3a bd 06 cd 83 bc 48 9d 8e 3c b5 c0 18 3c
       -0.045467366 -0.016088974 0.017408982 0.009323289
000100 db 18 8d 3b 4f d8 c2 3a 94 2c ed bc c2 4b a6 3b
       0.0043059415 0.001486549 -0.02895192 0.005074949
000110 6c c3 d7 3b 40 bc 9c 3c d7 c8 17 bc 4d 5b 8c 3c
       0.0065845754 0.019132733 -0.009264193 0.01713338
000120 d2 ff a9 bb a4 3e c2 38 44 97 67 bd a6 1f 92 bc
       -0.005187967 9.2623086e-05 -0.056540743 -0.017837357
000130 51 87 6a bd 96 fb 11 bd 3f 7e 50 bd 2b 29 58 3d
       -0.057257954 -0.03564032 -0.050901648 0.052773636
000140 16 9d 17 bb e7 8e 8b 3c b7 7d 04 bd 2f 58 26 bd
       -0.0023134402 0.017035915 -0.032346454 -0.040611442
000150 60 53 4a 3d 5b ac 03 bd 08 bc 73 bd 19 0a e1 bc
       0.04939592 -0.032146793 -0.059505492 -0.027470635
000160 1b 22 51 bc 37 01 67 3d e6 b5 18 3d 87 31 1d bd
       -0.012764479 0.056397643 0.037282847 -0.03837731
000170 8e 7e 4c 3b 98 dd c6 bb 04 71 44 bd 59 bd 3a bb
       0.0031203362 -0.0060688965 -0.047959343 -0.0028494208
000180 62 1b 51 bd 76 21 61 bd 0e 86 52 3a b8 d5 99 bc
       -0.051051505 -0.05496355 0.000803084 -0.018778667
000190 71 41 16 3d 4d 85 4a bd 49 48 d4 3c 85 fd ec 3c
       0.036683504 -0.04944353 0.025913374 0.028929481
0001a0 f3 73 f6 bc d3 c1 5c 3d 7b 42 e6 3c 5e 08 73 3d
       -0.030084586 0.053895783 0.028107872 0.05933415
0001b0 94 b2 ab 3c e7 4f 76 bd d7 2b 42 3c 6a b0 f8 3c
       0.020959176 -0.060134795 0.011851273 0.030357558
0001c0 4f 6f 1f bd 26 29 74 bd 2d 95 06 bc 98 e5 7f 3d
       -0.03892451 -0.059609555 -0.008214277 0.062474817
0001d0 f6 2f 63 bd 0c 01 2f 3c 25 17 95 3c dd 1e 3e 3d
       -0.05546566 0.010681402 0.018199513 0.046416152
0001e0 e7 98 1d bd db 14 3e 3d e6 ab 41 bc df ee f9 3c
       -0.038475897 0.046406608 -0.011820769 0.03050941
0001f0 97 17 0c 3d fe a2 89 3c 66 ab 84 bc 87 fa 60 bd
       0.034202185 0.016801354 -0.01619501 -0.05492642
000200 77 a3 7c bd 95 07 6b bc c2 1f 23 3c 28 c8 34 3d
       -0.06167933 -0.014345069 0.009956302 0.044136196
000210 aa 99 f3 3c 84 fe 7a 3d 0a e9 2b 3c 04 bc a6 bc
       0.029736359 0.06127788 0.010492573 -0.020353325
000220 ae 90 4b bd 88 52 44 3d 7c 4b c6 3c f2 75 4e 3b
       -0.049698524 0.04793027 0.024205916 0.0031503406
000230 fe c0 96 bc 0b 27 f4 3a d8 b6 7c bc 7d 62 7a 3d
       -0.018402573 0.0018627358 -0.015424453 0.061129082
000240 d8 a4 37 bc 38 f3 16 bd 63 b7 76 3d fb 80 5c bd
       -0.011208735 -0.036853045 0.060233485 -0.053833943
000250 ef 2d 5e bc ec 76 31 bd 0f bc 5c 3d 43 b1 c9 bb
       -0.013560756 -0.043326303 0.053890284 -0.0061551644
000260 df 4a a8 3c f0 35 47 bd 16 39 12 3d 3f db 7a bd
       0.020543514 -0.048635423 0.035698973 -0.061244246
000270 f5 73 48 3c f0 1e 1d bd 73 4a 7a bd 07 11 49 bd
       0.012234678 -0.038359582 -0.061106157 -0.049088504
000280 2f 42 23 3d d0 33 c5 3c fb 5b 67 3d 02 74 c0 bc
       0.03985804 0.024072558 0.056484204 -0.023492817
000290 b7 00 65 bc 8d ed 11 bc 78 ba e6 bc 08 e8 4a 3d
       -0.013977221 -0.008906734 -0.028165087 0.04953769
0002a0 17 d6 26 bc bb d2 e7 3c 17 f6 1a 3c 6d 53 60 3d
       -0.010182879 0.028298726 0.009458086 0.05476706
0002b0 4e b4 78 bc da ac d0 bb ec 6e 5e 3d 8f ab 78 bc
       -0.015179707 -0.0063682618 0.054305002 -0.0151776215
0002c0 0a 84 e2 bb 46 b7 40 3d 99 1d 37 bd 9b 4a 6b 3c
       -0.006912713 0.047049783 -0.04470596 0.014361049
0002d0 32 8c 87 3c 4d c1 27 bd 94 8a 95 bc 10 76 6b 3b
       0.016546343 -0.04095583 -0.018254556 0.0035928525
0002e0 90 f0 d8 3a 3a 92 bd bc c1 7f 73 3d 06 6a cc 3a
       0.0016551185 -0.023141015 0.059448007 0.0015595562
0002f0 94 3f 2e 3d 10 1d 0e 3c 06 b7 e0 bc 73 92 ff bc
       0.0425411 0.008673921 -0.027431022 -0.031197762
000300 ac 1a 31 3d 1b 76 ce bc 2c ab 22 3d 2b b5 76 3d
       0.043238327 -0.025202801 0.039714023 0.06023137
000310 b8 a3 05 3d a0 e6 0a bc 57 9d 29 bd 17 a9 66 3d
       0.032626837 -0.008477837 -0.041409817 0.0563136
000320 4f a1 55 bd 3d 93 15 3d a4 51 e3 bc 0e 0d 15 bd
       -0.05215579 0.03651737 -0.02774889 -0.036389403
000330 76 b8 40 bc 6c 5c 84 bc a5 9c c6 3c 6f bf 2f bd
       -0.011762729 -0.016157351 0.024244616 -0.042907175
000340 5c 69 24 bc 75 bf 2b 3d 30 ae 14 bd c9 12 25 3d
       -0.010034885 0.041930635 -0.03629893 0.040301118
000350 78 28 25 3d c9 96 75 3d 3c 3e 10 bb 4a 7b 29 3d
       0.040321797 0.059958253 -0.002200975 0.041377343
000360 84 24 72 bd d9 4d 57 bc 05 aa 95 bb 10 d2 2b bd
       -0.059116855 -0.013141119 -0.004567387 -0.041948378
000370 ac 64 dd 3c 82 e8 27 3d 1f 67 00 bd ba 0c 8d bc
       0.027025543 0.04099322 -0.031348344 -0.017217983
000380 36 2b 6a 3d c9 c2 51 bd 2f ec cf 3b d6 a8 6a bd
       0.057170115 -0.051211152 0.006345294 -0.05728992
000390 e1 d4 06 bd 75 91 3d 3c 47 74 a0 3c ca 3f 5b bd
       -0.03291786 0.011570324 0.019586695 -0.05352763
0003a0 f4 81 ae bc f8 03 00 bd 22 c0 5d 3d 6d b2 99 bc
       -0.0213022 -0.031253785 0.05413831 -0.018761838
0003b0 0d fe 09 3d ec 06 5b bd 95 f0 7b 3d 63 9a 26 3d
       0.033689547 -0.053473398 0.061508734 0.04067458
0003c0 07 15 30 bd eb 3f 6f 3c a5 0b 66 bd 04 f8 5b bb
       -0.042988803 0.014602642 -0.05616345 -0.0033564577
0003d0 78 ab a1 bc 48 8f 9c bc 49 e5 46 bb e9 68 bc 3c
       -0.019735083 -0.01911129 -0.0030349067 0.022999244
0003e0 09 21 d9 3a 5d 40 f9 3c 3c 9a 08 bd e1 55 54 3d
       0.0016565631 0.030426199 -0.033350214 0.051839713
0003f0 99 8f dd bb 78 42 7d 3d 94 c4 b6 3c b7 ec 0d bc
       -0.006761503 0.061830968 0.022310533 -0.008662394

convs.1.lin_l.bias f4 [64]
000000 0d 4c 12 3c a2 28 2a bd 6e 5f 6f 3d 6a 99 f2 bc
       0.008929265 -0.041542657 0.05844062 -0.02961417
000010 e9 c9 11 bc 8f 75 da 3c a8 5b 81 bc ba 28 cc 3c
       -0.008898237 0.026667384 -0.015790775 0.024921764
000020 37 20 f2 bc 5f cd 5a bd fd 3d 4c 3d 7b 6a 16 bd
       -0.029556377 -0.053418513 0.049863804 -0.03672264
000030 af 87 a2 bc 44 fc 95 3c 05 9c 02 3d 77 8e fe 3c
       -0.01984009 0.018308766 0.031887073 0.031073792
000040 60 1f 8d 3a 25 16 bc 3c d7 cf 7f 3d a5 7d 1e 3d
       0.0010766797 0.022959778 0.06245407 0.038694043
000050 2b 52 be bc 0e 3e 6e bd 13 18 72 3d 30 1f 79 bd
       -0.02323254 -0.05816465 0.05910499 -0.06082076
000060 c2 88 44 3d fa 2d 5e 3d ec d3 47 bc e5 76 51 bd
       0.047981985 0.054243065 -0.012196522 -0.051138777
000070 a9 90 1c 3d 11 f2 03 3d b2 a8 0d bd 5e 0c fa 3b
       0.038223896 0.032213274 -0.03458471 0.007630869
000080 74 a4 6f 3d 3a f3 63 3d 8d fc 59 bd 5d 65 29 3d
       0.058506444 0.05565188 -0.053219367 0.041356433
000090 de b6 6c 3c 35 a2 3c 3c 12 ae 98 3c f2 6b 24 3d
       0.014447896 0.011513283 0.01863769 0.040142007
0000a0 e6 1a 29 bd 6d b7 fa bc 8b 1b 2f bd 0a e9 2e 3d
       -0.041285418 -0.030605042 -0.042750876 0.042702712
0000b0 d9 e4 f8 bc ce dc 9f bc d9 2f 58 3d f8 10 6a bc
       -0.03038256 -0.019514468 0.052780006 -0.014286272
0000c0 7f 3f 59 bc 08 03 d3 bc 6f b3 18 3c 19 ea 34 bc
       -0.013259768 -0.025758281 0.009320124 -0.011042141
0000d0 16 a9 78 bc c9 16 6f 38 de fb 77 3d d9 28 67 3d
       -0.015177032 5.700326e-05 0.060542934 0.05643544
0000e0 e0 0b 42 bd ef dc 2e bd 2f 25 11 bd 3c d6 15 3d
       -0.047374606 -0.042691167 -0.03543585 0.036581263
0000f0 69 f4 58 3d b3 dc fe bc f1 27 7b bd 54 3f 41 3d
       0.052967463 -0.031111097 -0.061317388 0.047179535

convs.1.lin_r.weight f4 [64, 256]
000000 b2 c1 de bc 17 a3 55 3d 9f d5 f3 3b 09 0e 43 bd
       -0.02719197 0.052157488 0.007441237 -0.047620807
000010 45 0f 79 bd 1d 96 4b 3c 64 dd 36 bd 39 fa 56 3d
       -0.060805578 0.0124259265 -0.04464473 0.052484725
000020 3a a5 00 bd 20 5b 4e 3d 79 1b 34 bc a3 09 d1 3c
       -0.031407572 0.050379872 -0.010992878 0.02551729
000030 d0 2f 41 3d f2 9e ac bc 17 bd 6b 3c 23 1c fd bb
       0.04716474 -0.021071885 0.014388344 -0.0077243014
000040 61 ad a4 3c 6d 41 65 3a 5a 8e 2a 3d d1 b5 58 bd
       0.020102205 0.0008745406 0.041639663 -0.05290777
000050 00 27 55 3d dc 60 9f bc e5 2b 5e bd 6b 3e c5 bc
       0.052039146 -0.019455366 -0.05424108 -0.024077615
000060 56 92 ac bc 65 55 59 3d 4e fd aa bc 17 76 c3 3c
       -0.021065872 0.053059954 -0.020872738 0.02386002
000070 bf 9a ec bc a1 3f 19 3d 33 53 44 bd 89 0f a3 3c
       -0.028882382 0.037414197 -0.047930907 0.019904869
000080 10 b5 33 3d c3 5e ed 3c 59 94 54 3d 2c 13 2d 3a
       0.043873847 0.02897585 0.051899288 0.0006602283
000090 7c c0 31 bd e0 21 a5 3c 92 37 2b bd 9c c1 7c bd
       -0.043396458 0.020157754 -0.041801043 -0.061708078
0000a0 7b 95 19 bd 18 87 23 3d c7 4d ca 3c 89 a0 39 3c
       -0.03749607 0.039923757 0.02469529 0.0113297785
0000b0 3d 6e 04 bc 9f af f6 3c 70 08 3b bc 6f 23 05 3d
       -0.0080829235 0.03011304 -0.011415586 0.032504495
0000c0 ac 75 0e bc 19 02 24 3c ad aa ee 3c 74 86 73 bd
       -0.008695047 0.010010266 0.029134119 -0.059454396
0000d0 30 b1 77 bd 16 c6 55 3c a4 07 d1 3c 99 1f 12 bd
       -0.060471714 0.013047716 0.025516339 -0.035674665
0000e0 07 04 96 bc ca fa 52 3d 27 75 11 bd 09 d4 7f 3d
       -0.018312467 0.051508702 -0.035512116 0.06245807
0000f0 3d f0 46 bd 28 af f1 bc c6 39 fa bc 0d 01 19 3a
       -0.048568953 -0.029502466 -0.030545127 0.00058366434
000100 fd b5 8f bc 76 3b ce bc 23 b8 7b bc 62 2d 21 bd
       -0.017542833 -0.025174838 -0.015363726 -0.03934992
000110 f3 85 b9 3c da f2 b8 3a 76 e1 db bc e2 8f 2a bd
       0.02264688 0.0014110461 -0.026840907 -0.041641124
000120 03 0c c3 3c 9a 4f 77 bd c4 08 91 3c a3 3b c3 3c
       0.023809439 -0.06037865 0.017704375 0.023832148
000130 3f 7d 33 3d a0 41 b6 3c ac 75 da 3c fc 93 51 3d
       0.043820616 0.02224809 0.026667438 0.05116652
000140 a8 e3 4e bd 25 4e 72 3d 30 3a c1 3c a0 be ae 3c
       -0.05051008 0.059156556 0.023587316 0.021331131
000150 22 4d c4 bb 11 9d 68 3d 56 fa 89 3a e0 01 1a bd
       -0.0059906403 0.056790415 0.0010526876 -0.037599444
000160 d2 eb f2 bc 19 cb 9b 3c 02 0c 2d bd 2d 41 6b 3d
       -0.029653464 0.019017743 -0.04224778 0.057435203
000170 c0 28 46 bd c4 ca 19 bd 04 23 81 bc df ac 6d 3d
       -0.048378706 -0.037546888 -0.015763767 0.05802619
000180 1d da 29 3c 5f 46 fc bc c9 e6 51 3d e3 40 01 3c
       0.010366944 -0.030795274 0.051245485 0.007889005
000190 d0 30 eb 3c 69 7e 5d bd a8 53 54 3d 19 c3 b6 3c
       0.028709799 -0.054075632 0.051837593 0.022309827
0001a0 ca 4f 34 3d 15 36 35 bd 06 61 28 3d 5f 41 31 bd
       0.044021405 -0.04424103 0.041108154 -0.043275233
0001b0 9f a7 72 bc a2 87 0e bc 95 df ac bc 7e 3d 71 3d
       -0.014810472 -0.00869933 -0.021102706 0.058896534
0001c0 de 87 13 bc 53 ed 07 bd 6b 22 d2 3b 5b e8 2a bd
       -0.009004561 -0.033185314 0.0064127943 -0.041725498
0001d0 87 ef 7a bd b4 05 69 bd 6e bb 5c bd e3 00 24 3d
       -0.061263587 -0.056890205 -0.053889684 0.04003991
0001e0 21 cf 7a bd 61 f7 af bc 75 e3 d8 bc 31 71 67 bd
       -0.06123269 -0.021480264 -0.026475647 -0.056504432
0001f0 77 6d 2e 3c 2b af 39 bc f8 75 46 bd c4 98 28 3b
       0.010646216 -0.011333267 -0.048452348 0.002572582
000200 ec 93 ab 3c 04 6b af 3c 77 fb 19 bd 21 2e a8 3c
       0.020944558 0.021413334 -0.03759333 0.020529808
000210 19 dd ce 3b cf dc bd bb 76 4c 0f bd e9 f0 50 bc
       0.006312978 -0.0057941447 -0.03498503 -0.01275275
000220 0c b0 6e bd cf 91 e7 3c f6 a8 fd 3b 2b fc e2 bc
       -0.05827336 0.02826777 0.007741089 -0.027708134
000230 6e 78 5b bd f6 c5 06 bb b1 e1 f1 3c 05 0a 4b bd
       -0.053581648 -0.0020564771 0.029526563 -0.049570102
000240 68 ca 13 3c b9 d5 8c bc b3 49 c3 3c a5 cd 68 bc
       0.009020425 -0.017191755 0.023838853 -0.014209186
000250 6d d0 64 3d d6 ff da 3c 6f b2 82 bc 6b be 2f bd
       0.055862833 0.02673332 -0.015954224 -0.042906206
000260 e2 c0 53 3d d5 19 3e bb aa 01 5c 3d cd 77 0b bc
       0.05169762 -0.0029007096 0.053712524 -0.008512449
000270 74 4a 2c bc 42 f7 5a bd 84 28 ed bb e2 79 3e 3d
       -0.010515798 -0.05345846 -0.007237496 0.046502955
000280 8d a7 0d bb 80 1a 51 3d f1 6b 37 bd 07 d4 6f bd
       -0.002161476 0.051050663 -0.044780675 -0.058551814
000290 16 7a 51 3d 2c ec ce bc eb dc 25 3d 17 76 33 bd
       0.05114182 -0.0252591 0.040493887 -0.04381379
0002a0 13 eb 66 3d cb 67 40 bd da 20 89 3c a7 35 40 bd
       0.056376528 -0.046973985 0.016739298 -0.046926167
0002b0 21 3a 86 bc 4c 1b e6 3c 17 fe 2c 3d 67 93 5f bd
       -0.01638514 0.028089188 0.042234506 -0.054583933
0002c0 40 4b 21 3d d6 fd 52 bd 22 87 c4 bb 17 69 45 bd
       0.039378405 -0.051511608 -0.0059975544 -0.048195925
0002d0 c1 5c 04 3d f4 6d 7b 3d c2 e8 11 bd ed 13 32 3d
       0.03231502 0.061384156 -0.035622366 0.043476034
0002e0 b7 fd 3b bb 1b 42 e4 3c 3c 4f 56 3c 6e be 62 bd
       -0.0028685161 0.027863553 0.013080414 -0.05535739
0002f0 d8 e6 67 3d f6 fa 63 3d 53 8d 5f bd ce 0d f0 3c
       0.056616634 0.055659257 -0.054578137 0.029303458
000300 75 c8 77 3d 5f a4 79 3a 2e 0b 60 bc 28 89 44 bd
       0.060493905 0.00095230894 -0.01367454 -0.047982365
000310 53 d3 59 3d b7 0b 0f 3d 68 d5 a5 3c 16 42 95 bc
       0.05318005 0.03492328 0.020243362 -0.018219989
000320 89 13 85 bb bb 79 64 bb 95 b4 14 3c c9 fc 66 bd
       -0.0040611667 -0.0034862596 0.009076257 -0.05639342
000330 ee 10 16 3d 9f 93 05 bd a7 d8 64 3d 41 db f1 3c
       0.03663724 -0.032611486 0.05587068 0.029523494
000340 29 50 25 3d 68 43 04 bd 1d f8 66 bd 85 c0 26 bd
       0.04035965 -0.032290846 -0.056388963 -0.040710945
000350 d5 15 0b 3d 70 af 2f 3d fb e1 d6 bc f1 fa 85 3c
       0.033956368 0.04289192 -0.026230803 0.01635501
000360 46 0e 7f 3d 73 7a 49 3d bc ef 15 3d 12 05 64 bc
       0.06226947 0.049189042 0.03660558 -0.0139172245
000370 c7 c1 15 3c fc da fc bc 65 ab 46 bd 40 75 48 3d
       0.009140438 -0.030866139 -0.0485033 0.048939943
000380 c3 c8 01 3c 5b 26 0d 3d 48 7b 92 3b c7 27 85 3c
       0.0079214005 0.034460407 0.0044702627 0.016254319
000390 bb 9c 4f bc 04 33 19 3d 50 58 c0 3c c0 2b f2 bc
       -0.012671645 0.037402168 0.02347961 -0.029561877
0003a0 8f 8f c2 bc f0 83 4f bd 14 7c 4d 3d 79 e5 86 bc
       -0.023750095 -0.050662935 0.05016716 -0.016466843
0003b0 9b 4e 1d 3d 29 04 74 3d 56 b7 03 3d c0 f3 ea bc
       0.038405042 0.05957428 0.032157265 -0.028680682
0003c0 59 55 01 3d aa 38 9a 3b 43 3b b5 3b 84 7a 66 bd
       0.031575534 0.004706462 0.005530746 -0.056269184
0003d0 c4 49 76 bd 02 22 2e 3d b5 bf 06 3d 67 5a d3 3c
       -0.060128942 0.0425129 0.03289767 0.025799943
0003e0 f6 0f e5 3b 72 ac c4 3b a7 48 db bb 83 10 55 bd
       0.006990428 0.0060020024 -0.0066920104 -0.0520177
0003f0 d8 91 6f 3d b6 ca 31 3d 3d 6a 52 bd 63 50 05 bd
       0.058488697 0.04340621 -0.051370848 -0.032547366

bns.0.weight f4 [256]
000000 de ff 7f 3f ef ff 7f 3f fc ff 7f 3f 08 00 80 3f
       0.999998 0.999999 0.99999976 1.000001
000010 0c 00 80 3f da ff 7f 3f e5 ff 7f 3f 03 00 80 3f
       1.0000014 0.99999774 0.9999984 1.0000004
000020 15 00 80 3f 17 00 80 3f e3 ff 7f 3f 0c 00 80 3f
       1.0000025 1.0000027 0.9999983 1.0000014
000030 07 00 80 3f 03 00 80 3f 12 00 80 3f 02 00 80 3f
       1.0000008 1.0000004 1.0000021 1.0000002
000040 ea ff 7f 3f d6 ff 7f 3f 0e 00 80 3f e5 ff 7f 3f
       0.9999987 0.9999975 1.0000017 0.9999984
000050 01 00 80 3f 05 00 80 3f 0d 00 80 3f 04 00 80 3f
       1.0000001 1.0000006 1.0000015 1.0000005
000060 ea ff 7f 3f 99 ff 7f 3f 15 00 80 3f e5 ff 7f 3f
       0.9999987 0.99999386 1.0000025 0.9999984
000070 de ff 7f 3f e9 ff 7f 3f ce ff 7f 3f 45 ff 7f 3f
       0.999998 0.9999986 0.999997 0.99998885
000080 0a 00 80 3f df ff 7f 3f 11 00 80 3f ed ff 7f 3f
       1.0000012 0.99999803 1.000002 0.99999887
000090 0a 00 80 3f 09 00 80 3f ef ff 7f 3f bd ff 7f 3f
       1.0000012 1.0000011 0.999999 0.999996
0000a0 b8 ff 7f 3f ff ff 7f 3f f5 ff 7f 3f f3 ff 7f 3f
       0.9999957 0.99999994 0.99999934 0.9999992
0000b0 01 00 80 3f af ff 7f 3f 0c 00 80 3f 20 00 80 3f
       1.0000001 0.9999952 1.0000014 1.0000038
0000c0 03 00 80 3f cc ff 7f 3f ca ff 7f 3f 2a 00 80 3f
       1.0000004 0.9999969 0.9999968 1.000005
0000d0 fa ff 7f 3f d3 ff 7f 3f 06 00 80 3f be ff 7f 3f
       0.99999964 0.9999973 1.0000007 0.99999607
0000e0 a0 ff 7f 3f 02 00 80 3f 02 00 80 3f d7 ff 7f 3f
       0.9999943 1.0000002 1.0000002 0.99999756
0000f0 e9 ff 7f 3f ec ff 7f 3f 04 00 80 3f 01 00 80 3f
       0.9999986 0.9999988 1.0000005 1.0000001
000100 f4 ff 7f 3f e0 ff 7f 3f 05 00 80 3f 03 00 80 3f
       0.9999993 0.9999981 1.0000006 1.0000004
000110 05 00 80 3f 01 00 80 3f 11 00 80 3f fd ff 7f 3f
       1.0000006 1.0000001 1.000002 0.9999998
000120 f5 ff 7f 3f 0a 00 80 3f ec ff 7f 3f c7 ff 7f 3f
       0.99999934 1.0000012 0.9999988 0.9999966
000130 0c 00 80 3f 05 00 80 3f 0f 00 80 3f b8 ff 7f 3f
       1.0000014 1.0000006 1.0000018 0.9999957
000140 05 00 80 3f da ff 7f 3f 15 00 80 3f f0 ff 7f 3f
       1.0000006 0.99999774 1.0000025 0.99999905
000150 05 00 80 3f 16 00 80 3f 06 00 80 3f 00 00 80 3f
       1.0000006 1.0000026 1.0000007 1.0
000160 eb ff 7f 3f e6 ff 7f 3f fd ff 7f 3f f9 ff 7f 3f
       0.99999875 0.99999845 0.9999998 0.9999996
000170 0a 00 80 3f 12 00 80 3f 00 00 80 3f 01 00 80 3f
       1.0000012 1.0000021 1.0 1.0000001
000180 b1 ff 7f 3f 11 00 80 3f 0a 00 80 3f 1b 00 80 3f
       0.9999953 1.000002 1.0000012 1.0000032
000190 db ff 7f 3f f2 ff 7f 3f be ff 7f 3f e0 ff 7f 3f
       0.9999978 0.99999917 0.99999607 0.9999981
0001a0 1a 00 80 3f 05 00 80 3f de ff 7f 3f 01 00 80 3f
       1.0000031 1.0000006 0.999998 1.0000001
0001b0 05 00 80 3f e6 ff 7f 3f 0f 00 80 3f fe ff 7f 3f
       1.0000006 0.99999845 1.0000018 0.9999999
0001c0 0e 00 80 3f 07 00 80 3f 1b 00 80 3f 0c 00 80 3f
       1.0000017 1.0000008 1.0000032 1.0000014
0001d0 eb ff 7f 3f 03 00 80 3f 13 00 80 3f 0e 00 80 3f
       0.99999875 1.0000004 1.0000023 1.0000017
0001e0 05 00 80 3f ae ff 7f 3f 18 00 80 3f 0f 00 80 3f
       1.0000006 0.9999951 1.0000029 1.0000018
0001f0 16 00 80 3f 07 00 80 3f 0b 00 80 3f cb ff 7f 3f
       1.0000026 1.0000008 1.0000013 0.99999684
000200 d2 ff 7f 3f f7 ff 7f 3f 17 00 80 3f df ff 7f 3f
       0.99999726 0.99999946 1.0000027 0.99999803
000210 e3 ff 7f 3f 14 00 80 3f 17 00 80 3f f9 ff 7f 3f
       0.9999983 1.0000024 1.0000027 0.9999996
000220 e5 ff 7f 3f e2 ff 7f 3f 05 00 80 3f 11 00 80 3f
       0.9999984 0.9999982 1.0000006 1.000002
000230 a1 ff 7f 3f fe ff 7f 3f e4 ff 7f 3f 17 00 80 3f
       0.99999434 0.9999999 0.99999833 1.0000027
000240 0c 00 80 3f e3 ff 7f 3f dc ff 7f 3f 0b 00 80 3f
       1.0000014 0.9999983 0.99999785 1.0000013
000250 11 00 80 3f f9 ff 7f 3f e0 ff 7f 3f 03 00 80 3f
       1.000002 0.9999996 0.9999981 1.0000004
000260 01 00 80 3f 0a 00 80 3f 05 00 80 3f b8 ff 7f 3f
       1.0000001 1.0000012 1.0000006 0.9999957
000270 1c 00 80 3f cd ff 7f 3f 10 00 80 3f ef ff 7f 3f
       1.0000033 0.99999696 1.0000019 0.999999
000280 a5 ff 7f 3f df ff 7f 3f dd ff 7f 3f 08 00 80 3f
       0.9999946 0.99999803 0.9999979 1.000001
000290 0a 00 80 3f 11 00 80 3f f5 ff 7f 3f 1f 00 80 3f
       1.0000012 1.000002 0.99999934 1.0000037
0002a0 e0 ff 7f 3f 0d 00 80 3f f4 ff 7f 3f 09 00 80 3f
       0.9999981 1.0000015 0.9999993 1.0000011
0002b0 b9 ff 7f 3f e4 ff 7f 3f 04 00 80 3f 0d 00 80 3f
       0.99999577 0.99999833 1.0000005 1.0000015
0002c0 12 00 80 3f f8 ff 7f 3f 10 00 80 3f 0a 00 80 3f
       1.0000021 0.9999995 1.0000019 1.0000012
0002d0 06 00 80 3f 1d 00 80 3f f0 ff 7f 3f f9 ff 7f 3f
       1.0000007 1.0000035 0.99999905 0.9999996
0002e0 ff ff 7f 3f f9 ff 7f 3f f5 ff 7f 3f 08 00 80 3f
       0.99999994 0.9999996 0.99999934 1.000001
0002f0 17 00 80 3f ef ff 7f 3f 83 ff 7f 3f bc ff 7f 3f
       1.0000027 0.999999 0.99999255 0.99999595
000300 ff ff 7f 3f 06 00 80 3f 01 00 80 3f fb ff 7f 3f
       0.99999994 1.0000007 1.0000001 0.9999997
000310 1a 00 80 3f f4 ff 7f 3f e3 ff 7f 3f f3 ff 7f 3f
       1.0000031 0.9999993 0.9999983 0.9999992
000320 ff ff 7f 3f d3 ff 7f 3f 0a 00 80 3f a0 ff 7f 3f
       0.99999994 0.9999973 1.0000012 0.9999943
000330 b9 ff 7f 3f fa ff 7f 3f 09 00 80 3f ca ff 7f 3f
       0.99999577 0.99999964 1.0000011 0.9999968
000340 f7 ff 7f 3f e0 ff 7f 3f fd ff 7f 3f 06 00 80 3f
       0.99999946 0.9999981 0.9999998 1.0000007
000350 f8 ff 7f 3f ed ff 7f 3f a4 ff 7f 3f 11 00 80 3f
       0.9999995 0.99999887 0.9999945 1.000002
000360 11 00 80 3f 1e 00 80 3f d1 ff 7f 3f 11 00 80 3f
       1.000002 1.0000036 0.9999972 1.000002
000370 1a 00 80 3f 0a 00 80 3f 0b 00 80 3f 03 00 80 3f
       1.0000031 1.0000012 1.0000013 1.0000004
000380 04 00 80 3f de ff 7f 3f 1c 00 80 3f da ff 7f 3f
       1.0000005 0.999998 1.0000033 0.99999774
000390 0b 00 80 3f 02 00 80 3f 0e 00 80 3f eb ff 7f 3f
       1.0000013 1.0000002 1.0000017 0.99999875
0003a0 f8 ff 7f 3f 16 00 80 3f da ff 7f 3f d5 ff 7f 3f
       0.9999995 1.0000026 0.99999774 0.99999744
0003b0 bf ff 7f 3f 02 00 80 3f 18 00 80 3f ea ff 7f 3f
       0.9999961 1.0000002 1.0000029 0.9999987
0003c0 12 00 80 3f 09 00 80 3f f3 ff 7f 3f bc ff 7f 3f
       1.0000021 1.0000011 0.9999992 0.99999595
0003d0 ea ff 7f 3f e6 ff 7f 3f e8 ff 7f 3f fe ff 7f 3f
       0.9999987 0.99999845 0.99999857 0.9999999
0003e0 00 00 80 3f c4 ff 7f 3f b3 ff 7f 3f 0b 00 80 3f
       1.0 0.9999964 0.9999954 1.0000013
0003f0 13 00 80 3f 13 00 80 3f 05 00 80 3f e5 ff 7f 3f
       1.0000023 1.0000023 1.0000006 0.9999984
