output/oi/restr_e2v/run_001/restr_oi_best_model_e2v.pth (torch, 90293 bytes, 14 tensors)

convs.0.lin_l.weight f4 [64, 32]
000000 9b 68 f4 bc 0c cd 2f 3c 14 9f 7c bd 17 ea db bd
       -0.029835036 0.010730039 -0.061675146 -0.107380085
000010 34 17 ab bd 7d 17 00 be fc c0 7b 3d 46 b8 3b 3e
       -0.08354035 -0.1250896 0.06146334 0.18332013
000020 fe 64 2a be 48 75 01 3e 8a 4f 6c bd 96 8b 0c 3e
       -0.16640088 0.12642395 -0.05769304 0.13725123
000030 3b 69 46 3d 7e d3 34 3e 39 90 5b bc 27 00 d4 3d
       0.0484402 0.17658803 -0.013401085 0.103515916
000040 04 b7 b4 3d 64 0c f7 3d c4 41 14 bd 6c bc 05 be
       0.0882397 0.1206291 -0.03619553 -0.13060158
000050 f1 63 4b be 97 3e 54 3d 18 50 60 3c aa 32 88 bc
       -0.19862343 0.051817503 0.013690971 -0.016625721
000060 88 64 01 3e 82 7c 8a 3d 01 74 b2 3d c1 51 c6 3d
       0.12636006 0.06762029 0.08713532 0.09683562
000070 0f 09 27 be e9 4c 1e 3e 03 fb 6e bd de 2c 53 3d
       -0.1631205 0.15459026 -0.058344852 0.05155646
000080 5b 6a f2 b9 fc 1d 85 bd 54 e2 d6 3d 22 c1 2e bd
       -0.00046237078 -0.0649986 0.104923874 -0.042664655
000090 7d 89 22 3d 62 77 a4 3d 2e 19 0a 3d 6f e1 a6 bd
       0.0396819 0.08030583 0.03371542 -0.08148467
0000a0 86 27 ca 3d 03 cf 28 be a9 6a e1 bd ab 3b 41 be
       0.0987082 -0.16485219 -0.11006672 -0.18870418
0000b0 d7 76 c7 3b 39 3f a8 3d 5f f4 20 be bb 4a 0f be
       0.006087165 0.08215184 -0.1571822 -0.13993351
0000c0 e6 c5 3b 3c ff 21 29 3e c7 16 23 3d 93 59 1e 3e
       0.011460757 0.16516875 0.039816644 0.15463857
0000d0 f0 e0 30 3e de 77 c2 3d d7 1a 1d bd da 6c 16 3e
       0.17273307 0.09495519 -0.038355675 0.14689961
0000e0 86 ca 02 be 29 3b 20 3e 3d cb 94 3d f6 22 cd bc
       -0.12772569 0.15647568 0.07265327 -0.025041085
0000f0 b6 fd ce bd 5e 69 ca 3d 6c cf 3a 3d 94 9c 04 be
       -0.10106985 0.098833784 0.04560797 -0.12950355
000100 4c 45 c7 bd 5a 24 87 bd 23 3c 1e be f0 db d8 bc
       -0.09730014 -0.065987304 -0.15452628 -0.026472062
000110 01 f6 86 3c fc bf 24 bd 45 03 89 bd 4a 7a 25 bc
       0.016474726 -0.040222153 -0.06690077 -0.010099957
000120 0c df 0e 3e 2b 35 13 3d 4e 8b 12 3e f0 ae d2 bd
       0.13952273 0.035939377 0.14310953 -0.10287273
000130 79 ec 2d 3e 3f f6 34 be 37 42 a8 3c 03 77 1e be
       0.16984738 -0.1767206 0.020539386 -0.15475087
000140 77 45 c8 3c 1d 6f b8 3d 9e eb 0f 3e ca a1 20 be
       0.024447186 0.09005568 0.14054725 -0.15686718
000150 1e 47 86 bd b4 80 1d be 0e 30 38 3c 65 c6 a4 3c
       -0.06556533 -0.15381128 0.011241926 0.020114133
000160 f0 f9 81 bd 11 26 0e be c0 fc 1d be 8b f3 cc bc
       -0.063465 -0.13881709 -0.15428448 -0.025018474
000170 1c 48 1a 3e d2 d8 13 3d ee 38 1d 3e de 92 32 3d
       0.1506657 0.036095448 0.15353748 0.043597095
000180 45 10 c3 bd 97 bf 82 bd 58 96 9a 3d 4e 83 87 bc
       -0.095245875 -0.06384199 0.07548207 -0.016542103
000190 f7 2a 20 be 66 37 a7 bc 21 d7 10 3e 0e bc a7 bd
       -0.1564139 -0.020412158 0.14144565 -0.081901655
0001a0 05 59 de 3d 73 e7 a0 3c 70 e4 fc bd ce 7d 0a be
       0.10856823 0.019641614 -0.123482585 -0.13524553
0001b0 c1 9d d7 bd 53 65 e4 3d f7 16 48 3c 80 55 58 bd
       -0.10528136 0.111521386 0.0122125065 -0.052815914
0001c0 46 4e a4 ba dd b3 9d bd f1 a4 ac bb 9a 76 30 3d
       -0.0012535534 -0.07700322 -0.005268686 0.043081857
0001d0 bf 30 7c 3d fe a6 9f bd 39 2a 3b 3c 5e ae 3f be
       0.061569925 -0.07795523 0.011423641 -0.1871886
0001e0 c8 18 ab 3d a1 e5 98 3d 4e 0f 1a be c6 23 77 3d
       0.08354336 0.07465673 -0.15044901 0.06033685
0001f0 d9 02 2f 3e 19 bf da 3d c5 32 17 be 86 49 bc bd
       0.1709093 0.1068098 -0.14765461 -0.09193711
000200 e5 d9 b0 3d 21 bb b3 bd 76 26 84 bd f5 83 34 3d
       0.0863531 -0.087759264 -0.06452648 0.044071157
000210 f4 bc c9 3d a7 6f cd bd c0 4d a6 3d b8 3f bf bd
       0.09850493 -0.100310616 0.081202984 -0.09338325
000220 6d e0 34 3e 31 59 02 3e ba ea be 3d 66 b0 b9 bd
       0.17663737 0.12729336 0.09322114 -0.090668485
000230 d6 23 de 3d 2c f4 39 bd b4 3b d7 bc df 6f b8 bc
       0.10846679 -0.045398876 -0.026273586 -0.022514282
000240 77 45 42 be 67 06 24 bc f5 02 ec ba 54 42 79 bd
       -0.18971811 -0.010011292 -0.0018006252 -0.06085427
000250 56 24 20 bd 69 f7 56 3d a6 15 09 bd 71 ca a1 3d
       -0.039097153 0.052482042 -0.03346791 0.07899941
000260 33 09 2b be 5d 59 9f 3d 8c c2 fd bd 24 57 3c bd
       -0.16702728 0.077807166 -0.123906225 -0.04598154
000270 16 bc 24 be 58 ff 77 3d 81 e3 27 3e f5 6b 00 be
       -0.16087374 0.06054625 0.1639538 -0.12541182
000280 90 93 44 3e 13 b8 01 be ce 2c 24 3d 5e 20 c8 bd
       0.19196916 -0.12667875 0.04008179 -0.097717986
000290 5c 97 0e 3e 01 a8 ed bd 76 40 e2 bd bd 93 ed bc
       0.13924927 -0.1160431 -0.11047451 -0.029001111
0002a0 e9 5f f9 3d e1 52 32 3e 83 04 ad bd d4 df 30 be
       0.121764965 0.17414428 -0.08448126 -0.17272884
0002b0 91 bb 0e 3e c0 8e ab 3c cf 04 00 3e d6 e5 91 3d
       0.13938738 0.020942092 0.12501834 0.07123916
0002c0 a3 f9 21 3d 5c c5 bf bc 8d 30 23 bd 36 ae ca bd
       0.039544713 -0.023409538 -0.039841224 -0.09896509
0002d0 12 71 22 3e f0 dc 11 be 9e 0f 4f 3d a4 51 ee bd
       0.15863445 -0.14244437 0.050552003 -0.116366655
0002e0 00 08 0d be c6 99 0a 3e 8e 33 2f bd 00 f2 27 3e
       -0.13772583 0.13535222 -0.042773776 0.1640091
0002f0 8a 3d 5e 3b 5b 20 11 bb ed ba 50 be 2a a9 06 be
       0.0033911192 -0.002214453 -0.20383807 -0.13150468
000300 51 5b 16 3e 3e f0 ef bd 9c 53 09 be 37 09 4d bb
       0.14683272 -0.117157444 -0.134108 -0.003128601
000310 03 df 1b be ad 0b 79 ba 43 94 8b bc 1d 21 96 bd
       -0.15221791 -0.0009500336 -0.01703847 -0.073305346
000320 ba 0f 6d 3d a9 1d ee bd de 28 be bd 5c 8e 22 3e
       0.057876326 -0.11626751 -0.092851385 0.15874618
000330 db 9b 96 3d b4 50 87 bd da 07 8f 3d 02 f5 18 be
       0.07353946 -0.0660719 0.069839194 -0.14937213
000340 cd 26 13 be bd db ae bd 93 7d 6c 3b 49 a2 db 3c
       -0.1437027 -0.085380055 0.003608559 0.026810782
000350 f4 8e ff 3d 16 42 22 be ee 90 55 bb 43 ae 13 3e
       0.12478438 -0.15845522 -0.0032587606 0.14421944
000360 cc 01 1d be bf 63 d9 3d 22 82 b0 bc f1 ef f3 bc
       -0.15332717 0.10614728 -0.021546427 -0.029777499
000370 0a ce 91 bd 44 bd e6 3c 3d b0 33 3e 9e 51 b8 3d
       -0.07119377 0.02816642 0.17547698 0.08999942
000380 97 45 bc bd 6f d9 4f 3d 08 c5 c5 3d a5 77 09 be
       -0.09192961 0.05074447 0.09656721 -0.13424547
000390 6b a1 e9 bd a0 9e 49 be 66 d8 e9 bc 17 5c 1c 3d
       -0.11407741 -0.19689417 -0.02854557 0.03817376
0003a0 26 57 26 bd e3 50 d2 3c b0 bb 28 3e b7 e9 71 3d
       -0.040610455 0.025673335 0.16477847 0.05906078
0003b0 d9 57 ae bd de 77 90 bc 6c eb 34 be 6d 4c d7 3d
       -0.08512849 -0.017635282 -0.17667931 0.10512624
0003c0 f1 82 13 3d 15 df 53 3e c5 25 46 bd 7f 35 6b ba
       0.036013547 0.20690568 -0.048375864 -0.000897251
0003d0 ab 78 0e 3d 60 76 22 bd cd 8f 0e 3e f7 cb 0f bd
       0.034783047 -0.039663672 0.13922043 -0.035106625
0003e0 5b 3b d5 bd 35 b9 e3 bc 0b ae bf 3d 06 d7 f1 bc
       -0.10411712 -0.027798275 0.09359368 -0.029521476
0003f0 a5 77 1b 3e 35 05 16 be 72 b9 89 3d fa b2 9f bd
       0.1518236 -0.14650424 0.06724824 -0.07797809

convs.0.lin_l.bias f4 [64]
000000 c1 6a 7c bd 20 f5 95 3d 17 7b b0 3c 82 8c 2d 3d
       -0.061625246 0.073221445 0.021543069 0.042370327
000010 a1 76 11 3e 58 25 8c 3d 3b 3e a1 bd 44 f5 e8 3d
       0.1420541 0.0684306 -0.07873198 0.11374906
000020 06 e5 e1 3d e8 99 32 bd 6b d4 99 3d 0d ac 04 3e
       0.11030011 -0.043603808 0.07511219 0.12956257
000030 10 f2 0d be d6 4e 23 be b2 cc 1b be 3d ae 06 3e
       -0.13861871 -0.15948042 -0.15214804 0.13152404
000040 99 24 9b bd 51 51 1d be 99 2d e3 bd 7b 39 e7 bd
       -0.0757534 -0.15363051 -0.110926814 -0.112902604
000050 ae 75 5b bd 65 96 8f bd 1b 9b cb ba 66 c9 fd bc
       -0.053579025 -0.07011107 -0.0015533896 -0.030979823
000060 e4 5e 97 3c 3a 20 02 3e 0f c7 bd 3d a3 6d 7d 3d
       0.018477865 0.12707606 0.09266483 0.061872136
000070 c8 32 c5 bd 55 14 09 3e 81 be 92 bd ac c0 02 3e
       -0.096288264 0.13386662 -0.07165242 0.12768811
000080 c8 2b ea 3c 58 08 81 bd d5 1b 1f 3a 7c 83 cf bd
       0.02858533 -0.063004196 0.0006069516 -0.101325005
000090 38 7e a7 bd 5b 70 08 be 09 c8 a2 bd 6d e5 5e 3d
       -0.08178371 -0.1332411 -0.0794831 0.054418016
0000a0 e1 59 7f 3d 86 00 45 bd ec a5 b9 3d 9a b7 ee 3d
       0.062341575 -0.048096202 0.0906485 0.11656113
0000b0 a5 bb 71 3d 66 21 02 3e 83 1f 2f bd a9 07 35 3d
       0.059016842 0.12708053 -0.04275466 0.04419676
0000c0 49 c0 7a 3c 1f 45 a5 3d fa 98 9b bd 01 be e0 bd
       0.015304633 0.080698244 -0.07597537 -0.1097374
0000d0 e9 df 1a be 38 86 1a 3e 82 b1 75 bd 19 c8 a6 3d
       -0.15124477 0.15090263 -0.059983738 0.08143634
0000e0 54 c3 e5 3d da 66 6a 3d a3 b2 c4 bd 6f 3d 08 3e
       0.112188965 0.057226993 -0.09604385 0.13304685
0000f0 54 75 be 3d 09 98 18 be 95 55 56 be 2f 18 b8 3c
       0.09299722 -0.14901747 -0.20931084 0.02247247

convs.0.lin_r.weight f4 [64, 32]
000000 b9 70 ad bd b1 81 b0 3c af 48 2e be 15 3c 71 3c
       -0.08468766 0.021546217 -0.17019914 0.014723797
000010 4c de d4 3d 20 f7 26 3e d7 94 42 3e 3e 5a dc 3d
       0.10393962 0.16305208 0.1900209 0.107594
000020 60 83 d1 3d 93 7a a9 bd d4 fd 68 3d 23 af fd 3d
       0.10230136 -0.08275332 0.056882694 0.1238692
000030 7b d9 d7 bd 0b 5b b5 3d 1d 24 c1 bc 76 13 f1 3d
       -0.10539528 0.08855256 -0.02357679 0.1177129
000040 e4 54 29 be ac ec 80 3d bf bb 60 3d cf 06 f6 bd
       -0.1653629 0.062951416 0.05486655 -0.120130174
000050 7d e3 33 be 69 82 13 3d 96 9c 07 bd 49 53 d1 3d
       -0.17567249 0.03601304 -0.033108316 0.102209635
000060 f6 63 ea 3d f9 e2 55 3c ff 02 91 ba ad be 9a 3b
       0.11444847 0.013054603 -0.0011063515 0.0047224374
000070 08 41 b1 bd a6 9f d9 bd 7f 26 07 3e e1 0e 1d 3e
       -0.08654982 -0.10626154 0.13198279 0.15337707
000080 17 8a 62 bc 6b c5 1e 3e 42 14 f9 3c 72 50 35 3d
       -0.0138268685 0.15504996 0.030405167 0.04426617
000090 c6 52 3a 3d 39 38 0d 3e 22 e2 c4 3d 7b 4d 13 be
       0.045489095 0.13790978 0.09613444 -0.14385025
0000a0 93 e9 f4 3d b4 02 48 bd 24 27 cd bc 28 ef 47 be
       0.11958613 -0.048830703 -0.025043078 -0.19524825
0000b0 0b bc 13 be f8 e0 1b 3e 11 31 b0 3d 0a 03 10 3e
       -0.14427201 0.15222538 0.08603109 0.1406366
0000c0 03 86 aa bc c7 b7 4e bd 0f 1b e9 3d 27 46 21 3c
       -0.020815855 -0.050468232 0.11382114 0.009843386
0000d0 f3 ae 64 bd b5 40 ef 3d f4 ca d3 bd 13 c9 19 be
       -0.055830907 0.11682264 -0.103414446 -0.1501811
0000e0 d8 91 fa bd 9c 2f 39 3e 67 a3 96 bd 56 53 15 3e
       -0.12234849 0.18084568 -0.07355385 0.14582571
0000f0 1e 17 b4 3d 1c ca 7c 3d 15 7e 94 3d 19 f4 d1 3d
       0.08793472 0.061716184 0.07250611 0.10251636
000100 26 f1 7e bd 0a f5 2c 3e 2c 36 8b 3c 6f 24 2b 3d
       -0.062241696 0.1689035 0.016993605 0.041782793
000110 29 9a de bd e2 aa 22 be e5 fe 85 bd cd bf 68 3d
       -0.108692475 -0.15885499 -0.06542758 0.05682354
000120 b8 3c f2 bc 78 b8 c2 3c 51 be 2a be 24 c6 0d 3e
       -0.029569969 0.023769602 -0.16674162 0.13845116
000130 4f 92 37 3e 80 6a 10 be 8f be 0e bd 01 8d 18 be
       0.17926906 -0.14103127 -0.0348497 -0.14897539
000140 d2 9d 18 be ca 0b a5 bd 79 09 3f bd 8e 5b b1 bd
       -0.14903954 -0.08058889 -0.046639893 -0.08660041
000150 93 48 96 3d 08 4b 28 bd dc c3 25 be f1 d0 f7 3a
       0.07338061 -0.04108718 -0.16187996 0.0018906874
000160 12 1d 8c bb 43 34 5e bb 0d 3a fc 3d 58 50 34 3e
       -0.0042759264 -0.0033905662 0.1231576 0.17608774
000170 f5 fe d7 bd 7c cf 25 3d 7a 64 5d be 3e 93 f0 bd
       -0.10546676 0.040481076 -0.2162036 -0.11746834
000180 64 d7 f8 bd bf 6d 22 bd 70 5c 32 3e 5f 8b 99 bd
       -0.121504575 -0.039655443 0.17418075 -0.07497286
000190 f9 b5 14 3e be e3 11 bc 53 0b 74 3d 5b 31 15 3e
       0.14522542 -0.008904396 0.059581112 0.14569609
0001a0 14 d1 8e 3c ed 2c ad bc e5 6d 83 bd ad 26 3c 3e
       0.01743368 -0.021139586 -0.06417445 0.18374129
0001b0 a5 5e 74 bd 49 a3 1f 3d 9a e3 0e be 5c af 8b 3b
       -0.059660573 0.03897408 -0.1395401 0.004262848
0001c0 bd 7c e8 bd bf 75 b2 3c 56 09 2e 3e 20 b7 7f 3d
       -0.11351917 0.021784661 0.16995749 0.0624305
0001d0 81 26 14 be 00 ec 1e 3d 1c 25 f7 3d 2c 78 16 be
       -0.14467813 0.038799286 0.12067625 -0.1469428
0001e0 21 88 36 3e 20 e2 96 bb 58 92 04 bd 48 8a 7d 3d
       0.17825367 -0.004604593 -0.032366127 0.061899453
0001f0 bf e2 99 bd fb 22 fb 3d 98 f1 5c 3c a3 32 c3 3d
       -0.075139515 0.12262531 0.013485335 0.095311426
000200 82 af 62 3d d9 26 82 3d 3d 0a 30 3d 5d 0e 00 3d
       0.05534316 0.06355066 0.042978514 0.031263698
000210 31 3a c8 3d 56 ba fb bd 5f 27 58 bd 5d 6d 95 3d
       0.09776724 -0.122914 -0.052771922 0.0729625
000220 a8 7a 01 be d4 16 e1 3d 8f 5d b9 bd 60 b2 14 be
       -0.12644446 0.10990682 -0.09051048 -0.1452117
000230 e9 ba e3 3d 9e 6b 2f bd be fb 3d 3e 54 a5 46 be
       0.11119635 -0.04282724 0.18553063 -0.19399005
000240 4e e7 88 3d 9b 9f 74 3d 3a 35 3b bd b0 68 28 bd
       0.06684743 0.059722524 -0.045705058 -0.041115463
000250 71 a3 14 3e a0 18 5d 3d 7c b9 14 3d 9b 58 3d be
       0.14515473 0.053978562 0.036309704 -0.18490832
000260 65 b4 4a be 29 59 45 3e 50 a7 d2 3d e5 b6 22 be
       -0.19795378 0.19272293 0.102858186 -0.15890081
000270 c7 b7 15 be d7 22 d6 3c d5 95 98 bd 67 b0 59 bd
       -0.14620887 0.02613966 -0.07450453 -0.053146746
000280 63 79 1f 3e 12 32 03 be 28 71 82 bd 2b 0c bb 3c
       0.15573649 -0.12812069 -0.06369239 0.02283295
000290 7a dd 82 3c 30 1a 3b 3e f9 f6 d9 3c 28 ca cf 3d
       0.015974749 0.18271708 0.026607024 0.1014598
0002a0 84 7c c2 bd b3 13 94 bc 3f 64 1f 3e 35 71 43 3d
       -0.09496406 -0.0180758 0.15565585 0.047715385
0002b0 8d 72 16 3e 5c d4 09 3e 95 47 40 3e 48 e3 87 bd
       0.14692135 0.13459915 0.18777306 -0.06635147
0002c0 7a 87 87 3d 72 9c ae bd 10 cf bf bd 9f b9 64 bd
       0.06617637 -0.08525933 -0.09365666 -0.055841085
0002d0 26 9e 91 bd 40 60 54 3d 12 39 c3 3d e3 98 73 bd
       -0.071102425 0.051849604 0.0953237 -0.059471976
0002e0 9f b5 5e 3d e3 dd dc bc 4f 78 4f bc 02 ff 8b 3d
       0.054372426 -0.026961273 -0.012662961 0.06835748
0002f0 b5 f9 33 bd 94 3b 1b 3c f5 33 80 3d bc 58 fe 3d
       -0.04393931 0.009474654 0.0625991 0.124192685
000300 ab 26 9f bd a7 a4 e4 3c 5d 68 e6 3d 06 74 d7 bd
       -0.07771047 0.027910544 0.112503745 -0.105201766
000310 65 f0 ca 3d fa 11 cc 3d d0 c1 76 3c b4 9d fc bd
       0.09909133 0.09964366 0.015060857 -0.12334767
000320 fd a2 00 bd c1 f9 68 be 4e 23 06 be 60 9d e6 bc
       -0.031405438 -0.22751524 -0.13099405 -0.028151214
000330 40 33 25 be d7 f3 b4 bd dc 57 01 bd a4 a3 92 3d
       -0.16132832 -0.08835571 -0.03157793 0.07160118
000340 3e 1f 50 bb c7 2a bd 3d 9c bb f6 bd 9b cb 9e 3d
       -0.0031756903 0.09236675 -0.120475024 0.077536784
000350 f2 ae 26 be 1c bd 29 3d a2 b7 6c 3d a7 2b a4 3d
       -0.16277674 0.041440114 0.057792313 0.080161385
000360 01 68 8a bd a5 d5 ca 3d 1d 36 f5 3d da 11 79 3d
       -0.067581184 0.09904031 0.11973212 0.06080804
000370 24 53 80 3d 94 cb 7b bd 7d ee ea 3d 6e 0b a6 bd
       0.06265858 -0.061473444 0.11471269 -0.08107649
000380 cb 37 67 bc dc 8e df bd 54 87 9c 3d ba d0 fe 3d
       -0.014112423 -0.1091592 0.07642999 0.12442155
000390 a1 87 81 3b e8 80 00 3e f4 51 cb bd 4d cd 35 bd
       0.003952936 0.12549174 -0.09927741 -0.044385243
0003a0 6c 2e 8c bd 55 3f 12 be 84 d3 52 bd 2d ea 08 be
       -0.06844792 -0.14281972 -0.05147125 -0.13370581
0003b0 57 35 ac 3d 63 17 74 3b 92 24 b6 bd 78 ef 38 3e
       0.08408611 0.0037245385 -0.08893694 0.180601
0003c0 3f 8b 74 3d af b8 16 3d 32 ea 6d bd ac 8a b7 3d
       0.059703108 0.03679722 -0.058084674 0.089619964
0003d0 31 53 82 bd 33 6a dc bd ae 71 55 be 10 a8 a2 bd
       -0.06363524 -0.107624434 -0.20844147 -0.07942212
0003e0 7c a4 46 3a 19 f5 a9 bb 4c da 9f 3d e7 95 85 3d
       0.00075776107 -0.0051866886 0.07805309 0.06522732
0003f0 6e f6 0e bd 1d ef 17 3e 3b 1d 91 3c e5 c7 b4 bc
       -0.034902982 0.14837308 0.017714133 -0.022067973

convs.1.lin_l.weight f4 [128, 64]
000000 a7 3d 87 3d fb 7d 58 3d 8b 1c 32 3d 73 44 21 3d
       0.06603556 0.05285452 0.043484252 0.03937192
000010 78 b8 65 3d 77 0f 68 bc 65 dc a1 bd a4 24 79 3d
       0.056084126 -0.014163843 -0.07903365 0.06082596
000020 69 c9 24 3d 73 5e b7 3d 3d 8a aa bc 17 81 08 3d
       0.040231142 0.08953562 -0.02081787 0.033326235
000030 a3 f6 b3 3c d7 db 4b bd e9 d7 e9 bc 66 ed 2c bd
       0.021968191 -0.049770202 -0.028545337 -0.04221859
000040 26 0f 46 bd 71 08 c5 bd ef 4f a7 bd 63 03 04 be
       -0.04835429 -0.09620751 -0.08169543 -0.12891917
000050 65 23 5b bd c4 eb f6 bd 6e 43 b8 bc c4 af 5a bd
       -0.05350055 -0.120566875 -0.02249309 -0.05339028
000060 d0 e8 9c bd a3 72 ce 3d 7c 68 2a bd 2d e3 c3 3d
       -0.07661593 0.10080459 -0.04160355 0.09564815
000070 20 36 e0 bd b9 2e bf bd 04 e9 02 be ea 76 e7 bd
       -0.109478235 -0.093350835 -0.12784201 -0.11301978
000080 2d 07 52 3c cf 11 8f bb 2d 2a 8a 3d f4 45 07 be
       0.012819094 -0.0043661366 0.06746326 -0.13210279
000090 41 66 01 bd fa 0c 9b bc e3 37 11 bd 68 df c0 bd
       -0.031591658 -0.018927086 -0.03545369 -0.09417611
0000a0 24 dc 9b 3a 69 0c ac bc f3 e3 ac 3d 63 aa 6e bd
       0.0011891169 -0.021002011 0.08441915 -0.058267962
0000b0 21 0f 08 3e 95 f5 9e bd 4a ef dc ba 5e e6 93 3d
       0.13287021 -0.07761685 -0.0016855982 0.072216734
0000c0 70 b1 31 bd d0 db 68 3d 52 a1 c8 bd e0 d0 eb 3b
       -0.04338211 0.056850255 -0.097963944 0.0071965307
0000d0 4f 95 9c bd cd 4a 4c 3d 30 a7 3d bd a5 2e bd bd
       -0.07645666 0.049876023 -0.04630202 -0.09237412
0000e0 35 fc 67 3d 0d d9 f0 3d 35 45 f1 3d 0e f4 70 bd
       0.056637008 0.11760149 0.11780778 -0.0588265
0000f0 73 f3 10 3d 04 87 0e 3c c1 d6 e8 bd a4 7d 1c bd
       0.03538842 0.008699182 -0.11369086 -0.038205758
000100 68 85 f3 3d ca ec 08 3e 9c 99 00 bd cd 91 70 bd
       0.118906796 0.13371578 -0.031396493 -0.058732796
000110 e9 5f ad bd 28 60 05 be 5e b2 a8 bd 75 32 9e bd
       -0.08465559 -0.13024962 -0.08237146 -0.07724468
000120 c0 86 05 be e7 ee b6 3d 15 2a 7f 3d 6a 15 ff 3b
       -0.13039684 0.08932286 0.062295992 0.007784535
000130 27 91 80 3d 2e 86 ea 3d ba 40 7b bd f2 f8 ec bd
       0.062776856 0.11451374 -0.061341025 -0.1157092
000140 f7 6b 3f bd 69 24 9a 3d 77 0c 0f 3d 0b 04 9d bd
       -0.046733823 0.07526476 0.034923997 -0.07666787
000150 b1 01 43 bd a9 74 d0 3d 35 84 52 bd a5 ac fd 3c
       -0.047609035 0.10178501 -0.051395614 0.030966112
000160 f4 79 4b bd 36 50 8b bd 87 ff ed bd 12 99 93 3d
       -0.04967685 -0.068024084 -0.116210036 0.0720693
000170 11 7f c5 bd 6e 02 ce 3d 34 d2 e5 3d 9b da 87 bd
       -0.096433766 0.10059057 0.11221734 -0.066334926
000180 a5 0a b8 3d 9d 49 cb bd f9 11 96 bd df 1c fa 3c
       0.08986405 -0.0992615 -0.07327647 0.030531345
000190 6f 6a d9 bd 57 ff f0 bd 0c 2b 1a 3d dc 45 bc 3c
       -0.10616004 -0.11767452 0.03763871 0.02298253
0001a0 ee 49 11 3e 26 31 2a bd 38 83 ea bc 6b 92 a7 bc
       0.14188358 -0.041550778 -0.028627023 -0.02045556
0001b0 6c 68 4f 3a b1 c7 94 bc ca 54 35 3d e9 1a b5 bd
       0.00079119834 -0.018161627 0.044270314 -0.08843023
0001c0 75 10 8f 3d 0b f4 f4 3d d0 d4 f4 3d ac 9e 33 3c
       0.06985561 0.1196061 0.11954653 0.010963123
0001d0 d6 5b 97 bd a3 f7 b6 bd 68 44 25 bd 82 9e 88 bc
       -0.07390563 -0.08933952 -0.04034844 -0.016677145
0001e0 8e 3d ca 3c de 52 b0 bd 51 0a 50 ba 01 ee d6 bd
       0.024687555 -0.08609556 -0.00079361076 -0.104946144
0001f0 63 cc ef 3d e5 7c a5 3c 40 e8 1c 3d af 35 42 bd
       0.117089055 0.020201156 0.03830743 -0.047414478
000200 e7 ff 7b 3c 9b b2 b4 3d ba c2 5a ba 82 e9 b1 bc
       0.015380836 0.08823129 -0.00083450566 -0.02171779
000210 8d c4 f0 3d 3d d1 69 bd a2 1a f4 3c 69 fa f9 3d
       0.11756239 -0.05708431 0.029797856 0.12205965
000220 5f 54 91 bd 3d 2e 1d bd 03 13 79 3d 4e 08 8f 3d
       -0.07096171 -0.038374174 0.060809147 0.06984006
000230 6a 69 86 3d 53 91 a0 bd e0 04 cc 3d 66 92 0b 3d
       0.06563075 -0.078402184 0.09961867 0.034075163
000240 dc f1 d6 3d 26 91 ba 3d a5 a5 12 3e 85 82 80 bd
       0.1049535 0.09109716 0.14321001 -0.062748946
000250 a0 8f e7 bd 55 5e af 3d 62 11 9e 3d 19 0c f2 bd
       -0.11306691 0.08562914 0.07718159 -0.11818714
000260 5b 1d 8f bd 65 4d 14 3d d2 d0 0c 3e 46 65 08 3d
       -0.06988021 0.03620662 0.13751534 0.033299707
000270 35 61 99 bd 36 8b 26 bc 0c 61 69 bc 82 82 2c bd
       -0.07489244 -0.010165026 -0.014244329 -0.04211665
000280 98 af 7a 3d a7 69 04 3e 13 9c be 3d 1f a1 37 3d
       0.061202615 0.12930928 0.093071125 0.04483139
000290 db af f5 3d e8 54 61 bd ea 8c 9a 3d 0d 86 85 3d
       0.119964324 -0.055012614 0.075464085 0.06519709
0002a0 dc 9b 8b 3d da c4 56 3d ad 7f e8 3d 33 7b 9b 3d
       0.06816837 0.052433826 0.11352477 0.07591858
0002b0 3b e3 f5 bb 6b ff 93 3c c3 7f 87 3d c1 d8 b1 3c
       -0.0075038946 0.018066129 0.066161655 0.021709802
0002c0 22 fd 47 3d 3d 1a 0e bd 6a 11 da 3b df e7 a6 bd
       0.04882539 -0.03469299 0.006654908 -0.08149695
0002d0 de 1f 1f 3e e8 15 a0 3c 55 6a dd bd 6e 66 d2 bd
       0.155395 0.019541696 -0.10811297 -0.10273443
0002e0 86 af 55 bc 05 05 25 bd c8 cc 00 3d c2 26 32 bd
       -0.013042336 -0.04028799 0.031445295 -0.043493994
0002f0 2f 86 10 3c 34 a3 1b 3e fe 9d 0e 3e 62 df 17 3e
       0.008821054 0.15198976 0.13927457 0.14831308
000300 3b e8 f0 3c 6d 2c a8 bc af 60 c5 bd ef 13 c6 bd
       0.029407611 -0.020528996 -0.096375816 -0.09671771
000310 db b8 a0 3d ea 6c 6f 3c 06 f2 8d bc 98 83 98 3d
       0.078477584 0.0146133695 -0.01732732 0.074469745
000320 83 6c fe bd 9b 25 f9 bd 3c 9f 72 3d 82 9b e8 3c
       -0.12423041 -0.12165376 0.05923389 0.028394464
000330 22 69 97 3d 7a 61 b1 3d 4b 70 ba 3d 77 ef 19 bd
       0.07393099 0.0866117 0.091034494 -0.037581887
000340 06 24 a4 bd 6d 38 ee 3d cb e6 00 3c d3 bc 94 bb
       -0.080146834 0.11631856 0.007867525 -0.004539111
000350 4a fd 02 3d 56 7e 09 be ec e8 0f be 67 6b ac bd
       0.031979837 -0.134271 -0.14053696 -0.08418923
000360 60 a3 50 bd 2d e3 43 bc 16 7d d6 bc b5 87 f1 3c
       -0.050937057 -0.011956018 -0.026182692 0.029483655
000370 aa 7c eb 3d ca a0 82 3c 54 0f d6 bd 62 d0 5c bd
       0.11498387 0.01594581 -0.10452142 -0.053909667
000380 fd c4 4b bd c9 4f df bc 52 15 ef bd d7 b6 ad 3d
       -0.04974841 -0.027259724 -0.116739884 0.084821396
000390 5c e6 b2 3d d6 fb a2 bc cc c2 db bd 15 9d a9 3d
       0.08735344 -0.019895475 -0.10730514 0.08281914
0003a0 eb 18 fa 3d f5 05 1d be f4 5c 6e 3d 46 f3 b1 bc
       0.12211784 -0.15334304 0.058194116 -0.021722447
0003b0 b1 e2 e7 bd 49 a1 03 3d 16 52 2e 3d 9c b8 a8 3d
       -0.11322535 0.032136235 0.042558752 0.082383364
0003c0 9f 81 63 3d 02 16 0d bd 71 3e 78 3d 36 ef af 3d
       0.05554354 -0.034444816 0.060606424 0.08590548
0003d0 ce b7 91 bd 45 55 b0 bc 4f 1b ed bd 27 8d ac bd
       -0.07115136 -0.021525035 -0.11577474 -0.0842536
0003e0 97 5a 07 3d 97 94 d3 3c 9d cb d3 3c 97 0b e3 3c
       0.033045378 0.02582769 0.025853926 0.027715487
0003f0 12 39 d1 bd d0 29 df 3c cf 62 bf bc ac 22 f7 bc
       -0.102159634 0.027241617 -0.023362545 -0.0301679

convs.1.lin_l.bias f4 [128]
000000 04 11 81 bc 74 6f da bd f6 2f f5 3d 88 26 b0 bd
       -0.015755184 -0.10665789 0.119720384 -0.08601099
000010 8c dc 2c 3d 4d 20 79 3c 7b da e0 3d 02 33 bf bd
       0.042202517 0.015205455 0.10979172 -0.09335901
000020 c6 c4 a7 3d 90 67 92 bc c7 03 93 3d 5d 80 06 3d
       0.081918284 -0.017871648 0.07178455 0.03283726
000030 26 9c d0 bc 7c 08 f0 3d 66 cd bf b9 93 82 2a 3d
       -0.025465082 0.11720368 -0.00036583393 0.04162843
000040 d4 42 79 3d 90 3f 8f bd 34 85 b6 3c 4c 19 d6 3c
       0.060854748 -0.069945455 0.022280313 0.02613511
000050 35 e7 97 bb 7b aa 60 bd 0b de 4a bb fc df d2 bd
       -0.0046357163 -0.054850083 -0.0030955102 -0.10296628
000060 4f 7c 16 bd 51 e9 f5 3d 80 ad cf 3d ff a9 22 bd
       -0.036739644 0.12007392 0.101405144 -0.039712902
000070 27 f9 e4 bc 2f f9 4f bd 53 af 94 bd f2 b7 8f bc
       -0.027950836 -0.05077475 -0.07260003 -0.017543767
000080 cb 72 d5 3d dc b0 d7 3d d8 22 41 bd fc 00 9d bd
       0.10422286 0.1053178 -0.04715237 -0.076662034
000090 b2 5d 9a 3d 6f 07 d2 bd a2 e3 99 3c 9f 38 73 3d
       0.07537402 -0.10255324 0.018785302 0.05938017
0000a0 71 74 9f bb 2b a0 be 3c e4 29 a8 3d 26 83 f9 bd
       -0.004866176 0.023269733 0.08211115 -0.12183218
0000b0 a7 cc b4 bd fe b1 c3 3d c5 0e 1d 3d 6b 8b 89 bd
       -0.08828097 0.09555434 0.038344163 -0.06716045
0000c0 fd 02 96 bd 96 91 0d be 62 ea 95 3d bb 41 90 3c
       -0.07324789 -0.13825068 0.073200956 0.017609468
0000d0 5d b7 01 3e 0a 77 0c 3d cb 1a eb bc 2e 58 02 3e
       0.12667604 0.034293212 -0.0286993 0.1272895
0000e0 66 6b 77 3d bf 74 9d bd 20 6d af bd b8 c3 db bd
       0.060405158 -0.07688283 -0.08565736 -0.1073069
0000f0 da e2 f3 3b 05 56 32 bd c4 1e 1a be de fe 11 be
       0.0074428143 -0.043539066 -0.15050799 -0.1425738
000100 cb cd 50 3d da b1 ba 3d 60 ac 2a 3c f6 67 e6 3d
       0.05097751 0.09115954 0.010417074 0.11250298
000110 f8 5b 68 3d 38 7e b6 bd e7 2a 64 bd 60 7e bf bc
       0.056728333 -0.08910793 -0.055704977 -0.02337569
000120 59 26 33 bd cd 44 42 3d 47 9f ba 3d 95 6a a8 3c
       -0.043737743 0.047428895 0.09112411 0.020558635
000130 9c 4e ce 3d be 42 ec bd 4a f5 95 3c 6f 06 fe bd
       0.10073587 -0.115361676 0.01830544 -0.12403571
000140 5f 9d dc 3d 06 97 6b 3d d4 49 af bd b0 4c e3 3d
       0.10772204 0.057517074 -0.085590035 0.11098611
000150 80 43 ae 3d 54 11 e4 bd 28 ce c7 3d c9 77 5f 3d
       0.08508968 -0.111361176 0.09756118 0.054557595
000160 66 41 bc bd 62 ab ad bd 44 6d a8 bd 8b 5d d9 bd
       -0.09192161 -0.08479954 -0.08223966 -0.10613545
000170 69 c8 0b 3d c9 71 84 3c 10 f6 cd bd 81 7a 68 3c
       0.034126673 0.016167538 -0.10056698 0.014189363
000180 36 d7 8d 3c 5d e0 b1 3c d4 c8 5c 3d 58 2b 17 bd
       0.017314535 0.02171343 0.053902462 -0.03690657
000190 a6 8f 2d bd 2c 2e 94 3c c1 11 a7 3d 4e 06 77 bc
       -0.042373322 0.018088423 0.08157683 -0.015077187
0001a0 c0 01 3e bd d9 c2 0b 3c 4f cf 9f 3d f3 72 cf bc
       -0.046388388 0.008530342 0.07803213 -0.025323367
0001b0 d5 fe 88 3d 89 31 13 3e 0a e9 39 3d 5f 3a a1 3d
       0.0668923 0.14374365 0.04538826 0.078724615
0001c0 7d 1c 12 3e cc ef b5 3d 11 89 3c bd e7 08 52 3d
       0.1426868 0.08883628 -0.046029154 0.05127802
0001d0 bb c8 8c 3d ce 95 8a bd a6 a4 e3 bd 22 3f f9 3c
       0.06874224 -0.06766854 -0.111153886 0.030425612
0001e0 61 2b a3 3a 13 95 0b be 81 5a 1b 3d 6e fa 7b 3d
       0.0012448841 -0.13631086 0.037928108 0.061518125
0001f0 0a 29 b0 bc b6 b6 b4 bd a3 4b da bd a6 fb e3 bd
       -0.021503944 -0.08823912 -0.10658958 -0.111319825

convs.1.lin_r.weight f4 [128, 64]
000000 9d b0 0c be 9c d5 84 3c 31 2c 75 bd c2 7c f6 3d
       -0.13739248 0.016215138 -0.059856597 0.120355144
000010 3d ab b6 bd a7 0e 8c bd 5d 1e a4 3d d5 8b 95 bd
       -0.0891938 -0.06838732 0.08013604 -0.073020615
000020 31 c8 68 3d 89 5e ad bd 77 8f b0 3d 7f 17 cb bd
       0.056831542 -0.08465297 0.08621114 -0.09916591
000030 6c 22 01 bd 06 df 80 bd ab e4 bb bd ca d1 92 3d
       -0.031526968 -0.06292538 -0.09174474 0.0716892
000040 8a 9f 12 3d c0 d8 03 3d ff 17 ac bd 3a 79 2a bc
       0.03579668 0.03218913 -0.084030144 -0.010404879
000050 52 96 cc 3d 1d bc ba 3d 26 e4 67 3d 04 c0 91 bd
       0.09989609 0.09117911 0.056614064 -0.07116702
000060 e4 70 c5 bd f0 49 80 3d 29 05 79 bd 6f e4 f1 bd
       -0.09640673 0.062641025 -0.060795937 -0.118111484
000070 ff 5f 8a bd 63 47 74 bd c5 40 4e 3d a1 b9 ca 3d
       -0.06756591 -0.059638392 0.050354738 0.09898687
000080 08 f1 ba bc 9b 4a cd 3c 0c c2 fc ba 40 4d 11 bd
       -0.02282001 0.025059989 -0.0019283905 -0.035474062
000090 76 3d ac bd 95 41 9e bc f1 95 53 bd c9 91 fa 3d
       -0.0841016 -0.019318381 -0.051656667 0.122348376
0000a0 22 cb ef bd 92 fb 49 bd ee 69 b7 bd 31 f1 53 3d
       -0.117086664 -0.04931218 -0.08955751 0.05174369
0000b0 dd 4f a3 3c 78 f5 bd bd 11 06 e3 3c e5 d9 ae bd
       0.019935543 -0.09275335 0.027712854 -0.08537654
0000c0 b5 68 cd 3c e2 57 c2 bd 47 00 00 be 7e a7 be 3d
       0.025074342 -0.094894186 -0.12500106 0.0930929
0000d0 91 d5 cb 3d 4b 44 39 3d a7 d1 93 3c 39 5b 5d 3b
       0.09952844 0.045231145 0.018044306 0.0033776297
0000e0 8a ee 5d 3d 09 08 28 bd 95 bc 82 bd d3 4e 77 3d
       0.054182567 -0.041023288 -0.063836254 0.060377907
0000f0 da 3b 9e 3d 71 33 f2 bd 7b 22 bc bd 66 02 1e bd
       0.077262595 -0.11826218 -0.09186264 -0.038576506
000100 ec 29 bd 3d 27 6f 95 bd 25 ef 97 3d 57 ec 9b bb
       0.092365116 -0.07296591 0.0741866 -0.0047583985
000110 2c e1 2e bc 77 22 45 3d 4b b9 c8 bd 8e 93 3d 3d
       -0.010673802 0.04812857 -0.09800967 0.046283297
000120 55 37 59 bb f8 f8 b7 bc b2 38 99 3d f7 6b 87 3d
       -0.0033144553 -0.022457585 0.07481517 0.066123895
000130 e2 db 4f bd 71 2c d7 bb 9e 3f 44 bc ef 70 e7 bc
       -0.050746806 -0.006566577 -0.011978058 -0.028252093
000140 6f 1c db 3c 2e f7 65 3d d1 30 45 bd 07 3b a2 ba
       0.026746957 0.056143932 -0.048142258 -0.0012377211
000150 f2 45 09 3e 39 a4 a5 bd ed 8f a8 3d d4 e6 d7 3d
       0.13405588 -0.080879636 0.08230577 0.10542074
000160 71 c8 7d 3d 38 dc e8 bd 7f 15 d2 39 13 7f 12 3b
       0.061958734 -0.113701284 0.00040070337 0.0022353574
000170 47 2e 2e 3d 18 08 13 3e 78 a8 4f bc db 76 d0 bc
       0.042524602 0.14358556 -0.012674443 -0.0254473
000180 fc 06 89 3d 2c cd 97 3d 84 28 b3 3d b3 e3 97 bd
       0.06690785 0.0741218 0.08747962 -0.07416477
000190 15 96 1e bc 65 f3 bd 3d 8a 54 e8 3c 8f e8 f8 bd
       -0.009679337 0.092749394 0.028360624 -0.12153732
0001a0 75 e8 ec 3c 9e d1 8d bd 51 c2 3c bd 16 e2 11 bd
       0.028919438 -0.06924747 -0.046083752 -0.035616003
0001b0 2f f7 4d bd 88 bc 80 bd 47 e7 04 be bd d8 f1 bd
       -0.05028456 -0.062859595 -0.1297885 -0.11808918
0001c0 8f fb b3 bc cc 3d e9 3d 4c f6 9d bd ac cd e4 3c
       -0.021970538 0.1138874 -0.07712993 0.027930103
0001d0 a4 2f 80 bc 67 84 2d bd bc 3e 8e 3d c6 e9 5e bd
       -0.015647717 -0.042362597 0.069455594 -0.054422162
0001e0 84 bd b7 3d d0 e4 88 ba f1 25 1e 3c 9d 16 74 3d
       0.08971694 -0.0010444168 0.009652601 0.05959188
0001f0 7a e8 02 bc d8 d5 e6 3d 64 2c c2 3c 1e 94 3e bd
       -0.007989997 0.11271256 0.023702808 -0.046527974
000200 58 d6 47 3d 5f 65 52 bc 57 55 5a bc c5 f7 0d 3e
       0.0487884 -0.012841552 -0.013326011 0.13864048
000210 bb 46 f4 bd 11 d6 d9 3d 3e 17 52 bd e9 72 69 bd
       -0.11927553 0.10636533 -0.051291697 -0.056994352
000220 7e 3a 96 bd b4 93 f4 3d d8 dd f9 bc 50 b6 0f bd
       -0.07335375 0.11942235 -0.030501291 -0.035085976
000230 30 ac 99 3c 31 67 d4 3d bb aa 7f 3d 2f 19 6d 3d
       0.018758863 0.10371245 0.06241868 0.057885345
000240 b2 0a bd bd 11 79 fb 3d bf 21 c1 3d ac 60 f3 bd
       -0.092305556 0.12278951 0.09430265 -0.11883673
000250 6c cc d5 bd b7 db 35 bd fc 5c b1 3d d9 a1 28 3d
       -0.10439381 -0.04439899 0.086603135 0.041169975
000260 ac 9f 9f bd 4d 2d 9a 3c 78 99 5f 3c ba 0b 50 3d
       -0.07794127 0.01882043 0.01364743 0.050792433
000270 f9 26 b9 3d 80 79 0b 3e 8c 0e 93 bc eb 44 84 3c
       0.090406366 0.13620567 -0.017951272 0.016146144
000280 2e 29 7a bc f2 1d aa bd 91 25 0c bd 01 0a e9 3d
       -0.015268607 -0.08306493 -0.034215514 0.11378861
000290 3c 57 2a 3d 92 88 c8 bb 76 28 81 3b f7 f4 b9 3d
       0.0415871 -0.006119796 0.003941591 0.090799265
0002a0 4f 1d 15 3e fc 06 f2 3d 1e b7 80 3d 77 c7 96 3d
       0.14561962 0.118177384 0.06284927 0.07362264
0002b0 de ff 78 3c bf 08 ef 3d 15 1d 8f bc 9f 08 ac 3d
       0.015197722 0.1167159 -0.017469922 0.08400082
0002c0 58 1b cf 3d 07 7b 7b 3d 22 3e e8 3d 68 61 f5 3d
       0.10112637 0.061396625 0.11339976 0.119814694
0002d0 49 0d 64 bc 70 36 63 3d 17 f6 cd bc d8 df 22 bd
       -0.013919183 0.055471838 -0.025141759 -0.039764255
0002e0 7f 26 cc bd 4c 55 07 3e f0 c0 b7 3c 87 e3 bf bc
       -0.0996828 0.13216132 0.022430867 -0.023423923
0002f0 f7 ca dd bc 27 37 8b 3c 00 9e 1c 3d 18 ac cc 3d
       -0.02707432 0.016994072 0.038236618 0.09993762
000300 57 70 d0 3c 6c 96 5c bd dd 2e 33 3d e1 62 bf bd
       0.025444193 -0.05385439 0.043745864 -0.093450315
000310 d6 ee 55 bd 60 54 8e bc 6a 3d 86 bd ca 8e cb bd
       -0.052229725 -0.017374218 -0.065546826 -0.09939344
000320 24 8d 04 3d 70 e5 d9 3d 34 63 d9 bd b9 bc d4 bd
       0.032361165 0.10639465 -0.106146246 -0.103875585
000330 ee fa b5 bd 3d 23 99 3d 51 5d 15 3d 8c 5d 75 bb
       -0.08885752 0.07477424 0.036465947 -0.0037439791
000340 10 ff 76 3b 0d 33 d0 3c 8f bc 0e be ab 67 4b 3d
       0.003768865 0.025414968 -0.13939117 0.049659412
000350 76 05 5e 3c f4 87 11 3d 55 e5 88 bd da d7 86 bd
       0.013551107 0.035530046 -0.066843666 -0.06584139
000360 93 c9 1d 3b c8 11 38 bc 6a af 53 bd ca 0e 33 bd
       0.0024076446 -0.011234708 -0.05168096 -0.043715276
000370 bc 4a 28 bd b0 00 15 bd 27 b2 75 bd 08 a2 be bd
       -0.041086897 -0.03637761 -0.059984352 -0.09308249
000380 cc 13 c6 bd bc 35 39 bb 46 9d 24 bd 0a ce 82 bc
       -0.09671745 -0.0028260788 -0.04018905 -0.015967388
000390 dd 3e f1 3d 43 a5 87 bd 3d c0 4a 3d 7b fa 7d bd
       0.11779568 -0.06623318 0.04949974 -0.062006455
0003a0 f6 4c b7 bd 12 bc da 3d 94 07 86 3d 31 a0 bb bd
       -0.08950226 0.10680403 0.06544414 -0.091614135
0003b0 83 d5 18 3e dd d8 7c bd f8 c2 ba 3d fd 2d 21 bd
       0.14925198 -0.061730254 0.091192186 -0.0393505
0003c0 83 c5 13 bd cf 69 b7 bc 93 83 4f bd 92 4b ee bd
       -0.036077034 -0.02238932 -0.05066259 -0.11635508
0003d0 1d f0 8c 3d ae de fd bc dd c4 bc bd b1 6b cc 3d
       0.068817355 -0.030989971 -0.09217236 0.09981478
0003e0 a3 1f 74 3c 3c 27 ec bd f6 00 50 3c a5 31 cd 3c
       0.014900121 -0.11530921 0.012695542 0.025048086
0003f0 6b 1f e8 bd 89 2a 97 bd 6a 8c d0 3c c4 fd 90 3d
       -0.113341175 -0.0738116 0.02545758 0.07079652

bns.0.weight f4 [64]
000000 67 b4 77 3f 67 ba 79 3f 14 f1 75 3f 13 fd 79 3f
       0.9675965 0.9755005 0.9607098 0.97651786
000010 59 30 72 3f d9 49 78 3f 94 3f 78 3f 78 81 7d 3f
       0.9460502 0.9698768 0.9697201 0.9902568
000020 5b 9d 74 3f 5f 54 7f 3f 95 1f 76 3f 94 c3 70 3f
       0.95552605 0.99738115 0.9614194 0.9404843
000030 9f cf 74 3f 5d e0 73 3f 83 49 80 3f 6f b5 83 3f
       0.95629305 0.95264226 1.0022434 1.0289744
000040 17 36 70 3f e6 4d 7c 3f 76 0f 7f 3f 34 e8 6f 3f
       0.93832535 0.98556364 0.99632967 0.9371369
000050 2f fc 75 3f fd 79 7a 3f 57 47 82 3f 10 f6 6d 3f
       0.96087927 0.9784239 1.0178021 0.92953587
000060 b7 47 68 3f eb 84 76 3f 65 71 79 3f a1 3e 7f 3f
       0.9073443 0.96296567 0.9743865 0.9970494
000070 09 14 83 3f 5b 8e 79 3f 70 e0 82 3f 41 20 7d 3f
       1.0240489 0.9748284 1.0224743 0.9887734
000080 a1 f4 78 3f 53 60 7d 3f 05 21 7c 3f d4 ea 7b 3f
       0.97248274 0.98975104 0.98487884 0.98405194
000090 a7 bc 79 3f 85 5e 6d 3f 69 74 80 3f 58 7b 7f 3f
       0.97553486 0.9272235 1.0035526 0.9979758
0000a0 e4 12 87 3f 51 d6 7f 3f 36 8a 7c 3f 5e 83 79 3f
       1.055264 0.99936396 0.98648393 0.97466075
0000b0 ed d1 74 3f 35 90 81 3f 9e 36 82 3f f9 f2 82 3f
       0.9563282 1.0122133 1.0172918 1.0230399
0000c0 d9 6b 7c 3f 7a 19 7d 3f e7 70 73 3f ac 80 80 3f
       0.9860206 0.98867 0.9509415 1.0039268
0000d0 39 15 7d 3f f8 a9 7c 3f 66 7f 83 3f 6c fb 78 3f
       0.9886051 0.9869685 1.0273254 0.9725864
0000e0 75 69 74 3f fe fa 80 3f 57 39 78 3f 3d a8 76 3f
       0.95473415 1.0076597 0.96962494 0.9635046
0000f0 e1 8b 82 3f 95 32 80 3f 47 2e 75 3f f7 63 7a 3f
       1.0198938 1.0015436 0.9577374 0.97808784

bns.0.bias f4 [64]
000000 af ba eb bc 4d 7f 04 bd c9 00 25 bd 27 c4 f8 bc
       -0.028775541 -0.032347966 -0.040283952 -0.03036697
000010 6d 95 43 bd b0 3a f1 bc 23 89 ec bc 1c 8c 4d 3b
       -0.047749925 -0.02944693 -0.028873986 0.003136403
000020 8a 31 72 bd f2 8f b8 3a 55 58 0e bd 6f c5 0f bd
       -0.059129275 0.0014080985 -0.03475221 -0.035100397
000030 2f 9c 29 bd f5 76 2f bd d2 79 af 3c c6 05 e2 3c
       -0.041408714 -0.042838056 0.021420393 0.027590644
000040 74 cc 84 bd 99 30 39 bb e1 91 68 39 fa 00 6c bd
       -0.06484309 -0.0028257726 0.00022179588 -0.05761812
000050 f8 69 70 bd 2d ad 9a bc 9f 5c e9 3c d6 0b 4d bd
       -0.05869481 -0.018881405 0.028486548 -0.050060116
000060 3a fa b9 bd 36 dd fc bc c3 da 68 bc 2e e9 af bc
       -0.0908093 -0.0308672 -0.014212313 -0.021473493
000070 c0 2e c4 3c d7 53 d2 bc 19 06 b1 3c 05 64 2d bb
       0.023948073 -0.025674744 0.021609353 -0.0026457321
000080 04 12 29 bd 23 04 01 bd 1e f6 07 bd 05 d4 d1 bc
       -0.041276947 -0.031498086 -0.0331937 -0.025613794
000090 02 9e 9c bb 03 69 76 bd 0e a1 8d 3c 93 33 10 3c
       -0.004779578 -0.06015874 0.01728871 0.008801359
0000a0 2a 51 15 3d 61 f9 40 bc ca f0 4b bc b9 60 77 bc
       0.036454357 -0.011778207 -0.012447545 -0.015098744
0000b0 a4 42 76 bd cd a0 a8 3c f2 5a a7 3c 72 7a cf 3c
       -0.060122147 0.020584488 0.020429108 0.025326941
0000c0 8b 53 41 bc 1d 27 95 bc cc 9f f1 bc 9a a2 1f 3b
       -0.011799703 -0.018207127 -0.029495142 0.0024358393
0000d0 b5 61 4e bc cf 66 d5 bb 2f 1d b8 3b b0 20 05 bd
       -0.012596537 -0.0065125 0.0056187133 -0.032501876
0000e0 a9 86 19 bd 38 d2 6a b9 27 2c 1d bc bd d8 f0 bc
       -0.037481938 -0.00022394292 -0.009593046 -0.029400224
0000f0 3c c5 b3 3c 90 76 b5 3c d1 90 d5 bc b3 0c 45 3b
       0.021944635 0.022151262 -0.02607003 0.0030067384

bns.0.running_mean f4 [64]
000000 45 62 33 bd 7c 6f 49 bd ab 8f 39 3d f6 1f 89 bd
       -0.04379489 -0.049178585 0.045303028 -0.06695549
000010 64 f9 d6 3b 63 30 d4 3d 67 2d b1 3c 3c 8f c9 3d
       0.0065604914 0.103607915 0.021628095 0.09841773
000020 ac 6c 81 3d df 7c 0b 3c 72 48 5b 3c 99 5e 54 3d
       0.06319556 0.008513658 0.0133839715 0.051848028
000030 2d fb dc 3d 6f 58 04 bd 27 fc 84 3d 66 09 1e 3e
       0.107900955 -0.0323109 0.06493407 0.15433273
000040 f6 a0 42 bd 49 49 a7 bd 8e fa 08 bc 14 ca 0a be
       -0.047516786 -0.08168275 -0.008360518 -0.13553649
000050 01 a7 ca b9 64 9e 1a bd 3c 02 79 3d c3 51 0d bd
       -0.0003865287 -0.03774871 0.060793146 -0.034501802
000060 cd 78 4e 3d e3 d2 dd 3d fb 70 96 3d 99 b3 15 bd
       0.050408173 0.10831239 0.07345768 -0.03654823
000070 81 0a 9c bd d0 8b 1e bd f2 cf 96 bd da 19 c4 3c
       -0.07619191 -0.038707554 -0.07363881 0.023938108
000080 0f e2 3e 3d 5b 0c 35 bc d4 06 a3 bd 90 1f a3 bc
       0.046602305 -0.011050309 -0.07960287 -0.019912511
000090 3f 93 f8 3c 6c 41 9c 3d c6 88 24 bd 9b 03 0f 3e
       0.03034365 0.07629666 -0.0401695 0.13966219
0000a0 63 8f b4 3d b9 7d 7a bd 76 0f 28 3e 70 38 1d 3c
       0.08816411 -0.061155055 0.16412148 0.009595975
0000b0 c8 4d c4 bc 78 8b cd 3d ae b6 80 bd e7 00 6c 3e
       -0.02396287 0.10036367 -0.062848434 0.23047219
0000c0 c5 81 9b 3c 64 b9 80 bd 5f ec b0 bb 89 2b c3 3d
       0.018982777 -0.062853605 -0.0053992714 0.09529788
0000d0 2e ca d8 bc 00 d8 5b 3b 51 8d b5 bd 91 c2 a5 3c
       -0.026463594 0.0033545494 -0.088648446 0.020234378
0000e0 fe 1c 58 3e fc 4d 96 3d 6e 19 00 3c 60 31 c7 3d
       0.2110481 0.07339093 0.007818563 0.097262144
0000f0 fd 39 b6 3c 81 89 b3 3c 24 ce fd bc 3e 4e 66 3c
       0.022244448 0.021916153 -0.030982085 0.01405674

bns.0.running_var f4 [64]
000000 83 69 35 3c 98 77 77 3c e5 b9 00 3c 4d 37 09 3c
       0.011072519 0.015104197 0.007856821 0.008375001
000010 c5 49 0a 3c e0 c3 60 3c 9e e1 1e 3c f3 19 f5 3b
       0.00844044 0.013718575 0.009697346 0.0074799
000020 cc 92 26 3c 77 87 21 3c 4f 93 2c 3c c4 5f 1a 3c
       0.010166835 0.0098589575 0.010533168 0.009422246
000030 a8 3b 09 3c 83 5f 2a 3c ce f4 ea 3b a0 ac f7 3b
       0.00837604 0.010398748 0.0071702963 0.0075584203
000040 e8 c2 f3 3b af 7a 40 3c ae dd 21 3c c3 d8 09 3c
       0.007439006 0.011748 0.009879513 0.008413496
000050 24 75 18 3c 83 de 2f 3c d0 e2 f3 3b 5b b3 38 3c
       0.009305272 0.010734203 0.0074428096 0.01127323
000060 5f a9 c8 3b e7 be 1e 3c 72 af e2 3b ff bc 45 3c
       0.006123706 0.009689069 0.0069178874 0.012068986
000070 14 e8 38 3c b5 56 63 3c 4e 17 39 3c 82 85 27 3c
       0.0112858005 0.013875653 0.01129706 0.010224702
000080 cf cc 0e 3c 00 dd 08 3c c2 97 3c 3c ec 73 d6 3b
       0.008715822 0.008353472 0.011510791 0.0065445807
000090 28 b6 2e 3c 14 71 0f 3c 62 14 36 3c 7d fb 32 3c
       0.010663547 0.008754987 0.011113258 0.010924217
0000a0 24 ff 1d 3c 19 e1 0b 3c 68 c4 11 3c 58 3d 1e 3c
       0.00964335 0.008537554 0.008896925 0.00965818
0000b0 9c dd 22 3c 6d 8b 3b 3c 8b f0 5b 3c b3 a3 cd 3b
       0.009940531 0.011446816 0.013424049 0.006275618
0000c0 d7 7b e0 3b 4d 12 76 3c fa fd 0a 3c 9e 48 28 3c
       0.0068507004 0.015019012 0.008483404 0.01027122
0000d0 88 76 1e 3c 50 d1 30 3c bd 9d f8 3b aa 5e e3 3b
       0.009671815 0.0107920915 0.0075871632 0.006938775
0000e0 d4 81 f7 3b f5 bb 36 3c 58 b8 3c 3c ae 80 f7 3b
       0.0075533185 0.011153211 0.01151856 0.0075531816
0000f0 27 8f 59 3c a7 24 5d 3c 58 d1 09 3c 0b a6 1c 3c
       0.013278759 0.013497508 0.008411728 0.009561072

bns.1.weight f4 [128]
000000 e8 ff 7d 3e f7 71 86 3e 22 38 85 3e d6 a5 8e 3e
       0.24804652 0.26258823 0.26019388 0.27860898
000010 da 86 8b 3e 42 aa 86 3e 6e 18 8c 3e 55 22 89 3e
       0.2725132 0.2630177 0.27362388 0.26784006
000020 5f ff 8d 3e 0b f1 80 3e d0 c0 8d 3e 3c 79 90 3e
       0.27733895 0.251839 0.27686167 0.28217494
000030 82 04 85 3e 76 07 86 3e 60 fc 8a 3e 2b f2 87 3e
       0.25980002 0.26177567 0.27145672 0.26551947
000040 58 fa 8d 3e fe 2c 7d 3e 38 d1 7c 3e a7 75 7e 3e
       0.2773006 0.24724194 0.24689186 0.24849568
000050 18 2a 88 3e c3 d6 89 3e df 2e 86 3e 38 64 85 3e
       0.26594615 0.26921663 0.26207635 0.26053023
000060 8e 75 82 3e db 25 8a 3e ce 9e 86 3e 4d c6 83 3e
       0.25480312 0.26982006 0.26293033 0.2573723
000070 57 74 81 3e 0e 81 87 3e 6f 7d 8a 3e 7d 44 85 3e
       0.25284073 0.26465648 0.27048823 0.26028815
000080 e8 48 90 3e 4f a0 86 3e 5e 4a 89 3e b3 d3 91 3e
       0.28180623 0.2629418 0.2681455 0.28481826
000090 da 09 8a 3e e0 8d 8d 3e 41 da 88 3e b6 45 88 3e
       0.2696064 0.27647305 0.26729015 0.26615685
0000a0 5f 62 83 3e 7a b4 83 3e f4 fc 87 3e cd cc 8d 3e
       0.2566099 0.2572363 0.26560175 0.27695313
0000b0 4d 16 8d 3e bf 8c 8c 3e d5 3d 85 3e a2 59 7b 3e
       0.27556077 0.2745113 0.26023737 0.24545911
0000c0 7b 84 7c 3e 0f e7 82 3e d9 26 93 3e c7 28 85 3e
       0.24659912 0.2556691 0.28740576 0.26007673
0000d0 28 dc 81 3e 91 cd 81 3e 52 15 88 3e 70 ea 8e 3e
       0.25363278 0.25352147 0.26578766 0.27913237
0000e0 e3 e7 87 3e 1d 13 92 3e ee 09 8c 3e 80 7a 8e 3e
       0.26544103 0.28530207 0.27351326 0.27827835
0000f0 61 be 87 3e a4 6f 8d 3e 32 c3 87 3e ed a3 82 3e
       0.26512435 0.27624238 0.2651611 0.2551569
000100 da e4 86 3e 62 fb 88 3e 74 2c 89 3e a1 41 84 3e
       0.26346475 0.2675429 0.26791728 0.2583132
000110 eb ba 80 3e d6 50 83 3e 1b e5 81 3e c0 8f 84 3e
       0.25142607 0.2564761 0.25370106 0.25890923
000120 25 e0 7d 3e 42 43 88 3e f3 d2 8e 3e 4c 69 7c 3e
       0.24792536 0.26613814 0.27895316 0.24649543
000130 a5 e8 8c 3e 8f de 87 3e 58 48 8a 3e bc 70 77 3e
       0.27521244 0.26536986 0.2700832 0.24164099
000140 51 84 83 3e 16 96 99 3e 18 1e 88 3e 2a 02 87 3e
       0.25686887 0.2999732 0.2658546 0.2636884
000150 79 bd 86 3e 0a 4e 8a 3e 9b f1 8e 3e a8 65 83 3e
       0.2631643 0.27012664 0.27918705 0.25663495
000160 01 eb 85 3e 57 70 8d 3e 00 f1 81 3e 01 29 80 3e
       0.26155856 0.2762477 0.2537918 0.25031283
000170 69 d9 88 3e 7d 8c 8a 3e ca 94 80 3e e2 7e 80 3e
       0.2672837 0.2706031 0.25113517 0.25096804
000180 5c 6a 80 3e c4 67 8a 3e 24 e6 82 3e 4f 11 85 3e
       0.25081146 0.27032292 0.25566208 0.25989768
000190 f5 a4 80 3e e4 00 86 3e d0 a0 87 3e a0 44 81 3e
       0.25125852 0.26172554 0.26489878 0.2524767
0001a0 cc 1f 87 3e ba 67 90 3e 95 78 86 3e 85 fe 83 3e
       0.26391447 0.28204137 0.26263872 0.2578012
0001b0 aa 96 84 3e 4c 65 85 3e 4d f2 87 3e a6 52 8b 3e
       0.25896198 0.26053846 0.26552048 0.27211493
0001c0 ae a1 8b 3e 50 f3 8a 3e 47 6b 8b 3e a9 8d 7e 3e
       0.2727179 0.27138758 0.27230284 0.24858727
0001d0 96 ad 86 3e a5 4c 8a 3e 82 8d 7f 3e c1 9f 89 3e
       0.2630431 0.270116 0.24956325 0.26879695
0001e0 57 69 80 3e e1 04 85 3e d1 8d 89 3e 33 de 8b 3e
       0.25080368 0.25980285 0.2686601 0.27317962
0001f0 66 55 85 3e d3 a0 8f 3e 87 8f 84 3e 8e aa 7b 3e
       0.26041716 0.28052387 0.25890753 0.2457678

bns.1.bias f4 [128]
000000 1b f9 89 ba b1 b3 e2 b9 da 19 d8 3b c1 45 7f 3c
       -0.001052651 -0.0004323996 0.0065948786 0.0155805955
000010 9e 7d cf 3a 3b ef 53 bb 18 68 b9 bb b1 0a 05 bb
       0.0015830284 -0.0032338637 -0.005658161 -0.0020300562
000020 cd 14 fb ba d5 c0 43 ba a2 5c a0 3b 09 1c 20 3b
       -0.0019155979 -0.0007467394 0.004893855 0.0024430773
000030 62 90 c5 3a 67 8d 9c 3a f9 64 bc bb e8 c4 fb bb
       0.0015072937 0.0011943997 -0.0057493416 -0.007683385
000040 39 e3 a5 b9 c0 8f 4c 3b b8 1e 3c ba a9 60 99 bb
       -0.00031640547 0.0031213611 -0.00071762083 -0.0046807122
000050 dd 3f 4e bc 85 ce 83 bb 52 a5 da ba 1f 62 1f bb
       -0.012588468 -0.004022422 -0.0016681349 -0.002431996
000060 3b e1 50 3b c2 c3 39 3c 0e bd 0b 3a 29 14 85 3a
       0.003187253 0.011338176 0.00053306005 0.0010153103
000070 b2 6a 6d bb 78 90 99 3b b3 bf 22 bb b5 38 20 3b
       -0.0036226925 0.0046864115 -0.00248335 0.0024447863
000080 89 b7 55 3b 25 a9 ef 3a c1 5a a6 3a 9f 74 9a bb
       0.0032610616 0.0018284662 0.0012691842 -0.0047136093
000090 1c 9d 73 3b 0b d7 06 3b 2b 5d 01 bb e0 9c 8e 3b
       0.0037172502 0.0020574953 -0.001973937 0.004352197
0000a0 ec f8 4b 3b 5d 71 3a 3b 51 68 bd ba bc e6 72 bc
       0.003112371 0.0028448917 -0.0014450644 -0.014825519
0000b0 00 7f 63 3b 01 bd 01 bc 0f 2b 3a bb 1c d5 8a bb
       0.003471315 -0.007918597 -0.0028407013 -0.0042368304
0000c0 d4 67 9a bb 8c c3 1b bb b6 9d 4d bc 2a cc a2 ba
       -0.0047120843 -0.0023767678 -0.012549808 -0.0012420465
0000d0 e9 0d c9 3b f5 d0 c7 3a 1e 7d 2c 3c 37 db 5a 3c
       0.0061356914 0.0015244769 0.010527877 0.013357929
0000e0 60 a7 04 3c 6c d4 ef 3b fd 37 a3 3b 24 bc c8 38
       0.008096546 0.007319024 0.0049810396 9.571787e-05
0000f0 3a 53 85 bb f5 77 e2 bb 06 1b e9 bb 88 61 f8 bb
       -0.0040687593 -0.0069112726 -0.007113817 -0.007579986
000100 47 b5 f1 3b 2a 70 f6 3b 4d be df bb 57 c4 78 bb
       0.0073763463 0.007520695 -0.0068281055 -0.0037958825
000110 69 f6 c1 3a ae 0a 97 3b 61 f6 78 3b b6 a5 9c bb
       0.0014798167 0.0046094274 0.003798865 -0.0047804965
000120 79 2e d5 39 c4 0c 44 bb b3 fb e9 bb 8c 5d 51 b7
       0.0004066115 -0.0029914835 -0.0071406006 -1.2479151e-05
000130 49 6e 92 bb 61 f5 00 bc 76 c7 47 bb fa 2c c9 ba
       -0.0044687134 -0.007871003 -0.0030483878 -0.0015348487
000140 01 54 0d bb 02 a0 5d bc 1b e5 87 bb 04 8b d9 ba
       -0.0021564963 -0.013526918 -0.0041471845 -0.0016597216
000150 62 14 de 3b 6a 04 c9 3b 2c 3e a7 3b 70 c4 82 ba
       0.006777332 0.0061345594 0.005103847 -0.0009976756
000160 78 52 04 3b c7 89 f3 bb e5 af 76 3b 91 1d bf bb
       0.0020190757 -0.007432196 0.0037641462 -0.005832382
000170 34 8b 86 3a bc 11 31 3c 54 ee 90 bb be db 88 3a
       0.0010264874 0.010807451 -0.004422942 0.0010441465
000180 44 f0 4b 3b e1 35 bc bb e7 5d fa ba ce ac ef 3b
       0.0031118551 -0.0057437276 -0.0019101471 0.007314301
000190 c0 9b 9e 3a c9 52 c0 3b d7 3c 8d 3b 21 55 39 bb
       0.001210086 0.0058692438 0.004310231 -0.00282795
0001a0 5c df 84 ba e0 48 4d 3c 98 25 13 bb b2 28 63 39
       -0.0010137367 0.012529582 -0.0022452828 0.00021663567
0001b0 43 f4 b1 ba a6 8a 6e ba 6d 33 cd 3a fb ad 3d 3c
       -0.0013576824 -0.000909964 0.0015655585 0.011577125
0001c0 a8 4f 73 3b 67 f7 8b bb 66 79 0e bb 3f 25 01 3c
       0.0037126336 -0.004271436 -0.002173984 0.007882415
0001d0 4d 5e 2d 39 c2 6c 1a bc 6c cb ee 3a 01 aa 2f bb
       0.00016533695 -0.009425344 0.0018218583 -0.002680421
0001e0 3e 10 66 b9 65 2f 80 3b fd 4e ff bb c2 7b 30 3c
       -0.0002194056 0.0039119 -0.0077913986 0.010771694
0001f0 04 79 75 3b 90 f5 27 3c 6e 4a fc ba d9 0f 8a bb
       0.0037456164 0.010251418 -0.0019248256 -0.004213315
