output/oi/restr_e2v/run_002/restr_oi_best_model_e2v.pth (torch, 90293 bytes, 14 tensors)

convs.0.lin_l.weight f4 [64, 32]
000000 03 ee 72 3d c8 57 f1 3c ef 39 c0 3d 70 fd 9f bc
       0.059309017 0.029460803 0.0938605 -0.019530028
000010 74 4d 49 bd d9 e5 02 be 34 2d e7 3d b0 cb b4 3c
       -0.04914613 -0.12782992 0.11287919 0.022069782
000020 ea 87 aa 3c 76 d1 ec 3d 8e dd 2e 3e 7b ab c5 3d
       0.020816762 0.11563389 0.17076704 0.09651848
000030 0b d1 e8 3d d0 0b 67 bc c2 cf 82 3d 8f 87 bb bd
       0.11367997 -0.014101937 0.06387283 -0.09156715
000040 a9 36 ab bd 00 0f de 3d 36 15 dc 3d 3c b6 0b 3d
       -0.08360035 0.10842705 0.10746233 0.03410934
000050 95 94 d5 3c c9 74 19 3e f8 7e 1e 3e d2 d8 c9 bd
       0.026071826 0.14985956 0.15478122 -0.09855808
000060 2e 97 f1 3d 2b e0 e4 3c a0 2f e8 bd 37 f4 df 3d
       0.11796413 0.027938923 -0.11337209 0.10935252
000070 46 c7 28 3d a6 d7 09 be ae c7 0d bd f2 d4 13 be
       0.041205667 -0.1346117 -0.034614258 -0.14436701
000080 0e 44 16 be 3b 77 e1 3d db 9f 0f 3c 04 1a 0c be
       -0.14674398 0.110090695 0.00876614 -0.13681799
000090 be 00 3c 3e f3 01 97 3d 9e ff 23 3e 8b 77 2f 3d
       0.18359658 0.07373419 0.16015479 0.042838614
0000a0 ec 11 7d 3d 74 8e 38 be 39 84 cc bd 81 6f f6 3d
       0.06178467 -0.18023092 -0.09986157 0.120329864
0000b0 5d c4 24 bd 48 84 aa bc d1 17 32 3e 21 68 91 3d
       -0.04022633 -0.02081503 0.17391898 0.07099939
0000c0 67 58 80 bd b4 c5 69 3d eb ff f3 bd 56 e0 df bb
       -0.062668614 0.05707331 -0.11914047 -0.006832163
0000d0 6e fc b9 bb 67 65 0c 3e de a1 d8 bd 66 41 55 3c
       -0.005675844 0.13710557 -0.10577749 0.0130160805
0000e0 a4 14 fc 3c 26 c2 fa bb d3 9b 1d be b5 0e 3c 3c
       0.030771561 -0.007652539 -0.15391473 0.011478116
0000f0 6f 06 2e 3e cd c3 5d bd 09 3f 76 3d 73 e4 a8 3b
       0.16994642 -0.05414181 0.06011871 0.0051541864
000100 25 37 98 bb e6 7d 3c be 61 70 1a bd 81 6b b2 bd
       -0.0046452456 -0.18407401 -0.03770483 -0.08711911
000110 eb 80 8c 3d 86 5c d5 bd c1 2c 1c 3d 63 a3 cd 3d
       0.06860527 -0.10418038 0.03812862 0.10040929
000120 14 85 fe 3d 6b 5e 4e bd b1 74 2e be 0b 47 e3 bd
       0.124277264 -0.050383013 -0.17036702 -0.11097535
000130 bf f5 f2 bd bc ed 6f 3d c9 96 18 3e 8a 16 3b bd
       -0.118632786 0.05857633 0.1490127 -0.04567579
000140 72 41 8b 3d 87 f7 9f 3d c9 2a 88 3d 8d d4 1a 3e
       0.06799592 0.07810884 0.066487856 0.15120144
000150 c6 8e 98 bd 69 64 8b 3d 93 8c c2 3d d1 1a b9 3d
       -0.07449107 0.06806261 0.09499469 0.09038318
000160 73 63 fd 3c 93 7a 1b 3c 7f b5 c6 bd 1a 98 20 bd
       0.03093121 0.009489673 -0.097025864 -0.039207555
000170 55 23 23 3d 68 8f 80 bd 6b 6f 0d 3e 9f 61 3e be
       0.039828617 -0.062773526 0.13812034 -0.18591927
000180 c0 8b 09 3d 90 21 f2 3d b7 0d f2 3d 0a 5c fe 3c
       0.03358054 0.11822808 0.11819022 0.031049747
000190 49 e6 ee 3d 08 55 7c 3d 0f be 03 be f9 c0 4f bd
       0.11665017 0.06160453 -0.1286547 -0.050721142
0001a0 93 4a 9b 3d 79 f7 be bd 9e ed 3f bd 53 39 12 3e
       0.07582583 -0.093245454 -0.04685747 0.1427968
0001b0 da b8 5b bd ae 47 89 3d 7d 78 5b 3e b7 4f 83 3d
       -0.053643085 0.06703125 0.21432681 0.06411689
0001c0 55 b2 b6 bb 9b 3b 94 3d fc c0 a5 3d fe 82 06 be
       -0.005575458 0.07237931 0.080934495 -0.13135907
0001d0 82 62 78 3c ff 89 0a 3e 9a 78 6b bd 5a e9 ef bc
       0.015160205 0.13529204 -0.05748806 -0.029286075
0001e0 f9 95 55 3d fb 50 04 3c 5a dd 42 bd 75 c2 dd 3c
       0.05214498 0.008075948 -0.04757438 0.027070263
0001f0 69 b0 a9 3c 9a 4d a1 bd 3e 3c f0 3d b4 e2 ee bd
       0.020714002 -0.078761294 0.1173024 -0.11664334
000200 a4 ea 80 3d 28 ad 95 bd a3 f4 34 be 6b 32 1e be
       0.06294754 -0.073084176 -0.17671447 -0.1544892
000210 1c d9 ef 3d 97 84 24 3e 3b b5 45 be aa c0 aa bd
       0.11711332 0.16066204 -0.19307415 -0.08337529
000220 30 53 95 bd 98 ff 3f be f2 34 bd bd 52 2b ad 3d
       -0.072912574 -0.18749845 -0.09238614 0.08455528
000230 d9 98 00 3e a1 41 fe 3d 65 bf 92 3d 1d 00 bd 3c
       0.12558307 0.124148615 0.07165412 0.023071343
000240 e0 50 ef bd 43 3d ac bd cc 1d 35 be 04 70 1b 3d
       -0.116853476 -0.08410122 -0.17687148 0.037948623
000250 e5 d3 af 3d b1 9f 29 be 49 c6 90 bd 47 08 03 be
       0.085853375 -0.16564824 -0.0706907 -0.12796126
000260 3d 81 af 3d 9e 19 31 be 8d 78 9d 3c 24 a0 47 be
       0.08569572 -0.17294928 0.019222522 -0.19494683
000270 69 75 fe 3d 31 eb d5 bc 06 ed d8 3d 55 92 3d 3e
       0.12424738 -0.026113125 0.10592084 0.18512852
000280 60 38 41 3e 29 42 4d be 66 ae 03 be 58 13 c7 3d
       0.18869162 -0.2004477 -0.12859496 0.097204864
000290 7c dd c6 bc 4a 7b 2e 3e d5 2d 1e be 58 21 36 be
       -0.024275534 0.17039219 -0.15447171 -0.17786157
0002a0 13 05 14 3e cd 12 33 bd d7 a7 12 3d a7 dd 4c 3e
       0.1445506 -0.0437191 0.035804596 0.20006429
0002b0 a0 07 6a bd 70 1d a7 3d d9 f0 14 be 1b 77 59 bd
       -0.057136178 0.08159912 -0.14545001 -0.053092103
0002c0 61 c1 ad bd f7 83 bc bd 9e 94 19 be f7 bd 26 3e
       -0.0848415 -0.09204858 -0.14998099 0.16283403
0002d0 5f a8 9b 3b 85 d0 0f be 5b 68 c8 3b 53 70 e5 bd
       0.004750296 -0.14044388 0.0061159558 -0.11203065
0002e0 19 c6 24 be 46 ae a0 bd e3 9c 47 3c 7a 25 5a bd
       -0.16091193 -0.0784574 0.012183401 -0.053258397
0002f0 75 5b b9 3d 91 2b 12 be bb 04 15 3c 60 d9 9b bd
       0.09050647 -0.14274432 0.009095366 -0.0760982
000300 86 bb 35 be b6 0a a2 3d 25 98 b9 bd dd f3 2b 3d
       -0.17747316 0.07912199 -0.090622224 0.041980613
000310 79 cf 03 bd c2 dc c1 3d e0 68 30 be 48 ef 39 3e
       -0.032180283 0.09465934 -0.17227507 0.18157685
000320 0a 81 97 bd 14 c8 a3 3d db b1 18 bd ae 64 91 3d
       -0.07397659 0.07997146 -0.03727899 0.07099281
000330 96 6d 92 bb 95 14 c5 3d 36 21 4d bd e4 7f 99 3c
       -0.00446863 0.09623066 -0.0500805 0.01873774
000340 ae 4d 2b 3d 90 b9 8b bc da e3 f8 3d 42 d0 86 bd
       0.041822128 -0.017056257 0.12152834 -0.06582691
000350 5a 1f ba 3d 64 ce bd 3c c2 a5 7e 3d 15 6e f0 3d
       0.09088011 0.023169704 0.062169798 0.117397465
000360 34 65 e7 3d 9c 9d dd 3d 51 d6 8f bd 94 22 19 3e
       0.112986 0.10821077 -0.070232995 0.14954597
000370 38 92 c9 bd ab ac 74 3d 84 eb cc 3d 76 77 3b be
       -0.09842342 0.05973498 0.100058585 -0.1830729
000380 7a 98 9f 3d 74 a6 27 3e c8 75 62 3d 2d 83 52 be
       0.077927545 0.1637209 0.055288106 -0.20557852
000390 f1 4c b4 bc 43 01 00 be dc 67 1f bd f5 d2 14 3e
       -0.022009345 -0.12500481 -0.038917407 0.14533599
0003a0 b0 b8 0a be 6e 3d ca 3d eb 69 6e bd 8f 10 69 3d
       -0.13547015 0.09874998 -0.05820648 0.056900557
0003b0 91 60 3e be 2a 58 47 3e e8 15 da 3c 5b ff 1c 3e
       -0.18591525 0.19467226 0.026621774 0.15331785
0003c0 fb c1 ae bd 32 ad 99 3d 09 e8 a3 bd da 11 40 be
       -0.085330926 0.075037375 -0.080032416 -0.1875681
0003d0 b2 f2 98 3d 08 b7 bd bd 18 30 15 3e ae d6 05 3e
       0.074681655 -0.09263426 0.14569128 0.13070175
0003e0 93 ff 14 3e 4a 0f 0b 3e 1e ee af bd 71 ce c6 bd
       0.14550619 0.13580051 -0.08590339 -0.09707344
0003f0 3a 6c 9f 3c fd 5f 4a 3e 4f 5e 08 3e f1 d1 23 3e
       0.019460786 0.19763179 0.13317226 0.15998055

convs.0.lin_l.bias f4 [64]
000000 d3 2e 08 be 53 f2 b9 3d a1 f9 14 be 22 59 ee 3d
       -0.13299112 0.09079423 -0.14548351 0.116380945
000010 bb 1d 57 3d f2 57 97 3d 5a 1d 87 3d 28 2c 02 be
       0.052518588 0.07389821 0.06597395 -0.12712157
000020 c2 dc 46 3d 32 95 1d 3e 72 2b 92 bc 20 fb e5 3d
       0.048550375 0.15388945 -0.017842982 0.11229539
000030 89 b3 09 3e 5f 67 00 be d9 74 84 3d 23 39 3d bd
       0.13447393 -0.12539433 0.064675994 -0.046197068
000040 cd eb d3 3d fa 21 2c 3e bf 6a 68 3d b2 a8 a9 bd
       0.1034771 0.16809836 0.056742426 -0.08284129
000050 3f c7 87 bc a9 19 cc 3c f9 8b f9 3d 30 8e dd 3b
       -0.0165745 0.02491458 0.12184901 0.006761335
000060 7a 80 9c bd 4f 4c 15 be 07 4c 53 bd 19 ab 94 3d
       -0.076416925 -0.1457989 -0.051586177 0.07259197
000070 86 e5 3c 3d ec 6d 87 3d a4 a0 9f bd 6e 95 14 3d
       0.046117328 0.06612763 -0.07794312 0.03627532
000080 18 f5 39 bd 79 e7 1c be 76 21 64 bd 68 68 15 3e
       -0.045399755 -0.15322675 -0.055695973 0.14590609
000090 c6 a3 21 3e 52 ee 25 3e a4 d0 0d be a1 77 89 bd
       0.15785131 0.16204193 -0.13849121 -0.067122705
0000a0 47 d4 bb 3c 03 9c 5e 3d 7a 9c da 3d 74 80 68 be
       0.02292837 0.054348003 0.10674377 -0.22705251
0000b0 8e ed d3 bc 96 27 b6 bd d6 c5 ed 3c 1b df 3b 3d
       -0.02587011 -0.08894269 0.029025 0.045867067
0000c0 a9 80 e5 3d 5c 7b da 3d c0 2b fe bc 8f cf 40 3c
       0.112061806 0.1066806 -0.031026721 0.011768236
0000d0 fd 4d 31 bd b9 b1 e0 3c 4f b4 ac 3d 6e 72 c5 bc
       -0.043287266 0.027428495 0.08432829 -0.024102416
0000e0 11 eb a1 3d c6 4b 82 bd 0f 45 ae bd 8b 5c 36 3b
       0.079061635 -0.06362109 -0.08509266 0.0027826156
0000f0 75 de 66 bd 21 82 0f 3e 12 1a 82 bd ec a7 d5 bd
       -0.056364495 0.14014484 -0.06352629 -0.10432419

convs.0.lin_r.weight f4 [64, 32]
000000 a3 90 da 3d 2f 36 95 bd a0 df bc 3d 4e 42 a1 bd
       0.106721185 -0.07285725 0.092223406 -0.07873975
000010 a3 a3 05 3e 8b 4b 7d be 9d 0e be bd cb 8a 24 3e
       0.13050704 -0.24735849 -0.09280131 0.1606857
000020 70 b6 a7 bd 5b 82 0f 3d 29 e9 f9 bd da 62 42 3d
       -0.08189094 0.035036426 -0.12202675 0.047457553
000030 a2 0b 16 be 75 b8 dc bc bb 56 31 3e 84 a4 fe bc
       -0.14652875 -0.026943425 0.17318241 -0.031084307
000040 04 ac ef bd 52 87 bb 3c 6b 5f 4b 3c 3a ba 8f bd
       -0.11702731 0.022891674 0.012412886 -0.07017942
000050 17 c8 ac 3d 19 93 00 be 67 ae 67 3d 56 55 54 3e
       0.084366016 -0.12556113 0.056562807 0.20735678
000060 c8 17 18 be 36 aa 06 3e e5 13 68 3c 5c 5b 2b 3e
       -0.14852822 0.13150868 0.0141648995 0.1673407
000070 15 be 01 be ac 4f 56 3c be e3 0e 3e 7b 4c 50 3d
       -0.12670167 0.013080519 0.13954064 0.050854187
000080 53 f0 e9 bd 27 42 45 be c4 84 22 3e e6 57 e7 3d
       -0.11422791 -0.19263516 0.15870959 0.11296062
000090 a2 5a 16 3e ea 98 70 bd f7 50 84 bd 97 e1 ed bd
       0.14683011 -0.05873958 -0.06460755 -0.116152935
0000a0 ef 7e fb bd 5b f2 15 be 76 87 d1 3d 96 09 8f bd
       -0.1228007 -0.14643233 0.10230915 -0.0698425
0000b0 92 e0 56 bb dc d9 16 3e 39 cd bc bc 2d fa 1e be
       -0.0032787663 0.14731544 -0.023047077 -0.15525122
0000c0 02 00 1e be bf cc 60 bd cc b5 1b 3e 6b a6 01 3e
       -0.1542969 -0.05488276 0.15206069 0.1266114
0000d0 14 6d 01 be 7a e2 c6 3d b1 d6 10 bd bb 30 3d 3d
       -0.12639266 0.09711166 -0.035360996 0.04618905
0000e0 65 2f 2a 3e 61 98 c1 3c 18 c0 43 3d d6 9a 34 bc
       0.16619642 0.02363223 0.047790617 -0.011023244
0000f0 a7 50 11 be 25 1c fe bd c1 0f 23 3e 8d c9 f0 bc
       -0.14190923 -0.12407712 0.15923978 -0.029392982
000100 02 4c 14 3d 13 67 30 be a9 8c a9 3d df 1c 2c 3d
       0.0362053 -0.1722682 0.08278782 0.04201972
000110 c3 1e 8b 3d 1c 26 45 3d 02 80 3c 3d 2f ff 0b be
       0.06792977 0.048132047 0.046020515 -0.13671564
000120 03 de d8 bd 15 d3 cc bd 19 2a 01 bb 5d 27 ee bc
       -0.105892204 -0.10001198 -0.001970893 -0.029071504
000130 23 49 e5 3c 54 88 8d bd 11 e6 ab 3d 71 5b 8a 3d
       0.027988976 -0.06910768 0.08393491 0.06755722
000140 38 03 0a 3c e3 c2 b2 3d 41 15 dc 3d 8a 3d 53 bd
       0.008423619 0.08728578 0.10746241 -0.05157236
000150 b5 e9 6b bd 33 7f c4 3d ef dd fa 3d 9a 61 03 3e
       -0.057595927 0.09594574 0.12249362 0.12830201
000160 38 12 25 3e af 40 94 bb 04 90 b0 bc 8b 8b e2 bc
       0.16120231 -0.0045243124 -0.021553047 -0.02765443
000170 a5 97 5b bd 04 e7 ab bd 2c 85 24 3b a4 23 f9 bd
       -0.053611416 -0.08393672 0.002510379 -0.12165001
000180 e5 f1 f3 3d 48 8d 06 3d ce 95 8e 3d 49 38 56 3e
       0.11911372 0.03284958 0.06962167 0.20919909
000190 ea 7f 2d 3e 07 96 26 3e c7 e5 9e 3d c5 7a 91 3d
       0.16943327 0.16268168 0.0775867 0.071034946
0001a0 2c 62 0f be 69 fe 45 be db c3 0e 3e 44 de 1b 3e
       -0.14002293 -0.19335331 0.139419 0.15221506
0001b0 9c 19 0e 3e 54 36 02 3b a6 38 18 bd c9 73 f7 bc
       0.13876957 0.0019868808 -0.0371634 -0.030206578
0001c0 05 4a 2f 3d a0 e0 fa bd 97 6b 86 bd f2 1d 67 3d
       0.0427952 -0.12249875 -0.0656349 0.056425042
0001d0 98 d9 d8 bd 58 a6 94 bd b5 96 4f be b3 fc 84 3d
       -0.10588378 -0.0725829 -0.20272334 0.06493511
0001e0 e5 17 22 3e 9a 7d 08 3e fb 2d a5 3d d4 de f1 3d
       0.15829428 0.13329163 0.08065411 0.11810079
0001f0 38 d2 07 be 9d 57 ae bd ea 1d 4c bd af 66 c7 3d
       -0.13263786 -0.08512805 -0.049833216 0.09736382
000200 7c c3 69 bb e3 09 10 3e 4e 7a 01 bd 96 5c 09 3e
       -0.0035669496 0.14066271 -0.03161078 0.13414225
000210 5c 3f c7 3d 2b 7d 13 3d f9 b2 1a 3d 82 85 3c 3d
       0.09728882 0.03600804 0.037768338 0.04602576
000220 e5 a6 4d 3e 25 be e9 3c b3 d6 1b 3b 41 6d f1 bd
       0.20083196 0.02853305 0.0023779094 -0.11788417
000230 6e dd 00 be 49 ea 4b 3d 80 84 ad bb 80 4c 7e bd
       -0.12584469 0.04978398 -0.0052953362 -0.062084675
000240 db 7f 2a be 93 73 a2 3d bf 17 a9 bd 90 44 ec 3d
       -0.16650335 0.079322 -0.08256482 0.11536515
000250 66 6c 60 3d 01 d0 16 3e ad 60 e6 3d 97 4d 2f 3e
       0.054790877 0.14727785 0.11248908 0.17119442
000260 a4 17 c6 3d 2d e2 e1 bd 19 19 d0 3d 98 ca 23 be
       0.09672478 -0.11029468 0.10161037 -0.15995252
000270 a6 75 a6 bd e9 fe cb 3c 2a a4 1f 3e 84 a3 ab bd
       -0.081279084 0.024901824 0.15589967 -0.083807975
000280 ad fe 6c 3d 45 7b 9b 3d af f5 c0 bd 11 9d d4 bd
       0.057860065 0.07591871 -0.094218604 -0.103815205
000290 87 cd fd 3d 63 67 97 bd b0 42 4c bd 8a 7c 27 3d
       0.12392717 -0.07392766 -0.049868286 0.040890254
0002a0 1a 38 9c 3d 7d 57 07 3e dd 8b b7 bd 3e ea 97 bd
       0.07627888 0.13216968 -0.08962224 -0.07417725
0002b0 8e 55 d0 3c 69 11 e2 3d 60 7f 89 3d 21 da e2 bc
       0.02543142 0.11038477 0.06713748 -0.027691903
0002c0 cf b6 2e 3e 8f a5 de bd e8 50 07 3d 1f 10 5d 3d
       0.17061923 -0.108714215 0.033036143 0.053970452
0002d0 45 f2 df bc 93 80 47 3c 1a 8b 11 be 85 64 60 3d
       -0.027337203 0.012176651 -0.1421322 0.054783363
0002e0 70 f9 c8 bc e5 4c 93 3a 78 12 f5 3d c3 ca e1 3c
       -0.024533004 0.0011238126 0.11966413 0.027562505
0002f0 9c 24 26 be e7 d4 37 3e 16 11 c6 bd ce 48 e1 3d
       -0.16224903 0.1795231 -0.09671228 0.110002145
000300 e4 91 ab bd 74 8a 1c 3d 5b 67 b5 bb f2 0e 85 3d
       -0.08377436 0.038217977 -0.0055360026 0.06496991
000310 91 36 1e be 78 d2 36 3c ea 85 04 3d 93 12 19 3e
       -0.15450503 0.011158578 0.032354273 0.14948492
000320 42 fa c5 bc 7d df 6f bd 7b 86 cd 3d 9e 77 70 3c
       -0.024167184 -0.058562744 0.10035416 0.014676956
000330 5d 21 b1 bd d6 50 2d bd b3 25 c0 bd 9b 86 0b be
       -0.08648942 -0.04231342 -0.093821906 -0.13625567
000340 7c 65 97 3d f2 c1 3d 3d 30 07 fc bd b3 75 32 3c
       0.073924035 0.04632754 -0.123060584 0.0108923195
000350 be 2a 9f bd 79 93 21 be 02 cc 23 3e c9 fc 57 3d
       -0.07771824 -0.15778913 0.15995792 0.05273131
000360 5d 45 08 be 74 89 13 be a7 09 04 be 8d 60 a8 bd
       -0.1330771 -0.14407903 -0.12894307 -0.082215406
000370 8a 4d 2a be 4d 7e a6 3c 7c a1 61 bd af 18 87 3d
       -0.16631141 0.020323897 -0.055085644 0.06596505
000380 df df aa bd d1 9a ce bc 43 13 8b 3c e8 8f 40 bd
       -0.08343481 -0.025220307 0.016976958 -0.04701224
000390 69 07 1b 3c f6 09 ce 3d e6 80 12 3d 29 fa bf bd
       0.009462216 0.10060494 0.03576746 -0.09373886
0003a0 10 3f 8b 3d 8e be 96 bd bc b9 a5 bd 2f 15 7b bc
       0.067991376 -0.07360564 -0.08092067 -0.015324875
0003b0 61 8d 39 3d fc 45 f0 bd e2 3e 05 3d 3d 92 2e 3d
       0.045300845 -0.117320985 0.032530673 0.042619932
0003c0 a8 7a 15 3d 7d 86 ef bd 6a 55 c2 3c 19 69 7f bc
       0.036493927 -0.116955735 0.02372237 -0.015589022
0003d0 82 47 1b 3e 9d ec bf 3d f7 89 8d bd 68 1f bb bd
       0.15163997 0.09371302 -0.0691108 -0.0913685
0003e0 40 ab 38 3e 4a 33 15 3e c1 3c fb bd 6b 89 7f 3d
       0.18034077 0.14570346 -0.12267447 0.06238691
0003f0 fd 3b 93 bd 7b 28 d9 3c 5a f1 15 bd 98 6c 91 3d
       -0.07189176 0.02650856 -0.036607124 0.07100791

convs.1.lin_l.weight f4 [128, 64]
000000 11 53 a4 bd e7 bd aa 39 06 f3 08 be 5f 1a 00 be
       -0.08023656 0.00032566415 -0.13373956 -0.1251006
000010 e3 9c e0 bd cd d0 8d 3c c6 90 ac bd c1 00 47 3c
       -0.10967424 0.017311478 -0.08426051 0.012146176
000020 6c ae cf bd 4d 38 e0 3c 79 e7 9c 3d 60 79 7b 3d
       -0.1014069 0.027370596 0.076613374 0.06139505
000030 1f e9 e1 bc 0e d1 5a bd 15 2d cd bd 39 f8 39 3c
       -0.027576981 -0.053422026 -0.10018364 0.011350685
000040 14 1b 0c be f6 bc a7 bd 3a e3 6a bd 6b e9 0a be
       -0.13682204 -0.08190338 -0.057345606 -0.13565604
000050 4e 19 64 3d 22 db 87 3c ab b8 c7 3b a5 a6 99 3d
       0.055688195 0.016583983 0.006095012 0.07502488
000060 56 86 17 3a 0f 81 5b bc a5 4e f6 bd a5 f0 b7 3d
       0.00057802105 -0.013397469 -0.12026719 0.08981446
000070 6f 54 9d bd 37 2b f0 3d f8 0a c2 3d 33 e7 99 3c
       -0.0768212 0.117269926 0.094747484 0.018787002
000080 c2 04 cc 3d 9f 87 78 bd f7 0d 9f 3d 5f e3 73 ba
       0.09961845 -0.060676213 0.077663355 -0.0009303595
000090 66 57 ef 3b cc 7e 0b 3d e8 d7 cf bd ca 58 7a 3d
       0.00730412 0.03405647 -0.10148603 0.061119832
0000a0 4a 1f d3 3d e4 02 a2 3b 31 f3 96 3d c3 d1 3e bd
       0.10308702 0.0049441922 0.07370604 -0.046586763
0000b0 93 c0 81 bc 80 af 49 3b a6 6c 84 bd c9 0a e8 3d
       -0.015838897 0.0030774772 -0.064660355 0.11330182
0000c0 68 d3 e0 ba 80 57 9e bc c4 a1 0b be dd fe d2 3d
       -0.0017152848 -0.019328833 -0.13635927 0.103025176
0000d0 51 c1 13 bb 98 4a d0 3d f5 8e 58 bd 4b ce 39 3d
       -0.0022545645 0.10170478 -0.05287071 0.045362752
0000e0 f2 d6 c0 bd 1d 5c 8e bd f3 bc 46 bd 8c 06 06 bd
       -0.094159976 -0.06951163 -0.04852004 -0.032721087
0000f0 32 75 dd bd 54 62 b0 3d 61 ac ed bc bc fe 9f bd
       -0.10813369 0.086125046 -0.02901286 -0.078122586
000100 3b f7 a4 bd 46 72 9b 3d 35 85 c5 3d 1b 7a 38 3d
       -0.08054968 0.07590155 0.09644548 0.045038324
000110 a7 90 c5 3d b9 97 25 3e e4 2f d4 3d ff 76 16 bd
       0.09646731 0.16171159 0.10360697 -0.036734577
000120 e4 bd b5 bd db 59 f6 3c b3 6b 45 3d b1 1b 71 bd
       -0.088741094 0.030072143 0.048198413 -0.0588643
000130 16 2b e1 3d c4 1e 85 3d 2d 69 1c 3e 19 8f 05 3e
       0.10994546 0.06500009 0.15274496 0.13042869
000140 fb 18 4b bd 86 04 87 3d 3a 9a eb bd 5c 6f dc ba
       -0.04958437 0.0659266 -0.11504026 -0.0016817856
000150 22 a5 03 bd 15 09 dc bd a0 af 74 3d aa eb f5 bd
       -0.032139905 -0.1074392 0.0597378 -0.1200784
000160 13 cc 74 3c 0d c1 5b 3d a0 d8 3d bd c2 8e e7 bd
       0.014941233 0.053650904 -0.046349168 -0.11306526
000170 84 f9 99 bd 9b cd fa bd 4c a5 e2 3d 22 a9 02 3c
       -0.075182945 -0.122462474 0.11066684 0.007974895
000180 23 39 76 bd 4b d8 e3 3d e2 69 bc bd ee 16 d2 bd
       -0.060113084 0.11125239 -0.09199883 -0.1025828
000190 e6 c9 3f bc f7 fa a7 bd 07 dd b4 3d a2 5e ea 3d
       -0.011705851 -0.082021646 0.0883122 0.11443831
0001a0 8b b3 ac 3d 1e 11 00 3c cb df c0 bd 86 4b f9 3b
       0.084326826 0.007816581 -0.09417685 0.00760788
0001b0 b9 6d 99 bd c5 b9 5a bd b5 36 91 3c 36 53 7c bd
       -0.07491631 -0.05339982 0.017726282 -0.061602794
0001c0 7b dc 1c 3d ca a8 c6 bd 39 25 cf bd dc 98 cd 3d
       0.038296204 -0.09700163 -0.101145215 0.10038921
0001d0 ef 20 ad 3d 5d f6 af bd 8b c6 10 bc a8 d1 a8 bd
       0.08453547 -0.08591912 -0.008836399 -0.08243114
0001e0 9a 41 a3 bd 99 7a ad bc 45 73 a0 3d 01 73 81 3d
       -0.07971497 -0.021176623 0.07834486 0.063207634
0001f0 8a 5d 58 bd 53 e7 46 3d db 3d a5 bc 5f d5 a5 3d
       -0.05282358 0.04856045 -0.020171097 0.08097338
000200 14 31 ad 3d 9b 07 a2 3d 8d bb db 3c ff 05 89 bd
       0.084566265 0.07911607 0.02682283 -0.06690597
000210 6b 06 24 bd 02 90 35 bd d9 7e e0 3d 06 ef 09 3e
       -0.040045183 -0.04432679 0.10961694 0.13470086
000220 c1 5b 87 bd 71 be 42 3d db 3b d5 3d 1f 7b 8c 3d
       -0.066092975 0.0475449 0.10411807 0.06859421
000230 d4 55 09 bc 49 3d f6 bd b2 90 1f 3d d4 f4 ac bd
       -0.008382279 -0.12023408 0.03895635 -0.08445135
000240 31 7b c8 bd aa b8 fd bd 23 bb d2 3c 66 6b 17 bd
       -0.09789122 -0.123887375 0.025724 -0.036967658
000250 85 b5 85 bd 59 24 9e 3d c0 f6 ef 3c d5 3d ca bd
       -0.06528763 0.077217765 0.029292464 -0.09875075
000260 06 b3 ce 3d eb 3f 3c bd 03 b2 86 bd b3 14 de 3d
       0.1009274 -0.045959394 -0.06576922 0.10843792
000270 4f 77 fe bd 05 fa da 3d 45 92 6e bd 87 be 06 bd
       -0.124251 0.10692219 -0.058244962 -0.032896545
000280 f1 09 b9 3d fe d8 78 3d bd 7e 88 bd df b6 c5 3d
       0.09035099 0.060753815 -0.066647984 0.096540205
000290 a6 d7 5a bd c6 27 f7 3d c9 d8 18 bd d0 86 d4 3c
       -0.053428315 0.12068133 -0.037316117 0.02594319
0002a0 dc 84 c6 bd 8d c0 14 3d 78 d2 e3 bd 15 18 a0 3d
       -0.0969331 0.036316443 -0.11124128 0.07817093
0002b0 6d 07 84 bb 37 b3 0e 3e 1a 56 d1 3d 25 b4 88 3d
       -0.0040292055 0.13935553 0.10221501 0.06674985
0002c0 a2 06 d3 3d b2 96 df bc da 7b 0f 3d e5 e3 30 3d
       0.103039995 -0.027293537 0.035030223 0.043186087
0002d0 7d b1 30 bd c1 a7 a0 bd bd ff df 3d a1 7e ce bd
       -0.043138016 -0.078444965 0.1093745 -0.10082746
0002e0 c0 31 05 3e 02 30 73 bb 92 f4 11 3e 76 1f ad 3c
       0.1300726 -0.0037107472 0.14253452 0.021133166
0002f0 89 ac d4 bb da 86 12 3d 7b 05 ab 3d 39 bb 89 bd
       -0.0064902944 0.035773136 0.08350655 -0.06725163
000300 5c b3 99 bd a4 12 42 bd 00 d1 a9 3d f4 44 15 3d
       -0.07504913 -0.04738106 0.08291817 0.036442712
000310 92 cd 9f 3c ba 6e 99 bd e4 5a b8 3d 2a 22 5e bd
       0.019507203 -0.074918225 0.09001711 -0.0542318
000320 a7 d3 ad bc 67 46 a6 3d 56 fb 9a bc 84 2a a3 bd
       -0.021219088 0.08118897 -0.018918674 -0.079670936
000330 8c 16 2e bd 69 f0 c3 bd 8b 24 16 bb 91 5b 9a bc
       -0.04250197 -0.09567339 -0.0022909965 -0.01884249
000340 27 9d b3 3d 73 ae 1c be 5e f6 8d 3c 3b 0c a0 3c
       0.08770209 -0.15300922 0.017329391 0.019537082
000350 ec c0 49 bd 07 52 9b bd 10 d9 8a 3d b1 6a d9 bd
       -0.04925625 -0.07584005 0.06779683 -0.10616053
000360 4b e8 55 3d ec d3 aa bd 0b 04 9b bd 27 d6 9d bd
       0.052223485 -0.08341202 -0.075691305 -0.07706862
000370 02 8b e1 3d 75 ea dd 3d ff 88 dc 3d 91 4f 92 3c
       0.11012842 0.10835735 0.107683174 0.017860206
000380 9f 02 3a bb 44 aa 86 3d 87 b9 cf bc a5 ea 99 3c
       -0.002838291 0.06575444 -0.025357021 0.018788645
000390 9a ea c6 3c e4 d1 67 bd 85 b8 90 bd 34 f4 e3 3a
       0.024281789 -0.05659665 -0.07066444 0.0017391504
0003a0 91 df c5 3c a4 42 26 be 97 5d c0 bc d1 a2 df bc
       0.024154456 -0.16236359 -0.023482127 -0.027299317
0003b0 f5 8e cc bd 18 5d eb bd 58 82 0f 3d e6 17 98 bd
       -0.099882044 -0.114923656 0.035036415 -0.07426433
0003c0 46 53 94 bc f2 a0 02 3e 6a f5 58 3d fa 92 86 3d
       -0.018106114 0.12756708 0.05296842 0.06571002
0003d0 47 bc 5f bd c3 ea df bd 55 cd 87 bd 4b 09 d3 bd
       -0.054622915 -0.10933449 -0.06630961 -0.10304507
0003e0 a6 38 d0 bc 78 0b 9f 3c d6 4b ca 3d ee e6 fb bd
       -0.025417637 0.019414648 0.09877746 -0.12299906
0003f0 17 2f 41 bd 75 18 fc bb c2 de 06 3d 12 f2 d9 bd
       -0.04716405 -0.007693345 0.032927282 -0.106418744

convs.1.lin_l.bias f4 [128]
000000 29 0f 20 3d dd e9 bb 3d 7e 21 15 3d 43 99 01 be
       0.039076958 0.09175465 0.036408894 -0.12656121
000010 e7 73 b8 3d 8b 09 a8 3d 5b 7d 92 bc a5 24 8f bd
       0.090064816 0.08204945 -0.01788204 -0.06989411
000020 87 f0 5d bc c4 84 ab bc 07 f7 b5 3c e4 a7 e8 bd
       -0.013546116 -0.020937331 0.022212518 -0.113601476
000030 54 cf e6 bc bb ab a7 3d d5 85 d6 3b 06 54 b0 3d
       -0.028175034 0.08187052 0.0065467157 0.08609776
000040 4b 14 3f 3d b5 76 d3 3d 3f 78 cc 3c 2c 26 35 bd
       0.046650212 0.10325376 0.024959682 -0.044225857
000050 d3 3f 78 bd 9d 47 aa bc dd 7b 93 bd 5b 1d 5d 3d
       -0.060607743 -0.020786101 -0.072013594 0.053983074
000060 ae 79 98 3d 20 56 20 3e ce a3 98 bd 89 bb 03 3c
       0.074450836 0.15657854 -0.07453118 0.008040317
000070 cf eb c5 bd 20 7e 31 bd 4c 2b c8 3d 50 3e 8e 3d
       -0.096641175 -0.043333173 0.09773883 0.06945479
000080 15 22 d8 3b 1b 33 8b 3d 32 f6 a4 3d 95 18 40 bd
       0.00659586 0.06796857 0.080547705 -0.046898443
000090 2c bd de bd 4f 4e 10 bb ce 39 c2 3d 1a 4e 47 bd
       -0.108759254 -0.0022019332 0.094836816 -0.048658468
0000a0 c3 5b 3c 3d c3 1d 4e 3d bf 7a 06 3d 8b 30 ba bd
       0.04598595 0.05032135 0.032831904 -0.0909129
0000b0 f7 1c b4 3d 14 16 06 bd b8 ea 4c bd 91 2a e7 bd
       0.08794587 -0.0327359 -0.050028533 -0.11287416
0000c0 7c 53 02 3e 15 d7 5c 3d da c2 47 bd f5 ad 85 3d
       0.1272716 0.053916056 -0.04876981 0.0652732
0000d0 0b 3b 0f 3d 78 e1 0b 3e 39 8d 0b 3e 60 9f 3d 3c
       0.034968417 0.13660228 0.13628091 0.0115736425
0000e0 27 11 61 3d 9e e2 05 bd 73 7e 6e bc 32 b2 b4 bd
       0.054948 -0.032686822 -0.014556515 -0.088230506
0000f0 8e 05 e7 bd 5b 76 24 3d 15 d1 ca 3d 2f d3 19 bd
       -0.11280356 0.040151935 0.099031605 -0.037554916
000100 f8 de 67 bb d3 b2 9b 3b 10 e3 2c 3d b6 9a b4 3d
       -0.0035380702 0.004751542 0.04220873 0.08818571
000110 13 7d b8 bd 1d 0f 19 bc 49 0e 91 bb a4 48 1e bd
       -0.09008231 -0.009341982 -0.0044267518 -0.038643494
000120 f9 5a 1a be 43 3d 81 3b fd ff a6 3d a2 2d 3d bd
       -0.15073766 0.0039440705 0.08154295 -0.046186097
000130 ce 5d c3 bd 87 c1 aa bd 74 56 f3 bd 91 2c df 3d
       -0.09539376 -0.08337694 -0.11881724 0.10897172
000140 89 83 cd bc 86 68 7e 3d 37 db 6e bd ce f2 27 3d
       -0.025087135 0.0621114 -0.05831453 0.04100304
000150 dc 18 91 3d f7 54 92 3c fc b0 05 3a f0 dd 80 3d
       0.0708482 0.01786278 0.000509992 0.06292331
000160 cd 86 57 bd 2a fe 9f 3d e5 60 2c 3d 89 45 19 3d
       -0.05261879 0.0781215 0.042084593 0.03741983
000170 b8 9f c5 3c 0f 8d aa 3b 09 22 19 be b8 52 07 3e
       0.024124011 0.005204804 -0.1495439 0.13215148
000180 9b 17 17 3e 51 2a c4 3d 20 96 e7 bd 55 62 5c 3c
       0.14755099 0.09578384 -0.11307931 0.013451179
000190 7a 88 0d 3e e5 cd 2c 3d 0d a2 a3 bc 9b 00 d2 bd
       0.13821593 0.042188544 -0.019974733 -0.10254022
0001a0 39 9a dc 3b 42 c4 8d 3d 9b 4c f4 bd d1 b1 a5 3c
       0.006732252 0.06922199 -0.11928674 0.020226391
0001b0 63 da ee 3d 34 b4 38 3d e9 5b a4 bd e0 1b 9e bd
       0.11662748 0.04509373 -0.08025343 -0.077201605
0001c0 1d be 1b 3a 55 8c a8 bd c0 89 1f be 19 de 48 3c
       0.000594111 -0.08229891 -0.15579891 0.012259983
0001d0 a8 2b e0 bd 51 95 57 bd b4 d5 ea 3c be 22 bf 3d
       -0.10945827 -0.052632634 0.028666355 0.093327984
0001e0 5d c7 dd bd ef 2e a4 bd 4d 8d 2e 3d 5b 79 e6 3b
       -0.10829041 -0.080167644 0.042615224 0.0070335097
0001f0 a5 20 83 3d 3e c9 f2 bc 7c ab a3 bd 0c 80 c0 bc
       0.06402711 -0.029636975 -0.079916924 -0.023498558

convs.1.lin_r.weight f4 [128, 64]
000000 d2 64 d5 bd 3f 89 cd 3c 0c ad 54 3d 9b 4b dc bc
       -0.104196206 0.025089858 0.051922843 -0.02689152
000010 05 3f df ba fd 8f cb 3d 08 af f7 3b 0d 9c a3 3d
       -0.0017032331 0.09939573 0.007558707 0.07988749
000020 f9 ef 39 3d 81 e5 a2 3d b9 0c 3b bd 83 5a 28 bd
       0.04539487 0.07953931 -0.04566643 -0.041101944
000030 b3 ef 8c bd 31 28 b0 3c 95 3c c5 bd c0 02 e8 bd
       -0.068816565 0.02150354 -0.09630696 -0.113286495
000040 65 fc f9 bd fb ff 01 be 1e 11 75 3d 3d fc ec 3c
       -0.122063436 -0.12695305 0.059830777 0.02892887
000050 18 ba 10 bc 41 bb e9 3d 05 45 a9 3d 22 c1 82 bd
       -0.008833431 0.11412669 0.082651176 -0.063844934
000060 4d 53 27 3d 1a 6e 92 bd c3 34 d5 bb 8f 6a c6 bd
       0.040850926 -0.071499065 -0.006506534 -0.09688293
000070 64 3f 92 3d 6c c5 88 3c 40 68 bd bd 1c 6d 4c bc
       0.07140997 0.0166957 -0.092484 -0.012477186
000080 0f bb 8b bd e1 1f 44 3d 4a 4e 8f bb a1 e7 6a bb
       -0.06822788 0.047881965 -0.0043733465 -0.0035843628
000090 f6 b7 26 3d a4 d6 29 bc 35 02 c8 bd c1 5a 00 bd
       0.040702783 -0.010366116 -0.09766046 -0.03133655
0000a0 77 17 f9 ba 54 06 9b bd 4f 2e dd 3d 6d b8 b7 bd
       -0.0019004185 -0.07569566 0.10799848 -0.08970723
0000b0 4f cb e8 bc b0 c0 ca bd e7 2b f4 3a 74 5c 7b bd
       -0.028417258 -0.099000335 0.0018628807 -0.061367467
0000c0 0e a3 36 3b cc c8 3a 3d f4 d6 16 39 62 41 6e bc
       0.0027868184 0.04560165 0.00014385191 -0.014541956
0000d0 d2 c6 1f bd 51 b4 ed bc 7f 07 ab bb ef 4f ef 3c
       -0.03900797 -0.029016646 -0.0052193995 0.02921292
0000e0 44 99 7e bd 52 61 4e bc 7e 35 86 3d 46 80 96 3d
       -0.062157884 -0.012596445 0.065531716 0.07348685
0000f0 c9 f9 94 bc 9a 87 f9 bd 9f c0 fc 3b bd 99 ca bd
       -0.018185513 -0.12184067 0.007713392 -0.098926045
000100 29 0e 53 bd 6f 43 d9 bc c0 f3 5c 3c 61 37 45 bd
       -0.051527176 -0.026521413 0.013485849 -0.048148517
000110 fc 7e 85 3d 7a 77 92 bd 18 57 3e bd 27 b6 8d bd
       0.06518361 -0.071516946 -0.046469778 -0.069195084
000120 c3 fa 00 bd c9 05 90 3c bc 3a 84 3d 0e f7 99 3d
       -0.031489145 0.017580884 0.06456515 0.07517825
000130 9e 3e d2 3c 71 94 9f bd ff e1 ba 3d da 38 26 bc
       0.025664624 -0.07791985 0.091251366 -0.01014539
000140 28 8e e3 3d d7 79 7d bc 79 f8 5c 3d 1a 93 8c bc
       0.111110985 -0.015470943 0.0539479 -0.017159987
000150 3f 4a 79 bd 93 3f d2 bc 6e 34 a2 3d 5c 41 93 3d
       -0.060861822 -0.02566508 0.079201564 0.07190201
000160 ae 76 dc 3d aa 70 c8 3d bb d1 ea 3c 6b 62 84 3d
       0.10764824 0.09787114 0.02866446 0.06464084
000170 35 7c 01 3d 77 16 13 bc fa 65 c8 bc 74 a7 c4 bc
       0.031612594 -0.008977524 -0.024462689 -0.02400563
000180 a5 99 a8 3d fb d4 ee bc 3f 4c cc 3d ba 0b dd bd
       0.0823243 -0.029154291 0.0997548 -0.10793252
000190 df 6a 98 3c f4 76 83 bb 5d 35 22 3d 90 95 9b 3c
       0.018605648 -0.004011983 0.039601672 0.018992215
0001a0 bc 70 b6 3d 57 1a d2 bb 4e 46 7f 3d 58 31 a5 bd
       0.08908221 -0.0064118314 0.062322907 -0.08066052
0001b0 ea c1 3b 3d 5c e6 09 3d 5e 86 7f 3b c7 6e 95 3d
       0.045839228 0.033666953 0.0038990001 0.0729652
0001c0 1d 5e d1 3b 32 6d 87 3d 52 90 22 3d 05 38 be bd
       0.006389393 0.06612624 0.039688416 -0.09288029
0001d0 d2 64 dc 3d f4 36 a3 bc 7f 25 60 3d e6 2e 00 3e
       0.107614174 -0.019923665 0.05472326 0.1251789
0001e0 e5 61 61 3d 9d 86 99 3d 4d 09 d7 3d c6 49 63 bc
       0.055025 0.074963786 0.10499821 -0.013872569
0001f0 37 b2 ca 3b a8 38 6f bd 6a b1 03 be 25 4f b9 3d
       0.0061857956 -0.05840364 -0.12860647 0.09048299
000200 3f c5 d8 bd b8 b6 69 bc e9 f8 41 bd a2 ad 5d bd
       -0.10584497 -0.014264755 -0.04735652 -0.054120667
000210 e3 0a b2 bd 48 61 96 bd 68 75 2b bc fa 16 ca 3d
       -0.08693483 -0.07342774 -0.010465004 0.09867664
000220 b0 54 aa bd 58 a3 50 bd 1c 0a 03 bd e8 1b 90 3d
       -0.08316934 -0.050937027 -0.031992063 0.07036573
000230 82 f8 24 bc b0 8e c9 bc 6c 05 2d 3c 8b c4 9b 3d
       -0.0100690145 -0.024604172 0.010560375 0.07605847
000240 45 f0 1f 3d 50 49 03 3e 70 67 75 bc 74 92 3c 3c
       0.0390475 0.12820935 -0.014978275 0.0115095265
000250 b7 92 c6 3d a7 5a 1d bc 39 8b e3 3d 0d 68 d8 3d
       0.096959524 -0.009604133 0.11110539 0.10566721
000260 cc ce e8 bd 9c af 95 3d 36 df 0c 3d fb 7b 65 3d
       -0.113675684 0.073088855 0.034392558 0.05602644
000270 95 0d 69 3d 25 ba 9c bd d8 c8 50 3d 17 6b 3d 3b
       0.05689772 -0.07652692 0.05097279 0.0028902942
000280 29 12 fa 3c 63 e5 96 bd 1a 9b 51 3d 90 ce 77 3a
       0.030526238 -0.07367971 0.051173307 0.00094530825
000290 9f 3b 33 3d fe aa 51 3c 4f 7c 94 bc d5 e6 a4 bd
       0.04375803 0.012797115 -0.018125681 -0.0805184
0002a0 aa 43 0e 3b 51 86 93 3c fa 9e 0e bd e3 f4 54 bd
       0.0021707811 0.018008383 -0.03481958 -0.051991355
0002b0 ec bc 5e 3d c2 3d ed bd 1a ea 0a bd 7a c4 7a bd
       0.05437939 -0.11584045 -0.033914663 -0.06122253
0002c0 aa 76 50 bd a9 e5 02 3c 8f f3 a5 bd 5e aa 68 3d
       -0.050894417 0.007989326 -0.08103096 0.0568031
0002d0 0e ba 53 3d 31 ea 09 bd a2 0b 95 bd 72 0b bd 3d
       0.051691107 -0.033670608 -0.072776094 0.09230699
0002e0 e0 ed 76 3d b8 a5 c6 3d a4 47 05 bd 52 77 c9 bc
       0.06028545 0.09699577 -0.032539025 -0.02459303
0002f0 e3 a8 42 bd fa 94 b9 bc 3c b8 9c bd da 9d 7d 3d
       -0.047524344 -0.022654045 -0.076523274 0.061918117
000300 a1 c2 0f bd e3 52 84 bc ef 9c cb 3c 67 d7 8a ba
       -0.035097722 -0.016152805 0.024855105 -0.0010592759
000310 ec 05 f6 3d 9e 3d bf 3d f1 e8 e1 bc 77 18 1c 3d
       0.12012848 0.093379244 -0.027576895 0.03810927
000320 29 d5 75 3d 4d 0b 61 bd d9 f7 fe bc ae b9 f9 bd
       0.06001774 -0.054942418 -0.031124042 -0.12193619
000330 cf b6 0d 3c 20 7a db bb 33 11 3c 3d 86 d3 82 bd
       0.008649542 -0.006697908 0.04591484 -0.06388001
000340 d7 de ff 3c 21 16 22 bd fe bf 50 bd 78 51 b9 3d
       0.031234188 -0.039571885 -0.050964348 0.09048742
000350 e8 74 a9 3d ca 1d b4 bd 7d 0d d9 3d 6e c8 05 3c
       0.08274251 -0.08794744 0.10598276 0.008165462
000360 37 a7 89 bd e6 c5 c3 3d cf 51 8f bd 92 4f e7 3c
       -0.06721347 0.095592305 -0.069980256 0.028236184
000370 be ad bd bc e2 a5 ba 3d 97 49 cb 3c 64 1e d4 3c
       -0.023154136 0.09113671 0.024815364 0.025893398
000380 eb b6 a7 3d f0 1a 62 bd ba 1a af bd 07 e3 90 bd
       0.08189186 -0.05520147 -0.085500196 -0.07074552
000390 49 11 f1 3c c3 3e 44 bd 1a de 8f 3d 4f a0 d3 3d
       0.029427188 -0.047911417 0.070247844 0.10333311
0003a0 d1 b3 dc bc 3a eb 4c bd ef 16 cf 3d 20 df f5 bd
       -0.026941212 -0.050029017 0.10111796 -0.12005448
0003b0 55 60 e6 3c 52 14 bb 3d 69 e1 aa bd fd 18 c4 bd
       0.028122107 0.09134735 -0.08343775 -0.09575079
0003c0 0f 8e 02 be e9 03 1d bd 33 0f 9c bd 29 1d 58 3d
       -0.12749504 -0.038333807 -0.076200865 0.052762184
0003d0 dd d4 9d bd e0 c4 90 bd 4b b5 5a bd 4f 7d b9 3c
       -0.07706616 -0.07068801 -0.05339555 0.02264276
0003e0 ef 8f 69 bb 0b 34 c5 3d 55 f7 5b bd 6b 87 51 3c
       -0.003563877 0.09629067 -0.05370267 0.012788634
0003f0 4b ff a2 3d 3b 49 92 3c 3c 1c 79 3d b1 ca a2 bc
       0.079588495 0.017857185 0.060817942 -0.019872041

bns.0.weight f4 [64]
000000 8d 85 74 3f 87 45 7a 3f d0 ba 7e 3f e4 cb 72 3f
       0.9551628 0.9776234 0.99503803 0.9484236
000010 e0 e1 71 3f 7b 55 72 3f 9a a2 7d 3f b5 13 80 3f
       0.9448528 0.9466168 0.99076235 1.0006014
000020 34 3c 75 3f d9 a2 6b 3f cb b9 76 3f 84 3a 75 3f
       0.9579499 0.9204536 0.9637725 0.9579241
000030 ea e8 73 3f 53 d5 7b 3f a4 ab 71 3f 9b c4 7a 3f
       0.95277274 0.9837238 0.9440253 0.97956246
000040 7b 44 84 3f ff 54 74 3f 19 ce 77 3f 09 06 74 3f
       1.0333399 0.95442194 0.96798855 0.9532171
000050 d1 4c 80 3f e8 c3 83 3f b6 7d 7a 3f 3e cc 7e 3f
       1.0023443 1.0294161 0.9784807 0.995304
000060 c7 b4 8a 3f 3b ff 78 3f 97 f3 81 3f 91 ee 74 3f
       1.0836419 0.9726445 1.0152463 0.95676523
000070 bc 9d 83 3f 3a 8a 70 3f 7c ed 81 3f ee 1f 7e 3f
       1.0282512 0.93960917 1.01506 0.9926747
000080 62 7c 7a 3f 5d 02 74 3f 03 6d 80 3f 6c a9 6d 3f
       0.97846043 0.95316106 1.0033268 0.9283664
000090 5e 22 72 3f b0 04 81 3f ce a3 7e 3f 1a 3e 79 3f
       0.9458369 1.0079556 0.99468696 0.97360384
0000a0 50 2d 7b 3f 5a 2b 77 3f 68 91 7e 3f 81 9f 71 3f
       0.98116016 0.96550524 0.9944062 0.9438401
0000b0 de b3 79 3f 89 68 7f 3f 99 39 80 3f 76 99 74 3f
       0.9754008 0.99768883 1.0017577 0.9554666
0000c0 8f e2 7b 3f 64 3b 80 3f 2d 7f 7a 3f 60 de 84 3f
       0.98392576 1.0018125 0.97850305 1.0380363
0000d0 13 a9 85 3f 93 05 83 3f 86 9c 7b 3f 4b 70 82 3f
       1.0442222 1.0236076 0.9828571 1.0190519
0000e0 49 66 85 3f b4 00 78 3f d2 63 7a 3f 26 b2 79 3f
       1.042184 0.9687607 0.97808564 0.9753746
0000f0 99 3f 60 3f ee 7f 79 3f 60 0c 72 3f c9 9e 7d 3f
       0.8759704 0.9746083 0.9455013 0.9907041

bns.0.bias f4 [64]
000000 d1 4e d7 bc b5 5d b8 bc e3 aa dc bc a8 14 71 bd
       -0.0262827 -0.02250562 -0.026936954 -0.05885759
000010 94 c7 9e bc 00 49 4e bd 88 24 8c bc fa 8e d9 bb
       -0.019382276 -0.050362587 -0.017107263 -0.0066393586
000020 be 9d 3f bd 3e fd 97 bd 80 5b 23 bd 46 2e 03 bd
       -0.046781294 -0.07421349 -0.039882183 -0.03202655
000030 4e 80 b8 bc 9c 63 90 bc ff 93 e2 bc 06 22 62 bc
       -0.022522118 -0.017625622 -0.02765846 -0.013802057
000040 c8 7d a4 3c 77 9f c8 bc 8e 89 b5 bc ce 56 88 bd
       0.020079508 -0.024490101 -0.022160318 -0.06657182
000050 b5 ae 8b bc 65 cc d0 3c 2e 4b cc bc dd 0c eb bb
       -0.01705108 0.025488088 -0.024938192 -0.0071731643
000060 f6 80 a0 3d 52 b4 ee bc 23 4d 2e 3d e5 0a fe bc
       0.07837097 -0.029138718 0.042554032 -0.031011054
000070 64 86 b2 3b 1a 92 9c bd 63 cb 22 bb a9 cb da bb
       0.0054481495 -0.07645054 -0.0024840466 -0.00667711
000080 7f f4 cf bc 3e 19 b2 bc 60 17 35 bc eb 96 7a bd
       -0.02538514 -0.021740552 -0.011052936 -0.061179083
000090 fc 77 86 bd ba d0 cf bc 9b 34 72 bb 86 42 01 bd
       -0.06565854 -0.025368083 -0.0036957625 -0.031557582
0000a0 9d 72 b3 ba c9 8a aa bb 0f dc d1 3a 04 b8 0b bd
       -0.0013690774 -0.0052045328 0.0016011017 -0.034111038
0000b0 7f 79 28 bd cd ee 79 3a 7a aa 0d 3c 58 b6 d3 bb
       -0.041131493 0.000953418 0.008646602 -0.006460946
0000c0 82 f1 d3 3b be f2 69 3b 9b 68 cf b9 10 54 ea 3c
       0.006467999 0.0035697664 -0.00039560054 0.028604537
0000d0 dc 5c 9a 3d c9 8b 87 3a dc 5c 83 bc 85 62 7e 3c
       0.07537243 0.0010341342 -0.01603549 0.015526419
0000e0 ea 47 9f 3c 81 9f 90 bc 76 49 0f bd fa 50 09 bd
       0.019443471 -0.017654182 -0.034982167 -0.03352449
0000f0 25 93 c3 bd 9a 51 bf bb 3c 49 2d bd 7e ce 8f bb
       -0.0954955 -0.005838585 -0.04230617 -0.0043886295

bns.0.running_mean f4 [64]
000000 b9 04 d6 3d 11 f4 45 3b 99 96 b2 bc f4 a1 2d bd
       0.104501195 0.003020529 -0.021800326 -0.04239078
000010 c3 12 1f bd 76 ab 61 bb c3 2e 66 3d 8b 73 96 bb
       -0.038836252 -0.0034434474 0.05619694 -0.0045914105
000020 a1 79 e0 bd af e9 0f bd 36 2d cc bb 43 52 28 3e
       -0.10960699 -0.035134967 -0.0062309755 0.1643763
000030 83 c7 2b bc b2 4e 07 3e 40 25 76 3d 34 02 bd 3b
       -0.010484579 0.13213614 0.060094118 0.005768085
000040 70 3c e9 3d ef 6f c1 3c e2 df 58 3d 20 3c b0 bd
       0.11388481 0.023612944 0.052947886 -0.08605218
000050 e8 7c 2f be d6 89 0c 3d b0 21 e4 3d 6d d7 6f 3d
       -0.17137492 0.034311138 0.11139238 0.058555055
000060 b9 e7 97 bc f8 59 6f 3d ef c3 2b bd c7 d1 c2 3d
       -0.018543111 0.05843541 -0.041934904 0.09512668
000070 6f 08 c5 3d b2 43 f4 3d 42 09 ee 3c c1 b2 d9 bc
       0.09620749 0.11926974 0.029057149 -0.026574494
000080 42 4f 31 3d 98 b3 88 3d 94 54 c4 bc 8a 1e 95 bd
       0.043288477 0.0667488 -0.023966111 -0.072812155
000090 0d 13 3b bc ea 7a 89 bc 42 7a c0 bd 3c 56 25 bd
       -0.011418116 -0.016782243 -0.09398319 -0.040365443
0000a0 d3 e8 77 bc 57 7a 86 bd 8e fa 0c 3e 1e cd 31 bd
       -0.015131193 -0.06566303 0.13767454 -0.043408506
0000b0 56 b2 6d 3d 87 b4 b3 3d a9 7a 21 bd b7 74 58 bc
       0.058031403 0.08774667 -0.03942362 -0.013211421
0000c0 23 3d 95 3d c2 a7 bf 3d 7c 8a d9 bc 7e 29 d5 3c
       0.072870515 0.09358169 -0.026555292 0.026020762
0000d0 9e 34 9b 3c 3b 54 fe 3d 72 2b a1 bd 6c b9 6d bd
       0.018945988 0.124184094 -0.07869615 -0.05803816
0000e0 77 76 83 3a 4a 99 b2 bd 28 78 1c 3c a2 74 af 3d
       0.0010029812 -0.08720644 0.009550132 0.08567168
0000f0 98 91 1c be 0a 89 8f bd 47 c2 8d 3c b4 57 36 bd
       -0.15289915 -0.0700856 0.017304553 -0.044517234

bns.0.running_var f4 [64]
000000 cf 18 fd 3b 8f f9 05 3c f4 bb 0f 3c d2 d3 58 3c
       0.0077239047 0.008177175 0.008772839 0.013234096
000010 28 e8 32 3c c0 40 0d 3c a6 93 15 3c 3a 34 30 3c
       0.010919608 0.008621395 0.00912944 0.010754639
000020 71 cc 11 3c 74 5b 28 3c 57 44 01 3c 5c 71 e1 3b
       0.00889884 0.01027571 0.007889829 0.0068799686
000030 08 fd fd 3b da 8f 37 3c 19 59 1f 3c 07 62 11 3c
       0.007751111 0.0112037305 0.009725832 0.008873469
000040 c2 d4 59 3c ac a1 55 3c 16 27 81 3c 30 37 61 3c
       0.013295354 0.013039034 0.015765708 0.013746068
000050 50 01 0a 3c bf 24 39 3c 72 33 71 3c 8e 2a 27 3c
       0.0084231645 0.011300265 0.014721738 0.010203017
000060 0e d9 46 3c 54 d9 18 3c 99 07 10 3c 7d 8f 2a 3c
       0.012136711 0.009329159 0.008790874 0.010410187
000070 0f ee 42 3c 1e 4d 2a 3c 8c 3f 14 3c 14 bd 2a 3c
       0.011897578 0.010394363 0.009048354 0.010421056
000080 d3 79 01 3c 6b 77 19 3c 70 71 53 3c 5c c5 31 3c
       0.00790258 0.00936685 0.012905464 0.010850277
000090 38 ca 29 3c 16 c9 5e 3c a0 04 f3 3b 97 16 1c 3c
       0.010363154 0.013597747 0.007416323 0.00952687
0000a0 fe 6f 1e 3c 6d cb 3a 3c b1 04 33 3c 3f 56 e1 3b
       0.009670256 0.01140104 0.0109264115 0.0068767364
0000b0 9d 98 27 3c ed ce 04 3c c8 00 36 3c 71 1b 01 3c
       0.010229257 0.008105976 0.011108585 0.007880078
0000c0 2b de 23 3c 84 1d cb 3b dd 65 41 3c 31 46 53 3c
       0.010001699 0.006198587 0.011804071 0.012895153
0000d0 72 7d 6d 3c ac 6e 14 3c 5f ec 34 3c 50 ae 63 3c
       0.0144952405 0.009059589 0.011042683 0.01389654
0000e0 7e b8 4c 3c e3 72 36 3c a1 07 4a 3c 62 ef 33 3c
       0.012495158 0.01113579 0.01233092 0.010982366
0000f0 6e 05 12 3c 20 dd 18 3c ab ed 25 3c 54 42 0e 3c
       0.008912427 0.009330064 0.010127465 0.008682806

bns.1.weight f4 [128]
000000 6b 18 8c 3e 1c 37 8b 3e 6d 97 89 3e 90 a2 89 3e
       0.2736238 0.27190483 0.2687334 0.26881838
000010 31 40 81 3e 03 1d 86 3e b5 45 82 3e db ce 75 3e
       0.25244287 0.2619401 0.25443807 0.2400469
000020 0e 40 86 3e 5a ea 7a 3e 90 31 8c 3e 83 b0 89 3e
       0.26220745 0.2450346 0.27381563 0.2689248
000030 ff a2 83 3e 95 2d 91 3e 1b 18 86 3e da 8d 83 3e
       0.25710294 0.2835509 0.26190266 0.25694162
000040 33 e5 7e 3e 2a ea 84 3e 84 ec 81 3e c4 28 86 3e
       0.2489212 0.25959903 0.2537576 0.26202977
000050 93 33 8d 3e 1a 1f 84 3e 1f bb 7e 3e 23 fb 85 3e
       0.2757841 0.2580498 0.24876069 0.26168165
000060 c7 20 82 3e 80 0f 75 3e 8e 56 7f 3e ed aa 93 3e
       0.25415632 0.23931694 0.24935362 0.28841344
000070 67 e2 87 3e 05 c5 8b 3e 7e e8 8a 3e 55 5d 85 3e
       0.2653992 0.2729875 0.27130502 0.2604777
000080 1f 77 83 3e 67 7a 73 3e 6d 4d 8d 3e 64 8f 88 3e
       0.2567682 0.23777162 0.27598134 0.26671898
000090 2b b9 92 3e 86 17 88 3e f5 35 87 3e 60 4a 84 3e
       0.28656897 0.26580447 0.26408353 0.25837994
0000a0 82 ef 84 3e 4e c0 84 3e 99 27 89 3e b1 ab 8b 3e
       0.2596398 0.25927967 0.26788023 0.27279428
0000b0 5e f5 85 3e a9 bf 7a 3e f2 9e 91 3e 2d c9 83 3e
       0.26163763 0.24487175 0.28441578 0.25739422
0000c0 47 cb 84 3e f6 25 91 3e a3 99 84 3e 60 09 78 3e
       0.25936338 0.28349274 0.25898466 0.24222326
0000d0 78 2e 85 3e 27 b7 8f 3e 25 00 85 3e c9 1d 81 3e
       0.26012015 0.28069422 0.25976673 0.25218037
0000e0 12 7f 84 3e 5a 68 8b 3e ec c9 84 3e 76 93 8a 3e
       0.25878197 0.2722805 0.25935304 0.2706563
0000f0 42 3d 82 3e 26 ec 7f 3e d9 39 8f 3e f1 35 86 3e
       0.2543736 0.24992427 0.27973822 0.2621303
000100 a7 41 89 3e 4c f5 91 3e 28 83 8d 3e 52 0d 81 3e
       0.268079 0.2850746 0.27639127 0.25205475
000110 bc 48 80 3e b6 11 78 3e de 26 85 3e 7b 27 87 3e
       0.25055492 0.24225506 0.26006216 0.2639731
000120 71 50 88 3e 80 00 87 3e 89 85 88 3e e5 d4 87 3e
       0.26623872 0.2636757 0.2666438 0.26529613
000130 ee fe 83 3e 7b 9a 87 3e ac 3e 84 3e 44 57 75 3e
       0.25780433 0.26485047 0.25829065 0.2395907
000140 c5 87 89 3e b8 2a 95 3e b8 44 87 3e 73 4f 90 3e
       0.26861396 0.29134154 0.26419616 0.28185615
000150 1f 75 85 3e 6b 70 87 3e de c2 88 3e 7a 8c 8f 3e
       0.2606592 0.26452956 0.26711172 0.28036863
000160 7b d4 88 3e a7 77 88 3e 77 d0 7b 3e b4 cf 80 3e
       0.2672461 0.26653787 0.24591242 0.25158465
000170 ce 6f 84 3e f8 e8 81 3e 13 88 87 3e c0 cf 80 3e
       0.2586655 0.25373054 0.26471004 0.251585
000180 9a 58 89 3e b4 ae 86 3e 61 0c 86 3e c7 0c 8a 3e
       0.2682541 0.26305163 0.2618132 0.26962873
000190 f6 65 8a 3e 99 da 85 3e 8d 71 91 3e c7 1f 78 3e
       0.27030915 0.2614334 0.28406945 0.24230872
0001a0 cb 99 86 3e 7c 7d 8e 3e da 44 89 3e 2c fe 8d 3e
       0.2628921 0.27830112 0.26810342 0.2773298
0001b0 97 05 8e 3e 86 2b 8c 3e bd a2 8b 3e 16 a3 86 3e
       0.2773864 0.27376956 0.27272597 0.262963
0001c0 f5 4f 87 3e 01 8c 8c 3e 5f 78 8a 3e a9 50 84 3e
       0.2642819 0.27450565 0.2704496 0.2584279
0001d0 17 e9 8a 3e 0b b0 86 3e 66 61 82 3e 26 7a 78 3e
       0.27130958 0.26306185 0.25464934 0.24265346
0001e0 f9 db 92 3e eb e7 83 3e 9d 5c 8b 3e 01 b5 82 3e
       0.2868345 0.25762877 0.27219096 0.2552872
0001f0 1a 19 83 3e 65 44 86 3e b4 44 8b 3e 55 35 89 3e
       0.25605088 0.26224056 0.27200854 0.26798502

bns.1.bias f4 [128]
000000 3b d4 4f bb 54 43 a2 bb 80 ec e9 bb 8e af e4 bb
       -0.0031712193 -0.004951874 -0.0071387887 -0.0069789356
000010 61 96 c2 3a c6 8d 23 3b 27 99 f8 ba ca 03 08 3b
       0.0014845842 0.002495633 -0.0018966541 0.0020754212
000020 d0 92 bb 3a b4 25 85 b9 a3 1a bd 3b 85 fd 7e bb
       0.0014310721 -0.00025395828 0.0057709976 -0.0038908434
000030 7a 5b 89 3b bd 75 30 3b 1b 20 8c bb b5 d3 62 3b
       0.004191813 0.0026925646 -0.004276288 0.003461105
000040 36 33 9c ba 30 db 3c 3c 40 b0 db 3a 8e 49 81 bb
       -0.0011917118 0.011526868 0.0016760901 -0.003945536
000050 f2 f7 96 bb de 4e 00 39 f3 93 28 bc 39 c4 d6 bb
       -0.004607194 0.00012236412 -0.01028918 -0.0065541533
000060 50 0d 57 bb 5f 30 d3 3a ee 37 01 bb fb 08 41 bc
       -0.0032814331 0.0016112438 -0.0019717175 -0.011781926
000070 44 dd 05 3b d1 8e 0a 3a 6b 70 d0 3a 13 29 de 3a
       0.0020426074 0.00052855635 0.0015902644 0.0016949497
000080 54 e8 a3 bb c4 30 c5 bb 0d 15 e3 bb 33 cd 0e bc
       -0.005002061 -0.006017776 -0.0069299997 -0.0087159155
000090 13 bb f1 bb b0 f8 1f bc 11 a4 b4 b9 97 9e 95 39
       -0.0073770373 -0.009763882 -0.00034454514 0.00028537653
0000a0 b8 73 97 3b c8 8a 6b bb a8 ec 9f 3b 48 49 73 bb
       0.004621949 -0.0035940874 0.0048805065 -0.0037122536
0000b0 4f 7b 08 3c e3 f7 a3 3a e6 4e 2a 3c 2a 21 4d 3a
       0.00833018 0.0012509789 0.010394787 0.0007825071
0000c0 b0 16 4a 3b 89 30 02 3c fe b1 6e 3a 45 e7 46 3a
       0.0030836277 0.007946142 0.00091055024 0.00075875624
0000d0 20 f3 8b ba b5 3d 1f bc e0 ab d8 3b 81 4c 10 3b
       -0.0010677315 -0.009719302 0.006612286 0.0022018256
0000e0 10 48 da ba ed 15 87 3b 1b 0a ce bb a2 ca c5 ba
       -0.0016653556 0.004122487 -0.0062878258 -0.0015090297
0000f0 c6 f8 81 bb a3 b2 4a bb 5a ed 15 3c ac 79 16 3c
       -0.0039664237 -0.003092923 0.009150827 0.009184282
000100 cf 53 22 3c 52 b0 1a 3c 15 ab a3 3b 3c 16 16 3c
       0.009907677 0.009441452 0.00499476 0.0091605745
000110 a1 9a 6b 3a 4c 14 80 3b e3 a3 21 3c af 81 07 39
       0.000898758 0.0039086696 0.009865734 0.00012922914
000120 31 15 26 bc 4c 9e fa b9 39 67 c4 3b 45 96 ef 3b
       -0.010136888 -0.00047801656 0.0059937504 0.0073116147
000130 51 53 f3 3a 6b 5e 3a 3a d6 1a 75 3b 60 ed 6c 3b
       0.0018564259 0.0007109406 0.0037400029 0.0036152229
000140 8a de a3 3b b5 cd 1d 3c 99 5c 40 bb cc 63 03 3c
       0.005000894 0.009631564 -0.0029352068 0.008019399
000150 ff ac 5d b8 2e 19 39 3a 04 aa fd ba 23 e1 53 3c
       -5.285162e-05 0.0007060942 -0.0019353037 0.012932095
000160 d4 ea 5b 3b 9a ae 9f 3b 54 3c 5c 3b 13 81 0a 3c
       0.0033556717 0.004873109 0.0033605294 0.008453625
000170 07 c8 e0 39 86 98 1c 3c 66 23 36 bc f5 cb 5f 3b
       0.0004287364 0.009557849 -0.011116838 0.0034148667
000180 79 50 3b 3b 8a f1 dd 3b f5 4f 9e 3b 52 d9 7f bb
       0.00285819 0.0067731785 0.004831309 -0.0039039445
000190 8b 69 a7 ba 2e b5 ba 3b 1b 39 0e 3c 02 91 15 ba
       -0.0012772543 0.005697868 0.008680607 -0.0005705507
0001a0 37 35 8c 3b 7b d2 75 3b 7e d0 08 3b c9 7a 0c bb
       0.0042788046 0.003750949 0.0020876224 -0.002143549
0001b0 ad f6 bc bb 5e aa 54 bb df 2e 7b 3b 41 f1 82 bb
       -0.0057667107 -0.003245018 0.0038327498 -0.003996045
0001c0 3c c1 71 3b 05 2e 87 ba c1 35 28 bc 27 9b f2 ba
       0.0036888858 -0.0010313398 -0.010266722 -0.0018509374
0001d0 2b b3 95 bb e3 f5 c0 bb 1d 51 5e bb 4b 7d fb 3a
       -0.0045684776 -0.005888687 -0.003392286 0.001918712
0001e0 39 10 3d bc a3 7c 70 3b b6 bb 08 bc 59 25 a4 bb
       -0.011539512 0.0036695383 -0.008345535 -0.005009335
0001f0 65 03 aa 3b 78 f0 f8 ba dd 00 b5 bb 89 c6 7b 3b
       0.005188393 -0.0018992564 -0.0055237846 0.0038417897
