output/dmd/prev_e2v/run_008/prev_dmd_best_model_e2v.pth (torch, 207541 bytes, 14 tensors)

convs.0.lin_l.weight f4 [256, 32]
000000 11 9a 6a bd 56 c2 77 3c 72 3a e7 3d 7a 5f 88 bd
       -0.057275835 0.015122017 0.112904444 -0.06658836
000010 a4 da cf 3d 95 e8 b2 3d 1e 93 df 3d 24 97 90 3d
       0.10149124 0.08735768 0.10916732 0.07060078
000020 23 5f 60 3d 9c c5 59 bc eb 8d e5 bb e6 da 9d 3d
       0.05477823 -0.013291743 -0.0070054433 0.07707767
000030 8a 69 24 3e 7c e3 10 be 58 2e 30 be b7 c7 fb bd
       0.16055885 -0.14149278 -0.17205179 -0.12293952
000040 25 07 b5 bd ac 37 a8 bd 2f 12 8d 3d eb c1 19 be
       -0.08839253 -0.082137436 0.06888234 -0.1501538
000050 c5 a6 9a 3d 6f 66 25 3e 36 3b a0 bd d9 b0 cf bd
       0.0755134 0.16152357 -0.078237936 -0.10141153
000060 85 67 a6 3d 3b 1a a2 3d d1 43 db bc d7 1c 15 be
       0.081252135 0.07915159 -0.026765736 -0.14561783
000070 2b fa 99 bd f9 41 07 bd 51 cd b9 bd 35 92 8e 3d
       -0.07518419 -0.0330219 -0.09072364 0.069614805
000080 cc 00 5a 3c e6 06 c3 3c 41 0e 84 bd e2 ff b5 3d
       0.013305854 0.023807 -0.06448031 0.088866964
000090 2f 9a 63 bd da f0 1e 3e bd db 12 3e 8f b3 82 3d
       -0.055566963 0.15521565 0.14341636 0.06381904
0000a0 be 0f 35 bd f5 8a be 3d 47 99 2a bc 77 cf e1 3c
       -0.044204466 0.09303848 -0.010412521 0.027564747
0000b0 8c e8 62 3d 68 14 3f be 57 34 d7 bc 85 34 49 bd
       0.055397555 -0.18660128 -0.026270075 -0.049122352
0000c0 70 3e a5 bc c8 d5 ca 3c 4a 1a c7 3d fd d8 93 3b
       -0.020171374 0.024760142 0.09721811 0.004511951
0000d0 2e 5e 0c bd da ed fc bd 51 4c da bd f1 8a 05 be
       -0.034269504 -0.12350054 -0.106590874 -0.13041283
0000e0 06 64 dc bc b0 c5 16 3e 10 bb a7 3d 8d 2e c7 bd
       -0.026903164 0.1472385 0.08189976 -0.09725676
0000f0 08 eb 95 3d e1 6a a5 3d b4 f5 d6 bd 8f c2 f0 3d
       0.07320219 0.08077026 -0.10496083 0.11755859
000100 9d af 56 bd 18 7b b7 bd 1f f7 05 bb ca ab ac 3d
       -0.05241357 -0.08959025 -0.0020441485 0.08431204
000110 59 0f 34 3d 8f 16 f9 3d 4b 54 ad 3d 37 5e 1b bd
       0.04395995 0.12162506 0.08463343 -0.037931647
000120 3d bb ed bd 50 4f 06 be 1c cf fe bb bd 10 1f 3e
       -0.116079785 -0.13116193 -0.007776154 0.15533729
000130 fd 5a fa bc 77 a3 7a 3d ec b7 96 bb 6d eb a4 bd
       -0.030560965 0.06119105 -0.004599562 -0.080527164
000140 b6 f4 22 bc 51 f3 a2 3c e9 02 b1 3c 70 46 48 3d
       -0.009946039 0.019891413 0.021607833 0.0488953
000150 a5 8c 05 be b9 20 c8 3d d3 35 da 3d 8d cc ad bc
       -0.13041933 0.09771866 0.106547974 -0.021215701
000160 ab 75 2d be 4f c0 3d bd 11 ad 28 3e 71 eb 74 bd
       -0.16939418 -0.046325978 0.1647227 -0.059794847
000170 3c 4b 63 3d 99 a7 44 bd f4 74 15 be 95 57 12 3e
       0.05549167 -0.048011396 -0.14595395 0.14291222
000180 4c 8e d6 bd 37 75 0f 3e 31 60 e0 3c fa 73 a9 ba
       -0.1047636 0.14009558 0.027389618 -0.001292824
000190 df 42 f8 3d 33 a6 ab bc 6d 6e 29 be 42 e8 67 3d
       0.1212213 -0.020953273 -0.1654603 0.056617983
0001a0 d6 f6 0b 3e 07 00 bc 3d 66 dc ee bd 6d 22 4e bd
       0.13668379 0.09179693 -0.116631314 -0.0503258
0001b0 ba ec 2b be fc 83 7e bd 55 bc ac bd b9 33 ee bd
       -0.16789523 -0.06213759 -0.08434359 -0.11630959
0001c0 d3 46 e9 3d 45 86 a3 bd 10 31 e6 3d 2a b7 fa 3c
       0.11390462 -0.07984594 0.11239827 0.030604918
0001d0 af 2b e5 3b 22 5f df bc c7 5b 86 bc 63 0a 74 3d
       0.006993733 -0.027267043 -0.016401185 0.059580218
0001e0 40 7c 72 bd 5e 7c 72 3d 41 d0 e5 bd 79 27 83 bb
       -0.059200525 0.059200637 -0.11221362 -0.0040025082
0001f0 01 33 41 3c e4 c5 0a 3a 64 51 cb 3d 2c 11 11 be
       0.011791945 0.000529377 0.099276334 -0.14166707
000200 1a a5 4d 3c 86 57 66 3c 97 99 9a bd 29 ec 25 be
       0.01255157 0.014058953 -0.07548826 -0.16203369
000210 25 86 12 3e f2 e4 09 be a2 86 17 3e 94 d6 18 3e
       0.14308985 -0.13466242 0.14797452 0.14925605
000220 bf 87 2f 3e 1c d4 03 bd 0c 12 c6 3d 2d e8 d2 3d
       0.17141627 -0.032184705 0.09671411 0.1029819
000230 f0 41 2f bd 27 45 e6 bc df 0c a8 bd 5c e6 19 3e
       -0.042787492 -0.028109146 -0.0820558 0.15029281
000240 e7 f3 e0 3d 4b 14 1d 3c f6 9e 08 be bb 50 d9 bd
       0.10984021 0.009587358 -0.13341889 -0.10611101
000250 a7 fc ac 3c b7 5d 07 3e cd 93 a1 3d d8 ec 69 bd
       0.021116568 0.13219343 0.07889519 -0.057110637
000260 ac a9 24 be 14 2c 58 bd 14 fe 99 bd 85 17 58 3d
       -0.1608035 -0.05277641 -0.07519165 0.052756805
000270 3f 67 f9 bd 5d 89 0c 3d 13 43 82 3d 13 05 fe bd
       -0.12177896 0.034310687 0.0636045 -0.124033116
000280 e4 7b a4 bb 14 d7 8a bd 1e 86 8b bd b0 1c 0e 3e
       -0.0050196517 -0.06779304 -0.0681269 0.13878131
000290 36 8e 3d bd b5 5f 78 bc da 24 10 3e 59 01 68 bd
       -0.0462782 -0.015159537 0.14076558 -0.05664191
0002a0 7a 9a d5 bd b0 75 64 bd df 0c 07 3e 6e 1f 20 be
       -0.10429855 -0.055776298 0.13188504 -0.1563699
0002b0 a9 6f a1 3c 92 53 40 bd 1a 63 2a be 5e 53 99 3d
       0.019706564 -0.0469547 -0.16639367 0.07486604
0002c0 b8 32 95 3c 7c 75 43 3d 09 34 e1 3c ae 5f 89 3c
       0.018212661 0.047719464 0.027490633 0.016769256
0002d0 f5 d6 91 bd 34 40 b0 3d c6 bf 11 be 06 24 96 bd
       -0.07121078 0.08605996 -0.14233312 -0.0733109
0002e0 52 bb a9 3d 4f 4b 10 be ba ce 8b bd 8d f9 31 bd
       0.08287682 -0.14091228 -0.06826539 -0.04345088
0002f0 2c 28 08 be 3e c6 73 bd ef 75 aa bd 66 97 0b be
       -0.13296574 -0.05951523 -0.08323275 -0.13631973
000300 2e 9e f2 bb 2f 61 b1 bc ee 3e b6 bd 11 14 93 3c
       -0.0074041104 -0.021652786 -0.08898722 0.017953904
000310 7a 64 fc 3d e6 83 3e 3d 44 f1 cf bd c4 85 a3 bd
       0.12323852 0.046512507 -0.1015344 -0.07984498
000320 c5 4b cc 3c 22 95 00 3e f5 79 d7 bc 98 86 e1 3c
       0.024938473 0.1255689 -0.02630327 0.02753
000330 9c 8d 04 bd 7e 67 19 3e a9 05 73 bd 58 1c e2 bd
       -0.03236161 0.14980885 -0.05933157 -0.110405624
000340 63 dd d5 3d 93 89 2b be 81 ce 25 3d 47 84 43 3c
       0.10442617 -0.16751699 0.04048014 0.011933393
000350 5b bd 51 bd 83 0a 0f be 82 8e 80 3c f3 7e 11 3e
       -0.051205974 -0.13968854 0.015692953 0.14208584
000360 ec bb 3c 3d 2c c1 f1 bc b5 f9 1b 3e 9d c7 03 3e
       0.046077654 -0.029511057 0.15231974 0.12869115
000370 59 d4 80 3d 5c ea 12 be 1c 62 0b bc 58 51 89 bc
       0.06290502 -0.14347214 -0.008507278 -0.01676242
000380 f0 18 0c 3e 7c 70 f2 bc 4f c3 20 be 69 42 17 bd
       0.13681388 -0.029594652 -0.15699504 -0.036928568
000390 96 e1 04 be 63 a4 2e 3d ce 30 f5 bd 2f cc c9 bc
       -0.12976679 0.04263724 -0.119721994 -0.024633495
0003a0 01 2b 6c bd 61 9e 80 bd 58 6a 3e bd 9a f7 28 be
       -0.0576582 -0.062802084 -0.046488136 -0.16500703
0003b0 45 ed 65 bd 3a fb a4 3d d5 d7 17 bd 4b 0b 46 bd
       -0.05613448 0.0805573 -0.037071068 -0.048350614
0003c0 fa d6 05 be 09 04 8a bd 0e bd a1 3d 24 92 85 3d
       -0.13070288 -0.06739051 0.078973874 0.06522015
0003d0 f5 24 0b 3e 1a c2 0d 3c d1 85 8e bd c5 e5 1a bd
       0.13588317 0.008652234 -0.06959117 -0.03781678
0003e0 76 be 1f 3e e1 c7 d5 3d e4 96 03 be 59 94 12 be
       0.15599999 0.104385145 -0.12850529 -0.14314403
0003f0 8b c1 f6 bd cc a6 0f 3e a3 ea 78 3d 56 2c 8f 3c
       -0.12048634 0.14028472 0.060770642 0.017477196

convs.0.lin_l.bias f4 [256]
000000 af d7 ed bd e8 8f 52 bd ab eb b8 3b 3e c6 89 3d
       -0.11613404 -0.05140677 0.005643328 0.06727265
000010 61 de dc 3c 6e a4 0d 3e 49 88 22 be 9a ff ab bd
       0.026961507 0.13832256 -0.15872301 -0.083983615
000020 aa e9 42 bd 3f 5f 25 3d 7c b6 c6 bd 8f 36 c9 3d
       -0.04758612 0.040374037 -0.09702775 0.09824859
000030 da c7 a5 3c 66 d4 4d 3d da 3d 23 be 25 c8 f8 bd
       0.020236898 0.050251387 -0.15941563 -0.121475495
000040 78 9a 89 3d 2e 88 e6 bc 9d 18 01 3e ee 0f 13 be
       0.06718916 -0.028141107 0.12607045 -0.14361545
000050 63 6f e0 3c d8 be 78 3c 92 7c 1f 3e 0b c5 2e bd
       0.027396863 0.015182219 0.15574864 -0.042668384
000060 9e 3d d6 3d c5 e1 ca 3c e2 94 85 bd 97 7f 22 3e
       0.10460971 0.024765858 -0.06522538 0.15868984
000070 a3 50 a5 3b 3e 34 cf 3d 24 ef f7 3c 00 14 2d be
       0.005045013 0.10117386 0.030265398 -0.1690216
000080 62 71 49 bd 4a be 4c 3b c7 f5 e5 bd 17 a6 7c bd
       -0.049180396 0.003124135 -0.11228519 -0.061681833
000090 9d 0e 8f 3d df 0c 18 3e 57 c5 c7 3d 06 fe bd 3d
       0.06985209 0.1484866 0.097544365 0.09276967
0000a0 bb e0 05 be a3 6f 5f bd ed 6b 2d bd 02 4b 24 bc
       -0.13074009 -0.054549824 -0.042339254 -0.010027649
0000b0 fd c8 aa bd 0b 88 89 3d de aa bb 3d 78 57 80 3d
       -0.08339117 0.06715401 0.0916345 0.06266683
0000c0 06 19 2c 3e 64 b1 d6 3d f8 5f 22 3e 84 66 25 be
       0.1680642 0.10483053 0.15856922 -0.16152388
0000d0 19 8a 52 bd d1 03 15 bc 3d 5a 01 3c 8f 28 ed bc
       -0.05140123 -0.009095148 0.00789505 -0.028950004
0000e0 85 27 8e bd 10 85 27 3b f1 78 cb 3d 6d 48 ba bd
       -0.069411315 0.002556149 0.09935177 -0.09095845
0000f0 59 33 ef 3d a8 30 bf bd 71 9e 19 be 67 d6 0b 3e
       0.11679716 -0.09335452 -0.15001847 0.13656007
000100 b9 e5 9f bc c9 82 88 3d f6 e0 c1 3d 4f de 22 be
       -0.01951872 0.0666557 0.09466736 -0.15905116
000110 c2 1d 18 3e 02 f4 16 be 70 9f 15 3c 9b 35 f5 3c
       0.14855102 -0.14741519 0.009132251 0.029932788
000120 48 2c fd 3d d7 01 e2 bd a7 6e 44 3e a2 81 0a be
       0.123619616 -0.11035507 0.19182836 -0.13526013
000130 30 e2 16 3d a6 0d c4 bc 0d da 0e 3e 13 05 aa bd
       0.036836803 -0.02393229 0.13950367 -0.08301749
000140 d0 b2 09 3e a1 84 4a 3d 4f 9b 06 be de a2 0f 3c
       0.13447118 0.04944289 -0.13145183 0.008766858
000150 1c 7d 7f 3d ca 93 df bd fe 2f 1c 3e 5a aa 95 3d
       0.062375173 -0.109168604 0.15252683 0.073078826
000160 c1 03 97 3d 55 6b b2 bd 65 a6 0c 3d 7d 01 2e be
       0.07373763 -0.08711878 0.034338374 -0.16992755
000170 e9 dd ff bd 7f a2 a8 bb cc 29 0e be e4 e3 06 bd
       -0.12493498 -0.005146324 -0.13883132 -0.032932177
000180 d9 01 e5 3c f0 fe ac 3c 71 17 10 3d fa 16 1c be
       0.027954983 0.021117657 0.035178605 -0.1524314
000190 20 28 e1 bd 4b 0f e7 3d fb d9 12 be 4d 1e 8a bd
       -0.10993981 0.11282214 -0.14340965 -0.06744061
0001a0 4d b8 75 3d f2 8c 68 3b 64 3a ef 3d 00 27 e4 3d
       0.059990216 0.00354844 0.11681059 0.11140251
0001b0 52 48 8c 3d 6f 40 aa bd 4d 3a b5 3c 81 06 1e be
       0.068497315 -0.08313071 0.022122527 -0.15432169
0001c0 27 b1 9d bc 88 c1 1a 3e c0 7e 8f bc a5 61 ed 39
       -0.019249512 0.15112889 -0.017516494 0.00045276913
0001d0 b3 dc e0 3d 8f 42 1c 3e 46 ca 1b be a9 c8 e9 bd
       0.10979595 0.15259765 -0.1521388 -0.11415226
0001e0 ff 2f 24 3e fd e2 1b be 0e 80 03 3e a3 22 d4 bb
       0.16033934 -0.15223308 0.12841818 -0.0064738556
0001f0 26 cc 6a 3d 7f 0a cd bd 9e 32 2a be 6e 9a bc 3d
       0.057323597 -0.100117676 -0.16620871 0.092091426
000200 58 39 c1 bd 63 c5 82 bd be 33 b7 bc b3 dc c5 3d
       -0.094347656 -0.06385305 -0.02236354 0.09661236
000210 58 fd 20 3e 87 cd 29 bd 36 7c 9b 3d 0c 27 a0 3d
       0.15721643 -0.04145577 0.07592051 0.078199476
000220 8f 7d 04 3e 26 42 aa 3d 9e c6 48 3d 22 60 77 bd
       0.12938522 0.08313398 0.04901754 -0.060394414
000230 b0 aa e7 bd 26 60 87 3c 7a 5b 25 be a7 47 3a 3d
       -0.11311853 0.01652534 -0.16148177 0.04547849
000240 9b a4 23 be 0f 86 a1 bb 61 d3 25 3d 24 63 d8 bc
       -0.15980761 -0.004929311 0.04048479 -0.026414461
000250 91 0c 1f 3e e0 6a e5 bd ee c1 27 3d 89 ea 3a 3c
       0.15532137 -0.112020254 0.04095643 0.011408457
000260 a0 0d 76 3d f3 56 71 bd b1 54 74 3d 3b e6 0b 3d
       0.060071588 -0.05892081 0.05965108 0.03415511
000270 72 ca 52 ba 8f cd 14 3e c2 df 55 bd 76 e4 00 3e
       -0.0008041031 0.1453154 -0.052215345 0.12587151
000280 2e 1f b7 3d 2e bf 22 3d 61 79 b1 3d 93 ff 0c 3e
       0.08941494 0.039733104 0.08665729 0.13769369
000290 75 18 c7 3d e1 ae 6c bc 01 36 2d 3e e4 04 1c 3d
       0.09721462 -0.014445991 0.16915132 0.0380906
0002a0 9f 2e 04 3e 09 ba 5e bd ca 83 fe 3d 08 28 f7 bd
       0.1290841 -0.054376636 0.124274805 -0.12068182
0002b0 e7 1a 29 bd cb e5 d4 bd 53 28 6e bd c4 64 f7 bd
       -0.04128542 -0.10395392 -0.058143925 -0.120797664
0002c0 33 0a 4f bd bd 3c 65 bd 36 c5 29 be 73 c0 16 bd
       -0.050546836 -0.055966128 -0.16579136 -0.036804628
0002d0 10 a1 17 bd bd f1 ac 3c 76 87 8f bd b6 7d 9e bd
       -0.037018836 0.021111364 -0.07008259 -0.07738821
0002e0 a0 3a 96 bc 7c 48 ce bc 20 3f 2f 3e de b5 68 3a
       -0.018338501 -0.025181048 0.17113924 0.0008877198
0002f0 77 8b 20 be 5c 55 7d bd e9 e7 31 3e cc 5c 0c 3d
       -0.15678202 -0.061848983 0.17373623 0.034268185
000300 ba 57 22 3e f0 1f 0c 3e 4e a5 6a bd 87 fd 20 3e
       0.15853778 0.13684058 -0.057286553 0.15721713
000310 70 68 74 bd c8 69 f1 3d 45 4d 7f 3d 23 41 a8 bc
       -0.05966991 0.11787754 0.06232955 -0.020538872
000320 fb 05 4a bd 85 ae bb 3d be a2 96 bd 8a d5 ea bb
       -0.04932211 0.09164146 -0.07355259 -0.007166569
000330 98 2f e7 3d 77 80 46 3d cc 14 d1 bc a5 27 1c 3e
       0.11288375 0.048462357 -0.025522612 0.15249498
000340 b1 3a ce b9 58 90 25 3e c7 c4 3f 3c 7c 4f 22 3e
       -0.0003933511 0.16168344 0.01170463 0.15850633
000350 01 e4 a9 3c de d4 26 be 8f db 88 3d 8e a8 83 3d
       0.020738604 -0.1629214 0.066825025 0.06428634
000360 11 0e 3e 3e 8b d7 7a 3d 4a cc 25 3e 2b 93 b8 3d
       0.18560053 0.061240714 0.16191211 0.09012445
000370 86 af 9d 3d 1d 61 2f bc 13 91 a3 3d dc 4b 23 3e
       0.07699494 -0.010704306 0.07986655 0.15946907
000380 ff 55 2a bd 08 62 8d bd 44 31 1c 3e 96 02 c4 3c
       -0.04158592 -0.069034636 0.15253168 0.023927014
000390 f8 d0 15 3e c0 52 01 bd 2b 80 81 3d a2 dd 22 3d
       0.14630497 -0.031573057 0.06323274 0.039762147
0003a0 63 1e ec 3d aa 1b 8e 3d b7 93 29 bd e9 ca 33 bc
       0.11529233 0.0693887 -0.041400637 -0.0109736705
0003b0 bb 0e 42 3c 9c 39 81 bd 45 1a a3 bd 3e 16 1a 3e
       0.011844332 -0.06309816 -0.07963995 0.15047547
0003c0 a1 72 1f 3e 7e 8b 5d bd 07 d5 0f 3e aa e0 2e be
       0.15571071 -0.05408811 0.14046107 -0.1707789
0003d0 e6 79 1b bb 82 01 e1 bd 64 31 31 3e dd b5 00 3e
       -0.002372378 -0.10986616 0.17303997 0.12569375
0003e0 c2 9b 5e 3b e5 9b ce 3c 10 83 3a 3e cb 1f 30 3d
       0.003396735 0.02522082 0.18214059 0.04299907
0003f0 b9 93 e9 3d 55 99 cd bd 47 12 f3 bd a5 07 0a bb
       0.11405129 -0.100390114 -0.118687205 -0.0021061685

convs.0.lin_r.weight f4 [256, 32]
000000 5f 3d 40 bc 4d 41 ce 3c 0a 32 c9 3b 1c ee df 3d
       -0.011733382 0.025177622 0.0061399983 0.10934088
000010 80 45 ba 3d 8d 46 0c be d6 94 81 3d cc fc a9 bd
       0.09095287 -0.13698788 0.06327216 -0.0830017
000020 dd bd 9d 3d 9f 2c f2 3d 41 3d 7e bd fb 92 35 3d
       0.07702229 0.11824917 -0.062070135 0.044329625
000030 f2 a3 3b bc bf d8 04 be b1 b6 0f 3e f1 0c cc 3c
       -0.011452662 -0.12973307 0.14034535 0.024908515
000040 4c b5 fe bb 5b 4a 04 be dc 4a 4d 3d 98 50 6d bd
       -0.007773077 -0.1291899 0.05012022 -0.05793819
000050 7f 0e 91 bc 3e db 0c bd 61 b5 a1 bc 25 f4 e8 bd
       -0.017707108 -0.034388773 -0.019739809 -0.11374692
000060 3e 21 01 3e 90 47 b6 3c aa b5 64 bd d5 16 96 bd
       0.12610337 0.02225092 -0.05583731 -0.073285736
000070 5f 7e 16 3e 77 1c 17 3e 51 25 cf bc a9 d2 2b 3d
       0.14696644 0.14756952 -0.025286349 0.041948948
000080 81 ca a5 3c 83 ea 1c be 9d 33 05 3d 50 21 f7 bd
       0.020238163 -0.15323834 0.032519925 -0.12066901
000090 a9 7a 20 bd 44 c2 56 bd 83 54 7d 3c 81 a7 d4 3d
       -0.039179478 -0.05243136 0.015462044 0.10383511
0000a0 6c f1 c9 bc 46 aa be bd 3d e3 e5 bd ce 12 af 3b
       -0.024651252 -0.09309821 -0.11224983 0.005342818
0000b0 15 56 c0 bb cc b2 1a be 34 e0 fc 3d e5 f6 58 bd
       -0.005869637 -0.15107268 0.12347451 -0.052969832
0000c0 30 86 ce 3d c7 45 0b 3e ec 5e 23 3e 0b 64 24 be
       0.10084188 0.13600837 0.15954179 -0.16053788
0000d0 48 9b 71 bd 82 3f aa 3d 73 b5 12 3d fe 5f 1c be
       -0.05898598 0.083128944 0.035817575 -0.15270993
0000e0 df ec 85 3d 39 6b d0 3d ad c7 66 39 25 e2 f1 3c
       0.0653932 0.10176701 0.00022008894 0.02952678
0000f0 ee 72 b3 3d 0a ef 46 be 69 12 e0 bc 56 fe ea 3d
       0.087621555 -0.19427124 -0.027352529 0.11474292
000100 95 d0 96 3c 6e d1 a6 3d c4 3b 15 bc cb 0e 0b 3e
       0.018410007 0.08145414 -0.0091084875 0.13579862
000110 b1 4e b9 bd 90 60 20 bd be ef c4 bd 3c 94 21 3e
       -0.09048212 -0.03915459 -0.0961604 0.15779203
000120 15 0a 6a bd e2 65 83 bd 77 ca b7 3d a1 d2 00 3d
       -0.05713852 -0.06415917 0.08974164 0.03145087
000130 28 8d cb 3d 66 3d d3 bd 6b 64 00 be 88 48 23 be
       0.09939033 -0.10314445 -0.12538306 -0.15945637
000140 ab 55 d5 3d 7f cb ac bd 55 e8 ad 3d 47 1b c0 bd
       0.104167305 -0.08437251 0.084915794 -0.09380203
000150 8f fd 24 3c f3 ad 1d 3c eb 54 03 3c 1d a6 9b 3c
       0.010070219 0.009623992 0.0080158515 0.019000107
000160 e0 f5 f7 bd 0d 97 09 3e 2e 24 5b bd 89 b2 f6 bc
       -0.12107444 0.13436528 -0.0535013 -0.03011443
000170 ba af e4 bd e1 0a ec 3b 51 3a 87 bd 7f e5 0a be
       -0.1116633 0.0072034453 -0.0660292 -0.13564108
000180 25 37 93 bd 5c ad 01 3e e8 56 45 bd a7 d5 6b 3d
       -0.07188252 0.12663788 -0.048178583 0.0575768
000190 b5 59 c5 bd aa fa 5f 3c bd 06 16 be dd fd 8e bd
       -0.09636251 0.013670603 -0.14651008 -0.06982014
0001a0 58 4b 6d 3d c2 03 27 be 4e 1d ea bd 15 9e 62 bd
       0.05793318 -0.16310027 -0.11431371 -0.05532654
0001b0 49 53 28 3d a0 26 0c 3e 95 e3 14 3e 00 b4 e9 3d
       0.041095052 0.1368661 0.1453994 0.114112854
0001c0 1f 4b 0f 3e 64 0b 89 bd 29 63 40 3d aa 23 df bd
       0.139935 -0.06691626 0.046969566 -0.10895474
0001d0 51 4d ef bd 30 4a 4f bd b3 90 97 bd 97 82 08 be
       -0.11684669 -0.05060786 -0.07400646 -0.13331066
0001e0 bc 15 09 bd 77 3f 05 be 30 ef da bd 5b e7 98 bd
       -0.033467993 -0.13012491 -0.10690153 -0.074660026
0001f0 48 c2 ef bc 11 d6 09 3e 1f 16 78 bc 85 be 26 3e
       -0.029267445 0.13460566 -0.015141993 0.16283615
000200 0c 0f 9f 3d f4 52 e7 3d 7d 0e d2 3c 61 bd 76 3d
       0.07766542 0.11295119 0.025641674 0.0602392
000210 3f d5 c1 bb 65 e3 c3 bd cd de 95 bd 6b 2b 54 3d
       -0.0059153135 -0.095648564 -0.073178865 0.05179922
000220 db 0f b1 3c b3 5d 08 be 15 3e d5 3d 33 5f bc 3d
       0.021614006 -0.13316993 0.10412232 0.09197845
000230 ff 77 2e bd d9 99 1a 3d 12 b0 69 3d 2e f1 bd bd
       -0.042594906 0.037744377 0.05705268 -0.09274517
000240 73 27 42 3d ff db de 3c eb 69 65 bd 2e d0 af bb
       0.047400903 0.027204512 -0.056009214 -0.005365393
000250 69 80 ac bd 44 34 83 3c 56 bb d2 bc 14 e7 fc bc
       -0.0842293 0.016016133 -0.025724094 -0.030871905
000260 ef 6f dc bc c2 ec 10 be f3 8d 77 3d a8 e8 21 3e
       -0.026908843 -0.14152816 0.060438108 0.15811408
000270 3a b2 ec bd 04 0a b4 3c 50 81 c0 3d 3d 53 10 3e
       -0.115574315 0.021977432 0.093996644 0.14094253
000280 d1 de 96 bd 00 60 54 3d 9f d4 a4 3d 99 17 0a be
       -0.073667176 0.051849365 0.08048367 -0.13485564
000290 a4 62 14 be 23 d0 fd bd 24 76 41 3e 24 9c 2f be
       -0.14490753 -0.123932146 0.18892723 -0.17149407
0002a0 3c 4d 15 be e2 48 92 bb 2b 98 23 be 38 f0 23 bd
       -0.14580244 -0.0044642547 -0.15976016 -0.040024012
0002b0 08 4e 14 3d 67 03 d4 3d c0 65 d5 bd 03 97 02 be
       0.03620723 0.103522114 -0.10419798 -0.12752919
0002c0 aa 4f 9b 3c 8e 9d ae 3d e5 c7 d6 bd 6d e8 2d be
       0.018958885 0.08526145 -0.104873456 -0.16983195
0002d0 a5 9a c4 3d 75 67 bc bd ce 53 32 be e1 e9 dc 3d
       0.095998086 -0.0919942 -0.17414781 0.10786796
0002e0 26 74 58 3d 59 83 bf 3d 71 6b 0b 3c cb cb 58 3d
       0.052845143 0.093512245 0.008509503 0.052928727
0002f0 c3 0d c8 3c c7 cb 2c bd 22 1f 0d be a1 66 b3 3d
       0.024420625 -0.042186525 -0.13781407 0.08759809
000300 06 41 95 3d 3c 78 ca 3d 55 c2 66 3d 44 44 44 3b
       0.07287793 0.09886214 0.056337673 0.0029947916
000310 a6 3a c3 3d 5f 1e c4 bd a1 78 f5 bd 0b 9c 2d bd
       0.09532671 -0.09576105 -0.11985899 -0.042385142
000320 14 63 e3 bd 70 c4 0a 3e 85 14 1e be e8 88 30 3d
       -0.11102882 0.13551497 -0.15437515 0.043099314
000330 4c bd cb bd 81 04 45 3c e0 e3 0c be 7d 6c 22 be
       -0.09948215 0.012025 -0.13758802 -0.15861697
000340 6c c4 7a bd 37 7c 07 be e4 8c 99 3d 3c 8f 3c 3e
       -0.06122248 -0.13230978 0.07497576 0.18414015
000350 2b 37 d0 bd 87 df a5 bc 50 d4 1f 3e 41 86 10 be
       -0.101667725 -0.020248188 0.15608335 -0.14113714
000360 e6 7e 03 3d 2e fc 94 bd 4a b7 86 3d 32 5c 32 be
       0.03210344 -0.07274662 0.06577928 -0.17417982
000370 2e 19 14 3d 08 7d 98 3d fc ec 6d bd 12 52 2e be
       0.036156826 0.07445723 -0.058087334 -0.17023495
000380 42 70 04 3d 6b 40 05 bc 12 5d d9 3d 46 7d 48 bd
       0.03233362 -0.008133034 0.10613455 -0.048947595
000390 9d a2 01 3d 68 32 f5 3d a1 18 a1 3d f5 46 9b bd
       0.03164922 0.11972505 0.07866026 -0.07581893
0003a0 f4 b7 01 be 8b f0 99 3d 81 85 3e bd 7e df e1 bd
       -0.12667829 0.07516583 -0.046514038 -0.11028956
0003b0 7b ad cb 3d 2c bf 1f 3e f3 61 34 bd 60 91 14 bd
       0.09945198 0.1560027 -0.044038724 -0.036271453
0003c0 1f b7 62 3d 11 bb 56 3d f4 86 c9 3d 90 1a 19 3d
       0.05535042 0.052424494 0.098401934 0.037378848
0003d0 a5 33 0b 3e 08 f1 d0 3d e6 6f 18 bc 1b 1c 2b bd
       0.1359392 0.10202223 -0.009304022 -0.04177485
0003e0 de 54 6c 3a 1e e7 18 be e9 a9 cd bd 94 1c 16 3e
       0.0009015332 -0.14931914 -0.100421734 0.14659339
0003f0 11 9a 7e bd af f9 06 3e 9f ec 96 bd 79 80 c2 3a
       -0.062158648 0.13181184 -0.07369351 0.0014839313

convs.1.lin_l.weight f4 [64, 256]
000000 a0 c9 cc bc e3 f9 1d 3d 54 9f 6e bd 6d 9b 4f 3c
       -0.024998486 0.03856839 -0.058257416 0.012671334
000010 31 ec 07 bd ea 74 32 bc 5f c8 2f bd 2b cd 7b 3b
       -0.033184234 -0.010892132 -0.0429157 0.003842185
000020 8c 87 f2 3c 9b af 5e 3b 82 f8 15 bd 48 31 19 bd
       0.02960565 0.003397918 -0.03661395 -0.037400514
000030 c5 49 ac 3c b5 bf 27 3d 3d a6 00 bd 3a c3 06 bc
       0.02103127 0.04095431 -0.031408537 -0.008225257
000040 9c f5 28 3d 06 85 38 bc f2 51 b6 bc 5a 2b 29 bb
       0.041249856 -0.011262184 -0.022255871 -0.0025813193
000050 88 a7 e8 bc 7a ce ce bc 01 04 07 3d e6 b7 4a bd
       -0.028400198 -0.02524494 0.032962803 -0.049491785
000060 e1 a7 33 bc 1f 07 47 bd 2b 4a d9 3c 63 70 d9 3b
       -0.010965318 -0.048590776 0.026524624 0.006635712
000070 4f 88 04 3c 58 30 46 bd 8a 89 4b bc 09 50 99 3c
       0.008089139 -0.048385948 -0.012422929 0.018714922
000080 e9 9f 8d bc 9b 8d 1f 3d 38 08 e1 bc 9d 89 87 bd
       -0.017288165 0.038953405 -0.02746974 -0.066180445
000090 e0 c1 9d bc 56 52 4b bd 59 44 2d bc b6 ad 9a bd
       -0.019257486 -0.04963907 -0.010575377 -0.07552664
0000a0 d9 71 d8 3c 87 c6 08 bd f3 6f 6e 3d aa 36 a9 bd
       0.026421474 -0.033392455 0.05821223 -0.082623795
0000b0 52 7d 74 bc be 65 17 bd 79 f8 51 bd 45 33 45 3d
       -0.014922457 -0.036962263 -0.051262353 0.048144598
0000c0 c9 03 35 3d da 57 97 bc 7d dc 7c bb f3 ac 08 3d
       0.044193063 -0.018474508 -0.003858357 0.033368062
0000d0 75 da cc 3c 7e 8c 64 3d 6a 64 82 bd 17 ac da bc
       0.025006512 0.055798046 -0.06366809 -0.026693387
0000e0 67 7e 8e bc 50 26 dc 3c 18 d1 95 3c c4 43 76 3c
       -0.017394258 0.026873738 0.01828818 0.015030805
0000f0 25 36 b5 bc 9d db 0b bd 54 78 81 bc 7d e3 ff 3c
       -0.022120545 -0.034144986 -0.015804447 0.031236405
000100 80 f4 69 3d a5 72 20 3d 5b 11 67 3d c8 21 90 bb
       0.05711794 0.039171834 0.056413036 -0.0043985583
000110 23 42 00 bc d1 7d 35 bc 97 63 04 bc 8c c0 82 bc
       -0.007828268 -0.01107736 -0.008080385 -0.015960954
000120 74 7a f7 bc b6 56 70 3c c8 aa 46 bc 73 73 88 3c
       -0.030209757 0.014669111 -0.012125678 0.016656613
000130 8b 8c 11 bd 85 78 06 3d 53 b9 fa 3c e3 66 7a 3c
       -0.035534423 0.03282978 0.030605948 0.015283319
000140 98 b8 b3 bb b8 de 29 3d 6d 4b 39 3d 96 90 ae bc
       -0.005484652 0.041472167 0.045237947 -0.021309178
000150 a9 32 ed 3c 50 50 03 bd 79 8c 21 3b 93 c9 3e 3c
       0.02895482 -0.032059014 0.0024650379 0.011644739
000160 27 b4 24 3d 72 54 61 bc 4e 31 a8 bc 78 64 19 bd
       0.04021087 -0.0137530435 -0.020531323 -0.03744933
000170 0b bb a8 3c 02 a6 56 3d 10 c6 3a bd 6a e0 d1 3b
       0.020597002 0.05240441 -0.045599043 0.006404926
000180 a6 01 29 3b 6d 8c 7a 3d ed c5 5b 3d 28 ee 70 bd
       0.0025788336 0.061169077 0.053655554 -0.058820873
000190 0a f9 45 bd 96 d1 1c bd e2 9c 44 bd 87 be 66 bc
       -0.048333205 -0.038285814 -0.048001178 -0.014083511
0001a0 9c 14 93 bc de 03 4a 3d be fe c1 bc 83 8b fc bb
       -0.017954163 0.049320094 -0.02368104 -0.007707061
0001b0 b6 53 a3 bd 53 54 00 bd 41 95 11 3d 9f 5b 66 bc
       -0.07974951 -0.031330418 0.03554273 -0.01405993
0001c0 ad db 80 3c 2d 77 1e bc a0 92 80 bd b4 41 8c 3b
       0.01572975 -0.009671968 -0.062779665 0.0042802934
0001d0 85 1a 0b 3c fc 73 7f bd 41 32 01 3d 6a 1f 8f bd
       0.0084902095 -0.06236647 0.031542066 -0.06988414
0001e0 74 56 00 3d 66 46 27 bd b6 28 51 bd a1 b8 96 bc
       0.031332448 -0.04083862 -0.051064216 -0.018398585
0001f0 bb c3 47 3c 32 d8 fd bc ae 07 4e bd bb 1c 66 3d
       0.012192662 -0.030986879 -0.050300293 0.056179743
000200 1b fc 31 bc 34 ec a5 3c 51 a4 d5 bc cb 0b 21 3d
       -0.010863329 0.020254232 -0.026079329 0.039317887
000210 d6 56 0f 3d 16 4e 98 bc b2 38 e5 3c 9b bc d1 bc
       0.034994923 -0.018591922 0.027981136 -0.02560263
000220 42 91 30 bd 2e 1c 9e 3c e3 c3 5b 3c b7 f0 5e 3c
       -0.04310728 0.019300546 0.013413402 0.013607196
000230 ba 6b 1b bd 68 ea e6 bc 1b 7f 15 bd 57 e9 a6 3d
       -0.037944533 -0.028187945 -0.03649817 0.08149975
000240 05 95 19 3d a9 11 32 3c 22 e1 28 bd 42 b1 1e bd
       0.03749563 0.010868468 -0.04123033 -0.038743265
000250 29 7e c7 3c 5a 49 45 bd 1e 63 b6 bc 4f 4b a0 bd
       0.02435215 -0.048165657 -0.02226406 -0.07826864
000260 39 fe 6c 3d 94 f6 56 bd 1a 43 af bb 10 b2 18 bd
       0.057859633 -0.05248125 -0.0053485753 -0.03727919
000270 bf 36 90 bd a8 7d 2a 3a cd c1 64 bb c4 95 b3 bc
       -0.07041692 0.00065037096 -0.0034905553 -0.021922
000280 ca b4 97 bc e9 b1 64 bd 6b 2f 7a 3b 6d 14 e3 bb
       -0.018518824 -0.05583373 0.0038175236 -0.006929925
000290 97 26 19 bc a8 23 22 3c 8e ba 08 bd 88 4c 56 bd
       -0.009347579 0.009896196 -0.033381037 -0.05231908
0002a0 40 4f 69 3c 15 79 82 bd b5 a0 14 3d 8c 28 76 bc
       0.014240086 -0.06370751 0.036286075 -0.015024316
0002b0 97 b7 41 bc c9 99 9b 3c da 94 86 3a 2c 2f 5f 3d
       -0.011823556 0.018994229 0.001026775 0.054488346
0002c0 67 61 1d bd 2d 00 83 bd 71 e8 5b bd 09 dd a7 3c
       -0.03842297 -0.06396518 -0.05368847 0.02049114
0002d0 86 3e a0 bc 9c d5 d0 bc 74 71 52 3d 35 2e 36 3d
       -0.019561063 -0.025492482 0.05137773 0.04447766
0002e0 0b 4b 4d bd b1 a1 30 bd e1 6c 23 bc 54 46 8c 3d
       -0.050120395 -0.04312295 -0.009974689 0.068493515
0002f0 3c 91 1d bd f5 a9 f6 3b 4c 54 48 bd 0a bc 73 3b
       -0.038468584 0.0075275847 -0.048908517 0.0037190937
000300 60 df 42 bb a7 09 a4 3a 51 ae 7d 3d 08 2d 73 3d
       -0.0029735193 0.0012515084 0.06193382 0.059369117
000310 94 c6 e6 ba e8 08 6f bd 10 1a 16 bd 13 5f 1d 3c
       -0.0017606788 -0.058358103 -0.03664595 0.009605187
000320 7f dd 27 3d e0 89 71 bd 8b 1c 38 3d 70 7b 7a 3d
       0.04098272 -0.05896938 0.044949096 0.061152875
000330 6f 3b a4 bc ee 03 2a 3d d4 bb 65 bd 80 b7 15 bd
       -0.020047871 0.041507654 -0.05608733 -0.036551952
000340 a6 34 4e bc 7b 8a 68 bd 84 f9 29 bd 13 a3 7b ba
       -0.012585795 -0.05677269 -0.041497722 -0.000959919
000350 e4 06 58 bd 64 7c 40 bc 16 db e3 3b 57 95 26 bd
       -0.052740946 -0.011748407 0.0069536073 -0.040669765
000360 3c 65 c0 3d 5d 8a 64 3d 93 99 c9 3c 34 9f 13 3d
       0.09394309 0.055796016 0.024609363 0.0360405
000370 74 fe 2e bd dd f1 c8 bc a9 14 4a bc f1 90 28 bd
       -0.042723134 -0.024529392 -0.012334027 -0.041153852
000380 a8 da 83 bc 3f 6d 63 3c 3d 4a 7c bc b1 b6 5b 3d
       -0.016095474 0.013881027 -0.015398559 0.053641025
000390 92 e4 ea 3c ec 00 81 bd 1f b1 98 3d 3c 77 6d bd
       0.028673444 -0.06299004 0.07455658 -0.05797504
0003a0 11 93 3b bd a1 3d 23 3d 5e 47 1c bb 3d 5f bf 3c
       -0.04579455 0.039853696 -0.002384625 0.023360843
0003b0 e6 51 83 bd 9c d5 15 bd c8 1c 8b 3c fb 51 7a bd
       -0.06412105 -0.036580667 0.016981497 -0.06111334
0003c0 f6 52 76 bd 93 4f 92 3d 54 d2 e4 3c bf 09 4b 3d
       -0.06013771 0.07144084 0.027932324 0.04956984
0003d0 3b 50 07 bd 0f bf ee 3c 98 e7 46 bd 24 84 71 bd
       -0.033035498 0.029143838 -0.04856071 -0.05896391
0003e0 10 59 cf bc ef d2 2c bb 32 5e 59 bd 4f 8c 40 3d
       -0.025311023 -0.0026370843 -0.053068347 0.04700881
0003f0 c8 c4 13 3d c8 6c d0 3c 79 d8 d4 3c 25 34 80 bd
       0.036076337 0.025442496 0.025982128 -0.06259946

convs.1.lin_l.bias f4 [64]
000000 48 43 63 bd d8 3e eb bd c2 05 15 3d 2a fe 18 bd
       -0.055484086 -0.11486596 0.036382444 -0.037351765
000010 fa ac 81 3d 0b 85 84 3d 06 03 82 bb 4f e6 46 3c
       0.06331821 0.064706884 -0.0039676456 0.012139871
000020 0d b2 da 3c f3 55 21 bd ca 27 f3 3b de 3d c2 bc
       0.02669623 -0.03938861 0.0074205147 -0.023711141
000030 ed f2 a2 bd ba 9f d0 3d 17 84 8b 3d 15 68 ca 3d
       -0.07956491 0.101867154 0.068123035 0.09883133
000040 a8 f9 01 3d 1e 3f 4d bd 3b c9 be 3b 2d 93 97 3d
       0.03173223 -0.05010902 0.0058223284 0.074011184
000050 ea 00 2a bd 60 4b fb bc 0c 6f 23 3c 05 b4 8f bd
       -0.041504778 -0.03067559 0.009975206 -0.07016758
000060 4e 9a a4 3c 59 d4 91 3d f7 29 85 3d b0 b1 94 3c
       0.02009311 0.0712058 0.06502145 0.018151134
000070 54 eb a6 3d 28 be c1 bd 75 33 c9 3c f5 88 44 3d
       0.08150354 -0.094600976 0.02456067 0.047982175
000080 37 ae c2 bc 84 f0 c3 bb 86 2c 84 3d 03 44 45 3c
       -0.023764713 -0.0059795994 0.06453805 0.012040141
000090 46 fc 1a 3d 38 1b 38 bb 89 50 3f bd 41 28 6a bd
       0.037838243 -0.0028092396 -0.046707664 -0.057167295
0000a0 12 4f b4 ba 8f b7 55 3c 28 65 ad bd ae eb 9b 3d
       -0.0013756475 0.013044252 -0.0846656 0.07613312
0000b0 27 03 6a 3d 5e 91 98 bb 77 0a e9 bc 40 e8 f5 3c
       0.057131913 -0.004656001 -0.028447373 0.030017972
0000c0 88 92 1f bd 71 73 12 3d d0 e9 0d 3d 9f 73 93 3c
       -0.038958102 0.035754625 0.03464681 0.017999468
0000d0 e8 5f ed 3c aa 0c ab 3c 8f ec 97 bc ca fa 9f bd
       0.028976396 0.020880062 -0.018545417 -0.07811506
0000e0 fa 35 a9 bd 7d b7 5f 3c 31 31 fe bc 76 b2 54 3d
       -0.08262248 0.013654587 -0.031029316 0.051928006
0000f0 0d 11 f7 bc 15 f1 c4 ba 3a d7 2e bd a9 24 aa bd
       -0.030159498 -0.0015025461 -0.042685725 -0.083077736

convs.1.lin_r.weight f4 [64, 256]
000000 ae 6b d3 3c be 7c 59 3d 3a 21 01 3d fd 3f e4 bc
       0.025808182 0.05309748 0.031525828 -0.027862543
000010 11 53 34 bd 2e 19 ab bd 9e c1 35 bc 08 a1 2d 3d
       -0.04402453 -0.08354412 -0.011093525 0.0423899
000020 b6 dc 45 bd 8b 1f ec 3b 64 89 21 bd 7d 54 9e bd
       -0.04830619 0.0072059087 -0.039437667 -0.077309586
000030 4c 3c 85 3c 31 9f 23 3d 26 6f 5e bd 79 3c 46 bd
       0.016264103 0.03994674 -0.05430522 -0.048397515
000040 d1 49 68 3c 93 fb 87 3c 45 a5 57 3d 4c f6 f1 3b
       0.014177755 0.016599452 0.052647848 0.007384097
000050 c8 31 12 3d df 6a 23 bd c1 a2 a1 3c e8 a5 1b 3c
       0.035692006 -0.039896842 0.019730927 0.009500004
000060 4b 70 82 bd d8 ee 86 bd 36 d1 3d 3d 6c 95 36 3a
       -0.063690744 -0.065885246 0.046342097 0.00069650146
000070 7c 5e 06 3d 8e 4c b6 bd 77 bc c2 bc 8d 45 84 bd
       0.03280495 -0.089013204 -0.023771508 -0.06458578
000080 cf 4b 03 3d 65 24 16 3d fc 78 67 bd bb 1d b7 3c
       0.03205472 0.036655802 -0.056511864 0.022353044
000090 02 88 76 3d 2a ac 20 bc 5d fe 1f bd 17 1a f4 bc
       0.0601883 -0.009806672 -0.03906094 -0.029797597
0000a0 66 96 b9 bb bd 72 f5 bb 3e 7e 47 bc 71 cd 52 3c
       -0.005663681 -0.0074904845 -0.012176095 0.012866364
0000b0 ef 25 ac 3c 61 2f 8d 3c f9 00 cc bc 62 9b d1 3c
       0.021014182 0.017234506 -0.024902808 0.025586788
0000c0 ff 3e 35 3d ed cb 26 bd 1c 61 46 bd d9 f9 48 bd
       0.04424953 -0.040721823 -0.048432454 -0.0490664
0000d0 40 0e 04 bc a8 d7 48 3d a6 5a 49 bd 14 ef 1d 3c
       -0.008060038 0.04903379 -0.049158715 0.00963952
0000e0 26 10 14 bc f9 a2 60 bd 5b ee 43 3d 33 d1 30 3d
       -0.009037053 -0.054842923 0.047834735 0.043168258
0000f0 08 41 b8 bc 72 0e a0 3b e8 c8 81 bc df a5 1d 3d
       -0.022491947 0.0048845345 -0.01584287 0.038488265
000100 33 47 13 3d 5e 58 80 3d 74 06 57 3d 0b 10 a5 bc
       0.035956573 0.06266855 0.05249639 -0.020149251
000110 ed c1 ae bc b4 9d 78 bd 23 6f 10 bd 30 0b 37 bd
       -0.021332705 -0.060697272 -0.03526224 -0.044688404
000120 bd c2 0b bc ea 2f 23 3d 74 f1 9c bc f9 32 59 3c
       -0.008530316 0.039840616 -0.019158103 0.013256782
000130 84 e3 9e bd 46 be 75 3c 50 1e 14 3d 36 f7 28 bd
       -0.07758239 0.014998978 0.03616172 -0.041251384
000140 97 a9 ff 3c 49 c2 0b 3d 6f 4b 7a 3c 76 a7 90 3c
       0.031208796 0.03412083 0.015276774 0.017657977
000150 ad e7 9e bc 49 0c 13 bd 48 f8 08 bd 0a 84 d1 bb
       -0.019397581 -0.035900388 -0.033439904 -0.006393914
000160 f7 e4 c9 bc 95 19 26 bd 9e c4 62 bb 34 23 62 3b
       -0.024645312 -0.04055174 -0.0034602056 0.0034505846
000170 0c c4 3b bd 11 6b 36 3b 63 52 4a 3d 1e ad 0e bd
       -0.04584126 0.0027834813 0.049394976 -0.034833066
000180 fd 48 90 3a ec 7d a3 3c eb e1 ac 3d 58 63 df bb
       0.001100808 0.019957505 0.08441528 -0.0068172626
000190 af 3b 8f 3c 42 5a 01 bd 99 d3 8f bd 19 26 28 b8
       0.017484514 -0.031580217 -0.07022781 -4.0089802e-05
0001a0 79 37 22 bc fc ec 26 bd 3a 95 5d ba 26 42 10 bd
       -0.009900921 -0.04075335 -0.00084527174 -0.035219334
0001b0 e0 b9 22 bd 76 18 10 3d 82 16 d6 3b cb d1 d1 bc
       -0.039728045 0.035179578 0.006533445 -0.025612732
0001c0 10 54 fb 38 ad 44 2d 3d 80 47 75 bd af ec 02 bd
       0.000119842705 0.042301822 -0.05988264 -0.031964
0001d0 8c 34 05 3b 30 25 ea 3c 5f 7d 13 3d 59 9d 6d 3d
       0.002032551 0.028582186 0.036008235 0.058011387
0001e0 39 58 0f 3d 7c ed cb 3c f6 cc 9d bd 42 b9 82 3d
       0.034996245 0.024893515 -0.07705109 0.063829914
0001f0 ae 37 a9 ba 9f 19 4b bd b4 4f 09 bd a9 c4 03 bc
       -0.0012910271 -0.04958498 -0.033523276 -0.008042493
000200 3e 5f 5a 3d 48 bd 8a 3c 6b 1a aa bd 1f c7 45 bd
       0.053313486 0.01693596 -0.0830582 -0.0482856
000210 c8 24 01 bd 01 7b 90 3d 1c c6 76 3d 36 94 15 3d
       -0.031529218 0.07054711 0.060247526 0.036518298
000220 d0 e3 dd bc 3f 53 5f bc 4c 00 18 bd b5 68 1f bd
       -0.027086169 -0.013630687 -0.037109658 -0.038918216
000230 51 60 7d 3b 77 d8 2e 3c 6e 8d 10 bd 16 a7 2e 3d
       0.0038662145 0.010671726 -0.035291128 0.042639814
000240 ea 7f 37 3d a2 dc 9f 3b cf 80 b4 3c dc a5 78 3d
       0.044799723 0.0048785964 0.022034077 0.06070505
000250 d0 46 28 bd e0 27 31 3d 1c 40 50 3b 4e 61 fe bc
       -0.041083157 0.04325092 0.0031776493 -0.031052258
000260 3c 3f d2 3c 54 42 20 bd 70 09 ee bb b4 dd 8a bd
       0.025664918 -0.039125755 -0.0072643086 -0.06780568
000270 02 ff 6f bd 0b d5 4c bb e3 bc 51 bc 4c 62 b7 bd
       -0.058592804 -0.0031254913 -0.012801382 -0.089542955
000280 f2 5d 3b b9 18 f3 74 bc 5e 7d 5b 3c 39 28 6d bd
       -0.00017868707 -0.014950536 0.013396589 -0.057899687
000290 24 eb 52 bc 88 35 86 bc e2 fe 03 3d a2 08 b5 bc
       -0.012873445 -0.016382948 0.032225497 -0.022098843
0002a0 09 61 96 bc dc d9 1b bd 94 c2 f5 bc c0 6b 44 3a
       -0.018356817 -0.038049564 -0.030000009 0.00074928626
0002b0 41 3c 62 bc 61 c6 1d bd 41 f1 9b 3c a7 cb 27 bb
       -0.013808311 -0.038519267 0.019035937 -0.0025603564
0002c0 cb a2 81 bd 27 23 20 bc ad 93 29 3c cb 22 fe bc
       -0.063298784 -0.009774006 0.01035015 -0.03102245
0002d0 f2 46 80 bd bf 6d f7 bc db f7 ea bc 25 35 d9 3c
       -0.06263532 -0.030203698 -0.02868264 0.0265146
0002e0 a7 71 d3 3c 37 6d 20 bd f4 64 7a bc 31 dd df bb
       0.02581103 -0.039166655 -0.015282858 -0.006831788
0002f0 5d a6 b5 3c d8 24 c8 3c eb 12 ea 3c d8 a8 1d bc
       0.022174055 0.024431631 0.028573474 -0.009622775
000300 d1 92 29 bd e0 ab 69 3d 11 ba 8a 3c 2b d3 ad 3c
       -0.04139978 0.05704868 0.016934427 0.021218857
000310 9c 76 98 bd 42 69 b2 3c 8c 62 94 3b 33 bd 10 bd
       -0.07444498 0.021778706 0.0045283493 -0.035336684
000320 6d 13 fc 3c f3 11 09 bd 22 d0 59 bc 47 32 22 bd
       0.030770982 -0.033464383 -0.013294252 -0.03959873
000330 06 fc dd 3c e4 d3 e2 bb 14 d9 b1 bb 90 9c 8d bd
       0.027097713 -0.006922232 -0.005427489 -0.069146276
000340 ee 2a a3 bc 03 ab 07 3c 44 8a 4e bb 86 34 ef 3c
       -0.019917931 0.008280518 -0.0031515518 0.02919985
000350 50 3c cd bc 8e 06 89 bd a2 d7 a7 bc 0f 41 02 3c
       -0.025053173 -0.06690703 -0.020488564 0.0079500815
000360 81 16 2d bd 87 93 fb 3c 6e 52 88 3b 64 89 0a bd
       -0.04225779 0.030709995 0.004160217 -0.033822432
000370 35 19 25 bd 66 53 2d bc cc 3d 0b 3d 62 58 f9 3b
       -0.040307242 -0.010578966 0.03399448 0.007609413
000380 3b 03 8c 3c d7 72 92 3c 99 1d 8a bd 21 6d 6e bd
       0.017091384 0.017877026 -0.067439266 -0.058209542
000390 7f 31 36 bd 8d e5 48 bd 4b 99 93 3d 81 6c fa 3c
       -0.044480797 -0.04904704 0.07206973 0.030569317
0003a0 f7 c8 8b 3c e2 00 d0 bc d9 9f cc bc d8 56 5e bd
       0.017063601 -0.025391046 -0.024978565 -0.05428204
0003b0 92 a8 93 bc 85 a2 60 3d ba 20 54 bd 0c 3b 5d bd
       -0.018024717 0.05484249 -0.051789023 -0.05401139
0003c0 09 fb 3f bc a8 dd 1f 3d 8f b5 90 bb f6 15 e2 bc
       -0.011717566 0.039029747 -0.0044161747 -0.027598362
0003d0 fd b0 55 bc 5c 66 fa bc 81 18 ea 3c 5d 2b aa 3c
       -0.013042686 -0.030566387 0.028576137 0.02077263
0003e0 27 0e 37 bd 9b 82 19 bd 83 9a b0 bc eb 94 3b 3d
       -0.04469123 -0.03747807 -0.021558052 0.045796316
0003f0 0a c8 58 3d d7 80 c3 3c 60 46 91 bd dd ea cc bc
       0.052925147 0.023865147 -0.07093501 -0.025014335

bns.0.weight f4 [256]
000000 1d d5 73 3f fb 3d 73 3f 50 02 75 3f c6 c4 75 3f
       0.9524706 0.9501645 0.95706654 0.9600338
000010 ba 17 75 3f be 39 75 3f 3f fe 75 3f 08 36 75 3f
       0.9573933 0.9579123 0.96091074 0.9578557
000020 f7 e1 6f 3f f3 77 74 3f 08 81 75 3f c7 be 73 3f
       0.9370417 0.9549553 0.9590001 0.9521298
000030 fe ed 71 3f ea 0e 74 3f d7 86 73 3f 73 5d 75 3f
       0.9450377 0.9533526 0.95127624 0.9584572
000040 3a ca 73 3f 6e cb 72 3f 49 4d 74 3f 65 a2 75 3f
       0.9523045 0.9484166 0.9543043 0.9595092
000050 c9 b5 71 3f 74 b0 73 3f 18 94 74 3f 41 4f 6f 3f
       0.9441801 0.9519112 0.95538473 0.93480307
000060 cf 80 74 3f 87 5d 75 3f f6 f6 6d 3f 8a 20 74 3f
       0.95509046 0.95845836 0.9295496 0.9536215
000070 c0 57 75 3f 7f ba 77 3f 70 c3 73 3f 8f 25 70 3f
       0.9583702 0.96768945 0.9522009 0.9380731
000080 db dd 74 3f c1 9c 73 3f dd 58 72 3f 1f 05 73 3f
       0.95651025 0.9516106 0.94666845 0.9492969
000090 aa f2 70 3f 58 a2 76 3f 6d 42 76 3f c9 a8 74 3f
       0.94120276 0.96341467 0.9619511 0.95570046
0000a0 7f 6e 73 3f 8d 0f 75 3f f5 13 74 3f a2 13 73 3f
       0.9509048 0.95726854 0.9534295 0.9495183
0000b0 d3 c2 72 3f df af 70 3f cd 86 73 3f e0 85 74 3f
       0.9482853 0.9401836 0.95127565 0.9551678
0000c0 90 ee 72 3f 2b 08 77 3f a4 c6 75 3f 18 93 73 3f
       0.9489527 0.9649684 0.96006227 0.9514632
0000d0 45 90 71 3f 22 d2 73 3f 87 35 74 3f b6 3f 70 3f
       0.9436076 0.9524251 0.95394176 0.93847215
0000e0 5e 1a 74 3f 7c a0 72 3f 4c c9 75 3f 4f f0 74 3f
       0.95352733 0.9477613 0.9601028 0.9567918
0000f0 27 e0 72 3f e8 40 76 3f b0 7a 73 3f 71 a9 74 3f
       0.9487328 0.9619279 0.9510908 0.9557105
000100 65 12 73 3f 9a 02 71 3f ad ce 72 3f 65 78 71 3f
       0.9494994 0.94144595 0.9484661 0.9432433
000110 ef 4c 74 3f c3 63 72 3f f1 56 73 3f 63 1b 75 3f
       0.9542989 0.94683474 0.9505454 0.95744914
000120 b0 c1 71 3f 38 5d 74 3f d9 42 73 3f ac da 75 3f
       0.9443617 0.9545474 0.95023876 0.9603679
000130 40 ae 73 3f 9a fe 75 3f 43 94 71 3f 53 9f 71 3f
       0.9518776 0.96091616 0.94366854 0.94383734
000140 9e 9e 6f 3f ba ae 6e 3f 4d 5a 6f 3f 4b 81 77 3f
       0.93601406 0.9323536 0.93497163 0.9668166
000150 c7 02 76 3f 5c c4 73 3f e7 49 75 3f e7 55 73 3f
       0.9609799 0.95221496 0.9581589 0.9505295
000160 86 da 78 3f 06 af 73 3f 0a 9a 72 3f 76 7a 76 3f
       0.9720844 0.9518894 0.94766295 0.9628061
000170 76 92 71 3f de 8c 72 3f 16 66 73 3f 72 67 74 3f
       0.94364107 0.94746196 0.95077646 0.95470345
000180 57 f9 72 3f 17 5c 71 3f d7 a2 73 3f b7 2c 6f 3f
       0.9491171 0.9428114 0.9517035 0.93427604
000190 aa 89 75 3f 14 d1 71 3f 97 8f 71 3f e9 94 70 3f
       0.95913184 0.9445965 0.94359726 0.9397722
0001a0 10 e8 75 3f 14 c2 72 3f 98 5b 70 3f c2 e2 6f 3f
       0.96057224 0.9482739 0.9388976 0.9370538
0001b0 d9 df 72 3f c0 ae 70 3f 60 0e 75 3f 27 7a 73 3f
       0.94872814 0.9401665 0.9572506 0.95108265
0001c0 fd dd 73 3f 54 9e 77 3f 11 b4 74 3f 4d 27 73 3f
       0.952606 0.96725965 0.9558726 0.94981843
0001d0 9b 00 71 3f c3 fa 74 3f 2d b3 75 3f fa 32 74 3f
       0.9414155 0.9569513 0.95976526 0.95390284
0001e0 3f 50 74 3f 21 62 75 3f 66 d9 73 3f 31 24 71 3f
       0.95434946 0.9585286 0.952536 0.9419585
0001f0 b5 36 73 3f 99 14 72 3f 08 83 73 3f 6c 9d 76 3f
       0.9500535 0.9456268 0.9512181 0.96333957
000200 a5 97 71 3f 88 08 73 3f 43 a5 77 3f 14 d6 76 3f
       0.94372016 0.9493489 0.96736544 0.9642041
000210 b8 82 74 3f 72 30 74 3f 31 cc 73 3f a5 3d 70 3f
       0.9551196 0.9538642 0.95233446 0.9384406
000220 76 00 71 3f 4b 38 6f 3f 9b 0d 73 3f f3 27 72 3f
       0.9414133 0.9344527 0.94942635 0.9459221
000230 03 52 71 3f 9e ad 74 3f 5b 61 77 3f 1d e8 77 3f
       0.94265765 0.9557742 0.9663293 0.9683855
000240 bb 4e 75 3f ee e2 6e 3f cb 5a 6f 3f 57 5c 6e 3f
       0.9582326 0.9331502 0.93497914 0.9310965
000250 92 0a 7b 3f 71 c6 72 3f 1e e8 76 3f 91 18 77 3f
       0.98063004 0.9483405 0.9644793 0.9652186
000260 2a b9 71 3f 64 b0 72 3f e4 09 75 3f 85 4e 72 3f
       0.9442316 0.948004 0.95718217 0.9465106
000270 ea 4b 74 3f bc 91 78 3f 4f 10 74 3f 01 ac 71 3f
       0.95428336 0.97097373 0.95337385 0.9440308
000280 5f 1e 73 3f 3d 04 73 3f 98 45 74 3f 57 22 73 3f
       0.9496822 0.9492834 0.9541869 0.94974273
000290 0a 3a 73 3f 85 50 72 3f 73 58 73 3f b7 fc 6e 3f
       0.95010436 0.94654113 0.9505684 0.9335436
0002a0 d4 c9 75 3f be 1b 72 3f 35 fb 73 3f 03 d7 72 3f
       0.9601109 0.9457358 0.95305187 0.9485933
0002b0 dd c3 70 3f e8 31 71 3f f9 e4 76 3f 82 e1 77 3f
       0.94048864 0.94216776 0.96443135 0.9682847
0002c0 c7 ec 75 3f d4 31 71 3f bc b2 73 3f f2 7d 78 3f
       0.9606442 0.94216657 0.951946 0.9706718
0002d0 75 01 78 3f df dc 71 3f 33 23 76 3f 2d ce 70 3f
       0.96877223 0.9447765 0.9614746 0.940646
0002e0 5d 24 72 3f c3 19 75 3f fe 91 72 3f 57 bf 72 3f
       0.94586736 0.95742434 0.94754016 0.9482321
0002f0 40 32 74 3f f8 04 6f 3f 34 bc 76 3f 9d 90 71 3f
       0.95389175 0.93366957 0.96380925 0.9436129
000300 8f b3 73 3f b9 6e 76 3f a9 21 70 3f 40 a3 70 3f
       0.9519586 0.962627 0.9380136 0.939991
000310 31 61 71 3f 60 00 71 3f 12 63 74 3f 0d fa 73 3f
       0.9428893 0.941412 0.9546367 0.9530342
000320 27 5f 76 3f f0 e4 76 3f 01 af 72 3f 8f f5 75 3f
       0.9623894 0.9644308 0.94798285 0.9607782
000330 a9 bd 73 3f 89 66 72 3f b5 44 73 3f a7 e8 6f 3f
       0.95211273 0.94687706 0.95026714 0.93714374
000340 b5 58 75 3f 0a 29 75 3f ff 9f 73 3f f3 f3 74 3f
       0.9583848 0.95765746 0.9516601 0.95684737
000350 ce 93 73 3f 5d 6c 76 3f 1a 18 73 3f a8 9a 71 3f
       0.9514741 0.962591 0.9495865 0.9437661
000360 98 94 74 3f 8d 49 75 3f ad ce 76 3f bf 2b 76 3f
       0.95539236 0.95815355 0.9640911 0.961605
000370 00 1d 76 3f 21 f0 6e 3f 1d c6 70 3f 8c 89 76 3f
       0.96138 0.9333516 0.94052297 0.9630363
000380 80 92 76 3f d4 11 72 3f 0b 2c 76 3f 28 00 74 3f
       0.9631729 0.94558454 0.96160954 0.9531274
000390 c2 c2 75 3f 6c 7d 73 3f 6f fe 76 3f 59 9b 75 3f
       0.960003 0.95113254 0.96481985 0.95940167
0003a0 09 e4 75 3f a7 63 73 3f 94 54 75 3f 95 f7 73 3f
       0.9605108 0.9507393 0.9583218 0.95299655
0003b0 0f 56 76 3f 74 72 74 3f f4 94 72 3f d3 bd 77 3f
       0.96225065 0.9548714 0.94758534 0.96774024
0003c0 7a bf 76 3f 7b 98 6f 3f 46 c6 72 3f ce 80 78 3f
       0.9638592 0.9359204 0.9483379 0.9707154
0003d0 b8 3f 6e 3f 17 e8 73 3f 7e 25 76 3f 5e 57 71 3f
       0.9306598 0.95276016 0.9615096 0.94273937
0003e0 3c 8d 74 3f f4 13 72 3f 10 56 76 3f d9 93 75 3f
       0.95528007 0.94561696 0.9622507 0.9592872
0003f0 22 1c 75 3f a9 ee 71 3f 15 4f 73 3f 0f 73 70 3f
       0.9574605 0.9450479 0.95042545 0.93925565
