output/dmd/restr_e2v/run_001/restr_dmd_best_model_e2v.pth (torch, 273077 bytes, 14 tensors)

convs.0.lin_l.weight f4 [256, 64]
00000000: f747 5bbd 383f 4bbd dc23 9e3d eade d43d
00000010: 1a81 e6bd 0512 bf3c f9f3 5d3d 5e5f 8b3d
00000020: b365 bb3d 1815 8fbd a29d d7bc 25ce 6b3d
00000030: 53c3 0d39 edcd 8d3d d01b c53d 0c15 d73d
00000040: 12c7 a63c 2e47 ffbd 3d0e 93bd 8d67 bc3d
00000050: 1405 953d fa6f e2bd 45eb cf3d 15b8 f5bc
00000060: 5463 9fbd 66fc 45bd 1698 3cbd ec39 ba3d
00000070: f2f8 d4bd 29a0 67bd 391c bbbd db5d eebc
00000080: 8a4c 683d 9de0 dcbd c752 c7bd 009a babd
00000090: 02d9 cabd 9ebe 813c 6238 c6bd 2b46 d53c
000000a0: efaf ac3d 72f4 d9bd b88e e83d 02ce 5cbd
000000b0: 54ce a23d 8bc1 c83d 73db 9d3d f455 1bbd
000000c0: d688 50bd 6f38 063c d0b2 323d e396 bbbd
000000d0: b736 e63b b073 43bd 6071 c1bb 5060 21bd
000000e0: a114 813d 8102 4abd 1f5b be3d 25e0 8a3c
000000f0: 1a65 67bd 3a42 c9bd 04ab f93b aeb5 e2bc
00000100: 491d e13d 5bbb 593c 9121 c23d dd5e ae39
00000110: 1fbc 83bd 9bac c23d a522 853d 6e93 d6bc
00000120: dcaf 9a3d b777 783d 8d7a a63d 4c61 a4bd
00000130: ee6e 2e3d c17b 32bd 0e65 f03d 9946 b0bc
00000140: 5d10 bfbd 08d7 b2bd 489c e5bc d5df 86bd
00000150: bcfd 573d 62b7 a83b 652b e53c 39cb cebc
00000160: 2a83 5dbc 678f 893c 7e8f bcbc c23c c3bc
00000170: a854 4dbd 12ce 9c3c 5ccd ecbc 0abd 50bd
00000180: e0f2 8fbd 765b dc3c 7a15 9e3d f258 39bd
00000190: 30c4 b3bd 1c90 d13d 0e13 bf3c df70 5bbd
000001a0: 11b8 d1bd 1277 bb3d d9ea f03c f516 06bd
000001b0: cc4a d0bb 515e 173d 6e02 0abd ce4c b3bd
000001c0: 0996 bd3d 8244 e83d c71f a63d 8575 d63d
000001d0: 7499 a43b 4914 a43d e336 6c3c 37dc 4d3b
000001e0: 6354 ba3c 3a25 1a3d b489 a3bd d170 3e3d
000001f0: e194 dbbd 207b d2bb e262 f7bd b71d 37ba
00000200: 5592 d7bd abe2 c63d 9658 5bbc 3ac8 3e3d
00000210: aaf5 5bba f8e2 e6bd c02d c3bc c0ed 743c
00000220: 11fe 7b3a 4aad 45bd e220 f9bc 4764 b83d
00000230: c0d3 523d 288b 953d 181c a9bd d8aa 5abd
00000240: 59eb f5bc 4ac7 8bbd 9db0 eb3d d4bc c5bd
00000250: 9299 913c d82b edbd f1bc 8b3d 0755 c7bd
00000260: a193 a23d 7408 883d f2da a43d 69bb 9ebd
00000270: d5e9 29bb 4ad0 a93d 5499 d23d b426 cdbd
00000280: 7e10 1c3d 599f dd3d d1f9 fb3d 336a 88bd
00000290: ae08 41bd 4a2d 2c3d 5c52 473d 7a45 a7bd
000002a0: 7617 403d 721d 943d bf0e d6bd 05f9 e7bd
000002b0: 6523 233d c520 4cbd 93e0 ebbc 7903 a0bd
000002c0: 038e eb3d 9679 cabd 9a79 e7bd 7b48 18bd
000002d0: 6b7b d83c 9acd e83d 2775 ebbd 7bd5 043d
000002e0: 511a 643d c4c9 8cbc d74e 743d cc1d a73c
000002f0: 7fd3 f13c a072 ab3c 963c 13bc 3fef 65bd
00000300: 1679 afbd 9924 e23d 5b55 22bd 9257 45bd
00000310: e33e a0bd b468 503c 5b36 f83d 2faf 973d
00000320: 2193 d8bd 5a94 fa3b 6644 42bd 6f67 4cbb
00000330: 2cbd 7d3c 4630 603d ff4a bbbd a33d efbd
00000340: 0cbf 00be 40ac 0e3c a556 583d d60e e7bd
00000350: ba83 29bd a6cf c23d 7226 e13d 0144 6b3d
00000360: b8c7 c7bd 6233 7f3d 2299 153d 43e5 5d3c
00000370: 52c3 023e 0deb e6bd b8f4 f23c 4d67 f83d
00000380: c20d c83b fce3 a9bd 1f1b 87bd 2f12 8ebd
00000390: 91d1 6ebb 06ff 783d bb65 ddbc 8bcc 813c
000003a0: bcac b8bd d99d c7bc 1f7d ebbd e8bc c5bd
000003b0: 5386 b23c d5c0 013c b53a 85bd 88c0 163d
000003c0: 3e93 0fbc 3489 533d 66c9 47bd b790 c3bd
000003d0: 5eea 143d af78 aa3d 3e20 22bc 3ebb ef3c
000003e0: 9c7e a73d d2fb 723d 5156 1f3d ecfe 63bc
000003f0: 43a1 2d3d 533e 163d 39ac 10bd 9748 9bbb
-0.053535428 -0.049620837 0.077216834 0.1039408 -0.11255093 0.023324022 0.05418775 0.06805299
0.09150257 -0.06986445 -0.026320282 0.05756964 0.00013519572 0.06924043 0.096244454 0.10502061
0.020358596 -0.12464748 -0.0718045 0.09199438 0.07276359 -0.11056514 0.10152296 -0.029995004
-0.07782617 -0.04833641 -0.046043478 0.09093079 -0.10399045 -0.056549225 -0.091362424 -0.029097488
0.05671362 -0.10785029 -0.097325854 -0.091114044 -0.09904672 0.015837964 -0.09678723 0.026034435
0.08431994 -0.10642327 0.113553464 -0.0539074 0.0794951 0.098025404 0.07707872 -0.03792377
-0.050911747 0.008192166 0.04362756 -0.09159639 0.0070255655 -0.04771775 -0.005903408 -0.03939849
0.06302763 -0.049318794 0.09294724 0.016952584 -0.056492902 -0.09827085 0.0076192636 -0.027674522
0.10991914 0.013289298 0.094790585 0.00033258545 -0.064323656 0.09505578 0.065007485 -0.026193347
0.07553074 0.060661044 0.081288435 -0.080263704 0.04258626 -0.043575052 0.11738025 -0.021518039
-0.09329293 -0.0873242 -0.028028622 -0.06585661 0.052732214 0.005148814 0.027974794 -0.025243388
-0.0135200415 0.016792012 -0.023017641 -0.023832683 -0.050129563 0.01914123 -0.028906517 -0.05096153
-0.070287466 0.02689908 0.0771894 -0.04525084 -0.08777654 0.10232565 0.023324516 -0.05357444
-0.10240186 0.0915357 0.02940886 -0.032736737 -0.0063565727 0.03695518 -0.033693723 -0.08754884
0.092571326 0.11341192 0.0811153 0.10471634 0.005023176 0.080116816 0.014417383 0.0031411776
0.022745317 0.03763316 -0.07985249 0.04649431 -0.10721756 -0.006423369 -0.12079407 -0.0006985324
-0.105259575 0.09711202 -0.01338782 0.04657767 -0.0008390794 -0.112737596 -0.023825526 0.014949262
0.0009612749 -0.048260964 -0.030411188 0.090035014 0.05147147 0.073019326 -0.082573116 -0.053385586
-0.03001945 -0.06825121 0.11508296 -0.09655157 0.017773423 -0.11580628 0.06823147 -0.097330146
0.07938314 0.06642237 0.08049573 -0.077505894 -0.0025926728 0.08291681 0.10283151 -0.10017148
0.038101666 0.10821409 0.12303508 -0.06660881 -0.04712742 0.04203538 0.04866253 -0.081675485
0.046897374 0.07232179 -0.10452031 -0.113267936 0.039828677 -0.04983594 -0.028793609 -0.07813162
0.11501696 -0.09886472 -0.113024905 -0.037178498 0.026426038 0.113673404 -0.114969544 0.032430153
0.05568916 -0.017186053 0.0596455 0.02039995 0.029519795 0.02092868 -0.008986613 -0.056136366
-0.08568017 0.11042137 -0.039632183 -0.048179217 -0.07824495 0.012720276 0.121197425 0.074064605
-0.105749376 0.0076470794 -0.04742851 -0.003118958 0.015486997 0.054733537 -0.09145164 -0.11681678
-0.12572879 0.00870806 0.052817006 -0.112821266 -0.04138539 0.09512262 0.10993661 0.0574379
-0.0975489 0.06230486 0.036522992 0.01354343 0.12769821 -0.11275301 0.029657707 0.12129078
0.0061051557 -0.08295438 -0.0659697 -0.06937062 -0.003644083 0.060790084 -0.027026048 0.015844604
-0.090173215 -0.02436726 -0.11498474 -0.09655172 0.021792566 0.00791951 -0.06505338 0.036804706
-0.008763133 0.05164452 -0.048776053 -0.095490865 0.036356322 0.083238 -0.009895382 0.029264089
0.08178446 0.059322186 0.038900677 -0.013915759 0.04239012 0.03668053 -0.035320494 -0.004738878

convs.0.lin_l.bias f4 [256]
00000000: 48a9 3abd d716 cabd 4237 bb3d 7ab0 96bb
00000010: bea7 2d3c 4e3a 213c fe0a 3abc ed9c 8e3d
00000020: 06f9 133d 5f9a 9f3d 1d88 65bd 000f 83bd
00000030: 0296 0d3c 3bb6 9ebd fcf9 9a3b fe9c be3c
00000040: f1ef 5bbd 033d 693d 5a6f 233d 746b cebd
00000050: 7032 09bc c3e8 b53c 1c9d 693d 01fb bebd
00000060: 9f83 80bd 365a 1ebd 2ef9 33bd da0a 393d
00000070: c07d 90bc 685c fdbd 7b11 203d 7d4a 4e3d
00000080: 12f9 08bd 2637 b5bd 0492 353d a393 c6bd
00000090: 9857 8cbd e566 213c 7576 f93b fed1 8f3d
000000a0: a2df cb3d b328 acbd 2fe9 3bbd 4b44 8cbc
000000b0: b541 34bd b57c 8ebc 8b74 953d 4d17 eebd
000000c0: 1c06 88bd 19f6 11bd 7fb8 8fbd 9d48 8d3c
000000d0: 4038 dcbd 4e02 a73d 7b5b c43d 074c be3d
000000e0: 92cc 753b 7d7c 6c3d 6313 dfbc 6d49 f7bd
000000f0: c0e5 9ebd 8b07 6e3c 9c02 9c3d 6603 db3d
00000100: 5821 5fbd d89d b2bd ecf0 55bd 14cc d6bd
00000110: 598f f93d 0ff3 5bbd fc4e 203d dc00 753c
00000120: 7e48 09bc 8996 d43d 0657 81bd 4e50 b3bd
00000130: b0fc 7c3b dc05 6f3d 7f9d 87bc cb0a a2bd
00000140: 1cbd 90bd 16f7 e13d 5cfc 55bd 44bc bc3d
00000150: 67dc d53d 3735 a3bd 4249 4cbc 1fda 30bc
00000160: fe1d eabd f2ae a5bd bb35 ac3d b273 b4bd
00000170: e6dd a63d 7d15 9d3d 3197 9dbc 675c 4dbd
00000180: 584d 1b3d 2f29 ec3c a865 91bd aed0 50bd
00000190: cd46 fc3c 90d7 cabc ee16 253d 3539 36bd
000001a0: 0f24 64bd 9584 87bc 4c55 2c3d 5cb1 203d
000001b0: 6567 2d3d e6c8 373d 8624 4d3c cdea a03b
000001c0: 959e 9c3b b052 483c 8096 b03d 0065 dabd
000001d0: 0c15 39bc 482b a8bd ec8a 17bd 7885 e93b
000001e0: 41e0 74bd 9553 f4bd 9484 ddbd b41c 893d
000001f0: 4220 263c 3b62 183d d328 b03d ff58 343c
00000200: 7a7f 303d 12d2 8d3d bdca b1bd 3ba2 9d3d
00000210: 082b 8cbd a5fe 90bd 8ee7 813d ce5c 163c
00000220: 535a 5bbd 408a 913d 1b77 e63d 4d12 99bd
00000230: af46 d1bd 842d 863c 2091 dcbd d4b4 8e3d
00000240: 4b4b 33bd dcd3 c5bd 702e e6bd bf36 d13d
00000250: ed2a 64bd 5b06 f73d ef93 ab3d 8437 2a3d
00000260: 8093 d8bd e128 ba3d 4763 e83d d34e f3bd
00000270: c7ce 3f3d 5db3 f3bd 3736 ae3c 69d7 ebbd
00000280: f630 01be 7796 a33d 2d05 103d 840d 9ebd
00000290: 8799 183c c8fa 713d 902e eebd 5b18 013c
000002a0: 989c 0e3d 7969 b13d 7578 93bc cc09 70bd
000002b0: 1a5e 683d b6f7 1cbd 42d7 83bd 1d62 9abd
000002c0: 2d6b f93c 73ba 14bd ff5e 8dbc 469d f6bd
000002d0: bd64 623d 5c98 1abd 53e5 d0bd d0e5 89bd
000002e0: 7657 dabd e401 a3bd 09ff cf3d dead fabd
000002f0: 9dca 18bc 69f7 a1bd 79a5 9d3d a88f e8bd
00000300: 9ed3 b13d 3ee6 fcbd e0c7 82bd fc11 adbd
00000310: 635d d43d 476c cfbd 385d 593d b088 aa3d
00000320: dac0 c1bd 8241 1fbd fd99 e43b 64cd 773d
00000330: 4185 81bd 12b0 ae3d 7532 94bc dc66 b03d
00000340: 7f5e 043d c3dd f4bd 3829 723d a0cb 483d
00000350: 16ce f3bd 54db dcbd 65ab bfbd 52de 89bd
00000360: ed9b 8fbd 8ee2 f9bc 89af e53b dd40 783d
00000370: 4a11 1fb9 186b 4f3d 76b0 9dbd 09af c03b
00000380: f777 22bd 2b98 5d3d d6b9 f1bd 4907 00bd
00000390: 1555 843d b9df d5bd aaf3 983d 91e5 debc
000003a0: a6d6 0b3d fa59 9a3b 0e8b c73d 3a27 96bd
000003b0: 855a d0bc 338d 4e3d b0a7 27bd d8d1 c1bc
000003c0: c0e1 89bc b3cb d7bc d993 d7bd 3a56 a1bd
000003d0: 897c acbd 3517 143a 0873 2f3d 29f8 5a3d
000003e0: 5677 1f3c 43b4 04be 9e91 44bc f128 d1bd
000003f0: fd79 9e3d cd95 b33d eee3 c53d 93fd 863d
-0.045571595 -0.098676376 0.09141399 -0.0045986744 0.010599075 0.009840561 -0.01135516 0.06963525
0.03612616 0.07793116 -0.05603801 -0.063993454 0.008641722 -0.077496015 0.0047295075 0.02326822
-0.053695623 0.05694295 0.039901115 -0.10079089 -0.008373842 0.022205716 0.057034597 -0.09325219
-0.06275105 -0.03866025 -0.04393881 0.045176364 -0.017638087 -0.12371141 0.03907917 0.050364006
-0.033440657 -0.08848409 0.044328704 -0.09696128 -0.06852645 0.009851192 0.007612998 0.07022475
0.09954764 -0.084062 -0.045876678 -0.017122408 -0.044007976 -0.01739345 0.072976194 -0.11625538
-0.0664179 -0.035635088 -0.07017612 0.017246539 -0.10752916 0.081547365 0.09587761 0.09291845
0.0037505967 0.05773591 -0.027230924 -0.12074552 -0.07758665 0.014528166 0.07617685 0.106940076
-0.05447516 -0.087215126 -0.052231714 -0.104881436 0.121855445 -0.053698596 0.039137825 0.014953818
-0.0083791 0.10380275 -0.063154265 -0.08755551 0.0038602762 0.058355197 -0.016554592 -0.07912215
-0.0706732 0.11033456 -0.05224262 0.09215596 0.10442429 -0.07969134 -0.012468638 -0.010794192
-0.11431502 -0.08090009 0.08408686 -0.0881113 0.081477925 0.07670114 -0.019237133 -0.05013695
0.037915558 0.028828232 -0.070994675 -0.050980262 0.03079548 -0.024760991 0.04030507 -0.04448815
-0.05569845 -0.016542712 0.042073533 0.039231643 0.042334933 0.044869326 0.012520915 0.004910803
0.0047796466 0.0122267455 0.086224556 -0.106637955 -0.011296522 -0.0821138 -0.03699772 0.0071265064
-0.059784178 -0.119300045 -0.10816303 0.06694928 0.010139527 0.037203055 0.086015366 0.011007546
0.04309032 0.06924833 -0.086812474 0.07696959 -0.06844145 -0.070798196 0.06342994 0.0091774
-0.053552937 0.07106447 0.11253186 -0.07474194 -0.1021856 0.016379125 -0.10769868 0.06968084
-0.043772977 -0.096595496 -0.11239326 0.1021552 -0.055705 0.12061759 0.083778255 0.04155685
-0.105750084 0.09089828 0.11347061 -0.11880269 0.046828058 -0.11899445 0.021266086 -0.115156956
-0.12616333 0.07987683 0.035161186 -0.07717422 0.0093139475 0.059077054 -0.11629975 0.007879342
0.03481731 0.086626954 -0.018001774 -0.058603093 0.056730367 -0.038322173 -0.064375415 -0.07538245
0.030446613 -0.036310624 -0.017257212 -0.12041716 0.055271853 -0.037742957 -0.1019999 -0.067332864
-0.10661213 -0.07959345 0.10156066 -0.12240194 -0.0093256505 -0.07908518 0.07697577 -0.11355525
0.08682941 -0.12348603 -0.063857794 -0.08450696 0.103693746 -0.10128074 0.053067416 0.08326852
-0.09460612 -0.038880832 0.0069763646 0.06049861 -0.06324244 0.085296765 -0.018090466 0.08613369
0.03231668 -0.1195636 0.05912134 0.049022317 -0.11904542 -0.10784021 -0.09358863 -0.06731857
-0.07012162 -0.030503538 0.007009451 0.060608733 -0.00015169862 0.050639242 -0.07699673 0.005880241
-0.03966519 0.054100197 -0.118030235 -0.031256948 0.064615406 -0.10443062 0.0746835 -0.027209075
0.03414025 0.004710433 0.097433195 -0.073317006 -0.025433788 0.050427627 -0.040931404 -0.023659632
-0.016831279 -0.026342249 -0.105262466 -0.078777745 -0.08422191 0.000564921 0.04283431 0.05345932
0.009733042 -0.1295939 -0.0119976085 -0.10212887 0.07738111 0.087688066 0.09662615 0.06591334

convs.0.lin_r.weight f4 [256, 64]
00000000: 1796 9fbd 4569 9b3d d9f9 14bd ec36 fdbc
00000010: 4b68 d93d ce59 ea3d 067b bc3d a6f7 a03d
00000020: 0c61 d7bd 592d d4bd 2516 173d 863d a73c
00000030: 07b3 9dbc 62fc 69bd 72fd a33d 1da9 6e3d
00000040: 52ec 4c3d 48bb 6a3d 7c7e 7fbd f73b c0bd
00000050: 395d c4bc 6daf f13d 09f6 553c 0baa ea3d
00000060: ac56 e0bd 5041 b43d 961d a63d 1791 083c
00000070: 9380 d03d 173d c43d 457e cd3d 705d 663d
00000080: 7913 17bd 126d a93d b156 693d 3831 673c
00000090: 027e adba 2a40 7b3d 8e31 8abd 4015 273d
000000a0: 07f4 183a 8d7f f5bd 687a e3bd 9dba c13c
000000b0: 188b d2ba 36d6 e4bd 0878 65bd 40a5 5e3d
000000c0: 36b8 fe3c 8515 b4bd 4c9b d7bd 9fe7 883b
000000d0: 07b9 e0bd 38df 8dbd f7e1 d83b 5283 f0bd
000000e0: b216 c23b af03 4d3d 8698 a7bd 835b bf3c
000000f0: e3b1 2bbd b327 be3c 4895 cb3d 240a 55bd
00000100: c0bd 85bb 83a7 6d3d 3c62 a7bb 10bd e6bd
00000110: 956c 9c3d 2ea1 c0bd 1bea 1c3d 452d 32bc
00000120: 7190 49bc 4dfe 97bd a818 d3bd ea9f d6bd
00000130: f72f d3bd 2ebf ee3d 4589 b03c beb3 133d
00000140: 6694 1b3d c68e 86bd deb0 e5bd 1291 bbbd
00000150: e3ac 2dbd 660d e53d d3ad 9e3d 0faa a6bd
00000160: 2d9d e23d 650b ae3d e752 a53d cc9b af3d
00000170: 8314 ab3d 141a 623d 2ecc 6d3c dca1 133d
00000180: de75 793d 9bc8 1bbc aff1 81bc 11f9 92bd
00000190: 6a8c 9fbd 42c5 c0bb 2029 d6bd 212d ed3d
000001a0: b23d b23c 804c 4e3d dfaa 8fbc de36 f4bb
000001b0: 8c84 c6bd 82c4 8b3c b26c bebc 689e cbbc
000001c0: c79b 2dbd c744 bebc e066 913d fa44 613c
000001d0: 6bb6 3d3d d86c 153c a85b 3ebd a5a6 05be
000001e0: 4150 83bd 0b9c 57bd 128b 52bd 0263 25bc
000001f0: 6547 a0bd 028f 9dbd c70b 3b3c 31b5 813c
00000200: 5514 16bd d655 efbd d20b 4abd 7f6e 9fbd
00000210: e0ed 943c 300d f73c f33f eb3d 4b01 abbd
00000220: 4af5 f9bd eeb7 82bd 2933 b0bd 16ae b2bd
00000230: aa4e d3bd 54b2 f2bd c6ac d33d 2cd7 133c
00000240: 1b1b 8e3d 6f0b bb3d 5e6b 243d 853f bc3c
00000250: 0ac7 debd 9910 be3d d1d4 13bd 269c 513d
00000260: e6d7 ea3c 1d38 16bd 1fdf 393b bc02 edbd
00000270: fe46 ae3d b466 e23d 0fa5 e23d 4449 3dbd
00000280: 108f 2bbd ce61 a0bd d75f 913c 3a54 153d
00000290: d225 81bc cda5 efbc 2f8c c8bd 4d3d f3bd
000002a0: be45 7b3d 90c5 6d3b 6ed3 dd3d 9a70 35bd
000002b0: dbeb cabd 005e a4bd 3c46 65bd db14 d0bd
000002c0: 43f6 263d 5e90 053c 6cd8 113d 0354 d7bc
000002d0: 71e8 fbbd 3419 b03d 546e c73c 7f65 dabc
000002e0: 614e 69bd 99d5 c63d 211b debd 2bc1 37bb
000002f0: a43d 88bd 6172 963d 449c 08bd c6a8 95bd
00000300: a940 d6bc c0d3 493d 699b ac3d d655 01bd
00000310: ee38 9bbc 70f7 94bd 7a57 3dbd ffc5 dc3d
00000320: fc36 7e3d fbf8 99bd da3e 8a3d 549b eb3d
00000330: 6e9f a2bd c4cc 153d ed1d 3d3c 33a4 9d3d
00000340: 3534 5ebd 5d9c b2bd 83f8 f83d 4df7 303c
00000350: a23f 953d 525b 233d 2092 c53b fc07 433d
00000360: 756f fe3c 4d56 4fbd c820 aa3d 504c ff3d
00000370: 1345 523d 0d8d 1abc f275 de3c 5fb5 603d
00000380: 0fb4 59bd 9fd1 4b3d e2bf f8bc 8e40 ff3d
00000390: 582a f33d 32b5 4e3d 9b1b d4bd e310 e03c
000003a0: 9693 e73d efdd 1f3d 2cdf 9fba 94d1 b1bc
000003b0: 43ab cc3c e6ec 7b3d 7be1 9fbd a60b c9bd
000003c0: 1191 0dbd 6083 813c 1f9a 54bd c35c 903d
000003d0: 372d c1bd 0c22 103d 44f6 ca3d a579 963d
000003e0: 5a3b 32bd b446 f53d 288a d2bb 3449 873b
000003f0: 07c3 c53c e56d 683d f8dc 9fbd 401d 2d3d
-0.07792299 0.07588438 -0.036371086 -0.030909978 0.106155954 0.1144291 0.09203152 0.07859735
-0.10516557 -0.10360212 0.036886353 0.020415079 -0.019250406 -0.057125457 0.08007325 0.058266748
0.05003006 0.05730751 -0.062376484 -0.093864374 -0.023970233 0.11801038 0.013059148 0.11458214
-0.10954031 0.0880152 0.08111112 0.008335373 0.101807736 0.095819645 0.100338496 0.056241453
-0.036883805 0.08272757 0.05696744 0.014110856 -0.0013236406 0.06134049 -0.06747733 0.04079175
0.0005834703 -0.11987219 -0.111073315 0.023648554 -0.0016063182 -0.1117367 -0.056022674 0.054356813
0.031093698 -0.08793167 -0.105276674 0.004178002 -0.10972791 -0.06927341 0.006618734 -0.11743797
0.0059231156 0.05005234 -0.081833884 0.023359066 -0.041917693 0.02321229 0.099405825 -0.052011624
-0.004081458 0.05802108 -0.005108146 -0.112665296 0.07637898 -0.094057426 0.038309198 -0.010875051
-0.012302504 -0.07421551 -0.10307437 -0.1047972 -0.10311883 0.116575584 0.02154983 0.036060087
0.03798332 -0.065702006 -0.11215375 -0.09158529 -0.042401206 0.11184196 0.07747998 -0.08137905
0.11065135 0.08498267 0.08072453 0.08574638 0.08353522 0.05520065 0.014514012 0.036043033
0.060903423 -0.009508277 -0.015862314 -0.07176412 -0.07790454 -0.00588289 -0.10457063 0.11580873
0.021757934 0.050365925 -0.017537532 -0.0074528297 -0.0969325 0.017061476 -0.02324519 -0.024855807
-0.04238489 -0.023226155 0.070997 0.013749355 0.046316545 0.009120189 -0.04647413 -0.13051851
-0.064117916 -0.05263905 -0.05140216 -0.010094406 -0.078261174 -0.07693292 0.011416382 0.01583347
-0.036640484 -0.11686294 -0.04932768 -0.07784747 0.018179834 0.030157655 0.11486807 -0.08349856
-0.12204988 -0.06382738 -0.08603508 -0.087246105 -0.10317738 -0.1185042 0.10335688 0.009023469
0.06938764 0.0913304 0.040141456 0.022979507 -0.108778074 0.092805095 -0.03609163 0.051174305
0.028667402 -0.036674608 0.002836175 -0.11572787 0.085096344 0.11054745 0.11066639 -0.04621245
-0.041884482 -0.07831155 0.017745895 0.036457278 -0.015765104 -0.029253865 -0.09792363 -0.118769266
0.06134581 0.0036281087 0.10831343 -0.04429684 -0.09908267 -0.080257416 -0.055975184 -0.10160228
0.040762197 0.008152096 0.035606787 -0.026285177 -0.12300194 0.08598557 0.0243446 -0.026659725
-0.056959514 0.09708709 -0.10845018 -0.002803872 -0.06652382 0.07346035 -0.03335215 -0.073075816
-0.02615388 0.049274206 0.0842808 -0.031576 -0.018948045 -0.072737575 -0.046226002 0.10779952
0.062064156 -0.075181924 0.06750269 0.11504236 -0.07940565 0.036572233 0.011542779 0.07697334
-0.054249007 -0.0872123 0.12156775 0.010801149 0.072875276 0.03988201 0.0060293823 0.047615036
0.031059006 -0.050619412 0.08307034 0.12465727 0.051335406 -0.009433043 0.02715585 0.05486047
-0.053150233 0.049760457 -0.030364934 0.12463485 0.11873311 0.05046577 -0.10356828 0.027351802
0.11307447 0.03903001 -0.0012197248 -0.02170638 0.024984008 0.06150522 -0.07806679 -0.09816675
-0.034562174 0.015809715 -0.051904794 0.07048943 -0.09432452 0.03518872 0.09910253 0.073474206
-0.043513633 0.11976376 -0.006425161 0.0041285995 0.024140848 0.05674543 -0.07805818 0.042264223

convs.1.lin_l.weight f4 [64, 256]
00000000: 16e6 a7bc 906e 403c fb0e 563d dadc 9a3c
00000010: a33c 25bc f24d 8f3c 1ce4 ee3c e3a8 9cb9
00000020: ce37 0b3d 2ddd 21bd ca6f 3d3d 04cf 0abc
00000030: aa90 a33d 8811 3f3c 3f2c 6e3d 73f9 c0bb
00000040: f9b5 823c 6171 dd3c 987b 5f3d ef83 8d3d
00000050: 2b06 463d 73ff a83c 68d0 a4bc 2ef4 a2bb
00000060: e65a a1bc 65b8 673d 1ba7 4c3c 02b0 953c
00000070: 9b52 a33d e908 723c 9542 96bc 8cd7 383d
00000080: 3c27 383d 537f 2cbc 2966 813c 3bad e4bb
00000090: b1c3 343d 85d8 1f3d 8afe 263d 1087 5b3d
000000a0: bced ce3c 497d 10bb 86d6 903d 0136 373d
000000b0: 494c c1bb a41d be3c 9ca9 8f3d 34c1 98bc
000000c0: e9be 0abd 11ff 1e3d 4799 463d 2a3f 6ebc
000000d0: 4477 423c 9bb4 303d 5927 f53c 84e0 553b
000000e0: f890 8b3d 8e7f 183b d57c 25bd e5dd 74bc
000000f0: d9e1 963b 5588 bfbc a5ae 1abd d1a5 0a3d
00000100: 4526 463b 20a9 27bd e40c 2b3d 8fda d6bc
00000110: 263b 223d a7fa 8e3d fbb5 4a3c 2fba a2bc
00000120: 4153 073d 0606 ff3c 0cb6 0ebd ea0a fa3c
00000130: 68e2 c63d a0ad 573d 03ca 793d 3660 86bd
00000140: c891 ebbc ca59 323d b0bd b4bb 5ff0 34bd
00000150: 88f9 d53b 4061 c5bc 2bc2 703d 7048 7bbc
00000160: 0662 36bd 7073 16ba 3590 9e3d a222 923c
00000170: 7a08 21bd ea23 613d dfb1 85bc dea8 a43c
00000180: 8238 823d 8a93 553d a36a 333c 61bd d83c
00000190: 8f33 523d 0f9d 7dbc 84f7 923d 1f3e 843d
000001a0: 0b01 a7bb ff2b 7a3d e0ec 56bd 0c61 5abc
000001b0: cd8d 803d 9ca5 0ebd b59e e33c 5027 5fbd
000001c0: d17b 4ebb f7e5 9c3c f8d7 31bd 6e3e 8cbc
000001d0: c6b1 3a3d 8c54 6a3d 5ae0 873b f083 2f3b
000001e0: 7f49 6e3d 23bb 99bb 6996 ce3c 1d0c 173d
000001f0: a030 693d f3df 9c3d 0cc2 e4bb 6b94 9cbc
00000200: 7f70 4a3d 624e cf3c 45ba a63c aa79 14bc
00000210: faa4 693d a4fc 803d 8435 b1bc 1cfb 1cbd
00000220: 97d1 943d 647b 693d 42a2 67bc d53b babc
00000230: 3e2c 60bc 1727 973c 2e09 4abd 62dc 813d
00000240: f8d5 703d a88e 22bd 840e 12bb 5e4c 513d
00000250: 613f 97bc 16fa aaba ee98 28bd 8df5 d8bc
00000260: 2a8a 4d3d d46f b93c aeb4 913d 249b 0c3d
00000270: 99c4 2abd 7944 b2bc d3d8 8f3b bde8 d13c
00000280: 3ace ed3b 0fa4 4fbd bc1e 0f3d e782 2b3d
00000290: 11b3 393c 26ea e43c efcf 8f3d 6331 f6bb
000002a0: c483 8f3d 35ed eebb d3aa 7e3d 872c 9c3d
000002b0: 92ad ee3a da4c 6f3d 221b 09bb fe8a e1bc
000002c0: b0e7 f83b a7c9 563d 6b85 dc3c fe69 2d3d
000002d0: 745a 303d b5c0 41bd be9f 8d3d e6e0 983d
000002e0: ded1 2f3d 69cd 693d 213a 90bc 003a d4bb
000002f0: d51f 10bd 829f 153d 4c74 8c3d c594 843d
00000300: 7582 51bc 4878 713d beaa 143d 914f 28bd
00000310: 07a6 123d 3d03 493c bca4 00bd c477 1dbc
00000320: 1b6c 8ebc d506 303d c75e 40bd 7789 843d
00000330: 97cb b73b 4802 d33c 8205 ea3b 199e c83d
00000340: 9ccf d13c 3c37 cb3c b75b f93c 007d 86bc
00000350: e8bc a1bc a114 1fbd 8ef4 4bbb 51f5 cc3c
00000360: c269 d03c 7335 313d 8e4d c13c 9dc6 1f3d
00000370: 77c8 d73c 8bcd 303d e040 753d 88d0 14bc
00000380: 9691 433d 2d95 b7bc db82 a03d cbbc 7b3d
00000390: 7c39 473d b9c1 0a3d fb5c 183d e11f 2a3d
000003a0: 4436 27bc 6328 f73c ca1c 7f3d bbca 0ebd
000003b0: 36d9 5e3d b950 843d 91a3 5c3d ba17 66bb
000003c0: ee25 0a3d 3daa d83b 8d51 c9bb 4a85 863d
000003d0: 7d8c 1e3d e8a0 2ebd 06cc 46bd cf67 5dbd
000003e0: 9845 38bd 0510 0d3d 3a55 453d 8e61 d33b
000003f0: 992e 663d b8b3 efbc 5493 653d 8e9d 463c
-0.020495456 0.01174511 0.05226038 0.018904138 -0.010085258 0.017493222 0.029161505 -0.0002988047
0.033988766 -0.03951757 0.04624919 -0.008472208 0.07986577 0.011661895 0.058147665 -0.0058891117
0.015955912 0.027031602 0.054561228 0.0690993 0.048345726 0.02062962 -0.020118907 -0.004972956
-0.019696664 0.056572337 0.012491013 0.018272404 0.0797474 0.014772632 -0.018342296 0.045127437
0.04495929 -0.010528403 0.015795784 -0.0069786585 0.04413194 0.03902485 0.04077009 0.053595603
0.025259845 -0.0022047332 0.07072167 0.044729237 -0.0058989865 0.023207493 0.07014772 -0.018646814
-0.033873472 0.03881747 0.04848602 -0.014541427 0.011869255 0.04314099 0.029925989 0.0032635042
0.0681476 0.0023269388 -0.040402252 -0.014945482 0.00460456 -0.023380438 -0.03776421 0.03384954
0.0030235213 -0.040932775 0.04176034 -0.026227264 0.03960719 0.06981402 0.012372489 -0.01986417
0.03303838 0.031130802 -0.034841582 0.030522782 0.09711152 0.052655816 0.06098367 -0.065613195
-0.028756037 0.04354266 -0.0055157766 -0.04417455 0.0065299906 -0.024094224 0.058778923 -0.015337095
-0.044527076 -0.00057392474 0.07742349 0.01783878 -0.039314725 0.05496589 -0.016320167 0.020100053
0.06358434 0.052142657 0.010950717 0.02645749 0.0513187 -0.01547934 0.07176116 0.06457161
-0.00509656 0.061077114 -0.052471995 -0.013328802 0.06277046 -0.034825906 0.027785638 -0.05448085
-0.0031506906 0.019152625 -0.043418854 -0.017119613 0.045579694 0.057209536 0.004146618 0.0026781522
0.05817556 -0.004691498 0.025218206 0.036876787 0.056931138 0.076599024 -0.00698114 -0.01911374
0.04942369 0.02530593 0.020352492 -0.00906221 0.0570421 0.062981874 -0.021631964 -0.038325414
0.072665386 0.05700244 -0.014137806 -0.022733608 -0.013682423 0.018451257 -0.04932516 0.06340863
0.058797807 -0.03968683 -0.0022286484 0.05109822 -0.018462839 -0.0013044502 -0.04116147 -0.026484275
0.05018059 0.022636332 0.0711454 0.03432764 -0.041691396 -0.021761166 0.004389861 0.025623674
0.00725725 -0.050693568 0.03494142 0.041872885 0.011334197 0.027943682 0.07022082 -0.0075132116
0.07007554 -0.007291461 0.06217463 0.076256804 0.0018209687 0.0584229 -0.0020920713 -0.027532097
0.0075959787 0.052438404 0.026919087 0.04233741 0.043055013 -0.04730292 0.06915234 0.07464771
0.042924754 0.05708066 -0.017605843 -0.0064766407 -0.035186607 0.03652907 0.06858119 0.06473688
-0.012787451 0.0589526 0.036295645 -0.041091505 0.035802867 0.0122688385 -0.031407103 -0.009611074
-0.017385533 0.042975266 -0.046965387 0.06471532 0.0056089866 0.025757924 0.00714177 0.0979578
0.025611691 0.024806611 0.03043924 -0.016417027 -0.019743398 -0.038838033 -0.0031121108 0.02501932
0.025441054 0.043263864 0.023596551 0.03900777 0.026340706 0.04316477 0.059876323 -0.009082921
0.047746263 -0.02241 0.07837459 0.061459344 0.048638806 0.033876155 0.037198048 0.04153431
-0.010205809 0.030170625 0.062283315 -0.034861308 0.054406367 0.06460709 0.053866927 -0.0035109357
0.03372758 0.006612091 -0.006143755 0.065683916 0.0387082 -0.04263392 -0.048534416 -0.054054078
-0.044988245 0.034439106 0.04817698 0.0064508384 0.056196783 -0.029260501 0.056048706 0.012122525

convs.1.lin_l.bias f4 [64]
00000000: a5d5 0cbd 2130 14bd a31b 02bd d614 473d
00000010: 756e 833c c74b 0bbd a80c 2bbd cba9 6cbb
00000020: ae73 02bd 6196 483c 8786 8cbc 3563 eb3c
00000030: 32e7 883c fc77 69bc d161 df3c 77a4 92bd
00000040: 1509 3d3d 8cc3 1a3d eadc 063d 7b6c 7fba
00000050: f6c8 3bbd 8815 04bd 4df2 8d3d f5ea 56bc
00000060: 9717 adbc 6415 3abd dd2d f63c b73a e93c
00000070: 1f19 5cbd c7bb 11bd 16d9 c83c f7a3 953d
00000080: 4906 843d 3a4e eabc 9ff4 37bd 16b3 7eb8
00000090: f773 91bd dd13 5a3d 9880 643c 4419 9fbc
000000a0: 42c3 0b3d 2971 dd3b aa91 5cbc c281 d33c
000000b0: a142 303d 8fb0 9abd 7194 84bd 52a0 24bd
000000c0: 1911 f93b 6973 6fbb f83d bebc 8f9e cdbc
000000d0: b0cb 4dbd e41b 54bd 95fd ebb9 63e9 5f3d
000000e0: 2e0e 873d 9fcf 11bd 4869 eebb b1d7 aabc
000000f0: 2d35 453d d281 43bd 13f6 4a3d 167d a63c
-0.034383435 -0.03617871 -0.031764638 0.048603855 0.016043881 -0.034007814 -0.041760117 -0.0036111947
-0.031848602 0.012242884 -0.017153991 0.028733829 0.016711805 -0.014249798 0.027268322 -0.071602754
0.04615124 0.037784144 0.032925524 -0.0009743643 -0.04584595 -0.032247096 0.06930981 -0.013117542
-0.021129413 -0.045430556 0.030051166 0.02847038 -0.053734895 -0.03557947 0.024517577 0.073066644
0.06446511 -0.028601754 -0.044911023 -6.0725106e-05 -0.07102197 0.0532416 0.013946675 -0.019421227
0.03412176 0.0067578745 -0.013462463 0.02581871 0.043032292 -0.07553207 -0.064736255 -0.040191956
0.007600915 -0.0036537296 -0.023222908 -0.02510002 -0.05024308 -0.05178441 -0.00045011626 0.054665934
0.065945014 -0.035598394 -0.007275734 -0.020854803 0.048146416 -0.04773123 0.04955108 0.020323317

convs.1.lin_r.weight f4 [64, 256]
00000000: b24b 93bc 70bf 263d 3792 353d 4f5b 313d
00000010: b46d b93c 1882 40bd a6dc 183d 41bf 7dbd
00000020: 93d4 1d3b ae23 b03c 69bd 783d 7854 b53c
00000030: 4505 7d3d 19ef 0dbd 1b81 873d 26db bcbc
00000040: 7aef 3abd a648 0a3c e107 35bd c7d9 0c3d
00000050: 511e a3bc 9c33 8ebc e50e 2cbd a78b b1bc
00000060: 1a24 603d 9339 9d3b d7a4 1dbd 6898 d6bc
00000070: 130d 073b 1ede 40bd 0dba 6bbc 79b1 b13b
00000080: dd60 d93c 55d2 863d 52cb 0dbd 9e16 533d
00000090: 72cc 8b3d 7d81 5e3c 80bb 473d 6762 8b3d
000000a0: 8d0b f43c be29 c23c 36b8 08bc fcf0 743c
000000b0: 6a05 2e3d c702 273d f6cb 053c 423d 433d
000000c0: 0818 563d 5350 963b c0f4 6a3d 0b76 ed3b
000000d0: 9732 54bd 4048 04bd 67e2 2cbd 0c0e 9ebc
000000e0: 118b 873d f30f 7c3c 4c48 853d 1188 843d
000000f0: 01d0 e23c 6dc4 afbc a1d2 80bc 2dfe e43a
00000100: 3dec a13c 33f3 bf3c fc86 0fbd dcb1 fb3c
00000110: 69d2 b1bc 59ff fabc 7c2b 42bd 234a 693d
00000120: 489d 16bd 41ae 52bc a67a 06bb 1acf 8a3d
00000130: aedc 8b3d 64ba ad3c b032 053d c55d 85bd
00000140: 1f12 803d aec4 5abd 4e2c 873d d906 573d
00000150: 312d c23c 0fda 49bd 6dc7 f83c 2429 633d
00000160: fffc 773d 6872 253d e816 e63c cd68 123d
00000170: d99c f33c 3464 79ba a58b 5f3d 34c8 033d
00000180: aad5 053d 0193 ca39 c8de 783d 9022 ab3d
00000190: c532 3c3d d785 9dbc a84a 4fbd a867 bbbc
000001a0: ffa4 4c3d e580 01bd d75c 02bd 5a25 763c
000001b0: 1083 b8bc 9aa9 59bc a81d 02bd ff39 523d
000001c0: 46d2 0e3d 4794 52bd 5482 96bc acff a03d
000001d0: 3e8a d93c 8181 543c b006 d33c de2d ae3c
000001e0: 2622 52bd 1dc6 3c3d 20c7 d63b 05e2 e83c
000001f0: 04e2 9a3c a055 403d 542e b53c 93cf 30bd
00000200: b6a9 593c ab36 0c3d 956c 773d 2d81 fcbc
00000210: 1bfe 9b3d 6d4b 12bd 7f37 133d b63e b93c
00000220: c92d 4bbc 52d8 0a3d c499 9c3d be5d 153c
00000230: 0e02 26ba 87ea 49bd 7c43 0bbd ee5a 0cbd
00000240: 2b5a e13c be44 cb3c 2cee 043d 04f3 b8bc
00000250: ee1b bc3c e547 0ebd a3d7 d73c 361c 1f3b
00000260: 14ab 3c3d ef92 d1bc 6325 783c bf1d 85bd
00000270: deb4 dfbc 2b63 35bd 1cc3 7c3d a73c dfbc
00000280: 4b2d 4eba 79d1 b73c 6f0f a73b 9a2c 1e3d
00000290: 9c59 8cbc 6704 bebc 8ec0 9cbc 1de0 903d
000002a0: 0568 913d b52c 613c c77f fbbb 6710 5dbc
000002b0: c69b ffbc e717 0b3d 8a3f 403d 3c4f 25bd
000002c0: f85a e73c 74ed 193d b234 2cbd 7611 073d
000002d0: ee03 1b3c c4dd 5ebc a2cf 383d caa0 933d
000002e0: f262 cdbc 05c7 413d 9b0a 51bc 0e9d 6f3b
000002f0: 8d75 89bc 5302 8ebb f10a 5a3a c767 3a3c
00000300: c45b 25bc 2daa 3d3c f1ad eabb 3304 fb3c
00000310: 8d5b 5fbc 6148 a53b 2e53 843d 08cd 693c
00000320: 971d 993d 481e 953d de02 22bd 30ee 0d3d
00000330: fa91 513d b643 c03c 5347 e9bc d539 2fbc
00000340: ccb5 ba3c d380 22bb 2b53 543d ba8d 883d
00000350: f191 c7bc 6c75 80bd 1407 4a3c 1f4e 66bc
00000360: 60db 3b3d d39e 773d 5ae2 b63c a31d 74bc
00000370: e95f 5d3d 794f ccbc b1df 0a3d 332f 353c
00000380: f674 6dbd 5c09 32bd b6d9 873c 9ba6 33bd
00000390: 9aa5 c23c e073 d0bb 0b08 c5bc 185d 1d3d
000003a0: 0817 62bd f2c8 be3c 1735 353c 4f85 1b3d
000003b0: 8753 243d 1d1f 563c 168a 52bd d152 36bd
000003c0: c18f 843d c06a 6e3d 54ba dd3c 879f 00bd
000003d0: 6598 e2bc 5644 883c 62d5 333d c4a7 00bd
000003e0: d135 813d 6875 fa3c 24dc 633d 1e76 2e3d
000003f0: 0005 12bd c6ab 2a3d b92a 963c 2c27 9cbc
-0.01798043 0.040709913 0.044328894 0.04329997 0.022635318 -0.046999067 0.0373198 -0.061949972
0.0024083003 0.021501388 0.06072751 0.022135004 0.061772604 -0.03465185 0.06616422 -0.023053717
-0.04563854 0.008440172 -0.044196967 0.034387376 -0.019911917 -0.017358594 -0.042006392 -0.021673037
0.05472193 0.004798123 -0.03848728 -0.02619572 0.0020607158 -0.047086827 -0.01438762 0.0054227677
0.026535446 0.065830864 -0.03461773 0.05153524 0.06826104 0.013580677 0.0487628 0.06805878
0.029790664 0.023701545 -0.008344701 0.014950033 0.042485632 0.040774133 0.008166304 0.047665842
0.05226901 0.004587212 0.057362318 0.007246738 -0.05180606 -0.032295465 -0.0422081 -0.019293807
0.06618322 0.015384662 0.0650793 0.06471265 0.027687075 -0.021455968 -0.015725436 0.001747077
0.019765968 0.023431396 -0.03504084 0.030724458 -0.021706777 -0.030639337 -0.04740475 0.056955468
-0.03677109 -0.012858928 -0.0020519882 0.06777783 0.06829201 0.021207042 0.032519042 -0.06512026
0.06253456 -0.053410225 0.06600247 0.052496765 0.02370319 -0.049280223 0.030368531 0.055459157
0.06054401 0.04039231 0.028087094 0.035744477 0.029737877 -0.00095135276 0.054576535 0.03217335
0.03267447 0.0003863797 0.060759336 0.08356202 0.045946855 -0.019228859 -0.050608307 -0.022876576
0.04996204 -0.031617064 -0.03182682 0.015023554 -0.022523433 -0.013285065 -0.031766564 0.05132484
0.0348685 -0.05141094 -0.018372692 0.078612655 0.026555177 0.012970329 0.025760025 0.021262106
-0.051302098 0.046087373 0.0065544993 0.028428087 0.0189066 0.04695666 0.022116818 -0.04316671
0.013285091 0.034231823 0.060406286 -0.030823315 0.07616826 -0.035716463 0.035941597 0.02261291
-0.012401053 0.033897705 0.07646516 0.009116588 -0.00063327036 -0.04929593 -0.033999905 -0.034266405
0.027508816 0.024813052 0.0324537 -0.022576816 0.022962537 -0.034736533 0.02634794 0.002427829
0.04606159 -0.025582759 0.015145632 -0.06499814 -0.027307924 -0.044284027 0.06170951 -0.027250601
-0.00078650255 0.022438752 0.0050982754 0.038616754 -0.017132573 -0.023195459 -0.019134786 0.07073996
0.07099918 0.013743569 -0.0076751444 -0.01349268 -0.031202208 0.033958342 0.046935596 -0.040358767
0.02824162 0.03757997 -0.04204244 0.032975636 0.009461386 -0.013602678 0.04511989 0.072084025
-0.025071595 0.04730894 -0.012758876 0.0036562118 -0.016779685 -0.004333773 0.00083176704 0.0113772815
-0.010092679 0.011576218 -0.0071618487 0.03064165 -0.013632667 0.0050440286 0.06461178 0.014270075
0.07476347 0.07281166 -0.039553516 0.03465098 0.051164605 0.023469787 -0.028476393 -0.010694941
0.022791766 -0.0024796023 0.051837128 0.06667657 -0.024361582 -0.062723964 0.012330789 -0.014056711
0.04586351 0.0604542 0.02232473 -0.014899644 0.054046545 -0.02494024 0.033904735 0.011058616
-0.05797287 -0.043465957 0.016583305 -0.04386006 0.023760606 -0.0063614696 -0.024051687 0.03841886
-0.055197746 0.023289178 0.011060021 0.03796893 0.04011872 0.013068941 -0.05140122 -0.044512574
0.064727314 0.058207273 0.027066387 -0.031402137 -0.027660558 0.016634148 0.04390467 -0.031409994
0.06309093 0.030573562 0.055629864 0.042593114 -0.0356493 0.041667722 0.018330919 -0.019061647

bns.0.weight f4 [256]
00000000: d9ed 7c3f ef47 7d3f 8ca8 7e3f 5679 7e3f
00000010: 044f 7e3f 757b 7f3f 0c8b 7e3f d30b 7f3f
00000020: 5c38 7d3f 6d11 7f3f beac 7f3f 0506 803f
00000030: 1d5c 7e3f 31bc 7d3f d94b 803f 1d4f 7e3f
00000040: 76ba 7e3f 187c 7e3f 1521 803f b349 803f
00000050: 11ee 7d3f 688b 7d3f 5857 7d3f b801 7d3f
00000060: f4a5 7c3f 2b1f 7c3f 68a4 7d3f c231 7d3f
00000070: a26d 7f3f 49bf 7d3f 8926 7e3f 0088 7d3f
00000080: 6a7b 7e3f 7f61 7d3f b20c 803f 451b 7f3f
00000090: 3ac7 7c3f fe44 7d3f 3cf6 7d3f 1756 803f
000000a0: f281 7e3f 22d8 7d3f f61c 7e3f 3e24 7e3f
000000b0: 2cf4 7d3f 5c6d 7c3f a852 7d3f cedf 7d3f
000000c0: 9396 7d3f 758e 7f3f fd48 7e3f 037b 7d3f
000000d0: 79fb 7d3f 4789 7e3f f5c6 7e3f fb5b 803f
000000e0: 1717 803f 487f 7e3f 8ed1 7e3f ef0a 7d3f
000000f0: 7b6b 7e3f 31d0 7e3f c065 7d3f c9b6 803f
00000100: 9388 7e3f 3827 803f c810 7d3f 6c9e 7f3f
00000110: d7cb 7e3f 3171 7f3f 1b61 7d3f 1977 7d3f
00000120: ad8e 7d3f b6b7 7e3f bd38 7d3f 264b 7f3f
00000130: c0a9 7f3f 305d 7f3f cf07 7f3f 75ca 7e3f
00000140: c0e0 7b3f 8e6c 7e3f 23dc 7e3f 18d4 7e3f
00000150: 5f6f 7e3f fd45 7d3f 1dd8 7e3f a019 7e3f
00000160: 8b9e 7e3f 1cae 7e3f 44f8 7e3f 098a 7b3f
00000170: a3e4 7d3f baf5 7f3f c1bb 7f3f 30fb 7c3f
00000180: 6518 7d3f f815 803f 5ae9 7e3f c058 7e3f
00000190: c6f9 7d3f 9974 7c3f 6673 7d3f 912a 7d3f
000001a0: 1e22 803f f56b 7e3f 1cb0 7e3f 5d96 7b3f
000001b0: 93c2 7e3f fa66 7f3f e4bc 7d3f 2b3c 7c3f
000001c0: fe88 7f3f c552 7f3f a98f 7f3f 5bb1 803f
000001d0: 9cea 7e3f d924 7c3f 2f3d 7f3f 6e9a 7c3f
000001e0: 5925 7e3f 1e30 7f3f e33e 7d3f 2c50 7d3f
000001f0: 21fd 7d3f 986d 803f bf7d 7f3f a2a9 7f3f
00000200: 021c 7f3f ef88 7d3f 41f1 7e3f 2ffe 7d3f
00000210: 8cfe 7d3f 228a 7d3f ff5b 7e3f 1d41 7d3f
00000220: 728f 7d3f cf40 803f 3dcd 7e3f fb85 7f3f
00000230: 9f53 7f3f 98e1 7f3f 6580 7d3f ef90 803f
00000240: fa02 7e3f 757f 7d3f d949 7d3f 62d0 7d3f
00000250: 0fca 7d3f b034 7d3f f86a 7c3f 74a2 7d3f
00000260: 7bbb 803f d4e0 7f3f 7858 7f3f 657b 7e3f
00000270: 13cf 7c3f 42c1 813f c90f 803f ce9d 7c3f
00000280: be9e 803f 7519 7d3f 3515 7f3f dbbc 7e3f
00000290: ebb7 7d3f 900d 7f3f 745e 7d3f 7508 7f3f
000002a0: 9c32 803f 4892 7c3f dc26 813f 6364 7f3f
000002b0: f660 7d3f ffad 7e3f 340d 7e3f 2580 7d3f
000002c0: b6ca 7d3f b143 803f 3091 803f 7d35 803f
000002d0: fc1b 803f be3e 7d3f e53a 7f3f 4803 7f3f
000002e0: 93b0 7d3f 6738 7f3f f9d4 7e3f 4962 7d3f
000002f0: fc6b 7d3f b4fc 7c3f 9583 7d3f b095 7f3f
00000300: 67b0 7f3f 58bc 7d3f b813 7f3f c71c 7f3f
00000310: fafb 7d3f bdf9 7d3f cc75 7d3f 1afa 7c3f
00000320: 8dd3 7f3f 36f0 813f def3 7f3f 4cfa 7e3f
00000330: 51b8 7b3f 2f81 7b3f f31a 7f3f 9980 7e3f
00000340: 11a6 7d3f 001a 7e3f e2dd 7c3f 98e3 7f3f
00000350: f5cd 7f3f 2078 7f3f 80c7 7e3f ddc1 7d3f
00000360: bd16 7f3f 3f14 7f3f abce 7e3f d5f5 7d3f
00000370: c982 7e3f c4ed 7c3f 8096 7f3f e807 7e3f
00000380: dfee 7d3f 61f6 7d3f 23d9 7e3f c9f2 7d3f
00000390: 36b4 7c3f b2c5 7c3f 0cc2 7e3f afad 7c3f
000003a0: f671 7e3f 26e9 7f3f d842 7e3f 1ece 7b3f
000003b0: 14bd 7d3f d0db 7d3f e885 7e3f 2f66 7e3f
000003c0: c5e1 7e3f 6389 7e3f 0535 7c3f 11ad 7d3f
000003d0: 1b90 7d3f 701d 7f3f 9e6a 7e3f 071a 7d3f
000003e0: e23f 7e3f 7d6c 803f 4200 803f 7793 7f3f
000003f0: f495 7e3f f152 7e3f df16 7d3f 1645 7d3f
0.98800427 0.98937887 0.9947593 0.99403894 0.9933932 0.99797755 0.9943092 0.9962742
0.9891412 0.99635965 0.9987296 1.0001837 0.99359304 0.9911528 1.0023147 0.9933947
0.99503267 0.994081 1.0010096 1.0022491 0.99191386 0.9904084 0.989614 0.9883075
0.98690724 0.9848506 0.9907899 0.9890405 0.9977666 0.99120003 0.9927755 0.99035645
0.99407065 0.9897689 1.0003874 0.99650985 0.98741496 0.989334 0.9920385 1.0026273
0.9941703 0.9915792 0.9926294 0.9927405 0.992007 0.9860437 0.9895425 0.99169624
0.99057883 0.9982675 0.9933012 0.99015826 0.9921184 0.9942822 0.99522334 1.002807
1.0007046 0.99412966 0.99538505 0.9884481 0.9938275 0.99536425 0.98983383 1.0055782
0.99427146 1.0011969 0.9885373 0.9985111 0.99529785 0.9978209 0.98976296 0.99009854
0.9904583 0.9949907 0.989147 0.9972404 0.9986839 0.9975157 0.9962129 0.99527675
0.98389816 0.9938439 0.9955465 0.9954238 0.9938869 0.9893492 0.9954851 0.9925785
0.9946067 0.9948442 0.99597573 0.982575 0.99176997 0.99984324 0.99895865 0.9882078
0.9886535 1.0006704 0.99574816 0.9935417 0.9920925 0.98615414 0.9900421 0.98893076
1.0010412 0.9938348 0.9948747 0.9827631 0.99515647 0.99766505 0.9911635 0.9852931
0.9981841 0.9973567 0.99828583 1.0054125 0.99576735 0.98493725 0.99702734 0.9867314
0.9927574 0.99682796 0.9892408 0.9895046 0.9921437 1.0033445 0.9980125 0.99868214
0.9965211 0.9903707 0.99586874 0.9921598 0.9921653 0.990389 0.99359125 0.9892748
0.99047005 1.0019778 0.9953192 0.9981381 0.9973697 0.99953604 0.9902404 1.004423
0.9922329 0.9902261 0.9894081 0.9914609 0.9913644 0.9890852 0.9860072 0.9907601
1.0057214 0.99952435 0.9974437 0.99407035 0.9875347 1.0137103 1.0004817 0.9867829
1.0048444 0.9886697 0.99641734 0.9950692 0.9910876 0.9963007 0.9897225 0.9962228
1.0015445 0.9866071 1.0089984 0.9976255 0.98976076 0.99484247 0.99238896 0.9902366
0.9913744 1.0020658 1.0044308 1.0016323 1.000854 0.9892386 0.9969924 0.9961438
0.99097556 0.9969544 0.9954372 0.98978096 0.98992896 0.98823094 0.99028903 0.9983778
0.99878544 0.99115515 0.99639463 0.99653286 0.9921261 0.99209195 0.9900787 0.98819125
0.99932176 1.0151432 0.99981487 0.9960067 0.9832812 0.98243994 0.99650496 0.99414974
0.9908152 0.9925842 0.98776066 0.99956656 0.9992364 0.9979267 0.9952316 0.99123937
0.9964407 0.9964027 0.995341 0.99203235 0.9941831 0.988003 0.9983902 0.99230814
0.99192613 0.9920407 0.99550074 0.99198586 0.9871248 0.9873916 0.9951484 0.9870252
0.9939264 0.9996513 0.99320745 0.98361385 0.99116635 0.9916353 0.99423075 0.9937467
0.99563247 0.99428385 0.985184 0.99092203 0.9904801 0.99654293 0.99381435 0.9886784
0.9931623 1.0033108 1.0000079 0.9983439 0.9944756 0.9934531 0.98863024 0.9893354

bns.0.bias f4 [256]
00000000: f8a2 4abb 26dd aebb 1acc 323a 48a4 dbbb
00000010: 0627 31ba 32ef ac3b 15c2 8e3a 7de4 7c3b
00000020: 8e94 31bb dfd5 963b 0c46 bb3b ad61 013c
00000030: e03b 40ba d464 38bb bba5 4c3c ba86 66ba
00000040: 5e28 1d3b 76fe 0f3b 94d1 db3b 873e e23b
00000050: 384c 3f3a d154 96bb 29a6 fcba 4ccc c7bb
00000060: 6ff4 febb 75f5 90bb 63fb 65bb 0ea9 ea39
00000070: ca0f 873b e62c 5bbb b86a 5639 b122 2fbb
00000080: 5501 d2ba 5bcb 043b 9711 343c e42b 8236
00000090: e475 27bb 01dd fcba c00c c1ba 296a 2d3c
000000a0: f219 4c3b 10d3 a1bb 0d39 38ba e620 173b
000000b0: 53ad 91bb 4234 9ebb 4cb7 cebb 20d9 70ba
000000c0: de5e f3ba 8041 2c3c b048 243b 31c7 dcbb
000000d0: 6ab0 82ba bae1 b2ba 4638 943b bbcc 353c
000000e0: 1645 cb3b e090 2a3b 9983 443b 0200 8cba
000000f0: dd21 173b 6252 f339 63b0 9bbb ac75 743c
00000100: 155c 1e39 8dca 1f3c fc14 8abb 62c4 373b
00000110: 3494 ad3a 6bd8 d63a 4bd2 85bb 4e2d 80bb
00000120: 0aaf bbbb 71a0 3cba 2ec4 fdbb cf6a 4d3b
00000130: db22 e73b cbea d03b 202d 043b 0514 3dbb
00000140: b9ca dabb 95ce 9cbb 28b7 423b 6e9f 943b
00000150: d762 77ba 35df cdbb 49b8 1f3b 57cd 973b
00000160: 56a0 133b 127d 9038 32d1 203b fc20 f1bb
00000170: 2ece 68bb 5118 3f3c d297 033c 05cb a9bb
00000180: 5e0b 82ba 9d4d b93b 09d6 973b 008e f0ba
00000190: fde4 bcba bafb 1fbc 24ab d8bb 34c3 9fbb
000001a0: 7563 e63b d306 9a3a 5016 1c3b 838d 14bc
000001b0: 8361 b03a 76b5 013c 1462 74bb 000a ebbb
000001c0: 86b3 cf3b 7a13 4c3b 967d cd3b d4f9 393c
000001d0: be81 be3b d13e c0bb c2bb d63b 9875 c1bb
000001e0: 3e10 183b b863 e13b 3024 ecbb cf3e 7fbb
000001f0: c4b7 dc39 40fd 3a3c c50c a03b 89b2 043c
00000200: 71cf 913b afd8 d83a a72c 553c e583 d2ba
00000210: 54ed 9f3b ea19 83bb f54a adba f64e babb
00000220: 86ee 37bb 9659 2b3c feeb 273a 98d3 c23b
00000230: f253 d63b 0413 aa3b d3e7 4cbb d04c 353c
00000240: 266e a839 ff98 cfbb 768f 88bb 078d 4aba
00000250: d4d9 17bb df49 a8ba 9277 59bc 992a e5bb
00000260: 055c 853c 26be f13b 94f4 603b d117 15ba
00000270: f012 1fbb 5d72 bb3c 33ba e03b 2ffe f0bb
00000280: 2128 f33b 664a 0bbc fb0d 153b ce57 863b
00000290: 8260 01bb 0702 213b 039a 6dbb 2066 4b3b
000002a0: 5b49 353c c3ab 5cbb f4c9 9d3c 6a8a 163c
000002b0: d8bc 58bb 3c50 763b 812a e739 2390 74bb
000002c0: 0663 08bb 7620 173c d4b4 343c 0182 4a3c
000002d0: 5d65 2d3c cf94 97bb bf7b 743b ff54 d73a
000002e0: 67fe 8eba 54e6 783b 26c3 203a 9795 87bb
000002f0: efff 12bc c5f7 2ebb 7b95 f4bb 083d 2c3b
00000300: 3dca 0a3c b076 a7bb 2f0a ba3b 16f0 ba38
00000310: 722a ae37 a9fb 5fba 05b6 66bb cb09 c5bb
00000320: 75f6 d73b 5e5f af3c 6075 d63b 1545 f73b
00000330: e52b a8bb a14a 0dbc 2c25 9c3b ff68 ad3b
00000340: fdb4 87b9 271d 2b3a 80d2 b8bb 58b4 1a3c
00000350: 3696 0e3c a84c 9a3b 342b 543b 5862 fbb8
00000360: 2b6c 573b 377c e939 e366 613a e0f5 3aba
00000370: a782 ec3a f952 a3bb 434d 873b 35ae b93a
00000380: 50a1 dbba d5b9 31bb dca7 5e3b 8242 94bb
00000390: 8da3 b1bb 97db 0cbb 6ecd e93b 12d8 b0ba
000003a0: 862b 83bb 3c3b f33b 444d 42b9 7cc0 03bc
000003b0: 7e78 093b 14d9 4abb 96fb 953a af83 69bb
000003c0: 8830 a93b 4b74 a6b9 e7b7 0dbc 5135 f2ba
000003d0: 5390 afbb 3ca4 773b 7252 33b9 b657 89bb
000003e0: 0eb9 91ba be5a 183c 7406 f03b 68e9 fc3b
000003f0: dd2e 273b 11d5 17bb 80b0 67bb 27b9 edba
-0.003091989 -0.0053364215 0.00068205746 -0.0067029335 -0.0006757829 0.0052775377 0.0010891581 0.0038588338
-0.0027096602 0.004603132 0.0057151373 0.007896823 -0.0007333141 -0.002813627 0.012490685 -0.00087938795
0.002398036 0.002197174 0.0067083333 0.0069044265 0.0007297429 -0.0045877476 -0.0019275594 -0.006097352
-0.0077806036 -0.004423792 -0.0035092465 0.00044757914 0.0041217552 -0.003344351 0.00020448386 -0.0026723559
-0.0016022125 0.002026281 0.010990522 3.8794115e-06 -0.0025552446 -0.0019291939 -0.0014728531 0.010584393
0.0031143394 -0.0049384907 -0.0007027544 0.002306038 -0.0044457107 -0.004828007 -0.006308472 -0.00091876276
-0.0018567701 0.010513663 0.002506774 -0.0067376127 -0.0009970788 -0.0013647594 0.00452331 0.011096175
0.006203304 0.0026026294 0.0029985665 -0.0010681155 0.0023060956 0.00046409952 -0.0047512515 0.014920633
0.00015102357 0.009752882 -0.0042139273 0.0028040637 0.001324302 0.0016391402 -0.0040839068 -0.0039116507
-0.0057276534 -0.00071955385 -0.0077443337 0.003134418 0.0070537156 0.0063756458 0.0020168498 -0.0028851044
-0.0066769985 -0.0047853687 0.002971122 0.004535607 -0.00094370305 -0.006282712 0.0024371317 0.0046326327
0.0022525988 6.889751e-05 0.0024538753 -0.0073586684 -0.0035523283 0.011663512 0.008031802 -0.0051816725
-0.00099216 0.005655004 0.0046336693 -0.0018352866 -0.0014411506 -0.009764606 -0.0066121984 -0.004875565
0.007030899 0.0011751301 0.002381701 -0.009066942 0.0013456795 0.007916799 -0.0037289904 -0.007172823
0.0063385395 0.0031139539 0.0062710745 0.011351068 0.0058138063 -0.0058668633 0.006553144 -0.005903911
0.002320304 0.0068783425 -0.0072064623 -0.003894735 0.00042098586 0.011412919 0.0048843347 0.008099207
0.004449778 0.0016544069 0.013011134 -0.0016061036 0.0048805866 -0.004000892 -0.0013221191 -0.0056856824
-0.0028065755 0.010458371 0.000640571 0.005945634 0.006540769 0.005190255 -0.0031266108 0.011065677
0.00032125524 -0.006335377 -0.0041674925 -0.0007726703 -0.0023170607 -0.0012839398 -0.013273137 -0.0069936034
0.01627923 0.007377404 0.0034325467 -0.0005687448 -0.0024272762 0.022881681 0.006858134 -0.00735452
0.007420555 -0.008501625 0.0022743929 0.0040998226 -0.001974136 0.0024567859 -0.0036255128 0.0031036213
0.011064853 -0.0033671714 0.019261338 0.009188274 -0.0033071544 0.0037584445 0.0004409142 -0.0037317357
-0.0020810976 0.009224048 0.011029441 0.012360097 0.010583249 -0.0046258937 0.0037305204 0.0016428529
-0.0010909558 0.0037979083 0.0006132595 -0.0041377055 -0.008972152 -0.0026697975 -0.0074641085 0.0026281495
0.008471069 -0.005110584 0.0056774835 8.9138906e-05 2.0762182e-05 -0.0008544275 -0.0035203707 -0.0060131303
0.0065906593 0.02140778 0.006544754 0.007546077 -0.0051321858 -0.00862375 0.0047651734 0.0052920575
-0.00025884053 0.00065274764 -0.005640328 0.009442411 0.008702805 0.004708845 0.0032374384 -0.000119869306
0.003287087 0.0004453377 0.00085984 -0.0007131975 0.0018044309 -0.0049842563 0.0041290834 0.0014166298
-0.0016756449 -0.002711882 0.0033974564 -0.00452453 -0.005421108 -0.002149319 0.007135085 -0.0013492128
-0.004002991 0.007422833 -0.00018530065 -0.008041497 0.002097636 -0.0030952143 0.0011442776 -0.0035631468
0.005163256 -0.00031748632 -0.008649803 -0.0018479024 -0.005357781 0.00377871 -0.00017101484 -0.004191364
-0.0011117773 0.009298978 0.007324988 0.007718254 0.002551011 -0.002316777 -0.0035353005 -0.0018136845
