output/oi/prev_e2v/run_003/prev_oi_best_model_e2v.pth (torch, 404149 bytes, 14 tensors)

convs.0.lin_l.weight f4 [256, 128]
-0.06582307 0.041110404 -0.027630612 -0.050578132 0.00067577057 0.006999931 0.019637119 -6.2172854e-05
-0.029836273 -0.06556506 -0.056112684 0.052234937 0.046573535 -0.034425754 0.07987441 -0.038909424
0.045009423 -0.036676083 0.07307506 0.08794634 0.03151831 -0.019305937 0.02186144 0.08576139
0.0314823 -0.053036194 -0.07048714 0.034634665 0.07446353 0.012686953 -0.08814632 -0.0058234464
0.074019685 -0.078679085 -0.008948353 -0.08214804 -0.018291479 -0.010597846 0.07313573 0.08501792
-0.028734006 0.014039892 -0.06773445 -0.011515582 -0.032413386 -0.017131079 0.01862043 0.007967071
-0.06668187 0.011183077 0.0799319 0.08085177 0.015159494 -0.059802044 -0.05473876 0.069372244
0.06322686 0.0032728189 0.046557467 0.08821559 -0.08648152 -0.062816195 -0.07875768 -0.05238613
0.00730731 -0.055162653 -0.057137 -0.017362189 -0.034599453 -0.061516296 0.02209352 -0.03845485
-0.021803075 -0.084842466 -0.0734557 -0.07895589 0.037758756 0.01664175 -0.029218856 0.073025845
-0.055595577 -0.052033424 -0.08522593 0.02680892 0.0740704 -0.043876596 0.008565961 -0.04893188
0.0072991033 0.04042433 -0.072873235 -0.010706718 -0.048443675 -0.045551986 -0.08258992 0.0012720844
0.052540768 0.04621981 0.049739778 -0.039865483 0.0029384063 0.013922971 0.06720446 -0.00016182657
-0.027608532 0.022999182 0.07851402 0.03104211 0.009784511 -0.0802964 0.05580882 -0.0025600502
-0.07511002 0.026793815 -0.013090117 -0.0876613 0.07211334 -0.050170977 0.047495298 -0.027414372
-0.007533097 0.08012111 -0.08683938 -0.013298024 -0.05674487 0.057334524 0.021859301 0.024053259
0.020091016 0.043211125 0.053468876 -0.08658235 -0.056345228 -0.027832823 -0.081711546 -0.026205944
0.041730706 0.08166665 0.025826897 -0.0036644598 -0.013243192 -0.06347642 0.032171723 -0.015240831
-0.04440006 -0.041486923 0.028185433 -0.059160106 0.083284885 0.004448296 -0.086452745 0.0007598215
0.0592571 0.04892883 0.027287953 0.017719632 0.029676542 -0.03344563 0.081192166 -0.039179616
-0.057455752 -0.06657877 -0.07091102 -0.019402634 -0.0029905417 0.050952148 -0.060662676 0.06404177
0.02555002 -0.0061248974 0.014969244 0.07804124 -0.0879156 0.075734474 0.07653461 -0.0404988
0.054487355 -0.06338063 0.024502458 0.05430721 0.019168463 0.04638621 0.010523159 0.061643135
-0.07043651 -0.0343422 -0.027860513 -0.0043812157 -0.010313866 -0.019854909 -0.045147296 0.028262844
-0.074009895 -0.020909514 0.045331392 0.07670635 -0.0488765 0.010126038 0.022662662 -0.07443179
0.051710997 -0.032041535 0.064141266 0.032208204 0.05571663 -0.06735763 -0.053271037 -0.058965106
0.026432915 0.022991426 0.05390467 -0.012244246 -0.02595197 -0.018065896 0.06469289 0.012519753
0.03527716 -0.041125495 0.013622111 0.033943165 -0.033539493 -0.04306085 0.0075840577 0.08718474
-0.024609582 -0.036591556 -0.046646107 -0.030639933 -0.058034066 0.017616166 0.048128787 0.04747209
-0.08545196 0.02915569 -0.08170574 -0.038433753 -0.06502817 -0.024086323 -0.05106884 0.058798693
0.028088927 -0.034891192 -0.05325571 0.028486134 0.014084038 0.037190083 -0.0371825 0.016646728
0.07399672 0.028253851 -0.0720548 -0.057226703 0.0032979236 -0.03362104 -0.047984652 0.051986527
00000000: 3fce 86bd 6263 283d 9859 e2bc 042b 4fbd
00000010: 3226 313a ad5f e53b 06de a03c cc62 82b8
00000020: 336b f4bc f946 86bd 6ad6 65bd 4df4 553d
00000030: e4c3 3e3d 0502 0dbd 3295 a33d 7d5f 1fbd
00000040: cd5b 383d a939 16bd 61a8 953d 361d b43d
00000050: 5819 013d 7c27 9ebc c316 b33c aba3 af3d
00000060: 96f3 003d 7b3c 59bd 905b 90bd 14dd 0d3d
00000070: 5680 983d f0dc 4f3c 0f86 b4bd 9cd2 bebb
00000080: a297 973d 8022 a1bd 1d9c 12bc 3b3d a8bd
00000090: 03d8 95bc 96a2 2dbc 30c8 953d e01d ae3d
000000a0: 9463 ebbc 9307 663c 5cb8 8abd daab 3cbc
000000b0: e6c3 04bd 7a56 8cbc df89 983c 5188 023c
000000c0: 8190 88bd 3939 373c 56b3 a33d 9d95 a53d
000000d0: 875f 783c fdf2 74bd c035 60bd 0913 8e3d
000000e0: 157d 813d ca7c 563b 0bb3 3e3d 60aa b43d
000000f0: 391d b1bd c7a5 80bd b54b a1bd d792 56bd
00000100: 2972 ef3b 3cf2 61bd 7d08 6abd 263b 8ebc
00000110: 28b8 0dbd 83f8 7bbd 78fd b43c d582 1dbd
00000120: 5d9c b2bc e3c1 adbd f16f 96bd a0b3 a1bd
00000130: eda8 1a3d 4754 883c 625c efbc 938e 953d
00000140: 30b8 63bd 0021 55bd ef8a aebd 619e db3c
00000150: 39b2 973d f2b7 33bd 3f58 0c3c cc6c 48bd
00000160: 512d ef3b fb93 253d 903e 95bd 3b6b 2fbc
00000170: e06c 46bd b894 3abd e724 a9bd 12bc a63a
00000180: fd34 573d fc50 3d3d f0bb 4b3d fd49 23bd
00000190: 4792 403b 2c1d 643c 7ea2 893d fdaf 29b9
000001a0: 4a2b e2bc c868 bc3c f5cb a03d 064c fe3c
000001b0: 374f 203c 7072 a4bd ca97 643d 84c6 27bb
000001c0: 48d3 99bd b47e db3c ee77 56bc c587 b3bd
000001d0: 29b0 933d 1580 4dbd 6e8a 423d 1b94 e0bc
000001e0: 33d8 f6bb 8916 a43d d8d8 b1bd f5df 59bc
000001f0: 4f6d 68bd 9bd7 6a3d 4712 b33c 570b c53c
00000200: ea95 a43c 26fe 303d 2e02 5b3d 1652 b1bd
00000210: 41ca 66bd a901 e4bc 6258 a7bd d9ad d6bc
00000220: d1ed 2a3d d840 a73d ee92 d33c 6f27 70bb
00000230: f9f9 58bc edff 81bd 7fc6 033d aeb4 79bc
00000240: d6dc 35bd 31ee 29bd 23e5 e63c de51 72bd
00000250: 4491 aa3d 03c3 913b 230e b1bd c22e 473a
00000260: 93b7 723d 9969 483d fc8a df3c c328 913c
00000270: 381c f33c 49fe 08bd 1448 a63d ce7a 20bd
00000280: b956 6bbd 735a 88bd cc39 91bd 46f2 9ebc
00000290: f7fc 43bb 33b3 503d 6d79 78bd 5528 833d
000002a0: 474e d13c 5db3 c8bb 8f41 753c 16d4 9f3d
000002b0: 180d b4bd ad1a 9b3d 2dbe 9c3d 12e2 25bd
000002c0: 222e 5f3d b4cd 81bd 61b9 c83c 3d71 5e3d
000002d0: 2e07 9d3c 77ff 3d3d 5469 2c3c 837d 7c3d
000002e0: 0441 90bd 68aa 0cbd bb3b e4bc 4d90 8fbb
000002f0: 7dfb 28bc c3a6 a2bc 5fec 38bd 7b87 e73c
00000300: 8092 97bd 6e4a abbc 69ad 393d 3818 9d3d
00000310: ba32 48bd afe7 253c 0ca7 b93c b26f 98bd
00000320: e9ce 533d fc3d 03bd 7f5c 833d c0ec 033d
00000330: 1f37 643d ccf2 89bd bb32 5abd 6585 71bd
00000340: d789 d83c 8458 bc3c 25cb 5c3d 179c 48bc
00000350: 3a99 d4bc eefe 93bc b57d 843d a61f 4d3c
00000360: c97e 103d 3573 28bd 462f 5f3c fd07 0b3d
00000370: b560 09bd 9360 30bd b083 f83b ea8d b23d
00000380: 099a c9bc 07e1 15bd fd0f 3fbd 9900 fbbc
00000390: 21b5 6dbd c74f 903c b122 453d 1872 423d
000003a0: 7001 afbd ead7 ee3c 5755 a7bd b66c 1dbd
000003b0: 7d2d 85bd ae50 c5bc 8f2d 51bd e6d6 703d
000003c0: c01a e63c 11ea 0ebd a922 5abd c15b e93c
000003d0: bdc0 663c a154 183d ad4c 18bd b85e 883c
000003e0: 988b 973d 9f74 e73c 7891 93bd 8c66 6abd
000003f0: fa21 583b 37b6 09bd 8e8b 44bd d3ef 543d

convs.0.lin_l.bias f4 [256]
-0.039358992 0.02159362 -0.02483433 0.013611028 -0.055898927 -0.061454426 -0.009665436 -0.04349365
-0.017645743 0.059620198 0.03654447 0.01780294 0.07210877 -0.013823226 -0.006534861 0.060013957
0.053980473 0.07390356 0.014663254 0.085699804 0.08598256 0.011968083 0.049106166 -0.039919212
0.04082722 -0.048354343 0.06228394 -0.031434022 -0.086730175 -0.08374928 0.013402968 -0.07778486
0.01621278 -0.04799013 -0.009336964 -0.04422103 -0.030515466 0.012185544 -0.03713424 0.039425887
-0.0020390553 0.053806953 0.024118178 0.0046719923 -0.0617834 0.066731066 -0.017828709 -0.049212508
0.01133812 -0.024047872 -0.08116791 0.06319634 -0.053446103 0.011442512 -0.006144994 -0.06192214
0.006229379 -0.07924893 0.030016953 0.032558717 0.004248547 0.009442227 0.08529502 0.08043696
0.013983568 0.06361479 0.08377045 -0.052512936 0.038736016 -0.041692086 0.06882928 0.0049617114
0.013147593 0.06282563 -0.052907657 -0.076931976 -0.07564384 -0.041153856 0.060341556 0.08814508
-0.080886744 0.077577695 -0.08791513 -0.0030246335 0.017074073 -0.08452641 0.014403258 -0.07594774
0.014877099 -0.027160646 -0.06341758 0.04779523 0.012534142 -0.010681617 0.0021559508 0.033355445
-0.017965322 -0.029169517 0.028930428 -0.016404456 -0.07387832 0.0019595078 -0.07170463 -0.014046267
0.05028806 -0.035197016 0.023569357 0.04317207 0.028832158 0.08062916 0.0788278 0.0587207
0.009452653 0.06759727 0.07072487 -0.07505635 -0.08411248 -0.046863694 0.06623199 -0.04797803
-0.046525642 -0.04321526 0.008319125 -0.046501867 -0.04762046 0.079232424 -0.0021194797 -0.042295378
0.077125125 0.06172259 -0.004645893 -0.086658455 0.022181014 0.058580585 0.025268598 -0.05123726
-0.004674549 0.055824194 0.013761153 -0.020108772 -0.07092408 -0.034117 0.039093297 -0.03774466
-0.06060505 0.054510523 -0.031278905 -0.0077735544 0.07855291 -0.030502068 -0.021987297 -0.0863406
-0.06687881 -0.02572679 -0.06809898 -0.049737673 0.06311045 0.08182446 0.039016522 0.066384315
0.045881473 -0.07468163 0.0021768673 0.08485248 -0.010538304 -0.032209747 -0.082865104 -0.068153426
0.016193166 -0.0050295824 0.006926792 0.06458401 -0.033536237 -0.044803586 -0.025826512 -0.023435853
-0.04037047 -0.05065887 -0.085145645 -0.013956725 0.035883132 -0.017505802 -0.064268045 -0.049495008
-0.00233828 0.07441979 0.07202762 -0.020445889 -0.045308415 0.038679007 0.027306259 -0.08033961
0.08544015 0.01482124 0.06878058 0.08394648 0.024312848 0.054951485 0.030421581 -0.0109629715
-0.059574354 -0.04108106 -0.053663064 0.07686813 0.021001887 -0.00763336 0.052196443 -0.03480569
-0.043503072 -0.08399118 0.016859805 -0.07452439 -0.05902178 -0.060655594 -0.002773293 0.026599031
-0.04324614 -0.05589968 0.004483829 0.05544431 -0.004763666 -0.050992392 -0.06973398 0.07897917
0.03146172 0.058676958 -0.022391237 0.03790844 0.06392335 -0.08713373 0.023292167 0.0151949255
0.029582005 -0.04432359 0.0739007 0.04312426 0.02631367 0.051370524 -0.014999727 -0.029465757
-0.049086753 0.027051335 0.007817513 -0.023244893 0.06981606 0.026490904 0.06203155 -0.053264543
0.08744769 -0.03731187 0.08514852 0.008764192 0.07076178 0.052952264 0.03078298 0.06865781
00000000: e536 21bd 1ae5 b03c 5d71 cbbc ca00 5f3c
00000010: 46f6 64bd a3b7 7bbd c75b 1ebc 6626 32bd
00000020: ce8d 90bc 4f34 743d a7af 153d 79d7 913c
00000030: c3ad 933d d07a 62bc 6322 d6bb 32d1 753d
00000040: a11a 5d3d c05a 973d 253e 703c 6183 af3d
00000050: a017 b03d c715 443c 8c23 493d 5482 23bd
00000060: 713a 273d 340f 46bd 721d 7f3d f6c0 00bd
00000070: 979f b1bd be84 abbd 1f98 5b3c ab4d 9fbd
00000080: aad0 843c 4c91 44bd 11fa 18bc 1c21 35bd
00000090: 92fb f9bc e0a5 473c 131a 18bd 0a7d 213d
000000a0: aca1 05bb ae64 5c3d 7c93 c53c 8317 993b
000000b0: 9710 7dbd 4caa 883d 830d 92bc 0e93 49bd
000000c0: 86c3 393c 0b00 c5bc 5c3b a6bd 156d 813d
000000d0: 4dea 5abd 6079 3b3c f25b c9bb 12a2 7dbd
000000e0: d21f cc3b 434d a2bd 1de6 f53c 4a5c 053d
000000f0: 6537 8b3b 92b3 1a3c 28af ae3d 22bc a43d
00000100: 561b 653c 7948 823d d78f ab3d ce17 57bd
00000110: a8a9 1e3d 52c5 2abd 5ef6 8c3d da95 a23b
00000120: 0069 573c b9aa 803d b3b5 58bd 838e 9dbd
00000130: 28eb 9abd f290 28bd b528 773d 6885 b43d
00000140: f3a7 a5bd 0ee1 9e3d d90c b4bd ee38 46bb
00000150: edde 8b3c 2f1c adbd a5fb 6b3c 7d8a 9bbd
00000160: 13bf 733c 0180 debc 14e1 81bd eec4 433d
00000170: 005c 4d3c f301 2fbc da4a 0d3b b89f 083d
00000180: 032c 93bc e9f4 eebc 81ff ec3c a362 86bc
00000190: 844d 97bd 166b 003b e1d9 92bd 5022 66bc
000001a0: dafa 4d3d bf2a 10bd 8614 c13c 32d5 303d
000001b0: 6b31 ec3c e720 a53d 7870 a13d 1e85 703d
000001c0: 4ddf 1a3c 7070 8a3d 33d8 903d 25b7 99bd
000001d0: 2a43 acbd 25f4 3fbd a3a4 873d 9c84 44bd
000001e0: ac91 3ebd 7c02 31bd f04c 083c be78 3ebd
000001f0: ac0d 43bd 9c44 a23d f8e6 0abb eb3d 2dbd
00000200: c7f3 9d3d d4d0 7c3d 933c 98bb fd79 b1bd
00000210: f5b4 b53c 32f2 6f3d 1700 cf3c 29de 51bd
00000220: f62c 99bb e9a7 643d 7676 613c 27bb a4bc
00000230: a540 91bd 44be 0bbd 4b20 203d 259a 1abd
00000240: 003d 78bd 6d46 5f3d 4f1e 00bd 4db9 febb
00000250: 59e0 a03d 79df f9bc b41e b4bc 57d3 b0bd
00000260: c2f7 88bd fdc0 d2bc 7a77 8bbd bbb9 4bbd
00000270: 0d40 813d 9593 a73d cacf 1f3d 80f4 873d
00000280: 36ee 3b3d aff2 98bd c6a9 0e3b 23c7 ad3d
00000290: daa8 2cbc 5eee 03bd 2eb5 a9bd 0694 8bbd
000002a0: 88a7 843c 32cf a4bb 25fa e23b 9f44 843d
000002b0: 4b5d 09bd f783 37bd 1f92 d3bc 8cfc bfbc
000002c0: 825b 25bd ad7f 4fbd d760 aebd bfaa 64bc
000002d0: 31fa 123d 5468 8fbc f79e 83bd 47bb 4abd
000002e0: d43d 19bb 6769 983d 3883 933d 237e a7bc
000002f0: 5195 39bd e16d 1e3d 60b1 df3c 1889 a4bd
00000300: 3ffb ae3d c9d4 723c d5dc 8c3d 22ec ab3d
00000310: bd2b c73c cf14 613d ae36 f93c 099e 33bc
00000320: 3d04 74bd 9d44 28bd cdcd 5bbd 0a6d 9d3d
00000330: 260c ac3c 4421 fabb f0cb 553d 6990 0ebd
00000340: 4730 32bd 9103 acbd 931d 8a3c 3ea0 98bd
00000350: d2c0 71bd 0072 78bd 23c0 35bb 36e6 d93c
00000360: dd22 31bd 10f7 64bd 15ed 923b 9319 633d
00000370: 8718 9cbb 66dd 50bd b0d0 8ebd d5bf a13d
00000380: 01de 003d 4057 703d d46d b7bc e145 1b3d
00000390: 3fea 823d 2b73 b2bd 37cf be3c 23f4 783c
000003a0: f655 f23c a78c 35bd 4059 973d 10a3 303d
000003b0: c48f d73c e669 523d 6ac1 75bc 2c62 f1bc
000003c0: 310f 49bd c39a dd3c 0715 003c 136c bebc
000003d0: b9fb 8e3d 7403 d93c cb14 7e3d ec2b 5abd
000003e0: c617 b33d 55d4 18bd 5962 ae3d b097 0f3c
000003f0: 8deb 903d 79e4 583d 972c fc3c 779c 8c3d

convs.0.lin_r.weight f4 [256, 128]
-0.016183069 0.030481083 -0.06950955 0.007555504 0.050598577 -0.015842559 0.04997283 0.051608607
-0.012525418 0.07720529 -0.076674275 -0.060455043 0.061418135 -0.05969203 0.073061645 0.027533114
-0.03490653 -0.05727289 -0.045579355 -0.065837055 0.05799225 0.000971714 0.080414645 -0.022557082
-0.039060038 0.07389454 -0.07318791 -0.06807825 0.066931784 -0.01246964 0.06706255 0.022955257
-0.0026812393 -0.070820525 0.07240447 0.05004447 -0.06323839 -0.06721795 -0.010107218 -0.0077072163
0.07606414 0.013476294 -0.05396067 0.009924375 -0.08324325 0.026361601 0.08130749 0.053636372
0.04520155 0.07793225 0.05423109 0.0019148604 0.033870984 -0.061095566 0.06213945 0.044673264
-0.053985957 0.008079984 0.06638743 0.075101584 -0.03748454 0.073784396 0.051675383 0.074849606
0.06569518 -0.07313195 -0.012978052 0.07958634 -0.06609494 0.04884175 -0.035534345 0.03795885
0.032738566 0.056016665 0.007480896 -0.005582792 -0.0118027525 -0.018671248 -0.069639765 0.063322164
-0.01316268 -0.0029530255 -0.06662205 0.06391738 0.017378524 0.07289203 0.016750785 -0.07200117
0.0064510824 -0.015839493 -0.08097152 -0.047591306 0.04698832 -0.00528311 0.070831925 0.0811508
0.046209887 -0.085039146 0.022702381 -0.036766935 -0.0045409044 -0.018881492 -0.03432697 0.0025875655
-0.06299446 0.0645183 0.03975873 -0.030126598 -0.056266412 -0.05513498 -0.0008729129 -0.0215178
-0.056950513 0.051555585 0.039769247 -0.073488325 0.053668465 0.07173159 0.032881137 -0.075451456
-0.07881478 -0.03576213 -0.05279566 -0.016749945 -0.059607353 -0.022351673 0.044228308 -0.016746923
0.07959586 -0.06275222 0.019755676 0.07409652 0.07392807 -0.006075464 -0.038256105 0.07647407
0.022527348 0.081861176 0.0077005103 -0.015801994 0.057221353 -0.07781579 0.06997402 -0.032006674
0.018187428 -0.014976371 0.05418042 -0.055961143 -0.022173904 0.050373614 0.028936684 0.035495367
-0.041717675 0.08171661 0.00047736397 0.029760897 -0.0033060075 0.084823266 -0.08691727 -0.011525978
-0.011586298 0.021806598 0.08399813 -0.07160127 -0.042204477 0.053800065 -0.041556 0.06603306
0.00065919355 -0.021793641 0.007438297 0.056847356 0.008159795 0.06802924 0.04462748 0.004880413
-0.033666957 -0.0387968 0.08675802 -0.08146013 -0.08317875 -0.08103118 -0.08036444 0.065305665
0.0093162125 -0.08696993 -0.028577346 0.02639366 0.014474405 0.061412483 -0.0030271837 -0.07328396
-0.078692585 0.07726066 -0.07144177 0.0042521185 0.016077237 0.046189114 0.029107971 -0.0044507654
0.047629483 -0.053273555 -0.012765481 0.039537452 0.00169492 -0.081497215 -0.04953337 -0.023346119
0.076915145 -0.08441306 -0.071536556 -0.030291645 -0.013159465 0.040478237 -0.08076171 -0.04133333
0.05997228 -0.06266981 0.00887888 -0.00046493212 -0.07084325 -0.033313915 -0.08119391 0.057248875
-0.0070695463 0.0043776943 0.018870313 -0.02085577 0.016258357 -0.046423584 -0.043446943 0.018382734
-0.04884639 -0.022490242 0.07908078 0.014674867 0.0477362 -0.012444674 -0.06508828 -0.06886179
-0.036558937 -0.059661165 -0.00096268445 0.0769287 0.012705756 -0.0039827195 -0.02847748 -0.038879875
0.08251291 -0.06270616 0.019318856 -0.032528933 0.03991641 -0.07350909 -0.031881243 -0.07693477
00000000: 5b92 84bc 77b3 f93c 065b 8ebd 2994 f73b
00000010: 7440 4f3d 41c8 81bc 4fb0 4c3d 8c63 533d
00000020: 6937 4dbc cf1d 9e3d 6707 9dbd b59f 77bd
00000030: 9591 7b3d a17f 74bd 58a1 953d 208d e13c
00000040: 26fa 0ebd fa96 6abd 6bb1 3abd 94d5 86bd
00000050: 4889 6d3d 9fba 7e3a 6fb0 a43d a1c9 b8bc
00000060: 6bfd 1fbd 0556 973d 8be3 95bd 9c6c 8bbd
00000070: 8813 893d 764d 4cbc 1758 893d aa0c bc3c
00000080: bbb7 2fbb 5a0a 91bd cb48 943d 6efb 4c3d
00000090: 2183 81bd 91a9 89bd bf98 25bc d18c fcbb
000000a0: 84c7 9b3d adcb 5c3c dd05 5dbd d999 223c
000000b0: 707b aabd 49f4 d73c 8b84 a63d d0b1 5b3d
000000c0: 4325 393d f29a 9f3d 6b21 5e3d 0efc fa3a
000000d0: 4dbc 0a3d 583f 7abd f085 7e3d 50fb 363d
000000e0: 6120 5dbd e961 043c 22f6 873d dcce 993d
000000f0: 6489 19bd 461c 973d 91a9 533d c04a 993d
00000100: 328b 863d 34c6 95bd e5a1 54bc 2afe a23d
00000110: c95c 87bd 490e 483d 768c 11bd bd7a 1b3d
00000120: e018 063d bb71 653d 4e22 f53b dbef b6bb
00000130: 5560 41bc 72f4 98bc 4b9f 8ebd 0daf 813d
00000140: 48a8 57bc 8c87 41bb 2471 88bd 1ee7 823d
00000150: 685d 8e3c 6b48 953d f138 893c 5975 93bd
00000160: 9a63 d33b d3c1 81bc 65d4 a5bd 1aef 42bd
00000170: d376 403d f01d adbb 5410 913d 6432 a63d
00000180: 9446 3d3d 0129 aebd 58fa b93c ed98 16bd
00000190: decb 94bb 5cad 9abc 709a 0cbd 2594 293b
000001a0: 3d03 81bd 2c22 843d 0dda 223d 0ecc f6bc
000001b0: 9c77 66bd 37d5 61bd 31d4 64ba 1946 b0bc
000001c0: f144 69bd f32b 533d 14e5 223d 0c81 96bd
000001d0: 77d3 5b3d 03e8 923d 5fae 063d 4b86 9abd
000001e0: a569 a1bd 507b 12bd 4340 58bd 2e37 89bc
000001f0: d726 74bd db1a b7bc be28 353d d830 89bc
00000200: 2703 a33d 3c84 80bd a8d6 a13c ebbf 973d
00000210: 9a67 973d b014 c7bb 6fb2 1cbd 709e 9c3d
00000220: 468b b83c d5a6 a73d 9054 fc3b 2f73 81bc
00000230: f060 6a3d e35d 9fbd 8a4e 8f3d 6e19 03bd
00000240: cdfd 943c 745f 75bc 4aec 5d3d 8337 65bd
00000250: 0ca6 b5bc 9054 4e3d a00c ed3c 9763 113d
00000260: 27e0 2abd 0a5b a73d b546 fa39 20cd f33c
00000270: 9aa9 58bb d2b7 ad3d af01 b2bd 75d7 3cbc
00000280: 75d4 3dbc c0a3 b23c 3607 ac3d b0a3 92bd
00000290: 9ade 2cbd 755d 5c3d a036 2abd 573c 873d
000002a0: bbcd 2c3a 9488 b2bc f5bc f33b c6d8 683d
000002b0: a9b0 053c ea52 8b3d 4ecb 363d dfeb 9f3b
000002c0: 5de6 09bd 65e9 1ebd 30ae b13d 92d4 a6bd
000002d0: 9f59 aabd adf3 a5bd 1d96 a4bd fabe 853d
000002e0: 07a3 183c 4a1d b2bd 0a1b eabc 8437 d83c
000002f0: 0e26 6d3c a88b 7b3d b763 46bb e715 96bd
00000300: 9429 a1bd d63a 9e3d 1050 92bd 5b55 8b3b
00000310: 69b4 833c cc30 3d3d d773 ee3c bad7 91bb
00000320: 2217 433d 5f35 5abd 4f26 51bc 06f2 213d
00000330: 1428 de3a 03e8 a6bd 81e3 4abd 5c40 bfbc
00000340: b085 9d3d c1e0 acbd c281 92bd 2f26 f8bc
00000350: cc9a 57bc 82cc 253d 6566 a5bd 234d 29bd
00000360: 7ea5 753d 0859 80bd b978 113c 22c2 f3b9
00000370: 4416 91bd 2c74 08bd fe48 a6bd cc7d 6a3d
00000380: a7a7 e7bb c372 8f3b ea95 9a3c b8d9 aabc
00000390: 3f30 853c a826 3ebd 6cf5 31bd 6397 963c
000003a0: 2713 48bd 753d b8bc 1bf5 a13d da6e 703c
000003b0: 0987 433d bfe4 4bbc 014d 85bd 6907 8dbd
000003c0: d3be 15bd 445f 74bd a95c 7cba cb8c 9d3d
000003d0: ce2b 503c 7981 82bb 9b49 e9bc 8140 1fbd
000003e0: 87fc a83d 166c 80bd 9442 9e3c 0f3d 05bd
000003f0: 647f 233d ef8b 96bd e895 02bd fa8f 9dbd

convs.1.lin_l.weight f4 [64, 256]
0.048339345 -0.013648006 -0.055097803 -0.011507169 0.008754142 0.01804564 0.024743706 0.007339016
0.051772743 -0.04884015 -0.03905536 -0.056911845 0.029896013 -0.0487227 -0.036106225 0.024411615
0.041851237 0.028380705 0.00015591724 -0.002447837 -0.018844767 0.003968348 0.034677535 0.02619983
0.0555286 -0.04646321 0.057049073 -0.033754423 -0.033871196 -0.0450142 0.0019541418 0.016947292
-0.026708305 -0.0552975 -0.06232802 -0.009269393 0.059266206 0.058873825 0.0032860793 -0.044246085
-0.046350867 0.026584726 -0.0043181903 -0.059714183 -0.0052852225 -0.048046395 -0.03338134 -0.060627285
0.0075868545 -0.016784785 -0.008974452 -0.0055513196 -0.021658035 0.019472536 0.026107814 0.0304577
-0.029250426 -0.04011497 -0.03452819 0.046848536 0.04559491 -0.05038544 -0.05298841 0.062341228
-0.014652392 -0.002636592 -0.035602335 0.05296154 -0.05179398 0.046194494 0.018495036 -0.046366807
0.011682346 -0.061090294 -0.046283543 -0.016296802 -0.056878544 0.019775284 -0.058667414 0.008434491
-0.052773237 0.025546717 -0.0016917732 -0.01853509 -0.028717807 -0.03496171 0.01749448 -0.003380114
0.001908088 -0.016993424 -0.037201613 0.006800906 -0.008643443 -0.03685537 -0.055910185 -0.050017957
0.033980004 0.059567757 -0.051342163 0.018898178 0.017868191 -0.059768423 0.008795189 -0.03939664
-0.022092722 0.050052892 0.020646375 0.003840125 -0.026232777 -0.0377519 -0.032472316 -0.04290741
-0.055583805 -0.0061485823 -0.016985515 0.053175032 0.031310104 -0.02759321 0.05557412 0.021786483
-0.032674074 -0.04222792 -0.02024975 -0.034983758 0.008916537 -0.052350886 0.05924135 -0.0026620948
-0.040266894 -0.060214095 -0.033747286 0.0068738502 -0.057787105 -0.04010207 0.023941174 -0.0067113237
0.0021265543 -0.018860348 0.015362155 0.04940394 0.006597823 0.061392233 0.055225424 -0.022673497
0.033662364 -0.054961506 -0.011423665 0.025914619 0.011666835 0.009520726 0.026276862 -0.04333838
-0.023378696 -0.005231997 -0.016248787 0.05126255 -0.03426408 0.00993192 0.04455165 0.051999874
-0.038433094 0.06165973 0.004164276 -0.05059755 0.055494275 0.018743137 -0.05862745 0.02301838
0.005480224 -0.037780724 0.019412559 -0.0027768568 -0.048739143 0.03603457 0.041978326 -0.02550491
-0.008839683 0.021278035 -0.038257804 -0.038384974 0.043374073 -0.042301755 -0.04513009 -0.05157627
0.022390598 -0.0418172 -0.030664306 0.037465993 -0.030699754 0.04753088 -0.035223603 -0.01782354
0.053487364 0.04894787 -0.046283957 0.060493253 0.037366427 -0.04096524 0.032302953 -0.03696589
0.0029874225 0.055146147 -0.0077559534 -0.05114218 -0.018445324 -0.04306801 -0.031952146 0.045578912
0.043146294 0.022073654 -0.014945237 -0.047001336 -0.03357003 -0.058532592 -0.05845568 0.047609378
0.040428046 0.0543852 -0.0028790236 -0.036956765 -0.05795342 -0.016216278 -0.054380186 0.01062308
-0.017804815 0.016407121 -0.026584087 -0.017669877 0.047647033 -0.032514494 -0.03258625 0.04468668
-0.010309661 0.050892845 0.027906332 -0.03376641 0.031653583 -0.060079217 -0.021859987 -0.03441887
-0.04378301 -0.003500782 -0.0076105464 0.039858293 -0.04464281 0.0023561227 0.049519937 0.036044903
0.008025103 -0.0026406513 -0.0325266 -0.013583703 -0.007135559 0.044725858 0.039701533 -0.050535537
00000000: 7aff 453d e39b 5fbc 3cae 61bd 9188 3cbc
00000010: 886d 0f3c 73d4 933c 50b3 ca3c 217c f03b
00000020: a80f 543d 9c0c 48bd 83f8 1fbd 651c 69bd
00000030: 7ce8 f43c 7491 47bd 1fe4 13bd defa c73c
00000040: 346c 2b3d a77e e83c b77d 2339 e46b 20bb
00000050: 5760 9abc ea08 823b 080a 0e3d 07a1 d63c
00000060: f571 633d 3550 3ebd 4aac 693d 1442 0abd
00000070: 86bc 0abd cf60 38bd 0f11 003b 0cd5 8a3c
00000080: 60cb dabc a27f 62bd aa4b 7fbd a7de 17bc
00000090: 1fc1 723d ae25 713d 435b 573b 623b 35bd
000000a0: 68da 3dbd 36c8 d93c 9b7f 8dbb dc96 74bd
000000b0: a92f adbb 4ccc 44bd dfba 08bd 5154 78bd
000000c0: 269b f83b 3f80 89bc 9409 13bc d8e7 b5bb
000000d0: 316c b1bc de84 9f3c 0ee0 d53c 6d82 f93c
000000e0: 979e efbc 984f 24bd 6e6d 0dbd 40e4 3f3d
000000f0: bac1 3a3d f760 4ebd 600a 59bd 8459 7f3d
00000100: 9610 70bc acca 2cbb c1d3 11bd 33ee 583d
00000110: ed25 54bd 7036 3d3d e782 973c 1feb 3dbd
00000120: 5067 3f3c d139 7abd d093 3dbd df80 85bc
00000130: 7af9 68bd c7ff a13c 3e4d 70bd d230 0a3c
00000140: c028 58bd 5947 d13c 7dbe ddba e7d6 97bc
00000150: 9b41 ebbc 0334 0fbd 9550 8f3c e784 5dbb
00000160: cf18 fa3a cb35 8bbc b860 18bd 22da de3b
00000170: 3a9d 0dbc a8f5 16bd 1402 65bd a1df 4cbd
00000180: 9e2e 0b3d 52fd 733d 294c 52bd 5ad0 9a3c
00000190: 5060 923c bccf 74bd b219 103c 5f5e 21bd
000001a0: ccfb b4bc 4304 4d3d 9622 a93c 9baa 7b3b
000001b0: 1fe6 d6bc bca1 1abd b101 05bd aebf 2fbd
000001c0: d8ab 63bd 0c7a c9bb 3525 8bbc 10ce 593d
000001d0: 063f 003d 280b e2bc b0a1 633d 9179 b23c
000001e0: 40d5 05bd 2ff7 2cbd cee2 a5bc 214b 0fbd
000001f0: ab16 123c e26d 56bd 0fa7 723d 8a76 2ebb
00000200: e6ee 24bd 0ea3 76bd 983a 0abd 093e e13b
00000210: 2cb2 6cbd 1142 24bd 4820 c43c aaea dbbb
00000220: a95d 0b3b 0481 9abc 8cb1 7b3c c95b 4a3d
00000230: 8d32 d83b 6c76 7b3d 0e34 623d c5bd b9bc
00000240: 8ce1 093d 511f 61bd 532a 3bbc e54a d43c
00000250: 4126 3f3c d2fc 1b3c 9342 d73c 9683 31bd
00000260: ae84 bfbc 2c71 abbb 2d1c 85bc aef8 513d
00000270: 7e58 0cbd 7eb9 223c ca7b 363d d2fd 543d
00000280: 056c 1dbd ea8e 7c3d 7b74 883b 603f 4fbd
00000290: f74d 633d 358b 993c 5623 70bd 0b91 bc3c
000002a0: 7393 b33b f6bf 1abd 1607 9f3c edfb 35bb
000002b0: b2a2 47bd fc98 133d 77f1 2b3d acef d0bc
000002c0: 51d4 10bc 464f ae3c 37b4 1cbd 9039 1dbd
000002d0: 03a9 313d 9b44 2dbd 54da 38bd a441 53bd
000002e0: 7d6c b73c 8348 2bbd b633 fbbc f175 193d
000002f0: 0d7e fbbc bdaf 423d a046 10bd ac02 92bc
00000300: 9115 5b3d 907d 483d 3f94 3dbd c6c7 773d
00000310: 8a0d 193d 2bcb 27bd 1a50 043d 8c69 17bd
00000320: a2c8 433b ede0 613d a725 febb 767a 51bd
00000330: a61a 97bc 1568 30bd 41e0 02bd f4b0 3a3d
00000340: 2bba 303d cfd3 b43c dedc 74bc 7984 40bd
00000350: ba80 09bd dfbf 6fbd 396f 6fbd 0d02 433d
00000360: e197 253d 04c3 5e3d 00ae 3cbb fa5f 17bd
00000370: 9160 6dbd 00d8 84bc c2bd 5ebd 6d0c 2e3c
00000380: 67db 91bc 3a68 863c dfc6 d9bc 6bc0 90bc
00000390: 8929 433d eb2d 05bd 2979 05bd 6109 373d
000003a0: dae9 28bc 0475 503d d29b e43c a64e 0abd
000003b0: 30a7 013d a015 76bd b713 b3bc cdfa 0cbd
000003c0: d055 33bd 606d 65bb e461 f9bb 7342 233d
000003d0: 61db 36bd 2e69 1a3b 6bd5 4a3d d2a3 133d
000003e0: b97b 033c c70e 2dbb 9d3a 05bd 2e8e 5ebc
000003f0: 68d1 e9bb 7632 373d 139e 223d 5afe 4ebd

convs.1.lin_l.bias f4 [64]
-0.042784624 -0.02102874 0.053922743 0.05606952 -0.035137534 -0.036669403 0.034053773 0.0029389618
-0.02119219 -0.049614523 0.039791755 -0.03789795 -0.0067071463 0.018922962 0.042594176 -0.050874088
-0.054205522 -0.008591219 0.0031174948 -0.056172527 -0.038431477 -0.048386097 -0.013957956 -0.056787316
0.033583026 0.028392775 0.046997778 0.009174906 -0.023056913 -0.04406642 0.009508863 -0.047773376
0.006461393 -0.023405362 0.0586145 0.029016616 0.046127018 -0.0041827196 0.019507775 -0.013357963
0.032119542 0.012677033 -0.025367565 0.041805718 0.034995504 0.050387595 -0.008363382 -0.017990153
0.025291817 -0.05449683 -0.03498383 0.027974227 0.05751767 0.04943315 -0.03964435 -0.015352216
-0.028357854 -0.034452017 -0.010586548 -0.043127738 -0.017926533 -0.02085339 -0.0070043923 -0.018702438
00000000: ee3e 2fbd 7744 acbc 18de 5c3d 27a9 653d
00000010: 60ec 0fbd a832 16bd f87b 0b3d 999b 403b
00000020: 3e9b adbc 9938 4bbd aefc 223d e13a 1bbd
00000030: 9fc7 dbbb 5404 9b3c 3b77 2e3d 5961 50bd
00000040: 9c06 5ebd 2fc2 0cbc e24e 4c3b 2a15 66bd
00000050: 536a 1dbd 8030 46bd e9af 64bc d199 68bd
00000060: 5b8e 093d f797 e83c be80 403d 5852 163c
00000070: dae1 bcbc fe7e 34bd 10cb 1b3c 04ae 43bd
00000080: 18ba d33b 9abc bfbc c215 703d 41b4 ed3c
00000090: afef 3c3d 320f 89bb c5ce 9f3c 5cdb 5abc
000000a0: c88f 033d 55b3 4f3c a4cf cfbc 793c 2b3d
000000b0: 7257 0f3d 3963 4e3d 9106 09bc 1660 93bc
000000c0: c930 cf3c 1138 5fbd 344b 0fbd 352a e53c
000000d0: a697 6b3d 6a7a 4a3d 1d62 22bd dc87 7bbc
000000e0: bb4e e8bc 8f1d 0dbd 3373 2dbc b6a6 30bd
000000f0: aada 92bc bbd4 aabc 1a85 e5bb db35 99bc

convs.1.lin_r.weight f4 [64, 256]
0.060175378 -0.04723444 0.061087426 0.003293545 -0.05562962 0.043170925 0.05902418 0.030993422
0.040227965 0.020985017 0.030598693 -0.032367364 0.029877573 0.031356152 0.020785451 0.004087177
-0.0034713878 0.028548812 0.04322925 -0.052688524 0.01832586 0.03538153 -0.052943986 0.009165369
0.029744482 -0.01947566 0.03154466 0.017132327 -0.02907418 0.016231328 0.0021605324 0.060210925
-0.044257086 -0.061879497 0.017226974 0.03891759 0.050035745 0.0015093753 -0.05902803 -0.04389615
-0.053396724 -0.0519169 -0.028348694 -0.053055204 0.043104045 0.056172337 -0.041243456 -0.012269571
-0.0017231961 3.9391147e-05 0.011738604 0.0168386 0.039351832 -0.022549324 0.048877906 -0.031024514
-0.027018718 -0.005762517 0.029245012 -0.031006036 0.010533473 -0.04638838 -0.032218818 -0.05446276
-0.0007164119 0.013127666 0.022153504 0.04160028 0.037313696 0.0039463467 0.043570362 -0.055234265
0.050345004 0.005855713 0.02122521 -0.01615552 -0.056801632 -0.030784676 -0.016964635 -0.044239704
-0.034241475 -0.0580241 0.04166171 -0.027736034 0.00056503067 0.026215708 -0.028203214 0.03881479
0.022598114 -0.04198761 0.009280367 0.0031140926 0.026160358 -0.03832277 -0.0035321906 -0.043854777
-0.026701702 -0.019339705 -0.019120378 0.009763522 0.022714352 0.051413495 -0.031979542 -0.022072345
0.05970649 0.04834847 0.037950177 -0.022541037 0.022980433 -0.0410616 0.0008104357 -0.04798998
-0.019508304 -0.057164967 0.024190245 0.0103862295 -0.06079855 -0.016155431 0.019939104 0.046356827
-0.054905854 0.055724073 0.0109981345 -0.0035178897 -0.025199153 0.052413467 0.030677404 0.034228235
0.03853269 0.003061097 0.043105863 -0.011982323 0.017808123 0.04369874 -0.020799402 0.054783154
0.0477584 -0.027572671 0.06091123 0.05341844 -0.0094675375 -0.054084428 0.03511516 -0.03720269
0.008719043 -0.055768933 -0.055937447 0.043873385 0.023371952 -0.011532356 0.05641139 -0.047396597
-0.044175927 -0.06225208 0.038491294 -0.023444911 0.024950687 0.059080962 -0.050810695 -0.033328112
-0.018178055 0.026008183 0.04588479 -0.05258663 -0.0058272304 -0.016095724 -0.058406506 0.049808245
0.011339728 0.0070263646 0.011924333 0.021760862 0.012205121 -0.0142835425 -0.048636977 -0.009829438
-0.054522816 0.010603795 -0.022440098 -0.015750097 0.0014543908 0.022722738 0.061555244 -0.02057837
0.0141690215 -0.039472573 0.015102228 -0.018250171 -0.0033341825 0.0036340544 0.024188953 0.057194725
0.009189986 -0.042141102 0.024393577 -0.03272874 0.06165302 -0.024147121 0.05676142 0.01869116
-0.023000691 0.04826811 0.050196286 -0.021452673 -0.044462707 0.037251856 0.036771733 0.060874224
0.06049519 -0.053133503 0.043650303 0.0063839653 0.030407865 0.032274436 0.0046364306 0.056366906
0.007786107 0.025252627 0.047165044 0.048497282 0.03861047 0.0019768681 0.060186885 0.05852684
0.022807272 0.05276945 0.035665784 0.02615957 0.035998058 -0.0075351526 0.019945942 -0.051163524
-0.059899565 0.012551832 0.02749483 0.039183415 7.245338e-05 0.048164714 -0.032728583 0.0034016746
0.0036699658 0.012862787 -8.43701e-05 -0.040255845 0.025646519 -0.0446747 0.04206325 -0.05991065
0.058230348 -0.02291429 -0.014112116 -0.050593503 -0.00021756902 -0.02664039 0.0033617285 -0.0132867275
00000000: 757a 763d e678 41bd cf36 7a3d 84d8 573b
00000010: e2db 63bd ffd3 303d 57c3 713d ebe5 fd3c
00000020: 14c6 243d c5e8 ab3c 1caa fa3c a493 04bd
00000030: d0c1 f43c 4f6f 003d 4046 aa3c baed 853b
00000040: 3980 63bb 33df e93c 2711 313d eccf 57bd
00000050: 1d20 963c 39ec 103d cbdb 58bd 582a 163c
00000060: b3aa f33c 6b8b 9fbc f934 013d 1859 8c3c
00000070: fa2c eebc 90f7 843c b897 0d3b bb9f 763d
00000080: eb46 35bd 5b75 7dbd 951f 8d3c 0d68 1f3d
00000090: 48f2 4c3d 3bd6 c53a 60c7 71bd 73cc 33bd
000000a0: 86b6 5abd d1a6 54bd 853b e8bc 6a50 59bd
000000b0: de8d 303d f714 663d e6ee 28bd 5006 49bc
000000c0: dedc e1ba ec37 2538 4653 403c 1bf1 893c
000000d0: 632f 213d 5cb9 b8bc 3334 483d 1f27 febc
000000e0: 5c56 ddbc 7fd3 bcbb 3c93 ef3c 5f00 febc
000000f0: 9794 2c3c be01 3ebd e1f7 03bd 5814 5fbd
00000100: 97cd 3bba 6c15 573c 447b b53c 0e65 2a3d
00000110: 3fd6 183d 5b50 813b d676 323d 533d 62bd
00000120: 9036 4e3d 48e1 bf3b 7ee0 ad3c 9558 84bc
00000130: d4a8 68bd 2530 fcbc 6bf9 8abc b134 35bd
00000140: ca40 0cbd aeaa 6dbd 78a5 2a3d ae36 e3bc
00000150: 911e 143a 53c2 d63c 6d0a e7bc 42fc 1e3d
00000160: ae1f b93c 33fb 2bbd ae0c 183c ce15 4c3b
00000170: 3f4e d63c 56f8 1cbd 537c 67bb 11a1 33bd
00000180: 87bd dabc 4d6e 9ebc 57a2 9cbc 2ef7 1f3c
00000190: 7313 ba3c f596 523d fbfc 02bd 10d1 b4bc
000001a0: cb8e 743d 0c09 463d a571 1b3d fba7 b8bc
000001b0: 7641 bc3c 3530 28bd 6b73 543a 2491 44bd
000001c0: e1cf 9fbc d025 6abd 9f2a c63c 012b 2a3c
000001d0: e607 79bd 6558 84bc 5557 a33c a8e0 3d3d
000001e0: f6e4 60bd ed3e 643d 8531 343c 658c 66bb
000001f0: 746e cebc 81af 563d 2e4f fb3c e832 0c3d
00000200: 74d4 1d3d b09c 483b c68f 303d 8151 44bc
00000210: 57e2 913c 73fd 323d 8263 aabc 4d64 603d
00000220: 509e 433d 15e0 e1bc 0e7e 793d 4bcd 5a3d
00000230: bb1d 1bbc a287 5dbd ead4 0f3d d961 18bd
00000240: 51da 0e3c f76d 64bd aa1e 65bd 94b4 333d
00000250: 8976 bf3c 35f2 3cbc a10f 673d ef22 42bd
00000260: d1f1 34bd 09fc 7ebd 0ca9 1d3d 8b0f c0bc
00000270: 6265 cc3c e1fe 713d e01e 50bd 0f83 08bd
00000280: 25ea 94bc 1d0f d53c b1f1 3b3d 1465 57bd
00000290: 5af2 bebb 2edb 83bc a93b 6fbd bb03 4c3d
000002a0: 44ca 393c 6b3d e63b 475e 433c d643 b23c
000002b0: fdf7 473c 8505 6abc 9137 47bd a70b 21bc
000002c0: 5153 5fbd 8abb 2d3c 4cd4 b7bc 5906 81bc
000002d0: 42a1 be3a 0925 ba3c 5a21 7c3d f893 a8bc
000002e0: 2f25 683c fead 21bd 566f 773c 6281 95bc
000002f0: 4d82 5abb 5129 6e3b e927 c63c 0445 6a3d
00000300: 9891 163c 269c 2cbd 0ad5 c73c 920e 06bd
00000310: e187 7c3d 2fd0 c5bc aa7e 683d 341e 993c
00000320: f26b bcbc c8b4 453d 9f9a 4d3d 84bd afbc
00000330: 871e 36bd 6795 183d f59d 163d 4057 793d
00000340: cec9 773d 84a2 59bd a9ca 323d 9530 d13b
00000350: ea19 f93c 3332 043d 33ed 973b fce0 663d
00000360: 9922 ff3b 99de ce3c 2230 413d 16a5 463d
00000370: 0326 1e3d 588e 013b 8686 763d d7b9 6f3d
00000380: 51d6 ba3c c724 583d 4916 123d 984c d63c
00000390: b372 133d 71e9 f6bb ac65 a33c d890 51bd
000003a0: 3f59 75bd 33a6 4d3c d63c e13c ca7e 203d
000003b0: 1df2 9738 5d48 453d 680e 06bd a1ee 5e3b
000003c0: cf83 703b 70be 523c daef b0b8 50e3 24bd
000003d0: a618 d23c d1fc 36bd 844a 2c3d df64 75bd
000003e0: f282 6e3d c0b6 bbbc 8136 67bc 223b 4fbd
000003f0: 3d23 64b9 f23c dabc 7250 5c3b 93b0 59bc

bns.0.weight f4 [256]
0.9999897 1.0000459 0.99997437 0.9999311 1.0000309 1.0000176 0.99998313 0.9999546
0.9999983 1.0000046 0.9999844 0.9999822 1.0000428 1.0000088 1.0000149 0.99999505
0.9999767 1.0000136 1.0000048 0.9999943 0.99999416 0.99997514 0.9999934 0.9999755
1.0000124 1.0000033 1.0000064 0.9999929 0.9999572 1.0000176 1.0000212 0.9999726
0.9999774 0.99988145 0.9999649 0.99997765 0.99998903 1.0000072 0.99999976 0.99998325
0.9999908 1.000045 1.0000027 1.0000007 1.0000031 0.9999784 0.9999974 0.99996805
0.9999716 1.0000376 1.0000265 0.99999404 1.000014 1.000012 0.9999598 0.999991
0.99998546 1.0000253 1.000016 0.9999975 1.0000054 1.0000032 0.9999523 1.0000561
0.9999644 1.0000103 0.9999749 0.9999823 1.0000098 1.0000112 1.0000008 1.0000038
0.99999887 1.0000122 0.99996644 1.0000255 0.9999795 1.0000145 0.9999885 0.9999775
0.9999875 0.9999926 0.99999046 0.9999819 1.0000196 0.9999966 0.9999754 1.0000137
0.999941 0.9999974 1.0000209 0.99995995 0.99997115 1.0000076 0.9999676 0.9999944
1.0000079 0.99999464 0.99998826 0.9999942 0.999981 0.9999876 1.0000414 0.99999285
0.99995387 1.0000236 0.9999786 0.9999993 0.9999474 1.0000197 1.0000029 1.0000291
1.0000132 1.0000015 1.000007 1.0000148 0.9999626 1.000023 1.0000247 1.0
0.9999839 0.9999604 1.0000283 0.99998456 1.0000007 0.99998266 1.0000086 1.0000105
0.99999374 0.9999747 0.99997747 1.0000124 1.0000145 0.99995685 1.0000304 1.0000213
0.9999901 0.999997 0.9999835 1.0000197 1.0000247 1.0000104 1.0000256 0.9999841
0.9999965 1.0000018 1.0000169 1.0000213 1.0000027 1.0000043 0.9999705 1.0000218
1.0000188 0.999991 0.9999959 0.99998355 0.99999523 0.9999751 1.000029 1.0000111
0.99998415 1.0000144 0.999986 0.999963 1.0000037 0.99998194 0.99996763 1.0000256
1.0000175 1.0000087 1.0000181 0.9999988 1.000034 0.999994 1.0000013 1.0000322
0.9999567 1.0000017 0.9999973 0.9999883 0.99999833 0.9999938 0.99999636 1.0000116
1.0000045 0.9999939 0.9999717 1.0000358 0.99996215 0.999976 1.0000013 0.99999255
1.0000404 0.99999636 1.0000099 1.0000241 0.99999136 0.9999719 0.9999436 1.0000241
1.0000201 1.0000143 0.9999526 0.99998945 0.99998015 1.0000093 0.9999634 0.999973
1.0000154 1.0000116 0.99995905 0.99989617 0.99997157 0.99998003 1.0000203 1.0000099
1.0000082 0.9999963 1.0000021 0.9999927 1.0000207 1.0000163 1.0000006 0.9998861
0.9999993 1.0000052 1.0000005 0.99999094 1.0000281 0.99999183 1.0000215 0.9999733
1.0000081 0.99998003 1.0000013 1.0000011 0.999989 0.999971 1.0000173 1.0000029
1.0000141 1.0000075 1.0000156 1.0000267 1.000016 0.9999686 1.0000157 0.9999582
1.0000277 1.0000066 0.99999833 0.99996394 0.9999767 0.9999801 0.99998933 0.99999326
00000000: 53ff 7f3f 8101 803f 52fe 7f3f 7cfb 7f3f
00000010: 0301 803f 9400 803f e5fe 7f3f 06fd 7f3f
00000020: e3ff 7f3f 2700 803f fafe 7f3f d5fe 7f3f
00000030: 6701 803f 4a00 803f 7d00 803f adff 7f3f
00000040: 79fe 7f3f 7200 803f 2800 803f a0ff 7f3f
00000050: 9eff 7f3f 5ffe 7f3f 91ff 7f3f 65fe 7f3f
00000060: 6800 803f 1c00 803f 3600 803f 89ff 7f3f
00000070: 32fd 7f3f 9400 803f b200 803f 34fe 7f3f
00000080: 85fe 7f3f 3bf8 7f3f b3fd 7f3f 89fe 7f3f
00000090: 48ff 7f3f 3c00 803f fcff 7f3f e7fe 7f3f
000000a0: 66ff 7f3f 7901 803f 1700 803f 0600 803f
000000b0: 1a00 803f 96fe 7f3f d4ff 7f3f e8fd 7f3f
000000c0: 24fe 7f3f 3b01 803f de00 803f 9cff 7f3f
000000d0: 7500 803f 6500 803f 5efd 7f3f 69ff 7f3f
000000e0: 0cff 7f3f d400 803f 8600 803f d6ff 7f3f
000000f0: 2d00 803f 1b00 803f e0fc 7f3f d701 803f
00000100: abfd 7f3f 5600 803f 5bfe 7f3f d7fe 7f3f
00000110: 5200 803f 5e00 803f 0700 803f 2000 803f
00000120: edff 7f3f 6600 803f cdfd 7f3f d600 803f
00000130: a8fe 7f3f 7a00 803f 3fff 7f3f 87fe 7f3f
00000140: 2eff 7f3f 84ff 7f3f 60ff 7f3f d0fe 7f3f
00000150: a400 803f c7ff 7f3f 63fe 7f3f 7300 803f
00000160: 22fc 7f3f d4ff 7f3f af00 803f 60fd 7f3f
00000170: 1cfe 7f3f 4000 803f e0fd 7f3f a2ff 7f3f
00000180: 4200 803f a6ff 7f3f 3bff 7f3f 9fff 7f3f
00000190: c1fe 7f3f 30ff 7f3f 5b01 803f 88ff 7f3f
000001a0: fafc 7f3f c600 803f 99fe 7f3f f4ff 7f3f
000001b0: 8efc 7f3f a500 803f 1800 803f f400 803f
000001c0: 6f00 803f 0d00 803f 3b00 803f 7c00 803f
000001d0: 8dfd 7f3f c100 803f cf00 803f 0000 803f
000001e0: f2fe 7f3f 68fd 7f3f ed00 803f fdfe 7f3f
000001f0: 0600 803f ddfe 7f3f 4800 803f 5800 803f
00000200: 97ff 7f3f 58fe 7f3f 86fe 7f3f 6800 803f
00000210: 7a00 803f 2cfd 7f3f ff00 803f b300 803f
00000220: 5aff 7f3f ceff 7f3f ebfe 7f3f a500 803f
00000230: cf00 803f 5700 803f d700 803f f5fe 7f3f
00000240: c5ff 7f3f 0f00 803f 8e00 803f b300 803f
00000250: 1700 803f 2400 803f 11fe 7f3f b700 803f
00000260: 9e00 803f 69ff 7f3f bbff 7f3f ecfe 7f3f
00000270: b0ff 7f3f 5efe 7f3f f300 803f 5d00 803f
00000280: f6fe 7f3f 7900 803f 15ff 7f3f 93fd 7f3f
00000290: 1f00 803f d1fe 7f3f e1fd 7f3f d700 803f
000002a0: 9300 803f 4900 803f 9800 803f ecff 7f3f
000002b0: 1d01 803f 9bff 7f3f 0b00 803f 0e01 803f
000002c0: 2afd 7f3f 0e00 803f d3ff 7f3f 3cff 7f3f
000002d0: e4ff 7f3f 98ff 7f3f c3ff 7f3f 6100 803f
000002e0: 2600 803f 9aff 7f3f 25fe 7f3f 2c01 803f
000002f0: 85fd 7f3f 6dfe 7f3f 0b00 803f 83ff 7f3f
00000300: 5301 803f c3ff 7f3f 5300 803f ca00 803f
00000310: 6fff 7f3f 29fe 7f3f 4efc 7f3f ca00 803f
00000320: a900 803f 7800 803f e5fc 7f3f 4fff 7f3f
00000330: b3fe 7f3f 4e00 803f 9afd 7f3f 3bfe 7f3f
00000340: 8100 803f 6100 803f 51fd 7f3f 32f9 7f3f
00000350: 23fe 7f3f b1fe 7f3f aa00 803f 5300 803f
00000360: 4500 803f c2ff 7f3f 1200 803f 86ff 7f3f
00000370: ae00 803f 8900 803f 0500 803f 89f8 7f3f
00000380: f4ff 7f3f 2c00 803f 0400 803f 68ff 7f3f
00000390: ec00 803f 77ff 7f3f b400 803f 40fe 7f3f
000003a0: 4400 803f b1fe 7f3f 0b00 803f 0900 803f
000003b0: 47ff 7f3f 19fe 7f3f 9100 803f 1800 803f
000003c0: 7600 803f 3f00 803f 8300 803f e000 803f
000003d0: 8600 803f f1fd 7f3f 8400 803f 43fd 7f3f
000003e0: e800 803f 3700 803f e4ff 7f3f a3fd 7f3f
000003f0: 79fe 7f3f b2fe 7f3f 4dff 7f3f 8fff 7f3f

bns.0.bias f4 [256]
-5.6089066e-06 2.822457e-05 -2.1770393e-05 -4.7172867e-05 1.5014935e-05 2.5216275e-05 -1.7436983e-05 -3.4153316e-05
-9.615364e-06 6.217666e-06 -1.9572963e-05 -1.3904486e-05 3.2354925e-05 3.457118e-06 1.1845548e-05 3.1331087e-06
-1.0454081e-05 5.7664415e-06 5.3406434e-06 -4.0024356e-06 -1.0270683e-05 -6.098797e-06 -3.1626337e-06 -2.3889985e-05
7.3827186e-06 -5.920311e-06 1.5323545e-05 8.533409e-06 -3.6732297e-05 4.2868567e-07 1.9948227e-05 -3.5206576e-05
-1.8185674e-05 -7.3283314e-05 -3.0628446e-05 -1.6463526e-05 -1.4661826e-05 1.4069308e-05 -8.4269334e-07 -1.8649931e-05
-1.60563e-05 3.663441e-05 1.126952e-05 3.545472e-07 6.7995693e-06 -1.6054755e-05 -1.5146008e-05 -3.5181045e-05
-4.0791543e-05 2.8667535e-05 2.3045877e-05 -3.3406818e-06 1.8276616e-05 1.1287187e-05 -2.5864265e-05 -1.624555e-05
-9.863872e-06 1.989606e-05 8.597097e-06 -1.003431e-05 5.9070653e-06 5.2322684e-07 -3.653176e-05 3.1480657e-05
-2.8332051e-05 1.174564e-05 -3.0214109e-05 -1.3757604e-05 8.645811e-06 3.352126e-06 1.4812332e-07 -2.1875212e-06
-4.3130876e-06 1.1373283e-05 -1.8091014e-05 1.40034745e-05 -1.7527362e-05 1.5960268e-05 -1.0796179e-05 -2.1473006e-05
-7.998639e-06 -7.8921585e-06 -1.48282525e-05 -2.1342665e-05 1.1326517e-05 -1.1681819e-05 -1.3009906e-05 2.4390538e-05
-2.4535691e-05 -1.7732939e-06 6.066497e-06 -2.2007593e-05 -1.4010948e-05 1.656296e-05 -2.4542122e-05 -3.5971746e-06
5.649545e-06 -6.5939066e-06 -9.85652e-06 7.8631854e-07 -2.1706e-05 -6.11029e-06 1.7808161e-05 -1.3292096e-05
-2.8751447e-05 1.66337e-05 -9.8792525e-06 -4.394773e-06 -2.1124295e-05 1.7322782e-05 5.9579033e-06 3.591229e-05
4.593575e-06 1.1345538e-05 2.293769e-07 8.646421e-06 -3.2302945e-05 2.1857702e-05 2.267964e-05 9.527764e-06
-1.4467043e-05 -2.5784524e-05 1.8501098e-05 -1.0872736e-05 -7.891626e-06 -1.4877782e-05 3.7115933e-06 7.1487693e-06
-9.937726e-06 -1.886455e-05 -2.2126225e-05 1.0124722e-05 1.22709025e-05 -2.9402738e-05 2.1395077e-05 1.1712312e-05
-1.1389325e-05 -4.016484e-06 -1.3628713e-05 8.545532e-06 1.5549576e-05 2.819027e-06 1.8144678e-05 -2.4413119e-05
-5.8220858e-06 4.7231083e-06 1.0972765e-05 1.8828661e-05 1.0775461e-05 1.0150937e-05 -2.2756929e-05 1.904221e-05
1.4166934e-05 -1.8721951e-06 -7.3423544e-06 -1.0477185e-05 -5.782261e-06 -1.5681893e-05 1.4162772e-05 1.0349068e-05
-7.032024e-06 1.3753463e-05 -1.3568837e-05 -3.2055323e-05 6.0985863e-06 -2.4334873e-05 -1.3949681e-05 3.5612302e-05
1.5701218e-05 1.5672205e-05 9.90074e-06 -1.2398443e-05 3.1104795e-05 -1.0574091e-05 1.7992532e-05 2.420736e-05
-2.8244787e-05 3.0627334e-06 -9.415711e-06 -2.5393222e-06 -1.4185485e-07 2.770927e-06 -2.252682e-08 2.1334301e-05
8.5943e-06 -1.1157208e-05 -2.4827103e-05 2.9805906e-05 -3.4678164e-05 -7.3353194e-06 -9.889154e-07 -1.16294e-05
3.0829717e-05 1.1422056e-05 -4.9753235e-06 1.9051824e-05 2.9444584e-06 -2.8469743e-05 -3.9237817e-05 2.8459104e-05
2.755511e-05 1.5120959e-05 -3.554317e-05 -5.474022e-06 -1.526454e-05 1.3573415e-06 -3.8569953e-05 -1.45523045e-05
1.4497469e-05 2.3760558e-06 -2.648988e-05 -8.263658e-05 -2.1556434e-05 -2.6366492e-05 1.2764049e-05 9.078879e-06
5.904251e-06 -6.0117136e-06 1.4717212e-05 -1.0822634e-05 1.4014995e-05 1.0597003e-05 -6.3098996e-06 -7.802049e-05
-2.683548e-06 3.3453994e-06 1.856291e-06 -2.818154e-05 2.5515724e-06 -3.3720735e-06 1.603436e-05 -3.2939184e-05
9.340177e-06 -1.7527933e-05 5.8925e-06 -2.7876279e-06 -8.065621e-06 -2.1451564e-05 9.790632e-06 -6.088091e-06
1.1692102e-05 9.876237e-07 9.84045e-06 3.566385e-05 1.689262e-05 -1.9192405e-05 1.4658981e-05 -2.4528066e-05
1.986388e-05 -3.883488e-06 -2.871892e-07 -2.8713292e-05 -1.8227582e-05 -1.569964e-05 -6.395228e-06 -1.2795791e-06
00000000: 2434 bcb6 cdc3 ec37 909f b6b7 7bdb 45b8
00000010: a8e8 7b37 8a87 d337 a345 92b7 d83f 0fb8
00000020: ad51 21b7 58a1 d036 9e30 a4b7 5047 69b7
00000030: d6b4 0738 d600 6836 3ebc 4637 6642 5236
00000040: f063 2fb7 5b7d c136 c733 b336 a94c 86b6
00000050: 3f50 2cb7 44a4 ccb6 a23d 54b6 5a67 c8b7
00000060: 12b9 f736 16a7 c6b6 108b 8037 b62a 0f37
00000070: 0111 1ab8 1c26 e634 7e56 a737 c6aa 13b8
00000080: 708d 98b7 aeaf 99b8 0b77 00b8 271b 8ab7
00000090: 10fc 75b7 380b 6c37 7235 62b5 6c72 9cb7
000000a0: a4b0 86b7 e6a7 1938 3812 3d37 9958 be34
000000b0: db27 e436 53ad 86b7 9c1b 7eb7 5c8f 13b8
000000c0: 9617 2bb8 107b f037 a552 c137 7a30 60b6
000000d0: bc50 9937 195e 3d37 16f7 d8b7 0e47 88b7
000000e0: 027d 25b7 77e6 a637 403c 1037 0959 28b7
000000f0: 4e35 c636 e073 0c35 ae39 19b8 190a 0438
00000100: 9eaa edb7 240f 4537 4e74 fdb7 76d0 66b7
00000110: 7a0d 1137 16f5 6036 d40b 1f34 54cd 12b6
00000120: 24b9 90b6 e1cf 3e37 28c2 97b7 77f0 6a37
00000130: b907 93b7 6ae2 8537 3c21 35b7 ee20 b4b7
00000140: e531 06b7 9068 04b7 dcc6 78b7 0609 b3b7
00000150: 0507 3e37 08fd 43b7 1f45 5ab7 489a cc37
00000160: ffd1 cdb7 ea01 eeb5 d08e cb36 f29c b8b7
00000170: 9010 6bb7 b0f0 8a37 cedf cdb7 fd66 71b6
00000180: 3991 bd36 3a41 ddb6 6e5d 25b7 6613 5335
00000190: 4815 b6b7 fe06 cdb6 bc62 9537 1e01 5fb7
000001a0: 432f f1b7 9988 8b37 11bf 25b7 d076 93b6
000001b0: 1434 b1b7 6450 9137 00ea c736 87a0 1638
000001c0: 8222 9a36 b758 3e37 a44a 7634 1810 1137
000001d0: 067d 07b8 0f5b b737 2840 be37 6fd9 1f37
000001e0: 7ab7 72b7 d84b d8b7 ce32 9b37 0c6a 36b7
000001f0: 4766 04b7 969b 79b7 b014 7936 76df ef36
00000200: 35ba 26b7 503f 9eb7 b59b b9b7 5add 2937
00000210: 20df 4d37 e6a5 f6b7 9479 b337 ff7f 4437
00000220: c714 3fb7 56c5 86b6 e0a6 64b7 c85e 0f37
00000230: 7670 8237 842e 3d36 6635 9837 c6ca ccb7
00000240: 565b c3b6 317b 9e36 ab17 3837 3ef2 9d37
00000250: 41c8 3437 f14d 2a37 22e6 beb7 d6bc 9f37
00000260: 85ae 6d37 2248 fbb5 585e f6b6 2bc7 2fb7
00000270: 3e05 c2b6 9c8c 83b7 a49c 6d37 e9a0 2d37
00000280: a0f4 ebb6 acbe 6637 b6a5 63b7 2473 06b8
00000290: 75a2 cc36 be22 ccb7 6c09 6ab7 6b5e 1538
000002a0: 1cb6 8337 ce77 8337 5b1b 2637 e802 50b7
000002b0: 8576 0238 6067 31b7 abee 9637 e910 cb37
000002c0: 38ef ecb7 5c89 4d36 2cf8 1db7 3969 2ab6
000002d0: c450 18b4 2af4 3936 0081 c1b2 10f7 b237
000002e0: 3d30 1037 d82f 3bb7 cc43 d0b7 b207 fa37
000002f0: 6573 11b8 ea21 f6b6 e0ba 84b5 e51b 43b7
00000300: 284f 0138 5ba1 3f37 b4f1 a6b6 7bd1 9f37
00000310: 6999 4536 4fd2 eeb7 4993 24b8 76bb ee37
00000320: 2626 e737 06b0 7d37 3014 15b8 7ead b7b6
00000330: 5a0c 80b7 e62d b635 2cc6 21b8 ac25 74b7
00000340: 283a 7337 5474 1f36 9636 deb7 2d4d adb8
00000350: 17d4 b4b7 9c2d ddb7 2c25 5637 7d51 1837
00000360: 211d c636 3ab8 c9b6 f2e9 7637 dc92 35b7
00000370: f221 6b37 c8c9 3137 a0b9 d3b6 ee9e a3b8
00000380: 0117 34b6 8681 6036 ac25 f935 6567 ecb7
00000390: ae3b 2b36 c84b 62b6 8781 8637 2e28 0ab8
000003a0: c1b3 1c37 f308 93b7 31b8 c536 1513 3bb6
000003b0: 9451 07b7 e2f2 b3b7 7242 2437 4e48 ccb6
000003c0: 3229 4437 7e8e 8435 6918 2537 c495 1538
000003d0: a0b4 8d37 60ff a0b7 d8ef 7537 9fc1 cdb7
000003e0: 5ca1 a637 e84e 82b6 fc2e 9ab4 53dd f0b7
000003f0: 6fe7 98b7 b8b2 83b7 9796 d6b6 01be abb5
