output/dmd/prev_e2v/run_005/prev_dmd_best_model_e2v.pth (torch, 207541 bytes, 14 tensors)

convs.0.lin_l.weight f4 [256, 32]
0	0x3ce5bc5f	0.028043924
1	0xbdba2217	-0.09088533
2	0xbc4e2b09	-0.012583503
3	0xbe213a43	-0.15744881
4	0x3d9f7998	0.07786864
5	0xbc95e70d	-0.01829865
6	0xbd182b39	-0.037150595
7	0xbe396873	-0.1810625
8	0xbd4ce7f1	-0.050025884
9	0xbe3f4fa7	-0.18682729
10	0x3e354eb4	0.17705804
11	0xbdbc40ea	-0.09192069
12	0xbdf7f106	-0.121065184
13	0x3d07cc6a	0.03315393
14	0xbd14d5f5	-0.036336858
15	0xbcfcd364	-0.030862518
16	0xbd48dd94	-0.04903944
17	0x3d8dfcad	0.0693296
18	0x3dc286cb	0.09498366
19	0x3d9248cb	0.071427904
20	0x3e07e61a	0.1327137
21	0x3c89538b	0.01676347
22	0x3e100c0d	0.14067097
23	0xbc3cf460	-0.011532873
24	0x3e0c4598	0.13698423
25	0xbd913884	-0.070908576
26	0x3d9c4e70	0.07632148
27	0xbe06a81e	-0.13150069
28	0xbd95b29d	-0.073094584
29	0xbdf3aa50	-0.11897719
30	0xbe0f8031	-0.14013745
31	0x3dab9a49	0.08379037
32	0xbe32d900	-0.17465591
33	0x3dbda453	0.09259858
34	0x3e296e41	0.16545965
35	0xbe09aed3	-0.13445596
36	0xbc265060	-0.010150999
37	0x3c40d304	0.01176906
38	0x3e062400	0.1309967
39	0xba83aea7	-0.0010046557
40	0x3d1cadcf	0.038251694
41	0x3e049b54	0.12949878
42	0xbd91ac90	-0.07112992
43	0xbc906420	-0.017625868
44	0xbd9861d0	-0.07440531
45	0x3cf25d3f	0.029585479
46	0xbd032651	-0.032018963
47	0xbd8d790d	-0.06907854
48	0x3dc1cfaf	0.094634406
49	0x3d53805e	0.051636092
50	0xbdb5f273	-0.08884134
51	0x3dceeb70	0.101035
52	0x3ce0a61c	0.027422957
53	0xbc81ba83	-0.015836006
54	0x3dffc206	0.12488179
55	0x3d2389ec	0.039926454
56	0xbbc9ba9b	-0.0061562783
57	0x3e1fda13	0.15610532
58	0xbd816987	-0.06318956
59	0xbcfc0ecb	-0.030768773
60	0x3dae254e	0.08503209
61	0xbd52bcaa	-0.051449455
62	0x3e2df453	0.16987734
63	0x3dc94218	0.098270595
64	0xbe092f97	-0.1339706
65	0x3e1ae1f0	0.15125251
66	0xbd0c7560	-0.034291625
67	0x3e025844	0.12728983
68	0x3e17a06a	0.14807287
69	0x3e255099	0.16144027
70	0xbcc3a0ee	-0.023880448
71	0x3ddf305f	0.10897898
72	0x3e1354f5	0.14387877
73	0x3e19b63a	0.1501092
74	0xbe183d8f	-0.14867233
75	0x3cec7d61	0.02886838
76	0x3dd28eba	0.10281129
77	0xbe0420d1	-0.12903143
78	0xbdb7cc31	-0.08974493
79	0x3d03dc02	0.032192238
80	0xbd935bcc	-0.07195243
81	0xbe11c9fb	-0.14237206
82	0xbdfc67ed	-0.1232451
83	0xbe0f5b2f	-0.13999628
84	0x3e1505ee	0.14553043
85	0xbd5a79f1	-0.05333895
86	0xbc2ab340	-0.010418713
87	0xbd8343ff	-0.064094536
88	0xbe27c5b8	-0.16384017
89	0x3d0b4415	0.034000475
90	0xbddaf6ad	-0.10691581
91	0x3e1e5c02	0.15464786
92	0xbd964597	-0.07337492
93	0xbc3ec1ed	-0.011642915
94	0xbe22a76b	-0.15884177
95	0xbd90c909	-0.070695944
96	0xbcfa54dd	-0.030558044
97	0x39aac10e	0.00032568764
98	0xbd9ef2f3	-0.07761183
99	0x3deec514	0.116586834
100	0xbdf1acbf	-0.11800527
101	0x3d3d32d6	0.04619106
102	0xbd952d88	-0.07284075
103	0x3e0afb8f	0.13572524
104	0xbd4512fd	-0.04811381
105	0xbe0dd57c	-0.13850969
106	0x3c8314df	0.016001163
107	0x3ce10a08	0.027470604
108	0xbd1aefd8	-0.03782639
109	0xbd087aa5	-0.033320088
110	0xbdcf0316	-0.101080105
111	0xbd9a9933	-0.07548752
112	0xbd99c3ae	-0.07508026
113	0x3dbbc40a	0.09168251
114	0x3e2209c8	0.15824044
115	0x3cae2148	0.021256104
116	0xbe0d8ac3	-0.13822465
117	0x3d9eee4a	0.07760294
118	0xbd88d533	-0.066812895
119	0xbd8aea69	-0.067829914
120	0x3da89448	0.082314074
121	0xbdaba057	-0.08380192
122	0xbcc2a2a7	-0.0237592
123	0xbd987fda	-0.07446261
124	0x3e024c46	0.12724409
125	0xbe3258c2	-0.17416671
126	0x3df3f92a	0.11912759
127	0x3e077ee5	0.13232
128	0xbdd6087b	-0.10450836
129	0xbd53adb8	-0.051679343
130	0xbe44ff1f	-0.19237946
131	0x3d829f1b	0.06378003
132	0x3da761fa	0.081729844
133	0x3e01f818	0.12692297
134	0xbe0d099a	-0.13773194
135	0xbd39cf7d	-0.045363892
136	0xbd72a549	-0.05923966
137	0xbdceca69	-0.100972004
138	0x3d901002	0.07034303
139	0x3da6d88e	0.08146773
140	0xbdb056c5	-0.086103
141	0x3d0fc003	0.035095226
142	0xbe07678e	-0.13223097
143	0x3e1262f2	0.14295557
144	0xbd935d71	-0.07195557
145	0xbd58286d	-0.052772928
146	0xbe23c545	-0.15993221
147	0x3d1404da	0.03613744
148	0xbd63c6b3	-0.055609416
149	0xbe0dff02	-0.13866809
150	0xbe2bfe71	-0.1679628
151	0x3d39e6bf	0.045386072
152	0xbe278b54	-0.16361743
153	0x3bc39f7c	0.0059699398
154	0x3c52ddba	0.012870247
155	0xbe144b69	-0.14481892
156	0x3e16d94e	0.14731333
157	0xbd4b7cce	-0.04967957
158	0x3da19f5a	0.07891722
159	0x3e2a3308	0.1662103
160	0x3dab75f9	0.08372111
161	0xbd92ab78	-0.07161611
162	0xbd8b4dee	-0.06801973
163	0x3d3faee4	0.046797648
164	0xbdad95cf	-0.08475839
165	0x3cf66d06	0.030081283
166	0x3d8b1b3d	0.06792305
167	0x3cf8caa0	0.030370057
168	0x3d64c073	0.055847596
169	0xbd87fda2	-0.066401735
170	0xbe22561f	-0.15853165
171	0x3df37bc4	0.11888841
172	0xbc4aefa9	-0.012386241
173	0xbddf5f0e	-0.10906802
174	0xbc9fd747	-0.019511832
175	0x3e0cf453	0.13765077
176	0xbe076069	-0.13220371
177	0x3d2ae796	0.041724764
178	0x3b811a49	0.003939901
179	0xbd586d6e	-0.052838735
180	0x3aa9f041	0.0012965278
181	0xbdeebff8	-0.11657709
182	0xbdbc2a8e	-0.09187804
183	0xbdb81c5f	-0.08989786
184	0xbdecf08e	-0.1156932
185	0xbd9e6edd	-0.07735989
186	0x3dad8263	0.08472135
187	0xbe1ac8c1	-0.15115644
188	0x3c928ba6	0.017888855
189	0xbdea59e9	-0.1144293
190	0xbdfcc090	-0.12341416
191	0xbe43518a	-0.19074073
192	0x3e0aef80	0.13567924
193	0x3d1c8321	0.03821099
194	0xbe01ee3f	-0.1268854
195	0x3e13f6e8	0.14449656
196	0x3d01c136	0.0316784
197	0xbe2ff7b9	-0.17184342
198	0x3e03b334	0.1286133
199	0xbe2b5f43	-0.16735558
200	0xbcebd5cf	-0.028788475
201	0xbe181e29	-0.14855255
202	0xbe1bc152	-0.15210465
203	0xbdcf98d6	-0.10136573
204	0xbdcc3b91	-0.09972299
205	0xbd43acfe	-0.0477724
206	0xbdb04eae	-0.08608757
207	0x3d875c8a	0.06609447
208	0xbe233643	-0.15938668
209	0x3e0b2eb8	0.1359204
210	0x3e0c19f3	0.13681774
211	0x3def2f3e	0.116789326
212	0x3ce1ed03	0.027578836
213	0xbe00fe4c	-0.12597007
214	0xbe025706	-0.1272851
215	0xbc8f3a75	-0.01748393
216	0xbd6583ba	-0.056033827
217	0x3e20abd7	0.15690552
218	0xbd9ce89d	-0.07661555
219	0xbdf53ed2	-0.11974873
220	0x3dbfd84e	0.09367429
221	0xbdb01809	-0.08598334
222	0x3e216d02	0.1576424
223	0x3d8e75be	0.06956051
224	0xbe2af0ca	-0.16693416
225	0xbdebc39e	-0.115119204
226	0x3d802101	0.06256295
227	0xbb7e7987	-0.003882976
228	0xbdcc750f	-0.09983265
229	0xbd9dce18	-0.07705325
230	0x3cb3dd95	0.021956244
231	0xbe00c130	-0.12573695
232	0xbc086216	-0.008324167
233	0x3da07bf5	0.07836143
234	0x3d32b4bd	0.043629397
235	0xbda6d8b4	-0.081468016
236	0xbcbeb942	-0.023281697
237	0x3d3095f8	0.04311177
238	0x3cc6af33	0.024253463
239	0xbe096f56	-0.13421378
240	0xbe06ecc9	-0.13176264
241	0x3ddc5854	0.10759035
242	0x3d096f30	0.033553302
243	0x3dc05b0f	0.09392368
244	0xbdacd592	-0.08439173
245	0xbcb97b0c	-0.022641681
246	0xbd8e0012	-0.06933607
247	0x3d902d80	0.070399284
248	0xbdd787b8	-0.10523933
249	0x3dae590a	0.085130766
250	0x3e187030	0.14886546
251	0xbc92e0d7	-0.017929478
252	0xbe11b054	-0.1422742
253	0x3e194542	0.14967826
254	0x3ba2ea53	0.0049717813
255	0xbddd58f3	-0.10807981

convs.0.lin_l.bias f4 [256]
0	0xbdd19515	-0.10233513
1	0x3ddd68af	0.108109824
2	0x3c668784	0.014070395
3	0xbdd9164c	-0.10599956
4	0x3e0d6e74	0.13811666
5	0x3e0d5251	0.13800932
6	0x3d967f90	0.07348549
7	0x3d837efd	0.064207055
8	0xbdd5ec88	-0.104455054
9	0xbc6bea31	-0.014399097
10	0xbe07a46a	-0.13246313
11	0xbe00dbfd	-0.12583919
12	0x3e0cd503	0.13753133
13	0xbd32081d	-0.04346477
14	0x3cacfacc	0.021115683
15	0x3cd0f162	0.025505725
16	0xbe22863e	-0.15871522
17	0x3e175577	0.14778696
18	0x3d4d295a	0.050088264
19	0x3cfc3dd9	0.03079121
20	0xbd79a959	-0.060952518
21	0xbd2b0d84	-0.041760936
22	0xbd96af71	-0.073576815
23	0x3d2cb072	0.04216046
24	0xbe1bd7a8	-0.15218985
25	0xbcdb9126	-0.02680261
26	0xbd8f96ab	-0.070111595
27	0x3d03fb87	0.032222297
28	0xbcb53638	-0.02212058
29	0xbde8305a	-0.11337347
30	0xbde2e9a6	-0.11079721
31	0x3d944de1	0.07241417
32	0x3db43d7b	0.08800789
33	0xbd191007	-0.0373688
34	0x3d9e0cf7	0.077173166
35	0x3e095f91	0.13415362
36	0xbd6ade25	-0.05734076
37	0x3d8d54ae	0.06900917
38	0x3da81ba0	0.08208394
39	0x3d841587	0.064494185
40	0x3e1c06cd	0.1523697
41	0xbd3f4cab	-0.046703976
42	0xbdf3585e	-0.11882089
43	0x3ca3aae4	0.019978948
44	0x3c326289	0.01088775
45	0x3d74f84f	0.059807118
46	0xbe06696e	-0.13126156
47	0xbd823190	-0.063571095
48	0x3dd7e3ff	0.10541534
49	0xbe1acae8	-0.15116465
50	0x3daa5d35	0.08318559
51	0xbcb6c2ce	-0.022309687
52	0x3da38c4d	0.079857446
53	0xbc823a59	-0.015896963
54	0xbda4ed0a	-0.08053024
55	0xbde3f928	-0.11131507
56	0xbe27f3fd	-0.16401668
57	0xbdd58886	-0.104264304
58	0xbc2122d6	-0.009834966
59	0x3dfc71e5	0.12326411
60	0x3e28dc79	0.16490354
61	0xbe1745b3	-0.14772682
62	0xbb52b568	-0.0032151584
63	0x3d480b6c	0.048839018
64	0xbd71985f	-0.058983203
65	0x3c693041	0.014232696
66	0x3cdd3ac5	0.027005563
67	0x3e3b1433	0.18269424
68	0xbd006e40	-0.031355143
69	0xbddcc5dc	-0.10779926
70	0x3e0b899d	0.13626714
71	0xbe1f3a65	-0.1554962
72	0xbe01a027	-0.1265875
73	0x3e197d34	0.14989167
74	0x3d26b586	0.040700458
75	0x3e1450cb	0.14483945
76	0x3df2cf20	0.11855912
77	0x3e06aa3d	0.13150878
78	0xbdf7b1e2	-0.12094475
79	0x3e30b063	0.17254786
80	0xbde59a95	-0.11211125
81	0x3d9a0eb3	0.07522335
82	0xbd81010a	-0.06299026
83	0x3d4c23cf	0.049838837
84	0xbe06d86d	-0.13168497
85	0x3dccf20d	0.10007105
86	0x3dbbb997	0.09166258
87	0x3c577a6b	0.013151745
88	0xbdf12431	-0.11774481
89	0x3e43b722	0.19112828
90	0x3dbd8bb8	0.09255165
91	0x3dbe8c54	0.09304109
92	0xbd8c30a6	-0.068452165
93	0xbdc88ce0	-0.09792495
94	0xbba3f211	-0.005003222
95	0x3e35fed6	0.17772993
96	0x3e3b0e51	0.1826718
97	0xbbae56dc	-0.005320413
98	0xbd0b4f3a	-0.034011103
99	0xbd3e1a8c	-0.046412036
100	0x3d5d1020	0.053970456
101	0x3decf367	0.11569863
102	0xbcd906e3	-0.026492542
103	0x3c006d8e	0.00783862
104	0xbcc29a7e	-0.023755308
105	0x3dec49a5	0.11537484
106	0xbd7608af	-0.060066875
107	0xbe1d4f12	-0.15362194
108	0xbd96f6cf	-0.07371294
109	0xbe3976ac	-0.18111676
110	0xbc979029	-0.018501358
111	0xbce791ab	-0.028267702
112	0x3dbd601b	0.09246846
113	0x3db8702c	0.0900577
114	0xbdc03950	-0.093859315
115	0x3c04db9c	0.008109
116	0x3e144aed	0.14481707
117	0xbcaf877b	-0.021426907
118	0x3da51e1a	0.08062382
119	0xbdff7bb3	-0.12474766
120	0xbda69855	-0.08134524
121	0x3e0f5ff5	0.14001448
122	0x3df29003	0.11843874
123	0xbd01732f	-0.03160399
124	0x3c862bd3	0.016378319
125	0x3d4b05e1	0.049566153
126	0x3dcd16b9	0.100141
127	0xbe227624	-0.1586538
128	0xbdb25776	-0.08708088
129	0xbe0c2ae2	-0.13688233
130	0xbd98546a	-0.07437976
131	0xbc94423a	-0.018097986
132	0x3df399a4	0.11894539
133	0x3d32e27f	0.043673035
134	0xbd9f1c24	-0.07769039
135	0xbd9a83b8	-0.075446546
136	0xbe1dc8ba	-0.15408602
137	0xbcbff5e3	-0.023432678
138	0x3c30aa9a	0.010782862
139	0xbdfc3312	-0.123144284
140	0xbcdf1206	-0.027230274
141	0xbd81134a	-0.06302507
142	0x3e22a91b	0.15884821
143	0xbd3a0a0c	-0.045419738
144	0x3e2625db	0.16225378
145	0x3dbaf218	0.09128207
146	0x3cd0a3cd	0.025468731
147	0x3d174588	0.036931545
148	0x3d10a4ee	0.03531354
149	0x3d731de2	0.05935467
150	0x3e2c48d0	0.16824651
151	0xbe1abd8e	-0.15111372
152	0xbd773e09	-0.060361896
153	0x3ccf83aa	0.025331337
154	0xbd62d5a4	-0.055379525
155	0x3d956a96	0.0729572
156	0x3d4630e8	0.048386484
157	0x3d5fd95f	0.05465066
158	0xbe10d49d	-0.14143606
159	0x3df9bdee	0.12194429
160	0xbd37f096	-0.044907175
161	0x3c7877af	0.015165254
162	0x3ddc43fe	0.10755156
163	0xbd40772c	-0.04698865
164	0x3e166d2c	0.14690083
165	0xbdbfecc8	-0.09371334
166	0x3d8c942e	0.068642005
167	0x3c63f693	0.013913768
168	0xbd9bd50f	-0.07608997
169	0x3db3ee41	0.08785678
170	0x3e154548	0.1457721
171	0xbd593b2f	-0.053034957
172	0xbd89564a	-0.067059115
173	0xbd05663f	-0.032568213
174	0x3da3fc3f	0.080070965
175	0x3d8dbbe9	0.06920607
176	0x3e39bb4a	0.18137851
177	0x3b14f7dc	0.0022730744
178	0x3e33160c	0.17488879
179	0xbb9b8a80	-0.004746735
180	0xbdb1950c	-0.086710066
181	0x3b0f8163	0.002189719
182	0x3aa152fa	0.0012308054
183	0xbe19ba5c	-0.15012497
184	0xbdb9cc11	-0.09072126
185	0x3d33bb88	0.043880016
186	0xbd41eb16	-0.047343336
187	0xbe173c0c	-0.14769
188	0x3e37c1ae	0.17944977
189	0xbc85df5b	-0.016341856
190	0x3ce91e78	0.028456911
191	0x3e024de3	0.12725024
192	0x3de745cf	0.11292612
193	0xbd4f906a	-0.050674833
194	0x3d911489	0.07083995
195	0xbda16186	-0.07879929
196	0xbd3b9513	-0.045796465
197	0x3c80a238	0.015702352
198	0xbe29d277	-0.16584192
199	0x3d12eb4a	0.03586892
200	0xbe0c7ec9	-0.1372024
201	0xbca3aa24	-0.01997859
202	0xbccfeebd	-0.025382394
203	0xbe1722b8	-0.14759338
204	0x3e118859	0.14212169
205	0x3e13d212	0.14435604
206	0xbca042d3	-0.019563114
207	0xbdcbea6e	-0.09956823
208	0xbc79e126	-0.0152514335
209	0xbe0bb8d0	-0.13644719
210	0x3e073e11	0.1320727
211	0xbb2419f3	-0.002503988
212	0xbcafb8bc	-0.021450393
213	0x3d9cbf88	0.07653719
214	0x3de5f515	0.11228386
215	0xbd360e11	-0.04444701
216	0xbd790894	-0.060799196
217	0xbd48591d	-0.04891311
218	0xbd6acb47	-0.057322767
219	0xbd96a0a4	-0.073548585
220	0xbe31cdd4	-0.17363673
221	0x3bffda8d	0.0078080357
222	0x3e1aeb93	0.15128927
223	0x3e15e5a2	0.14638379
224	0xbd588016	-0.052856527
225	0xbdbcbd88	-0.09215838
226	0x3de9b076	0.114106104
227	0xbc086280	-0.0083242655
228	0xbdc78501	-0.09742165
229	0x3d140c95	0.03614481
230	0x3e3cc50f	0.18434547
231	0xbe1d6f6a	-0.15374532
232	0x3cec39b3	0.028836107
233	0xbe0a3553	-0.13496904
234	0x3d92fd6d	0.071772434
235	0x3da9233b	0.08258673
236	0xbda42838	-0.080154836
237	0xbb4e485e	-0.003147624
238	0x3d9c07d9	0.07618684
239	0xbdebdcf2	-0.11516751
240	0xbd81428c	-0.06311521
241	0xbde2250f	-0.110422246
242	0x3d83a35a	0.06427641
243	0xbcb0c450	-0.021577984
244	0xbad8d1fc	-0.0016542072
245	0xbe02b508	-0.1276437
246	0x3c91af32	0.017783735
247	0x3de8f007	0.113739066
248	0xbe15288d	-0.1456625
249	0x3dbdffc4	0.09277299
250	0xbde1c1a6	-0.11023264
251	0x3c9bef09	0.01903488
252	0xbd822f75	-0.06356708
253	0xbca253fb	-0.019815436
254	0xbc91adf3	-0.01778314
255	0x3e1e4ebf	0.15459727

convs.0.lin_r.weight f4 [256, 32]
0	0xbcb9988d	-0.02265575
1	0x3d3c221d	0.04593097
2	0x3c63d312	0.013905304
3	0xbe1edd20	-0.1551404
4	0x3daa63a2	0.08319785
5	0xbb06b47d	-0.0020554357
6	0xbe061771	-0.1309488
7	0xbde21b60	-0.110403776
8	0xbc9f6e44	-0.019461758
9	0xbdd0ad1a	-0.101892665
10	0x3e019da5	0.12657793
11	0x3dbd9d2d	0.092584945
12	0xbd8eed1c	-0.06978819
13	0x3e288595	0.16457208
14	0xbe12482f	-0.14285348
15	0xbbf3a649	-0.007435594
16	0xbdb8d9c0	-0.090259075
17	0xbc8c4c8e	-0.017126348
18	0xbd177529	-0.036976967
19	0xbd69beb9	-0.057066653
20	0xbe2d5f15	-0.16930802
21	0x3df26785	0.11836151
22	0xbd54dac8	-0.05196646
23	0x3d0149ef	0.03156465
24	0xbcffbe09	-0.031218546
25	0xbd926448	-0.071480334
26	0xbdfb79b9	-0.12279076
27	0x3c6749f4	0.014116753
28	0xbc3b138f	-0.011418237
29	0x3d120f0d	0.035658885
30	0xbc189a2b	-0.0093141
31	0xbd5bc6bb	-0.05365632
32	0xbdda797e	-0.10667704
33	0xbe1d2ca2	-0.15349057
34	0xbe206c3f	-0.15666293
35	0xbe124a58	-0.14286172
36	0xbe2608f1	-0.16214348
37	0x3df5fae1	0.12010742
38	0x3d64baca	0.0558422
39	0xbd272cd7	-0.040814247
40	0xba304d89	-0.0006725421
41	0xbd346db7	-0.044049945
42	0xbdd68673	-0.10474863
43	0xbd554b41	-0.05207372
44	0xbd90895a	-0.07057448
45	0x3daf8ccf	0.08571779
46	0x3dc3a31c	0.09552595
47	0xbc99535a	-0.018716503
48	0x3d73105e	0.05934178
49	0xbe229807	-0.15878306
50	0x3df494e4	0.11942461
51	0x3e226eb8	0.15862548
52	0x3da98d7c	0.08278939
53	0xbdb905a9	-0.09034283
54	0x3da94e1e	0.08266853
55	0x3db3684e	0.08760129
56	0x3d8a9aea	0.06767829
57	0xbdf6f26f	-0.12057959
58	0xbd11d92a	-0.035607494
59	0xbe1070ff	-0.14105605
60	0xbe0020f3	-0.12512569
61	0x3dce22ee	0.10065256
62	0x3dfac6e8	0.122449696
63	0xbd1c1a04	-0.038110748
64	0x3c824c87	0.015905632
65	0x3df67203	0.12033465
66	0x3e12516b	0.14288871
67	0xbe0a1bc0	-0.13487148
68	0x3dcc54c5	0.09977106
69	0x3dfc27ce	0.1231228
70	0xbda363f5	-0.0797805
71	0xbc96dbf7	-0.018415434
72	0x3cd9e6e4	0.026599355
73	0x3dc848c7	0.09779506
74	0x3db32014	0.08746353
75	0xbc76f8f7	-0.015074006
76	0x3e01ddfe	0.1268234
77	0xbde4482a	-0.11146577
78	0xbe13ba58	-0.14426553
79	0xbe1a6d01	-0.15080644
80	0xbd149ca8	-0.03628221
81	0x3d53e13b	0.05172847
82	0x3dc35c5b	0.095391
83	0x3e02f46c	0.12788552
84	0x3c8b8dd0	0.017035395
85	0xbe172fd9	-0.14764346
86	0x3dc76657	0.09736317
87	0xbe2a8cd1	-0.1665528
88	0xbdbbce48	-0.091702044
89	0x3d813b4c	0.06310138
90	0x3d7a2ee4	0.061079875
91	0x3dbefe45	0.09325842
92	0x3e0e40d7	0.13891922
93	0x3e09c840	0.13455296
94	0x3e25a5c9	0.16176523
95	0x3d08d797	0.033408727
96	0x3e14cf2d	0.14532156
97	0x3dd817f7	0.10551446
98	0x3dcde1aa	0.10052808
99	0x3d84b53d	0.06479881
100	0x3da25f03	0.07928278
101	0x3e10fb71	0.14158417
102	0x3ca4759b	0.02007561
103	0x3e1e6916	0.15469775
104	0xbe1068eb	-0.14102523
105	0x3e12ab2a	0.14323106
106	0x3d033844	0.03203608
107	0xbd35ee76	-0.044416867
108	0xbddece7f	-0.1087923
109	0xbdeec022	-0.1165774
110	0xbe2bcac2	-0.16776565
111	0xbd935926	-0.07194738
112	0xbe0b49ff	-0.13602446
113	0x3c644c28	0.013934173
114	0x3e11740f	0.14204429
115	0x3dc1849e	0.09449123
116	0x3d278417	0.040897455
117	0x3d881bb2	0.066459075
118	0x3cb38b78	0.02191709
119	0xbdf6ade4	-0.12044886
120	0xbe0ca936	-0.13736424
121	0x3d62e9b2	0.05539865
122	0x3e08683b	0.13321011
123	0xbaa7874f	-0.0012781414
124	0xbdf9e3d2	-0.122016564
125	0x3c1882b2	0.009308504
126	0x3df19808	0.11796576
127	0xbe093674	-0.13399678
128	0x3d5e3951	0.05425388
129	0x3da06284	0.0783129
130	0xbe0b5bf5	-0.13609298
131	0xbd6db088	-0.05802968
132	0xbe079869	-0.13241734
133	0x3d6320bf	0.05545115
134	0xbe015241	-0.12629034
135	0x3dc96e66	0.0983551
136	0xbdf25bc3	-0.118339084
137	0x3d29e220	0.041475415
138	0x3e05c9b3	0.13065223
139	0xbd9a8201	-0.075443275
140	0x3d6e2d74	0.058148816
141	0x3e2104e7	0.15724526
142	0xbdf731e9	-0.120700665
143	0xbcc62b01	-0.024190428
144	0x3d2c27bb	0.042030077
145	0x3d2c04bc	0.041996703
146	0x3c5cddb3	0.013480592
147	0xbdc60f58	-0.09670895
148	0xbca5d069	-0.02024098
149	0xbde55479	-0.111977525
150	0xbc2cce8f	-0.010547294
151	0x3d28b8be	0.04119181
152	0xbc97219a	-0.01844864
153	0xbe041fe6	-0.12902793
154	0x3de01de1	0.10943199
155	0x3d2d9ea9	0.04238764
156	0x3d0c367c	0.034231648
157	0x3db51aa2	0.088429704
158	0xbd07ba1e	-0.03313648
159	0x3c57a19d	0.01316109
160	0x3d82a978	0.0637998
161	0xbd3dee8e	-0.04637008
162	0xbdc35d67	-0.095392995
163	0xbd6e1e6d	-0.058134485
164	0xbdf12f07	-0.11776548
165	0x3cd20d5a	0.025641132
166	0xbd1e5563	-0.03865565
167	0x3dd796a5	0.1052678
168	0x3e0fd98b	0.1404783
169	0xbd48ba78	-0.049005955
170	0x3db1fea9	0.08691151
171	0x3d4144db	0.047184806
172	0xbddedcfd	-0.10881994
173	0x3d032f51	0.032027546
174	0x3c773d32	0.015090274
175	0xbc9800f6	-0.018555146
176	0x3e1babde	0.15202281
177	0xbe1765cb	-0.14784925
178	0xbe1f61e1	-0.15564682
179	0xbdada435	-0.08478586
180	0xbd78019b	-0.060548406
181	0x3b973fe1	0.0046157693
182	0x3cb845cf	0.022494225
183	0x3c52fd70	0.012877807
184	0xbda961aa	-0.08270581
185	0x3d547170	0.051865995
186	0x3df6eb39	0.12056584
187	0xbe189229	-0.14899506
188	0x3d108b4e	0.0352891
189	0xbdbba452	-0.09162201
190	0xbccf4b32	-0.02530441
191	0x3dcdbdfc	0.10046002
192	0x3c843c46	0.016142022
193	0xbdf9be11	-0.121944554
194	0xbd3cf68a	-0.046133555
195	0x3cd2efac	0.02574905
196	0xbd4df6c4	-0.050284162
197	0x3e226161	0.1585746
198	0xbdad5613	-0.08463683
199	0x3dabd69b	0.08390542
200	0x3de82f3e	0.11337136
201	0x3dc15b6b	0.09441265
202	0x3dd7d8e1	0.10539413
203	0x3e1c2015	0.15246613
204	0xbcffed56	-0.0312411
205	0x3dd674fd	0.104715325
206	0x3e1c8a0f	0.1528704
207	0xbcc38269	-0.023865895
208	0x3a4a39ab	0.00077142817
209	0xbdae0196	-0.08496396
210	0xbdad4415	-0.08460251
211	0xbc52f191	-0.012874977
212	0x3d12117f	0.035661217
213	0xbd4b1ff2	-0.049591012
214	0xbd3d24c3	-0.046177637
215	0xbd408b8a	-0.047008075
216	0x3d7f4efb	0.06233118
217	0xbd253b4f	-0.040339764
218	0xbdeeb490	-0.11655533
219	0xbe28a4f2	-0.16469172
220	0x3d8f91b1	0.0701021
221	0xbdf7b57f	-0.120951645
222	0xbe0cf0d8	-0.1376375
223	0xbd5a3e81	-0.053282265
224	0xbe178ad1	-0.14799048
225	0x3d19e65e	0.03757321
226	0xbd3d3392	-0.04619176
227	0xbe1e8e9f	-0.15484093
228	0xbe008e74	-0.12554342
229	0xbd85589b	-0.06511041
230	0x3d795c9f	0.060879346
231	0x3e1a8d31	0.15092923
232	0xbdabf913	-0.083971165
233	0xbe135a2d	-0.14389868
234	0xbdbb7115	-0.09152428
235	0x3be25055	0.006906549
236	0x3d0485be	0.03235411
237	0x3ce568f2	0.028004143
238	0x3e224720	0.15847445
239	0x3e19b3f5	0.15010054
240	0xba157909	-0.00057019346
241	0xbd84a5ae	-0.064769134
242	0xbdf60864	-0.12013319
243	0xbd4a4a57	-0.049387302
244	0xbe0c9be4	-0.13731343
245	0xbd3cc650	-0.046087563
246	0x3d918b2e	0.071066245
247	0xbc7c8e5a	-0.015414799
248	0x3d99b57f	0.07505321
249	0xbe260910	-0.16214395
250	0xbe30e591	-0.17275073
251	0x3e13138a	0.14362922
252	0xbbda4266	-0.0066607473
253	0x3b85e90f	0.0040866206
254	0x3d9264ee	0.07148157
255	0x3dfdd913	0.12394919

convs.1.lin_l.weight f4 [64, 256]
0	0xbd1debd5	-0.038554985
1	0x3d537f84	0.05163528
2	0x3d16b3ac	0.036792442
3	0x3d4157e7	0.04720297
4	0xbcafe293	-0.021470344
5	0x3d390b95	0.04517706
6	0x3bcb2ef8	0.0062006675
7	0xbba37e7a	-0.0049894424
8	0x3bcaf0d0	0.006193258
9	0xbcebe189	-0.028794067
10	0x3ca28326	0.019837927
11	0x3d63c8f5	0.05561157
12	0xbc89a969	-0.016804414
13	0x3bc01338	0.005861666
14	0xbd1273de	-0.03575503
15	0xbcf5b675	-0.029994229
16	0x39a92c17	0.0003226704
17	0x3d8b614c	0.06805667
18	0x3c08312d	0.008312506
19	0xbda68a41	-0.081318386
20	0xbc827fc7	-0.01593007
21	0xbd659954	-0.05605443
22	0xbcee1058	-0.029060528
23	0xbce0f6d8	-0.027461454
24	0xbd08e663	-0.03342284
25	0x3d97830f	0.07398044
26	0xbc955caf	-0.018232672
27	0x3d863675	0.065533556
28	0x3bab503a	0.0052280696
29	0x3cc2b3a5	0.023767302
30	0x3b8ea81e	0.004353537
31	0xbd554036	-0.05206319
32	0xbd45bf69	-0.048278246
33	0xbcb8caef	-0.022557704
34	0x3d45ef0a	0.04832367
35	0xbc315702	-0.010823967
36	0xbc1d3f8f	-0.009597673
37	0x3d834b32	0.06410827
38	0x3d32aeb9	0.04362366
39	0x3b9d6051	0.0048027416
40	0xbd3f4eda	-0.046706058
41	0xbd78f734	-0.060782626
42	0x3ce94bb5	0.028478483
43	0x3c963e2d	0.018340195
44	0x3c70f43c	0.0147066675
45	0x3d33f537	0.043935027
46	0xbd46d968	-0.04854718
47	0xbc88862e	-0.016665544
48	0x3d44e7d5	0.048072655
49	0xbd074e1e	-0.033033483
50	0x3d1b5e7b	0.0379319
51	0xbda079e3	-0.07835748
52	0xbc187256	-0.009304604
53	0xbd58d4d2	-0.052937336
54	0x3d6aeeda	0.057356693
55	0x3bb6626d	0.0055659325
56	0x3d28f566	0.041249655
57	0x3c5b23e8	0.01337526
58	0xbd826f67	-0.063689046
59	0x3d6030d9	0.054734085
60	0x3c86caca	0.01645412
61	0x3d584938	0.0528042
62	0xbcafcdd2	-0.021460447
63	0xbcb48cdd	-0.022039825
64	0xbc20e93d	-0.009821233
65	0xbd100c09	-0.035167728
66	0xbd38e644	-0.045141473
67	0x3d903d26	0.07042913
68	0x3b274b08	0.00255269
69	0x3d4659e5	0.048425574
70	0xbd44dbe4	-0.048061267
71	0xbd890d25	-0.0669196
72	0x3c3efe1f	0.011657267
73	0xbd47051a	-0.04858885
74	0x3d80108d	0.06253157
75	0xbb014eab	-0.0019730728
76	0x3b5a2c58	0.003329059
77	0xbd407d52	-0.046994515
78	0x3d62ca1d	0.05536853
79	0x3d821d26	0.06353216
80	0xbce306ec	-0.027713262
81	0x3d20e6b8	0.03928253
82	0xbcbdf7f6	-0.023189526
83	0x3d43c85e	0.047798507
84	0xbcd02bab	-0.025411448
85	0x3d2412f4	0.040057138
86	0x3d143fd1	0.036193673
87	0x3b9e2367	0.0048259976
88	0xbcd662cc	-0.026170157
89	0x3d0797dd	0.033103812
90	0xbd13838b	-0.03601412
91	0xbcbf86ba	-0.023379672
92	0xbc737272	-0.014858829
93	0x3b8f4df8	0.0043733083
94	0x3cf18c63	0.029485887
95	0x3d094e04	0.033521667
96	0xbd309e37	-0.043119635
97	0x3b2fd0c4	0.0026827315
98	0xbd761fab	-0.060088795
99	0xbd08280d	-0.03324132
100	0xbd1a9923	-0.0377437
101	0x3c72ef18	0.014827512
102	0xbc64e2f4	-0.0139701255
103	0xbcfcd5a9	-0.0308636
104	0xbc39144d	-0.011296344
105	0xbd46f192	-0.048570223
106	0xbd28864b	-0.041143697
107	0x3ab84a23	0.001406018
108	0xbcf03a55	-0.02932469
109	0xbc70d974	-0.014700282
110	0xba21207e	-0.00061465043
111	0x3c9dbfd7	0.019256515
112	0x3c9e9c29	0.019361572
113	0x3d211c1c	0.039333448
114	0x3c91a3be	0.017778274
115	0x3d495b09	0.049159084
116	0xbd258fd6	-0.040420376
117	0x3c33a6f4	0.010965098
118	0xbd3245cb	-0.04352359
119	0x3c86ae6e	0.016440596
120	0xbccfec9f	-0.025381384
121	0xbd4fe98c	-0.050759837
122	0xbd40c07e	-0.047058575
123	0xbd28e431	-0.041233245
124	0xbd607542	-0.054799326
125	0x3cb1a698	0.021685883
126	0xbab11143	-0.0013509173
127	0x3cb5c554	0.02218882
128	0xbc366543	-0.011132541
129	0x3d165d8a	0.0367103
130	0xbd40687e	-0.04697465
131	0x3c7d7051	0.015468673
132	0xbc96c25a	-0.01840322
133	0xbce0f117	-0.02745871
134	0xbd5dfb1a	-0.054194547
135	0xbd1bbcf0	-0.03802198
136	0xbd7a32a3	-0.061083447
137	0x3c018b83	0.007906797
138	0x3d52e4b5	0.051487643
139	0xbd4b2636	-0.049596988
140	0xbd0d62b5	-0.034517962
141	0x3b538e53	0.0032280877
142	0xbd72c6f7	-0.05927178
143	0xbc8d6d28	-0.017263964
144	0xbd6462ea	-0.055758394
145	0x3d14b63a	0.036306597
146	0xbc922d5c	-0.017843895
147	0x3d5adb24	0.053431645
148	0xbbded46c	-0.006800225
149	0xbc282a1a	-0.010263944
150	0x3d82d275	0.06387798
151	0x3cc6d185	0.024269829
152	0xbd478213	-0.048708033
153	0xbd440959	-0.047860477
154	0x3d1d3784	0.038383022
155	0x3d8415e4	0.06449488
156	0x3d40291b	0.0469142
157	0x3cfc9cb1	0.030836435
158	0x3d816907	0.063188605
159	0xbced0958	-0.02893512
160	0x3daaa000	0.08331299
161	0xbca881a4	-0.02056963
162	0xbce18add	-0.027532035
163	0xbbf67270	-0.007520966
164	0x3d2cc38a	0.042178668
165	0x3bb094a1	0.0053888117
166	0xbd2365ef	-0.039892133
167	0x3c25aab1	0.010111497
168	0x3bc6218f	0.006046481
169	0x3d8b75dd	0.0680959
170	0x3d486123	0.04892076
171	0xbc4d6979	-0.012537354
172	0xbbf9a667	-0.0076187137
173	0xbd0e999e	-0.03481447
174	0x3d3034f7	0.04301926
175	0xbd57a13c	-0.052644
176	0xbd141435	-0.036152083
177	0x3d96e5cb	0.07368048
178	0x3b526508	0.0032103676
179	0xbb8b3acb	-0.004248952
180	0xbbdd5b40	-0.0067552626
181	0xbcd31f24	-0.025771685
182	0xbc54de0c	-0.012992393
183	0xbbe39b1c	-0.0069459807
184	0x3c383014	0.0112419315
185	0xbd0c92d6	-0.03431972
186	0x3d454d53	0.048169445
187	0x3d0d9939	0.034569953
188	0xbd1f1615	-0.03883942
189	0x3cfbc32c	0.030732714
190	0x3c469c00	0.012122154
191	0x3cceaebb	0.025229802
192	0x3c8e870c	0.01739838
193	0xbd24b689	-0.04021314
194	0xbcb500b8	-0.02209507
195	0xbbe12301	-0.006870628
196	0xbd089c76	-0.033352338
197	0xbd07183a	-0.03298209
198	0x3caaef68	0.02086611
199	0x3b6d2c75	0.0036189829
200	0x3b90d902	0.0044204006
201	0x3a765005	0.0009396079
202	0xbd88de04	-0.06682971
203	0xbd39ad91	-0.04533154
204	0x3d6da884	0.058022037
205	0x3d5760c2	0.05258251
206	0xbd520481	-0.051273827
207	0xbd4786b4	-0.048712447
208	0x3d7c747f	0.061634537
209	0x3a9e4484	0.0012074863
210	0x3cd772bf	0.026299832
211	0xbd34ad9b	-0.044110876
212	0xbc86a98a	-0.016438264
213	0xbcc0438e	-0.023469713
214	0x3d9439ec	0.0723761
215	0xbd3f3e89	-0.046690498
216	0xbdbac495	-0.09119526
217	0xbd529bde	-0.051418178
218	0x3b9ca78a	0.0047807144
219	0x3c96de43	0.01841653
220	0x3d125baf	0.035731968
221	0x3d39ed0b	0.045392077
222	0xbc3575fd	-0.011075494
223	0x3c83bf1d	0.01608234
224	0xbd2de1f3	-0.04245181
225	0xbcac1afb	-0.021008959
226	0xbcaef3e8	-0.021356538
227	0x3c7edf04	0.015556101
228	0x3b9363a5	0.0044979625
229	0x3b8aae19	0.00423218
230	0x3d42ce3d	0.047559965
231	0xbd20cc47	-0.039257314
232	0x3d2f39f5	0.04277988
233	0xbcf0add1	-0.029379757
234	0xbc67ee5d	-0.014155951
235	0xbbefb088	-0.0073147453
236	0xbcf438a9	-0.029812174
237	0xbcb3bf27	-0.021941734
238	0xbd155d60	-0.036466002
239	0x3d067bf7	0.032833066
240	0xbbea3c85	-0.007148328
241	0xbc32e48f	-0.01091875
242	0xbcebdbae	-0.028791275
243	0xbd1ed77b	-0.038779717
244	0xbcd1eaa3	-0.025624579
245	0x3d066c86	0.03281834
246	0x3c12a475	0.008950342
247	0xbd2a5c6a	-0.04159204
248	0xbc9ada6a	-0.018902976
249	0x3d0d3a2e	0.034479313
250	0x3c8fea16	0.017567676
251	0x3d108a66	0.035288237
252	0x3c880c15	0.016607324
253	0x3d6eb436	0.05827733
254	0x3c4916f3	0.012273538
255	0xbbb88cae	-0.0056320047

convs.1.lin_l.bias f4 [64]
0	0xbd4c9be0	-0.04995334
1	0xbd92eddd	-0.07174275
2	0xbd1b308c	-0.037888095
3	0x3cb16bf5	0.021657923
4	0xbc232d10	-0.009959474
5	0x3cdb9e98	0.026809022
6	0x3cb5205f	0.022110162
7	0xbc330d85	-0.010928516
8	0xbd030b72	-0.031993337
9	0x3d841a66	0.064503476
10	0xbdbd1470	-0.09232414
11	0xbcff15d0	-0.03113833
12	0xbbf499b7	-0.0074646133
13	0xbd80f60f	-0.06296932
14	0x3d9e5401	0.07730866
15	0xbce50e7c	-0.027961008
16	0x3d454103	0.048157703
17	0xbde5044e	-0.11182462
18	0x3d3d8eba	0.046278693
19	0xbb5958f6	-0.0033164597
20	0x3c9f8138	0.019470796
21	0x3d3fc2cc	0.046816632
22	0x3d2aebb3	0.041728687
23	0x3c05c302	0.008164169
24	0xbd979370	-0.07401168
25	0x3deadcf1	0.114679225
26	0xbd938b6b	-0.07204326
27	0xbcc2c338	-0.023774728
28	0x3d2f9d8a	0.04287485
29	0xbcd2ea1c	-0.025746398
30	0xbc9a84be	-0.018862125
31	0x3d6ecad9	0.05829892
32	0x3c9d5602	0.01920605
33	0xbb3d0c9a	-0.0028846622
34	0x3c9917fc	0.018688194
35	0xbd053bd5	-0.032527763
36	0xbcd40771	-0.025882455
37	0xbd512c1a	-0.05106745
38	0x3c237dbb	0.009978707
39	0xbccc0e40	-0.024909139
40	0x3d0b84a5	0.034062047
41	0xbcea15e2	-0.028574888
42	0xbd1f8a46	-0.038950227
43	0x3d02ab1b	0.03190146
44	0x3c8ed151	0.017433794
45	0xbd5c4d4a	-0.053784646
46	0xbd7a0b1e	-0.06104576
47	0xbd83db88	-0.06438357
48	0x3c843fbe	0.016143676
49	0xbcd541f9	-0.026032435
50	0xbd45384e	-0.0481494
51	0x3d228606	0.039678596
52	0xbd8495bf	-0.06473874
53	0x3d1a8dc8	0.03773287
54	0x3cedeb72	0.029042933
55	0x3c277d07	0.01022268
56	0xbc3df0ab	-0.011593024
57	0xbb55f188	-0.0032645185
58	0xbc6f939f	-0.014622598
59	0xbd0da581	-0.034581665
60	0x3d903f1b	0.070432864
61	0xbc55900a	-0.01303483
62	0xbc9681e5	-0.018372485
63	0xbcca6626	-0.024706911

convs.1.lin_r.weight f4 [64, 256]
0	0x3d9bbed6	0.076047584
1	0xbd499e17	-0.04922303
2	0x3c9bb96d	0.019009316
3	0x3d247968	0.040154845
4	0x3beae088	0.0071678795
5	0x3b01cbb3	0.0019805252
6	0x3d1b813e	0.03796505
7	0x3cbb9e57	0.02290265
8	0x3c7aaa7f	0.0152994385
9	0x3d163b0a	0.036677398
10	0xbd729d60	-0.059232116
11	0x3c9ded42	0.019278172
12	0xbd0b236f	-0.03396934
13	0xbccb5edf	-0.024825512
14	0x3d049a7e	0.032373898
15	0x3d100d2c	0.03516881
16	0xbcc28b8b	-0.02374818
17	0x3c5f049a	0.013611937
18	0x3c076151	0.008262948
19	0xbcfa70a8	-0.030571297
20	0x3d1b953c	0.037984118
21	0xbd7df317	-0.061999407
22	0xbd020bd6	-0.03174957
23	0x3cc7f8e0	0.024410665
24	0xbc9b47dd	-0.018955166
25	0xbc6c9e11	-0.014441983
26	0xbc76f89b	-0.015073921
27	0xbcfd255e	-0.030901607
28	0x3cfd3524	0.030909128
29	0x3d94f561	0.07273365
30	0x3c084e7a	0.0083194915
31	0xbc385664	-0.011251066
32	0x3d56f1a3	0.052476536
33	0xbd66cc79	-0.056347344
34	0x3d27674d	0.04087
35	0x3d077fa3	0.03308071
36	0x3bcb7c53	0.006209889
37	0x3d1db861	0.038505916
38	0x3c6c7b6d	0.014433724
39	0x3d2c29c9	0.042032037
40	0xbd28e6d4	-0.04123576
41	0x3cf85b60	0.030317008
42	0x3d14b2f6	0.036303483
43	0xbb808690	-0.003922291
44	0x3d286991	0.0411163
45	0x3c64638c	0.013939749
46	0xbcf2466f	-0.029574601
47	0xbd84363a	-0.064556554
48	0x3d01aeb9	0.03166077
49	0xbcae2d41	-0.021261813
50	0xbda31e10	-0.07964718
51	0xbd3835fa	-0.04497335
52	0xbcf848fd	-0.030308241
53	0xbd7cec75	-0.06174894
54	0xbd671208	-0.05641368
55	0xbb619408	-0.003442051
56	0xbc3783d2	-0.011200862
57	0xbcf1787e	-0.0294764
58	0xbd0bab7a	-0.03409908
59	0x3c8e9211	0.017403634
60	0xbc8ec11a	-0.017426062
61	0x3d21ab30	0.039469898
62	0x3c52629e	0.012840895
63	0xbd64feff	-0.055907246
64	0xbc7b13ec	-0.015324574
65	0x3d441b69	0.047877703
66	0xbd899a90	-0.067189336
67	0x3d8d3ec5	0.06896738
68	0x3c7df5a2	0.015500458
69	0xbd8e7d17	-0.06957453
70	0xbd1db37a	-0.03850124
71	0xbbf49afc	-0.0074647646
72	0xbbbf55db	-0.005839092
73	0x3d76eb4a	0.060282983
74	0xbccff720	-0.025386393
75	0x3b29b796	0.002589678
76	0xbcb3045e	-0.021852668
77	0xbd091b17	-0.0334731
78	0xbd46a7a4	-0.04849972
79	0x3c91b725	0.017787525
80	0xbd6a1c5b	-0.057155948
81	0x3db1b2fc	0.08676717
82	0x3d2e590b	0.042565387
83	0x3d467cbd	0.048458803
84	0xbd0e86a8	-0.034796387
85	0xbd3046a1	-0.043036107
86	0x3cb4ca8e	0.022069242
87	0x3d359067	0.044327166
88	0x3ccd4227	0.025055958
89	0x3d3069f5	0.0430698
90	0x3d3c5fbd	0.04598974
91	0x3bcaec0d	0.00619269
92	0xbb770af2	-0.0037695733
93	0xbcc1cd7e	-0.023657557
94	0x3ccfcc7d	0.025366062
95	0x3d2a3976	0.041558705
96	0x3d1df9cf	0.038568314
97	0x3cb16d9b	0.02165871
98	0x3c4652ec	0.012104731
99	0xbd81629f	-0.063176386
100	0x3bcb5b8d	0.006205982
101	0xbd574e72	-0.052565046
102	0xbcf8c925	-0.03036935
103	0x3ced1e8d	0.028945232
104	0xbdadfe72	-0.08495797
105	0x3c9f5628	0.019450262
106	0xbd4e48e2	-0.050362475
107	0xbc8fdeaf	-0.017562238
108	0x3d2aa11d	0.041657556
109	0xbb925011	-0.004465111
110	0xbc89a8e9	-0.016804175
111	0x3d324613	0.04352386
112	0x3ca8ed41	0.020620944
113	0x3d356ae0	0.044291377
114	0x3c2d3a6e	0.010573013
115	0x3c209db0	0.009803221
116	0xbd19a736	-0.03751298
117	0x3c8ed0f7	0.017433627
118	0x3c27eb03	0.010248902
119	0x3d3629d8	0.0444735
120	0x3cf34e7b	0.029700508
121	0x3cd5ce52	0.026099358
122	0x3d1cb18e	0.038255267
123	0xbcb073e6	-0.02153964
124	0xbcd2676b	-0.02568408
125	0x3d78fa43	0.060785543
126	0x3b37f3c3	0.0028068877
127	0xbc2394ff	-0.009984254
128	0x3d582d3c	0.052777514
129	0x3da86b23	0.0822356
130	0xbc753421	-0.014966042
131	0xbcd6cf81	-0.026221992
132	0x3b8eeb6d	0.004361561
133	0xbd5885a3	-0.05286182
134	0xbd18b2bb	-0.037279826
135	0xbcf7af62	-0.030234996
136	0x3cb3bf4d	0.021941805
137	0xbd5820bc	-0.052765593
138	0xbcd84ce5	-0.026403854
139	0xbc93f0fe	-0.01805925
140	0xbdc0e3e4	-0.09418467
141	0xbd43c203	-0.047792446
142	0x3c485431	0.012227104
143	0x3cb156b5	0.02164779
144	0xbca05451	-0.019571455
145	0x3d73a1cb	0.05948047
146	0xbd527967	-0.05138531
147	0x3c0a680e	0.00844766
148	0xbd593e59	-0.053037975
149	0x3cb89107	0.022530092
150	0x3d939f4d	0.072081186
151	0xbd6a0b15	-0.057139475
152	0xbd75d867	-0.06002083
153	0xbd60ade2	-0.054853328
154	0x3c3a4180	0.0113681555
155	0x3daa3d43	0.08312466
156	0xbd7ee768	-0.062232405
157	0xbdb17ad5	-0.086660065
158	0x3d8c2eb2	0.06844844
159	0xbcdd3e41	-0.027007224
160	0x3daaf0ec	0.083467335
161	0x3d2c1a05	0.042017
162	0x3d3dc5ab	0.04633109
163	0xbce54132	-0.02798519
164	0x3db9e06d	0.09076009
165	0xbc182d46	-0.009288138
166	0xbd5dd302	-0.05415631
167	0xbd2f70f4	-0.04283233
168	0x3c9262d8	0.017869398
169	0x3a9fe399	0.0012198567
170	0xbcfe875c	-0.031070404
171	0xbca4a6eb	-0.020099124
172	0x3d6a9d49	0.057278905
173	0xbc766294	-0.015038151
174	0x3cb55f55	0.022140184
175	0xbd0aa17c	-0.03384541
176	0xbdb236b3	-0.08701839
177	0xbb3a3fb3	-0.0028419315
178	0x3cb53f14	0.022124805
179	0xbce93c56	-0.028471153
180	0xbcfb2d02	-0.03066111
181	0xbd66c2bb	-0.056338053
182	0xbcd88519	-0.026430653
183	0x3bdcaa8f	0.0067341994
184	0xbd4f4b56	-0.050608955
185	0x3cdd07e9	0.02698131
186	0x3d71d608	0.059042007
187	0xbd383074	-0.044968084
188	0xbd5540cb	-0.052063745
189	0xbcb7a1e7	-0.022416068
190	0x3c0c51d6	0.008564433
191	0x3d524202	0.05133248
192	0x3c4e299b	0.012583162
193	0x3d063ea2	0.032774575
194	0x3c042eb7	0.008067778
195	0x3d7575ed	0.059926916
196	0xbaa9841e	-0.0012933051
197	0x3d697eca	0.05700568
198	0xbbc60735	-0.0060433396
199	0xbd7c2016	-0.061554037
200	0xbd257f4e	-0.04040461
201	0xbc7548f0	-0.014971003
202	0xbd8a0454	-0.06739107
203	0x3bdf43af	0.0068134884
204	0x3d876ed0	0.06612933
205	0x3d155f3c	0.036467776
206	0xbd40910e	-0.047013335
207	0xbd0361d4	-0.032075718
208	0x3d183739	0.03716204
209	0xbc3a353e	-0.011365233
210	0x3d1ba7b4	0.03800173
211	0xbd159334	-0.036517337
212	0xbd95f71d	-0.07322524
213	0x3d591636	0.052999698
214	0x3d352c31	0.044231597
215	0xbce45e82	-0.027877096
216	0x3c134d2f	0.00899057
217	0xbd166d5c	-0.036725387
218	0xbcba3f45	-0.022735247
219	0xbdb5bdbb	-0.08874079
220	0x3da0e085	0.07855324
221	0x3d57eaad	0.05271404
222	0x3c013883	0.007887009
223	0x3d074453	0.033024143
224	0x3c18ed05	0.009333854
225	0xbcce0489	-0.025148647
226	0x3d59aaeb	0.053141516
227	0xbbd66258	-0.006542485
228	0x3d527357	0.051379528
229	0xbbe74db9	-0.007058826
230	0x3c6ff8cd	0.014646721
231	0xbc8b7535	-0.017023662
232	0xbc6f69ff	-0.014612674
233	0x3cc62c9e	0.024191197
234	0x3b227608	0.002478959
235	0x3d97583d	0.07389877
236	0xbbbcdfc4	-0.0057639796
237	0xbcbae3db	-0.022813728
238	0xbcef23b0	-0.029191822
239	0xbc631916	-0.013860961
240	0xbb240d86	-0.0025032475
241	0xbc8dd46a	-0.017313201
242	0xbcbdba04	-0.023159988
243	0xbd79302e	-0.060836963
244	0x3d95cc79	0.07314391
245	0xbd3df724	-0.04637827
246	0xbd22c6e5	-0.03974046
247	0x3ca76dd1	0.020438107
248	0xbd53cba8	-0.051707894
249	0xbcd000a8	-0.025390938
250	0xbd84313e	-0.06454705
251	0xbd05d8be	-0.032677405
252	0x3d252be2	0.040325053
253	0x3c62fc36	0.013854077
254	0x3cf510cc	0.029915236
255	0x3d11ae8d	0.035566855

bns.0.weight f4 [256]
0	0x3f70b12b	0.94020337
1	0x3f766155	0.96242267
2	0x3f759e2b	0.9594447
3	0x3f72b249	0.9480329
4	0x3f765ab7	0.9623217
5	0x3f73bb0f	0.95207304
6	0x3f74635c	0.9546411
7	0x3f6ea39e	0.9321841
8	0x3f74adaf	0.9557752
9	0x3f7500f2	0.9570457
10	0x3f73ab10	0.95182896
11	0x3f772d93	0.96553916
12	0x3f7516ec	0.957381
13	0x3f745794	0.95446134
14	0x3f7699c5	0.96328384
15	0x3f7c76e1	0.98618895
16	0x3f723b41	0.94621664
17	0x3f748a56	0.95523584
18	0x3f7315d2	0.9495517
19	0x3f72566c	0.9466312
20	0x3f763410	0.9617319
21	0x3f7256b6	0.9466356
22	0x3f76a651	0.9634753
23	0x3f71a4ac	0.94391894
24	0x3f740963	0.95326823
25	0x3f72bf48	0.9482312
26	0x3f6f9462	0.9358579
27	0x3f75e422	0.9605123
28	0x3f724606	0.946381
29	0x3f772a76	0.96549165
30	0x3f74203d	0.9536169
31	0x3f77abbe	0.9674643
32	0x3f70cf94	0.9406674
33	0x3f78786c	0.9705875
34	0x3f72dbfb	0.94866914
35	0x3f75912c	0.9592464
36	0x3f7215f6	0.9456476
37	0x3f73ebfe	0.9528197
38	0x3f749fbf	0.95556253
39	0x3f76dd8f	0.9643182
40	0x3f714e29	0.9425989
41	0x3f767e04	0.96286035
42	0x3f746af1	0.9547568
43	0x3f7795b5	0.9671281
44	0x3f6cfad9	0.92570263
45	0x3f7694be	0.9632071
46	0x3f75874b	0.95909566
47	0x3f72b8ea	0.94813406
48	0x3f762d63	0.96163005
49	0x3f750577	0.95711464
50	0x3f74e569	0.9566255
51	0x3f737e50	0.9511461
52	0x3f794a47	0.97378963
53	0x3f75028c	0.9570701
54	0x3f73fec6	0.9531063
55	0x3f715c19	0.94281155
56	0x3f74ba0d	0.9559639
57	0x3f74a907	0.95570415
58	0x3f75f20b	0.96072453
59	0x3f6cde16	0.92526376
60	0x3f77c1d5	0.9678014
61	0x3f762e28	0.9616418
62	0x3f78a125	0.9712089
63	0x3f734f2b	0.95042676
64	0x3f70f4ff	0.94123834
65	0x3f70dc69	0.9408632
66	0x3f727a21	0.94717604
67	0x3f772fdf	0.9655742
68	0x3f6fd231	0.936801
69	0x3f75bf06	0.95994604
70	0x3f74f98e	0.9569329
71	0x3f750c69	0.9572206
72	0x3f72e9db	0.94888085
73	0x3f74a4c1	0.95563895
74	0x3f738ca2	0.95136464
75	0x3f758dc0	0.9591942
76	0x3f72a75c	0.9478662
77	0x3f75002d	0.95703393
78	0x3f73fc58	0.9530692
79	0x3f759d22	0.9594289
80	0x3f732d8f	0.9499139
81	0x3f708ae7	0.9396195
82	0x3f7343e7	0.95025486
83	0x3f71da2d	0.94473535
84	0x3f719784	0.9437182
85	0x3f74ac43	0.9557535
86	0x3f759d6d	0.9594334
87	0x3f74ff47	0.9570202
88	0x3f73052d	0.9492977
89	0x3f734799	0.95031124
90	0x3f6d8983	0.9278795
91	0x3f6f81ff	0.93557733
92	0x3f7424c9	0.9536863
93	0x3f745668	0.95444345
94	0x3f7530b6	0.9577745
95	0x3f74da91	0.95646006
96	0x3f72d44a	0.9485518
97	0x3f744840	0.95422745
98	0x3f7538d6	0.9578985
99	0x3f733112	0.9499675
100	0x3f740625	0.95321876
101	0x3f72e2b1	0.94877154
102	0x3f7600ec	0.96095157
103	0x3f73332d	0.94999963
104	0x3f6fa4d9	0.9361091
105	0x3f7538fd	0.9579008
106	0x3f73c8ba	0.9522816
107	0x3f74dd8a	0.9565054
108	0x3f726320	0.946825
109	0x3f734bef	0.9503774
110	0x3f72d865	0.9486144
111	0x3f736100	0.95069885
112	0x3f71f93a	0.94520915
113	0x3f7110f0	0.9416647
114	0x3f744ad1	0.9542666
115	0x3f743762	0.9539701
116	0x3f70379d	0.9383486
117	0x3f76941a	0.96319735
118	0x3f743fd6	0.95409906
119	0x3f6f73f7	0.93536323
120	0x3f746d43	0.9547922
121	0x3f72743f	0.9470863
122	0x3f7099d8	0.93984747
123	0x3f75a992	0.9596187
124	0x3f73df65	0.9526275
125	0x3f73d06e	0.95239913
126	0x3f73ffbc	0.95312095
127	0x3f737f81	0.9511643
128	0x3f72d700	0.94859314
129	0x3f66e319	0.90190274
130	0x3f71b5c4	0.9441798
131	0x3f763a38	0.96182585
132	0x3f776b27	0.96647877
133	0x3f68fd06	0.91011083
134	0x3f6ff506	0.9373325
135	0x3f76b4e3	0.9636976
136	0x3f74b27b	0.9558484
137	0x3f75ce79	0.9601818
138	0x3f74a3ab	0.9556224
139	0x3f71c369	0.944388
140	0x3f74071e	0.9532336
141	0x3f6e3bf0	0.9306021
142	0x3f760f43	0.9611704
143	0x3f706386	0.9390186
144	0x3f74c68a	0.95615447
145	0x3f72f944	0.949116
146	0x3f73e0b7	0.9526476
147	0x3f7601bd	0.960964
148	0x3f73dc17	0.95257705
149	0x3f705033	0.93872374
150	0x3f70adc0	0.9401512
151	0x3f741994	0.9535153
152	0x3f729ef1	0.94773775
153	0x3f74bcf3	0.95600814
154	0x3f73f034	0.95288396
155	0x3f752275	0.957557
156	0x3f7483c0	0.95513535
157	0x3f77be5b	0.96774834
158	0x3f747f3f	0.9550666
159	0x3f7471e0	0.9548626
160	0x3f76ebf4	0.96453786
161	0x3f7270d3	0.94703406
162	0x3f72b241	0.94803244
163	0x3f75c406	0.96002233
164	0x3f736190	0.95070744
165	0x3f717971	0.9432593
166	0x3f75bee2	0.9599439
167	0x3f75b3a1	0.95977217
168	0x3f7178d0	0.9432497
169	0x3f734750	0.9503069
170	0x3f72c585	0.9483264
171	0x3f739cdd	0.9516123
172	0x3f745ce4	0.9545424
173	0x3f745179	0.9543682
174	0x3f743cf7	0.95405525
175	0x3f77660e	0.966401
176	0x3f73f246	0.95291555
177	0x3f711566	0.94173276
178	0x3f71b610	0.9441843
179	0x3f7424a6	0.9536842
180	0x3f77226d	0.96536905
181	0x3f72d8dd	0.9486216
182	0x3f738bd6	0.9513525
183	0x3f73f6db	0.95298547
184	0x3f71d9b6	0.94472826
185	0x3f712e1d	0.9421099
186	0x3f75e09e	0.96045864
187	0x3f74e3f6	0.9566034
188	0x3f6caf2b	0.92454785
189	0x3f77f5b5	0.96859294
190	0x3f71f1d0	0.945096
191	0x3f7624f9	0.96150166
192	0x3f7415d5	0.95345813
193	0x3f739d6a	0.9516207
194	0x3f74d823	0.956423
195	0x3f7498e4	0.9554579
196	0x3f730c6b	0.94940823
197	0x3f74d471	0.9563666
198	0x3f700569	0.93758255
199	0x3f76f60d	0.96469194
200	0x3f786489	0.97028404
201	0x3f71c1e1	0.9443646
202	0x3f72b64c	0.9480941
203	0x3f730866	0.9493469
204	0x3f72c792	0.9483577
205	0x3f7795d9	0.96713024
206	0x3f6ef0cc	0.93336177
207	0x3f75470b	0.9581153
208	0x3f74f663	0.95688456
209	0x3f7313ef	0.9495229
210	0x3f724f5c	0.9465234
211	0x3f72d807	0.9486088
212	0x3f75b3fa	0.9597775
213	0x3f742311	0.9536601
214	0x3f79501e	0.97387874
215	0x3f72a31c	0.94780135
216	0x3f722568	0.9458833
217	0x3f72ab68	0.94792795
218	0x3f73cd95	0.9523557
219	0x3f73d4b7	0.9524645
220	0x3f7125ac	0.9419811
221	0x3f74b44a	0.955876
222	0x3f726369	0.9468294
223	0x3f7212bc	0.94559836
224	0x3f791157	0.97292084
225	0x3f751a9d	0.95743734
226	0x3f71170e	0.94175804
227	0x3f71ce0b	0.9445502
228	0x3f726d85	0.94698364
229	0x3f719ec3	0.94382876
230	0x3f7067a3	0.9390814
231	0x3f7042a0	0.9385166
232	0x3f76010e	0.9609536
233	0x3f7449f2	0.9542533
234	0x3f746b89	0.95476586
235	0x3f715cf0	0.94282436
236	0x3f72e178	0.9487529
237	0x3f743a30	0.9540129
238	0x3f752dd9	0.9577308
239	0x3f7409fe	0.95327747
240	0x3f74b301	0.9558564
241	0x3f73d6e6	0.95249784
242	0x3f7517e0	0.95739555
243	0x3f751570	0.95735836
244	0x3f72687d	0.94690686
245	0x3f732286	0.94974554
246	0x3f74a85f	0.95569414
247	0x3f7409a7	0.9532723
248	0x3f7170e3	0.94312876
249	0x3f6ff290	0.93729496
250	0x3f7709e2	0.96499455
251	0x3f74a5a3	0.9556524
252	0x3f73170c	0.9495704
253	0x3f7279d7	0.9471716
254	0x3f73f989	0.95302635
255	0x3f736877	0.95081276

bns.0.bias f4 [256]
0	0xbb70cf2d	-0.003674458
1	0x3bdbb814	0.0067052934
2	0x3bca970f	0.0061825584
3	0xbc80a854	-0.015705265
4	0xbb4213a1	-0.002961375
5	0xbc56f489	-0.013119825
6	0xbc2bf130	-0.010494515
7	0xbca9e6e9	-0.02073999
8	0x3aa68bb2	0.0012706427
9	0x3bb12583	0.005406083
10	0xbb60bb05	-0.003429116
11	0x3beded61	0.007260964
12	0xbae3fb74	-0.0017393664
13	0xbc14848a	-0.009064803
14	0x3ba2eb3e	0.0049718907
15	0x3cbef0b4	0.023308136
16	0xbc4f27a4	-0.012643728
17	0x3b692d68	0.0035580043
18	0xbbe69aba	-0.007037488
19	0xbc3b0f16	-0.011417171
20	0xbb608a5d	-0.0034262158
21	0xbc9f6207	-0.019455923
22	0x3ba220c0	0.0049477518
23	0xbc7cbf74	-0.015426505
24	0xb999b084	-0.00029313948
25	0xbc14eabf	-0.009089171
26	0xbc6100a5	-0.013733064
27	0xbb9f2ea5	-0.0048578554
28	0xbc3a0950	-0.011354759
29	0x3bb8d8d3	0.005641082
30	0x3bf45e9f	0.007457569
31	0x3c0af46f	0.008481129
32	0xbcc2edfa	-0.023795117
33	0x3c43814f	0.011932685
34	0xbc10e14d	-0.008842778
35	0x3ca946cc	0.020663641
36	0x3b94b8b3	0.0045386194
37	0xbc3adc6e	-0.011405094
38	0xbb01fc15	-0.001983409
39	0xba7c4394	-0.0009623107
40	0xbc51e994	-0.012812037
41	0x3c01e576	0.007928243
42	0xbb85f79c	-0.004088355
43	0x3c157fc6	0.009124702
44	0xbcae99c7	-0.021313561
45	0x3bcd30a4	0.006261902
46	0xbb1e3f0d	-0.0024146468
47	0xbbf79e58	-0.007556718
48	0x3c323805	0.010877614
49	0xba9ebaeb	-0.0012110149
50	0xbc107fcc	-0.008819532
51	0xbc891ad2	-0.016736422
52	0x3c26b5da	0.010175193
53	0x3bf1917f	0.007372081
54	0x39a8e615	0.00032214882
55	0xbc6c7345	-0.014431779
56	0xba80ecac	-0.0009836159
57	0x3bb7a3b4	0.0056042317
58	0x3c0db751	0.008649663
59	0xbcfe7288	-0.031060472
60	0x3c567475	0.013089289
61	0xbb9841e3	-0.004646526
62	0x3cbc569a	0.022990514
63	0xbb669a38	-0.0035187136
64	0xbc9cf5ca	-0.01916017
65	0xbc477b60	-0.012175411
66	0xbc5a81d0	-0.013336614
67	0x3bbabcc7	0.0056987735
68	0xbcb984da	-0.022646356
69	0x3befdd09	0.0073200506
70	0x3b44c5c3	0.0030025102
71	0xbb86bf4e	-0.0041121608
72	0xbc1475ac	-0.009061258
73	0x395c41d1	0.00021005353
74	0xbb667399	-0.0035164116
75	0x3aeb89b9	0.0017970122
76	0xbbf8d610	-0.0075938776
77	0x3b8f7ed6	0.0043791337
78	0xbc0b1909	-0.008489856
79	0x3b3148c6	0.0027051433
80	0xbb7e2ad2	-0.0038782847
81	0xbc2168ac	-0.009851616
82	0xbb1bbead	-0.0023764775
83	0xbc6f0853	-0.014589387
84	0xbbba20fa	-0.0056802006
85	0xba9dabe7	-0.001202938
86	0xbc1d9294	-0.0096174665
87	0xbbbe6e67	-0.005811501
88	0xbb1a90fb	-0.002358495
89	0xbc222f31	-0.009898947
90	0xbc6453a8	-0.013935961
91	0xbc1c894c	-0.0095542185
92	0xbc1ea539	-0.009682947
93	0xbc0e9609	-0.008702763
94	0xbab89ab9	-0.0014084197
95	0xbc072bb0	-0.008250162
96	0xbb9b2fde	-0.004735931
97	0x3b0702f8	0.0020601135
98	0xbbefa5aa	-0.00731345
99	0x3b191404	0.0023357878
100	0xbb3faa6e	-0.002924587
101	0xbc57f801	-0.013181687
102	0xba119c8f	-0.000555464
103	0xbb65a3a4	-0.0035040164
104	0xbc727d99	-0.014800453
105	0x3bc191b9	0.005907264
106	0x3b6d60b0	0.003622096
107	0x3be7cf3c	0.007074265
108	0xbc0d1c46	-0.008612698
109	0xbc4c7177	-0.012478224
110	0xbb69a62f	-0.0035652032
111	0xbb1f55fb	-0.0024312723
112	0xbc1c8cd7	-0.009555063
113	0xbc7668f1	-0.015039668
114	0x3c21ed7a	0.009883279
115	0xbc17fe3c	-0.009276923
116	0xbc44ca56	-0.012011131
117	0x3b6fc675	0.0036586795
118	0xbc270e8c	-0.010196339
119	0xbc059b51	-0.008154706
120	0xbb519154	-0.0031977491
121	0xb8e76e7b	-0.00011035517
122	0x3bc4083c	0.005982427
123	0x3c0293ce	0.00796981
124	0xbbca55d2	-0.0061747814
125	0xba3c864b	-0.0007191642
126	0xbbccc3ef	-0.006248943
127	0xbb966ac9	-0.0045903665
128	0xbb6f1c75	-0.0036485468
129	0xbbb2d6c6	-0.005457732
130	0xba7cd710	-0.0009645084
131	0xbb5678d0	-0.0032725818
132	0x3c1b6a18	0.009485744
133	0xbca79dfe	-0.020461079
134	0xbc622c0c	-0.013804447
135	0xbbb5be4d	-0.0055463673
136	0xbb23c58b	-0.002498957
137	0x3b49e534	0.0030806782
138	0xba597d02	-0.00082965207
139	0xbb9fb874	-0.0048742834
140	0x3bc57f73	0.006027156
141	0xbca46f1f	-0.020072518
142	0x3a852fca	0.0010161337
143	0xbc8f6a2f	-0.017506687
144	0xbbd6854d	-0.0065466524
145	0x3c39552d	0.011311811
146	0x3a604090	0.00085545424
147	0x3c0c5b6f	0.008566721
148	0x3a72f323	0.00092677976
149	0xbc44fbc7	-0.012022919
150	0x3b89488d	0.004189557
151	0xb985db2d	-0.00025531035
152	0xbb957cdc	-0.0045620035
153	0x3980954f	0.00024525306
154	0x3a3bfb9d	0.0007170977
155	0x3a0a59f2	0.0005277685
156	0xbbed76d0	-0.0072468296
157	0x3c365c21	0.011130364
158	0xbbe45143	-0.006967695
159	0xbc1e753a	-0.009671504
160	0x3b9cf48f	0.004789896
161	0xbbd5278f	-0.00650496
162	0xbb801b81	-0.0039095287
163	0x3c30bc1b	0.010787035
164	0xbb83e81c	-0.0040254723
165	0xb97559b0	-0.00023398432
166	0x3b26624d	0.0025388182
167	0x3aa1638a	0.001231299
168	0xbbf64b4f	-0.0075163017
169	0x3ab21873	0.0013587609
170	0xbb876a59	-0.0041325507
171	0xbc831b08	-0.0160041
172	0x3bf992a0	0.007616356
173	0xbbcb44fd	-0.0062032924
174	0xbbc523cd	-0.0060162307
175	0x3bd760b4	0.006572807
176	0xbc391f8d	-0.011299026
177	0xbcb5303e	-0.02211773
178	0xbba1ad0a	-0.004933958
179	0xbabf7051	-0.0014605616
180	0x3b26b335	0.0025436406
181	0x39fb201b	0.0004789837
182	0x3ad2d2a7	0.0016084508
183	0xba912937	-0.0011074905
184	0xbbe1bfe5	-0.0068893307
185	0xbc886eb5	-0.016654352
186	0x3be5612b	0.0070001087
187	0x3a8fcfa3	0.0010971915
188	0xbc1c52d3	-0.009541231
189	0xbac00a48	-0.0014651502
190	0xbc5ef894	-0.01360907
191	0x3c267598	0.0101598725
192	0x3be4a778	0.0069779716
193	0xbc489765	-0.0122431265
194	0xbc502120	-0.01270321
195	0x3baf469f	0.005348995
196	0xbc7cedea	-0.0154375825
197	0x3b4cdbb0	0.0031258874
198	0xbc5e07da	-0.013551677
199	0x3bbcdbb8	0.005763497
200	0x3a1230f0	0.000557675
201	0xbc796640	-0.015222132
202	0xbcac4e95	-0.021033565
203	0xbba66614	-0.0050780866
204	0xbb298954	-0.0025869207
205	0x3be996e2	0.0071285823
206	0xbc99f64c	-0.018794201
207	0x3ad2eccb	0.0016092298
208	0xba833318	-0.0010009734
209	0xbbe0fd1d	-0.006866111
210	0xbc8abe3c	-0.016936414
211	0xbb9bf41a	-0.004759324
212	0x3be5b4d7	0.007010083
213	0xb9b1557e	-0.00033823767
214	0x3c960fe7	0.01831813
215	0xbbf290ea	-0.007402529
216	0xbce2c49e	-0.027681645
217	0xbc89cd9c	-0.016821675
218	0xbb9c8b38	-0.0047773384
219	0xbbfc91dc	-0.0077078175
220	0x3b8b39d3	0.0042488365
221	0xbbb3e8d3	-0.0054904013
222	0xb9a01eb7	-0.00030540462
223	0xbc294c42	-0.010333123
224	0x3c98982d	0.01862725
225	0x3b02a2b9	0.0019933416
226	0xbb4bc85c	-0.0031094765
227	0xbc268fc9	-0.010166117
228	0xbc739827	-0.014867819
229	0xbc410cb7	-0.011782817
230	0xbc8306c7	-0.015994443
231	0xbc8e7b70	-0.017392844
232	0xbb35b6cf	-0.002772737
233	0xb9ceb789	-0.00039428126
234	0xbbb22876	-0.005436952
235	0xbc887226	-0.016655993
236	0xbb7e8c90	-0.0038841106
237	0xbc24131e	-0.0100143235
238	0x3c10b965	0.008833264
239	0xbc0e4fca	-0.008686015
240	0x3aaec226	0.0013333007
241	0xbbca15ce	-0.00616715
242	0x3c2d1cd7	0.010565958
243	0x3af0e55c	0.0018378901
244	0xbbbf5009	-0.0058383984
245	0x3afaf4df	0.0019146464
246	0xbb899c2c	-0.0041995253
247	0xbb266a55	-0.0025392969
248	0xbc64febf	-0.013976752
249	0xbcb50334	-0.022096254
250	0x3992c19d	0.00027991543
251	0xbb62a24d	-0.0034581602
252	0xbb236650	-0.002493281
253	0xbbaf413f	-0.005348354
254	0xbb3ceb1f	-0.0028826667
255	0xbbcc3a2b	-0.00623252
