output/oi/restr_e2v/run_009/restr_oi_best_model_e2v.pth (torch, 90293 bytes, 14 tensors)

convs.0.lin_l.weight f4 [64, 32]
000000 55 fb 17 be 13 af 6c 3d 80 c4 24 3e f6 c2 2e be
       -0.1484197 0.05778415 0.16090584 -0.17066559
000010 5d d2 03 be 5f e0 9d 3d 09 71 d5 3d b2 af 10 3e
       -0.12873216 0.07708811 0.1042195 0.14129522
000020 59 44 4a be 1a 13 bf 3d 85 a5 9b 3d 84 44 ed 3b
       -0.19752635 0.09329815 0.0759993 0.0072408337
000030 98 dc e4 bc 0d 03 94 3d 6b c5 81 3d 0c 7a 50 3d
       -0.027937219 0.072271444 0.063364826 0.050897643
000040 bb 52 d1 3d 7e c2 e2 bd 68 dc df bc 0d 93 d6 bd
       0.10220858 -0.11072253 -0.027326778 -0.104772665
000050 7d 81 5f 3a c8 56 5c bd 03 73 19 be d2 27 af 3d
       0.000852607 -0.0537937 -0.1498528 0.08552517
000060 12 59 0a 3e d3 63 0a 3e b4 88 87 bd a1 2c 4a bd
       0.1351054 0.13514642 -0.06617871 -0.049358968
000070 ac 05 0c be 35 d4 5d 3e ff 95 97 bd 58 b1 03 3e
       -0.13674039 0.21662982 -0.07401656 0.1286062
000080 0a 79 b1 3d 61 1f 8c 3c 87 35 14 be 01 a7 08 bb
       0.086656645 0.017104806 -0.14473544 -0.0020851495
000090 39 5c 85 3d ee 22 16 be e1 58 fb bd 95 6c 82 bd
       0.06511731 -0.14661762 -0.12272812 -0.06368367
0000a0 e4 91 28 3e 20 7d 03 be 7c 61 ed 3d a0 ba 1d 3c
       0.16461903 -0.128407 0.11590859 0.009627014
0000b0 3c 17 68 3d 43 10 1a be 8b e8 11 be 91 2c c3 3d
       0.056662783 -0.15045266 -0.14248864 0.09529985
0000c0 c2 b4 7c bd 03 37 34 3c 2e 67 23 3e 5e f5 c9 3d
       -0.06169582 0.010999444 0.15957329 0.09861253
0000d0 b7 53 01 be 59 8d 36 3c 9f f3 2e be f7 68 36 3b
       -0.12629591 0.011142098 -0.17085122 0.002783356
0000e0 58 59 d3 3c 6f 76 c2 bd ed 9b 0b 3e 34 41 fa 3d
       0.025799438 -0.09495246 0.136337 0.12219468
0000f0 ed 73 46 3d 25 8b ef 3d a0 e1 82 3c 49 9e d6 3c
       0.0484504 0.116964616 0.015976727 0.026198523
000100 a6 63 b0 bd cf 7f 68 bc fd 1a d8 3d c0 62 10 3e
       -0.086127564 -0.014190628 0.105520226 0.1410017
000110 1d 75 fd 3d 92 41 d4 3d 7e fd 21 be fe 15 1b 3e
       0.12375853 0.10364069 -0.15819356 0.15145108
000120 44 40 cc bd 2d 67 4d be 91 70 01 3d cb 7d a2 bd
       -0.09973195 -0.2005889 0.031601492 -0.07934149
000130 df f1 31 be 36 b7 d1 3d 6b 9a 9e bd 14 bf 6e 3d
       -0.17377423 0.10240023 -0.07744297 0.058287695
000140 8c 52 34 3d a2 5c ae 3d 1d 2b e1 3d 84 68 2d 3e
       0.044024035 0.08513762 0.10994551 0.16934401
000150 51 9a 10 3d 16 71 1d 3e b6 b9 1a 3e 21 c3 a7 bd
       0.035303418 0.1537517 0.15109906 -0.08191515
000160 fd 4d 90 3b 77 52 1d ba 7e d6 ec 3d df 4a ba bd
       0.004403828 -0.0006001363 0.11564349 -0.09096312
000170 5f 8c 23 3e 47 89 2b 3e d5 16 14 bc 6f 36 30 3d
       0.15971516 0.16751586 -0.009038647 0.043020662
000180 55 45 65 3d b1 b7 a3 bd c1 b7 02 3d a0 13 1d be
       0.055974323 -0.07994021 0.031913523 -0.15339518
000190 90 f4 28 be 5e 14 06 bd ac 6b c3 bd e9 d5 2f 3e
       -0.16499543 -0.032734267 -0.09542021 0.17171444
0001a0 ce f3 bc 3d 80 0a fe bd fc d3 06 3e 85 e4 f4 ba
       0.092261896 -0.124043465 0.13166803 -0.0018683827
0001b0 74 ea 11 be c6 2c a3 3d 47 01 8f 3a 06 fe 13 3e
       -0.14249593 0.07967524 0.0010910415 0.14452371
0001c0 26 a3 2e be 4a 26 11 be 72 06 a0 bd 85 18 03 3d
       -0.17054424 -0.14174762 -0.07813729 0.032005806
0001d0 4c 1d e2 bd fe 98 04 3e 84 4a 2d 3e d8 92 42 be
       -0.11040744 0.12948987 0.16922957 -0.19001329
0001e0 f1 dc d4 bd db 53 18 3d 84 06 39 3d 8a 99 d9 3d
       -0.10393704 0.037189346 0.04517223 0.106249884
0001f0 1a e8 1e 3d b0 47 d1 bd 9c fc 0e 3a ae 47 0d 3e
       0.038795568 -0.102187514 0.0005454512 0.13796875
000200 c8 1d 75 ba 62 70 bb bd 68 d6 28 be 89 93 1a 3e
       -0.0009350446 -0.09152295 -0.1648804 0.15095343
000210 bd 3f 11 be 86 98 ce 3d 6d 2f 87 bb b6 5c 6d bd
       -0.1418447 0.10087685 -0.0041255266 -0.057949744
000220 40 ff b2 3d 23 df 0e 3e ee f2 4d 3d 11 69 49 bd
       0.08740091 0.13952307 0.050280504 -0.049172465
000230 84 09 25 be 1f c6 b1 bc 64 60 3d 3d c1 e5 34 bd
       -0.16116911 -0.021700917 0.046234503 -0.044164423
000240 5c d4 dd bd e5 0d 37 bd eb 64 26 be 1b 6c 3d 3c
       -0.1083152 -0.044690985 -0.16249435 0.011561419
000250 3f 55 83 3d 50 b2 de bd 75 31 95 bd b7 23 cb bd
       0.06412744 -0.10873854 -0.07284824 -0.099189214
000260 f7 48 e8 3b a1 77 91 bd c2 53 cf bc f9 34 c3 3d
       0.007088776 -0.071028955 -0.025308494 0.09531588
000270 52 5c ae 3d bf fd 3d bd 22 4b 42 3d 6f 9a 2a bd
       0.085137025 -0.04638457 0.047434933 -0.041651186
000280 9f eb 9e 3b 02 d9 43 3e 19 c1 0e be 80 25 6c 3c
       0.0048498656 0.1912575 -0.13940848 0.014413238
000290 98 77 12 3e 4d 08 f0 bd 46 cf 0d 3e 63 f9 2e be
       0.14303434 -0.11720333 0.138486 -0.17087321
0002a0 89 bd 10 3d 63 fc 31 be f0 77 4f 3c fa 17 b2 3d
       0.035337005 -0.17381434 0.012662873 0.086959794
0002b0 ed da ba bd 0d 62 72 bb e4 04 49 3e 38 eb cd 3d
       -0.09123788 -0.0036984712 0.19630772 0.1005463
0002c0 df 5d 9b bd a2 3a 88 bd 89 f5 44 3d fc 2e e3 bd
       -0.07586264 -0.06651808 0.048085723 -0.11092946
0002d0 dd 2d 47 be e4 f9 e6 bc 0c 1a 9e bc 2c 48 08 be
       -0.19451089 -0.028195329 -0.01929953 -0.13308781
0002e0 a8 85 d6 3d 49 80 17 3e 4d 31 1c bc 6b 42 a9 bc
       0.10474712 0.1479503 -0.009533239 -0.020661553
0002f0 83 e8 36 3e e5 1e b5 bd 23 b2 5c bd c8 85 c5 bd
       0.17862134 -0.08843783 -0.053880822 -0.096446574
000300 5e 09 24 bd a2 0e 01 be 05 b9 1e 3e 1c 79 06 3e
       -0.040047996 -0.12603238 0.15500267 0.13132137
000310 1a e6 cd bc e8 55 b2 3b 8b 3c 1f 3e 67 38 9f 3d
       -0.025134135 0.0054423697 0.15550439 0.0777443
000320 ed 4b 2c be ae ae 41 3d a5 f5 0d 3e 51 d1 0d bb
       -0.16825838 0.04728573 0.13863237 -0.0021639655
000330 8e 24 63 3c f7 d1 b3 bd ba 1f cb bd c7 ba f6 bc
       0.013863696 -0.08780282 -0.09918161 -0.03011836
000340 e6 6d 18 be 79 96 3f be 40 36 d1 3d 8c 49 22 3d
       -0.14885673 -0.18709745 0.102154255 0.03962092
000350 b7 cc d3 bd cd 3f 3e be 6e eb aa bd 0a 82 10 be
       -0.10341781 -0.18579026 -0.08345686 -0.14112106
000360 b4 b5 9b 3d 92 6e c9 3d dd cd aa 3d 81 34 31 3e
       0.076030165 0.09835543 0.083400466 0.17305185
000370 8e c3 f9 3d 4d fe cd 3d af 2a a2 bd 89 a1 2b 3e
       0.12195502 0.1005827 -0.079182975 0.1676084
000380 ef 91 9c bc e0 6f c9 3d e5 bf 4d 3a c8 5c 47 3d
       -0.019112555 0.098357916 0.0007848724 0.048672467
000390 c2 bd 1d 3d 31 6e aa bd 33 ed 3e be 96 ad 0f 3e
       0.038511045 -0.083217986 -0.18645172 0.14031062
0003a0 4e 69 7d 3d 20 06 b6 bc 3d b9 1f 3e e1 ef 36 3e
       0.061868005 -0.022219718 0.15598007 0.17864944
0003b0 71 51 25 bc 96 68 3b be 21 61 77 bd 86 ff 59 3d
       -0.010090218 -0.18301615 -0.060395364 0.0532222
0003c0 8e 54 7c bd e4 63 a3 bd d7 4f f5 3d 7b 22 2e be
       -0.061604075 -0.07978037 0.11978119 -0.17005341
0003d0 f5 4a 20 3d 62 31 18 3e 74 b7 b0 3d e1 ac 1a be
       0.039133985 0.14862588 0.08628741 -0.1510501
0003e0 21 07 b3 bc 0c 2e 40 3c df 21 98 3d ca fa 5d 3d
       -0.021853985 0.011729728 0.074283354 0.05419425
0003f0 61 72 09 bd c0 45 59 3d fb 6b 02 be 82 04 0e 3e
       -0.033556346 0.053045034 -0.12736504 0.13868907

convs.0.lin_l.bias f4 [64]
000000 57 c2 c8 bc 4b 8f 12 3e d3 d2 4b be d8 c1 ec bd
       -0.024506731 0.14312474 -0.19904642 -0.1156041
000010 ac 05 cb 3d f8 d8 8b 3d d4 34 f4 3d 79 42 29 3d
       0.09913191 0.06828493 0.11924139 0.04132316
000020 95 88 0e be fe 21 48 bc a4 b3 aa 3d be c5 f5 bd
       -0.1391929 -0.012215136 0.08335045 -0.12000607
000030 49 64 1e 3e fc f9 18 be 78 58 9a 3d b2 f4 21 3e
       0.15467943 -0.14939111 0.07536405 0.15816
000040 0e 5e 4c be ef a4 01 3e 2e e0 05 be 63 86 c6 bb
       -0.19957754 0.12660573 -0.13073799 -0.0060585006
000050 f1 5b bb 3d 0d 37 50 3e 02 02 93 3d 1b 4b 03 be
       0.09148396 0.203335 0.07178117 -0.12821619
000060 0c 6a c2 3c b8 18 2c 3e 37 e0 f8 3d 6c a5 95 bd
       0.023732208 0.16806304 0.121521406 -0.07306942
000070 d5 4c da 3d 84 91 b5 bd 8b a4 14 3e 61 b1 8f 3c
       0.10659186 -0.088656455 0.14515893 0.017540636
000080 b5 fc 16 bd 22 71 82 bd 60 cc 2b 3e 92 2e 17 bd
       -0.036862094 -0.063692346 0.16777182 -0.036909647
000090 6c 52 f4 3d 56 31 16 be 21 f6 51 3d 27 fc f9 bd
       0.11929783 -0.14667258 0.051260117 -0.12206297
0000a0 8a ef 50 3c c9 8a 0c 3e 2b 17 93 3c c4 79 00 be
       0.012752423 0.13724817 0.017955383 -0.1254645
0000b0 77 55 36 be da 32 e3 3d 57 c9 26 3e 5d b2 d0 bc
       -0.1780604 0.110936835 0.16287743 -0.025475675
0000c0 31 e1 2e be f5 f8 e3 bd 26 fd 0d be 64 23 87 bc
       -0.17078091 -0.11131469 -0.138661 -0.016496368
0000d0 3a ed c8 3c bd 85 39 bd a2 ee e7 bd 6c f3 a5 bd
       0.024527181 -0.04529356 -0.113248125 -0.0810307
0000e0 a7 06 93 3d cc ac f9 bd f2 be b5 bb 6d 16 cc bd
       0.07179003 -0.121911615 -0.005546444 -0.09965215
0000f0 8f 10 8b bc 5c dd 31 be d8 86 97 3d 85 bf 87 bd
       -0.01697567 -0.17369598 0.07398766 -0.06628326

convs.0.lin_r.weight f4 [64, 32]
000000 be a3 fa 3d 67 e0 02 3e 67 a9 5c bc 07 6d 63 3d
       0.122382626 0.12780915 -0.013468123 0.0555239
000010 0e e2 c2 bd 0f e3 84 bd c1 ac 1f 3e f3 de c7 3d
       -0.09515773 -0.064886205 0.15593244 0.09759321
000020 6a b7 2b be 02 a8 00 3d 0c 36 d6 bd 89 9c 2d be
       -0.16769186 0.031410225 -0.104595274 -0.16954245
000030 32 cb 12 3e 5b a4 55 3b 86 57 45 3e f9 92 cb 3d
       0.14335325 0.0032599184 0.19271669 0.09940142
000040 ef d0 19 bd 2e 9e 9f 3d 76 e5 cd bd c4 02 01 3d
       -0.03755277 0.07793842 -0.10053532 0.031496778
000050 81 6f 90 3d 9f 00 54 bd 4d bf 2c bd 8a d9 db 3d
       0.07052518 -0.051758405 -0.042174626 0.10734852
000060 b3 c4 d8 bc 64 41 ef 3d 56 c4 3e 3d 31 db a0 bd
       -0.026460981 0.11682394 0.04657396 -0.078543074
000070 82 3b f5 bd 2a a7 21 3d 52 0d 8e bd 96 d1 82 bd
       -0.11974241 0.03946606 -0.069361344 -0.063876316
000080 49 7a 2b be b3 3d ad bc 73 3e d8 bd a1 ce 6c 3d
       -0.16745867 -0.021147585 -0.10558786 0.057814244
000090 ab c6 ba 3d 50 9e bb bd e6 5d d8 bd e6 ca 42 be
       0.09119924 -0.09161055 -0.10564785 -0.19022712
0000a0 f8 39 31 be 5f 67 27 3e 2f fc 10 3d 45 5d e6 bd
       -0.1730727 0.16348027 0.03539675 -0.112482585
0000b0 3b 6b 4e 3c 81 c4 05 3e 7d 43 88 3c 39 90 0c be
       0.012598808 0.13063242 0.016633743 -0.13726892
0000c0 50 22 62 3d b1 d4 2e be 60 7b 13 3e 70 45 62 bd
       0.055208504 -0.17073323 0.14402533 -0.055242002
0000d0 63 49 1d 3e ca f1 8e 3b 94 68 cb bd 33 84 01 3e
       0.15360026 0.0043623196 -0.09932056 0.12648086
0000e0 ac 3b b2 3d eb 39 05 be b8 63 03 be 10 97 09 3e
       0.08702788 -0.13010375 -0.12831008 0.13436532
0000f0 a8 7b fc 3d 6a b0 b7 bd 11 30 03 be 14 db ef 3d
       0.12328273 -0.08969195 -0.12811305 0.11711708
000100 aa 50 e2 bd e0 b4 c7 3d b4 7f 83 bd 7b c4 b0 3d
       -0.11050542 0.09751296 -0.06420842 0.08631226
000110 43 a2 0f 3d b0 6d 24 3d 9d 42 a4 bd ab b4 1a be
       0.035066854 0.04014367 -0.08020518 -0.15107982
000120 fb b3 fb bd 38 53 cf 3d 1d fc 20 ba b3 01 59 bd
       -0.12290188 0.101232946 -0.00061410834 -0.052980136
000130 a5 55 94 3d c8 90 f6 bd 58 d0 1e 3d 03 8a 39 3d
       0.07242898 -0.120393336 0.03877291 0.045297634
000140 fc 28 e5 bd 57 42 9d 3c f9 f6 10 3e de 00 10 3e
       -0.11189458 0.019196672 0.14156713 0.14062831
000150 8d 1f d1 3d bd ba 72 bd 1f 2d 0c 3d 2c ce a7 3d
       0.10211096 -0.05926012 0.03422272 0.08193621
000160 1f 20 47 3d 2b 31 fa 3c dc 02 08 be 7c 01 fb bd
       0.048614617 0.030541023 -0.13282341 -0.122561425
000170 a6 4f 3b 3e 09 31 b1 3d 7f 0c 74 bd 45 24 17 3e
       0.18292102 0.08651931 -0.05958223 0.1475993
000180 ed a4 8e bd 27 0b 19 be e6 b5 57 3d 5d 80 35 be
       -0.06965051 -0.1494566 0.052663706 -0.17724748
000190 ec 82 89 3d ed 3f 66 bd 72 3d 14 3e 07 22 26 3c
       0.067144245 -0.056213308 0.14476565 0.010139949
0001a0 28 a9 a2 bc 71 47 da 3d 64 a6 3b bd 6e 05 08 bd
       -0.01985605 0.106581576 -0.04581298 -0.033208303
0001b0 97 1c 84 bd 78 64 33 be 1a 34 df bd 5d 98 12 be
       -0.064507656 -0.17518795 -0.108986095 -0.14315934
0001c0 d2 c1 90 3d 24 dc 81 bd 90 f9 0b 3e c7 dd 10 3e
       0.07068218 -0.063408166 0.1366942 0.14147101
0001d0 95 9a e1 3d 22 29 ba 3d 3d 0a 1f 3e c1 62 56 be
       0.11015812 0.09089877 0.1553125 -0.20936109
0001e0 0c 97 7a bd ef a8 fb bd 59 49 a5 bd b3 bb 1c 3e
       -0.061179206 -0.12288081 -0.080706306 0.15305977
0001f0 67 d3 1c 3e ef 66 c6 bd 1b cb 2f 3d 23 c9 ac bd
       0.15315019 -0.09687602 0.042918306 -0.08436801
000200 05 e6 a5 3d 02 5f 28 be 7c 71 78 bc 0d 4c 10 3e
       0.08100513 -0.16442493 -0.0151637755 0.14091511
000210 6a 7b 53 bd 8b a5 ce bd a7 b0 25 be b7 dd a6 bd
       -0.05163137 -0.100901686 -0.16180669 -0.081477575
000220 7c 19 76 bd c2 d9 5f 3d df 14 a8 3d d1 c3 ea 3b
       -0.060082898 0.05465103 0.08207106 0.0071644564
000230 65 3a a7 bd 89 a2 38 be ac 14 81 3d 39 d8 e9 3d
       -0.08165435 -0.18030752 0.06302771 0.11418194
000240 31 16 8b 3d e3 0b 1a be 53 73 f5 bd d0 5b 68 bd
       0.06791342 -0.15043597 -0.11984887 -0.056728184
000250 4b cf 70 3d 83 5d f0 bd 01 cf 21 3e b5 22 ef 3d
       0.05879144 -0.11736586 0.15801622 0.11676542
000260 bf ae ca 3d 9d a0 fd 3d d8 74 8a 3d 7c 1f 23 3e
       0.098966114 0.1238415 0.067605674 0.15929979
000270 d7 03 ee bd e6 08 1d be f9 a7 d5 3d 5e d3 e8 bd
       -0.11621826 -0.15335426 0.10432429 -0.1136844
000280 d8 91 9e 3a 06 81 55 3e 29 df b1 bc fd fd f2 bd
       0.0012097908 0.2085 -0.021712856 -0.11864851
000290 26 f7 aa 3c 8b 40 4e bd ab cc 73 be bf 2d 34 3e
       0.020869803 -0.05035452 -0.23808543 0.17595576
0002a0 36 0b c0 bd ce d9 ec bc e6 63 b0 3d 81 88 e0 bc
       -0.09377138 -0.028912451 0.08612804 -0.02740884
0002b0 be 46 f2 bc 4e f9 8f bc 68 00 23 3e dc d6 6e bc
       -0.029574748 -0.017574932 0.15918124 -0.014577594
0002c0 e7 44 45 3d 99 4c 5a bd 0b 85 fc 3d 73 8d fd 3d
       0.048161414 -0.053295705 0.123300634 0.12380495
0002d0 89 3c ce bd 84 0f bd bd c5 7a 35 bc 7b ba d8 3d
       -0.1007014 -0.09231475 -0.011076634 0.10582443
0002e0 86 ae a6 3c ff d8 ce bd 3b e1 af 3d 6f 2c 2c be
       0.020346891 -0.100999825 0.08587881 -0.16813825
0002f0 33 11 29 bb bc 95 90 3c 5c 36 1e 3e d3 5b 8e bd
       -0.0025797605 0.017649524 0.15450424 -0.06951108
000300 38 e9 22 be 81 2d 0f 3d 57 91 61 3e e2 db 0d 3e
       -0.15909278 0.034955505 0.22028099 0.1385341
000310 ed 7b 33 be 70 22 d9 bd 68 29 3d 3d 25 3a 3a bc
       -0.17527743 -0.106022716 0.046182066 -0.011366402
000320 0a 55 9c bd 14 14 d0 3d 36 72 e2 3b 29 ae 92 3c
       -0.076334074 0.101600796 0.0069105877 0.017905312
000330 54 ab 01 be 79 13 54 bd 61 81 55 3d c9 4d 40 be
       -0.12663013 -0.051776383 0.05212534 -0.18779673
000340 f5 8b 31 bd f0 6b a9 bd 38 13 dc bc cb 62 1e bd
       -0.043346364 -0.082725406 -0.026864633 -0.038668435
000350 8e 90 db bd 16 ea 1c bd 69 e1 d8 3d 33 c5 48 bd
       -0.10720931 -0.03830918 0.105898686 -0.04901619
000360 6b cf ca bd d1 c3 12 be 37 f2 16 3e fe d6 c6 bd
       -0.09902843 -0.1433251 0.14740835 -0.09708975
000370 ac d1 2c 3e 99 db 21 be c3 7c 8f bc 09 7b f7 3d
       0.16876858 -0.15806426 -0.017515546 0.12084014
000380 75 a4 3b 3e b3 f3 92 bd 58 73 02 3e f3 b7 7c 3c
       0.18324454 -0.07175388 0.12739313 0.015424716
000390 f3 34 b8 3d 50 4d 34 bd cb 7d 14 be 0e 27 14 bd
       0.08994474 -0.044019043 -0.14501111 -0.036170058
0003a0 77 3b dc 3d e0 0b b8 3d 62 b0 9c bd 13 01 9d bd
       0.107535295 0.0898664 -0.0765083 -0.076662205
0003b0 90 ea 86 3d 47 ae f0 bd 00 51 f4 3d 31 20 ce bd
       0.06587708 -0.11751991 0.11929512 -0.10064734
0003c0 30 b4 22 3d e8 8a c6 3b 17 4a b0 3d 43 d0 20 3e
       0.03972262 0.0060590394 0.086078815 0.15704446
0003d0 38 1a 9f bd 5c f6 66 3c 81 da f1 3c f4 3b 88 3d
       -0.07768673 0.014096823 0.029523136 0.0665206
0003e0 71 5a bd bc e7 8f 90 3d 0a b3 79 bc 07 0d 41 3d
       -0.023114415 0.07058697 -0.01524044 0.047131564
0003f0 07 cc de bd c5 e9 f2 3d 64 a2 50 be 0b 2d 99 bd
       -0.10878759 0.11860994 -0.20374447 -0.074792944

convs.1.lin_l.weight f4 [128, 64]
000000 7d 27 98 3c 15 a9 d3 bc b6 42 38 bd 39 22 c4 3c
       0.018573517 -0.02583746 -0.044985496 0.0239421
000010 e5 4c 6a bd 0a a5 cd bd b5 4b e6 bd 99 e3 07 3d
       -0.05720224 -0.10041244 -0.11244909 0.03317604
000020 fb a7 18 3d af de 7f bd 77 9b 66 bd 14 91 39 3d
       0.037269574 -0.062468227 -0.056300607 0.045304373
000030 dc da ff 3d e7 92 7a 3d 4c 61 92 3d bf 32 dd bd
       0.12492916 0.061175253 0.07147464 -0.10800695
000040 61 25 52 bd 22 e7 f1 bb f4 19 df 3d 73 11 0d be
       -0.05130518 -0.0073822895 0.10893622 -0.13776188
000050 91 16 b6 bd 91 7b 0d 3d ff cd 04 bd cb 1e f0 bb
       -0.08891023 0.03454167 -0.032423016 -0.0073278896
000060 db a6 83 bd a4 e8 31 3c 9c 3c c9 3c 85 23 c6 3d
       -0.064283095 0.0108586885 0.024565034 0.096747436
000070 ca b5 cc 3d b2 5a a5 3d 7e ce b3 3d 84 49 f7 bd
       0.09995611 0.080739394 0.0877962 -0.12074569
000080 31 2f 9f bd d3 b7 9f bd 72 77 cb 3d 2c 0d 4b 3d
       -0.07772673 -0.077987336 0.09934892 0.04957311
000090 50 a1 ff bd 36 df 5e 3d d2 a1 89 3d 1c 45 e4 3d
       -0.1248194 0.05441209 0.06720318 0.11145994
0000a0 b1 41 a6 bd 33 91 e9 bd 9c 65 63 3c 5a f3 c6 bd
       -0.081179984 -0.11404648 0.013879206 -0.097143844
0000b0 2c ae 89 3d bd 95 af bd ed 21 13 3e 19 6b 8f 3d
       0.06722674 -0.08573482 0.1436841 0.07002849
0000c0 6d 3c 6b 3d 0d 7f f2 bd 96 63 d4 3d 78 09 70 3c
       0.057430673 -0.11840639 0.10370557 0.014650695
0000d0 84 b3 3f 3d cf 9f 51 3d 94 74 cb 3d ed 40 04 be
       0.04680206 0.051177796 0.09934345 -0.12915392
0000e0 c7 f6 42 bd 96 ef d6 bd df c2 9d bd 03 43 c9 3d
       -0.047598626 -0.10494916 -0.07703184 0.098272346
0000f0 34 36 17 be 96 05 ba bd 4e 74 d0 3d 1f 56 92 bc
       -0.1476677 -0.09083097 0.10178433 -0.017863331
000100 17 9b 04 be 7c 6d 9d bd d8 80 8c 3c f3 e2 3e bd
       -0.12949787 -0.07686898 0.017151281 -0.046603154
000110 20 aa 52 3d 10 4b c6 bd 69 72 cc 3c 5b d9 3c bd
       0.051431775 -0.09682286 0.024956899 -0.046105724
000120 a4 91 db bd 0a a4 2c 3d 96 56 aa 3d 79 cf 21 3d
       -0.10721138 0.042148627 0.08317296 0.039504502
000130 c2 cb ce bd 6f 39 56 3c ae a8 01 3c 93 77 3b 3d
       -0.100974575 0.013075217 0.0079137515 0.04576833
000140 8f 2f cd 3d 01 5c 81 bd 81 7c 0a be 5c ae 0b be
       0.10018837 -0.063163765 -0.13524057 -0.13640732
000150 ab 58 1a 3d de ff 0d be f0 1d ad bd 7a f1 30 be
       0.037682217 -0.13867137 -0.08452976 -0.17279616
000160 37 6f 62 bd ae 95 36 be dd c3 f3 bc a9 39 dc bc
       -0.055281844 -0.17830536 -0.02975648 -0.026882963
000170 a1 10 e0 bd 51 82 12 be 2e 7c 89 3c 24 b1 2a bd
       -0.10940672 -0.14307524 0.016782846 -0.04167284
000180 e4 ed b3 bd f3 a5 a8 3d 67 2c 45 bd 19 ad 44 3d
       -0.087856084 0.08234777 -0.04813805 0.04801664
000190 48 e0 be bd 81 8a c5 3c 5a 25 63 bd 39 76 07 be
       -0.09320122 0.024113895 -0.055455543 -0.13228692
0001a0 7b 47 62 bd 13 cd 86 3d 38 38 88 bd 8a 29 6a 3d
       -0.05524395 0.065820836 -0.06651348 0.05716852
0001b0 4f f7 f8 bc 32 fd 63 3d 82 41 cb bc 8d 67 8c 3d
       -0.030391363 0.055661388 -0.02481151 0.06855688
0001c0 e7 e0 37 3d 17 dc 14 3d 97 6b 3b 3d 8b bf c6 bd
       0.044892218 0.036342707 0.045756903 -0.09704503
0001d0 2a be 18 be 40 81 f9 bb 35 36 3b bc 4f ca 1b be
       -0.14916292 -0.0076142848 -0.011426498 -0.15213893
0001e0 67 fb af bd fc a2 34 bc eb f8 92 bb e9 e8 dc bd
       -0.08592873 -0.011025187 -0.0044852397 -0.107866116
0001f0 32 67 ab 3c 42 95 d2 bd c0 11 97 3d a3 95 4a 3d
       0.02092323 -0.10282375 0.073764324 0.04945911
000200 41 a8 a0 3d 2a 18 da 3d 40 f7 a7 bd ed 73 c4 3d
       0.07844592 0.1064914 -0.08201456 0.095924236
000210 3f fe e9 3d ce 20 df 3d 77 f0 fe 3b 86 bb 8a 3b
       0.11425447 0.10894929 0.0077801305 0.0042337803
000220 6d 11 77 3d 8a 57 2c 3d f5 61 74 3d c4 53 2c 3d
       0.060319353 0.04207567 0.05966373 0.042072073
000230 c8 74 c3 3d 7d 52 fb bd 8a 2c 7f 3d c6 b2 5e bd
       0.09543759 -0.12271593 0.062298335 -0.05436971
000240 66 ce 64 3d 09 3c 78 bc 20 39 3a bd 1c d0 c9 3d
       0.0558609 -0.015151032 -0.045464635 0.09854147
000250 91 f9 d5 bd 40 27 65 bd f5 54 40 bc 5e c5 0b be
       -0.10447992 -0.055945635 -0.011739005 -0.13649508
000260 c8 72 8f 3c f7 03 dd bd c1 01 be 3d 57 27 4b 3d
       0.017510787 -0.10791772 0.09277678 0.049598064
000270 c2 21 bc bb 7e 90 0b 39 8e 45 b4 3b bf a3 aa bc
       -0.005741329 0.000133099 0.0055014556 -0.020830033
000280 04 a2 9d bd 0b a7 c0 3c 1e f7 28 3d 78 1c 6e bd
       -0.07696918 0.023517152 0.041251294 -0.05813262
000290 5e 6c 8a 3d 90 99 b1 bd b4 63 96 bd bb f1 b3 bc
       0.06758951 -0.08671868 -0.073432356 -0.021965852
0002a0 9a 3d b3 bd 1b 91 c6 bd 1e 50 16 bb fe 19 aa bd
       -0.08751984 -0.096956454 -0.0022935937 -0.08305739
0002b0 a9 6f 90 3c 66 89 03 3d 25 02 d7 3d 1b a2 54 bd
       0.017631369 0.032113455 0.10498456 -0.05191241
0002c0 74 fe c2 3d d1 b8 0a bc 40 ec 23 bc 94 38 b2 bc
       0.09521189 -0.008466915 -0.010005057 -0.021755494
0002d0 6e ce f5 3d ce 0a d6 bd 49 4d 98 3d b2 b2 87 3d
       0.12002264 -0.104512796 0.07436616 0.0662588
0002e0 11 77 ec bc d9 ac 1e bc ab 0d 3e bc c0 29 9d bd
       -0.028865369 -0.009684765 -0.011599938 -0.07673979
0002f0 31 3f 8d bd 5e 39 02 3e 9a 97 5a 3d 7e c0 ff 3b
       -0.068968184 0.12717196 0.053367235 0.0078049293
000300 5c c0 e5 3d 2b 99 58 3d b8 15 f9 3d 67 75 d4 3d
       0.1121833 0.052880447 0.12162346 0.10373955
000310 04 63 09 3e dd 57 4c 3d 54 01 a0 3d 55 8d 91 bd
       0.13416678 0.04988848 0.07812753 -0.07107035
000320 ea fa e6 bd 71 99 e6 3d e5 29 01 3e e1 3f ce 3b
       -0.11278327 0.112597354 0.12613638 0.006294236
000330 7c 9b 19 3e bf 59 be bd 31 f8 db 3c 1c e1 c8 3d
       0.15000719 -0.092944615 0.026851745 0.09808561
000340 1f a9 a6 3c 2a eb b9 3d 5a b8 cc bd ba a9 b6 3d
       0.020344315 0.09078057 -0.099961 0.089190915
000350 99 53 80 3d 9e c7 99 3d fe 1f 12 3e a1 16 1d 3e
       0.06265945 0.07508777 0.14270017 0.15340663
000360 e1 bc bd 3c 11 bc cc bc 26 1a 01 bd 29 36 1d 3d
       0.023161354 -0.02499202 -0.031519078 0.03838173
000370 27 f3 c3 bc ed df 12 3e 6d 7a c4 3c 2d 04 6f 3d
       -0.023919655 0.14343233 0.023984158 0.05835359
000380 61 30 cb bc 5c b5 28 bc 9f e2 88 3c 99 a0 8d 3d
       -0.024803342 -0.010297146 0.016709624 0.06915397
000390 86 3c 4c 3a d3 68 1b 3d 34 df 1c 3e d7 0a b2 3d
       0.0007791001 0.037941765 0.1531952 0.08693474
0003a0 2c 61 77 bd 40 76 f4 3c af e3 7e 3d 62 3a 8b bd
       -0.060395405 0.029841542 0.062228855 -0.06798245
0003b0 cc a9 d2 bd 7b 09 a0 3d cc fc 15 3d cc dd 50 bd
       -0.102862924 0.07814308 0.03661804 -0.050992772
0003c0 45 d4 84 bd cf f8 b6 bc b0 49 95 bd 73 41 25 3c
       -0.064858 -0.022335438 -0.072894454 0.010086405
0003d0 41 58 5d bd 21 38 f0 3d cf e4 a6 bd b4 0b ab bb
       -0.054039244 0.11729456 -0.081491105 -0.005219901
0003e0 cc 1a 8c 3b a2 c8 00 3d 6f c8 02 3e f5 23 fc 3d
       0.0042756554 0.03144134 0.12771772 0.12311546
0003f0 4c 2c 50 bb 7b 2f c8 3d b8 70 0b be 28 26 cd bb
       -0.0031764684 0.09774681 -0.13617218 -0.006260652

convs.1.lin_l.bias f4 [128]
000000 cc 26 7a bd 5a 5e 0c bc 26 f9 9a 3b 95 3e 06 3e
       -0.061072156 -0.008567417 0.004729408 0.1310981
000010 1b 80 8e bd 54 9a 91 bd 05 01 0d 3e 72 13 63 bd
       -0.06958028 -0.07109514 0.1376992 -0.055438466
000020 f8 a0 40 bc b6 b9 4c bd 36 6c 9d bd de 73 f5 3d
       -0.011757128 -0.049981795 -0.07686655 0.119849905
000030 c2 c7 db bd 8d fa d0 3d 53 6e 94 bd 23 0f 1c bd
       -0.1073146 0.10204039 -0.07247605 -0.038100373
000040 0a 02 2c bd 76 e4 f3 bd d9 b6 00 3e 90 f9 b7 3d
       -0.041994132 -0.1190881 0.12569751 0.08983147
000050 31 72 04 3c e1 54 5d 3d ad 2c a5 3c 7f ea ed 3d
       0.008083866 0.054036025 0.020162905 0.11616992
000060 bf 10 21 bd 31 71 de bc 50 97 07 be a9 f9 c9 bd
       -0.03932261 -0.027153583 -0.13241315 -0.09862072
000070 a3 59 00 be 99 41 5e 3d f0 55 41 3d e1 94 c5 bd
       -0.12534194 0.054261778 0.047201097 -0.09647537
000080 2a 3f c0 bd 00 aa ac bd 54 66 76 3d 9f c4 0f bd
       -0.093870476 -0.084308624 0.06015618 -0.03509962
000090 26 37 16 3b 71 f2 ca 3d 2a cf 9b bd b7 e8 a7 bd
       0.0022921055 0.09909523 -0.07607873 -0.08198684
0000a0 0f b6 eb bd d6 f0 fc 3d 47 1e e7 3a b0 f8 66 bd
       -0.11509334 0.12350623 0.0017632925 -0.05638951
0000b0 31 1c e5 bd 0d b8 5d bd 14 1d 53 3d 3d 06 e9 3d
       -0.11187018 -0.054130603 0.051541403 0.11378143
0000c0 e5 8b 92 3c 56 9b e2 bd 01 e8 09 be f0 bf 78 3d
       0.017888973 -0.11064784 -0.13467409 0.06072992
0000d0 95 43 7f 3d 97 71 73 3d 2f 6a e9 3d 34 b1 e2 bd
       0.06232031 0.0594345 0.11397206 -0.11068955
0000e0 0b be c8 ba 25 64 63 3c 1c 88 c5 3d b8 fa 40 3d
       -0.0015315426 0.013878857 0.096451014 0.047114104
0000f0 92 70 51 3d 61 7c cd bc 50 3f 8b bd 25 69 1f 3e
       0.051132746 -0.025083723 -0.06799185 0.15567453
000100 6a 1e fa 3d 78 2a fb bd e0 6d 1d bd 5f ed d7 bd
       0.12212832 -0.1226396 -0.038434863 -0.10543322
000110 4f 74 99 3d 21 20 81 3d ae 17 55 3d 01 d3 69 3d
       0.07492887 0.06304956 0.052024536 0.057085995
000120 d3 24 bc 3d b1 48 b1 bd 0b bc de 3b 9a 71 e5 3d
       0.09186711 -0.08656443 0.006797319 0.112033084
000130 3d 51 8f bd c6 d1 05 be 52 f6 f1 bd e8 82 bb bd
       -0.06997917 -0.13068303 -0.1181456 -0.09155828
000140 8c c9 03 bd 23 6c c1 bd a5 ec f6 bc b1 db 93 3d
       -0.032174632 -0.094444536 -0.030142138 0.07219637
000150 78 83 f0 bc 37 ab 97 3c 6a 4e 28 3d c2 f1 c8 bd
       -0.029359564 0.018514259 0.041090406 -0.09811737
000160 c4 39 8c 3d 06 51 88 bc 3f 58 2a be 7a cb aa bd
       0.068469554 -0.016640197 -0.16635226 -0.08339591
000170 12 2f b2 3d 55 28 68 3d dc 34 73 3d 01 3e 33 3b
       0.08700384 0.05667909 0.059376583 0.002735019
000180 d9 3d 2a 3d a6 b3 fa 3b 65 9a a3 bc 4a 11 88 bd
       0.04156289 0.0076508103 -0.019971082 -0.066439226
000190 31 b2 f7 3d 64 34 d6 bc e8 8c 48 3d 76 e4 1d bd
       0.12094534 -0.026148029 0.048962504 -0.038547955
0001a0 3e 37 e7 bd b6 54 c3 3d af f7 b6 3d ad 6e 4c 3c
       -0.112898335 0.09537642 0.08933961 0.012477559
0001b0 d5 61 9d bd 11 0e a9 3d 0b 04 f7 3c cf 68 cc 3c
       -0.076846756 0.08254636 0.030153295 0.02495232
0001c0 f8 01 c2 3d 26 ec 9a bd 98 3f 01 3e b1 ca 7a 3d
       0.09473032 -0.07564573 0.12621915 0.061228458
0001d0 d2 e4 ca 3d 43 b0 6e bd 2c 44 8e bd 3e ef a8 bc
       0.09906925 -0.058273565 -0.069465965 -0.020621892
0001e0 09 d1 1b 3c 4e eb 30 bd 13 a1 92 3c ca d8 df 3d
       0.009510287 -0.043193154 0.017899072 0.10930021
0001f0 75 31 f2 bd 92 d6 96 3d d4 56 e5 3d c2 39 4c bd
       -0.118258394 0.07365145 0.11198202 -0.04985977

convs.1.lin_r.weight f4 [128, 64]
000000 73 ae f8 b9 eb f9 08 bd a5 62 6c bd e6 da c2 bd
       -0.0004743222 -0.033441465 -0.057711262 -0.09514408
000010 9f aa 8d 3c 02 97 ae 3d 7a 91 ba bd 1a 29 64 bd
       0.017293273 0.08524896 -0.09109779 -0.05570326
000020 ec a8 63 bd c9 48 8a bd 06 2a 93 bd 6e a5 68 3d
       -0.05558102 -0.06752164 -0.0718575 0.05679839
000030 4d 05 01 be e7 f8 51 3d da ca c8 bd 9e 52 ce bd
       -0.12599678 0.051262762 -0.09804316 -0.10074352
000040 1a 4f 67 bd 2e 42 a0 bd 98 57 84 bc 42 a7 83 3c
       -0.05647192 -0.07825123 -0.01615505 0.016070966
000050 26 f3 ea bd b2 05 8c 3c 61 c1 8a 3d 6a 11 dc bd
       -0.11472158 0.01709256 0.06775165 -0.10745509
000060 fe 6d d3 bd 79 29 05 bd 20 f8 5f 3c cc 6a 8f 3d
       -0.10323714 -0.032510255 0.013669997 0.07002792
000070 1b 6e 50 bd 29 9c 50 bd f6 be f6 3d ee bb 57 bc
       -0.050886255 -0.050930176 0.12048142 -0.0131673645
000080 10 e9 21 bd 51 f2 98 3d c1 d2 d3 3c 6f 71 8c bd
       -0.039528906 0.07468093 0.025857331 -0.06857573
000090 89 12 18 3d b0 3e 69 3c 5e e4 58 3d e3 31 55 bd
       0.03712705 0.014236137 0.052952163 -0.05204953
0000a0 a0 fc 9f 3d c8 79 65 bd 7f 8a 32 bd 5d ed af bc
       0.07811856 -0.056024343 -0.04358911 -0.021475488
0000b0 58 f2 a9 3d 6c b8 7c 3c 85 6b 43 3c 2d 43 e1 bd
       0.082981765 0.015424829 0.01192749 -0.10999141
0000c0 6b 81 08 3d e4 93 f7 bd 19 15 fa 3d e0 e3 02 be
       0.033326548 -0.12088755 0.12211055 -0.1278224
0000d0 70 71 44 3d 25 5e 62 bb 22 78 4c 3d ac 6a 4f bc
       0.047959745 -0.0034540978 0.049919255 -0.01265971
0000e0 0c a1 1f 3d 43 76 51 bd c5 78 6d bd c1 eb 80 3d
       0.038971946 -0.051138174 -0.057976503 0.062949665
0000f0 3e 25 b0 3d e1 c8 ee bd 2c 64 be 3b 1b fa 75 bd
       0.086008534 -0.11659408 0.0058102813 -0.060052972
000100 08 2f b6 bd fe 7b d2 3d ba 85 ef bd aa eb c1 bd
       -0.08895689 0.10277556 -0.11695428 -0.094687775
000110 01 e1 76 bd dc 78 91 3d 83 a6 db bd dc 22 fb bd
       -0.060273174 0.0710313 -0.10725119 -0.12262508
000120 da 44 0f be 19 8e 00 be 96 0b 35 bd 47 a1 9d bd
       -0.13991109 -0.12554206 -0.044200502 -0.07696777
000130 0b d7 cb bd 1d 42 8f bd 89 ab 72 3d 2a b2 47 3d
       -0.099531256 -0.06995032 0.05924562 0.048753895
000140 85 e6 fd bd c8 34 ee 3d f5 39 3c be 98 af 43 bd
       -0.12397484 0.11631161 -0.18381484 -0.04777488
000150 dd 56 20 bd cb d1 e5 3c 19 4a 0c 3d bb 7e 1e 3a
       -0.03914534 0.028054139 0.034250353 0.0006046106
000160 0a d5 02 be ea fb 32 3c 2e 6b bf bd 49 aa 4b 3c
       -0.1277658 0.010924319 -0.09346615 0.012430736
000170 59 62 8a bd 5c 32 06 be 60 f5 d9 3d ee 2f 8a bd
       -0.067570396 -0.13105148 0.10642505 -0.06747423
000180 01 74 ff 3c 00 8d 55 bd 13 ca 10 3d c0 a1 6f bd
       0.031183245 -0.05213642 0.035348963 -0.058503866
000190 cd d2 90 bd ef 3d c2 bd 78 93 6a 3d 07 fb 17 be
       -0.07071457 -0.09484469 0.057269543 -0.14841853
0001a0 a0 87 01 3d c4 91 d1 3c de f8 b6 3d 6c e0 47 3c
       0.031623483 0.025582202 0.089341864 0.012199502
0001b0 5f 02 e9 bd a8 68 d7 bc f8 b0 d9 bb 4a ea 39 bd
       -0.113774054 -0.026295021 -0.006643411 -0.04538945
0001c0 46 7a 8e bd 91 49 f5 bc e7 af e9 bd 4a 7b e8 bd
       -0.069569156 -0.029942306 -0.11410504 -0.113516405
0001d0 f9 47 e6 3d 01 88 c8 3d 18 37 f2 bd 1d 1a 9d bd
       0.112441964 0.09791566 -0.118269145 -0.07670996
0001e0 e4 20 c3 bd 0e 74 b0 3d 43 db b5 bd 95 e7 06 be
       -0.09527758 0.08615886 -0.088797115 -0.13174279
0001f0 3a 84 2d bc af b6 f6 bd 93 8c 9b bd f2 aa fe 3c
       -0.010590607 -0.12046563 -0.07595172 0.031087372
000200 92 d0 cc bc 99 b9 d0 3d 10 56 b8 bd 45 3c 85 bd
       -0.025001798 0.1019165 -0.0900079 -0.06505636
000210 b9 d5 19 3d 41 b0 9d 3d 96 90 06 be 03 a2 27 bd
       0.037557337 0.076996334 -0.13141093 -0.04092599
000220 9c 7d 5b 3d 8e 0e 0b bd 33 b9 a9 3d 28 26 f4 bd
       0.053586587 -0.033949427 0.08287277 -0.1192134
000230 46 a5 03 3d cc 61 32 3b 64 ae 79 bc 02 72 b4 3d
       0.03214004 0.0027218936 -0.015239332 0.08810808
000240 7a 7e 61 bd 29 64 9d bd 19 80 92 3d 63 8c 1e bd
       -0.055052258 -0.0768512 0.07153339 -0.038708102
000250 bb 5f e6 bc d6 d8 67 3b 4d e9 ce bc 8e 53 1c be
       -0.02812182 0.0035377047 -0.02525773 -0.15266249
000260 14 26 3c 3d 21 73 ec 3d 48 68 0a be 3d d5 d6 bd
       0.04593475 0.115453966 -0.13516343 -0.10489891
000270 6d 37 01 3d 2f f5 07 be 2b 60 bd 3d 72 d6 5f bd
       0.031547 -0.13277124 0.09246858 -0.05464787
000280 6d 5a 59 bd e0 d4 63 3c 9b 84 de 3c 5b 50 b8 bd
       -0.053064752 0.013905734 0.02716284 -0.089997016
000290 c3 b9 aa bd 02 7c 83 bb c7 07 72 bd 60 5e 57 bd
       -0.083362125 -0.0040125856 -0.05908945 -0.052580237
0002a0 c6 da 10 bd 3e 73 a0 3d 37 b3 db 3d 74 7e 9f bd
       -0.03536489 0.07834481 0.10727542 -0.07787791
0002b0 8c 30 ce bc 52 71 94 3d ed 1a 15 bd 69 5f 9e bd
       -0.025169633 0.07248177 -0.03640263 -0.07733042
0002c0 ca f1 bb 3d d1 cc e4 3b 4b 3b b6 bd b2 88 4c bd
       0.09176977 0.006982424 -0.08898028 -0.04993505
0002d0 c0 05 bf bd b5 b2 f3 3d e2 12 7a bc 3d 6f 90 3d
       -0.093272686 0.1189932 -0.015263291 0.07052467
0002e0 ef 07 db 3d 3e 8c 86 3d 9d 4a dd 3b ff 2b 4b bd
       0.106948726 0.06569718 0.0067532794 -0.049602505
0002f0 62 2a df bd b0 38 de 3d 30 07 3c bd 76 2a bf bc
       -0.10896756 0.10850656 -0.045905292 -0.023335677
000300 94 60 04 3d 22 77 f5 bb 64 08 74 bd 0e 8e 93 3b
       0.032318667 -0.0074910084 -0.059578314 0.004503018
000310 56 03 92 3d b2 ec be 3d 1c 18 50 3b 0b b9 3f 3d
       0.071295425 0.0932249 0.0031752652 0.04680733
000320 b5 31 c5 3d a9 34 87 bd 79 30 b5 bd e7 fb 86 bd
       0.096286215 -0.06601841 -0.08847136 -0.06591015
000330 12 a3 a6 3d 9c f3 86 bb 23 bb 25 3d 62 ad 25 3d
       0.08136572 -0.004118396 0.04046167 0.040448554
000340 1f 52 16 3d f0 7f 07 bd d9 ca 64 3d 87 dc c7 bc
       0.03669941 -0.033080995 0.055857513 -0.024397148
000350 9e 59 62 3d fb 3b 24 3d 3c d8 01 3b c1 1f a7 3b
       0.055261247 0.040096264 0.0019812724 0.005100221
000360 dc 58 93 3d af bf 0f 3d af 30 9a bc fd 87 15 3d
       0.07194683 0.035094913 -0.018822042 0.03650664
000370 0b fc b7 bd c0 39 8c 3d 26 18 d6 3c 62 53 9d 3d
       -0.0898362 0.068469524 0.026134562 0.0768192
000380 3b 8f e7 3d 02 ad 69 bd 20 bb 06 3e 69 fe f2 bc
       0.11306616 -0.05704976 0.1315732 -0.029662328
000390 15 4c 82 3c db c0 ca bd 0c 6b 28 bd 11 3e 0f 3d
       0.01590542 -0.099000655 -0.041117713 0.0349713
0003a0 31 15 f1 bc 0d 65 8f 3d bb 3f a1 bd ca 16 af bd
       -0.02942905 0.07001696 -0.07873484 -0.085492685
0003b0 76 96 90 3d 59 83 f4 3d 41 af 6e bd 21 50 bc 3c
       0.07059948 0.11939115 -0.058272604 0.022987427
0003c0 9c 35 00 3d 80 73 2c bc c6 60 69 bd 22 8d 6a bd
       0.031301126 -0.010525584 -0.056977056 -0.0572635
0003d0 14 c2 dd bb 89 7d b4 bd 3f c1 47 bd 04 78 b4 3d
       -0.0067675207 -0.088130064 -0.04876828 0.08811954
0003e0 27 d2 b6 bd 4b 51 b8 3d cb 8b d8 bc 2d d0 a6 3d
       -0.08926802 0.089998804 -0.026433846 0.08145175
0003f0 34 9d 96 bd 74 ee 92 bd 03 90 cc bd 7c a5 0b bd
       -0.07354203 -0.071743876 -0.099884056 -0.034093365

bns.0.weight f4 [64]
000000 c7 4d 7f 3f 06 fa 75 3f f5 d4 76 3f 15 ea 73 3f
       0.99728054 0.9608463 0.96418697 0.95279056
000010 36 79 79 3f cc da 7f 3f f5 1f 82 3f 76 e5 7d 3f
       0.9745058 0.9994323 1.0166003 0.99178255
000020 b1 84 82 3f 7e 6e 7e 3f 2f 4c 78 3f 7e 72 80 3f
       1.0196744 0.9938735 0.96991247 1.003494
000030 ee 84 72 3f a4 5c 64 3f 0f 6b 76 3f 3e 2a 68 3f
       0.94734085 0.8920386 0.9625711 0.90689456
000040 41 81 7d 3f ea b3 7f 3f 19 73 7d 3f 5f 97 82 3f
       0.9902535 0.998839 0.9900375 1.0202445
000050 33 eb 7b 3f 4d b3 74 3f 1b 9a 7b 3f aa 14 89 3f
       0.9840576 0.9558609 0.9828202 1.0709431
000060 81 04 83 3f 28 d7 7b 3f f3 fd 71 3f 8d 77 73 3f
       1.023575 0.9837518 0.9452812 0.95104295
000070 55 70 7d 3f 1c ee 7c 3f a3 94 84 3f 09 d6 75 3f
       0.9899953 0.98800826 1.035786 0.96029717
000080 9d e4 7f 3f 26 e3 74 3f 0a d1 7b 3f f4 01 6b 3f
       0.9995821 0.956591 0.98365843 0.91799855
000090 d5 f6 72 3f 70 27 76 3f 39 91 76 3f 8d ad 7a 3f
       0.94907886 0.96153927 0.9631534 0.9792107
0000a0 34 2b 80 3f e5 d5 78 3f 82 89 80 3f 08 ad 83 3f
       1.0013185 0.9720138 1.0041964 1.028718
0000b0 59 80 7f 3f ec 60 77 3f d2 09 77 3f 5c d7 84 3f
       0.9980522 0.96632266 0.9649936 1.0378222
0000c0 5b 1d 6d 3f 1d d1 7f 3f e9 ca 7d 3f 45 44 7f 3f
       0.9262292 0.99928457 0.9913774 0.99713546
0000d0 72 83 72 3f 23 a6 77 3f 4b b8 71 3f 88 3f 80 3f
       0.9473182 0.9673788 0.94421834 1.0019388
0000e0 60 d2 7b 3f 9b b7 6d 3f ea 22 6d 3f 3c 8f 82 3f
       0.9836788 0.92858285 0.926314 1.0199962
0000f0 00 06 81 3f b5 a9 82 3f 6e bd 80 3f 6c a5 77 3f
       1.0079956 1.020804 1.0057809 0.9673679

bns.0.bias f4 [64]
000000 3d 9b c3 bb de 8f a6 bc ec be 47 bc 47 bc c9 bc
       -0.0059694336 -0.020332273 -0.012191515 -0.02462591
000010 ca a7 91 bc c8 e8 7c bc ba 9f a0 3c 41 99 aa bc
       -0.017780203 -0.015436359 0.019607414 -0.02082503
000020 a7 8a ae 3c 3c e8 df 3b 8e f8 32 bc 0c 91 d1 3a
       0.021306349 0.0068331044 -0.010923518 0.0015988662
000030 88 39 97 bd 74 b7 96 bd 76 f7 1f bd c4 4b 9c bd
       -0.0738402 -0.0735921 -0.039054357 -0.07631639
000040 0f a8 1c bb 5e 7f ca bb 06 fb 84 3c 9c 1f bd 3c
       -0.0023903882 -0.006179734 0.016232979 0.023086362
000050 d9 df 3d ba 3d a1 fa bc c8 26 ce bc d9 41 a7 3d
       -0.0007243134 -0.030594463 -0.025164977 0.08166856
000060 0a 32 af 3c ba 7e 9a bc ce 0a 94 bc d3 e3 3a bd
       0.021386165 -0.018859256 -0.018071558 -0.045627426
000070 29 5b d8 bc 0b b1 f2 bc 2e 5f 90 3c 50 0f e5 bc
       -0.026410656 -0.029625436 0.01762351 -0.027961403
000080 36 a9 04 bc be 45 24 bd c9 36 39 b9 f6 8f 49 bd
       -0.008096984 -0.040105574 -0.00017663384 -0.049209557
000090 86 cb f9 bc 9a 3e 04 bd 9f 78 61 bd 31 50 0d bc
       -0.030492555 -0.032286264 -0.055046674 -0.008625076
0000a0 12 d3 3a 3c 5f a7 e4 bc 37 dd c5 3b 67 47 97 3c
       0.011402862 -0.02791184 0.0060383338 0.018466664
0000b0 2d 83 b8 3c 79 b3 0b bd 4d 98 3a bd 92 ee 08 3d
       0.022523487 -0.034106705 -0.0455554 0.033430643
0000c0 ed 4e 89 bd ed 82 84 3b 14 95 93 bb 4d c2 91 3c
       -0.06704507 0.004043928 -0.0045038555 0.017792845
0000d0 db 7e 91 bd a1 a2 ea bc a9 ef 16 bd 5f 88 77 3b
       -0.07104274 -0.028642 -0.03684965 0.0037770492
0000e0 9c 0f 54 bb 31 77 44 bd 0a 40 03 bd d2 d4 80 3b
       -0.0032357937 -0.047965232 -0.032043494 0.00393162
0000f0 ea 44 ff 39 50 65 92 3c bc 6d 93 bc e7 e1 18 bd
       0.00048688735 0.017870575 -0.017996661 -0.037324812

bns.0.running_mean f4 [64]
000000 f0 05 f8 3d 9c 4b 6a bc 08 b7 f1 bd 7c 8a fa bd
       0.121105075 -0.014300253 -0.118024886 -0.12233445
000010 06 1e fb 3c 30 0d b2 3c 5a e1 f9 3d b9 00 66 bc
       0.030653965 0.021734804 0.122011855 -0.014038258
000020 65 a4 92 bb fc de 84 3d b8 3f aa 3c 32 e5 e3 3d
       -0.0044751638 0.064878434 0.020782337 0.111277
000030 ed 3f c1 3a 14 e1 1b be 78 b7 7b 3c 77 d6 08 3e
       0.0014743783 -0.15222579 0.015363567 0.13363062
000040 b5 34 58 3d d0 2c ae bc c8 c3 d4 3d a1 d7 23 bd
       0.05278464 -0.021261603 0.10388905 -0.04000056
000050 93 33 6d bd e3 60 30 3e 5e be ba bd f7 ea ae 3d
       -0.057910513 0.1722446 -0.09118341 0.0854091
000060 98 16 fe 3c dd c8 88 bc dc 75 be 3c 47 cd 2f 3d
       0.031016633 -0.016697342 0.02324956 0.042920377
000070 0c 29 a1 3b ed 3b 8c bd be a9 a0 3d 56 33 03 bd
       0.0049182232 -0.068473674 0.07844876 -0.03203138
000080 cb 5b fe 3c df 6d 01 3d c0 49 0e 3d 86 d5 80 3d
       0.03104963 0.031598922 0.034738302 0.06290726
000090 7d 25 6f 3d 24 f4 c0 3d 33 97 8e 3b 9e 0e bb bc
       0.05838536 0.09421566 0.0043515204 -0.022834118
0000a0 da a2 97 3d 97 00 cd bd a8 a1 d3 3c 3c ae 7e 3d
       0.07404108 -0.10009878 0.02583392 0.06217788
0000b0 e8 75 b4 3d e2 71 97 bb 31 94 11 3d ef b2 c4 3d
       0.08811551 -0.00462173 0.035541717 0.096044414
0000c0 7e 95 eb bd b4 14 17 bc 1c 2c aa 3d 88 82 89 3b
       -0.11503123 -0.009221245 0.083091944 0.0041964687
0000d0 70 a8 04 be 04 4e 26 3e 8b 30 a2 bc 0c ce 81 3d
       -0.12954879 0.16240698 -0.019798538 0.063381284
0000e0 f2 b3 29 be b0 ef 67 bd 78 d4 b6 3c b5 8d 48 3d
       -0.1657255 -0.05662507 0.02231811 0.048963267
0000f0 42 35 bb bb 3a 06 18 bc d2 7d a6 bc 42 03 16 be
       -0.005713136 -0.009278828 -0.020323668 -0.1464968

bns.0.running_var f4 [64]
000000 b7 83 33 3c 30 5d 21 3c 94 6a 03 3c 0f f2 23 3c
       0.010956696 0.009848878 0.008021016 0.010006442
000010 8f 0d 19 3c aa 6c 26 3c 1d 5b 69 3c bd 99 1c 3c
       0.0093416115 0.0101577435 0.0142429145 0.009558138
000020 d9 05 09 3c b3 a8 d8 3b cc ee 17 3c 68 2e 25 3c
       0.008363211 0.0066119074 0.009273242 0.010081865
000030 d9 2b 0a 3c a7 44 cc 3b 20 78 08 3c b2 de 27 3c
       0.008433306 0.00623377 0.008329421 0.010245966
000040 c1 56 18 3c 63 9b 26 3c 5c b3 01 3c 7e bf 41 3c
       0.0092980275 0.010168883 0.007916298 0.01182544
000050 12 0a 12 3c f9 5a 5f 3c cb b9 2c 3c 18 98 27 3c
       0.008913534 0.013632529 0.010542343 0.010229133
000060 67 4c 28 3c ac 0f 33 3c e4 6c 3a 3c 49 00 ee 3b
       0.010272122 0.010929029 0.011378501 0.0072632176
000070 f5 94 12 3c 36 a4 19 3c 7c 00 3d 3c 2e 98 ee 3b
       0.008946647 0.00937753 0.01153576 0.007281325
000080 48 1e 3b 3c fc 1a 5a 3c 14 73 24 3c 43 43 0f 3c
       0.011420794 0.013312098 0.010037202 0.008744064
000090 97 a9 fe 3b 97 74 e7 3b 3e 86 16 3c 2c ff 15 3c
       0.0077716815 0.007063459 0.009187279 0.009155076
0000a0 4c 74 27 3c 4a 17 3f 3c cc fa 04 3c c8 72 42 3c
       0.010220598 0.011663267 0.008116435 0.011868186
0000b0 c1 89 26 3c e0 b4 42 3c d2 b1 04 3c d3 55 2a 3c
       0.010164679 0.011883944 0.008099036 0.010396439
0000c0 20 bc fb 3b 1a 27 eb 3b 3e 7d 41 3c 29 cd 42 3c
       0.0076823384 0.007176292 0.011809645 0.011889734
0000d0 79 91 18 3c c7 82 e0 3b f6 35 14 3c 53 dc 75 3c
       0.009312027 0.0068515274 0.009046068 0.015006143
0000e0 ee ed 19 3c 1e 22 11 3c 26 f8 07 3c 65 61 21 3c
       0.009395106 0.008858232 0.008298909 0.009849881
0000f0 57 ab 11 3c 56 84 f6 3b 1d f1 1f 3c c0 79 2a 3c
       0.008890948 0.0075231 0.009762076 0.010405004

bns.1.weight f4 [128]
000000 bc 05 88 3e 36 f3 88 3e 44 20 83 3e 47 11 82 3e
       0.26566875 0.26748055 0.25610554 0.25403807
000010 64 8f 83 3e 32 68 89 3e cd e3 81 3e ec 82 8b 3e
       0.25695336 0.26837307 0.2536911 0.27248323
000020 7f b0 80 3e af 54 80 3e 84 fa 90 3e 5e be 83 3e
       0.25134656 0.25064608 0.28316128 0.25731176
000030 10 1b 80 3e aa f7 85 3e b8 74 8c 3e 5a 2f 84 3e
       0.25020647 0.26165515 0.274328 0.25817376
000040 6c 69 81 3e b5 20 87 3e b1 46 84 3e f5 2c 8d 3e
       0.25275743 0.2639214 0.25835183 0.27573362
000050 63 d4 90 3e 1a d2 92 3e f4 0c 82 3e d7 c9 97 3e
       0.28287038 0.2867592 0.25400507 0.2964618
000060 dc 52 85 3e bc 2c 85 3e 26 b2 8c 3e 6c df 8b 3e
       0.2603978 0.26010692 0.27479666 0.27318895
000070 3c 21 87 3e 7b 9b 8c 3e 0c 39 8a 3e 48 30 8c 3e
       0.26392543 0.27462372 0.26996648 0.27380586
000080 66 ba 8b 3e 4e 8f 6f 3e 0c 6c 88 3e 6e 1f 83 3e
       0.27290648 0.2339451 0.26644933 0.25609916
000090 ca 43 8d 3e 63 dc 84 3e aa 16 6e 3e fc 07 85 3e
       0.2759078 0.25949392 0.23250833 0.25982654
0000a0 ad c5 87 3e e3 c6 83 3e 91 2f 86 3e ef 29 90 3e
       0.26518002 0.25737676 0.26208165 0.28156993
0000b0 48 25 86 3e 02 88 82 3e 21 23 87 3e ce 53 7f 3e
       0.26200318 0.2549439 0.2639399 0.24934313
0000c0 28 bc 87 3e f9 9e 89 3e a8 06 8c 3e 95 ba 7b 3e
       0.2651074 0.268791 0.27348828 0.24582894
0000d0 dd 75 8c 3e c0 2b 7b 3e 87 3b 81 3e d5 59 90 3e
       0.27433673 0.24528408 0.25240728 0.28193536
0000e0 7e b9 83 3e ad 38 83 3e 0f 20 89 3e a2 eb 81 3e
       0.25727457 0.25629178 0.2678227 0.25375086
0000f0 0c af 83 3e da 94 88 3e 76 e7 7d 3e e1 d2 87 3e
       0.25719488 0.26676065 0.24795327 0.26528075
000100 4f 3f 85 3e a3 d0 83 3e 08 c5 83 3e c0 e3 86 3e
       0.26024863 0.25745115 0.2573626 0.26345634
000110 15 b0 88 3e c2 14 88 3e 39 a8 84 3e 9d 60 83 3e
       0.2669684 0.26578337 0.25909594 0.25659648
000120 be 76 82 3e 5f 7b 85 3e 1f 93 86 3e a9 cf 82 3e
       0.25481218 0.26070687 0.2628412 0.25549057
000130 04 81 82 3e 1f d6 7a 3e 54 65 82 3e 9e 3d 86 3e
       0.25489056 0.24495743 0.25467932 0.26218885
000140 58 eb 7a 3e a0 fb 97 3e 57 8a 7f 3e e4 54 7d 3e
       0.24503839 0.29684162 0.24955116 0.24739414
000150 df 2a 88 3e 67 02 85 3e 7e fe 8c 3e a1 f6 84 3e
       0.26595208 0.25978395 0.27537912 0.25969413
000160 6f 3d 81 3e e6 1c 8c 3e 78 92 76 3e 4f 76 87 3e
       0.25242183 0.27365798 0.24079311 0.2645745
000170 ed 1a 81 3e 9e 6e 7f 3e f8 0e 82 3e 11 ab 8b 3e
       0.25215855 0.24944541 0.25402045 0.2727895
000180 49 5c 8b 3e 09 25 80 3e 80 a1 8a 3e 45 b3 88 3e
       0.27218845 0.25028256 0.2707634 0.26699272
000190 31 bb 89 3e a7 70 89 3e 28 40 86 3e 15 20 87 3e
       0.26900628 0.2684376 0.26220822 0.26391664
0001a0 15 d2 88 3e f9 25 83 3e 6f fb 85 3e 88 9f 86 3e
       0.2672278 0.25614908 0.2616839 0.26293588
0001b0 4c 72 86 3e 61 9b 78 3e 36 c3 82 3e 62 95 88 3e
       0.26259077 0.24278022 0.2553956 0.2667647
0001c0 c7 29 95 3e 89 6a 80 3e 2f 15 8d 3e 70 d5 85 3e
       0.29133436 0.2508128 0.27555224 0.26139402
0001d0 ae a7 85 3e 17 5e 81 3e 4b d2 82 3e b0 83 86 3e
       0.26104492 0.25267097 0.25551066 0.26272345
0001e0 46 34 8f 3e bf d4 83 3e 27 42 84 3e fe 7f 89 3e
       0.2796957 0.2574825 0.2583172 0.26855463
0001f0 b4 2f 79 3e be c1 89 3e 7d e6 88 3e 15 ad 7b 3e
       0.24334604 0.26905626 0.2673835 0.24577744

bns.1.bias f4 [128]
000000 ea 00 bf 3b 1c b1 0a bc 11 1f cc b9 fb 23 9f 3a
       0.0058289664 -0.008465078 -0.00038933058 0.001214146
000010 d2 db 21 bb d2 06 b5 ba 4d 3e 98 bb 0f 31 c9 3b
       -0.0024697674 -0.0013811237 -0.0046460987 0.0061398814
000020 8b 0a 15 3b 43 d1 39 3b f0 1d 50 bc f5 3d 86 bb
       0.002274188 0.002835349 -0.01270245 -0.0040967413
000030 d9 16 e8 ba 73 cf 3b 39 8d cf 0c bc 22 65 05 3c
       -0.0017707004 0.0001791099 -0.008594406 0.008141788
000040 3d 32 19 3b 08 3e 8f bb f1 ed 41 bc eb 50 c2 3b
       0.0023375892 -0.0043714084 -0.011836515 0.0059300563
000050 e6 33 ea 3b ff 6a 70 bc 99 6b 8c 3a be 6c 1c 3c
       0.0071473 -0.014673947 0.0010713219 0.0095474105
000060 1a 55 b8 3b ab 2a d8 3b 85 39 ba bb 3a 3f 65 b9
       0.0056253793 0.0065968833 -0.0056831264 -0.00021862696
000070 6f 80 a6 b9 6c 1e 11 b8 06 03 ff 3a 20 2c d8 3b
       -0.00031757678 -3.4599027e-05 0.0019455857 0.006597057
000080 e1 c8 ce bb 12 78 ea bb bd 65 5a bc 2c 9e b8 3b
       -0.0063105677 -0.007155427 -0.01332992 0.00563409
000090 01 f9 f6 bb 97 f9 f5 3b ab ec ea bb 14 c0 a3 3b
       -0.007537008 0.00750656 -0.0071693263 0.0049972627
0000a0 17 03 aa ba d1 5f a4 3a 5e 3a f3 3b 0f 5b 27 bc
       -0.0012970892 0.0012540763 0.0074227294 -0.010214581
0000b0 bf 97 a8 3a 2f 20 cd bb ff de b2 bb c2 99 fc 3b
       0.0012862607 -0.00625994 -0.005458712 0.007708759
0000c0 2b 77 0f 3c 31 8b 0f bb 02 91 8b 37 a2 4e 84 bb
       0.008756439 -0.0021903033 1.6637616e-05 -0.004037694
0000d0 c3 1b bf ba cd 88 2c bb 67 18 b5 3a e2 3c a6 bb
       -0.0014580417 -0.0026326657 0.0013816477 -0.0050731758
0000e0 44 6a 5f 3b 40 bb 19 bc d5 d8 1a 3b 13 ab 68 3b
       0.003409044 -0.009383023 0.0023627777 0.0035502359
0000f0 05 92 3d bb 53 75 86 3b 7e 9c 2c 3c 11 7c 26 bb
       -0.0028926146 0.0041033416 0.0105353575 -0.002540354
000100 cb 4c 2d 3c 1e a3 a7 bb 0e 2c e4 3b 73 39 94 bb
       0.010577391 -0.0051158806 0.0069632595 -0.00452345
000110 67 94 9f ba ec f7 15 3b 81 d3 7f 3b 68 d3 6f 39
       -0.0012174965 0.0022883369 0.0039035978 0.00022871571
000120 69 22 d1 ba e8 cf e4 3b 8f 40 f8 3a 87 18 c6 3b
       -0.001595569 0.006982792 0.0018940138 0.0060454044
000130 af 41 4b 3b 8e 64 b3 bb 4d 25 bd b9 71 4f d7 ba
       0.0031014492 -0.0054746335 -0.0003607668 -0.0016426874
000140 82 d7 0c bb ec 20 80 3c d9 3d d9 3b 99 da 98 bb
       -0.0021490757 0.015640698 0.0066296873 -0.0046647307
000150 76 1d a0 3b 8d 13 a6 3a 2e 12 01 3b 9a fe b2 bb
       0.0048863245 0.0012670622 0.0019694674 -0.00546248
000160 27 17 76 bb f8 32 31 bc 2e 8e 26 3b 67 15 13 bb
       -0.003755042 -0.010815375 0.0025414336 -0.0022443177
000170 48 7d 04 3c f9 eb 3e b9 ba 9a 52 ba e5 f8 2f 3c
       0.00808651 -0.00018207719 -0.00080339203 0.010740493
000180 04 83 76 3b c8 2c 0e 3b 1a ee 5a 3c aa 66 67 bb
       0.0037614712 0.0021694172 0.013362432 -0.0035308995
000190 73 9a c1 3b 6c b5 da b9 d1 c4 2f 3c 50 4d e4 bb
       0.0059083044 -0.0004171537 0.010728077 -0.006967224
0001a0 ac 1f ab ba 8e 5e 91 ba 11 b3 20 3b 24 28 15 3c
       -0.0013055704 -0.0011090802 0.0024520794 0.009103809
0001b0 71 e2 c8 bb d8 fb af 3b d4 9a 86 bb 88 cc b2 ba
       -0.0061305095 0.0053705983 -0.0041078124 -0.0013641277
0001c0 0d af 8b bc c8 5c ee 3b a5 eb ca 3b ba 50 6d 3a
       -0.017051244 0.007274244 0.006192642 0.0009052862
0001d0 fd 5b bf ba f8 aa 4b bb 4e 33 b2 3b 69 d2 99 3b
       -0.0014599558 -0.0031077247 0.005438245 0.0046942723
0001e0 e1 b8 06 3c 24 45 94 3b f9 af 90 3b 35 2a f2 3a
       0.0082227895 0.004524844 0.004415509 0.0018475713
0001f0 94 18 90 bb 13 2f 99 3b 68 3a 8c 3b 43 02 ff 3a
       -0.004397461 0.004674801 0.0042794235 0.001945563
