output/oi/restr_e2v/run_006/restr_oi_best_model_e2v.pth (torch, 90293 bytes, 14 tensors)

convs.0.lin_l.weight f4 [64, 32]
0	0xbe100acb	-0.14066617
1	0x3d896dff	0.06710433
2	0xbe026b47	-0.12736236
3	0x3d456b22	0.048197873
4	0x3df9ed51	0.12203468
5	0xbc37ea41	-0.011225284
6	0x3e387b66	0.18015823
7	0x3c014ed4	0.007892329
8	0xbd5b508c	-0.053543612
9	0xbd847eed	-0.06469522
10	0xbdf9e417	-0.12201708
11	0xbdf8bbb2	-0.12145175
12	0xbd95fb07	-0.0732327
13	0xbd8da4df	-0.06916212
14	0x3c9728e7	0.018452121
15	0x3d7970ff	0.060898777
16	0x3909f07c	0.00013154926
17	0xbd86129a	-0.06546517
18	0xbd40a21a	-0.047029592
19	0x3ddd0fff	0.10794067
20	0xbc76bb8f	-0.015059366
21	0xbc25585f	-0.01009187
22	0x3d96e4d8	0.07367867
23	0xbe109b37	-0.1412171
24	0xbe04138d	-0.12898083
25	0x3df5fa4b	0.1201063
26	0x3d6926c4	0.056921735
27	0xbc072b80	-0.008250117
28	0x3de107b0	0.109877944
29	0xbd21b897	-0.03948268
30	0xbe1d02cf	-0.15333103
31	0xbd955a4d	-0.07292614
32	0x3e4b5805	0.19857796
33	0xbcf3ece0	-0.029776037
34	0xbda679a6	-0.08128671
35	0xbdb39b07	-0.087698035
36	0xbda7e03d	-0.08197067
37	0x3db241be	0.087039456
38	0xbd9288db	-0.07155009
39	0xbda57d8c	-0.08080587
40	0x3e35deec	0.17760819
41	0x3e2245bf	0.15846919
42	0xbe076b6b	-0.1322457
43	0xbce5c37e	-0.02804732
44	0x3e2acf46	0.16680631
45	0x3cc43424	0.023950644
46	0x3e172806	0.14761361
47	0xbd23bf89	-0.039977584
48	0x3d655d1f	0.05599701
49	0xbd4f2218	-0.050569624
50	0x3d0ba0a5	0.03408875
51	0xbdf460f5	-0.119325556
52	0xbd59d6d8	-0.053183407
53	0xbdae34cb	-0.08506163
54	0x3e104014	0.14086944
55	0xbcbd1712	-0.02308229
56	0x3daaf19d	0.08346865
57	0x3d87e361	0.06635166
58	0x3e0f8bf6	0.14018235
59	0xbd49b1a4	-0.049241677
60	0x3e1990b7	0.1499661
61	0x3e2d2376	0.16908059
62	0xbd84f31d	-0.06491683
63	0x3e21f481	0.15815927
64	0xbcf17c00	-0.029478073
65	0x3db653a1	0.0890267
66	0xbe099e0e	-0.134392
67	0xbdc5dfa9	-0.096618004
68	0xbe159d3e	-0.14610764
69	0xbe0c8472	-0.13722399
70	0xbdf2a0b5	-0.11847059
71	0xbd3c01ef	-0.04590028
72	0xbd6248bf	-0.055245157
73	0xbe145d70	-0.14488769
74	0x3e155499	0.14583053
75	0xbd5000aa	-0.050781883
76	0xbe2020ae	-0.15637466
77	0x3db680e6	0.08911304
78	0x3dad7e61	0.084713705
79	0xbd71049a	-0.05884228
80	0xbd792c16	-0.06083306
81	0xbe05fef2	-0.13085535
82	0xbe0d2a7b	-0.13785736
83	0xbcd31f6b	-0.025771817
84	0xbd66c6b9	-0.05634186
85	0xbc8bcff0	-0.017066926
86	0x3dd07820	0.10179162
87	0x3de644f1	0.11243618
88	0xbda5d545	-0.080973186
89	0xbd59d854	-0.053184822
90	0xbe2c6adc	-0.16837639
91	0x3d747744	0.059684053
92	0xbe2d7634	-0.16939622
93	0xbd23e70f	-0.040015277
94	0x3b77ce98	0.0037812348
95	0xbd106b0d	-0.03525834
96	0x3d3c36a2	0.04595054
97	0xbc862444	-0.016374715
98	0x3e1e0efd	0.15435405
99	0x3d796eb8	0.060896605
100	0xbe0f57f3	-0.13998394
101	0x3e0c116d	0.13678522
102	0xbdca2795	-0.09870831
103	0xbd806c92	-0.06270708
104	0x3d7dedd3	0.061994385
105	0x3d773c1b	0.060360055
106	0x3e269180	0.16266441
107	0xbd78a6a0	-0.06070578
108	0xbdd3b2e4	-0.10336855
109	0x3c332ca6	0.010935938
110	0x3ddc01cc	0.1074253
111	0x3d513fbe	0.05108618
112	0x3df7c2db	0.120977126
113	0xbe1be3e3	-0.1522365
114	0x3d6849d8	0.056711048
115	0xbe10eede	-0.1415362
116	0xbc497448	-0.01229579
117	0x3e0cd2d0	0.13752294
118	0x3dfd9e92	0.123837605
119	0x3bda09a0	0.0066539794
120	0x3d3a92be	0.0455501
121	0x3e225065	0.1585098
122	0xbe12b5d6	-0.14327177
123	0xbc433e24	-0.011916671
124	0x3e144777	0.14480387
125	0xbdc598a2	-0.09648253
126	0xbe231b25	-0.15928324
127	0x3dfa6f8f	0.12228309
128	0xbdfbfef7	-0.1230449
129	0xbe1f807e	-0.1557636
130	0xbe3a0c30	-0.18168712
131	0x3db335ab	0.08750471
132	0x3e12a321	0.14320041
133	0x3ddd7254	0.10812822
134	0x3d9662fe	0.073431
135	0xbd4d3887	-0.050102737
136	0x3e168b59	0.14701594
137	0x3dfb4092	0.12268175
138	0xbda156c5	-0.07877878
139	0xbd54d2d8	-0.05195889
140	0xbe05d756	-0.13070425
141	0x3ca58344	0.020204194
142	0xbdffd9c3	-0.124927066
143	0xbdb6488a	-0.089005545
144	0x3e200624	0.15627342
145	0xbe13c70b	-0.14431398
146	0x3d8088f1	0.062761195
147	0x3d4e843f	0.05041909
148	0xbbb3f73d	-0.0054921196
149	0x3dd901a6	0.105960175
150	0x3da49575	0.08036319
151	0xbe2a1412	-0.16609219
152	0xbd96c7e1	-0.073623426
153	0x3e1a8c1e	0.15092513
154	0xbd9e1b45	-0.07720045
155	0x3cde218f	0.027115611
156	0xbd963ced	-0.073358394
157	0x3e25fb74	0.16209203
158	0x3d883095	0.06649891
159	0x3daa0a32	0.08302726
160	0xbdaf2ae4	-0.085531026
161	0x3c725d92	0.014792817
162	0xbdf16582	-0.11786939
163	0x3e6d9fcf	0.23205493
164	0x3e2d08f0	0.1689794
165	0x3d238eaa	0.039930977
166	0xbd3e73c4	-0.04649712
167	0xbdacc281	-0.08435536
168	0xbe1856c1	-0.14876844
169	0xbdc423ec	-0.09577164
170	0xbc98c424	-0.018648215
171	0xbddfde7c	-0.109311074
172	0x3e09738c	0.13422984
173	0x3dddfb3a	0.10838933
174	0xbd571ff1	-0.052520696
175	0xbc8f1697	-0.017466826
176	0x3dbd2930	0.092363715
177	0x3e430a4b	0.19046895
178	0x3d93ae2c	0.07210955
179	0x3aed19f7	0.0018089403
180	0xbe40e983	-0.18839078
181	0x3d8e9267	0.06961518
182	0xbd568cb3	-0.052380275
183	0xbe20a7e2	-0.15689042
184	0x3d4a45c5	0.049382944
185	0xbdd7e8f4	-0.10542479
186	0xbd4d3490	-0.050098956
187	0x3e57709b	0.2103905
188	0x3d4ea923	0.05045427
189	0x3d956f99	0.07296676
190	0x3e195b4d	0.14976235
191	0x3dff02a6	0.12451677
192	0xbe1bfafd	-0.15232463
193	0x3c126dec	0.00893734
194	0x3e09ec60	0.13469076
195	0xbb8684ea	-0.0041052
196	0x3dc31d56	0.0952708
197	0x3e5a0d19	0.21294059
198	0x3e1cc5cb	0.15309827
199	0xbd717b78	-0.05895564
200	0x3c3277c7	0.010892815
201	0x3e0a5497	0.13508831
202	0xbe25cf4b	-0.16192357
203	0xbdabc538	-0.08387226
204	0xbd4d12c0	-0.05006671
205	0xbe25a39c	-0.16175693
206	0x3a39391d	0.00070657005
207	0xbe0d8385	-0.13819702
208	0xbdc98387	-0.0983954
209	0xbdc0a0a8	-0.09405643
210	0x3de16e7b	0.110074006
211	0xbd965ef5	-0.0734233
212	0xbcaeea10	-0.021351844
213	0x3d43a0f9	0.047760937
214	0xbd95e417	-0.07318895
215	0xbbacee6c	-0.0052774455
216	0xbdfc95c6	-0.123332545
217	0x3dd9ceab	0.10635122
218	0x3ceabcbe	0.028654452
219	0xbced6bb2	-0.028982017
220	0x3c8a4418	0.016878173
221	0xbe0cef1b	-0.13763086
222	0x3dfe2941	0.12410212
223	0xbe500f8d	-0.20318432
224	0x3bf74f9f	0.0075473334
225	0xbdb61746	-0.08891158
226	0xbe39ee97	-0.18157421
227	0x3de13f0b	0.109983526
228	0xbd808804	-0.06275943
229	0xbd209790	-0.03920704
230	0xbe284e18	-0.1643604
231	0xbe118eff	-0.14214705
232	0xbda17eeb	-0.07885536
233	0xbd00a5a1	-0.031407956
234	0xbd1512e9	-0.036394987
235	0x3e1be27a	0.15223113
236	0x3dfea9cb	0.12434729
237	0x3d6243c5	0.05524041
238	0x3d7fdba3	0.06246532
239	0xbd1b235c	-0.03787552
240	0xbd61071f	-0.05493843
241	0xbe188a89	-0.14896597
242	0x3cc49a3d	0.023999328
243	0xbcd1226b	-0.025529107
244	0x3e25ff19	0.16210593
245	0x3e288455	0.1645673
246	0xbcb55da3	-0.022139376
247	0x3d5957a7	0.053062107
248	0xbdaa5af1	-0.08318127
249	0x3df3a8ff	0.11897468
250	0xbe037fcf	-0.12841724
251	0x3cd2864f	0.025698809
252	0xbdd6184b	-0.10453852
253	0x3e01efb4	0.12689096
254	0xbbf805fd	-0.0075690732
255	0xbd6b5399	-0.05745277

convs.0.lin_l.bias f4 [64]
0	0x3e2b6d2a	0.16740862
1	0xbda845db	-0.08216449
2	0xbd8f1f83	-0.06988432
3	0x3de8b2b9	0.11362214
4	0x3c5de889	0.01354421
5	0x3e266a6f	0.16251539
6	0xbe1c51f2	-0.15265635
7	0xbdd49685	-0.10380272
8	0x3d89357e	0.06699656
9	0x3e467f84	0.19384581
10	0xb88098bc	-6.1319646e-05
11	0x3e2b29a9	0.16715111
12	0xbd7442c3	-0.05963398
13	0x3df5b8b9	0.11998124
14	0x3d988595	0.07447354
15	0xbbd233f7	-0.006414886
16	0xbda00e12	-0.07815184
17	0xbdbc60a2	-0.09198119
18	0x3e10601c	0.14099163
19	0x3e16b483	0.14717297
20	0xbdf56607	-0.11982351
21	0x3dd64565	0.10462455
22	0xbd203b7b	-0.039119225
23	0x3d407cd2	0.046994038
24	0x3dda7620	0.10667062
25	0xbd14ed2f	-0.03635901
26	0x3e2084f1	0.15675713
27	0xbe20c3c8	-0.15699685
28	0x3cebf495	0.02880315
29	0x3dbaeb7b	0.091269456
30	0xbe0e96f7	-0.13924776
31	0x3afb96d1	0.0019194727
32	0xbd87e4eb	-0.066354595
33	0x3dcc8900	0.09987068
34	0x3e12e3a5	0.14344652
35	0x3d9d7f2b	0.07690271
36	0xbd9c6f2b	-0.07638391
37	0x3e0fa983	0.14029507
38	0xbe3c42a5	-0.18384798
39	0xbb84af24	-0.0040491987
40	0xbd66bae3	-0.056330573
41	0xbe0b698f	-0.13614486
42	0x3d8d4d8d	0.06899557
43	0x3d27e0d4	0.040985897
44	0xbd980dd0	-0.074245095
45	0xbd41b7ef	-0.047294553
46	0xbddcb47f	-0.107766144
47	0xbc392756	-0.011300882
48	0xbe08420a	-0.13306442
49	0xbd62160e	-0.055196814
50	0xbdf17ecd	-0.117917635
51	0xbd081545	-0.03322341
52	0x3de2782d	0.11058078
53	0xbd5893ad	-0.05287521
54	0xbdb30733	-0.087416075
55	0xbc068681	-0.008210779
56	0xbdb0837b	-0.08618828
57	0xbe22c2e2	-0.15894654
58	0xbcba65ac	-0.022753559
59	0xbdc20506	-0.094736144
60	0x3dab167e	0.083538994
61	0xbd796a27	-0.06089225
62	0xbd7b1e9a	-0.06130848
63	0xbd2a5779	-0.041587327

convs.0.lin_r.weight f4 [64, 32]
0	0x3d61294a	0.054971017
1	0xbe211530	-0.15730739
2	0xbd13b83a	-0.036064364
3	0xbd80ec55	-0.06295077
4	0x3bdd7516	0.0067583425
5	0x3e0071d4	0.12543422
6	0xbcb62353	-0.02223364
7	0xbd754c42	-0.05988718
8	0x3e31fddc	0.17381996
9	0x3e07ba3c	0.13254637
10	0xbb0c1d0f	-0.0021379625
11	0xbd8437b9	-0.06455941
12	0x3d13e906	0.0361109
13	0xbe1a2e0c	-0.15056628
14	0x3e331c3a	0.17491236
15	0x3ccd2e4b	0.025046488
16	0xbcdbab60	-0.026815116
17	0x3dfe2676	0.124096796
18	0xbd0a2543	-0.03372694
19	0x3e02239f	0.12708901
20	0xbe108d62	-0.14116433
21	0x3d5372b6	0.05162307
22	0x3e3f37da	0.1867365
23	0xbe489c96	-0.19590983
24	0xbda8a207	-0.08234029
25	0xbe166fc7	-0.14691077
26	0xbe5d627c	-0.216196
27	0x3e072ba1	0.13200237
28	0xbdb3b16c	-0.08774075
29	0xbdb1c61a	-0.08680363
30	0x3da2e88c	0.07954511
31	0xbe1e0dda	-0.15434971
32	0x3e06dd43	0.13170342
33	0x3c3aef47	0.011409587
34	0x3e073725	0.1320463
35	0x3d9653e7	0.07340222
36	0x3bdb1587	0.006685916
37	0xbdd91be9	-0.106010266
38	0x3dcf8f3e	0.10134743
39	0x3e285c24	0.16441399
40	0xbb049636	-0.0020231134
41	0x3d493c6a	0.04912988
42	0xbde40047	-0.111328654
43	0xbe188ea8	-0.14898169
44	0xbdf2789d	-0.118394114
45	0xbe00d95f	-0.1258292
46	0xbd410b8a	-0.047130145
47	0x3d67b366	0.056567572
48	0x3e20e885	0.15713699
49	0x3d9f4115	0.07776085
50	0x3ae60deb	0.0017551755
51	0xbd629ad8	-0.05532345
52	0x3dd71ef6	0.10503952
53	0xbd817803	-0.063217185
54	0x3d960a80	0.073262215
55	0x3e36008f	0.1777365
56	0xbdc5d85c	-0.09660408
57	0xbd97111a	-0.07376309
58	0x3da257e7	0.07926922
59	0x3c752fd4	0.014965016
60	0x3df99ced	0.12188134
61	0xbdd4c451	-0.10389007
62	0xbc815b00	-0.015790462
63	0x3e20f58a	0.15718666
64	0x3dce6fee	0.10079943
65	0xbe2c1538	-0.1680497
66	0x3d1cda56	0.03829416
67	0x3dc497a9	0.095992394
68	0xbc53c6a2	-0.012925776
69	0x3db848cd	0.08998261
70	0xbc79d425	-0.015248333
71	0xbe125fae	-0.14294311
72	0xbd7cfd1b	-0.061764818
73	0xbd914bf0	-0.07094562
74	0x3d6e5d2a	0.058194317
75	0x3ce19f75	0.027541855
76	0x3d999ef8	0.07501024
77	0x3d9f7370	0.0778569
78	0xbe2b78d0	-0.16745305
79	0x3df31178	0.11868566
80	0xbe257490	-0.16157746
81	0xbe01ea52	-0.12687042
82	0xbe1d1745	-0.15340908
83	0xbdb2158f	-0.08695518
84	0xbdaa382d	-0.08311496
85	0xbda232c7	-0.07919841
86	0x3dcd924d	0.1003767
87	0xbd561d44	-0.052274004
88	0x3d442f56	0.047896706
89	0x3db29242	0.08719303
90	0xbe2bcbe0	-0.16776991
91	0xbe38e1e3	-0.18054919
92	0x3db1335e	0.08652376
93	0x3d8e1351	0.06937278
94	0xbe3672c8	-0.17817223
95	0x3d6b0964	0.057382002
96	0x3e416983	0.18887906
97	0x3df4ec75	0.11959163
98	0x3e07e78b	0.1327192
99	0x3da5e6f4	0.081006914
100	0x3de1e54c	0.11030063
101	0x3dc68699	0.09693641
102	0x3c38faf8	0.011290304
103	0xbd6ee54c	-0.058324143
104	0xbdb97267	-0.09055024
105	0xbcb0ccd8	-0.021582052
106	0x3de1dae7	0.110280804
107	0xbde2116e	-0.11038481
108	0x3d0e0dfb	0.0346813
109	0x3e22f054	0.1591199
110	0x3da31fe1	0.07965065
111	0xbd5d5076	-0.05403181
112	0xbb3aa619	-0.002848035
113	0x3d38fc44	0.045162454
114	0xbe1422e9	-0.14466442
115	0xbe1e0105	-0.15430076
116	0x3daccf05	0.08437923
117	0x3d7d9fc3	0.06191994
118	0xbe4bd42e	-0.19905159
119	0xbdb7468d	-0.08949003
120	0x3e2f6d59	0.17131557
121	0x3c8b7dc9	0.017027752
122	0x3ca22385	0.019792328
123	0xbe1496d1	-0.14510657
124	0xbe34d096	-0.17657694
125	0xbbf1250d	-0.007359153
126	0xbc3e6071	-0.011619673
127	0xbe50c5d6	-0.20387968
128	0x3dd4c19a	0.10388489
129	0xbd6d1264	-0.057878867
130	0xbdfd9323	-0.1238158
131	0xbd68849f	-0.056767102
132	0x3c93c40c	0.018037818
133	0xbde913c6	-0.113807246
134	0xbb44cd6c	-0.0030029668
135	0xbe0dc1bb	-0.13843434
136	0xbd3c4457	-0.04596361
137	0xbdbd42f6	-0.092412874
138	0xbe219e5f	-0.1578307
139	0x3c9ba2b0	0.018998474
140	0x3e1f5f0e	0.15563604
141	0xbe3ea7f2	-0.18618754
142	0xbdd54c2a	-0.10414918
143	0x3dd128bd	0.10212848
144	0xbd3fe3ab	-0.04684798
145	0xbe1c0b93	-0.1523879
146	0xbe07eda0	-0.1327424
147	0x3d8df2e7	0.069310956
148	0x3da283fa	0.07935329
149	0x3da1d322	0.079015985
150	0x3d7360eb	0.0594186
151	0x3e03b41d	0.12861677
152	0x3c1c6874	0.009546388
153	0xbdac2125	-0.08404759
154	0xbe4fb56b	-0.20284049
155	0xbd93c81c	-0.07215902
156	0xbd03f593	-0.03221662
157	0x3e353027	0.1769415
158	0x3e259406	0.16169748
159	0x3e01b369	0.12666096
160	0xbda852eb	-0.0821894
161	0xbdc2b1ef	-0.095065944
162	0xbdcd7aa5	-0.10033158
163	0x3e00167f	0.12508582
164	0x3cf1d61b	0.029521039
165	0xbde777e2	-0.11302163
166	0xbcf646ae	-0.030063
167	0x3e172460	0.1475997
168	0x3da646b7	0.081189565
169	0x3e20e775	0.15713294
170	0x3d7f543d	0.062336195
171	0xbdac2811	-0.084060796
172	0x3dffdef3	0.12493696
173	0x3d94e339	0.07269902
174	0xbcae0ddb	-0.021246841
175	0xbd18ed54	-0.03733571
176	0xbccf56e2	-0.025309984
177	0x3bfe0d01	0.007753015
178	0x3e106357	0.14100395
179	0xbe3e61ce	-0.18591997
180	0x3dfbcce6	0.12294941
181	0x3d573214	0.052537993
182	0x3d2220ff	0.03958225
183	0xbd7eaea0	-0.062178254
184	0x3bf90283	0.0075991764
185	0xbe2bb25d	-0.16767259
186	0x3d9a46d5	0.075330414
187	0xbd946332	-0.072454825
188	0x3d9ae5e2	0.07563378
189	0x3e19f531	0.1503494
190	0x3e01f72e	0.12691948
191	0x3bf9cd16	0.007623325
192	0xbd4f8531	-0.05066413
193	0xbd8395c0	-0.06425047
194	0x3c7536e5	0.014966701
195	0xbd60a7a3	-0.05484737
196	0x3e0c6933	0.13712005
197	0xbd382ed8	-0.04496655
198	0x3dde55ce	0.1085621
199	0xbdba9b3c	-0.0911164
200	0x3da1f653	0.07908311
201	0x3e3094b8	0.17244232
202	0x3cbf7448	0.023370877
203	0x3cd0b7e8	0.025478318
204	0x3e3280c3	0.17431931
205	0xbd35ae02	-0.0443554
206	0x3b3f4ded	0.0029190734
207	0xbe2a1fed	-0.16613741
208	0xbd3c84e2	-0.046025164
209	0xbae201cf	-0.0017242971
210	0xbbb2cf21	-0.0054568206
211	0x3d066e92	0.03282029
212	0x3e27bd78	0.1638087
213	0xbd885721	-0.066572435
214	0x3e274aef	0.16337179
215	0xbd123a10	-0.035699904
216	0x3db84756	0.08997981
217	0x3db838e2	0.089952245
218	0xbd4b8218	-0.049684614
219	0x3c590fb2	0.013248371
220	0xbda44214	-0.08020416
221	0x3e3dfa66	0.1855255
222	0xbd0ee18f	-0.03488308
223	0xbe3d5a65	-0.18491514
224	0x3d2d2202	0.04226876
225	0x3d023949	0.031792913
226	0x3dae9375	0.08524219
227	0xbc57f348	-0.013180561
228	0x3d984287	0.07434564
229	0x3e240856	0.16018805
230	0xbdeee6b3	-0.11665096
231	0x3e261c70	0.16221786
232	0xbc1802fa	-0.009278053
233	0xbe0e3e2c	-0.13890904
234	0x3db4ac42	0.08821918
235	0xbd14c49e	-0.03632032
236	0xbcb48386	-0.022035372
237	0xbe29b051	-0.16571166
238	0x3d8e5911	0.06950582
239	0x3de56da8	0.11202556
240	0xbb87bfd0	-0.004142739
241	0xbbbda8dc	-0.005787952
242	0x3dce9a91	0.10088075
243	0xbdb3ebc0	-0.087852
244	0x3e1a8693	0.15090398
245	0x3d85e890	0.065384984
246	0x3c3f9058	0.011692129
247	0xbdd49124	-0.10379246
248	0x3df4cd1d	0.11953185
249	0xbccb1333	-0.024789428
250	0xbc829127	-0.015938355
251	0xbd26887a	-0.040657498
252	0x3b11204e	0.00221445
253	0x3e081628	0.13289702
254	0xbd70088d	-0.058601905
255	0x3b973287	0.0046141776

convs.1.lin_l.weight f4 [128, 64]
0	0x3dc894dd	0.097940184
1	0x3da2def8	0.07952684
2	0x3cfab7e3	0.030605262
3	0xbdabfdb1	-0.08397997
4	0x3d19e000	0.03756714
5	0xbdb543ae	-0.088507995
6	0xbd74fd73	-0.05981202
7	0x3d95e6d3	0.07319417
8	0xbc909641	-0.017649772
9	0x3cda592d	0.02665385
10	0xbe20e431	-0.15712048
11	0x3dc0d796	0.0941612
12	0x3cf3c29a	0.02975588
13	0x3dbe8f14	0.09304634
14	0x3dd73035	0.10507242
15	0xbc83976b	-0.016063413
16	0xbc38aa00	-0.011271
17	0x3d2ae5f8	0.04172322
18	0x3e04dfa2	0.12975934
19	0x3d09e564	0.03366603
20	0xbdb23cf8	-0.08703035
21	0x3dd800e7	0.10547047
22	0xbdc68869	-0.09693987
23	0x3c0a1738	0.008428387
24	0x3da05e84	0.078305274
25	0x3cf600c4	0.030029662
26	0x3cd053d5	0.0254306
27	0x3d17f0c4	0.037094846
28	0x3d1fc4fb	0.039006215
29	0x3d7ddc3d	0.061977614
30	0xbe11596b	-0.14194266
31	0xbdf714ae	-0.12064491
32	0x3cb917a8	0.022594288
33	0xbd395eab	-0.045256298
34	0xbd4e2a3c	-0.050333247
35	0xbd8cc4c0	-0.068734646
36	0xbd2ac081	-0.041687492
37	0x3ca12a35	0.019673446
38	0xbae1c574	-0.0017224983
39	0xbdfe3ea7	-0.12414294
40	0xbd40f596	-0.04710921
41	0xbde2fbed	-0.11083207
42	0xbd92b871	-0.07164086
43	0xbdf74b7b	-0.12074944
44	0x3d86402f	0.06555211
45	0x3de2110c	0.11038408
46	0xbc95922f	-0.018258182
47	0x3d46468c	0.048407122
48	0x3d917f03	0.07104304
49	0xbe0686ff	-0.13137434
50	0xbdf090e4	-0.11746386
51	0x3d643ebe	0.055723898
52	0xbcb638da	-0.022243906
53	0xbdc2fd32	-0.095209494
54	0x3ca85188	0.02054669
55	0x3c5a7ff8	0.013336174
56	0xbd57613d	-0.052582968
57	0x3d2c2fb9	0.0420377
58	0xbd59a7e2	-0.05313862
59	0x3d9a2161	0.07525898
60	0xbdbcfb36	-0.09227602
61	0xbdbcd48d	-0.09220228
62	0x3d4fa209	0.05069164
63	0x3de85747	0.11344772
64	0xbd56bef0	-0.052428186
65	0x3d71bef9	0.059020016
66	0xbd3b0ba7	-0.04566541
67	0x3d36cde0	0.04462993
68	0xbd4f48c2	-0.050606497
69	0x3c669447	0.014073438
70	0xbd6df2ab	-0.058092754
71	0x3de7fca4	0.11327484
72	0x3e0aa2ed	0.13538714
73	0xbd9e8be3	-0.07741525
74	0xbc47d210	-0.012196079
75	0xbd911bde	-0.07085393
76	0xbe0dcca9	-0.13847603
77	0xbda30536	-0.07959978
78	0xbe0dfdae	-0.13866302
79	0x3d6dc822	0.05805219
80	0x3d5f3581	0.054494385
81	0xbde8c39e	-0.11365436
82	0x3dd5973e	0.10429238
83	0xbd9d89c3	-0.076922916
84	0xbe036c1f	-0.12834214
85	0x3d2d67a7	0.04233518
86	0x3d9c2de6	0.07625942
87	0x3de30cf8	0.11086458
88	0x3d8a888f	0.06764328
89	0x3c93637d	0.017991776
90	0xbd80467d	-0.062634446
91	0xbdfc5af8	-0.123220384
92	0xbd90b832	-0.070663825
93	0x3c3480f5	0.011017074
94	0x3d9c5282	0.076329246
95	0xbdb52b6d	-0.088461734
96	0x3c80de67	0.01573105
97	0xbb4404b8	-0.002991004
98	0xbd95c3c8	-0.07312733
99	0xbdbd0cfa	-0.09230991
100	0x3d2b46f0	0.0418157
101	0x3c8730d0	0.016502768
102	0x3dc6f6b8	0.097150266
103	0xbdc0c32a	-0.094122246
104	0x3dc39342	0.095495716
105	0x3daebfab	0.085326515
106	0x3ce34c2d	0.027746284
107	0xbdc3e4e3	-0.09565141
108	0x3de0a4f7	0.109689645
109	0xbd44e672	-0.048071332
110	0xbe05d052	-0.13067749
111	0x3d1e9304	0.038714424
112	0xbc37e4f5	-0.011224021
113	0xbdac650b	-0.0841771
114	0xbd8c0150	-0.06836188
115	0xbde02d6e	-0.10946165
116	0x3d9f3365	0.077734746
117	0xbe090696	-0.13381419
118	0xbccb4a43	-0.024815684
119	0x3db7eaf6	0.08980362
120	0xbdf46beb	-0.11934646
121	0xbc5dd1ee	-0.013538821
122	0x3dc1e8ff	0.094682686
123	0x3d776b44	0.06040503
124	0x3da63e4a	0.081173494
125	0x3c7867b2	0.015161442
126	0xbda7b28d	-0.08188353
127	0x3d5de1a6	0.054170273
128	0x3c559546	0.013036078
129	0x3da87819	0.08226032
130	0x3d5dd0c6	0.05415418
131	0xbd843615	-0.06455628
132	0xbde572ed	-0.11203561
133	0xbd95cc7b	-0.07314392
134	0xbd2ee4f9	-0.042698834
135	0x3d770ce1	0.060315017
136	0xbd170cc8	-0.036877424
137	0x3d7926cf	0.060828026
138	0x3d41db4a	0.04732827
139	0x3dec66fb	0.115430795
140	0xbd223c03	-0.039608013
141	0xbc97d23a	-0.018532861
142	0xbddbfb12	-0.10741247
143	0xbcbfada2	-0.023398224
144	0xbe031021	-0.12799121
145	0xbd88342a	-0.066505745
146	0x3ca6622c	0.020310484
147	0xbe15855d	-0.14601655
148	0xbdae4b44	-0.085104495
149	0xbac4bfd9	-0.0015010788
150	0xbc3f99f4	-0.01169442
151	0x3d6c09c7	0.057626512
152	0x3cda2149	0.0266272
153	0xbe204fbc	-0.15655416
154	0x3e0f4fdf	0.13995312
155	0xbdc0db7e	-0.09416865
156	0xbd59e8dd	-0.05320059
157	0xbd34501b	-0.044021707
158	0xbe137377	-0.14399515
159	0x3cb82780	0.022479773
160	0x3d218105	0.039429683
161	0x3d1139ac	0.03545539
162	0x3dd07b32	0.10179748
163	0xbd1a5e05	-0.03768732
164	0xbc122b86	-0.00892151
165	0x3980444c	0.00024464948
166	0xbd2bc5a2	-0.041936524
167	0xbd58d8ca	-0.05294112
168	0xbdbc7961	-0.09202839
169	0xbd4141b4	-0.0471818
170	0xbd5cd681	-0.053915504
171	0xbd93d4be	-0.07218312
172	0xbd79bb58	-0.06096968
173	0xbd9ac408	-0.07556921
174	0xbddb2f91	-0.10702432
175	0x3d01854b	0.03162126
176	0xbd8ceda4	-0.06881264
177	0xbd8f52c5	-0.06998209
178	0x3bec8e39	0.0072191027
179	0xbd71ec3f	-0.059063192
180	0x3d462a25	0.048380036
181	0x3d3b098c	0.0456634
182	0x3bd10e01	0.006379843
183	0xbd255e27	-0.040372994
184	0xbb74802c	-0.0037307842
185	0x3dcb1d43	0.099176906
186	0xbd142839	-0.03617117
187	0xbe167f75	-0.14697058
188	0xbd9013dc	-0.07035038
189	0x3c669f3e	0.014076052
190	0xbcc498ab	-0.023998579
191	0xbd846fff	-0.06466674
192	0x3e0e7cba	0.13914767
193	0xbdc4844a	-0.09595545
194	0x3dc8211a	0.097719386
195	0xbdd2bca0	-0.102898836
196	0xbb6653d7	-0.0035145187
197	0x3caa9c19	0.020826386
198	0xbde82719	-0.11335582
199	0xbcaa0a53	-0.020756876
200	0x3d455618	0.04817781
201	0xbd0311a8	-0.03199926
202	0x3d9d779d	0.0768883
203	0xbdab020b	-0.08349999
204	0x3ce20136	0.027588468
205	0xbd84f031	-0.064911254
206	0xbd8d4db8	-0.06899589
207	0xbc9e5895	-0.019329349
208	0x3d85f2c5	0.06540445
209	0x3dcb931e	0.0994017
210	0x3dea09b2	0.114276305
211	0xbbe40a97	-0.00695927
212	0x3b626d1f	0.0034549905
213	0x3dca0a04	0.098651916
214	0x3d9ca988	0.07649523
215	0xbd8e0429	-0.06934387
216	0xbd5b206e	-0.053497724
217	0x3d143761	0.036185626
218	0x3cdbb563	0.02681989
219	0x3d876a5a	0.06612082
220	0xbd420c1c	-0.04737483
221	0x3dc7155f	0.09720873
222	0xbcdfdca9	-0.027326899
223	0x3b78267d	0.0037864738
224	0x3deb4f55	0.11489741
225	0xbd3cd949	-0.046105657
226	0x3cabffaf	0.020995943
227	0x3ce8367a	0.028346289
228	0x3db9d7f9	0.09074397
229	0x3dd61787	0.10453706
230	0x3d53c30c	0.051699683
231	0x3db6928f	0.089146726
232	0xbda2f860	-0.0795753
233	0xbdc04eb7	-0.09390014
234	0x3b019599	0.0019773005
235	0xbd2e2643	-0.042516958
236	0x3c173a4d	0.009230209
237	0xbd6b2bff	-0.057415005
238	0xbcd447a5	-0.025913069
239	0xbdf1225c	-0.11774132
240	0xbc86a091	-0.016433986
241	0x3cbf3b42	0.023343686
242	0x3a9ba384	0.0011874293
243	0xbc86ac74	-0.016439654
244	0x3ca7a836	0.020465951
245	0x3d075944	0.033044115
246	0x3e061724	0.13094765
247	0xbe008b17	-0.12553059
248	0xbdf8cdd9	-0.12148637
249	0x3b6a6eb6	0.0035771555
250	0x3cca01bd	0.024659032
251	0xbdce826a	-0.10083468
252	0xbd91f155	-0.071261086
253	0x3e0b4316	0.1359981
254	0x3db0e012	0.08636488
255	0xbb811761	-0.0039395546

convs.1.lin_l.bias f4 [128]
0	0xbd944cf8	-0.07241243
1	0x3d03f6e8	0.03221789
2	0xbd90ba01	-0.070667274
3	0x3c9ee701	0.01939726
4	0xbb892f8e	-0.004186577
5	0xbd894378	-0.06702322
6	0x3d94494f	0.07240545
7	0x3ae51aa8	0.0017479258
8	0x3cedc22a	0.029023249
9	0x3cd36475	0.025804738
10	0x3c7af33c	0.015316781
11	0xbdddf63d	-0.10837982
12	0x3dd62efa	0.10458179
13	0x3d02c2cb	0.03192405
14	0x3e058316	0.13038287
15	0xbdac172f	-0.084028594
16	0x3cf2aaf9	0.029622542
17	0xbd821edb	-0.063535415
18	0x3d3f7869	0.04674569
19	0x3dd0ebab	0.102012
20	0x3cdd4027	0.02700813
21	0xbd8cab2c	-0.06868586
22	0xbd7a68f3	-0.061135244
23	0x3dedd6ca	0.116132334
24	0xbdad711b	-0.08468839
25	0xbdb77787	-0.08958345
26	0x3d22a95d	0.0397123
27	0xbd833df0	-0.06408298
28	0xbdbd5d9c	-0.0924637
29	0x3e1db784	0.15402037
30	0x3cb451ba	0.022011627
31	0x3c703cb9	0.014662915
32	0xbdd5c29f	-0.10437512
33	0xbceb4479	-0.028719174
34	0x3d17c889	0.03705648
35	0x3bfed2c7	0.0077765915
36	0xbd835c4e	-0.0641409
37	0xbda9324f	-0.08261549
38	0xbd595b36	-0.0530655
39	0xbde27f60	-0.11059451
40	0x3db1053a	0.08643575
41	0xbde0a47e	-0.109688744
42	0x3d976db3	0.0739397
43	0xbe105e35	-0.14098437
44	0xbbd31b2b	-0.0064424477
45	0x3d10c384	0.03534271
46	0x3df59802	0.11991884
47	0x3dc7f543	0.09763577
48	0x3dc171ee	0.094455585
49	0x3cd182eb	0.025575122
50	0xbc5f5153	-0.013630229
51	0x3d2f82ca	0.04284934
52	0xbe197719	-0.14986838
53	0xbd31b317	-0.043383684
54	0x3c332f00	0.010936499
55	0xbdb310c9	-0.08743436
56	0xbde4dcea	-0.111749485
57	0xbdd5f297	-0.10446661
58	0x3dcb12fd	0.09915731
59	0x3dc94756	0.098280594
60	0x3d8b6b21	0.068075426
61	0xbdcc5497	-0.09977072
62	0x3e1407ee	0.1445615
63	0xbccd3e34	-0.025054075
64	0x3ab03ef8	0.00134465
65	0xbd123596	-0.035695635
66	0x3d50d6cb	0.050986093
67	0x3d837be7	0.06420117
68	0x3d2c64a0	0.04208815
69	0x3db58dd5	0.08864943
70	0xbd887113	-0.06662192
71	0x3e23af17	0.1598476
72	0x3d3ec8e9	0.04657832
73	0xbdd9763f	-0.10618257
74	0x3c235c96	0.009970805
75	0xbd35326e	-0.044237547
76	0xbb4aa398	-0.0030920263
77	0x3d869510	0.065714
78	0xbbbbf7b3	-0.005736315
79	0x3c9a49b3	0.01883397
80	0xbdf131bf	-0.117770664
81	0x3dc896db	0.097943984
82	0x3d50a771	0.050940935
83	0x3d006205	0.03134348
84	0xbcbaa43f	-0.022783397
85	0xbca41633	-0.020030117
86	0xbda9413f	-0.08264398
87	0xbc7aa22a	-0.015297452
88	0xbd659180	-0.056046963
89	0xbdcf0f8a	-0.10110386
90	0x3d678a37	0.056528296
91	0x3de9cf60	0.11416507
92	0xbdcd64a1	-0.10028959
93	0xbc47453f	-0.012162506
94	0xbd019cb5	-0.031643588
95	0xbc311f65	-0.010810708
96	0xbdfcaf10	-0.12338078
97	0x3d920e19	0.07131595
98	0x3dc42c07	0.0957871
99	0xbe04a3e0	-0.12953138
100	0x3d6ecca4	0.05830063
101	0xbd566969	-0.05234662
102	0x3cdb1a80	0.026746035
103	0x3dd05d1e	0.10174011
104	0xbd839a44	-0.06425908
105	0x3df99435	0.121864714
106	0x3de81466	0.11332016
107	0xbda81029	-0.08206207
108	0xbb8cb54a	-0.0042940723
109	0x3c80d8b5	0.015728334
110	0x3d032c2b	0.032024544
111	0xbd1c0635	-0.038091857
112	0xbc522360	-0.012825817
113	0xbc04b407	-0.0080995625
114	0xbbd48400	-0.006485462
115	0x3d3c399f	0.04595339
116	0x3de94b37	0.11391299
117	0xbdba9639	-0.09110684
118	0xbbf0281c	-0.007329
119	0xbc8734de	-0.016504701
120	0x3d23905d	0.039932597
121	0x3de0b4f1	0.10972012
122	0x3d116eb3	0.03550596
123	0x3df31de3	0.11870935
124	0x3daf9b6b	0.085745655
125	0x3d356b0f	0.044291552
126	0x3d0d8e01	0.034559254
127	0x3ca16244	0.019700177

convs.1.lin_r.weight f4 [128, 64]
0	0x3d85f760	0.06541324
1	0x3d71f8e1	0.05907524
2	0xbc2b5129	-0.010456362
3	0xbcc819fc	-0.024426453
4	0x3cae9761	0.021312417
5	0x3d04c411	0.032413546
6	0x3dc98573	0.098399065
7	0x3ce36ea4	0.027762718
8	0xbd25aff3	-0.040451
9	0xbca0537d	-0.01957106
10	0xbc6cc59a	-0.014451409
11	0xbce9aff6	-0.028526288
12	0xbd8ca18e	-0.068667516
13	0xbdbc4ddc	-0.09194538
14	0xbd53a9a3	-0.05167545
15	0xbd9d7923	-0.076891206
16	0xbd980755	-0.074232735
17	0xbb9a4129	-0.0047074747
18	0x3dbfc98a	0.093646124
19	0x3c4b915e	0.012424795
20	0xbe034825	-0.1282049
21	0x3daf227c	0.08551499
22	0x3de033be	0.10947369
23	0x3da97ef4	0.082761675
24	0x3cd47753	0.025935804
25	0xbc2cce1f	-0.01054719
26	0xbe038f43	-0.12847619
27	0xbdc5d149	-0.096590586
28	0xbd3bed03	-0.04588033
29	0xbd2ab8cd	-0.041680146
30	0x3c83f9df	0.016110359
31	0xbdb22211	-0.08697904
32	0xbe0eaf6a	-0.13934103
33	0xbd835789	-0.064131804
34	0xbd32e487	-0.043674972
35	0x3dd3f129	0.10348732
36	0xbd431038	-0.04762289
37	0x3df88c1b	0.12136098
38	0x3cbd3076	0.023094397
39	0xbd96b66e	-0.073590145
40	0x3d5cdae7	0.0539197
41	0xbd952171	-0.07281769
42	0xbd8d2dc5	-0.068934955
43	0x3d927afb	0.07152363
44	0xbdac5f36	-0.084165975
45	0xbcef1a18	-0.029187247
46	0xbce1a56b	-0.027544698
47	0xbd2ba013	-0.041900706
48	0x3d87755c	0.066141814
49	0x3ce87851	0.028377684
50	0xbd3d050e	-0.0461474
51	0x3cc5738f	0.024102954
52	0xbcb75a34	-0.02238188
53	0xbc4d6fca	-0.01253886
54	0xbcc4d744	-0.024028428
55	0xbd6db201	-0.058031086
56	0xbdfef338	-0.12448734
57	0x3ba798ae	0.0051146364
58	0xbc2c1a91	-0.010504381
59	0x3d49b2b0	0.049242675
60	0xbd81706e	-0.063202724
61	0xbda6f4cc	-0.0815216
62	0xbdf6bced	-0.120477535
63	0x3c635e77	0.013877503
64	0xbd55e423	-0.05221952
65	0xbc910bc0	-0.017705798
66	0x3d975861	0.07389904
67	0x3cbaa895	0.022785464
68	0xbd89f37c	-0.06735894
69	0x3d1fc651	0.03900749
70	0xbdd71d95	-0.10503689
71	0x3d77984e	0.060447983
72	0xbc078b2c	-0.008272927
73	0x3d97d391	0.074134
74	0xbd6c8661	-0.05774534
75	0xbd359c7a	-0.04433868
76	0x3d530bb9	0.05152485
77	0xbd9c879d	-0.07643054
78	0xbda4e1f4	-0.0805091
79	0xbc1bdcbd	-0.009513077
80	0xbda52fc0	-0.08065748
81	0xbda5f663	-0.08103635
82	0x3bb74a9e	0.005593612
83	0x3d982464	0.07428816
84	0xbd96121f	-0.07327675
85	0xbcf94034	-0.030426122
86	0xbd3baa15	-0.0458165
87	0x3d4a2dcc	0.04936008
88	0xbcaa5e92	-0.020797048
89	0x3dd82be2	0.10555245
90	0xbd559f2c	-0.05215375
91	0x3db2aafe	0.087240204
92	0x3dd8d8ed	0.1058825
93	0xbd80afc2	-0.06283523
94	0x3d00c284	0.031435505
95	0xbd3304cc	-0.043705747
96	0x3a0cbfb4	0.0005369142
97	0x3d2877e3	0.041129958
98	0xbd497b0c	-0.049189612
99	0x3dc7f022	0.097625986
100	0x3dd5356b	0.10410579
101	0xbda996bf	-0.08280706
102	0xbd8797e1	-0.066207655
103	0x3cef53a2	0.029214684
104	0xbbed7f1e	-0.0072478196
105	0x3d9e5cc0	0.077325344
106	0x3db30018	0.08740252
107	0x3d279ca7	0.04092088
108	0x3d8033f0	0.06259906
109	0xbc9e704e	-0.01934066
110	0xbd95ca42	-0.07313968
111	0x3cb6dec4	0.02232302
112	0x3d37f2d7	0.044909324
113	0xbca88f69	-0.020576196
114	0x3dca7e7f	0.098874085
115	0xbc3b1e8b	-0.011420856
116	0xbda95521	-0.0826819
117	0x3c2a9304	0.010411028
118	0xbd9d700d	-0.076873876
119	0x3d0eb94d	0.034844685
120	0x3d2ca010	0.042144835
121	0x3cb3429f	0.021882353
122	0x3d16b6ce	0.03679543
123	0xbda765ae	-0.08173691
124	0x3d32cc6f	0.043651994
125	0xbdaa34e2	-0.08310868
126	0xbca880b5	-0.020569185
127	0xbca4de7a	-0.020125616
128	0x3da858e2	0.08220078
129	0xbd9f8464	-0.077889234
130	0xbd908e54	-0.07058397
131	0xbd176443	-0.03696085
132	0xbd316ca5	-0.043316502
133	0xbd26e0ed	-0.04074185
134	0x3d92dfaa	0.07171567
135	0xbc15f4a2	-0.009152563
136	0xbe31af99	-0.17352141
137	0xbdb75b96	-0.089530155
138	0xbd118fdb	-0.035537582
139	0x3d188d6d	0.03724425
140	0xbcdc3c1b	-0.02688413
141	0x3bbdc09c	0.005790783
142	0xbd7d021f	-0.0617696
143	0x3c90e831	0.017688842
144	0x3dba148a	0.09085949
145	0xbe23df54	-0.16003162
146	0xbdb9b42f	-0.090675704
147	0x3a760c15	0.00093859556
148	0xbda45e78	-0.08025831
149	0xbdff06be	-0.12452458
150	0xbd94de2e	-0.0726894
151	0xbd31849c	-0.043339357
152	0x3d9bd027	0.07608061
153	0xbd0e5d06	-0.034756683
154	0x3d879790	0.06620705
155	0x3d8c571e	0.06852554
156	0x3e066cd3	0.1312745
157	0xbd9c8172	-0.07641877
158	0xbdea83b9	-0.11450905
159	0x3d76be22	0.06023992
160	0xbdaaff81	-0.08349515
161	0xbdd936a7	-0.10606127
162	0xbdd76cb4	-0.1051878
163	0x3cc986fb	0.024600497
164	0xbdfb2cdd	-0.12264416
165	0x3dc88852	0.09791626
166	0xbdd23a1e	-0.10264991
167	0xbda677a9	-0.08128292
168	0xbde1d1a6	-0.110263154
169	0x3d757fc6	0.059936307
170	0x3dc5f990	0.09666741
171	0x3d2fe3d6	0.04294189
172	0xbb3afbeb	-0.0028531502
173	0x3dcfc94e	0.10145818
174	0x3cc2f98c	0.023800634
175	0x3de9f121	0.11422945
176	0xbdb6b861	-0.08921886
177	0x3d56838f	0.052371558
178	0x3cf92b12	0.030416045
179	0x3d98aa8b	0.074544035
180	0x3cab706e	0.020927634
181	0xbd90d42c	-0.070717186
182	0x3d56a01b	0.052398782
183	0xbbf855e3	-0.007578598
184	0x3d236d5d	0.03989922
185	0x3dab6850	0.083695054
186	0xbda3f3bb	-0.08005472
187	0xbde15bcc	-0.11003837
188	0xbce08258	-0.027405903
189	0x3d390cff	0.04517841
190	0xbdc91d5e	-0.098200545
191	0xbd8c1d16	-0.06841485
192	0xbcf10d89	-0.0294254
193	0xbd215f0c	-0.039397284
194	0x3d5f6709	0.05454162
195	0x3ddfa012	0.10919203
196	0x3ddc9275	0.10770122
197	0xbaf9c69f	-0.0019056386
198	0x3d6680f5	0.056275327
199	0xbdcf5387	-0.101233535
200	0xbd61ec52	-0.055157013
201	0x3d84928b	0.06473263
202	0x3dcbfb41	0.09960032
203	0xbbad17d7	-0.005282383
204	0x3dfc7026	0.12326078
205	0x3dc0e31a	0.09418316
206	0xbdd7fec2	-0.10546638
207	0x3d85e2dd	0.06537411
208	0x3d86f307	0.065893225
209	0x3d834cd2	0.06411137
210	0xbda7c304	-0.08191493
211	0xbc699c8d	-0.014258516
212	0xbd6cfc32	-0.0578577
213	0x3dd06bc3	0.10176804
214	0xbd8149f0	-0.063129306
215	0x3d214e96	0.039381586
216	0xbd41a7e1	-0.047279242
217	0x3d2474f8	0.040150613
218	0xbddeba46	-0.108753726
219	0x3c55eaae	0.01305644
220	0x3d579241	0.052629713
221	0x3c010ab3	0.007876086
222	0x3d8a3956	0.06749217
223	0xbd7aa474	-0.06119199
224	0x3da22bda	0.0791852
225	0x3d7341fc	0.0593891
226	0xbde74685	-0.112927474
227	0xbd0be63c	-0.034155115
228	0x3d4e1a24	0.0503179
229	0xbd2faadf	-0.042887565
230	0x3dea4e98	0.11440772
231	0xbca644dd	-0.020296508
232	0x3dea72f8	0.1144771
233	0x3d07c232	0.033144183
234	0x3e0d4ec9	0.13799585
235	0xbd6c97bc	-0.057761893
236	0x3d1ec4c0	0.038761854
237	0xbdf4487c	-0.11927888
238	0xbdb8d60b	-0.090252005
239	0x3c72c773	0.01481806
240	0x3d936ea4	0.071988374
241	0x3d1b4e4e	0.037916474
242	0x3d36f1f4	0.04466434
243	0x3dee9514	0.11649528
244	0xbc713039	-0.01472097
245	0x3da4a676	0.080395624
246	0x3d2b850e	0.041874938
247	0x3d7e5bef	0.062099393
248	0x3cdf170f	0.027232675
249	0x3e1693a3	0.14704756
250	0x3dd7ca5e	0.10536645
251	0xbdadae42	-0.08480503
252	0x3d901192	0.07034601
253	0xbccbaca8	-0.024862602
254	0xbc7c716a	-0.015407899
255	0xbc909f9b	-0.01765423

bns.0.weight f4 [64]
0	0x3f7e67ca	0.9937712
1	0x3f6f7bb7	0.9354815
2	0x3f85ad92	1.0443594
3	0x3f801405	1.000611
4	0x3f809e15	1.0048243
5	0x3f77c8d9	0.96790844
6	0x3f6f0f0c	0.93382335
7	0x3f8498d6	1.0359142
8	0x3f7ca81f	0.9869403
9	0x3f72530b	0.94657964
10	0x3f81b054	1.0131936
11	0x3f7497d0	0.9554415
12	0x3f6f48b3	0.93470305
13	0x3f80d7c6	1.0065849
14	0x3f802439	1.0011054
15	0x3f7aecb2	0.9801742
16	0x3f6cb6f4	0.92466664
17	0x3f7dc49a	0.99128115
18	0x3f77f0d3	0.96851844
19	0x3f783079	0.96948963
20	0x3f6f198b	0.9339835
21	0x3f7bc519	0.9834762
22	0x3f6f3827	0.93445057
23	0x3f787497	0.970529
24	0x3f775b09	0.96623284
25	0x3f82b906	1.0212715
26	0x3f7b5678	0.98178816
27	0x3f71e607	0.9449162
28	0x3f6fdeda	0.9369942
29	0x3f693ffb	0.9111325
30	0x3f7b8bde	0.98260295
31	0x3f799a2c	0.9750087
32	0x3f71ee1e	0.94503963
33	0x3f7f77bb	0.9979207
34	0x3f843727	1.0329331
35	0x3f7b25d0	0.9810457
36	0x3f787740	0.9705696
37	0x3f70fee7	0.9413895
38	0x3f796914	0.9742596
39	0x3f6c4508	0.92292833
40	0x3f805ab0	1.0027676
41	0x3f7ce8af	0.98792547
42	0x3f746276	0.9546274
43	0x3f7d49ac	0.9894054
44	0x3f855c5c	1.0418811
45	0x3f78aa7d	0.97135144
46	0x3f7e6956	0.9937948
47	0x3f787fd1	0.9707003
48	0x3f72173d	0.9456671
49	0x3f8218ca	1.0163815
50	0x3f884c4e	1.0648286
51	0x3f7433eb	0.9539172
52	0x3f81c67f	1.0138701
53	0x3f824e13	1.0180076
54	0x3f7fc8c2	0.9991571
55	0x3f8006be	1.0002058
56	0x3f823e99	1.0175353
57	0x3f81bd7c	1.0135951
58	0x3f7ca326	0.98686445
59	0x3f82efcd	1.0229431
60	0x3f7fc48c	0.9990928
61	0x3f69c0d2	0.91309845
62	0x3f7f4049	0.99707466
63	0x3f7b9d84	0.98287225

bns.0.bias f4 [64]
0	0xbcc6b12c	-0.024254404
1	0xbd4ccbb8	-0.04999897
2	0x3d6d77c3	0.05797554
3	0xbc37e9eb	-0.011225204
4	0x3c197b17	0.009367726
5	0xbc7a39af	-0.015272542
6	0xbd1fe1fe	-0.039033882
7	0x3d1a5c5a	0.03768573
8	0xbcdc2d03	-0.026876932
9	0xbd45951e	-0.048237912
10	0x3c52ebf9	0.012873643
11	0xbd1ff78a	-0.03905443
12	0xbd577126	-0.05259814
13	0xba9b53dc	-0.0011850554
14	0xbc397886	-0.011320239
15	0x3c1b7191	0.009487526
16	0xbd5d2e6f	-0.05399936
17	0x3ca801dd	0.020508701
18	0xbd65ceac	-0.0561053
19	0xbd26ba42	-0.040704973
20	0xbd172772	-0.036902852
21	0xbcd382b6	-0.025819164
22	0xbd75e569	-0.060033236
23	0xbd10f7eb	-0.035392683
24	0xbcdb354b	-0.02675881
25	0x3c35bc24	0.0110922195
26	0xbc219088	-0.009861119
27	0xbd145287	-0.036211517
28	0xbd4a0756	-0.049323402
29	0xbd98941f	-0.07450127
30	0x3b4e6845	0.0031495255
31	0xbb9c2a2f	-0.004765771
32	0xbd463b97	-0.048396673
33	0xbbbb8f67	-0.005723882
34	0x3c9a4a0e	0.01883414
35	0xbcac8cbd	-0.021063203
36	0xbbed81a1	-0.007248119
37	0xbd74e66a	-0.059790052
38	0xbb257e64	-0.0025252337
39	0xbdaa8cad	-0.08327613
40	0x3aa8eb45	0.0012887499
41	0x3bff09fe	0.0077831736
42	0xbd39455f	-0.045232173
43	0xbbbd7f93	-0.0057830303
44	0x3d49386b	0.04912607
45	0xbd4d0b86	-0.050059818
46	0xbcaf805d	-0.021423513
47	0xbd36c576	-0.044621907
48	0xbcf87f8c	-0.030334257
49	0x3cec268c	0.028826974
50	0x3d9e08bf	0.07716512
51	0xbd500cb2	-0.050793357
52	0x3d07af60	0.033126235
53	0x3d2351a7	0.03987279
54	0x3cf11e2c	0.029433332
55	0x3c24126b	0.010014157
56	0x3cdbfdd8	0.02685444
57	0xbaa8d892	-0.0012881926
58	0xb9816c80	-0.00024685636
59	0x3ce0789a	0.027401257
60	0x3cae4ce8	0.021276906
61	0xbda594cc	-0.080850214
62	0xbba34e3c	-0.0049836915
63	0xbd1e37a0	-0.038627267

bns.0.running_mean f4 [64]
0	0x3d8edd3b	0.0697579
1	0x3d3effe1	0.046630744
2	0x3daee30c	0.085393995
3	0x3c8ca966	0.01717062
4	0x3d4c3284	0.049852863
5	0xbcbd2a5b	-0.023091486
6	0xbd0c0985	-0.034188766
7	0xbdf504b2	-0.11963786
8	0x3e0bc9b0	0.13651156
9	0x3e3e474d	0.18581887
10	0x3d9bbf80	0.07604885
11	0x3e17bd2e	0.1481826
12	0x3d16ef87	0.036849525
13	0x3de32bdd	0.11092351
14	0x3d7f68d5	0.062355835
15	0x3cb81718	0.02247195
16	0xbda45bd6	-0.08025329
17	0x3cdfa05c	0.027298145
18	0x3d20f3ad	0.039294887
19	0xbcf3eb9f	-0.029775439
20	0xbe34e7b2	-0.1766651
21	0x3d62f37f	0.055407997
22	0xbd86165b	-0.06547233
23	0xbbc40432	-0.0059819454
24	0x3d973c50	0.073845506
25	0x38664eb2	5.4909564e-05
26	0xbcd0662e	-0.025439348
27	0xbd7cacff	-0.06168842
28	0x3c81833f	0.015809653
29	0xbcafcdd6	-0.021460455
30	0x3d9ffff1	0.07812489
31	0x3dcd02b7	0.100102834
32	0xbde0a409	-0.10968787
33	0x3c57e610	0.01317741
34	0x3e0ed564	0.1394859
35	0xbc4a9c00	-0.012366295
36	0xbcd06187	-0.02543713
37	0x3cde7289	0.027154224
38	0x3d12a49f	0.035801526
39	0x3dac69ff	0.08418655
40	0x3e370f22	0.17876866
41	0xbd517191	-0.051133696
42	0xbd711de2	-0.05886639
43	0x3b9d4ac7	0.004800174
44	0x3dbd040c	0.092292875
45	0x3c964047	0.018341197
46	0x3c7d3654	0.015454847
47	0xbd51b9c1	-0.05120254
48	0x3de3fd6d	0.111323215
49	0xbd8210c5	-0.06350855
50	0x3d5d76ae	0.05406826
51	0x3cd63dff	0.026152609
52	0x3e181584	0.14851958
53	0x3dc7b9f3	0.09752264
54	0x3e380970	0.1797235
55	0xbdd175a6	-0.10227518
56	0x3cd76c15	0.026296655
57	0xbd821090	-0.06350815
58	0xbdc2867d	-0.09498308
59	0x3cda6601	0.026659967
60	0x3d04dc2d	0.03243654
61	0xbdf4106f	-0.11917197
62	0x3d5b0723	0.053473603
63	0x3d7d4bed	0.061839987

bns.0.running_var f4 [64]
0	0x3c4c4590	0.012467757
1	0x3c0fe6ca	0.008783052
2	0x3c0ed412	0.008717554
3	0x3c09e8e9	0.0084173465
4	0x3c56f047	0.01311881
5	0x3c02e4e6	0.007989144
6	0x3c109c40	0.008826315
7	0x3c17ff4a	0.009277174
8	0x3c091d48	0.008368798
9	0x3bb45fae	0.00550457
10	0x3c2bee9e	0.0104939025
11	0x3bcda180	0.006275356
12	0x3bfa4a82	0.0076382766
13	0x3badc01c	0.0053024422
14	0x3bf44a2b	0.0074551306
15	0x3bf7c216	0.0075609786
16	0x3c279640	0.0102286935
17	0x3c19d5ff	0.0093894
18	0x3c1b0296	0.009461066
19	0x3bee9577	0.007281001
20	0x3c1e007b	0.009643669
21	0x3c307f4a	0.010772536
22	0x3c7055b3	0.01466887
23	0x3c123650	0.008924082
24	0x3c172084	0.009224061
25	0x3c00c5a2	0.007859619
26	0x3bb92aa7	0.0056508365
27	0x3bf6ab5f	0.0075277532
28	0x3c029c78	0.007971875
29	0x3c09daac	0.008413952
30	0x3bc89833	0.006121659
31	0x3c02ed21	0.007991106
32	0x3bf7484a	0.0075464593
33	0x3c0468d0	0.00808163
34	0x3bd98ee4	0.0066393483
35	0x3c01fd9a	0.0079339985
36	0x3c2b5946	0.010458296
37	0x3c05dd2c	0.008170407
38	0x3c388806	0.011262899
39	0x3c1d937d	0.0096176835
40	0x3c18cf9a	0.00932684
41	0x3c2ac51d	0.010422972
42	0x3c16a0b3	0.009193587
43	0x3c041fda	0.008064235
44	0x3c194a06	0.0093560275
45	0x3c1ad5ee	0.009450419
46	0x3c0e8e08	0.008700855
47	0x3c027ff4	0.007965077
48	0x3c266c5a	0.010157669
49	0x3c15e3bf	0.009148537
50	0x3c155a3d	0.009115753
51	0x3c02b8e4	0.007978652
52	0x3c1ad903	0.009451154
53	0x3c086143	0.00832397
54	0x3bcbc8e5	0.006219017
55	0x3c15d74b	0.009145568
56	0x3c58c3bd	0.013230261
57	0x3c1464fc	0.00905728
58	0x3c18abb1	0.009318278
59	0x3c477872	0.0121747125
60	0x3c15841f	0.009125738
61	0x3c1ba0f1	0.009498821
62	0x3bedf9be	0.0072624376
63	0x3c4794b0	0.012181446

bns.1.weight f4 [128]
0	0x3e8933e4	0.26797402
1	0x3e863029	0.26208618
2	0x3e852627	0.2600567
3	0x3e886ed5	0.26647058
4	0x3e8dbb3d	0.27681914
5	0x3e87a40b	0.26492342
6	0x3e88c92f	0.2671599
7	0x3e85c482	0.26126486
8	0x3e820b37	0.2539918
9	0x3e8587f9	0.260803
10	0x3e8e4cf5	0.2779309
11	0x3e884d64	0.26621544
12	0x3e942fb5	0.28942648
13	0x3e8bf6be	0.27336687
14	0x3e893750	0.26800013
15	0x3e8ccb68	0.27498937
16	0x3e8ed9c7	0.27900526
17	0x3e8b7715	0.2723929
18	0x3e89051f	0.2676172
19	0x3e926e9a	0.28600007
20	0x3e80ba99	0.25142363
21	0x3e835947	0.2565405
22	0x3e7cb4dc	0.24678367
23	0x3e879bca	0.26486045
24	0x3e6f68d2	0.2337983
25	0x3e89b4a9	0.26895645
26	0x3e842897	0.25812218
27	0x3e825fc5	0.2546369
28	0x3e8859f8	0.2663114
29	0x3e8a2562	0.26981646
30	0x3e927882	0.28607565
31	0x3e8f13a8	0.27944684
32	0x3e864057	0.26220962
33	0x3e82458a	0.2544368
34	0x3e6efb91	0.23338152
35	0x3e88d677	0.26726124
36	0x3e8a94f0	0.27066755
37	0x3e8d7e6d	0.27635518
38	0x3e81a4cf	0.2532105
39	0x3e858c0d	0.26083413
40	0x3e745b62	0.23862985
41	0x3e8d2862	0.27569872
42	0x3e80e459	0.25174215
43	0x3e8358df	0.2565374
44	0x3e7f00ee	0.24902698
45	0x3e912920	0.28351688
46	0x3e85357f	0.26017377
47	0x3e8bfe16	0.2734229
48	0x3e847434	0.25869906
49	0x3e8c95de	0.2745809
50	0x3e895213	0.2682043
51	0x3e8ae7f5	0.27130094
52	0x3e81a899	0.25323942
53	0x3e6f873c	0.23391432
54	0x3e85723b	0.26063713
55	0x3e7cb43d	0.2467813
56	0x3e84d0dc	0.25940597
57	0x3e872685	0.26396576
58	0x3e8686f9	0.2627485
59	0x3e7fa6d3	0.24965982
60	0x3e80a4ab	0.25125632
61	0x3e8ff1b0	0.2811408
62	0x3e79f57a	0.24410048
63	0x3e92979b	0.2863129
64	0x3e7258ae	0.23666641
65	0x3e84cc71	0.25937226
66	0x3e877b7c	0.264614
67	0x3e939b77	0.28829548
68	0x3e7ee7da	0.24893132
69	0x3e89e09b	0.26929173
70	0x3e8db701	0.27678683
71	0x3e7d718e	0.24750349
72	0x3e96226f	0.29323146
73	0x3e8d653e	0.27616304
74	0x3e88ff4b	0.26757273
75	0x3e8826c2	0.2659207
76	0x3e8c81b2	0.274427
77	0x3e87eafe	0.26546472
78	0x3e874bc5	0.26424995
79	0x3e820b3e	0.25399202
80	0x3e86e154	0.26343787
81	0x3e895fab	0.268308
82	0x3e891419	0.26773146
83	0x3e8ac5e2	0.27104098
84	0x3e8a2551	0.26981595
85	0x3e8025e9	0.25028923
86	0x3e889c32	0.26681668
87	0x3e95c5f9	0.29252604
88	0x3e7aa1f2	0.2447584
89	0x3e8b0326	0.2715084
90	0x3e7d5093	0.24737768
91	0x3e6f6844	0.23379618
92	0x3e83d1aa	0.25745898
93	0x3e8ab31f	0.27089784
94	0x3e8a526b	0.27016005
95	0x3e7e1cee	0.24815723
96	0x3e8d8052	0.27636963
97	0x3e7982fa	0.2436637
98	0x3e8b0d13	0.27158412
99	0x3e87b1c4	0.26502812
100	0x3e8af8d1	0.27142957
101	0x3e8772cd	0.26454774
102	0x3e7de755	0.24795277
103	0x3e8b19c1	0.27168086
104	0x3e865e1a	0.2624367
105	0x3e7e5909	0.24838652
106	0x3e955b70	0.29171324
107	0x3e8ad1d5	0.27113214
108	0x3e95d8b4	0.29266894
109	0x3e83e4fc	0.2576064
110	0x3e82d37a	0.2555197
111	0x3e91c363	0.2846938
112	0x3e92b6e1	0.2865515
113	0x3e868410	0.2627263
114	0x3e861c43	0.26193437
115	0x3e8aa2ff	0.2707748
116	0x3e943aa8	0.28951
117	0x3e8dcf79	0.27697352
118	0x3e8c8a9e	0.27449507
119	0x3e8565a4	0.26054108
120	0x3e86300a	0.26208526
121	0x3e89b405	0.26895157
122	0x3e8fbde5	0.28074566
123	0x3e8b9964	0.27265465
124	0x3e861d9a	0.2619446
125	0x3e8a030e	0.26955456
126	0x3e8b8778	0.27251792
127	0x3e79c000	0.24389648

bns.1.bias f4 [128]
0	0xbbbf0f97	-0.005830716
1	0xbc351385	-0.011052017
2	0x3b205dee	0.002447005
3	0xbb426cf9	-0.0029667004
4	0xbb089cd9	-0.0020845442
5	0xbb1f216e	-0.00242814
6	0x3a6090f6	0.0008566523
7	0x3b24b76a	0.0025133737
8	0xbbf8c34f	-0.007591642
9	0x3b628bd5	0.003456821
10	0x3af34701	0.001856059
11	0x3bd7608b	0.006572788
12	0x3c4197f2	0.011816012
13	0x3c04bea2	0.008102091
14	0x3bbaa1af	0.0056955437
15	0xbb31b31b	-0.0027114812
16	0xbb30538f	-0.0026905274
17	0xbb8af6b4	-0.004240835
18	0xbbc134e9	-0.0058962
19	0xb9f98fb5	-0.0004760005
20	0xbb112228	-0.0022145603
21	0xbb48be0f	-0.0030630862
22	0xbb00a179	-0.0019627495
23	0x3b29e4bf	0.0025923697
24	0x3b8fa697	0.0043838727
25	0xbb4d802e	-0.0031356919
26	0x3b93f9c3	0.004515858
27	0x3baded3d	0.005307822
28	0xbb9e7d0b	-0.0048366836
29	0x3bea3d00	0.007148385
30	0xbc1d2e8a	-0.009593615
31	0xbb5a8d80	-0.00333485
32	0x3a31b53f	0.0006779022
33	0x3b5e5e7f	0.0033930836
34	0xba802dd3	-0.0009779282
35	0x3c171a53	0.009222585
36	0xba6b632c	-0.00089793163
37	0xbb1a63db	-0.0023558054
38	0x3bddc721	0.006768123
39	0xbb57e56c	-0.0032943143
40	0xbab89930	-0.0014083739
41	0xbb9268db	-0.004468066
42	0xbb9446b9	-0.0045250324
43	0x3a9361b1	0.0011244324
44	0x37c7a412	2.379905e-05
45	0xbc46ffcd	-0.012145949
46	0x3bb0bb67	0.005393434
47	0x39337248	0.00017113343
48	0x3bda554a	0.0066629993
49	0xbbb202ac	-0.0054324474
50	0xbb910156	-0.004425208
51	0x39e519bb	0.00043697454
52	0x3b2e7826	0.0026621907
53	0x3b9df844	0.0048208553
54	0xbb72fe56	-0.0037077866
55	0xbab206d6	-0.001358236
56	0x3926893e	0.0001588212
57	0xbab0098e	-0.0013430582
58	0xbb865aee	-0.004100195
59	0xba86eed3	-0.0010294564
60	0x3acb1bb8	0.0015495932
61	0x3b9f1be8	0.0048556216
62	0x3b8d2728	0.0043076463
63	0xbbac2bb9	-0.0052542356
64	0xbb05169c	-0.0020307666
65	0x3aa49452	0.001255641
66	0xba344dbf	-0.000687804
67	0x3c5eaa3c	0.013590392
68	0xbb8878ca	-0.00416479
69	0x3c372cb7	0.011180094
70	0xbb8214a8	-0.0039697476
71	0x3c12383c	0.00892454
72	0x3c0c70c6	0.008571809
73	0x3b1c2e75	0.0023831401
74	0x3a1f4a68	0.0006076456
75	0xbb6ce293	-0.003614579
76	0x39ba693d	0.00035555093
77	0x3b4086fa	0.0029377327
78	0x3ae89280	0.0017743856
79	0xbae632ea	-0.0017562781
80	0xbbc340da	-0.0059586586
81	0x3bfd2969	0.0077258837
82	0x3ae8ecef	0.0017770807
83	0xbbdbfae6	-0.006713259
84	0x3b7c567f	0.0038503704
85	0x3ab24ebd	0.0013603788
86	0xbc1fce63	-0.009753796
87	0xbc466b73	-0.012110579
88	0xba952717	-0.0011379448
89	0x3a86d05f	0.0010285488
90	0x3b00d7ed	0.0019659952
91	0xba224eb3	-0.00061915367
92	0x3bc16d7c	0.005902944
93	0x3bc812a1	0.0061057364
94	0x3b8c5600	0.004282713
95	0x3ba99bd5	0.0051760473
96	0xbacf7b88	-0.0015829662
97	0xbb0166f6	-0.0019745207
98	0x3c1a0f55	0.0094030695
99	0x3949e090	0.0001925251
100	0x3c34b29d	0.011028913
101	0x3b02d685	0.001996429
102	0xbbc272f4	-0.0059341136
103	0x3c09d189	0.0084117735
104	0xba4941b0	-0.00076773297
105	0x3bc36d26	0.0059639392
106	0xba3e0a6e	-0.0007249479
107	0xbc2cdc76	-0.010550609
108	0x3c8256a4	0.015910454
109	0xbb468caa	-0.0030296245
110	0x3b4f68ba	0.0031648115
111	0xbc094521	-0.008378298
112	0xbc872a9a	-0.016499806
113	0x3b92e8ed	0.0044833333
114	0xbb86bc8e	-0.004111833
115	0x3c34b74d	0.01103003
116	0x3c298e4c	0.010348868
117	0x3acbfac6	0.0015562407
118	0x391a56d7	0.00014718935
119	0x3b0e117c	0.0021677902
120	0x3b9c0093	0.0047608106
121	0xbc3dc622	-0.011582883
122	0xbb2713b9	-0.0025493933
123	0xbc2630a2	-0.010143431
124	0x3b4703a7	0.0030367167
125	0xbbc77fdf	-0.0060882415
126	0x3c1bb4e5	0.009503578
127	0x3ba0da2d	0.004908821

bns.1.running_mean f4 [128]
0	0xbd7c0726	-0.061530255
1	0xbc3841f1	-0.01124619
2	0xbdd75f8b	-0.1051627
3	0x3d9ace12	0.07558836
4	0xbc043f48	-0.008071728
5	0xbdd3899f	-0.103289835
6	0x3d502641	0.05081773
7	0xbd85d00a	-0.06533821
8	0xbdf11d14	-0.11773124
9	0xbd1ff045	-0.0390475
10	0xbcf61baa	-0.030042488
11	0xbd4eee68	-0.05052033
12	0x3db602bd	0.08887241
13	0xbc8716b4	-0.016490318
14	0x3dd0875f	0.1018207
15	0x3d05bf02	0.032652862
16	0xbc4dddb5	-0.012565066
17	0x3cf39a14	0.029736556
18	0x3dca4c3c	0.09877822
19	0xbd5f902a	-0.054580845
20	0xbcf2fdc0	-0.029662013
21	0x3c2982d7	0.010346136
22	0x3d42a114	0.047516897
23	0x3c46f019	0.012142205
24	0xbdf9cecd	-0.12197647
25	0xbd2481eb	-0.040162962
26	0xbd78ded6	-0.060759388
27	0x3c9b9d61	0.018995943
28	0xbc7a2f7f	-0.015270113
29	0x3de0162f	0.10941731
30	0xbda2d27e	-0.079503044
31	0x3bbace26	0.0057008443
32	0x3d0e9bb8	0.034816474
33	0x3d07f011	0.03318793
34	0x3e60db47	0.21958648
35	0xbcb6d92c	-0.022320352
36	0x3d1dfc1f	0.03857052
37	0x3cf5ba4e	0.029996064
38	0xbb8fcaf9	-0.00438821
39	0xbd9a3aef	-0.07530772
40	0x3d91c31e	0.07117294
41	0xbdb7a795	-0.089675106
42	0xbd79cdb2	-0.060987182
43	0xbdb5c752	-0.08875908
44	0x3dd29197	0.10281675
45	0xbde36370	-0.111029506
46	0x3e5744cb	0.21022336
47	0x3d659e35	0.05605908
48	0x3e055158	0.13019311
49	0x3cff04d6	0.031130236
50	0x3d252014	0.040313795
51	0xbdadb688	-0.08482081
52	0xbe23d5b5	-0.15999492
53	0x3e0bba30	0.13645244
54	0x3d613ae8	0.054987818
55	0xbd9157ca	-0.070968226
56	0xbbcc5ef2	-0.0062369043
57	0xbdcf0298	-0.101079166
58	0x3de62ba6	0.11238794
59	0xbb86a59c	-0.0041090976
60	0x3d142afc	0.036173806
61	0x3d2af2ca	0.041735448
62	0x3db9762a	0.09055741
63	0xbd6fd4c6	-0.058552526
64	0x3d8f19ee	0.069873676
65	0xbd24f6ee	-0.040274553
66	0xbdec3d44	-0.11535123
67	0x3d7f2eff	0.06230068
68	0x3d978f48	0.074003756
69	0x3e5acf57	0.21368156
70	0x3d6abb7b	0.0573077
71	0x3e5fef05	0.21868522
72	0xbd44efcb	-0.048080247
73	0x3b88e2ab	0.0041774116
74	0xbba91a6e	-0.0051606214
75	0x3b65cf6d	0.0035066262
76	0xbd757666	-0.059927367
77	0xbcc96dc2	-0.02458847
78	0x3c75430d	0.014969599
79	0x3d4db274	0.050219014
80	0xbe037cac	-0.12840527
81	0x3d9cb869	0.07652361
82	0xbcb68f34	-0.022285081
83	0xbd0397b4	-0.032127097
84	0xbc8dc4c9	-0.017305749
85	0xbd0d253c	-0.034459338
86	0xbc835c3c	-0.016035192
87	0xbbeecbe1	-0.007287488
88	0xbe0218bd	-0.1270475
89	0xbc9c2d98	-0.01906471
90	0x3db1aa20	0.08675027
91	0x3da390e8	0.07986623
92	0xbd387eb3	-0.045042705
93	0x3c52598a	0.012838731
94	0x3d32a771	0.043616716
95	0xbbd6aac7	-0.00655112
96	0xbd11f974	-0.035638288
97	0x3d87897a	0.066180184
98	0x3ba9fdd5	0.00518773
99	0xbdc2edd8	-0.09518021
100	0xbce5a8ac	-0.02803453
101	0xbd6554ed	-0.055989195
102	0xbd8d602a	-0.069031075
103	0x3db560ed	0.08856378
104	0x3db1f095	0.086884655
105	0x3d788a6a	0.060678877
106	0x3e2c4a7b	0.16825287
107	0xbe119d42	-0.14220145
108	0x3d4d8f8b	0.05018572
109	0x3d470394	0.048587397
110	0x3dc68e3b	0.09695097
111	0xbda46d91	-0.08028711
112	0xbd9df26a	-0.077122524
113	0xbb4842e0	-0.0030557439
114	0xbd882507	-0.066476874
115	0xbdbf7709	-0.09348876
116	0x3e1bd31c	0.1521725
117	0x3c1a9459	0.009434783
118	0xbda55748	-0.08073288
119	0xbca3992a	-0.019970495
120	0xbd0bb6fe	-0.03411006
121	0xbd969d36	-0.07354204
122	0xbc88022f	-0.016602604
123	0x3d74d0c3	0.059769403
124	0x3c7fa655	0.0156036215
125	0xbd9dd6a5	-0.07706956
126	0x3dc63971	0.09678925
127	0xbcb8884a	-0.022525925
