output/dmd/prev_e2v/run_003/prev_dmd_best_model_e2v.pth (torch, 207541 bytes, 14 tensors)

convs.0.lin_l.weight f4 [256, 32]
00000000: f661 aa3d 153f cbbd 2436 03be 927f 97bc
00000010: 4063 203e da8b 27be d19f 08be 2653 ebbd
00000020: f6ef c3bd d3ad 84bd 7398 abbd 2c3f f9bd
00000030: 27a4 1dbd d841 203e 38c0 53bd c73f c8bd
00000040: fbee 03be 0985 dcbd db8a 17be 9ef3 143e
00000050: 6b80 b23d 36aa 863b 26e1 85bc f91b 083e
00000060: e3b9 a2bd 14be f4bd 4347 abbd f94b 29be
00000070: 6c9f aebd b113 0f3e 59f6 a6bd a62e 043e
00000080: b5c6 bc3d eb0c 16bc aae1 15be 8650 273e
00000090: e764 823d 183f f33c b87c 1fbe aa1f 58bd
000000a0: d26e c5bc e5ec 0f3d 33ca 58bc 9d10 133e
000000b0: a65e 2cbd fcc1 743d 64fd 8b3d cc6b 933d
000000c0: cf37 e53d ac50 b63d cec7 823d e7e7 81bb
000000d0: 950f a7bd 2c84 013e 07d7 073e aa4a 74bd
000000e0: a775 c6bc c2a5 0c3e 798c 50bd d75a acbd
000000f0: 58e4 06be 6c41 bbbd dcdc e6bd 9c76 4a3d
00000100: cf05 06be 3d74 f33d c4cc 8fbd fa16 e53d
00000110: a352 81bd 5a29 11be a806 87bd 23c3 663d
00000120: 0be8 aa3d ca04 683d e51a 8abc 4682 0e3e
00000130: 6564 a33d 6d7c dfbd 94ee ca3c ac1f 6d3d
00000140: e476 02be 9db3 84bd 28e8 2d3e 639e 29be
00000150: 2627 0e3e 16f9 02be 2ffc febc 0513 313d
00000160: c73a e6bd 6aa3 103d 0034 abbc cb54 76bd
00000170: eafd 0bbd 71da 1d3d 1ad7 2c3d c638 69bd
00000180: 5ffb b73d c713 49bd d09a b9bd c8f6 ce3d
00000190: 38d7 0abd cdff 11be 3274 5bbd 17c0 05bd
000001a0: ee5c 99bd 0180 f9bd e362 df3d ef63 04be
000001b0: 0d42 b63d b053 893d 4856 183c 1525 f73d
000001c0: bd2d 53bd 0660 f6bd de11 49bb cd8c ec3d
000001d0: a57a a53d e027 1e3c f332 af3d 65be 7cbd
000001e0: c914 09bd d053 2abe a5c4 15bd 3537 07be
000001f0: d57a 79bd eda4 0e3e 1e72 e6bd 85e1 b8bd
00000200: 03b0 253d 2bea 663c 8227 e43d 86a6 143e
00000210: 3f66 bdbd 5c02 fcbc 9f7a f43d 9074 ce3d
00000220: 84e0 3dbd 19d0 5fbd b6a0 bf3d 1d44 60bd
00000230: 35db e0bd b68a 713d 1b97 033e 00b2 08be
00000240: 385f 82bd eebb 15bc 6927 89bd e4f7 7abd
00000250: c605 2abe f45b 543d 7b15 6e3d 7916 f03d
00000260: ed4c 443b 4c11 343d 18f1 55bd 76b8 cfbd
00000270: 8420 c93d 737e fb3d 8114 2a3e 5aa6 c0bd
00000280: 3119 4abd 4490 b83d 0213 9a3d 85ef b73d
00000290: 0d91 e23d 38d1 fc3c bb5c 76bd 893e 163e
000002a0: 8e09 f2bd 3f1f ffbd dc5b e4bd 5cd8 11be
000002b0: d2de a93c fdd5 ef3d fb0c 8cbd ad05 c83d
000002c0: a905 193e 98cc 253e 32fd 223e 9ade 7c3d
000002d0: cb15 843c 1cfd c7bb b1a7 133e fd47 8d3d
000002e0: ceec 873d c5f9 09be 8e7d e23d 870a f63d
000002f0: 2cc4 e63d d48e 21be 83e6 143d 6a48 05be
00000300: 75c2 dbbd 5aa5 febd 16fd 57bd a1b4 1abe
00000310: b192 21be fe16 573d d3f8 0eba 029b 0a3e
00000320: c8b3 123e cbee 0f3d 4e1e 813c 9763 b93c
00000330: 2a0e 093e 1001 9fbd afed 163d c8f5 07be
00000340: 2fc7 98bd 387c 8e3d f6e3 c33d f4a2 92bd
00000350: 1c74 b03d b135 3e3d 1def 8fbd 522c fabd
00000360: 8e6a 6f3c 08c3 1a3e 28ca 8e3d 8ec9 b43d
00000370: 23c7 ed3d bf81 073e d89f 13bd b0cf 3cbd
00000380: 537e cbbd 7aa0 12bc 8210 29be 69d1 0a3e
00000390: 364d a73d 5a1f 1d3d 8a51 893c 54d8 08be
000003a0: bec5 b9bd 3b84 dc3d cb1a 123e b596 a3bd
000003b0: 485d 3e3e ec31 d03d 9868 fb3d f8d6 d13d
000003c0: ad8b 82bd 19d2 f53d ed3f 883d 9315 0bbe
000003d0: 82b6 bfbd a3cc 513d bdf6 db3d 38ad 16be
000003e0: 5258 b23c 5402 cfbd fea8 e13d c9f2 b73b
000003f0: 696a f5bd eeff 213e 74f3 5d3d 067a c13d
0.08319466 -0.09924141 -0.12813622 -0.018493447 0.15662861 -0.16361943 -0.13342215 -0.11490469
-0.09567253 -0.06478467 -0.08378687 -0.12170252 -0.038486626 0.15650117 -0.051696986 -0.097777896
-0.12884133 -0.10767562 -0.14799063 0.14546058 0.087159 0.004109646 -0.01634271 0.1329192
-0.07945611 -0.11950317 -0.083632015 -0.16532888 -0.08526501 0.13972355 -0.08152456 0.1290842
0.09217588 -0.009158353 -0.14636865 0.16339311 0.06366902 0.029693171 -0.1557492 -0.052764572
-0.024100695 0.03513803 -0.013231802 0.14361806 -0.04208245 0.05975531 0.0683544 0.07198295
0.11192285 0.08902106 0.06385766 -0.0039644125 -0.08157269 0.12648076 0.1326562 -0.059641518
-0.024226023 0.13735107 -0.050915215 -0.08415764 -0.13173044 -0.091433376 -0.11272594 0.04942952
-0.13088153 0.11887405 -0.07021478 0.11186023 -0.0631459 -0.1417593 -0.065930665 0.05633844
0.0834504 0.056645192 -0.016858527 0.13916883 0.07978133 -0.10912404 0.024771966 0.057891533
-0.12740666 -0.06479571 0.16983092 -0.16564326 0.13882121 -0.12790331 -0.03112611 0.04323103
-0.1124168 0.035312094 -0.020898819 -0.06013946 -0.0341777 0.0385384 0.042197324 -0.05693891
0.08983492 -0.049091127 -0.09062731 0.101056635 -0.033896655 -0.14257737 -0.05357761 -0.032653894
-0.07488428 -0.12182618 0.10907533 -0.12928747 0.08899317 0.06705415 0.009297915 0.1206762
-0.05155729 -0.12030034 -0.0030680816 0.11550293 0.08080033 0.009653062 0.0855464 -0.061705012
-0.033467088 -0.16633534 -0.036564488 -0.13204654 -0.060908157 0.13930102 -0.11252235 -0.090273894
0.04045106 0.014093916 0.11140348 0.14516649 -0.092480175 -0.030762844 0.119374506 0.10080826
-0.046356693 -0.054641817 0.09356825 -0.054752458 -0.109793104 0.058970176 0.12850611 -0.13349152
-0.06365818 -0.009139044 -0.0669697 -0.061271563 -0.16603765 0.051845506 0.058125954 0.11723036
0.0029953078 0.043961808 -0.052231878 -0.10142605 0.09820655 0.12279978 0.16609384 -0.09406729
-0.04934043 0.090118915 0.07523157 0.089812316 0.110628225 0.030861482 -0.06014703 0.14672293
-0.11818229 -0.124571316 -0.11150333 -0.14242691 0.020736132 0.11710737 -0.06838413 0.097667076
0.14943565 0.16191328 0.15916899 0.061735727 0.016123673 -0.006103171 0.14419438 0.06898496
0.06636964 -0.13474186 0.11059104 0.12013727 0.112678856 -0.15777141 0.036352646 -0.13015905
-0.10730449 -0.12433882 -0.052731596 -0.15107967 -0.15778615 0.05251216 -0.0005453948 0.13535693
0.14326394 0.03513984 0.01576152 0.022630496 0.1338431 -0.077638745 0.036847766 -0.13277352
-0.07459866 0.069572866 0.095649645 -0.07159987 0.08615896 0.046437923 -0.07028029 -0.12215485
0.014612807 0.15113461 0.06972152 0.08827506 0.11610248 0.13233088 -0.03604111 -0.046096504
-0.09936204 -0.008949393 -0.16510203 0.13556446 0.08169024 0.038359977 0.016762514 -0.13363773
-0.090709195 0.107674085 0.14268033 -0.079877295 0.18590271 0.10165772 0.12275809 0.1024608
-0.06374297 0.120029636 0.06652818 -0.13582449 -0.093609825 0.051220547 0.10740421 -0.14714515
0.02177063 -0.10107866 0.11018561 0.005613659 -0.11983187 0.15820286 0.054187253 0.09447102

convs.0.lin_l.bias f4 [256]
00000000: fa03 023e 4798 64bd ec09 bc3d 214f ce3c
00000010: 3b86 5fbd 7885 7fbd 052c 29bd 0adf 94bd
00000020: 72be cabb c471 633d 36cf 123e 1dee 213e
00000030: 8ac4 123e 97cf 18be e0d0 073e e044 aebc
00000040: d35f 943d e1ab 0fbd 7c5c 463d 5cf5 1b3d
00000050: f570 fabb c85f e1bd 2a56 523c d5e6 23bd
00000060: 176e 1ebe dfb8 1dbe c723 8f3d 65fb debd
00000070: 0e75 7fbd 0588 b23d 725a d8bd 9507 733d
00000080: 4428 993d d574 92bd c8b3 d1bd e337 10be
00000090: 5a62 a03d 183d 01bd 85e4 283c d761 083d
000000a0: e54a f4bd 8e97 3b3e ac31 03be c4d4 26bd
000000b0: e2df b83d fef6 e4bd 823b 073d 8701 84bd
000000c0: 491f 61bd ed48 0c3e 0565 073e 3ef2 85bd
000000d0: 7124 dcbd 1015 fc3d c253 343e b433 86bd
000000e0: a475 06be cb86 79bd 2c4b 143e d1ec 473d
000000f0: 1d52 ffbd 756f 90bd d500 fe3d 1e2a 0c3e
00000100: 94c4 8d3d 461f 0d3e f6ba 163d 8717 63bd
00000110: 7b18 623d d223 fc3d 0865 c5bc 2186 58bc
00000120: d7a5 203e a503 0abe 600f b33d 6165 b6bd
00000130: 1673 19bd 02ba 143e f197 6dbd 43f3 7e3d
00000140: 1f09 833d ee45 bc3d c70e 0fbe 8c72 49bd
00000150: a3b6 183d 77e5 87bd 642f 0fbe c2a4 19be
00000160: 5e8e e93d ad9c 08be f26f f33d bbde d23d
00000170: 6f17 223e e225 99bd 1834 f6bc 34b2 ebbd
00000180: 6fb9 c1bd 5491 3d3e 69bc 633d 3481 a83d
00000190: 063a 3fbd f2ce e3bd 14cb 92bc 5600 e03d
000001a0: 137d 08bd 5d47 be3d 201e 483d 76a9 afbd
000001b0: 2f6d 113e 5f45 33be 8f7d e93d d3a7 293e
000001c0: 0c57 d2bd 7a78 99bd 3c23 e3bd ce9c b63d
000001d0: 47f4 20bc 78a8 813d 4b44 173d 06b4 9b3d
000001e0: 0856 ec3d e71e e5bc 8f36 e23d c98b e5bd
000001f0: def0 97bd d2d9 bd3d 4eb7 a73c eb8b 583d
00000200: e977 e33d 38df e03d 084d 73bd 98c6 11be
00000210: 2306 9a3d f0fb a4bc 55cd 8b3d 78bf d2bd
00000220: 493e 5dbd 66aa 113e 01ef 69bd 8e60 a53d
00000230: e3c8 f13c 89e0 1d3d 587a c7bd 5b5c 913c
00000240: d4a7 a2bd ba2e 2d3c b069 773d de75 883b
00000250: 1542 debd b393 ca3d 2435 04be a744 37bc
00000260: a806 d03d 620d b93c 95d4 a93d 63f3 2cbe
00000270: 609a 27be dd0e a93d 8ff8 033d a7c1 32bc
00000280: 542f d83d 64dd 07bd 707c 083c 88af 44bd
00000290: 11c1 02be 8330 c53d 3fc7 013e a79d dc3c
000002a0: 2b01 fbbd 42c6 86bd d609 cbbb fba4 10bc
000002b0: 2e7a b33d 672a e2bd ee59 b3bd 44a0 bc3c
000002c0: bcb4 7bbd 0da2 833d b0dc ea3d b9dc c13d
000002d0: f891 c03d b949 8fbc 782b 1d3e d6a8 b83d
000002e0: cf41 ccbd 9088 193d 494b 6ebd 2102 723d
000002f0: dbc5 86bd 77bf 23bd fe08 6f3c ea8b b6bd
00000300: c0fc 1b3d e12e 933d c828 81bc f44b d3bd
00000310: 75ae cdbd 1769 dd3d 9ae8 793d a174 8ebc
00000320: 2556 783c 927c 133d 9d5a dcbd c59d b1bd
00000330: ea02 5dbd 49b8 dc3d d490 e23c 6b48 3fbc
00000340: 885a 173e aa36 07be d750 863d df6e 043e
00000350: 8839 233e 3864 a83d 6a9c be3c 56df 00be
00000360: faf1 a83d fcb3 28be a157 913c 9f24 bfbc
00000370: 4855 9e3c 0ef5 13be bded 04bd d126 8dbd
00000380: 0f7a 1ebc 4471 16be f883 4cbc cfe6 ab3d
00000390: 81e2 cc3d e559 2e3e 505c 42bd 3c29 27be
000003a0: 07a4 2a3e 95a5 2c3d 6b37 0dbe e58c 843d
000003b0: 6a95 8dbd dfad 1dbd 9f9b d23c 145a 2abe
000003c0: 1455 903c 100d d03d b2d1 47bd 1acf 5b3d
000003d0: 0582 ab3d 1393 88bd d5d2 a7bc e058 6fbd
000003e0: 6e79 fb3d 3580 03bd 9cbf 58ba 67bd 463c
000003f0: 02ee 903d 9cb4 1f3e fa82 08bd 0ccd ea3d
0.1269683 -0.055809285 0.0918158 0.025184216 -0.05457137 -0.062383145 -0.041301746 -0.07269104
-0.0061872536 0.055528417 0.14336857 0.1581349 0.14332786 -0.14922939 0.13263273 -0.021273077
0.072448395 -0.035076026 0.048428044 0.03807579 -0.00764286 -0.11004597 0.012837926 -0.04001506
-0.15471683 -0.15402554 0.06989246 -0.108877935 -0.06236749 0.0871735 -0.10564126 0.059333403
0.07478383 -0.0715119 -0.10239369 -0.14083819 0.07831259 -0.031552404 0.01030839 0.033296432
-0.119283475 0.18319532 -0.12811917 -0.040730253 0.09027077 -0.111799225 0.033015735 -0.06445604
-0.054961476 0.13699694 0.1322213 -0.06540345 -0.10749138 0.12308705 0.17610076 -0.0655283
-0.13130814 -0.060919564 0.14481801 0.04880983 -0.12466834 -0.07052509 0.124025024 0.13687941
0.0692226 0.13781461 0.036799394 -0.05544236 0.055199128 0.1231152 -0.024096027 -0.013215573
0.15688263 -0.13477953 0.08743167 -0.08906055 -0.03746327 0.14524081 -0.05800623 0.06224371
0.06398224 0.091930255 -0.13970481 -0.049181506 0.03728355 -0.06635564 -0.13982922 -0.15004256
0.114041075 -0.13341017 0.11886586 0.10296389 0.15829252 -0.07477929 -0.030054137 -0.11508599
-0.09459197 0.1851247 0.055599604 0.082277685 -0.046686195 -0.11123456 -0.0179191 0.10937564
-0.033322405 0.09290955 0.048856854 -0.08577244 0.14201806 -0.17506932 0.114009015 0.16567926
-0.10270509 -0.07493682 -0.11090705 0.08916627 -0.009823865 0.06330961 0.036930364 0.07602696
0.11539847 -0.027968837 0.110455625 -0.112083025 -0.07418989 0.092700616 0.020473149 0.05286781
0.111068554 0.109800756 -0.059399635 -0.14235914 0.07520702 -0.020139664 0.06826273 -0.10290426
-0.054014478 0.14225158 -0.057112698 0.08075057 0.029514736 0.03854421 -0.09740132 0.017744234
-0.07942167 0.0105702225 0.060403526 0.0041644415 -0.10852448 0.09891453 -0.12910897 -0.011185802
0.101575196 0.02258939 0.082925 -0.1688972 -0.16367483 0.08254788 0.032219466 -0.010910428
0.10555902 -0.03317012 0.008330449 -0.048018962 -0.12768961 0.096283935 0.12673663 0.026930643
-0.12256082 -0.065807834 -0.006196241 -0.008828397 0.08763538 -0.11043244 -0.08757387 0.02302564
-0.06145166 0.06427393 0.11467874 0.09465928 0.09402841 -0.017491208 0.15348613 0.09016578
-0.099734895 0.03748375 -0.058177266 0.05908406 -0.06580707 -0.039977517 0.014589546 -0.08913405
0.038082838 0.07186676 -0.015766516 -0.10317221 -0.10043041 0.1081106 0.06101284 -0.017389597
0.015157257 0.03600747 -0.107594706 -0.0867267 -0.053957857 0.10777337 0.02765695 -0.011674981
0.14780629 -0.13204446 0.06558388 0.12932919 0.15939915 0.0822224 0.023267943 -0.12585196
0.08249278 -0.16474909 0.01774198 -0.023332892 0.019327775 -0.1444895 -0.032453287 -0.06892169
-0.009672656 -0.14691645 -0.012482636 0.083936326 0.1000414 0.1702648 -0.047451317 -0.16324323
0.16664134 0.0421501 -0.13790672 0.06472186 -0.06913264 -0.038495895 0.025708972 -0.16635925
0.017618693 0.101587415 -0.048783965 0.053664304 0.08374409 -0.06668677 -0.020486275 -0.058434367
0.1227902 -0.03210469 -0.0008268298 0.012130118 0.070766464 0.15596241 -0.033328034 0.11464891

convs.0.lin_r.weight f4 [256, 32]
00000000: d3cc a3bd a83e c53d 9a67 ef3d 52ba bbbd
00000010: 8faa 0fbe 2a6a 0fbc bdc6 47bd 88aa babd
00000020: b27d 9a3d 022e 16be 411a acbd e647 093e
00000030: e77d 383a 5289 f2bd c0a0 5fbc a39c 1bbd
00000040: 65f2 d83d 5c85 0bbe b5dc ff3d a675 d03d
00000050: 40c1 1c3e ab85 03be 72b9 98bb 81fa a33d
00000060: 7e68 a73d 92bc a4bc 1bd2 93bd 022a 053e
00000070: 1df5 0fbe 5dfb 83bb 6772 25be 69b5 07be
00000080: 9232 a93c 9021 26be 6b23 a5bd d121 04be
00000090: e22c 2cbc c45c 39bd d061 1fbe 07d4 14ba
000000a0: 1c03 2fbe 4ad2 38bd 6dd5 1f3d a124 58bd
000000b0: 68c3 ad3d 24de 8bbc 064e 4abc 3d1c babd
000000c0: cc26 7bbc dcff 1f3e 0ec4 783d dfbb 0e3e
000000d0: 66ff 85bd ea83 0dbe 2600 4dbd de89 2ebe
000000e0: 3a90 d1bd 28db 123e 75ef 113e b932 cebd
000000f0: 6825 cebb 3e6c 893b bd12 f03d 0af6 3abd
00000100: 614d 54bd 9f9c d4bd edf6 05be 2d3f b9bc
00000110: da6f bf3d b860 e3bd 8095 923d 218c 14bd
00000120: dc62 d43c ba06 103e 6d4e 87bd 7103 e0bd
00000130: aa09 04be f7d7 3c3d 760d 22be 5843 9c3d
00000140: 51e9 47be 23d7 97bd 52ce ffbc 2a20 c93d
00000150: 98b0 cfbd ebf1 2b3e d23c c0bd bdbf 163d
00000160: b1d2 243e 4694 b3bd 1c1c 23be f016 223e
00000170: 6b8f fd3c 13ad debd ad26 fbbd c8b8 c1bc
00000180: 0eba 12be 34a8 ff3d ce96 0d3e b790 6f3d
00000190: 6b9a a4bc f868 b3bd e937 33be 1645 ad3c
000001a0: fbd2 31be 5c7e 08be 1f91 7ebd 6289 c43c
000001b0: ba65 cf3d 1c63 933d 7cb9 f03c 90c4 a8bd
000001c0: 2854 95bd 31d7 983b f9a5 0abe 3a19 80bd
000001d0: f571 2cbd 97a5 a7bd 9d43 03be ea6b ccbc
000001e0: f0ed aebd 3335 a8bc 6080 3ebe 6ba1 9d3d
000001f0: f3f8 8a3d 7ce9 b23d 70a6 14be 39f0 05be
00000200: c53b 54bd 3c5e 8d3d 95a5 163e c4d8 29be
00000210: a692 18bd 3b6c eebd f197 203e e62f 333e
00000220: f785 f53d 2da3 89bd 32da 13be 7969 fcbd
00000230: 2a53 a43c 3516 443d 9177 03bd 3c4a 1f3e
00000240: aa84 aa3d e5d6 03be 3d98 ad3d fdc0 113e
00000250: 3b39 fdbd 2345 bf3d eacf ad3a 0298 d23d
00000260: 2b8f cebd e41d a6bc 1ff7 d73d 93fc 44bc
00000270: 2bae b2bd e3d1 403d 5ccd 2abe f100 093e
00000280: ca17 ca3d fc2d 193e 05bf 043d 3b29 7bbd
00000290: c7e5 17be c27c ca3d 5918 5cbd 73f5 023e
000002a0: f143 55bc 8683 e43c 5a91 093e ad6b fc3d
000002b0: 2962 54bd 192d 0dbe cad8 d2bd d086 b1bd
000002c0: 31ef b2bc ab4a c6bd 8253 49bd 2bbe 9dbd
000002d0: 3d25 163e 842d 3b3e fe68 d93c 2051 f0bd
000002e0: 33c3 f13d 6853 c43d d7de fd3c a4e8 163e
000002f0: f0ad ce3d bb59 9cbd d9ac 21be 13dd 37be
00000300: ef4a dc3d 3893 93bd f7ec 73bd 9d5b 3cbd
00000310: 53a1 e6ba d6cc 92bd 2af5 993d 68cf cf3d
00000320: b6ae 24be ef26 b3bc d323 0ebe ec3c d1bd
00000330: bef9 f63d e50f 243e c197 f2bd b94f 413d
00000340: b046 1b3e 1aa3 d43c d8d6 2f3d cfe5 ce3d
00000350: e2ab 07be 29b0 1ebe 9cfa 153d d989 24be
00000360: 281c 973d 8f61 0c3e fb1a babd eace debd
00000370: 28d8 bbbd 7837 113d 6241 15be 62a8 45bd
00000380: 4732 dabc 23f5 d13d 9824 873d df65 61bd
00000390: 1fb3 c43d 46b5 8fbd 3926 efbd e643 6a3c
000003a0: 2e89 af3d d800 9c3d 09ca 0d3e a9fc 6abd
000003b0: 02ec 193e 503e ccbd 7cf1 133e 1746 e8bd
000003c0: 6797 fcbd a761 c1bd 5e0b 293e f8f2 dc3b
000003d0: 879d cf3d 0d07 883d 1083 1d3e 77b1 18be
000003e0: 4fb0 2ebe 01a3 293e ad40 95bd b122 ecbd
000003f0: b2ea f2bd 59aa 1bbc 50cb 703d 7aaa e0bd
-0.079980515 0.09631091 0.11689682 -0.09166397 -0.14029907 -0.008753339 -0.048773516 -0.091145575
0.07543506 -0.14665988 -0.08403445 0.13406333 0.0007037804 -0.11842598 -0.013649166 -0.037991177
0.10593108 -0.13625091 0.124932684 0.1017869 0.15308094 -0.12843959 -0.0046607787 0.08006764
0.08174227 -0.020109449 -0.07217809 0.13004306 -0.14058347 -0.0040277676 -0.16156922 -0.13252796
0.020653997 -0.1622374 -0.08063396 -0.12903525 -0.010508748 -0.045254484 -0.15564656 -0.00056773465
-0.1709103 -0.045122422 0.039021898 -0.052769307 0.084845364 -0.017073698 -0.012347704 -0.09087417
-0.015329074 0.15624946 0.060733847 0.13938855 -0.06542854 -0.13819852 -0.05004897 -0.1704478
-0.10232587 0.14341414 0.14251502 -0.10068268 -0.0062910803 0.0041938117 0.11722324 -0.045644797
-0.051831607 -0.103814356 -0.13082476 -0.022613132 0.09347506 -0.11102432 0.07157421 -0.03626645
0.025926046 0.14065066 -0.066067554 -0.109381564 -0.12894312 0.046104398 -0.15825447 0.07630032
-0.19522597 -0.07414081 -0.03122631 0.09820588 -0.101411045 0.16791503 -0.093866006 0.03680395
0.16095997 -0.08768515 -0.15928692 0.15829062 0.030952176 -0.10872855 -0.12263236 -0.02364768
-0.14328787 0.12483254 0.13827059 0.05848762 -0.020093163 -0.087602556 -0.17501797 0.021151107
-0.17365639 -0.13329452 -0.062150117 0.02399129 0.10126825 0.07196638 0.02938532 -0.08240616
-0.07291442 0.0046643247 -0.13539876 -0.062548116 -0.042100865 -0.08185881 -0.12818761 -0.024953801
-0.08541477 -0.02053318 -0.18603659 0.07696804 0.067857645 0.0873594 -0.14516616 -0.13079919
-0.051814813 0.069027394 0.14711602 -0.16586596 -0.03724923 -0.11641737 0.15682961 0.1749874
0.119884424 -0.067205764 -0.14438704 -0.12324805 0.020059187 0.04787274 -0.03209645 0.15555662
0.08326085 -0.12874945 0.08476303 0.14233775 -0.123644315 0.09339359 0.0013260816 0.102828994
-0.10085901 -0.020277925 0.105451815 -0.012023109 -0.08724626 0.047075164 -0.16679901 0.13379265
0.09867819 0.14958948 0.032408733 -0.061318617 -0.14833747 0.09887077 -0.053734157 0.12788944
-0.013016687 0.027894747 0.13434353 0.12325225 -0.051851425 -0.13786735 -0.102952555 -0.086682916
-0.021842571 -0.096822105 -0.049151905 -0.07702287 0.14662643 0.18279082 0.026539322 -0.11734223
0.118048094 0.09586221 0.030990047 0.14737183 0.1009177 -0.07634302 -0.15788592 -0.17955427
0.1075648 -0.07205814 -0.05955216 -0.045985807 -0.0017595686 -0.071679756 0.075174645 0.101469815
-0.16082272 -0.02186915 -0.13880853 -0.10216698 0.12059353 0.16021688 -0.11845351 0.04719517
0.15163684 0.02595668 0.0429295 0.10102426 -0.13249162 -0.15496887 0.036615953 -0.1606821
0.07378417 0.1370909 -0.09087177 -0.108793095 -0.09172088 0.03545329 -0.14575723 -0.048256285
-0.026635302 0.10251834 0.065987766 -0.055028792 0.09604477 -0.07016997 -0.11677212 0.014298415
0.08571087 0.076173484 0.13846602 -0.05736986 0.15031436 -0.09972823 0.14447588 -0.113414936
-0.12333565 -0.09442454 0.16508242 0.0067428313 0.10137468 0.0664197 0.15382028 -0.14911447
-0.17059444 0.16566087 -0.072877266 -0.11530054 -0.11861171 -0.009501063 0.058787644 -0.10970016

convs.1.lin_l.weight f4 [64, 256]
00000000: 1821 48bd 2972 1bbb 0e8a cb3b da08 3fbd
00000010: e549 8c3d 9298 80bd c580 1e3b aec1 413d
00000020: 3ba2 a93c 9228 bd3a c5ba fc3c a387 c7bd
00000030: 9c04 a73b 23da 4ebd 318d 87bc fa1b aebd
00000040: fc83 2abc 5998 62bc 4188 04bd cb82 80bd
00000050: 06a3 7cbc 1aa6 7abd 0623 44bd 2373 34bd
00000060: b33a d4bc e616 83bd 6da0 43bb c1dc 80bc
00000070: 3b8b dbbc 8370 34bd 0959 f4bc b00d dabb
00000080: 1ed7 2cbd 4528 07bd 8368 123c c651 4c3d
00000090: 766e 3dbb 3e17 333d 522f 3bbd fe5b 91bd
000000a0: 3864 183c b4da e93c 3e2b 2c3b c46d 9a3c
000000b0: 5b67 7bbc b45b aebd 42fb 983c 48d1 113d
000000c0: a555 933c 7215 b4bd c975 21bd 303d 5bbd
000000d0: b1b6 73bd a7f1 1d3d 4fca b83c 957e 68bd
000000e0: 59d3 aabd 14ba 54bd 5110 8a3d ff1e 0abd
000000f0: c771 bf3a 5265 01bd 1330 72bd d2e5 3bbd
00000100: b23a 91bd c4aa 0bbd 6aec 19bd 97f6 14bc
00000110: ab48 18bd 1a2b 1f3d 1896 5bbd 8cea 3c3c
00000120: 0a1f 063b c0a2 adbd 4640 c8bc 50fc ba3b
00000130: 8476 a33c be7f 9fbc 9286 083d 1f64 95bd
00000140: e94d 53bc 8c89 253d 7366 933c 4413 51bd
00000150: 0e65 043d e1cd b53c 3bbe c9bc 0664 b4bd
00000160: 5040 7a3d 8851 f13c 39d9 373d ad4d 6ebc
00000170: 7aa4 dcbc 35be 7a3c c19a 2dbd 9b56 e33b
00000180: 251e b8bd ddc7 173d 4ade 9fbc b4c6 5c3d
00000190: 839b dcbc ddc6 92ba a31b 993c 557f b43c
000001a0: c49c 8fbd d21a 503d 0040 b23c 764f 67bd
000001b0: 06e9 3c3d 3ca0 2d3d 9b33 82bd 3c91 79bd
000001c0: b50c 8bbd 7dc8 ad3b 7fed 27bd 25b4 4ebd
000001d0: 3ab2 01bd c2c8 3e3c ab7d 5c3d 6b62 f6bb
000001e0: 197b 87bc 6b75 613c 2d4a 45bd a484 3d3d
000001f0: e384 9f3c 1904 3fbd 2e0c 773b 2111 8b3d
00000200: d110 05bd d24a 7cbc 7afa 0c3d 220c f33c
00000210: 5fd3 d0bb 46b6 193c 1928 d6bc 5091 93bc
00000220: 407e 1a3c 4cf2 f53c a3e0 d2bc beb2 073c
00000230: 27c1 a03b 69e2 913c c179 81bd 38aa 0b3c
00000240: d194 67bd 8828 64bd 07b7 98bc cacf 06bd
00000250: 4498 573d 600f 5c3d afd6 f23c c675 213d
00000260: d546 b7bd 7293 a1bb cd7d 723d f197 5a3d
00000270: eb12 15bd b725 04bd 4e7f 9e3b ff40 7d3c
00000280: 9561 343c c428 53bb e086 5bbc 431d 413d
00000290: 3e28 363c 0f35 dc3b c634 7dba a8be 0f3d
000002a0: 74f5 113c 8d2f 373d 5518 3cbd 8fc9 7f3c
000002b0: 3fbb 3cbd 3da7 29bd db85 073d 37a9 07bd
000002c0: 18c5 423d 6331 59bd 4da9 babb 2efa f9bc
000002d0: be8a bcbd fd25 47bd 90e4 473c a4d1 a3bb
000002e0: 34e8 0ebd a735 d2bc 0011 663c bc4b 63bd
000002f0: 455d 74bc 45db c3bc e585 eabc a6dc 45bc
00000300: 7fc4 d5bd 8331 003c f92b 7abd 848f 95bd
00000310: 05d0 4fbd 3cf6 49bb 2c6d 8d3c 43e9 e6bc
00000320: 38e9 8cbd f2ba ddbc 8d3c 1fbd 5f6a 47bd
00000330: 2c9b d63b 23c9 2b3d f27e 163a a703 8bbd
00000340: fc95 b3bc a006 0e3d 995b 21bd 1583 db3c
00000350: f3d0 36bd 6137 453d 755e 8cbd e9d0 8ebd
00000360: 262c 91bb a61a 70bc 4371 7fbb 8801 64bd
00000370: 7406 0a3d bc9d 12bd 62a3 68bd ad82 223d
00000380: 50b9 2dbb 3bc1 ab3c 3c66 42bd 9298 20bc
00000390: 0b6f 5bbc ecfa 14bc d636 0a3d 793b ecbc
000003a0: d4e0 84bd db41 ccbb e3da 353c 2a29 96bc
000003b0: 50e1 413d ac60 6fbb b2d1 ddbd a44a 83bd
000003c0: 170f 2b3d 8a53 2a3d 757b 43bd eecd 283d
000003d0: 2c0f c23c 5db5 54bd cf8b 81bd f0bf 6fbc
000003e0: 7c70 4fbd 2092 d73c f8f9 1bbd 9e24 053c
000003f0: 1b18 43bd 09e3 47bd b680 76bc 0afb 29bd
-0.048859686 -0.0023719168 0.0062115258 -0.0466393 0.06850032 -0.062791005 0.002418564 0.047303848
0.02070724 0.0014431647 0.030850777 -0.097426675 0.005096985 -0.050501 -0.016546817 -0.0850143
-0.010407444 -0.013830268 -0.032356504 -0.06274947 -0.015419727 -0.061193563 -0.047884963 -0.044055115
-0.025906896 -0.06400852 -0.002985026 -0.015730264 -0.026799789 -0.044052612 -0.029827612 -0.0066544637
-0.04219734 -0.03299739 0.00893605 0.049882673 -0.0028904951 0.043723337 -0.045699425 -0.07097624
0.009301238 0.028546669 0.0026270892 0.018851168 -0.015344466 -0.08513585 0.018674497 0.035599977
0.017985174 -0.08793153 -0.03941897 -0.05352515 -0.0595004 0.038560536 0.022557406 -0.056761343
-0.083410926 -0.05193527 0.06741393 -0.033720966 0.0014606052 -0.031590767 -0.05912788 -0.04587347
-0.07091273 -0.0340984 -0.037578978 -0.009091995 -0.037178677 0.038859464 -0.053609937 0.01153053
0.0020465278 -0.08478308 -0.02444471 0.0057063475 0.019953974 -0.019470092 0.03333146 -0.07294487
-0.012896993 0.040414378 0.017993188 -0.051043764 0.032322936 0.022192897 -0.024626842 -0.088081405
0.06109649 0.029457822 0.044884894 -0.014544887 -0.026933897 0.015304138 -0.042383913 0.0069378144
-0.089901246 0.03705584 -0.019515175 0.053900436 -0.026929623 -0.0011198182 0.018689936 0.022033373
-0.070123225 0.050806828 0.021759033 -0.056472264 0.046120666 0.04238914 -0.06357499 -0.060929522
-0.06789533 0.005303441 -0.04099798 -0.050464768 -0.03166411 0.011644544 0.053830784 -0.0075190566
-0.01653819 0.013760905 -0.048166443 0.046269074 0.019472545 -0.046634767 0.0037696469 0.067903765
-0.03248674 -0.015398698 0.03441856 0.029668871 -0.0063728536 0.009381836 -0.026142167 -0.018013626
0.009429514 0.030022763 -0.02574188 0.008282362 0.004905838 0.017808156 -0.06322051 0.00852447
-0.056538407 -0.055702716 -0.018641962 -0.032913007 0.052635446 0.0537256 0.029643385 0.039418958
-0.08949057 -0.004930907 0.059202004 0.05336756 -0.036394995 -0.03226253 0.0048369532 0.015457391
0.0110095935 -0.0032220343 -0.013398856 0.047147047 0.011117993 0.0067201923 -0.0009659048 0.035093933
0.008908618 0.044723082 -0.045921642 0.01561202 -0.04607701 -0.041419256 0.03308664 -0.03312036
0.047551244 -0.053025614 -0.0056964518 -0.030514803 -0.092061505 -0.048620213 0.01220049 -0.0049993563
-0.034889415 -0.025660349 0.014042139 -0.055492148 -0.014914815 -0.023908267 -0.028628299 -0.0120765325
-0.10437869 0.0078243045 -0.06107709 -0.07302764 -0.050735492 -0.0030816933 0.017263971 -0.0281874
-0.068804204 -0.027066682 -0.038876105 -0.048685428 0.0065492596 0.041939866 0.0005740962 -0.06787806
-0.021922104 0.034674287 -0.039393995 0.026795903 -0.044632863 0.048148517 -0.06853954 -0.0697344
-0.0044303117 -0.014654791 -0.0038977421 -0.055665523 0.03369756 -0.03579496 -0.05679644 0.039675403
-0.002650816 0.020966163 -0.04746078 -0.009802001 -0.013393174 -0.009093028 0.033743702 -0.028836953
-0.06488195 -0.0062334365 0.01109955 -0.018330175 0.047334015 -0.0036526127 -0.10831012 -0.06410721
0.041762438 0.041583575 -0.04772516 0.041212015 0.023688875 -0.051930774 -0.063254945 -0.014633164
-0.050644383 0.026314795 -0.038080186 0.008126406 -0.04763041 -0.048800502 -0.0150453355 -0.041499175

convs.1.lin_l.bias f4 [64]
00000000: 798f 97bd 8922 b43d bf98 13bd e3d0 e53c
00000010: 3f2c 38bc 6ac5 5ebc 20d7 ecbc 0d3b a8bd
00000020: 1c0b 313d 9b69 393d 1292 b6bd 84cf 26bd
00000030: c913 39bd 8e93 483c edd7 18bd 559b 883c
00000040: 2023 fcbc 3e75 67bc 5d37 923c 7a28 15bc
00000050: c8d7 54bc d034 bb3b 2728 3a3d ffb2 bdbc
00000060: f0ea 8fbd 2f20 933c fded 7c3d 3cf4 aa3c
00000070: 6257 b83c 372f 11bd aebf 5abd 6dbf d53c
00000080: c4dd dbbc b728 b53c 9797 d73d b1fa 143d
00000090: 80e8 c03c ae92 c8bb 2451 3c3d 097d b1bc
000000a0: cb37 a1bc aadc 613d 2e59 01bd 58e2 39bd
000000b0: 020b aabc 643d 3bbc 6920 54bd 11d9 0abc
000000c0: c355 71bb 93a1 d53a 593b 1abd 3967 c53c
000000d0: c673 9fb9 52b9 63bd 6b51 04bc 9af8 38bc
000000e0: 8d54 43bd c9e9 97bd ca6c 39bd 1d85 073c
000000f0: 76a2 123b 5c5d 81bb 5d8f d73c 5ce5 ccbb
-0.07400412 0.087956496 -0.036034342 0.028053707 -0.011241018 -0.013596872 -0.028911173 -0.08214388
0.043223485 0.04526673 -0.089145795 -0.040725246 -0.045184884 0.012242211 -0.037315298 0.01667563
-0.030778468 -0.014127074 0.017848665 -0.009103889 -0.012990899 0.005713083 0.04544845 -0.023156641
-0.07027233 0.017959682 0.0617504 0.020868413 0.022502605 -0.03544542 -0.053405456 0.026092255
-0.026839145 0.02211414 0.1052696 0.03637189 0.023548365 -0.006121001 0.04597582 -0.021666067
-0.019679924 0.055142082 -0.03157919 -0.045381874 -0.020757202 -0.011428211 -0.05178872 -0.008474604
-0.00368248 0.0016298763 -0.037654255 0.024097072 -0.000304131 -0.055596657 -0.008076052 -0.01128974
-0.047688056 -0.07417638 -0.045269765 0.008271483 0.0022374666 -0.003947897 0.026313478 -0.0062529277

convs.1.lin_r.weight f4 [64, 256]
00000000: ced4 8e3a 3978 923c 9679 b93c 5709 0ebc
00000010: b7c3 babc 17cf 2a3d 01fb 3bbd 7175 59bd
00000020: 81ca bc3c e6d7 bbb9 7dd5 61bc 6d69 92bd
00000030: 8e0a e4bc 1f2a 42bd a8c2 eabc 21f4 f7bc
00000040: 8e97 0f3c 4db2 4fba 2e1f 28bd 0024 aebd
00000050: 2e10 0bbd 27ad 55bd 6167 4bbd cee9 ab3c
00000060: 34dd 423c 4bca abbd 460a 4cbd fb77 0cbd
00000070: 511b 66bd c2b0 39bc 52b2 a9bb df5b 6ebc
00000080: 1ff1 0d3d 774a 38bc 95d3 88bd 9323 7a3c
00000090: d8cf 8f3b 3755 f83b f8cd 2bbd 4581 e1bc
000000a0: fcc1 f33c e4e0 21b8 9251 20bc d84b a3b9
000000b0: 323f 813d 9820 333d 9543 24bd 1551 8cbd
000000c0: b72e 983b 0b99 3bbd 6815 48bd 38c9 6cbd
000000d0: 6db1 643c b038 f8bc 894c b1bb 1aa4 8fbd
000000e0: 0057 2dbd 6661 003d e530 00bd 3c8b adbd
000000f0: 904a 6ebc f082 91bc 155b b3bd 0b2c cb3b
00000100: bf99 c1bc f5e3 d0ba b0fd 58bd 8cb7 27bd
00000110: 6f64 21bd 41d0 d1bc bc61 c23c 8a42 abbd
00000120: 1425 ac3c f1fb 6bbd 9bd4 6bbc 6cb0 b7bd
00000130: 1983 443c e543 a33c 0593 613c aede c5bc
00000140: 1da9 ebbc 80fc 24bd b086 81bd 2f79 90bd
00000150: 0cb8 36bd a3f7 41bc 8b5b 5cbb efe4 7ebc
00000160: cb83 7ebd 6a37 693c d7ae 613b 587a 8c3c
00000170: ee6e bd3c 6361 313d 8983 6bbc 70fb 07bc
00000180: 09b9 6ebc 6d86 a6bd 482e af3c a7fa 4abd
00000190: 8743 4abd 65f8 273d 18a1 00bd 0537 c7bd
000001a0: f8a1 d93b 953e cf3c f9fa 94bd 5646 213c
000001b0: 43cc fabc c85e 1c3d 4a69 fd3b f70a debc
000001c0: 1559 95bd 3490 ffbc 2e7a 46bd d258 96bc
000001d0: 6ddb d03c 01ba e33c 823c 583d ed67 223d
000001e0: 5211 bb3c 1ec5 473d 9b20 58bd 421a 82bd
000001f0: 4402 11bb 1870 10bd b79b a6bc cc6d 763d
00000200: 67b4 bcbd b151 c53b 4a37 71bd 2ef9 47bd
00000210: f9b1 dabc 90d0 b33c f651 56bc b5bb 093d
00000220: 80d3 9cbd 04a3 d23b 00c4 f3bc f41a a23c
00000230: a9a6 4cbd 0d2a f43c 7c0f 9dbd 858e 05bc
00000240: 6304 ec3c b4ec 24bd 16cf b5bd 86a2 32bd
00000250: 561c fcbc 91bf 8cbd b16e b53c a44f e3bc
00000260: 982a cdbb 5799 a3bd ae89 183c ec98 453c
00000270: 4094 58bd bb7e 833c 1c81 2ebc 1806 c8bc
00000280: 1fab 023d d221 d43c 73cd 253d 6fd4 b3bc
00000290: 78c0 a7bd e00f bf3b d6eb 283d 877a ee3c
000002a0: 779f 2ebc 5e84 5d3d 0b0a 3fbd ee8c 183d
000002b0: 0a20 df3c bb08 47bd c1b2 b13c bccd f8bc
000002c0: 0191 8cbd 571b 82bd 3db0 873c dbb8 203d
000002d0: 2702 41bd 3b44 1cbd a7f5 843c e019 79bd
000002e0: 6ba4 74bd 3f1f 493b 0592 b0bc 7742 bbbd
000002f0: 8068 fcbc 7d56 6e3d d9f7 a1bc 75a8 8f3c
00000300: c79a 9bbd 818f d9bc 2dbb dbbc 76f7 aabc
00000310: c3e7 093d aa53 1ebd 409f 33bc ea3b 79bd
00000320: ebb0 93bd b711 12bd f502 123c a968 953b
00000330: f58d 9d3b e4df 3cbd e3ef dfbc be86 cebc
00000340: d23a 723d 1151 b53b 0c9b 8bbb 2529 30bd
00000350: 9a4e 9dbd 5985 2fbb 46ba 14bd 843f 4bbd
00000360: 12d5 a7bb 8908 5c3c 599e 14bd f89a 83bd
00000370: 7b12 12bc 3ab5 24bc 934d 113d 6c41 1cbd
00000380: ddb4 113d 9cb7 c7bb b319 09bd 81b2 9c3c
00000390: 660b 36bd f250 71bd d7f3 8bbd c9a5 75bc
000003a0: 148a 13bd 3718 87bd ac76 2abd 5ce2 f1bc
000003b0: 636e e6bb 1ec5 9f3c a177 afbd 6040 35bd
000003c0: 4fb3 6f3d 550b b33d ec7d 69bb 53e9 6dbd
000003d0: 211f 7dbc 27f4 3dbc 2636 e73c 1b19 90bd
000003e0: 4c1c acbd ea38 dcbc 81cf 153d 6ed6 1ebd
000003f0: df34 f2ba 6b69 d1bb b472 64bb 35c2 20bd
0.0010897161 0.017879592 0.022640985 -0.008669219 -0.022798402 0.041701403 -0.045893673 -0.053090516
0.02304578 -0.00035828276 -0.01378381 -0.071490146 -0.027837064 -0.04740345 -0.028657272 -0.030267777
0.008764161 -0.0007922992 -0.04104536 -0.0850296 -0.033950977 -0.052167084 -0.049659137 0.02098551
0.011893559 -0.08388194 -0.049814485 -0.03429411 -0.056178395 -0.011333646 -0.005178728 -0.014548271
0.03465378 -0.011248223 -0.06680981 0.015267271 0.0043887906 0.007578518 -0.041944474 -0.02752746
0.029755585 -3.8594837e-05 -0.009785073 -0.0003114629 0.06310882 0.043732256 -0.040103514 -0.06851403
0.0046442407 -0.04580025 -0.04884854 -0.057809085 0.013958317 -0.030300468 -0.005410735 -0.07013722
-0.042319298 0.031342886 -0.03129663 -0.084738225 -0.014544144 -0.017762631 -0.08757607 0.0062003187
-0.023632882 -0.0015937077 -0.05297631 -0.04094653 -0.03940242 -0.025611999 0.023728244 -0.08362301
0.021013774 -0.057613317 -0.014393951 -0.08969197 0.011994147 0.019929836 0.013767962 -0.024154034
-0.028767163 -0.040279865 -0.06324518 -0.07054364 -0.044609115 -0.011838826 -0.00336239 -0.015557512
-0.062137406 0.014234403 0.0034436488 0.017148182 0.023124184 0.043305766 -0.014374622 -0.008299693
-0.014570483 -0.081311084 0.021384373 -0.049555447 -0.049380805 0.04100837 -0.03140363 -0.09727291
0.0066416226 0.025298396 -0.07274432 0.00984343 -0.030614978 0.038176328 0.0077334987 -0.027104838
-0.07292382 -0.031196691 -0.048456363 -0.0183529 0.025495255 0.027798655 0.05279208 0.039649893
0.022835407 0.04877197 -0.05276547 -0.063526645 -0.0022126595 -0.03526315 -0.020337922 0.060163304
-0.092140965 0.0060217013 -0.05889062 -0.04882162 -0.026696192 0.021950036 -0.013081064 0.033626277
-0.07657528 0.0064281244 -0.029756546 0.019788243 -0.049963627 0.029805208 -0.07668969 -0.008151655
0.028810686 -0.0402648 -0.08877389 -0.043612026 -0.03077523 -0.06872476 0.022147508 -0.027747937
-0.006261181 -0.07988232 0.009310169 0.012060385 -0.052875757 0.01605164 -0.010650899 -0.024416968
0.031901475 0.025895033 0.040479135 -0.021951882 -0.081910074 0.00583075 0.041240536 0.02911116
-0.010658137 0.054081313 -0.046640437 0.037243776 0.027236957 -0.04859231 0.021691682 -0.03037154
-0.06863595 -0.06352871 0.01656353 0.039238792 -0.047121193 -0.038151007 0.016230417 -0.060815692
-0.059727114 0.003068879 -0.021554003 -0.091435365 -0.030811548 0.05818795 -0.019771503 0.017536381
-0.07597881 -0.026557686 -0.02682265 -0.020869952 0.03366829 -0.038654007 -0.010963261 -0.060848154
-0.07211479 -0.035661425 0.008911838 0.0045595956 0.0048081824 -0.046111956 -0.027336067 -0.025210734
0.059138127 0.0055333455 -0.0042604264 -0.04300799 -0.07681008 -0.0026782362 -0.036310457 -0.04962112
-0.0051218355 0.013429769 -0.036283825 -0.06426042 -0.008915539 -0.010052973 0.03547437 -0.03814833
0.035572875 -0.006094886 -0.033471774 0.019128086 -0.044444464 -0.058915086 -0.06833618 -0.01499314
-0.036020353 -0.065964155 -0.04161708 -0.029526882 -0.007032202 0.019503172 -0.08567739 -0.044250846
0.05852061 0.08742396 -0.0035628034 -0.058083843 -0.015449316 -0.011593855 0.028224062 -0.070360385
-0.08403835 -0.026882607 0.036574844 -0.038778715 -0.0018478892 -0.0063907406 -0.0034858407 -0.03924771

bns.0.weight f4 [256]
00000000: 0950 773f 5ea6 773f 6d36 723f 6716 773f
00000010: 8bad 723f 973d 733f 0dd4 743f b888 753f
00000020: 7920 753f 022e 743f 4e07 733f e4bd 793f
00000030: 7b78 733f cf61 733f 5a57 753f 5525 733f
00000040: 7688 743f e82e 743f c429 753f 9823 753f
00000050: caa7 763f 9602 733f fbb1 6e3f c644 733f
00000060: 13df 783f c5a2 763f 25c4 743f cd34 723f
00000070: 4c11 733f 7005 783f 3971 743f 3cd3 723f
00000080: 3d37 723f b5ab 713f d3e9 743f 4e3f 743f
00000090: 04b4 723f 2bf7 6f3f 44df 743f bbf1 723f
000000a0: 2149 703f 1c5e 773f 86b3 733f 64b5 723f
000000b0: d35a 743f 20c2 6e3f 7647 713f 311a 723f
000000c0: e087 703f e8c3 743f c445 743f ceca 713f
000000d0: e1c2 773f e6fc 783f 9310 743f 2edd 713f
000000e0: 7a0b 733f 4609 763f 8d50 743f 2d9d 723f
000000f0: f850 713f 25f4 713f 9e56 743f 13a3 723f
00000100: c527 763f 137a 723f 6a0c 723f 3f18 753f
00000110: 9ae8 743f bf15 783f 7777 743f 03c5 723f
00000120: edc6 763f 4ae7 713f 7c3e 6e3f b9db 733f
00000130: a7dc 733f 394e 743f 3473 753f e90e 753f
00000140: 7b90 733f ce4a 763f cb07 763f 957b 713f
00000150: 8332 773f bb6f 743f 215d 733f ee50 6f3f
00000160: 4889 703f 3bea 723f 6cef 713f b4ac 743f
00000170: c60e 723f 5618 743f c550 743f 6711 723f
00000180: f168 753f e9da 753f db05 743f 8edd 743f
00000190: 5f74 723f fb99 713f b783 773f 0ba8 763f
000001a0: 6ad2 703f c395 753f 3406 763f 860e 703f
000001b0: f6e8 723f 2901 713f c36c 753f e6ab 713f
000001c0: 22d2 703f 334c 733f fd2b 753f d658 733f
000001d0: 7321 783f 969c 703f 6266 713f c2d2 723f
000001e0: 6944 733f 6136 773f 552a 6f3f ec40 763f
000001f0: 74cf 733f 1c5f 753f 676e 733f 95b6 733f
00000200: f29a 743f 8b02 7b3f 8cb2 783f b200 723f
00000210: c7a3 753f 19da 713f a823 703f 02a6 763f
00000220: 7e04 753f ee78 753f 1664 763f 6617 723f
00000230: 1543 773f 1efb 743f 75d1 743f d6b8 703f
00000240: 8d96 723f bb3e 743f 5ede 713f 9198 6f3f
00000250: 800a 713f 68fb 6d3f 76fd 703f 4f11 743f
00000260: 7bf2 733f aa2f 743f f9b6 743f 946e 703f
00000270: 924e 753f b554 703f 4bb1 703f 2469 773f
00000280: c563 733f ef1c 703f ac14 773f 2025 6e3f
00000290: 8133 6c3f 4fd8 713f 0eb6 6d3f 6426 733f
000002a0: d228 723f 8fc5 753f ce08 753f 7430 713f
000002b0: 5177 763f b8fe 713f 69ec 6f3f a387 743f
000002c0: 706d 753f e57e 753f 6bd6 6d3f c2b8 743f
000002d0: 8939 773f 6e2c 773f 95fb 743f 068f 713f
000002e0: 2984 743f 30fb 753f cca0 733f 1878 753f
000002f0: e51f 793f 8834 763f cfa0 723f e7da 753f
00000300: d809 743f fb27 773f 80f3 773f f9ce 753f
00000310: 50ff 743f 096a 743f 3c85 703f 3b66 743f
00000320: 71eb 743f beff 733f aa76 733f 7328 6e3f
00000330: aa1d 753f bc99 713f ffbd 743f 0833 753f
00000340: 5539 743f 0b5a 773f 4a59 703f 6108 753f
00000350: 618b 733f 85e6 773f 4c2a 743f 4ac3 733f
00000360: 23a5 713f 66f4 713f aa61 733f 705b 6f3f
00000370: 073f 733f 0758 743f bdc5 6d3f cf2c 723f
00000380: ad21 753f d573 753f 5bd4 6f3f d5bb 753f
00000390: 3077 743f bc02 753f 7a89 773f 53bb 773f
000003a0: 9c62 6e3f 831a 733f f691 743f 73d5 6f3f
000003b0: 3140 743f e524 713f 3756 6b3f 98d0 713f
000003c0: 3046 723f a08f 763f a469 763f ce6f 733f
000003d0: 3aba 703f bdc9 713f c69f 713f 3511 763f
000003e0: 4c0c 773f 158c 723f affa 743f 7a92 753f
000003f0: 782c 703f 50b8 753f 06f2 743f 4c7b 743f
0.966065 0.9673823 0.946143 0.9651856 0.94796056 0.95015854 0.95636064 0.9591174
0.95752674 0.953827 0.9493302 0.97555375 0.95105714 0.9507112 0.9583641 0.9497884
0.9552072 0.95384073 0.95766854 0.95757437 0.96349776 0.9492582 0.93240327 0.95026815
0.97215384 0.96342117 0.9561179 0.9461182 0.9494827 0.96883297 0.95485264 0.9485357
0.94615537 0.9440263 0.9566929 0.95409095 0.9480593 0.93736523 0.95653176 0.949001
0.93861586 0.96627975 0.95195806 0.9480803 0.95451087 0.9326496 0.94249666 0.94571215
0.9395733 0.9561143 0.95418954 0.9445008 0.96781737 0.9726089 0.9533779 0.9447812
0.94939387 0.961079 0.9543541 0.9477108 0.94264174 0.9451316 0.9544467 0.9478008
0.96154433 0.9471752 0.9455019 0.9574012 0.9566742 0.9690818 0.9549479 0.94831866
0.96397287 0.94493544 0.93064094 0.95257145 0.95258564 0.9543186 0.9587891 0.95725876
0.95142335 0.9620789 0.9610564 0.94329196 0.9656145 0.9548299 0.9506398 0.93482864
0.93959475 0.9488866 0.94505954 0.95576024 0.9455379 0.95349634 0.95435745 0.94557804
0.9586325 0.96037155 0.95321435 0.95650566 0.9470882 0.9437558 0.96685356 0.96350163
0.94071066 0.95931643 0.96103215 0.9377216 0.9488672 0.94142395 0.9586908 0.9440292
0.9407064 0.95038146 0.95770246 0.9505743 0.9692604 0.9398893 0.9429685 0.9485284
0.9502626 0.9656735 0.9342397 0.9619281 0.95238423 0.9584825 0.95090336 0.95200473
0.9554893 0.98050755 0.9714744 0.9453231 0.9595303 0.94473416 0.9380441 0.9634706
0.9570998 0.9588765 0.9624647 0.94566953 0.96586734 0.95695674 0.95632106 0.9403204
0.9476097 0.9540822 0.9447993 0.9359217 0.94156647 0.9296174 0.9413675 0.9533891
0.9529187 0.9538523 0.95591694 0.9391873 0.95823014 0.9387925 0.9402053 0.96644807
0.9507411 0.9379415 0.9651592 0.930254 0.9226609 0.94470686 0.9285592 0.94980454
0.94593537 0.96004575 0.9571656 0.9421456 0.9627581 0.94529295 0.9372011 0.95519465
0.95870113 0.9589675 0.929053 0.9559442 0.96572167 0.9655217 0.95696384 0.9435886
0.9551416 0.96086407 0.9516723 0.95886374 0.9731429 0.96173906 0.94776624 0.96037143
0.9532752 0.9654538 0.96855927 0.9601894 0.95702076 0.95474297 0.939533 0.9546849
0.95671755 0.95312107 0.9510294 0.9303047 0.9574839 0.94375205 0.9560241 0.9578099
0.9539998 0.9662177 0.93886244 0.9571591 0.9513455 0.9683612 0.9537704 0.9521986
0.94392604 0.9451355 0.950709 0.934989 0.9501805 0.9544682 0.9287985 0.9459962
0.9575451 0.9587987 0.93683404 0.95989734 0.95494366 0.957073 0.9669415 0.9677021
0.93119216 0.9496233 0.9553522 0.9368507 0.9541045 0.9419692 0.9192843 0.94458914
0.9463835 0.96312904 0.96254945 0.95092475 0.9403416 0.94448453 0.9438442 0.96120006
0.9650314 0.94745 0.9569501 0.9592663 0.93817854 0.95984364 0.956818 0.95500636

bns.0.bias f4 [256]
00000000: 6e62 ce3b 0d77 323c 42e1 51bb 70e8 9d3b
00000010: e92b 33bc dd66 f0bb 56e7 753b 4a3b 5c3b
00000020: 1443 85ba 197c 85ba 2bae b9bb 3a29 523c
00000030: f6ea 00bc ec72 25bc d484 1339 db79 05bc
00000040: ff3b 08bb c2fe dabb f4a7 1d3c 7045 d63b
00000050: 7929 843c 0699 193b 2255 e4bb cce6 98bb
00000060: 5fda 303b e4dd c83b 2335 1dbc e13b d7bb
00000070: 7528 29bb f669 023c 23cf acbb a92e 86ba
00000080: 550c 0bbc d6ae 55bc 2840 3f3c f63d d9bb
00000090: f194 20bc c620 98bc 0814 0338 0841 a53b
000000a0: 0e4a b5bb 2879 1e3c 8766 d1bb c9bc bdbb
000000b0: 8b81 9b3b a8e6 44bc af9c 92ba 2c8b 8dbc
000000c0: ec8b 8fbc a79e 513c f0cd 81bb 471d 31bc
000000d0: ba91 6d3b 13c4 8f3c 7ddc 83b9 9929 3fbc
000000e0: e256 1c3b 24cd d03b 7a2c 703b 75ab bebb
000000f0: 2e02 82bb 18fc 42bc dee8 513b 7209 8ebc
00000100: d1aa 86ba db4e 07bc a2e6 63bc a0d1 f93a
00000110: 220b 4fba 6e3c 913c d891 56bc 7642 e4bb
00000120: d280 573b 6104 9cbc 29a6 83bc 5df7 0ebc
00000130: b2e1 d3bb 0ae2 adbb 7183 bc3b 11cb 1b3a
00000140: 3dea c5b8 56a9 94b9 1d17 9cbb 568e 59bc
00000150: 7966 4a3a eeab 703b bbed 8e3b d61a 88bc
00000160: d9c7 05bc b227 ccbb 0d95 5dbc e56f d1bb
00000170: 887d 62bb 9944 3abc 0768 b4bb 8224 0bbc
00000180: 881e 59ba 60d6 db3b 66e1 be3b d8d2 903b
00000190: 3d18 0bbc 4129 bbbc 465b 6b3b b94a c83b
000001a0: 2159 f8ba f351 5b3b 0f91 c93b 46ce 91bc
000001b0: 4bb5 30bc 6426 febb 3877 b13b 14d2 84bb
000001c0: 4a9c 36bc 5273 0dbb 0841 d33b 574b c1ba
000001d0: 1ca6 303c ab95 0ebc 0521 4fbc 9f59 8cbb
000001e0: 35d5 f5bb 0951 bd3b 8628 a0bc d6af a93b
000001f0: f357 cc39 d94c 583b 240c 03bc b248 22bb
00000200: d7c6 8bbb f091 c63c 0988 a93c 3151 1dbb
00000210: 21f7 3a3b ecbf e4ba e239 aeba aa71 023c
00000220: c620 b23a a087 beb9 7b77 a63a 9c4c 8dbc
00000230: e93f 9b3a d1b7 0c3c 5153 2139 7bd8 67bc
00000240: 7231 62bc bf3b 9ebb 0610 3ebc a72c aebc
00000250: 3175 a2bc 962f c2bc faae 8dbc 3043 85bb
00000260: ef77 c6bb a211 8fba bc44 2f3c 615e 42bc
00000270: 042c d03a e996 0f3a f39a cabb 325c c9b9
00000280: 48e1 0bbb 4d01 85bc 9a06 923b f0e1 c6bc
00000290: 14be 47bc 0f4b 10bc c6ae a9bc 1c51 043b
000002a0: 6249 0ebc 46e5 b93a 1970 b8ba 027e 43bc
000002b0: b8f3 d93b b43d 00bc 56c1 30bc d3d0 78bc
000002c0: c0fb 063c a577 873b 5320 96bc fb5c 5d3b
000002d0: 5afa 0d3c 6ebf 763c 60b7 ff3b 2cc1 e13a
000002e0: f8cf 4a3b ca63 673b edc8 3cbc 2eb6 143c
000002f0: f93c 4bbb 086b 07bb 8ba6 debb 67ac 7abc
00000300: b426 80ba 205b 5c3c a583 dc3b 9948 123b
00000310: 7121 50bb f641 393c 712b 8abc 9627 c9b9
00000320: 1e62 89bb 5490 aebb c48c adbb 246c 75bc
00000330: 8e47 10bb 36c6 84bc 7f8c 5dba 7b1c 66bb
00000340: da3a 123c c001 ce3b 5c63 81bc b16d 8b3b
00000350: 3988 c5bb 60f2 413c 3ce0 083a 1c69 02bc
00000360: 1df8 e4bb 62a9 01bc e24a 27bb 5d23 fdba
00000370: 2cf0 d1bb 9400 81ba 5400 97bc 64eb 17bc
00000380: 1019 a2ba dd06 0ebc a98f 42bc c69b cb3b
00000390: b4b7 aabb b5f7 15bb e483 673c 16cf 323c
000003a0: 797c afbc 491c 3dbc 543c 93ba 59f6 b8bc
000003b0: ef25 103b 772a 26bc d3d1 7abb c0fb 3ebc
000003c0: 4144 26bb 66cc d83b fac2 893b 7f98 533b
000003d0: 6712 debb 3ff3 74bc eef8 5fbc e0ea 743b
000003e0: 4adf 4fba 1dfb d2bb 3f8c 19bb 9ac3 9a3b
000003f0: 15f8 8639 0731 1e3c f1e0 ac3b 4408 be3b
0.006298355 0.010892642 -0.0032025133 0.0048189685 -0.010935762 -0.007336481 0.003752192 0.0033604675
-0.0010167086 -0.0010184079 -0.0056665144 0.012827212 -0.007868519 -0.0100982 0.00014068495 -0.008146728
-0.0020787714 -0.0066832015 0.009622563 0.0065390393 0.016133057 0.0023437156 -0.0069681564 -0.004666185
0.0026985628 0.006129967 -0.009595188 -0.0065684174 -0.0025811468 0.007959833 -0.005273716 -0.0010237294
-0.008486827 -0.013042172 0.011673011 -0.006629701 -0.009801135 -0.018570315 3.125149e-05 0.0050431527
-0.0055325096 0.009672441 -0.006390396 -0.005790327 0.0047456673 -0.012017883 -0.0011185611 -0.017278276
-0.017522775 0.012794173 -0.0039613172 -0.010810203 0.003625019 0.01754955 -0.00025150544 -0.0116676325
0.0023855497 0.006372111 0.0036647604 -0.005818779 -0.003967545 -0.011900924 0.0032029669 -0.017338488
-0.0010274296 -0.008258547 -0.013909968 0.0019059666 -0.0007898082 0.01772901 -0.013096295 -0.0069659306
0.003288318 -0.019045057 -0.016070442 -0.008725968 -0.006466114 -0.005306487 0.0057529737 0.000594304
-9.437322e-05 -0.00028354925 -0.0047634975 -0.013278564 0.0007720958 0.0036723572 0.004361836 -0.016614359
-0.008165323 -0.006230318 -0.013524306 -0.0063915127 -0.0034559686 -0.011368894 -0.005505565 -0.008492591
-0.00082824426 0.006708905 0.0058252094 0.004419666 -0.008489666 -0.02284682 0.0035912558 0.0061124233
-0.0018947461 0.0033465594 0.0061513255 -0.017798554 -0.010785411 -0.0077560414 0.0054158233 -0.0040533636
-0.011145661 -0.002158363 0.0064469613 -0.0014747184 0.010781791 -0.008702676 -0.01264215 -0.0042831446
-0.007502223 0.0057774824 -0.019550573 0.005178432 0.0003897544 0.003300479 -0.0079985 -0.0024762568
-0.004265647 0.02423951 0.02069475 -0.0024004693 0.0028528648 -0.0017452217 -0.0013292397 0.00796167
0.001359009 -0.00036340673 0.0012700403 -0.017248444 0.0011844608 0.008588747 0.00015385194 -0.014150734
-0.013805734 -0.0048288996 -0.0116005 -0.021261526 -0.019831272 -0.023704331 -0.01729535 -0.0040668473
-0.0060567777 -0.0010915289 0.01069754 -0.011863322 0.0015882258 0.00054775045 -0.006183022 -0.00038406398
-0.0021343995 -0.016235972 0.0044563534 -0.024277657 -0.012191314 -0.008806958 -0.020713221 0.0020189947
-0.008684488 0.0014182709 -0.0014071494 -0.011931898 0.006651368 -0.007827211 -0.010788282 -0.015186506
0.008238733 0.004134136 -0.01832596 0.0033777345 0.0086656455 0.015060289 0.0078038424 0.0017223707
0.0030946713 0.0035307282 -0.011522514 0.009076638 -0.0031011684 -0.002066316 -0.006794756 -0.015299893
-0.000977716 0.01344946 0.0067295604 0.0022321104 -0.0031758214 0.01130723 -0.016866418 -0.000383672
-0.0041926047 -0.005327264 -0.0052963216 -0.014979396 -0.0022015306 -0.016207796 -0.00084514165 -0.003511219
0.008925164 0.0062868297 -0.015794449 0.0042550196 -0.006028202 0.011837572 0.0005221402 -0.00795963
-0.006987585 -0.007913919 -0.0025526811 -0.0019312907 -0.0064068045 -0.0009842091 -0.018432774 -0.00927243
-0.0012367088 -0.0086686285 -0.011875072 0.006213638 -0.0052098874 -0.002288324 0.014130566 0.010913631
-0.021421658 -0.011542388 -0.0011233189 -0.022578405 0.0021995266 -0.01014196 -0.0038272038 -0.011656702
-0.0025370272 0.006616163 0.004204151 0.003228694 -0.006777096 -0.0149505725 -0.013670189 0.0037371442
-0.0007929696 -0.0064386264 -0.002342954 0.0047230246 0.00025743307 0.009655244 0.0052758385 0.005799325
