output/oi/restr_e2v/run_004/restr_oi_best_model_e2v.pth (torch, 90293 bytes, 14 tensors)

convs.0.lin_l.weight f4 [64, 32]
-0.14705214 0.03218452 -0.1421088 -0.023322767 0.094769634 0.09559481 -0.042454004 0.030403823
-0.17751203 0.06955846 -0.13795191 0.07163764 -0.008069338 -0.077553175 0.046309248 -0.0734378
0.048398867 -0.12005402 -0.14499696 0.15584509 -0.037796676 -0.12058081 0.036406264 -0.04645312
0.18697591 -0.17074154 0.07596487 0.014959221 0.051750917 -0.09449774 0.064603195 0.1685729
-0.13983734 0.114541605 0.116269015 0.016558906 0.03670193 -0.03449526 -0.06757873 -0.04917149
0.0660633 -0.09697375 -0.080580205 0.2213647 -0.100527726 -0.11390043 0.04893913 0.07148939
0.068095915 0.040367443 -0.13950923 0.06987996 0.007284613 0.17678922 0.041949924 -0.015248362
0.11349505 0.1346365 -0.091305174 0.11510303 -0.10655579 0.09772083 -0.14970112 0.18348786
-0.015318233 -0.18442197 -0.038553003 0.056078535 -0.11958252 0.016932122 -0.04291072 0.051090848
-0.12771451 0.10867793 0.02413504 -0.106369 -0.07570075 0.023678364 0.021594727 0.15778515
0.05818405 0.16891214 0.14003322 0.08859533 0.04857692 -0.050889507 0.13332298 -0.018282808
-0.15141422 0.078048125 0.15902388 -0.040437393 0.15741801 0.101237476 0.0846052 0.025038665
0.05918904 -0.14163867 -0.042180125 0.20599024 -0.121982574 -0.070187 0.048290636 -0.015228834
0.0544436 -0.029188167 0.00081175996 0.048835926 0.15347362 0.12408218 -0.18060161 0.13702449
-0.0032049646 0.06755157 0.029040374 0.09785485 -0.021467283 0.053637356 0.08472732 -0.18178499
0.14101346 0.062495094 0.06583815 -0.13661131 -0.0027844207 0.08962308 0.052894942 -0.023673126
0.03538813 -0.15920147 -0.11377484 -0.037129264 0.041178882 0.15143946 -0.14767127 -0.16140246
-0.089610435 0.06979691 0.0072822417 0.008893942 0.083379604 -0.0077538467 0.10051204 -0.1883211
0.0599967 0.032346506 0.12891035 0.0228549 -0.17740707 0.023502612 -0.08857912 -0.1676317
-0.16448541 -0.12446358 0.057135817 0.11567582 0.032377202 -0.054632798 0.1246794 -0.038391307
-0.12172225 -0.09837742 0.039115753 0.050375458 -0.15789892 -0.139866 0.017411647 -0.028548466
-0.050093047 -0.026927615 0.024407433 -0.032091454 -0.072470866 0.024937045 -0.10948126 0.00040559738
0.091969915 0.01631046 0.10972617 -0.13991223 -0.15640226 0.045308944 0.15662014 -0.09688617
0.07181821 0.093971364 -0.07207682 0.13044119 0.08911731 -0.10437243 -0.004449032 -0.14368437
0.023531893 0.14204216 -0.027222125 -0.0519876 0.07328773 -0.1515858 0.1331544 -0.12514257
0.073979594 -0.08005204 -0.118645035 0.056144863 -0.019601813 0.03195399 -0.032681707 0.09199626
0.04384586 0.06498675 -0.16472848 -0.12597148 0.094905384 0.17361492 0.099179976 -0.046069045
0.11000683 0.07131695 -0.06354197 0.016173672 0.18002878 -0.008709957 -0.10583199 -0.04207742
-0.0435817 0.031725824 -0.100419454 0.14439884 -0.14781614 0.14504775 -0.134774 0.008283612
-0.06845778 -0.018283853 0.06954041 0.09976637 0.1480889 0.09085174 -0.012740312 0.073568724
0.110953756 0.15266173 0.03402241 -0.017444344 0.05273409 0.12037156 0.005379753 -0.10206549
-0.109639235 0.108661845 -0.041714408 0.13674074 0.19542935 -0.017779866 -0.0046462878 0.12109627
00000000: d694 16be ead3 033d f884 11be 630f bfbc
00000010: 9516 c23d 36c7 c33d 40e4 2dbd 7011 f93c
00000020: b7c5 35be aa74 8e3d 4443 0dbe c1b6 923d
00000030: 4235 04bc 33d4 9ebd c4ae 3d3d 8f66 96bd
00000040: e43d 463d e2de f5bd 157a 14be db95 1f3e
00000050: b0d0 1abd 12f3 f6bd bc1e 153d a045 3ebd
00000060: 9d76 3f3e dfd6 2ebe 7893 9b3d 8517 753c
00000070: c5f8 533d 0888 c1bd ae4e 843d 609e 2c3e
00000080: 8531 0fbe ca94 ea3d 731e ee3d 8ba6 873c
00000090: c354 163d e74a 0dbd b866 8abd 0b68 49bd
000000a0: 324c 873d 2c9a c6bd 3c07 a5bd 6ead 623e
000000b0: 7be1 cdbd a144 e9bd 6674 483d 0869 923d
000000c0: df75 8b3d 5558 253d 82db 0ebe 391d 8f3d
000000d0: c3b3 ee3b 3c08 353e afd3 2b3d 44d4 79bc
000000e0: 1870 e83d 27de 093e 35fe babd 23bb eb3d
000000f0: ec39 dabd dc21 c83d 404b 19be 3ee4 3b3e
00000100: 53f9 7abc 1dd9 3cbe c1e9 1dbd 9bb2 653d
00000110: aee7 f4bd 3cb5 8a3c 27c3 2fbd a344 513d
00000120: 98c7 02be 8992 de3d d9b6 c53c fed7 d9bd
00000130: ff08 9bbd 21f9 c13c 6de7 b03c 6e92 213e
00000140: 6652 6e3d 4ef7 2c3e de64 0f3e 7871 b53d
00000150: 98f8 463d 8471 50bd d285 083e d4c5 95bc
00000160: 540c 1bbe b2d7 9f3d 28d7 223e aea1 25bd
00000170: 3032 213e 9855 cf3d 7e45 ad3d e31d cd3c
00000180: 3570 723d ba09 11be 11c5 2cbd 1bef 523e
00000190: 00d2 f9bd 34be 8fbd 67cc 453d 5c82 79bc
000001a0: 4100 5f3d 061c efbc 4acc 543a 2e08 483d
000001b0: 3028 1d3e cc1e fe3d a1ef 38be 2650 0c3e
000001c0: 620a 52bb 7a58 8a3d 14e6 ed3c 2068 c83d
000001d0: 28dc afbc d8b2 5b3d 8485 ad3d d825 3abe
000001e0: d565 103e dbfa 7f3d 27d6 863d d6e3 0bbe
000001f0: d47a 36bb 4e8c b73d 5ea8 583d 25ee c1bc
00000200: 25f3 103d b605 23be c902 e9bd db14 18bd
00000210: 30ab 283d f212 1b3e 2337 17be b046 25be
00000220: ad85 b7bd aff1 8e3d df9f ee3b e6b7 113c
00000230: edc2 aa3d fb13 febb 42d9 cd3d 3fd7 40be
00000240: 1abf 753d c57d 043d 1301 043e 333a bb3c
00000250: 33aa 35be 8d88 c03c f868 b5bd a5a7 2bbe
00000260: dd6e 28be c3e6 febd 3f07 6a3d 72e7 ec3d
00000270: f59d 043d a4c6 5fbd ea57 ff3d 3440 1dbd
00000280: 8449 f9bd 1a7a c9bd d737 203d 7f56 4e3d
00000290: 41b0 21be 0839 0fbe dfa2 8e3c 79de e9bc
000002a0: 5e2e 4dbd 4d97 dcbc 19f2 c73c 5472 03bd
000002b0: 9b6b 94bd c648 cc3c b637 e0bd 5ca6 d439
000002c0: b95a bc3d 849d 853c 1db8 e03d 2745 0fbe
000002d0: ea27 20be df95 393d 0861 203e 426c c6bd
000002e0: 6d15 933d 0f74 c03d 039d 93bd 6092 053e
000002f0: 2383 b63d 36c1 d5bd 2fc9 91bb ff21 13be
00000300: f5c5 c03c 8073 113e ef00 dfbc f3f0 54bd
00000310: e117 963d 4f39 1bbe a159 083e 6025 00be
00000320: 9d82 973d 53f2 a3bd 2bfc f2bd 28f8 653d
00000330: fb93 a0bc 30e2 023d 41dd 05bd 8968 bc3d
00000340: b797 333d c617 853d 95ae 28be abfe 00be
00000350: c15d c23d 1cc8 313e df1e cb3d e5b2 3cbd
00000360: 434b e13d 9f0e 923d 4b22 82bd a67e 843c
00000370: 7759 383e 35b4 0ebc 71be d8bd 5f59 2cbd
00000380: ba82 32bd f0f2 013d b7a8 cdbd 4add 133e
00000390: 1d5d 17be 6687 143e 3202 0abe fdb7 073c
000003a0: 9833 8cbd 05c8 95bc 346b 8e3d 5052 cc3d
000003b0: 9ea4 173e 7a10 ba3d bebc 50bc 33ab 963d
000003c0: b93b e33d 5b53 1c3e 155b 0b3d 71e7 8ebc
000003d0: b3ff 573d 5d85 f63d a448 b03b b607 d1bd
000003e0: 898a e0bd 1a8a de3d badc 2abd c405 0c3e
000003f0: a21e 483e 15a7 91bc e33f 98bb 5201 f83d

convs.0.lin_l.bias f4 [64]
-0.04839828 0.004924952 0.12209457 -0.120589174 0.047036853 -0.18367983 -0.035721883 0.07140543
-0.0095942365 -0.098513104 0.09216128 0.08695008 -0.14793015 -0.12048047 0.0104817655 0.09318306
0.1518883 -0.12939727 -0.021149335 -0.03135698 0.027296314 0.13102834 0.029004736 0.1376291
-0.09450195 0.058425587 0.057661273 -0.023509612 -0.16016579 -0.13458559 -0.09118174 -0.04816122
-0.011126221 0.05263294 0.025214968 0.06689169 0.10891337 -0.06544395 -0.19109997 -0.14535527
-0.019360233 -0.0839894 0.10050545 -0.09698942 -0.08063738 -0.052010234 -0.022101805 -0.11232246
0.12833144 0.03674813 -0.09965429 0.106781855 -0.17168601 0.13884762 0.06579542 0.09480629
0.06884604 0.05466185 -0.103566706 0.018387578 -0.029725064 0.05706619 0.049221836 0.13614015
00000000: 463d 46bd 7e61 a13b b80c fa3d 75f7 f6bd
00000010: b7a9 403d 9116 3cbe 1c51 12bd 033d 923d
00000020: 2531 1dbc 3dc1 c9bd 0ebf bc3d e212 b23d
00000030: 007b 17be 77be f6bd b6bb 2b3c c3d6 be3d
00000040: 9b88 1b3e b880 04be 5f41 adbc 2d70 00bd
00000050: 859c df3c 4b2c 063e 579b ed3c a5ee 0c3e
00000060: 3d8a c1bd ab4f 6f3d 3a2e 6c3d 3b97 c0bc
00000070: 8002 24be ced0 09be 7ebd babd b344 45bd
00000080: c14a 36bc a395 573d 9f8f ce3c 83fe 883d
00000090: f90d df3d 7a07 86bd b6af 43be 03d8 14be
000000a0: 5a99 9ebc a202 acbd cdd5 cd3d 64a2 c6bd
000000b0: 3625 a5bd af08 55bd d80e b5bc 5109 e6bd
000000c0: 5169 033e 3585 163d 8c17 ccbd 72b0 da3d
000000d0: 75ce 2fbe 122e 0e3e c0bf 863d cd29 c23d
000000e0: 27ff 8c3d 1be5 5f3d c81a d4bd 8ca1 963c
000000f0: fa81 f3bc 3dbe 693d d69c 493d 5368 0b3e

convs.0.lin_r.weight f4 [64, 32]
0.06627085 -0.011321399 -0.15539509 0.034426913 -0.0664376 0.022482825 0.13735329 0.19233738
0.035396762 -0.15072232 0.145127 0.09965665 0.058649965 0.025189374 -0.11542446 -0.025294442
-0.15246427 -0.074679345 0.060748372 -0.11119797 -0.17376928 -0.13203654 0.13992284 0.08810103
-0.026964799 0.13670465 -0.061912574 0.14790866 -0.12578852 -0.10907733 -0.09427149 0.04757541
0.07146091 -0.04959127 -0.07009096 0.054372367 -0.03180224 -0.039812762 0.013536884 0.018218983
-0.035001118 0.07257775 0.12246554 0.21750501 0.16986366 -0.18643445 0.00172066 0.1857036
0.0025093162 -0.12473407 -0.021766631 0.05296747 0.12997073 0.056684818 -0.15918817 -0.055576436
-0.0034705997 -0.1434379 -0.15322673 -0.18263386 0.08971039 0.17601009 -0.14681634 0.13622737
-0.12224221 0.0028373718 -0.112857014 0.066433705 -0.16081005 -0.0021304267 0.06561903 0.02611434
0.026483444 -0.12330263 -8.1409664e-05 -0.13374348 0.00025177564 0.03217476 -0.07103716 0.0028722442
0.03293167 0.035853773 -0.12335913 0.18355925 -0.0723786 0.076319456 -0.1606061 -0.18838075
0.12169439 -0.13212457 -0.004480902 0.11207462 -0.07730349 -0.17751135 0.17287311 0.018641237
-0.07377095 0.08122276 -0.018656183 -0.17053665 0.14118794 0.079317056 0.13466232 0.09686759
0.12737328 0.016829917 0.17644288 -0.11849488 0.1861799 0.010121809 -0.16757774 0.09109327
-0.016214198 0.06023951 0.16664277 -0.028980957 0.07803651 0.054654326 0.0473634 -0.031594675
-0.007936962 0.020713562 0.07328252 -0.07586291 0.0165424 0.093246594 -0.1515713 -0.09957596
0.17136566 0.073030494 -0.0522121 -0.16430645 0.015159824 0.07866077 -0.10933543 -0.12425689
-0.09800505 0.05830028 -0.15804183 0.15120815 -0.11636686 0.06821638 -0.039543703 0.12334695
-0.114541516 0.09472268 0.1851109 0.0604674 -0.026976667 -0.19692904 0.051740013 0.037584838
0.0880586 0.028486326 0.07843408 -0.059354395 0.072087616 0.03733668 -0.024689067 0.07037436
-0.039859332 0.1087498 0.08730346 0.06504183 0.15506342 0.10775278 -0.067639455 -0.030539185
0.025710408 0.083468735 0.07890819 -0.11604381 -0.14924455 -0.03144904 -0.10252706 0.014450458
-0.1870881 -0.15708812 0.2153162 -0.12969892 -0.14061572 0.020026227 -0.0851495 0.00558152
0.0032624719 -0.055126287 -0.059628148 -0.13282353 -0.045651723 -0.017189343 -0.1536411 -0.02569367
0.094068386 -0.20457347 -0.1929627 0.046443384 0.1519654 -0.17655897 -0.16453215 0.058837123
-0.038838953 -0.16602218 0.12889393 -0.10947584 -0.07301957 0.079061896 -0.039755005 -0.11056411
0.15158038 0.012303476 -0.13272977 -0.17159256 0.095704645 0.107644536 0.15765609 -0.058565173
-0.15081921 -0.13564475 -0.1343407 0.15054482 -0.05179475 0.030458493 0.09499802 -0.1375579
0.07110883 -0.131737 0.02535546 -0.1396249 -0.086850494 -0.016040746 -0.165236 -0.0063902424
0.090760306 0.046282597 0.17927933 0.012925614 0.06965318 -0.09176532 0.06644986 0.124083765
-0.10011243 -0.046276253 -0.1282305 -0.08450973 0.15111735 -0.10248174 -0.012834558 -0.19634524
-0.00813768 -0.0014003008 0.15690051 -0.006218121 0.11454981 0.08157989 0.11546783 0.008919618
00000000: 03b9 873d 647d 39bc e41f 1fbe 3c03 0d3d
00000010: 7010 88bd e72d b83c 57a6 0c3e 17f4 443e
00000020: 32fc 103d f456 1abe 2c9c 143e c918 cc3d
00000030: f23a 703d f259 ce3c a963 ecbd 4a36 cfbc
00000040: 981f 1cbe 7cf1 98bd 49d3 783d c3bb e3bd
00000050: 93f0 31be 9634 07be ef47 0f3e 506e b43d
00000060: 48e5 dcbc 4efc 0b3e 0a98 7dbd 5e75 173e
00000070: b5ce 00be ef63 dfbd 6911 c1bd 6fde 423d
00000080: 195a 923d 3720 4bbd d98b 8fbd 8fb5 5e3d
00000090: 1143 02bd b512 23bd cfc9 5d3c fa3f 953c
000000a0: 555d 0fbd a5a3 943d 37cf fa3d a2b9 5e3e
000000b0: bdf0 2d3e ace8 3ebe c587 e13a 1629 3e3e
000000c0: 5773 243b 9374 ffbd ef4f b2bc 6bf4 583d
000000d0: 0c17 053e 572e 683d 3902 23be 1ea4 63bd
000000e0: 0073 63bb 63e1 12be 78e7 1cbe 5f04 3bbe
000000f0: 15ba b73d fd3b 343e 0657 16be 307f 0b3e
00000100: 205a fabd 33f3 393b 9421 e7bd 650e 883d
00000110: 64ab 24be a19e 0bbb 4563 863d beed d53c
00000120: cff3 d83c 1786 fcbd 7bba aab8 0df4 08be
00000130: c100 8439 aec9 033d ee7b 91bd 433c 3c3b
00000140: 5ce3 063d 68db 123d b6a3 fcbd f5f6 3b3e
00000150: 3b3b 94bd 604d 9c3d ed75 24be e2e6 40be
00000160: e93a f93d aa4b 07be 88d4 92bb 6187 e53d
00000170: 4b51 9ebd 89c5 35be a605 313e 82b5 983c
00000180: 3915 97bd 1e58 a63d dad4 98bc 29a1 2ebe
00000190: 9293 103e fb70 a23d ebe4 093e 8462 c63d
000001a0: 246e 023e e5de 893c 71ad 343e 72ad f2bd
000001b0: f2a5 3e3e f2d5 253c 8099 2bbe 1c8f ba3d
000001c0: a3d3 84bc b4bd 763d 67a4 2a3e 7969 edbc
000001d0: 9bd1 9f3d 37dd 5f3d 2000 423d 6b69 01bd
000001e0: 080a 02bc 7daf a93c 2515 963d 035e 9bbd
000001f0: ed83 873c 12f8 be3d 8235 1bbe 7bee cbbd
00000200: 7b7a 2f3e 0391 953d 5bdc 55bd f33f 28be
00000210: e960 783c e618 a13d 41eb dfbd 657a febd
00000220: dfb6 c8bd 46cc 6e3d b8d5 21be 4fd6 1a3e
00000230: c051 eebd 08b5 8b3d 94f8 21bd 539d fc3d
00000240: be94 eabd f7fd c13d b68d 3d3e aaac 773d
00000250: 2cfe dcbc c4a7 49be 56ed 533d 8ff2 193d
00000260: 1158 b43d 285c e93c 0ca2 a03d 981d 73bd
00000270: aca2 933d 59ee 183d ba40 cabc 6f20 903d
00000280: 8a43 23bd 37b8 de3d 28cc b23d a734 853d
00000290: f2c8 1e3e 7dad dc3d 8e86 8abd 502d fabc
000002a0: a29e d23c a8f1 aa3d 9e9a a13d 61a8 edbd
000002b0: 90d3 18be b5d0 00bd b5f9 d1bd 9dc1 6c3c
000002c0: 0694 3fbe b5db 20be da7b 5c3e cbcf 04be
000002d0: 91fd 0fbe 0b0e a43c dc62 aebd 2fe5 b63b
000002e0: 32cf 553b 1acc 61bd a53c 74bd e402 08be
000002f0: 4dfd 3abd aad0 8cbc 1854 1dbe 887b d2bc
00000300: eda6 c03d b57b 51be 0498 45be 6b3b 3e3d
00000310: d19c 1b3e e0cb 34be 1e7b 28be 32ff 703d
00000320: 9815 1fbd b801 2abe c5fc 033e df34 e0bd
00000330: 498b 95bd 34eb a13d 25d6 22bd 706f e2bd
00000340: e337 1b3e 8594 493c 50ea 07be f6b5 2fbe
00000350: cc00 c43d bd74 dc3d 9970 213e 09e2 6fbd
00000360: 5a70 1abe 75e6 0abe 9c90 09be 6c28 1a3e
00000370: bb26 54bd 1784 f93c 528e c23d fadb 0cbe
00000380: 82a1 913d 10e6 06be 41b6 cf3c d4f9 0ebe
00000390: acde b1bd e267 83bc a033 29be 3d65 d1bb
000003a0: 8ae0 b93d d292 3d3d 0095 373e f4c5 533c
000003b0: 54a6 8e3d 75ef bbbd dd16 883d a11f fe3d
000003c0: bf07 cdbd 2b8c 3dbd db4e 03be 7013 adbd
000003d0: 82be 1a3e f2e1 d1bd 0a48 52bc ba0e 49be
000003e0: e753 05bc 4c8a b7ba 87aa 203e 61c1 cbbb
000003f0: 1799 ea3d 5b13 a73d 667a ec3d 9723 123c

convs.1.lin_l.weight f4 [128, 64]
-0.10338066 0.06962675 0.08858668 -0.1055365 -0.014557963 -0.0038297246 0.10229358 -0.041820176
-0.10232077 -0.105200596 -0.13954997 0.06089815 -0.10579636 -0.1317823 0.11858517 -0.018823234
0.06401319 -0.07464948 -0.12219053 -0.06924218 0.053643897 0.016696991 -0.07745055 -0.05995993
-0.09823709 0.11912583 0.08767796 -0.04524166 0.037364326 0.07320118 0.042480674 0.076971784
0.037329994 0.10464994 -0.08181993 -0.0027633384 0.11540792 -0.094648376 0.011013828 -0.0051999292
0.039474674 -0.038181562 0.10238115 0.029342614 0.0076272413 -0.13665581 -0.123615414 -0.07574628
0.06799154 0.06291028 0.00015153878 0.018237863 0.039690934 0.040150076 -0.059353113 -0.010525887
0.062040087 -0.011028517 -0.048238996 -0.11572249 -0.0041331025 -0.0076902444 0.022552062 0.009175983
-0.12093255 0.06679765 -0.14054163 -0.07753944 0.0053975605 -0.09875947 0.09795925 -0.08006304
0.09989022 0.035701945 -0.062651165 -0.064209655 -0.124146104 0.077726595 -0.049815316 0.1056531
0.09459594 -0.12845278 -0.025017072 -0.06398677 0.074339114 -0.025423184 -0.023896867 -0.06383064
0.052583188 0.042255744 -0.031007556 -0.12717196 -0.09233016 0.06735198 0.06498832 -0.067038044
-0.13127239 -0.08873008 -0.04809793 0.07661324 0.037662525 0.106814 -0.121411905 0.11725702
-0.11231732 -0.0031792065 0.038718212 0.085621 0.065057084 0.10005704 -0.044728223 0.11095786
-0.0072193807 0.024460867 0.022129953 -0.13874635 -0.13851845 -0.11473857 0.11784003 -0.023506496
-0.06819042 -0.065338396 0.07047666 -0.03609272 -0.07150639 -0.012596263 0.051912617 0.014735332
0.09694218 0.066243015 0.134182 0.08770703 -0.040063284 0.09441038 0.11343785 0.07166546
0.08048416 0.067098826 0.103325084 -0.0341163 -0.11382825 0.076630294 -0.0020818722 -0.052893322
-0.1016225 0.08079398 0.0077841356 0.09076491 -0.08170415 -0.034441262 -0.08058285 0.06683744
-0.07475301 0.09728042 -0.09513607 -0.07807983 0.11566067 -0.041167982 -0.075311705 -0.068993635
-0.060759738 0.045080658 0.055722054 -0.0643531 -0.06290298 0.0032174685 0.042448137 0.039280917
0.02868875 0.0018454499 -0.07203196 0.1145786 -0.07202315 0.080421 0.13494247 0.12952441
-0.090424076 0.08370476 -0.13829495 -0.007356588 0.012843415 -0.06674524 -0.0021568416 0.010301851
-0.01902003 0.11336818 -0.029561644 0.06547909 0.025031758 -0.0350069 -0.10834389 0.0021332328
0.021760931 0.06171739 -0.0638752 0.14579067 0.07974575 -0.004981721 0.026168609 -0.104722224
0.07733811 -0.025434466 0.072344944 0.026453549 0.0405788 -0.02976254 0.050227825 0.03882773
0.02899507 0.054213174 -0.04105438 0.049851805 -0.052586716 0.1037691 0.07287187 0.05311179
-0.028758999 0.054410502 0.009341241 0.13789213 -0.02547713 0.013187222 0.0032035739 0.050781067
0.1291881 0.12259603 -0.12374948 -0.068855144 -0.038418766 -0.03419146 0.12667814 0.11192592
0.0015238621 -0.11292735 -0.0070107253 0.09438837 -0.027300434 -0.010633183 -0.004275446 -0.07033692
0.10882627 -0.10537801 0.08994807 -0.0025664784 0.026744135 0.060243845 -0.07287001 0.012318291
0.061326697 0.1259613 0.0042121285 0.10036998 -0.05522015 0.12214197 0.11555183 -0.13164079
00000000: 3db9 d3bd 7898 8e3d ef6c b53d 8523 d8bd
00000010: 8684 6ebc 1efc 7abb 4c7f d13d a24b 2bbd
00000020: 8d8d d1bd 6973 d7bd 30e6 0ebe 5770 793d
00000030: c3ab d8bd f0f1 06be c8dc f23d 2f33 9abc
00000040: 5919 833d d4e1 98bd 073f fabd d8ce 8dbd
00000050: b4b9 5b3d 21c8 883c 659e 9ebd 8b98 75bd
00000060: 8730 c9bd 3ef8 f33d 8190 b33d 524f 39bd
00000070: 560b 193d 80ea 953d 3700 2e3d 62a3 9d3d
00000080: 56e7 183d b552 d63d 3591 a7bd 2019 35bb
00000090: fd5a ec3d 02d7 c1bd 5873 343c 2b64 aabb
000000a0: 32b0 213d 4564 1cbd 35ad d13d ec5f f03c
000000b0: f0ed f93b 80ef 0bbe 142a fdbd de20 9bbd
000000c0: 263f 8b3d 1bd7 803d 62e6 1e39 9267 953c
000000d0: f692 223d 6874 243d 401c 73bd c574 2cbc
000000e0: bf1d 7e3d f4b0 34bc 4196 45bd eaff ecbd
000000f0: fa6e 87bb 72fe fbbb 1abf b83c dd56 163c
00000100: 7cab f7bd 35cd 883d 25ea 0fbe ffcc 9ebd
00000110: 05de b03b 6842 cabd dc9e c83d 17f8 a3bd
00000120: 3e93 cc3d 343c 123d 414f 80bd 5a80 83bd
00000130: 5040 febd 1f2f 9f3d 250b 4cbd a760 d83d
00000140: 84bb c13d 2089 03be 9af0 ccbc 7f0b 83bd
00000150: 1b3f 983d 4844 d0bc 5dc3 c3bc a3b9 82bd
00000160: 7861 573d 5c14 2d3d 8f03 febc 5e39 02be
00000170: 9817 bdbd d6ef 893d 9918 853d 3e4b 89bd
00000180: 456c 06be 1eb8 b5bd 5602 45bd 67e7 9c3d
00000190: 0544 1a3d 4cc1 da3d cea6 f8bd 7324 f03d
000001a0: a006 e6bd 3c5a 50bb fd96 1e3d 105a af3d
000001b0: a63c 853d b5ea cc3d f134 37bd e03d e33d
000001c0: 8e90 ecbb 2862 c83c e049 b53c 8613 0ebe
000001d0: c8d7 0dbe 0efc eabd 1d56 f13d b290 c0bc
000001e0: 6ba7 8bbd 23d0 85bd 1156 903d f6d5 13bd
000001f0: f171 92bd 8e60 4ebc 53a2 543d 766c 713c
00000200: 9f89 c63d 6baa 873d 0267 093e be9f b33d
00000210: 6619 24bd 3b5a c13d 1a52 e83d 57c5 923d
00000220: e1d4 a43d 1c6b 893d 1a9c d33d 89bd 0bbd
00000230: c91e e9bd 58f0 9c3d 0570 08bb aba6 58bd
00000240: 751f d0bd 5077 a53d 1012 ff3b f4e2 b93d
00000250: 8154 a7bd 4812 0dbd 9f08 a5bd 11e2 883d
00000260: 1b18 99bd f53a c73d b3d6 c2bd 51e8 9fbd
00000270: 80df ec3d c29f 28bd 063d 9abd 894c 8dbd
00000280: 34df 78bd 7fa6 383d cf3c 643d 8fcb 83bd
00000290: 47d3 80bd 2adc 523b 19de 2d3d 07e5 203d
000002a0: ab04 eb3c 06e3 f13a 7e85 93bd 2fa8 ea3d
000002b0: e080 93bd c4b3 a43d 5c2e 0a3e 0ca2 043e
000002c0: 4230 b9bd 676d ab3d 319d 0dbe 880f f1bb
000002d0: 306d 523c bab1 88bd cc59 0dbb 18c9 283c
000002e0: e5cf 9bbc 942d e83d 432b f2bc e719 863d
000002f0: 670f cd3c 6563 0fbd 67e3 ddbd b5cd 0b3b
00000300: fb43 b23c 60cb 7c3d 00d1 82bd 264a 153e
00000310: bd51 a33d b43d a3bb 8d5f d63c 9b78 d6bd
00000320: 7163 9e3d f15b d0bc 9629 943d 1db5 d83c
00000330: f535 263d 92d0 f3bc b1bb 4d3d d309 1f3d
00000340: 1287 ed3c a20e 5e3d a328 28bd 6831 4c3d
00000350: 2b65 57bd e584 d43d d93d 953d c08b 593d
00000360: fe97 ebbc 8cdd 5e3d 010c 193c 9833 0d3e
00000370: 6ab5 d0bc 380f 583c 0df3 513b cfff 4f3d
00000380: e349 043e a113 fb3d 5e70 fdbd ed03 8dbd
00000390: ff5c 1dbd 580c 0cbd eab7 013e 6b39 e53d
000003a0: 54bc c73a 7446 e7bd 3aba e5bb b14e c13d
000003b0: 29a5 dfbc cd36 2ebc 0a19 8cbb ce0c 90bd
000003c0: 4fe0 de3d 6dd0 d7bd b236 b83d 5d32 28bb
000003d0: 8416 db3c 40c2 763d df3c 95bd a8d2 493c
000003e0: b431 7b3d 00fc 003e e505 8a3b c78e cd3d
000003f0: 862e 62bd 9225 fa3d 70a6 ec3d d8cc 06be

convs.1.lin_l.bias f4 [128]
-0.07045893 -0.13854155 0.12868959 -0.008180249 0.0876921 -0.06816684 0.11321986 0.03277789
0.07080944 -0.005984798 0.02893463 -0.0010034112 -0.0011483333 0.00833281 0.06153456 0.003641533
-0.07376477 0.079125896 0.11702521 0.015210218 -0.0762433 0.040405132 -0.06861156 0.10607674
0.055942323 -0.08466735 -0.12060446 0.07582508 -0.0686733 0.102504015 -0.04379633 -0.115877785
0.07668605 -0.07365194 0.12788309 0.010526865 0.041898936 0.06650042 -0.008249435 0.020471402
-0.041573137 -0.025358032 0.081862345 -0.004706525 0.13208725 -0.07387864 -0.09561498 -0.00554037
-0.07359935 -0.010812484 -0.043823753 0.10311 -0.08920719 -0.03290405 0.047160372 0.08351598
-0.1410489 0.07267509 0.01857088 -0.014759313 -0.07072156 0.019913726 0.09990393 -0.016116159
-0.043115914 0.102136955 0.07769569 -0.056839067 0.07266369 0.023272516 0.09553885 0.087346464
0.0031608662 0.07093661 -0.09332566 -0.033416767 -0.02932045 -0.109443955 0.024886373 0.053421747
-0.06255438 -0.09470215 0.08108856 -0.06275783 0.084928475 0.026533937 0.0050672786 0.18665136
0.116210535 -0.07440038 -0.11895693 -0.12886018 0.072439976 -0.1659521 -0.04911743 0.122940145
0.113388635 0.039845884 -0.027540864 0.11455782 0.08882971 -0.1081603 0.06240323 0.1181781
0.06667241 0.08179615 0.0039704847 0.028373301 -0.11892415 -0.05423186 0.0023150868 0.077746496
-0.02303578 0.003685275 -0.107752055 0.05764955 -0.08669987 0.02899323 0.07728395 0.14351718
-0.0591139 -0.02454013 0.09053922 0.096482635 0.11718895 0.11514591 -0.017066848 0.015391045
00000000: c64c 90bd d6dd 0dbe 34c7 033e 7306 06bc
00000010: ea97 b33d 0e9b 8bbd d0df e73d 1c42 063d
00000020: 8a04 913d 201c c4bb 5108 ed3c e584 83ba
00000030: ac83 96ba 5786 083c aa0b 7c3d c9a6 6e3b
00000040: fc11 97bd c20c a23d eaaa ef3d 4734 793c
00000050: 7325 9cbd da7f 253d 3884 8cbd c33e d93d
00000060: c723 653d 1366 adbd 79ff f6bd 2e4a 9b3d
00000070: 96a4 8cbd a0ed d13d c863 33bd 5551 edbd
00000080: 930d 9d3d d4d6 96bd c9f3 023e df78 2c3c
00000090: 389e 2b3d 5f31 883d a328 07bc a4b3 a73c
000000a0: 9848 2abd a6bb cfbc 72a7 a73d 3139 9abb
000000b0: e141 073e af4d 97bd c9d1 c3bd fe8b b5bb
000000c0: 42bb 96bd d826 31bc 8980 33bd 562b d33d
000000d0: 42b2 b6bd 66c6 06bd 3c2b 413d 6d0a ab3d
000000e0: 1f6f 10be add6 943d f521 983c 0cd1 71bc
000000f0: 77d6 90bd 1c22 a33c 6f9a cc3d 0906 84bc
00000100: 509a 30bd 2e2d d13d eb1e 9f3d 15d0 68bd
00000110: b3d0 943d 01a6 be3c dfa9 c33d b4e2 b23d
00000120: 8926 4f3b 3747 913d 8621 bfbd 05e0 08bd
00000130: 7131 f0bc 2724 e0bd 82de cb3c c3d0 5a3d
00000140: 831c 80bd 33f3 c1bd c211 a63d 2d87 80bd
00000150: fbee ad3d b35d d93c 6a0b a63b 8921 3f3e
00000160: caff ed3d 3a5f 98bd b19f f3bd ecf3 03be
00000170: 695b 943d 59ef 29be 5c2f 49bd 0bc8 fb3d
00000180: 4d38 e83d 7035 233d 619d e1bc 4a9d ea3d
00000190: 5aec b53d 2683 ddbd 889a 7f3d 5c07 f23d
000001a0: 8b8b 883d bd84 a73d d71a 823b 206f e83c
000001b0: 818e f3bd 3a22 5ebd b6b8 173b 8e39 9f3d
000001c0: 88b5 bcbc a884 713b 1cad dcbd ef21 6c3d
000001d0: b48f b1bd 3683 ed3c 0c47 9e3d 2bf6 123e
000001e0: 6b21 72bd 6208 c9bc a06c b93d b098 c53d
000001f0: c300 f03d 9ed1 eb3d c6cf 8bbc b92a 7c3c

convs.1.lin_r.weight f4 [128, 64]
-0.041284587 0.0019742856 -0.14465201 0.10200515 0.12264049 0.06639413 -0.047200337 -0.060692105
-0.01562034 0.029019183 -0.03144352 -0.07417051 -0.050253265 0.100245826 0.12479442 -0.078210026
-0.067655906 0.09067451 0.075323686 0.052518263 -0.04782455 -0.056322668 -0.025196023 0.07895681
-0.09088642 0.09654998 0.08836161 0.044849243 0.006150947 -0.13340266 0.08337318 0.092498645
-0.037296265 0.03310678 0.015241535 0.07937709 0.12291373 0.0299953 0.027855631 0.026992662
-0.018724151 -0.029168896 -0.0058812085 -0.10531309 0.07172221 -0.027788974 0.013810988 0.093410805
0.042437717 0.012639577 0.0051343986 -0.078991875 -0.06910564 -0.0043339487 0.04366059 -0.092516035
0.09547167 0.080064245 -0.080655284 0.06935701 0.08500764 0.027253045 -0.06288091 0.0992488
0.06355273 -0.121321015 0.10900655 -0.049706746 0.017050613 0.05288764 -0.0204724 -0.045422085
0.048464175 0.05791321 0.013641204 0.063946195 -0.011643156 -0.018637521 0.01439623 0.035838194
-0.08568121 0.01988753 -0.09972764 -0.091816016 0.08509274 0.039661366 -0.10998 -0.08270168
-0.033405576 -0.02716121 -0.033401873 -0.052461438 -0.0032921266 -0.02408724 -0.09558861 -0.06692348
-0.10217675 -0.10163507 -0.035573892 0.04862833 0.08170525 0.0796038 0.021821018 0.042197257
0.09970627 0.038056605 -0.10813651 0.0058277263 0.057684783 -0.0627046 -0.08742774 0.081840575
-0.05962214 -0.079291284 -0.03067265 0.022739287 -0.09630024 -0.048838094 -0.04879381 0.0052378904
-0.041732762 -0.103966706 -0.041154794 -0.052716315 0.02600149 0.002324739 -0.0200574 0.16117011
-0.023301624 0.03299172 0.08783674 0.08219201 0.0016707588 -0.05505032 0.013644257 0.061360404
0.101286195 -0.06356647 -0.023706919 0.08185691 -0.12400415 0.09482579 0.06807051 -0.044194546
0.02753692 0.096483015 0.123088084 0.06262707 0.118315145 -0.022708898 0.07607365 -0.075757116
0.07878467 0.051045064 0.1260649 0.11106399 -0.010473858 0.13560568 0.06188638 -0.027912308
-0.04711015 0.026423307 -0.040647637 0.03607216 -0.024111215 0.07258965 0.011991856 0.012405965
-0.10797858 0.11081932 -0.0077327266 -0.056426592 0.06468821 0.14453264 -0.06940929 0.076217294
-0.052971717 -0.09742636 -0.01970951 -0.103829525 -0.08315606 -0.07957263 0.07805605 -0.07447213
-0.05523242 -0.09321933 0.07428188 0.12225362 0.008525432 0.026081873 -0.035994824 -0.08562669
0.090478495 -0.0481569 -0.09125057 -0.090284824 0.011975743 -0.08925581 0.06317734 0.020279517
0.044819105 0.11769351 0.12186921 0.0893529 -0.08182046 0.13320401 0.017130794 -0.0032136063
-0.04881869 -0.061950576 -0.05117554 0.09798882 0.020800991 0.06994075 -0.07690832 -0.04679813
0.12428333 0.011606437 -0.10167493 0.08296808 0.093983136 -0.039691895 -0.013116143 -0.08795992
0.048530802 0.04150647 -0.009955329 0.12894142 0.027762309 -0.05416531 -0.11280551 -0.0028599408
-0.021100022 0.048784893 -0.082274444 0.0069990074 -0.08113065 -0.10196926 0.07617864 0.07976147
-0.048132416 -0.029021952 0.04029291 0.08960448 0.07956958 0.009515274 -0.0014831655 0.026605243
0.008925673 -0.040835775 0.049523003 0.095542386 0.065826684 0.04308539 0.1602535 0.048814084
00000000: 071a 29bd 0463 013b a81f 14be 13e8 d03d
00000010: f02a fb3d a5f9 873d 2455 41bd 4998 78bd
00000020: 74ec 7fbc a3b9 ed3c ecca 00bd b5e6 97bd
00000030: 5ed6 4dbd af4d cd3d 3894 ff3d 942c a0bd
00000040: 2e8f 8abd 8fb3 b93d 4e43 9a3d 641d 573d
00000050: ade3 43bd 99b2 66bd e467 cebc 1cb4 a13d
00000060: a922 babd ffbb c53d eff6 b43d d7b3 373d
00000070: e28d c93b b59a 08be 8fbf aa3d ee6f bd3d
00000080: f8c3 18bd fa9a 073d a2b7 793c 7590 a23d
00000090: 32ba fb3d b4b8 f53c 7e31 e43c b71f dd3c
000000a0: 6463 99bc 9cf3 eebc 27b7 c0bb 64ae d7bd
000000b0: 18e3 923d b4a5 e3bc 7b47 623c 2a4e bf3d
000000c0: 2cd3 2d3d 3a16 4f3c 753e a83b 7ec6 a1bd
000000d0: 4287 8dbd cc03 8ebb 72d5 323d 0c79 bdbd
000000e0: a786 c33d b9f8 a33d 992e a5bd 0c0b 8e3d
000000f0: 7c18 ae3d c741 df3c b5c7 80bd f442 cb3d
00000100: ef27 823d 2777 f8bd d33e df3d 4d99 4bbd
00000110: baad 8b3c b6a0 583d bcb5 a7bc 820c 3abd
00000120: 5f82 463d 6736 6d3d 5b7f 5f3c 39f6 823d
00000130: f0c2 3ebc b7ad 98bc 2ade 6b3c 12cb 123d
00000140: a179 afbd 2ceb a23c 013e ccbd 090a bcbd
00000150: 1a45 ae3d f573 223d 323d e1bd 805f a9bd
00000160: 49d4 08bd 3081 debc 67d0 08bd cee1 56bd
00000170: b8c0 57bb 9b52 c5bc f6c3 c3bd 2d0f 89bd
00000180: 0b42 d1bd 0c26 d0bd eeb5 11bd 802e 473d
00000190: 1555 a73d 5107 a33d fec1 b23c 08d7 2c3d
000001a0: cd32 cc3d 3ee1 1b3d ad76 ddbd 83f6 be3b
000001b0: e146 6c3d 456b 80bd 510d b3bd 089c a73d
000001c0: 5836 74bd 7863 a2bd 3645 fbbc be47 ba3c
000001d0: 0f39 c5bd 740a 48bd 05dc 47bd 9ca2 ab3b
000001e0: f9ef 2abd 7fec d4bd ee91 28bd 10ed 57bd
000001f0: 1401 d53c a65a 183b 6b4f a4bc c709 253e
00000200: 0ce3 bebc 5322 073d c0e3 b33d 4954 a83d
00000210: 5dfd da3a 727c 61bd 298c 5f3c 0c55 7b3d
00000220: 236f cf3d 232f 82bd 0335 c2bc 98a4 a73d
00000230: e3f5 fdbd 0634 c23d 8d68 8b3d 5705 35bd
00000240: 1b95 e13c e398 c53d 9b15 fc3d 9f42 803d
00000250: 364f f23d 0308 babc 80cc 9b3d 8c26 9bbd
00000260: db59 a13d a114 513d 2817 013e 8475 e33d
00000270: 8b9a 2bbc 37dc 0a3e 937c 7d3d 5aa8 e4bc
00000280: 93f6 40bd b175 d83c 237e 26bd 67c0 133d
00000290: e284 c5bc e2a9 943d 7d79 443c 6342 4b3c
000002a0: e023 ddbd 3df5 e23d d062 fdbb 921f 67bd
000002b0: 417b 843d 5d00 143e 7526 8ebd d017 9c3d
000002c0: dff8 58bd 7987 c7bd d775 a1bc 93a4 d4bd
000002d0: b94d aabd faf6 a2bd dadb 9f3d d884 98bd
000002e0: 643b 62bd c7e9 bebd 1921 983d 1b60 fa3d
000002f0: 41ae 0b3c a7a9 d53c 4f6f 13bd 0c5d afbd
00000300: ca4c b93d 2b40 45bd 94e1 babd 40e7 b8bd
00000310: e835 443c c0cb b6bd 1f63 813d 3b21 a63c
00000320: 3d94 373d 4c09 f13d 9096 f93d a7fe b63d
00000330: 7c91 a7bd a266 083e e155 8c3c 5e9b 52bb
00000340: 1bf6 47bd e3bf 7dbd 719d 51bd 5dae c83d
00000350: d766 aa3c 193d 8f3d 1c82 9dbd 65af 3fbd
00000360: 4288 fe3d ed28 3e3c f23a d0bd 2beb a93d
00000370: 3b7a c03d f893 22bd 17e5 56bc 5524 b4bd
00000380: 3cc8 463d b002 2a3d ad1b 23bc 3809 043e
00000390: c86d e33c 72dc 5dbd 9306 e7bd d86d 3bbb
000003a0: f4d9 acbc abd2 473d 817f a8bd ee57 e53b
000003b0: d427 a6bd 42d5 d0bd 8c03 9c3d fb59 a33d
000003c0: 7f26 45bd 72bf edbc 2e0a 253d 8e82 b73d
000003d0: 60f5 a23d f4e5 1b3c c766 c2ba 3df3 d93c
000003e0: fc3c 123c 6a43 27bd a2d8 4a3d baab c33d
000003f0: 24d0 863d 4e7a 303d 7e19 243e 47f1 473d

bns.0.weight f4 [64]
0.9685171 0.98554415 1.0572847 0.9952715 0.95901155 0.9790671 1.0030268 1.0333712
1.031475 0.9513473 0.9815563 1.0324751 1.005498 0.9682289 0.9583782 0.90250087
1.0103223 0.94580996 0.97164327 1.0057465 0.87765086 0.9764353 0.95289236 0.91503674
0.95842135 0.9965326 0.9747211 1.0420074 0.9439056 0.97306424 1.0059057 0.96669
0.9300112 0.97827786 1.027211 0.999306 0.99429315 0.9996897 1.044334 0.984423
1.0087051 0.9656736 1.0436356 0.9322899 0.9378838 0.96926236 0.94789517 0.9602209
0.9520329 1.0728095 0.9537179 0.9506136 0.9556885 1.0245957 0.97293186 1.0218921
0.920039 1.0106031 0.9381457 1.0437438 0.95742494 0.96462584 0.98315203 0.96151465
00000000: bdf0 773f 9f4c 7c3f 1b55 873f 1dca 7e3f
00000010: c881 753f 24a4 7a3f 2f63 803f 8245 843f
00000020: 5f07 843f 7f8b 733f 4647 7b3f 2528 843f
00000030: 29b4 803f d9dd 773f 4658 753f 4c0a 673f
00000040: 3e52 813f 9a20 723f 9dbd 783f 4dbc 803f
00000050: baad 603f aaf7 793f c1f0 733f d93f 6a3f
00000060: 1a5b 753f c31c 7f3f 5287 793f 8060 853f
00000070: cca3 713f bd1a 793f 85c1 803f ff78 773f
00000080: 3715 6e3f 6b70 7a3f a67b 833f 85d2 7f3f
00000090: ff89 7e3f aaeb 7f3f bdac 853f 2503 7c3f
000000a0: 401d 813f 6336 773f da95 853f 8daa 6e3f
000000b0: 2719 703f 9421 783f 42a9 723f 09d1 753f
000000c0: 6eb8 733f d251 893f db26 743f 6a5b 733f
000000d0: 00a8 743f f425 833f 1012 793f 5ccd 823f
000000e0: ad87 6b3f 715b 813f 512a 703f 6699 853f
000000f0: cd19 753f b8f1 763f daaf 7b3f d325 763f

bns.0.bias f4 [64]
-0.022015598 -0.012447921 0.07225122 0.03587181 -0.0115906475 0.0075993766 0.020470656 0.045764003
0.03210468 -0.048025228 -0.03570368 0.02216452 0.0048278086 -0.047261637 -0.02917362 -0.09269434
0.0197432 -0.042524394 -0.00988365 0.016275732 -0.10142775 -0.028413774 -0.0472386 -0.07964064
-0.019292124 -0.0038595928 -0.010070743 0.04177935 -0.02812465 -0.037276644 0.007677729 -0.019236032
-0.035168637 -0.047287457 0.028884973 -0.00010702785 0.014927297 -0.0038061042 0.06855532 -0.006334283
0.00063399354 -0.036397368 0.038535748 -0.05436514 -0.07580003 -0.010613682 -0.03455742 -0.045661498
-0.0448047 0.051732913 -0.052033223 -0.034198426 -0.017280545 -0.0028827433 -0.020573044 0.017809955
-0.051822513 0.0015711066 -0.055442106 0.062340252 -0.018628903 -0.021708084 -0.012226022 -0.03472277
00000000: 0e5a b4bc 5df2 4bbc 73f8 933d 52ee 123d
00000010: b3e6 3dbc 3104 f93b 14b2 a73c 0973 3b3d
00000020: 3280 033d 1ab6 44bd 063e 12bd 5e92 b53c
00000030: 9832 9e3b 6b95 41bd 84fd eebc 88d6 bdbd
00000040: 7ebc a13c 0f2e 2ebd 08ef 21bc af54 853c
00000050: 5ab9 cfbd 01c4 e8bc 437d 41bd a21a a3bd
00000060: 840a 9ebc 39f1 7cbb c2ff 24bc d320 2b3d
00000070: aa65 e6bc 65af 18bd 7595 fb3b e294 9dbc
00000080: fd0c 10bd 7eb0 41bd 2ea0 ec3c 2474 e0b8
00000090: 9f91 743c d56f 79bb bb66 8c3d d18f cfbb
000000a0: 9632 263a 6815 15bd a9d7 1d3d fbad 5ebd
000000b0: 0c3d 9bbd 02e5 2dbc 158c 0dbd 8d07 3bbd
000000c0: 2285 37bd e4e5 533d ca20 55bd a613 0cbd
000000d0: ee8f 8dbc 68ec 3cbb cd88 a8bc 2fe6 913c
000000e0: d843 54bd 97ed cd3a 4317 63bd 7e58 7f3d
000000f0: a49b 98bc 27d5 b1bc a74f 48bc 7739 0ebd

bns.0.running_mean f4 [64]
-0.048714746 0.10537167 0.10016135 0.02826881 0.05778573 -0.07738683 0.013257464 0.10400817
0.015407425 -0.09542799 -0.08131998 0.0751042 -0.010649668 -0.05189203 -0.0018590249 0.08505865
0.10342543 0.062507294 0.10839256 -0.0010818272 -0.0055163945 0.19724005 0.06441445 -0.010073368
-0.017246913 0.060263004 0.1556566 0.0017320658 -0.07097218 -0.10327656 -0.037954826 -0.0025413376
0.0026715144 0.06682007 0.07879877 0.040735018 0.16949852 -0.06961749 -0.009425441 -0.006368362
0.07686052 -0.09242499 0.06449301 0.02046013 -0.14204288 -0.10196019 -0.16354364 -0.012912116
-0.101100534 0.011317254 -0.01731501 0.047991235 0.0027915859 0.14817502 -0.005705396 0.017561834
0.098717846 0.0024351177 -0.052178025 0.083993785 -0.08451553 0.10492544 -0.0065235505 0.082685
00000000: 1d89 47bd 1acd d73d 6521 cd3d fe93 e73c
00000010: bbb0 6c3d fc7c 9ebd d635 593c 3c02 d53d
00000020: 6d6f 7c3c c06f c3bd 178b a6bd 3bd0 993d
00000030: f27b 2ebc bd8c 54bd 86aa f3ba 3b33 ae3d
00000040: b6d0 d33d d303 803d ebfc dd3d 19cc 8dba
00000050: dfc2 b4bb 4cf9 493e b9eb 833d c50a 25bc
00000060: 6649 8dbc 57d6 763d 7264 1f3e 7c06 e33a
00000070: dd59 91bd a982 d3bd 8576 1bbd 928c 26bb
00000080: 9314 2f3b f6d8 883d 4061 a13d c3d9 263d
00000090: 0591 2d3e 9d93 8ebd 2a6d 1abc b1ad d0bb
000000a0: 0c69 9d3d 5049 bdbd e914 843d 019c a73c
000000b0: b073 11be 81d0 d0bd fc77 27be 578d 53bc
000000c0: cc0d cfbd 016c 393c 35d8 8dbc 7592 443d
000000d0: 0af3 363b 31bb 173e 55f4 babb d6dd 8f3c
000000e0: 952c ca3d 7f96 1f3b a0b8 55bd ef04 ac3d
000000f0: 7a16 adbd 26e3 d63d 82c3 d5bb c156 a93d

bns.0.running_var f4 [64]
0.008193175 0.009607313 0.006976004 0.008912942 0.007118262 0.008689137 0.0061765653 0.009533845
0.007427915 0.00723136 0.011244599 0.011255397 0.008339973 0.009352188 0.00839763 0.007459026
0.01197366 0.009983627 0.008597433 0.009675117 0.012154967 0.008197677 0.0103925215 0.009605371
0.007997474 0.0072715245 0.006681104 0.010472997 0.01055712 0.014692392 0.009848288 0.008078251
0.010232596 0.007903668 0.011472156 0.008427876 0.00807871 0.013939069 0.008400049 0.008285662
0.010945063 0.007781783 0.013555141 0.011230002 0.012259549 0.0116450265 0.006846527 0.009745623
0.0122712925 0.011255658 0.006846708 0.015971523 0.0076076514 0.0080706235 0.007198267 0.0099771945
0.011233112 0.0105723515 0.00873527 0.009753799 0.00809422 0.0091387695 0.008016229 0.008973999
00000000: ab3c 063c fe67 1d3c f796 e43b 9707 123c
00000010: 4f40 e93b e25c 0e3c c964 ca3b d833 1c3c
00000020: de65 f33b 0bf5 ec3b 443b 383c 8f68 383c
00000030: 62a4 083c eb39 193c 3796 093c d86a f43b
00000040: 2c2d 443c 5e92 233c 3fdc 0c3c 6284 1e3c
00000050: a025 473c 8d4f 063c 6545 2a3c d95f 1d3c
00000060: d607 033c f845 ee3b 2aed da3b ef96 2b3c
00000070: c5f7 2c3c 5cb8 703c b75a 213c a45a 043c
00000080: 9ea6 273c 637e 013c b6f5 3b3c 1315 0a3c
00000090: 915c 043c b160 643c 5ca0 093c 96c0 073c
000000a0: ec52 333c 54fe fe3b 6216 5e3c 0bfe 373c
000000b0: 47dc 483c c8ca 3e3c d558 e03b 1bac 1f3c
000000c0: 880d 493c a769 383c 595a e03b b6d6 823c
000000d0: 9b49 f93b a63a 043c 71df eb3b 6377 233c
000000e0: 160b 383c a837 2d3c 611e 0f3c 66ce 1f3c
000000f0: 9f9d 043c c7ba 153c 8056 033c ae07 133c

bns.1.weight f4 [128]
0.27764368 0.26497698 0.28197846 0.2748858 0.27218562 0.26308638 0.2514507 0.27554604
0.2727829 0.2677324 0.2546307 0.2596033 0.27731037 0.29553688 0.26641273 0.28120756
0.2543761 0.25945553 0.247973 0.2652016 0.2660358 0.25342426 0.26416984 0.26125562
0.26218745 0.26867378 0.26550245 0.25733206 0.2525455 0.28099608 0.27474776 0.2787518
0.26844612 0.28127208 0.26938823 0.2588393 0.27003 0.25300434 0.2631163 0.2601664
0.26288778 0.27265814 0.2790458 0.28109872 0.27558783 0.2467512 0.22942571 0.26792008
0.2738457 0.25034657 0.2765214 0.26712272 0.2644988 0.26749957 0.25201043 0.26820892
0.2735688 0.2704179 0.25056967 0.25760826 0.2802398 0.25788012 0.27049226 0.28161052
0.26517445 0.25830567 0.2757891 0.2682525 0.26103994 0.23590176 0.24745354 0.2829673
0.24116856 0.26111254 0.25702727 0.24590346 0.26735315 0.2862951 0.27029872 0.25599048
0.27295724 0.26031944 0.27626672 0.26444244 0.25649452 0.28115618 0.2559621 0.2536108
0.26277018 0.25657937 0.2643705 0.268415 0.27552864 0.27204883 0.2741492 0.2549829
0.27488393 0.2642395 0.25985676 0.28555074 0.27839166 0.2470299 0.27472818 0.2940074
0.2918569 0.2485618 0.2637964 0.26010743 0.24489404 0.25295812 0.28149864 0.29562348
0.27737713 0.26687753 0.2703392 0.26243263 0.28141624 0.27250296 0.25372127 0.24191147
0.26991123 0.2755184 0.26971784 0.2637695 0.23959692 0.28894532 0.25697973 0.24621633
00000000: 5027 8e3e 10ab 873e 7b5f 903e d5bd 8c3e
00000010: ea5b 8b3e 42b3 863e 25be 803e 5f14 8d3e
00000020: 33aa 8b3e 3914 893e f55e 823e b9ea 843e
00000030: a0fb 8d3e 9c50 973e 4067 883e 70fa 8f3e
00000040: 963d 823e 5bd7 843e a2ec 7d3e 81c8 873e
00000050: d835 883e d3c0 813e 4541 873e 4cc3 853e
00000060: 6f3d 863e 9c8f 893e f0ef 873e 07c1 833e
00000070: a54d 813e b8de 8f3e bdab 8c3e 8eb8 8e3e
00000080: c571 893e e502 903e 41ed 893e 9686 843e
00000090: 5f41 8a3e c989 813e 2eb7 863e 8834 853e
000000a0: 3a99 863e d999 8b3e 17df 8e3e 2cec 8f3e
000000b0: d919 8d3e 59ac 7c3e 93ee 6a3e d22c 893e
000000c0: 8135 8c3e 6d2d 803e 3794 8d3e 4fc4 883e
000000d0: 636c 873e b4f5 883e 8307 813e ae52 893e
000000e0: 3611 8c3e 3774 8a3e ab4a 803e 3be5 833e
000000f0: 977b 8f3e dd08 843e f67d 8a3e 412f 903e
00000100: f2c4 873e a440 843e 3b34 8d3e 6458 893e
00000110: 07a7 853e 3b90 713e 7664 7d3e 17e1 903e
00000120: e4f4 763e 8bb0 853e 1499 833e 1ece 7b3e
00000130: 83e2 883e 4595 923e 9864 8a3e 2f11 833e
00000140: 0dc1 8b3e 9748 853e d572 8d3e 0065 873e
00000150: 4053 833e b4f3 8f3e 770d 833e 46d9 813e
00000160: d089 863e 5f5e 833e 925b 873e b16d 893e
00000170: 1712 8d3e fc49 8b3e 495d 8c3e 1e8d 823e
00000180: 96bd 8c3e 664a 873e f20b 853e b533 923e
00000190: 5a89 8e3e 68f5 7c3e 2ca9 8c3e 2388 963e
000001a0: 456e 953e fc86 7e3e 5210 873e cd2c 853e
000001b0: 81c5 7a3e ba83 813e 9720 903e f65b 973e
000001c0: 6004 8e3e 2ca4 883e e669 8a3e 925d 863e
000001d0: ca15 903e 8285 8b3e c1e7 813e a4b7 773e
000001e0: ce31 8a3e bf10 8d3e 7518 8a3e cc0c 873e
000001f0: e558 753e a4f0 933e d992 833e 2220 7c3e

bns.1.bias f4 [128]
-0.0028614795 -0.00011340718 -0.0036243566 -0.008130685 0.0040280605 -0.0006263102 0.008456849 0.005329065
-0.0061162077 0.008560717 7.091169e-05 -0.0014897826 -0.006842354 -0.008017303 -0.004724018 0.0033535738
0.004356047 0.010921833 0.0010772801 0.0018592192 0.008238095 -0.0019988816 0.00020324279 0.0028805207
0.004298432 -0.0047330144 0.003330768 -0.003019249 0.0021585065 -0.0069544828 -0.0015189971 0.0038353459
-0.0028706533 -0.011123961 0.008431508 0.0027896527 -0.0053621395 0.0032652551 0.0039552194 0.0054032877
0.00068441057 0.0037152825 0.010642775 0.0045011393 -0.0025213384 -0.0018123873 0.0007895413 -0.01082724
0.0057462673 0.005981125 0.0055865473 0.0041215504 0.0032577752 0.0061433716 -0.0022224209 0.011203041
0.0021142864 0.010546204 -0.0024729227 0.0010650749 -0.0041664904 -0.0035681452 2.2978107e-05 0.0023402947
0.0035937706 0.0030452283 0.010676898 0.0052367463 0.009640245 -0.0055089076 0.001924594 0.0065642362
-0.001124817 -0.009916587 -0.005912017 -0.0016990905 0.004853497 0.010134487 -0.0008901311 -0.0025265089
0.009644194 -0.00486018 3.7188973e-05 -0.006527772 -0.0010914732 0.0025970812 -0.005493273 0.008136028
0.005038354 -0.0023474577 0.0024683375 -0.008182159 0.00672827 -0.011542313 -0.010071684 0.00035684466
-0.0070486707 0.0033559783 0.00087083987 -0.0034727394 0.00036730414 -0.000769521 -0.0034283258 -0.00777068
0.016055355 0.0023727953 -0.00047953913 -0.0012189538 0.0025833216 -0.0040700193 0.0044165533 0.014069428
0.004610629 -0.009121954 -0.0047879433 0.006054485 -0.005159709 -0.00062526256 -0.0020853549 0.003131262
0.008869983 0.0025853543 -0.0023450402 0.0011831803 -0.00068342907 -0.004502518 0.0020046164 0.0052734264
00000000: a987 3bbb 04d5 edb8 9d86 6dbb 9136 05bc
00000010: d2fd 833b f72e 24ba 988e 0a3c 709f ae3b
00000020: 786a c8bb 4042 0c3c 6cb6 9438 cf44 c3ba
00000030: d335 e0bb 025b 03bc efcb 9abb a2c7 5b3b
00000040: 2cbd 8e3b 7df1 323c 8633 8d3a 0bb1 f33a
00000050: 13f9 063c abff 02bb 921d 5539 1ec7 3c3b
00000060: dcd9 8c3b 6717 9bbb 0449 5a3b 98de 45bb
00000070: bb75 0d3b 6ee2 e3bb 1619 c7ba 6d5a 7b3b
00000080: 9221 3cbb 4641 36bc 4f24 0a3c 9bd2 363b
00000090: e3b4 afbb e4fd 553b c99a 813b 100e b13b
000000a0: 046a 333a 197c 733b 095f 2e3c 4b7e 933b
000000b0: 0a3d 25bb a08d edba 38f9 4e3a bc64 31bc
000000c0: 2f4b bc3b 50fd c33b 5b0f b73b 120e 873b
000000d0: 6680 553b 564e c93b 09a6 11bb f68c 373c
000000e0: d78f 0a3b fcc9 2c3c c210 22bb fc99 8b3a
000000f0: 0e87 88bb 8bd7 69bb 1cc1 c037 a15f 193b
00000100: 7785 6b3b 7492 473b 28ee 2e3c 0399 ab3b
00000110: 1ef2 1d3c 1184 b4bb a942 fc3a ce18 d73b
00000120: 986e 93ba 2e79 22bc 98b9 c1bb 04b4 deba
00000130: 150a 9f3b 1f0b 263c b057 69ba c993 25bb
00000140: ae02 1e3c 2542 9fbb 5bfb 1b38 ece6 d5bb
00000150: c30f 8fba cb33 2a3b ea00 b4bb fa4c 053c
00000160: c718 a53b ced7 19bb d5c3 213b 760e 06bc
00000170: d278 dc3b f81b 3dbc b403 25bc e116 bb39
00000180: 89f8 e6bb f9ef 5b3b 1349 643a e696 63bb
00000190: ba92 c039 aeb9 49ba c3ad 60bb 30a1 febb
000001a0: 8586 833c e680 1b3b a76a fbb9 4dc5 9fba
000001b0: f24c 293b cc5d 85bb bcb8 903b 7583 663c
000001c0: c214 973b 4074 15bc 2ee4 9cbb b464 c63b
000001d0: c712 a9bb a9e8 23ba 73aa 08bb dc35 4d3b
000001e0: 6853 113c 0c6f 293b 3faf 19bb f114 9b3a
000001f0: 2628 33ba dc89 93bb e25f 033b b5cc ac3b

bns.1.running_mean f4 [128]
0.0016707655 -0.09217797 0.07584747 0.08434303 0.07589672 -0.007994958 0.18275528 -0.07795773
-0.009971796 0.12084563 0.07606708 0.06300909 -0.054631136 0.00093850074 -0.017412964 -0.08169398
-0.0036719283 0.0060927398 0.1050972 0.059500698 0.023264488 0.119597904 -0.056501746 -0.038206134
0.066587746 -0.05229652 -0.04196223 -0.03082883 0.012935403 0.06970761 -0.06960771 -0.07148634
-0.10949465 0.03384318 0.18758406 0.015051541 0.009430887 -0.12700574 0.11095244 0.099417165
-0.06559689 0.06454672 0.066553086 -0.08422479 0.03628275 -0.08520015 -0.22683136 -0.06146989
-0.0001286066 0.088089585 -0.020725828 0.026356632 -0.054526206 0.022067614 0.11592347 0.09893222
-0.14614284 0.032906055 -0.025831513 -0.07867943 0.018909782 0.05663574 -0.06640726 0.016748017
-0.049282882 0.023370426 -0.016825471 0.023627471 0.058742184 0.047542654 0.11605176 0.016405148
-0.11950296 -0.054393046 0.011080269 0.05702609 0.00060274714 0.06226873 -0.046536222 -0.08555414
0.026309853 -0.026366293 -0.035022516 -0.08947065 -0.12702812 0.06033012 -0.0010289468 0.20676501
0.0052997903 -0.015394858 -0.04375308 -0.10961938 0.0046892865 -0.1656567 -0.045174047 0.16184966
0.021021556 -0.038804375 0.029693296 -0.016584566 -0.016134238 0.02284593 0.110277854 0.066452116
-0.0070844735 0.08213 -0.048454538 0.14271432 -0.055836927 -0.04456776 -0.0028550243 0.15000811
0.0044580423 -0.03606335 -0.078707255 0.15872589 -0.03649406 -0.08557342 0.157944 0.16023667
0.08129248 -0.014121534 0.08339674 -0.06278163 0.037459914 0.0141737675 -0.07101686 -0.029740753
00000000: 96fd da3a cec7 bcbd eb55 9b3d 0abc ac3d
00000010: bd6f 9b3d 49fd 02bc 3324 3b3e 4da8 9fbd
00000020: be60 23bc ea7d f73d 0fc9 9b3d e90a 813d
00000030: e6c4 5fbd b805 763a a2a5 8ebc 2c4f a7bd
00000040: bca4 70bb 9ba5 c73b 333d d73d 01b7 733d
00000050: 2b95 be3c bfef f43d 606e 67bd 097e 1cbd
00000060: 285f 883d e034 56bd 96e0 2bbd be8c fcbc
00000070: 03ef 533c ddc2 8e3d 7d8e 8ebd 6e67 92bd
00000080: bb3e e0bd 259f 0a3d 0916 403e bd9a 763c
00000090: 0284 1a3c cb0d 02be 083b e33d 3a9b cb3d
000000a0: aa57 86bd 1231 843d fc4c 883d 0c7e acbd
000000b0: 399d 143d 6b7d aebd 7b46 68be dac7 7bbd
000000c0: 92da 06b9 5068 b43d 36c9 a9bc dde9 d73c
000000d0: df56 5fbd 24c7 b43c 4969 ed3d fa9c ca3d
000000e0: 78a6 15be 80c8 063d 9c9c d3bc ae22 a1bd
000000f0: b0e8 9a3c e1fa 673d 8800 88bd 2333 893c
00000100: d9dc 49bd 5673 bf3c 92d5 89bc 668e c13c
00000110: a59b 703d 16bc 423d 8cac ed3d 1764 863c
00000120: f8bd f4bd 3ecb 5ebd 048a 353c 3094 693d
00000130: ad01 1e3a 7f0d 7f3d c49c 3ebd 0237 afbd
00000140: c387 d73c 20fe d7bc c573 0fbd 633c b7bd
00000150: a913 02be b71c 773d badd 86ba 35ba 533e
00000160: dda9 ad3b b73a 7cbc 6e36 33bd 2080 e0bd
00000170: 96a8 993b e9a1 29be 6c08 39bd ebbb 253e
00000180: 6635 ac3c 56f1 1ebd 5b3f f33c 5bdc 87bc
00000190: f32b 84bc 6327 bb3c 5bd9 e13d 0c18 883d
000001a0: df24 e8bb c633 a83d 4478 46bd b423 123e
000001b0: 43b5 64bd af8c 36bd 5c1b 3bbb ba9b 193e
000001c0: c514 923b 2ab7 13bd 4531 a1bd 0a89 223e
000001d0: cc7a 15bd 1e41 afbd 12bc 213e 1515 243e
000001e0: ac7c a63d 025e 67bc e9cb aa3d a893 80bd
000001f0: 916f 193d 1739 683c 4a71 91bd e1a2 f3bc

bns.1.running_var f4 [128]
0.0013159593 0.0014292767 0.0019350826 0.0014254381 0.0018475292 0.0015399745 0.002191719 0.0016106465
0.001199465 0.0015384007 0.0010234127 0.0015439402 0.0009993523 0.001201656 0.0015816104 0.0015057953
0.0013509102 0.0014640634 0.0018585646 0.0014995061 0.0012423947 0.0026115356 0.0015261765 0.0016564138
0.001268938 0.00144441 0.0013571852 0.0012107729 0.0016761664 0.0015117725 0.001363405 0.00169866
0.0016276864 0.0013080915 0.001668307 0.0011808203 0.0014626366 0.001686012 0.0011957381 0.0014783429
0.00125975 0.0020230848 0.0013901165 0.0010903309 0.0012491286 0.0015805163 0.0034625416 0.0018980207
0.0012695068 0.0018421903 0.0012783206 0.0014117105 0.0014638335 0.0011866057 0.002487802 0.002208704
0.0013104312 0.0017629536 0.0015530883 0.0016645831 0.0010966844 0.0019220647 0.001327501 0.001540696
0.001376112 0.0018707507 0.0014037727 0.0012900113 0.0013945475 0.001302505 0.0015042019 0.0016849029
0.0017318454 0.001402414 0.0015281243 0.0017290558 0.0013517437 0.0013968402 0.001485214 0.0018374486
0.0012804671 0.0014527326 0.0016673373 0.0016685262 0.0017831085 0.0015959676 0.001191033 0.0036465228
0.0012397071 0.001231577 0.0015509946 0.0020141483 0.0014138421 0.0014844779 0.0016181185 0.0016641247
0.0015669849 0.0011939573 0.0019760805 0.0012032073 0.0016389028 0.0012467392 0.0017471998 0.0016272462
0.0017867017 0.0014019627 0.0013071346 0.0017010826 0.0012698956 0.0013222211 0.0012613882 0.0022129554
0.0015461829 0.0012668633 0.0015706174 0.00212047 0.0016406124 0.0019291006 0.0016786405 0.0024004118
0.001639524 0.0012605658 0.0013809634 0.0016916048 0.0013778824 0.00159742 0.0016958064 0.0013056799
00000000: 447c ac3a 9156 bb3a 99a2 fd3a c4d5 ba3a
00000010: cb28 f23a f8d8 c93a f1a2 0f3b 541c d33a
00000020: 5e37 9d3a 29a4 c93a 0824 863a 095e ca3a
00000030: b3fc 823a e280 9d3a 0a4e cf3a 1b5e c53a
00000040: 0611 b13a d1e5 bf3a 149b f33a 138b c43a
00000050: d9d7 a23a 4c26 2b3b fc09 c83a 061c d93a
00000060: 7e52 a63a 5b52 bd3a 94e3 b13a ccb2 9e3a
00000070: d0b2 db3a ab26 c63a 48b4 b23a 92a5 de3a
00000080: 1858 d53a 4474 ab3a 18ab da3a c1c5 9a3a
00000090: f1b5 bf3a 2dfd dc3a 50ba 9c3a f5c4 c13a
000000a0: 321e a53a bb95 043b 9234 b63a 6fe9 8e3a
000000b0: cdb9 a33a 5429 cf3a cfeb 623b 02c7 f83a
000000c0: 9465 a63a a675 f13a 528d a73a 2509 b93a
000000d0: 1ade bf3a e187 9b3a 640a 233b e7bf 103b
000000e0: c6c2 ab3a e812 e73a ff90 cb3a 242e da3a
000000f0: 9fbe 8f3a caed fb3a 8bff ad3a 2ef1 c93a
00000100: a85e b43a fa33 f53a ccfe b73a 9915 a93a
00000110: 40c9 b63a d1b8 aa3a a428 c53a f6d7 dc3a
00000120: 17ff e23a 35d1 b73a 584b c83a 7ca1 e23a
00000130: fe2c b13a 2e16 b73a 83ab c23a 8bd6 f03a
00000140: 59d5 a73a 9e69 be3a 8e8a da3a 73b2 da3a
00000150: 31b7 e93a c92f d13a 701c 9c3a 80fa 6e3b
00000160: ab7d a23a de6c a13a be4a cb3a cdff 033b
00000170: ab50 b93a d092 c23a 0c17 d43a c21e da3a
00000180: 4a63 cd3a 8f7e 9c3a 2181 013b f0b4 9d3a
00000190: 74d0 d63a a069 a33a 4c02 e53a 5249 d53a
000001a0: c32f ea3a 10c2 b73a 2954 ab3a dcf6 de3a
000001b0: a072 a63a 614e ad3a 2a55 a53a 3b07 113b
000001c0: 4aa9 ca3a e10c a63a 2ddd cd3a 95f7 0a3b
000001d0: d109 d73a e0d9 fc3a d405 dc3a 3a50 1d3b
000001e0: 4ce5 d63a 9239 a53a 7101 b53a d7b8 dd3a
000001f0: 109a b43a 8560 d13a d245 de3a 5923 ab3a
