output/dmd/prev_e2v/run_002/prev_dmd_best_model_e2v.pth (torch, 207541 bytes, 14 tensors)

convs.0.lin_l.weight f4 [256, 32]
00000000: ea88 c23d 540f 013e 08fe 303e 05e2 57bc
00000010: 578d a03d 8aa4 043e be6b 25be 9911 bbbd
00000020: 064f fbbc e227 cbbd 0749 95bd 75e1 d4bd
00000030: 9257 f23c e681 6c3d d41b bf3d 2f6f c73c
00000040: a4ec 1ebe be9b 0cbe 3cb6 41bd e34f 9d3d
00000050: e2da 953d 3e7d e03c da9f e8bd ef9a bf3d
00000060: 4647 503c 1257 d73d 51ad 253e cc5c 9d3d
00000070: 659c ee3d 94ab 293e 5b36 87bd 4a13 41bd
00000080: b069 8bbd 05fc 273d 7a34 233e 3732 23bd
00000090: 88f7 973d 7149 093e 0924 033d a289 9f3d
000000a0: 5ac2 843d 7b12 bdbc 7db4 a23d 22c6 433d
000000b0: c385 203e 1a9a 173e 442b 083e 69ed b0bd
000000c0: c5e2 023e 4b2a 533d 2cf5 103e 83bc b7bd
000000d0: df4e adbd c3fe 153e 9ab9 093d 87d1 9cbd
000000e0: 880a 1f3e 30dc 9bbd fc3b 893d ea4a 2e3e
000000f0: 98fa b7bc d306 3abd 42a2 b9bd c872 5b3d
00000100: 1fe4 ba3c f23e cfbd 5682 aebd 0cf7 223e
00000110: ce45 2f3e aed1 573d d251 d2bd bd20 213e
00000120: 0e64 a8bd b75d 18be ed44 40bd a6bd 92bd
00000130: 25fb fbbd e4f9 013d 6660 ddbd c0c0 bcbd
00000140: ff30 b2bd 445f e1bc 23b4 11be eeed aa3d
00000150: 2560 0a3e 544e 4fbd 951f d9bd 2c8a 8dbc
00000160: 617a 113e 7e4b 0dbe 2545 b03d 5bfc 833d
00000170: fab4 77bd 4b8e d53d e01a be3c ef02 053e
00000180: 83f3 c2bd 5182 b5bd 1ff7 2fbe 480f 843d
00000190: 23a8 033e ba96 a0bd 3bbd 8b3d 0b2c f3bd
000001a0: 89bb 963c c375 8b3c 850b 143e 0079 d93d
000001b0: 2d9c 243e 4cef 88bc 2e09 453c 97ad 1d3e
000001c0: c7a0 29be 7ee6 afbd 82b6 3d3e 08bf 39be
000001d0: aa96 f4bc 8882 883c 1590 4dbd 3420 ce3d
000001e0: b91c 03bd f903 99bb be50 9bbd 5a9d aabd
000001f0: 770e 20bc b7b4 9d3d 3f75 48bc bbcb cabd
00000200: 512e 163e 6052 553c f4d4 d7bd e7c8 6b3d
00000210: ee14 dbbd 677a b4bd 389f d5bc 1fb0 3f3d
00000220: c5ca 763d 5da8 143e d573 d03c b2e6 b4bd
00000230: 9135 c23d 10ca dd3b 2331 e73d 42bd f7bd
00000240: b83e 923d 5f17 283e 38a2 03bd 6cea cd3d
00000250: 75f9 21bb 4466 cebd 22c8 183e 29fd 9ebc
00000260: 9710 3d3d 5106 01be 9dba 103e 18cb c0bd
00000270: c3b7 2a3e 102d f7bd c5f3 013e 7efa 2fbd
00000280: bb57 ab3d 41bc a3bd 918a 3dbc bf0d 21be
00000290: 4a9f 163e 9ca1 ddbd 23c9 2d3e 1d1b 7ebc
000002a0: 5c34 ba3d beb1 debd 45e0 8b3d 1d0a b7bc
000002b0: 5b05 243e 51a2 583d c6e9 1bbc 38e8 54bb
000002c0: 8a0d a8bd d947 15be a7a5 83bd c611 17be
000002d0: 3699 ae3d 62ef f3bb 64dd aa3d 84f2 88bd
000002e0: 2eea 083e 8063 453d 453d e8bc 1475 cc3b
000002f0: e75d 22bb 126a ef3d 4f08 123e cedf fd3a
00000300: 1d95 293d ea86 483d ea68 15be 289e 4f3b
00000310: e688 e4bd 852d 5fbd 47b9 69bd 6286 88bc
00000320: d8cb 853d 38c9 2f3e fa1a f33c 07e2 333d
00000330: 296f 64bc ba36 1ebe a5e7 12be 681c 31be
00000340: e369 cc3b c9dd 2d3e a399 14be 6c16 35bd
00000350: bc82 dabc b89b 00bd 1b54 693b bee7 2e3d
00000360: 2694 19be b59f fbbd 0209 b5bd 53c8 c53d
00000370: 5533 3dbc 0a88 bbbb f770 bc3d a307 86bc
00000380: f606 ae3d b331 783d bc0a 2a3d 66f3 a5bd
00000390: dbee e53d bae8 263d eaca eb3d 6f1c 2c3e
000003a0: 704f 03bd 0342 c9bd c7e3 fc3d 071b 353e
000003b0: 7c80 a5bc 1be3 bf3d 58d1 f93c 57ba 0abc
000003c0: 1005 5ebd 7df6 c5bd 636f 833c 7eb7 eebc
000003d0: 3ab9 233e a700 e1bd 5cc0 fb3d 74be ccbd
000003e0: 237c 193e 556f 593d fda8 e6bd 79ec 173e
000003f0: 01c1 88bd b83f 2bbe 3e50 3bbd 6992 17be
0.094987705 0.12603503 0.17284405 -0.013176446 0.078394584 0.12953392 -0.16154382 -0.09134216
-0.03067733 -0.099197164 -0.072893195 -0.10394565 0.029582772 0.05774107 0.0933148 0.024345009
-0.15519959 -0.13731286 -0.047292933 0.07681253 0.07317139 0.02740347 -0.11358614 0.09355723
0.012712305 0.10514654 0.16179396 0.07683715 0.11650924 0.16569358 -0.06602164 -0.047137536
-0.06807268 0.04101183 0.15937987 -0.03984281 0.0742026 0.13406922 0.032016788 0.07789923
0.06482382 -0.023080101 0.07944582 0.047796376 0.15676026 0.14804879 0.13297755 -0.086390324
0.12781818 0.051554006 0.14156026 -0.08971503 -0.08462309 0.14647965 0.03362427 -0.07657152
0.15531361 -0.07610357 0.06700894 0.17020765 -0.02245836 -0.045416664 -0.09064151 0.05357626
0.022813855 -0.10119428 -0.08520953 0.15914553 0.17116472 0.0526902 -0.10269512 0.15735145
-0.08222209 -0.148795 -0.046940733 -0.07165079 -0.123037614 0.031732455 -0.10809402 -0.09216452
-0.087007515 -0.027511247 -0.14228873 0.08346163 0.13513239 -0.05061181 -0.10601727 -0.0172778
0.1420684 -0.13798329 0.08606938 0.06444617 -0.060475327 0.10427531 0.023206174 0.129894
-0.095191024 -0.088627465 -0.17184113 0.06448227 0.12857108 -0.07841249 0.06823202 -0.11873635
0.01839997 0.017023927 0.1445752 0.10618782 0.16075201 -0.016715668 0.012026114 0.1539825
-0.16565238 -0.08588885 0.18526652 -0.18139279 -0.029856998 0.016663805 -0.050186235 0.10064736
-0.032009814 -0.004669663 -0.0758376 -0.08330794 -0.009769074 0.07700484 -0.012234985 -0.0990214
0.14666106 0.013020128 -0.105386645 0.057564642 -0.106973514 -0.08812409 -0.026076898 0.04679882
0.06025197 0.1451735 0.025445858 -0.08833064 0.09482873 0.0067684725 0.11288669 -0.12096645
0.07140869 0.16415165 -0.032137126 0.10054478 -0.0024715338 -0.10078099 0.14920095 -0.019407826
0.0461584 -0.12600066 0.14133687 -0.09413737 0.16671662 -0.12069142 0.12690647 -0.042963497
0.08366343 -0.07994891 -0.011568681 -0.157279 0.14709201 -0.1082184 0.16971259 -0.015509394
0.09092018 -0.108737454 0.068298854 -0.02234369 0.16017668 0.052889172 -0.009516185 -0.0032487046
-0.08205707 -0.14578189 -0.0642808 -0.14752874 0.085253164 -0.007444308 0.08343008 -0.06686881
0.13370582 0.048190594 -0.028349528 0.0062395427 -0.0024775208 0.11690153 0.14260982 0.0019369067
0.04140197 0.04895679 -0.14590803 0.0031679962 -0.11158924 -0.05448677 -0.05706146 -0.016665641
0.06533021 0.17166603 0.02967595 0.04391673 -0.013942518 -0.15450564 -0.14346178 -0.17295992
0.0062382086 0.16979136 -0.14511733 -0.044210836 -0.026673667 -0.031398505 0.003560311 0.042701475
-0.1499792 -0.12286321 -0.08839609 0.096573494 -0.011547883 -0.005723004 0.09201234 -0.016361063
0.084974214 0.060594272 0.041514143 -0.08103065 0.11227199 0.04074929 0.11513312 0.16807722
-0.03205818 -0.09827044 0.123481326 0.17686091 -0.020202868 0.09369489 0.03049533 -0.008467278
-0.054204047 -0.096661545 0.016044324 -0.02914023 0.15988627 -0.109864525 0.12292549 -0.099972636
0.1498876 0.05308469 -0.11262701 0.14836301 -0.066774376 -0.16723526 -0.04573082 -0.14801945

convs.0.lin_l.bias f4 [256]
00000000: 4f0a 053e 0790 8bbd 27b3 c53d 966e 173e
00000010: 1395 303e 1753 11be 8cf9 2ebe 556d 1cbe
00000020: 7b13 173e 1e83 233e 31ee 1b3e 97f1 2abe
00000030: 0536 173e 95cb d23d bc54 213e 0599 143e
00000040: ed01 853d 69c3 15be c918 fe3d d23c 173d
00000050: 8edd c33d 9a20 ac3c c083 0fbe 3871 c13d
00000060: c488 0dbd b1c6 e03d 2211 fe3c dca4 e9bd
00000070: 9472 c7bd f5cf 793d b024 a7bd 3652 09be
00000080: ba33 0dbe f2e9 0dbe 0cfc 14be c532 013e
00000090: eb77 05be 5127 fd3c 5623 3d3e 21d5 d9bd
000000a0: d992 08be 115f 543d 6f10 2c3e 9c51 67bb
000000b0: ce67 9c3d a6b2 9abd f001 20be 0338 54bd
000000c0: 3450 c6bd fdab 46bd 87a5 073e f0f0 d1bd
000000d0: ab3a f03c ff26 e43d 97a8 413d 0d74 cc3b
000000e0: bc8d adbd e20e 2dbd cce0 d9bd ad15 b2bc
000000f0: bc73 00be f2d3 dbbd cf0b 4e3c a973 98bd
00000100: 2920 05be a64c c83d 5ab1 aebd 0a35 803d
00000110: e795 06be a1bc fa3c 854c febd 4da5 d2bd
00000120: 3a7d da3a 8b6f 10bd d43e ac3d 9800 6b3d
00000130: 49df b8ba 10b0 073e d3ca e3bd 57ca 2c3e
00000140: aa6f 523c 4ed3 ed3d c404 03bd 9b2c 6b3d
00000150: a49e 863d 9ef8 65bd 7088 24bd 049e 223d
00000160: 099a 11be 1781 b53d 5b68 efbb 5271 1ebe
00000170: 9daf 93bd 6fbc 0dbe b98f 963b d8fb babd
00000180: a911 63bd 1f62 12bd 78a0 8bbd f6be 14ba
00000190: 5b71 15ba ec0d 333e 0e7c 1fbe df28 723b
000001a0: 8b36 903b 667f e13d 0efb 053e 6e02 68bd
000001b0: c3a2 02be a811 afbd f7ea 97bc 1a8d bfbb
000001c0: 4501 4c3d e6ba 953c d214 f83d 1dcc 0fbe
000001d0: eb60 ac3c 20ef 213e 854b 0ebe 71ab f0bd
000001e0: b5af 0ebe 7885 27be f40c 243d 45f2 04be
000001f0: 7671 503d cb19 8f3d 8f3e ecbd d908 d33d
00000200: ac04 a53c 8f47 b63c a168 cebb 958c 4e3c
00000210: e7b4 013e f133 2abe 7301 ef3d aa29 bbb8
00000220: 3365 a23c da43 0bbe 5080 d53a d3db 09be
00000230: a446 fa3d f70c a73c 9717 e83b ea51 89bd
00000240: 5fc3 e13c 6598 f33d 73d1 9abc 20cf c03d
00000250: 1989 8e3d 6bf7 bdbd 6c75 08bd 0428 c3bd
00000260: c330 533c 117f d13d 15fd 033e 2354 663d
00000270: fec1 273e b512 c9bd 5aae 3abd ef88 e23d
00000280: 8745 223e 63d3 203e 5c7b a3bd 4165 b3bc
00000290: 49da 91bd 3205 a2bd 3876 283e 3d26 0a3e
000002a0: 3da1 2d3e 92cb 343e b809 1b3e 6d84 913d
000002b0: ea15 973c f6cd ddbb 26a6 1ebe 7ac0 90bd
000002c0: 4d3a 6c3a f330 2f3d 555b 6d3d 0939 01bd
000002d0: 3a0d f8bc 90f2 693d c4a1 d43d 04be 193d
000002e0: 46e7 54bc 3ecd 0f3e 4c8d 9ebc 0f04 21be
000002f0: 4296 243e abdc e43c 6ca8 083e a6a4 9dbc
00000300: 3baa cabd a3a4 623d 361c 24be f553 18be
00000310: b6ff 993d 7031 9a3d 2fb5 2ebd edac d1bd
00000320: 6207 043e 7bf0 30bd 0045 babc 2145 303e
00000330: 111c c2bd e1cf 0dbe 2901 19be 3319 22bd
00000340: c125 e33d f823 063e 51be 723d 7dae 063e
00000350: 4e56 013d 6dcc 11be 1734 9f3d bce0 8fbb
00000360: 6025 e7bd 57d9 05be 2d63 9cbd 609e 89bd
00000370: 11bc b4bd 0db1 bf3c 06e6 18be 0ebc e83d
00000380: 6640 3c3d cdfa dc3d 9528 4f3e 26d1 983d
00000390: f959 f2bd 50a9 e33b 2875 82bd 800b b9bd
000003a0: 2bd5 e03d c83d 8dbb 1ae9 bd3d 0844 a7bd
000003b0: 3f4d 733d 3476 a83d 42f9 0fbe e128 843d
000003c0: 0b7f 293e e9e8 943d 2418 b8bd b1ed 40bd
000003d0: efb3 d53b accd c9bd 1c72 8dbc 8192 ef3d
000003e0: c3a7 bc3d 569e 583d 23ad 93bd 06d1 da3c
000003f0: 5275 4e3d f5c8 fc3d a1fb d2bb cb10 19be
0.12992214 -0.068145804 0.09653311 0.14788279 0.17244367 -0.14191853 -0.17087382 -0.15276082
0.14753525 0.15967986 0.15227582 -0.16693722 0.147667 0.102927364 0.1575498 0.14511497
0.06494508 -0.14625324 0.12407071 0.036923237 0.095637426 0.02101164 -0.14015102 0.09445423
-0.034554258 0.109753974 0.031014029 -0.114083976 -0.09738651 0.06098934 -0.081612945 -0.13410267
-0.13789263 -0.13858774 -0.14549273 0.12617023 -0.13034026 0.030902537 0.18470511 -0.10636354
-0.13337268 0.051848475 0.16803144 -0.0035296446 0.07636987 -0.07553606 -0.15625739 -0.05181123
-0.09683266 -0.048503865 0.13246737 -0.10251033 0.02932485 0.111402504 0.04727992 0.0062394203
-0.08474299 -0.04225052 -0.1063858 -0.021738851 -0.12544149 -0.10733785 0.012576058 -0.074439354
-0.1300055 0.097802445 -0.08529921 0.062601164 -0.1314312 0.030607523 -0.12416939 -0.10285435
0.00166694 -0.035262626 0.08410421 0.057373613 -0.001410463 0.13250756 -0.1112267 0.16874062
0.012844006 0.11612569 -0.031986967 0.057415586 0.06573227 -0.056145303 -0.04016918 0.039701477
-0.14218916 0.088625126 -0.0073061413 -0.15472916 -0.0721123 -0.13841413 0.00459477 -0.09130067
-0.055436764 -0.035738107 -0.06817716 -0.00056742074 -0.000570079 0.1748578 -0.15574667 0.003695063
0.0044010333 0.110106274 0.13084051 -0.056642942 -0.12757401 -0.085482895 -0.018544657 -0.005845678
0.0498059 0.018277597 0.12113346 -0.14042707 0.021042308 0.15813875 -0.13895996 -0.1175145
-0.13934214 -0.16359508 0.040051416 -0.12983043 0.050889455 0.069873415 -0.115353696 0.10304422
0.02014383 0.022250919 -0.006299094 0.01260676 0.12666665 -0.16621377 0.11670198 -8.9246154e-05
0.019823646 -0.13600102 0.001628885 -0.13462763 0.12220505 0.020391924 0.0070828903 -0.06705077
0.02755898 0.11894301 -0.018898701 0.09414506 0.06959743 -0.09275707 -0.033315107 -0.09529117
0.012890044 0.10229314 0.12889512 0.056232583 0.16382596 -0.09818021 -0.04557643 0.11061274
0.15846835 0.15705638 -0.07982513 -0.021898868 -0.07121713 -0.07911147 0.16451347 0.13491149
0.16956039 0.17655781 0.15140426 0.07105336 0.018443067 -0.006768937 -0.15493068 -0.07067962
0.0009011373 0.04277129 0.05794843 -0.031548534 -0.030279744 0.05711609 0.10382417 0.03753473
-0.012994593 0.14043137 -0.019354485 -0.15724204 0.16072944 0.027937254 0.13345498 -0.01924355
-0.0989575 0.05533279 -0.16026387 -0.14875777 0.07519476 0.07528961 -0.04265326 -0.10238061
0.12893441 -0.04319809 -0.02273798 0.1721387 -0.094780095 -0.13848831 -0.14941849 -0.039574813
0.11091185 0.13099658 0.05926353 0.131525 0.031576447 -0.14238138 0.07773607 -0.004390804
-0.112864256 -0.1307119 -0.07636104 -0.06719661 -0.08824933 0.023399854 -0.14931497 0.113639936
0.045959853 0.10790024 0.20230325 0.07461767 -0.11833567 0.006947674 -0.06370002 -0.090353966
0.109781586 -0.0043103434 0.09272976 -0.08167273 0.05939984 0.082256705 -0.14059928 0.064531095
0.1655237 0.072709866 -0.089889795 -0.04710168 0.006521694 -0.09853682 -0.017266326 0.11697865
0.092116855 0.052885376 -0.072107576 0.026710998 0.050404854 0.12343017 -0.006438688 -0.14947812

convs.0.lin_r.weight f4 [256, 32]
00000000: f4e5 f73d 6c95 043e d72b 193c ec81 4ebd
00000010: be49 893d 14bf e8bd c5a1 103e 447a e53c
00000020: 5bb9 a63d b51a 0abe 4bd9 163e dbf3 e8bd
00000030: 7158 78bd 33af dfbd 40ed 1d3e f36c ac3c
00000040: de95 a6bd 273f 0abe e44b d33d 859b bebc
00000050: 5aa2 16bc f7c4 283e bc0a f83d 7ffe d7bd
00000060: 0a94 0dbe 2936 a7bd c2ba 89bd 5917 0cbe
00000070: 4a12 1f3e 5e2b 4e3d 99f9 633d bee4 0abe
00000080: 95b0 fa3c 0153 bebc 013e 203e 98e9 13be
00000090: 6d14 bbbd a524 a43d 3b4e 833d e5b7 033e
000000a0: 0244 5abd 3170 1f3d 5678 dc3d ed77 e43d
000000b0: 85f9 df3b 5985 3cbd ea90 1abd 090a 12bd
000000c0: 286b c03d 9f5c 93bd 9ed6 193d 820d 30bb
000000d0: 9f27 bf3d d96e 173e aaf9 7abd 1ac4 2b3d
000000e0: 5ece b93c 2550 423e 8564 12be f18f b4bd
000000f0: e396 d2bd 82e3 a1bc d895 09be 1400 59bd
00000100: 0650 9c3d 02d8 173e a520 1abe 2045 d5bd
00000110: f141 11bd 4843 d63d bb02 50bc bc73 95bd
00000120: ee83 0e3e 5357 07bd 9cb3 033e 641e 6c3d
00000130: 2731 2ebd fd88 20bd 5bb6 ecbd 9ad8 c13d
00000140: e069 873d ce2c e3bd a716 103e c312 a43c
00000150: 44d1 2c3e cac4 d3bd d77c 3cbd 09a8 d83d
00000160: bdfc 06bd 5a94 163d 832c 95bd 29a1 6bbd
00000170: 03de 213e 1dc3 5ebd ee2c b5bd cf1b 7fbc
00000180: cadb 263d e130 8f3d 229e d2bd 6ae3 fdbd
00000190: 0005 70bd a1bb c1bc 915a 8d3d b353 c43d
000001a0: 20ed cdbd f964 393c 7c94 e53d abfd aebc
000001b0: 8581 a63d 760e 44bd 94a1 713d 9495 6abc
000001c0: ba00 bb3a 0b6c ae3c 7132 0e3e 0f60 a93d
000001d0: 2100 bdbd 88e6 aabc ffdf b3bd b1c0 3fbd
000001e0: 7e66 70bd 5013 25bd 36ea b63d 9305 2bbe
000001f0: 88fc 73bc 36a5 863d ebfc 3e3c c0f9 d9bd
00000200: c8b5 993d 7510 383c 92df fcbd 273a 223e
00000210: b628 eabc 3420 693d 8010 c2bd 5fba 10be
00000220: 6be0 2e3d 3a92 113e 0196 8cbd 52e7 383d
00000230: ba8a 963c 6074 de3d a43d 683d 18b8 243e
00000240: 2482 0ebe d841 1abe 1669 2e3d f00c b73d
00000250: e0e0 c13d 9b06 313c 0bb7 9fbd e3b0 10be
00000260: 4fe6 45bd 2773 65bb 283d 6fbd e944 9c3d
00000270: bef6 003d aee1 acbd 0fa5 eebd 35c3 23be
00000280: ec5f cb3d cb83 db3d 9a6e c43d f1c0 c9bd
00000290: 328c 663d 8b4c 243d 6dfa 363e fb37 8a3d
000002a0: fc78 a9bb f132 143a b29b 703d a277 0e3d
000002b0: 5239 2abd 59e2 a43d c9d3 20be 26d9 8ebd
000002c0: f218 9a3d 241d e2bd 25c3 8f3d 0ee8 49bb
000002d0: 87a7 383e bb2f 97bd eb8d 99bd 1fc6 08be
000002e0: ad1d 53bd d6b2 d13d 5b4b 20be 1137 1bbd
000002f0: 0258 0fbe 7faa cc3d ac49 063d 757a 533d
00000300: c9ae 263e f448 2b3e 87fa adbc 4524 b9bd
00000310: d192 9a3d 2f48 473d 68ac 9ebc f9ba e9bc
00000320: d717 26be db6a b3bd 669a 613d 6047 1dbe
00000330: 5163 e43d 2c6c 6dbd c4bf 083e 2fbb 05be
00000340: 9587 1dbe a75c fcbd 936c 1dbe 5bdf 19be
00000350: 547d bc3d 38ab 21bc 4c75 3d3c 56e9 62bd
00000360: ec15 a93d 52d3 40bd 687e 37bd 340a 3f3d
00000370: 261c babc 950c 9c3d ceee 00be 4a15 34bd
00000380: b1a9 803d 7f52 dbbd a716 adbd c149 efbc
00000390: c57e c0bd 94c4 823d 99bf d3bc 4b29 a03d
000003a0: 7940 77bd 77bf 223e 29ec 24be f586 1c3e
000003b0: 19e1 8ab9 a088 f83d d4e4 abbd b224 be3d
000003c0: d650 003e 1202 10be 1bfc 19be cbfc a53b
000003d0: eb42 76bd ad19 ea3d 95b4 b23c c8d6 bbbd
000003e0: a4a9 69bd bdb1 273d da1d fcbd 4763 2e3e
000003f0: fdeb 093d 7679 91bc bf50 80bb 525d 0cbe
0.12104407 0.12947625 0.009348831 -0.050416872 0.06703518 -0.1136457 0.1412421 0.028012402
0.081408225 -0.1348675 0.14731328 -0.11374637 -0.06063122 -0.109220885 0.15422535 0.021048045
-0.08134054 -0.13500653 0.10317209 -0.023267517 -0.009193981 0.16481386 0.121114224 -0.10546588
-0.13826004 -0.08164627 -0.06725074 -0.13680781 0.1553432 0.050334327 0.055657957 -0.1356382
0.030601779 -0.023232939 0.15648653 -0.14444578 -0.09134755 0.08014802 0.06411406 0.12863119
-0.053287514 0.038925353 0.1076514 0.111556865 0.006835165 -0.046025608 -0.037735857 -0.0356541
0.093954384 -0.071954004 0.03755819 -0.002686352 0.09333729 0.14788379 -0.061273254 0.041935064
0.022681411 0.18975885 -0.14296158 -0.08816517 -0.102826856 -0.019761804 -0.13436067 -0.05297859
0.07632451 0.14828494 -0.15051515 -0.10413575 -0.035463277 0.10462052 -0.0126959635 -0.07297465
0.13917515 -0.033042263 0.12861484 0.05764617 -0.042527344 -0.039193142 -0.11558219 0.094651416
0.06611991 -0.1109253 0.14071141 0.020028478 0.16876704 -0.10340269 -0.046017494 0.10578925
-0.032955874 0.036762573 -0.072838806 -0.05752674 0.15807347 -0.054385293 -0.0884646 -0.015570595
0.04073695 0.06991745 -0.10284068 -0.123968914 -0.05859852 -0.023649039 0.0690204 0.09586277
-0.10054994 0.011315578 0.11209962 -0.021361193 0.08130173 -0.047865354 0.058991984 -0.014317889
0.0014267184 0.021291753 0.1388643 0.08270275 -0.0922854 -0.020861879 -0.08782958 -0.046814624
-0.058691494 -0.04030162 0.08931391 -0.16701345 -0.014891751 0.0657448 0.01165698 -0.10643339
0.07505375 0.011234392 -0.1234733 0.15842496 -0.028583866 0.056915477 -0.094758034 -0.14133595
0.04269449 0.14215937 -0.068645485 0.04514248 0.018376697 0.108620405 0.05669941 0.16085851
-0.13916832 -0.1506418 0.042580687 0.089380145 0.094667196 0.0108047975 -0.077985846 -0.14129977
-0.048315343 -0.0035011263 -0.058407933 0.07630331 0.03148531 -0.084414825 -0.11652576 -0.15992434
0.09930405 0.10718497 0.09591408 -0.09851254 0.056286044 0.04011206 0.17868967 0.06748959
-0.005171893 0.0005653343 0.058742233 0.03478206 -0.04155857 0.08050985 -0.1570579 -0.069750115
0.07524289 -0.110407144 0.07019643 -0.0030808481 0.18032657 -0.07382151 -0.07497772 -0.13356827
-0.051541973 0.102391884 -0.15653746 -0.037894312 -0.13998416 0.09993457 0.032785103 0.051630456
0.16277613 0.16727048 -0.021237625 -0.09040121 0.07547534 0.048652824 -0.01936932 -0.028531538
-0.16220032 -0.087606154 0.055078886 -0.15359259 0.111517556 -0.05796449 0.13354403 -0.13059686
-0.15383752 -0.123223595 -0.15373449 -0.1502661 0.09203592 -0.009867482 0.01156361 -0.055398308
0.082561344 -0.04707653 -0.044798285 0.04664059 -0.0227185 0.07619587 -0.12591097 -0.043965615
0.06282366 -0.10709094 -0.08451586 -0.029209973 -0.09399179 0.063851506 -0.025848197 0.07820376
-0.06036422 0.1589335 -0.16105713 0.15285857 -0.00026489122 0.12135434 -0.08393255 0.09284343
0.12530836 -0.1406329 -0.15037577 0.0050655357 -0.06012241 0.114306785 0.021814624 -0.09171826
-0.057046548 0.04094099 -0.12310381 0.17030059 0.03367232 -0.017758112 -0.0039158757 -0.13707474

convs.1.lin_l.weight f4 [64, 256]
00000000: c523 79bd 9560 4dbc dd13 5d3c ae7d c13c
00000010: 0bc9 08bd 7ab7 983d 9ed4 133d 92a6 1e3d
00000020: 40e2 87bb c3b3 d0bc fa28 18bd 9466 f2bb
00000030: 11df 833d 8fb6 e03c 6b9b 51bd e102 1abd
00000040: a72f 9c3c 3e9f 603d 3589 5c3d a12d 43bc
00000050: 6749 b73c 3582 5b3d 4b9f 01bd e8f7 823d
00000060: 5371 283d 07af 1a3d eaff 223b 0d33 533d
00000070: c69b 853d e11a 0bbd 755b a7bc d41f 7c3d
00000080: 34d0 81bd 574f 61bd 71a6 c3bc f680 28bd
00000090: 84e2 293c d8f8 45bd 7afe 01bd 912b 3dbd
000000a0: e62f 523c 6d80 293d af8f 98bd eaa1 4a3d
000000b0: 3fdd 1dbc 3bdd d3bb 6966 e93c a58a db3c
000000c0: 0644 fc3c 0319 1a3d fe87 1cbd b528 f53d
000000d0: d60d 9bbc e82c 72bd 4732 673d eb87 b63c
000000e0: b27b 8dbb 318d 0dba 0eb1 2b3c 9d93 80bd
000000f0: eb05 8b3d 0188 55bc bd13 423d 01cd 433d
00000100: 8b72 3a3d ab6d 7a3d aeca 9dbd 594c af3c
00000110: 26af 523d 7d1b 20bc 0b0b 853d 641c 05bc
00000120: ed84 b63c 398e 18bd 6fde 54bc 84a2 c2bc
00000130: 95fd 62bc 0289 29bd f74d e1ba 048c c53d
00000140: b8bf cf3c 0c7c 98bc cb61 22bd b75e 0a3d
00000150: 60aa f1bc 52f8 243d 5763 21bd ba5e 34bd
00000160: 8c66 35bd bb3e 8fbc 6f1a 01bc cd50 19bd
00000170: 0649 603d 1cb7 82bd 691c 8a3c 02d0 ccbc
00000180: 56e6 43bd a7ec 9f3d 07f8 cfbc bbca 973c
00000190: 8a29 c5ba b790 16bc dcdc 2fbd 5a9e 493d
000001a0: 72b6 1abd fe1f 0fbb fdd7 213d fd17 02bc
000001b0: 71e5 c53b cd48 803c 291b 64bc 87c7 fb3b
000001c0: 06eb 36ba 89bc a33c eb39 f7bc 58b9 02bd
000001d0: ce43 a6bc 75be 38bc 3c87 74bd 1ac1 2f3d
000001e0: 6f24 403b b506 843d 7a64 393c bd60 41bc
000001f0: f326 113d 6da0 243d 50a6 593a 84a0 0d3d
00000200: 96cd 463d fa32 193d fec1 18bc 7644 f43b
00000210: 0ce7 b7bc c6a8 ff3c 1a7d c2bc 746b 5f3d
00000220: 559d 72bc 4019 05bd f2c9 7cbb 11fe 23bc
00000230: 629c 373d 2afd b5bc b303 0e3d 3b6a 793b
00000240: 75e8 c1bc e2cd d0bc 07af 0cbd 8ccd 093d
00000250: 6c89 c1bc 7626 9b3a 34eb e8bc 5c89 e23a
00000260: b329 c8bc 69b7 47bd 5255 41bc 04e5 3bbd
00000270: 7c8a 0b3d db1a 953d 8b37 263d 39e1 41bc
00000280: 5e68 0e3c ab04 813d f446 003e 1eb2 23bc
00000290: cdf6 b93d fb71 97bc 13e2 973d e35f 7abc
000002a0: 72e6 3e3d a2dd 79bd 7732 453d 11c4 313d
000002b0: 1c01 fabc 2350 48bc 9248 d4bb e058 413d
000002c0: d9e7 5e3d 4392 803c 002c 27bd c5a6 dc3b
000002d0: 32e3 be3c ef94 263d 8492 59bd 95e8 933d
000002e0: 929e 87bc 429d 50bc 321d 5abd 79d5 a33c
000002f0: df55 b8ba 31ef 1e3d 01f9 64bd e9ac c5bc
00000300: eb1a 0ebd 0ce2 c2bc daa2 fa3c f19f 8d3d
00000310: 92e2 5bbd 4e21 453c 1024 123d f58e 03bd
00000320: 30d9 09bd 76dd 5c3d 1238 56bd ade9 f43b
00000330: 6e41 383c 2aaf 433d eef2 bd3d 529e f6bc
00000340: 261e 5fbd db95 02bd b0c5 fc3c e51d 7e3d
00000350: 4841 55bd a27f 21bd 4cea 5ebd be7c c8ba
00000360: 91b4 77bc 8391 963d 5dce b93c d87a ba3c
00000370: df55 a73c a5d8 53bd c0d9 17bc a07c 993d
00000380: 3e73 683d 330f 8f3d e6a1 213c 239c 803d
00000390: 86de b4bc 0bfe f63c a7fa 773d fcf0 27ba
000003a0: 0a17 4dbd 04b7 d03c 66fe aabc c004 d73c
000003b0: 46a7 2ebc 664d 323d f6ac 81bc f0a5 84bd
000003c0: 5e77 f73c 1e84 03bd 7827 193d e791 17bc
000003d0: fb3a 4abd 5be0 133d 1977 d8bc 126d 873d
000003e0: 744b 55ba b555 093b 3265 8ebc 1bbb fd3c
000003f0: 44eb 8f3d 39e8 983d ef2e e1bb 24f5 253d
-0.060825128 -0.012535234 0.013493505 0.023619499 -0.033394855 0.074568704 0.03609144 0.038733073
-0.004146844 -0.025476342 -0.037148453 -0.007397482 0.06439031 0.0274308 -0.05117361 -0.0376004
0.019065691 0.054839365 0.05384179 -0.011912734 0.022373868 0.053590972 -0.031646054 0.063949406
0.0411237 0.037764575 0.0024871775 0.051562358 0.06523852 -0.03396118 -0.020429352 0.06155379
-0.0633854 -0.055007305 -0.023883076 -0.04113861 0.010368947 -0.04833302 -0.03173683 -0.046184126
0.012828803 0.041382242 -0.074492805 0.04947082 -0.009635269 -0.0064655817 0.028491216 0.02679951
0.030794155 0.03762151 -0.03821563 0.11970655 -0.018927496 -0.059124857 0.056444433 0.022281608
-0.004317724 -0.00053997623 0.010479225 -0.06278155 0.06788238 -0.013032914 0.047382105 0.04780293
0.045519393 0.061139744 -0.07704674 0.02139871 0.051436566 -0.009772179 0.06496247 -0.008124445
0.02228018 -0.03724501 -0.012992485 -0.023759134 -0.013854404 -0.041390426 -0.0017189373 0.096458465
0.025359973 -0.018613838 -0.039644044 0.033781733 -0.029500186 0.04027588 -0.03940138 -0.04403565
-0.04428725 -0.017485967 -0.007879837 -0.037430573 0.05475714 -0.063825816 0.01685925 -0.02500153
-0.047827087 0.0780881 -0.025386823 0.018529287 -0.0015042287 -0.009189776 -0.042935237 0.04922328
-0.03777165 -0.0021839137 0.039512623 -0.00794029 0.0060393144 0.015659714 -0.013922491 0.0076836976
-0.000697777 0.019987362 -0.030178985 -0.03191504 -0.020296004 -0.011275877 -0.059699282 0.042908765
0.002931859 0.06446592 0.011315459 -0.011802849 0.035437535 0.040192056 0.00083026756 0.034576908
0.048535906 0.03740213 -0.009323595 0.0074544502 -0.022449039 0.031208407 -0.023741294 0.054545835
-0.014808019 -0.032494783 -0.0038572517 -0.010009305 0.044826873 -0.022215445 0.034671497 0.0038057703
-0.023670414 -0.025488798 -0.034346607 0.03364329 -0.023625098 0.0011837024 -0.028432466 0.0017283368
-0.024433946 -0.048758898 -0.011800127 -0.045872703 0.034067616 0.07280513 0.040580314 -0.011833482
0.008691875 0.062997185 0.12527066 -0.009991197 0.09080277 -0.018486967 0.07416167 -0.01528165
0.04660649 -0.06100238 0.04814383 0.043399874 -0.030518107 -0.012226137 -0.0064783776 0.0472039
0.054420326 0.015694743 -0.040813446 0.0067337477 0.023301695 0.040669378 -0.053118244 0.07222096
-0.016555104 -0.012732806 -0.0532505 0.019999253 -0.0014063678 0.03880233 -0.05590153 -0.024130302
-0.03469364 -0.023789428 0.030595232 0.06915272 -0.05368287 0.012031866 0.035678923 -0.032118756
-0.03365439 0.05392214 -0.052299567 0.0074741454 0.011246068 0.04777447 0.09274851 -0.03010479
-0.05447211 -0.031881195 0.030855983 0.06204023 -0.05206421 -0.03942836 -0.05442266 -0.0015295965
-0.015118734 0.07351973 0.02268141 0.022763655 0.020426689 -0.05172028 -0.009268224 0.074944735
0.05675053 0.06985321 0.00986526 0.06279781 -0.022078764 0.030150434 0.060541775 -0.0006406454
-0.0500708 0.025477894 -0.02087326 0.026247382 -0.010659998 0.043530844 -0.015829545 -0.064769626
0.030208286 -0.03210842 0.037391156 -0.009251094 -0.049372654 0.036102634 -0.026423978 0.066126004
-0.00081365486 0.0020955626 -0.017382238 0.030973008 0.07027295 0.07466168 -0.00687205 0.040516987

convs.1.lin_l.bias f4 [64]
00000000: 8b87 da3d 96d3 7f3c c69a f3bb b092 463d
00000010: a7b2 a53c fa40 d6bb 4b7a 2d3d f7d0 493d
00000020: 23ce 7b3c 578d 9cbd e98d 76bc a8c8 69bd
00000030: 700d d7bd 3da7 96bd ad3c d3bd 5e79 93bd
00000040: e47b 913d 002b b7bd 31b6 2abd e991 9b3d
00000050: 49ba 7ebd 09fd 82bb 7bef d2bc 9778 a73d
00000060: 90db 06bd 523e c13c 77d5 78bc e645 cbbc
00000070: 9371 a23d c13e 84bc fede 663d 5b5c 8c3c
00000080: cbcc 87bd 87ec 49bd 1ef6 c33c 4c9b ae3c
00000090: dedf 6a3d a29b 22ba cedb 22bd cfbc 7bbd
000000a0: 5e70 2abd 4f13 1ebd 7383 41bd 72ba c83c
000000b0: e868 fabc 1217 35bc e123 393d ee77 0b3d
000000c0: 6eed 363c 8306 003d 4670 a83d 4613 2e3d
000000d0: 8d9a 5a3d 7a03 7c3b 86fd 7abc d06a 5e3d
000000e0: e961 6f3d 3ebf 9d3b 56a2 dabc 7a3f 20bc
000000f0: 17e7 aa3a 9669 87bc b44d 77bc 6872 863d
0.10670384 0.015614411 -0.007434222 0.048479736 0.02022679 -0.0065385075 0.042352956 0.04927155
0.015368971 -0.07644146 -0.015048482 -0.057076126 -0.1050061 -0.07356117 -0.10314307 -0.07200883
0.071037084 -0.089437485 -0.041677658 0.075961895 -0.062189374 -0.0039974493 -0.025748959 0.081772976
-0.032924235 0.023589287 -0.015187613 -0.024813604 0.07931819 -0.016143205 0.056365006 0.017133882
-0.06630858 -0.049297836 0.023921069 0.021314286 0.057342403 -0.00062030007 -0.039760403 -0.06145936
-0.041611068 -0.038592633 -0.0472445 0.024502967 -0.030567601 -0.011052864 0.045200232 0.03404992
0.011165006 0.03125621 0.082245395 0.04249885 0.053370047 0.003845422 -0.015319234 0.054301083
0.058442984 0.0048140576 -0.026688736 -0.009780759 0.0013038841 -0.01652984 -0.015094209 0.0656479

convs.1.lin_r.weight f4 [64, 256]
00000000: c29e 593d 3ed7 53bd 46b3 9e3d d543 973d
00000010: 9c5e b13d b042 ffbc 462b b3bd f676 933d
00000020: 70ff c43c 7617 b43c b1e8 3e3d 9d7f 183b
00000030: 83b2 c73c 1640 aa3d e8a0 a73d fdb4 69bd
00000040: 2a0a 653d ff64 8e3d 3dd9 713d cc0d 393d
00000050: a0ff 263d e48f 903d b782 55bc c507 4abb
00000060: fff9 013e 4a71 ab3d ac61 983c b0c8 5cbb
00000070: 9d74 a13d 06df 613c 2a3e a13c 272d f23c
00000080: 0de2 53bd 75de a83d 6417 58bd ca80 213d
00000090: b40b 56bc e725 5abc 5fcf 8d3b a9f0 533d
000000a0: 18c2 a7bc 687b 653d bb31 503b 3cc4 a63d
000000b0: 24d9 6dbc df32 b0bc 4dcc 8f3d bc95 753d
000000c0: 30f9 763c 1992 ecbc 77fe 813d dc6b c13d
000000d0: 5ade 2a3d 1797 f03c 1c62 3bbc bfb4 513d
000000e0: 5f5f aebc 2159 1fbd ad57 083d 5acd 09bd
000000f0: 38b7 2b3d 44dc aabd a69a 893c 4bb5 8e3b
00000100: 851b a93c 2bc8 b03d 07a9 0bbb d279 8fbc
00000110: 3c5f 2ebc 420e 273d 0162 903d b943 d1bb
00000120: 190a 3abb c249 8ebc 3519 143d 04e2 933d
00000130: 214c 993b ed2b 873d b52a eb3a 404c a23d
00000140: e01b 8d3d d745 393d a99e 1e3d a07c 973d
00000150: 045c 61bc 890f 46bd b3cd b73c e334 95bc
00000160: 1b1b 5bbd 4f93 af3d 16d0 4cbd 4486 f0bc
00000170: f862 86bc 5e12 09bd 1bf8 a6bc 8cb5 ed3c
00000180: 9c5b 3bbd 2915 9e3d 8662 6cbd 4e0d 0d3d
00000190: b326 06bc cc03 e93d 6de9 7cbd b863 2b3d
000001a0: 3328 d63c dca0 aa3d 74ac 173d 0c1c 2f3c
000001b0: 674b a13d a368 9dbd 0bb3 37bd d2c6 1b3c
000001c0: 9e76 e63c 7caa 833d c71c 8a3d 45de 2a3d
000001d0: 66aa b83a 0b2e 183d 0efb f3bc 07d8 00bc
000001e0: a4bd a5bb 604c 463c 337f bb3c 66a4 253c
000001f0: 14e3 153d 7f3a 823d 9eae 203c 11b4 703c
00000200: caa0 033d 8a46 813c 7ded 443d b824 bbbb
00000210: e7cb dc3d f225 b8bd 4d44 bb3d 70f2 14bd
00000220: 9234 41bc e27f a23c dcad df3c 30e6 953d
00000230: 768b 1c3d 0457 353c c2d2 133d 3974 4b3d
00000240: 5c9e 12bd 920b e43c e741 3f3d 5fea 843d
00000250: 73cb 943d 30c4 3b3d 67e0 323d 04ad 2abd
00000260: 3139 503d b26d e43c 7bb8 e33d 0b3b b33c
00000270: c9ae 1b3d cb0a 483d a211 3b3d 6d67 1a3d
00000280: 0a52 a63d a90b c43b 3e10 643d 2c96 8a3d
00000290: c32f 02bc 8810 94bc 90ce 22bc 059e febb
000002a0: 4332 8c3d c9d0 c53d 87be 5f3d 740e c83d
000002b0: a8d9 a03d e5cf 223b f281 f13b 1bed ee3c
000002c0: 78e6 563c 2d18 993d d98f e33c 376d c2bc
000002d0: 41a8 c23c 22bc dcbc 28e5 803c b4a6 153d
000002e0: 3389 263d a65e 083e 6b7d 3e3d 0e1d cb3d
000002f0: 8ed5 253d 46df 98bc 9a2a 2b3c 1bdd 433c
00000300: 775a c23b a33f 15bd 34e9 96bc ebb6 9dbc
00000310: aedc d23c 8798 a23a 4c81 923d 4992 ebbc
00000320: b5d7 a63d 47b6 d43c 65c8 56bd 9e04 0f3d
00000330: 2911 f7bc 6bb8 12bd c3ad af3d 8536 bd3c
00000340: 2b82 7e3d 7b0e 853d 88dd 083d 5f4f b53d
00000350: 5a36 4f3d 563d e33c 10de f13c d7f6 323d
00000360: 1808 86bd bad2 8c3d 952c b23d cdbc 843c
00000370: f627 0a3d fe02 95bc f394 993c 24c3 bd3d
00000380: 1e0e 373d 3862 3d3d a248 983d 5d1f 533d
00000390: dbc8 3dbd 2c62 b13c a274 ccbb b925 ab3c
000003a0: 8185 9e3d e461 0cbb 03d8 99bc ebc7 783d
000003b0: df64 3abc f1cd 33bb 8924 f2bd 6aec d9bc
000003c0: a037 9c3d 53a6 453d 977c 083d a81a ebbc
000003d0: 5c23 03bd 02fa 4ebd 947d 973d c143 643d
000003e0: c91e 6e3c 31a0 9e3d c37f 0fbd 6815 84bd
000003f0: a81b b63c f719 e53c 91ea c93c a730 d8bc
0.05312992 -0.051718943 0.077490374 0.07385985 0.086606234 -0.031159729 -0.08748488 0.072004244
0.024047583 0.021983843 0.04660863 0.0023269423 0.024377113 0.08313005 0.08184987 -0.05705737
0.055917896 0.06952857 0.059045065 0.045179173 0.040771127 0.07058695 -0.013031653 -0.0030827385
0.12693022 0.083712175 0.018601261 -0.0033688955 0.0788357 0.013786083 0.019682962 0.029562546
-0.05172925 0.08245555 -0.052756682 0.039429463 -0.013064314 -0.013314701 0.004327699 0.051743183
-0.020478293 0.056025892 0.0031767923 0.081428975 -0.014517102 -0.021508632 0.07021389 0.05995725
0.015074059 -0.028878259 0.063473634 0.09444401 0.041715957 0.02936892 -0.011436965 0.051197764
-0.02128571 -0.03890336 0.03328674 -0.033643104 0.041922778 -0.083427936 0.016797375 0.004355108
0.020643005 0.08631929 -0.0021310465 -0.017514143 -0.010642823 0.04078508 0.07049943 -0.006386247
-0.0028387366 -0.017369155 0.03615685 0.072208434 0.0046782647 0.06600175 0.0017941805 0.079247
0.06890082 0.04523262 0.03872553 0.07396817 -0.013754848 -0.04835466 0.022436952 -0.018213695
-0.053492647 0.08573019 -0.050003134 -0.029360898 -0.016404614 -0.033464782 -0.020381978 0.029017232
-0.045741662 0.0771888 -0.057711147 0.034436516 -0.008187938 0.11377677 -0.06174605 0.041843146
0.026142215 0.08331463 0.0370297 0.010687839 0.0787571 -0.076859735 -0.044848483 0.009507852
0.028132733 0.06429002 0.0674377 0.04171588 0.0014088869 0.037153285 -0.029782798 -0.007864005
-0.0050580073 0.01210317 0.022887802 0.010109996 0.03659351 0.063588135 0.009807257 0.014691369
0.032135762 0.015780706 0.04807805 -0.0057111643 0.10781079 -0.089916125 0.09143887 -0.03636402
-0.011792319 0.01983637 0.027304582 0.073192954 0.038218938 0.011068109 0.036089666 0.049671385
-0.035795555 0.027837548 0.04669371 0.06490015 0.07265367 0.045841396 0.043671038 -0.041668907
0.050835792 0.027884338 0.11119171 0.02187874 0.038008485 0.048838418 0.045671113 0.03769629
0.081211165 0.0059828353 0.055679552 0.06766924 -0.007945958 -0.018074289 -0.009936944 -0.0077703022
0.06845524 0.09658963 0.05462506 0.09768382 0.07854015 0.0024843153 0.007370227 0.029165795
0.0131164715 0.07475314 0.027778553 -0.023733718 0.02376187 -0.026945177 0.01573427 0.036535934
0.040658187 0.13317356 0.046506327 0.09917651 0.040486865 -0.018661153 0.010447169 0.011954571
0.0059311944 -0.03643764 -0.018421747 -0.019252261 0.025739994 0.0012405076 0.07153568 -0.028756278
0.081466116 0.025965823 -0.052437205 0.034916513 -0.03015955 -0.035820406 0.08578064 0.023097286
0.062135857 0.064969026 0.033414394 0.088530295 0.050588943 0.027739208 0.029524833 0.043692436
-0.065445125 0.068761304 0.086999096 0.016203308 0.033729516 -0.018189903 0.018747782 0.09265736
0.044691198 0.046236247 0.074357286 0.051543582 -0.04633413 0.021653257 -0.0062394897 0.020892011
0.077403076 -0.0021420652 -0.01877976 0.06073753 -0.011376589 -0.0027435983 -0.11823375 -0.026601989
0.07627797 0.048254322 0.033321943 -0.028699234 -0.032016143 -0.050531395 0.07396999 0.055728678
0.014533707 0.07745398 -0.035033952 -0.064493954 0.022229984 0.027966483 0.024647983 -0.026390387

bns.0.weight f4 [256]
00000000: d17c 733f 0fce 743f 22a0 753f ab57 753f
00000010: e0e1 783f a2a0 733f 14ac 713f 2950 723f
00000020: 69a9 753f 6d59 733f 19bb 6d3f d44c 733f
00000030: 2ad9 723f 77d4 733f d2f3 723f d7d7 713f
00000040: 0a4f 733f 8a10 7b3f b2fb 713f bb0b 753f
00000050: cfed 713f a124 753f 404a 733f fd77 713f
00000060: 7d41 753f 07ac 753f 3732 743f f4ea 733f
00000070: cd2e 743f 54f0 743f ca0c 753f 4d13 753f
00000080: fd4d 753f 063c 723f 203f 743f 4b38 753f
00000090: f3da 733f 6741 743f 0c5d 723f 602f 763f
000000a0: 9f7f 723f 8048 733f 676e 743f 78a1 723f
000000b0: 4a19 733f 2c95 703f 4725 743f ed42 733f
000000c0: 86fb 793f 10d9 6a3f d048 743f 6962 733f
000000d0: b1e7 763f 6051 723f 810e 703f cf73 743f
000000e0: b245 743f f91b 743f 69a3 733f 4bd8 753f
000000f0: 5a7e 763f d953 6e3f b866 713f 675a 773f
00000100: d629 763f 7e1a 723f 8b7d 723f 9d50 743f
00000110: fb75 753f 7113 773f dc04 713f 169c 703f
00000120: b3b6 743f d318 703f 7b27 733f 5438 743f
00000130: 8b54 713f 8880 733f 2bd0 713f 91eb 743f
00000140: cc14 743f 0631 773f 57a0 743f 47c7 763f
00000150: c0cd 783f 7d8c 713f 953a 703f 8e69 723f
00000160: 8a48 733f 4616 733f 000d 633f 83b2 713f
00000170: 5c88 723f 7f65 6d3f fbf0 6f3f 9b95 733f
00000180: 8d6f 783f 4c76 763f febc 6c3f 1e73 743f
00000190: 6c6d 753f 5d89 753f 6f1d 753f 429b 703f
000001a0: c37e 713f 4cd9 6e3f 9479 723f d26b 723f
000001b0: 6bc1 743f 7e4c 713f 6064 743f 06b8 723f
000001c0: 6226 743f 7578 713f 5ec0 723f ef85 743f
000001d0: 8c1e 773f 0f9f 723f 108b 723f f92a 743f
000001e0: 23fb 713f 22fa 723f d225 723f e89f 713f
000001f0: 249d 723f 9cef 7c3f e40f 733f b5bc 703f
00000200: f47b 743f a8b5 773f 0c3c 713f 11ea 723f
00000210: 1513 783f d89a 763f c175 773f 0819 6f3f
00000220: 201a 723f bf7f 743f c45e 733f 89b6 743f
00000230: 0d27 763f e41f 743f 795c 713f 7b7f 743f
00000240: 521c 783f 6496 753f 9ff5 743f 164f 703f
00000250: ec09 793f 4037 6b3f 7cbe 723f 46c6 6e3f
00000260: 7000 733f 0631 713f 618e 733f a9a5 713f
00000270: 6474 713f 4d55 753f b5b5 6f3f 92e5 713f
00000280: 57dc 763f a940 723f 37af 6f3f b7e8 753f
00000290: dbc8 713f 356e 743f 118f 743f 743c 773f
000002a0: 4519 773f c219 763f f79e 6f3f 7142 743f
000002b0: 9cf8 713f d2a5 723f 85de 723f aa28 723f
000002c0: 6247 723f c685 733f 2bba 723f e881 793f
000002d0: 3b91 713f b160 753f c6a9 743f c93c 773f
000002e0: 7a7c 723f e452 733f 158b 743f 4d3d 743f
000002f0: 918d 733f bb32 773f 770a 763f 3ddf 713f
00000300: 7ef3 743f 3e4c 733f 8e08 753f 4d90 743f
00000310: 063f 783f 7ccb 743f 5aef 723f cfc3 733f
00000320: 91a4 763f 5316 733f 737d 763f 51a1 773f
00000330: 6684 733f 2264 703f bea1 703f efb3 783f
00000340: c083 733f 4ecd 733f 749b 703f 491d 763f
00000350: 6e9b 743f 765a 773f 6889 763f 9651 743f
00000360: 8e93 703f 17fd 723f 379a 703f f009 753f
00000370: 8d25 733f 1852 753f c19f 733f 16e1 743f
00000380: 54a0 713f 393b 793f 13d2 763f bfa3 713f
00000390: 1ed7 763f 750b 743f cc12 773f 435b 733f
000003a0: 541d 783f d6da 723f 1065 6b3f 3bc3 713f
000003b0: 5fff 723f c6f8 713f 318b 783f 086f 733f
000003c0: 4ef4 703f 41ce 743f f2eb 753f ab77 763f
000003d0: 4244 773f d778 733f e1f3 733f 28b4 723f
000003e0: dab1 713f 64c5 733f e8bf 753f b743 763f
000003f0: c6bd 743f 435e 703f 38ea 733f fbad 743f
0.9511233 0.9562692 0.9594747 0.95836896 0.9721966 0.9516698 0.94403195 0.94653565
0.95961624 0.9505833 0.92863613 0.95039105 0.94862616 0.9524607 0.9490329 0.9446997
0.9504248 0.9807211 0.9452468 0.95721024 0.9450349 0.95759016 0.9503517 0.9432371
0.9580305 0.9596562 0.9538912 0.95280385 0.9538391 0.9567921 0.9572264 0.95732576
0.95822126 0.9462284 0.9540882 0.9578902 0.95255965 0.95412296 0.9467323 0.9616604
0.94725984 0.950325 0.9548096 0.9477763 0.94960463 0.9397762 0.9536938 0.95023996
0.9764942 0.9173746 0.95423603 0.95072037 0.96447283 0.9465542 0.9377213 0.9548921
0.95418847 0.9535518 0.9517122 0.9603316 0.9628655 0.9309669 0.9429736 0.9662232
0.96157587 0.94571674 0.94722813 0.95435506 0.9588315 0.9651404 0.9414804 0.9398817
0.95591277 0.9378788 0.9498212 0.9539845 0.9426963 0.95118 0.94458264 0.95671946
0.95344234 0.9655918 0.9555716 0.96397823 0.9718895 0.94354993 0.9383939 0.94692314
0.9503256 0.9495586 0.8869171 0.9441301 0.9473932 0.92732996 0.9372708 0.95150155
0.97045213 0.96274257 0.9247588 0.95488155 0.9587009 0.95912725 0.9574804 0.93986905
0.9433405 0.9330032 0.94716763 0.9469577 0.9560763 0.9425734 0.9546566 0.9481205
0.9537107 0.9432443 0.9482478 0.95516866 0.96530986 0.94773954 0.9474344 0.9537807
0.9452383 0.9491292 0.9458896 0.9438462 0.9477103 0.98803115 0.9494612 0.94037944
0.9550164 0.9676156 0.9423225 0.94888407 0.96904117 0.9633002 0.96664053 0.9339757
0.94571114 0.95507425 0.95066476 0.95591027 0.96153337 0.9536116 0.9428173 0.9550702
0.96918213 0.959326 0.9568729 0.93870676 0.97280765 0.9188118 0.94821906 0.9327129
0.9492254 0.9421543 0.9513913 0.943934 0.94318223 0.95833284 0.9363664 0.9449092
0.9642996 0.94629914 0.9362673 0.9605822 0.94447106 0.9548066 0.955308 0.9657662
0.96522933 0.96133053 0.93601936 0.9541388 0.9451997 0.9478427 0.9487079 0.945933
0.9464017 0.95126 0.9481532 0.97463846 0.9436223 0.95850664 0.95571554 0.96577126
0.94721186 0.95048356 0.9552472 0.9540604 0.9513789 0.96561784 0.9610972 0.9448126
0.9568404 0.9503821 0.9571618 0.95532686 0.96971166 0.9562299 0.9489647 0.95220655
0.9634486 0.9495594 0.9628517 0.96730524 0.951239 0.9390279 0.939968 0.97149557
0.9512291 0.95235145 0.939872 0.96138436 0.95549667 0.9662241 0.96303415 0.9543699
0.9397515 0.94917434 0.93985313 0.9571829 0.9497917 0.9582839 0.9516564 0.95655954
0.94385266 0.9735599 0.964143 0.9439048 0.9642199 0.9532998 0.96513057 0.9506113
0.9691975 0.9486517 0.91951084 0.94438523 0.94920915 0.94520223 0.9708739 0.95091295
0.9412278 0.9562722 0.9606315 0.9627635 0.9658853 0.9510626 0.95294005 0.94806147
0.94412005 0.9522307 0.9599595 0.96197075 0.9560207 0.9389383 0.95279264 0.95577973

bns.0.bias f4 [256]
00000000: 58d4 a4ba 491e 31bc c805 ea3b a29c aa3b
00000010: f9f2 4e3c f548 6d3b 312c 94bc bd31 01bc
00000020: 1015 233c cc7c 333c 2ef9 dbbc b298 e3bb
00000030: d760 fdb9 9867 2bbc 67ec de3b f325 2d3b
00000040: 4398 c6ba c0e5 c73b 42d4 43bc 42b5 0d3b
00000050: e564 68bc aa39 bdbb eb4a 08bc c927 43bc
00000060: 4dc9 73bb e94e 103b 0086 83bb 8cd3 96b9
00000070: d0a5 debb bd2e 16bc bd9a 473b e8f9 823b
00000080: ec33 8b3b daec 4cbc b630 273a 8008 48ba
00000090: ea58 b6bb dccf 41bb c24f a6bc 491f f63b
000000a0: d9be 3ebc 80b9 5dbb 42c9 dfbb b108 33bc
000000b0: 8bf1 1d3c 174d 7ebc 874d e13a 0249 78bb
000000c0: 42bd 153c d4b3 52bc b8bf 26bc 681d e2bb
000000d0: fdb0 363b 2ed8 37ba e705 d0bc e338 bfbb
000000e0: 51a8 cebb d558 85ba 7e13 26bc a993 8dbb
000000f0: 4414 92bb 365d 8bbc bac3 1bbc cade 833c
00000100: 5833 2abb 1de4 7ebc 0301 50bc 9368 2d3a
00000110: f66a 08bc ae40 9b3b c9fc a0bc 851d 97bc
00000120: 402b 54bc 364a 94bc e23f 2abc 31a2 1dbb
00000130: f068 51bc c975 aebb 1790 c1bc ad17 cabb
00000140: 40f0 b7bb d941 913b 1dbe 86ba d0d7 1a3c
00000150: 4f04 35bb 69ed 9ebc dc5a 03bc dc45 a7bc
00000160: 9098 d2bb c056 c7ba c38b 36bc 6add 44bb
00000170: cd2c 08bc 1e1b 063c 0338 75bc bdac ad3b
00000180: 9d64 de3b 1c1f bfbb e7d5 ebbc a5b5 5abb
00000190: 05a2 52bb 8930 553b ffc6 183a e75a 8cbc
000001a0: 06c3 29bc 8899 bbbc 3d02 40bc 276e 51bb
000001b0: 3045 53bb dfab 32bc 12a2 d0bb 8bcf e6bb
000001c0: 0a24 e7b9 c08a 81bc a1b4 e4ba 44d0 ba39
000001d0: d15f bb3c 0818 e4bb e9a6 a4bb aeb9 b7bb
000001e0: 2134 e6bb 5db8 a6bb c7b7 9bbb cc8b 5bbc
000001f0: 3438 51ba 1268 323c 9f19 d1ba d6e1 6fbc
00000200: 40a5 c93a be55 0f3c 9b0a 613c 7866 dfbb
00000210: 44bf 4f3c 90a2 efba 8b71 f43b 3226 bcbc
00000220: 78db 36bc d8ad 913a 908e 7abb 8eb1 2bbc
00000230: 5f85 a53c b6ab 78bb 81a2 6abc 1ab4 b03b
00000240: 6313 e93b db07 c1b9 1960 a9bb eac4 aabb
00000250: 8442 c03c d2dc a5bc 245e 6fbc d8a8 97bc
00000260: 3e4d 2dba dc44 aabc c16b edbb 149e a7bc
00000270: 4acf 66bc 5073 923b f5ef babb b77a 3fbc
00000280: b7ef ae3b 3077 d7ba b183 64bc 360d 35bb
00000290: 36ec 85bb 1242 25bc ebe3 24bc b3d9 773a
000002a0: f71c 653c 4631 e63a 63e0 7bbc c0a1 1cbb
000002b0: 4b2f e4bb b8d7 60bc 7ce9 e53b ae07 14bc
000002c0: bf9e 4c3a 507d 78bb 4387 59bc cffe 253b
000002d0: 7b25 5abc 0b65 6d3b 4802 37bc 728a 14bb
000002e0: 2ed4 2abb 3884 963a 57bc a33a 1a23 923b
000002f0: 4529 dbbb f5df b7bb 3d8a 4a3a a0a5 aabc
00000300: 5cb2 d6b9 b5b5 83bb b2e6 89bb 3ebb 08bc
00000310: f85d 143b 1c56 f1bb 71f0 eabb 6477 86bb
00000320: 11c4 203c a70a 23bc 9e30 743a 5a2d 893c
00000330: 69ac 7bbb c3fd 00bc 0443 1ebc 10aa f93b
00000340: f974 423b 1cc7 d3bb 2f4d 93bc 5e38 a43c
00000350: 8a2a 09bb 8674 183c 1508 d03b e9b9 05bc
00000360: 8996 9bbc ffea ecbb fa68 92bb aecb 3cbc
00000370: daae 1abc b92e 0cbc 520a e6bb 239b cf3a
00000380: e14f 18bc 5c17 fb3b 94e4 7b3c f1a6 3dbc
00000390: 3690 893b 6cae d0bb 68be 123c a141 83bb
000003a0: a152 f13b 21c6 91bb 0a3d eebc 8ebd dcbb
000003b0: f01a ccbb d708 65bc dd40 6a3b 2853 323b
000003c0: a669 b3bc 628d fabb c261 cd3a 9a5d e4b8
000003d0: 7541 333c c8aa 16bc 3135 f6bb 39b4 b0bb
000003e0: 79f7 d5bb eb27 ccbb 72c4 403b 1838 e93b
000003f0: 802d 583c 242f 7abc 1c67 41bc 9258 7f3b
-0.001257549 -0.010810443 0.0071418025 0.0052066604 0.012631171 0.0036206816 -0.018087478 -0.007885394
0.009953752 0.010955047 -0.026852217 -0.006945693 -0.00048328072 -0.01046171 0.0068030837 0.0026420325
-0.0015151579 0.0061003864 -0.011952462 0.002162293 -0.014184211 -0.0057746964 -0.008318643 -0.011911341
-0.0037198842 0.002201969 -0.004013777 -0.00028767844 -0.0067946687 -0.009166417 0.0030457221 0.0039970763
0.004248133 -0.012507642 0.0006377803 -0.0007630661 -0.0055647986 -0.0029573357 -0.020301703 0.0075110537
-0.011642181 -0.003383249 -0.0068294117 -0.010927365 0.009640108 -0.015521309 0.0017189243 -0.0037885313
0.009139361 -0.012860257 -0.010177545 -0.006900478 0.002787649 -0.0007013109 -0.02539344 -0.005835639
-0.006306686 -0.0010173569 -0.010136483 -0.004320581 -0.0044579823 -0.01701222 -0.009507114 0.016097445
-0.0025970545 -0.015557316 -0.012695554 0.0006615009 -0.008326283 0.004737935 -0.019651787 -0.018446693
-0.012949765 -0.018101793 -0.010391207 -0.0024052972 -0.012781367 -0.0053240997 -0.023628278 -0.006167373
-0.005613357 0.0044328985 -0.0010280047 0.009450868 -0.0027620976 -0.019400315 -0.008017268 -0.020419054
-0.0064268783 -0.0015208349 -0.01114172 -0.00300392 -0.008311463 0.008185176 -0.0149669675 0.005300133
0.0067868964 -0.005832566 -0.02878852 -0.0033372429 -0.0032140028 0.003253015 0.00058279926 -0.01713319
-0.010361439 -0.022900358 -0.011719284 -0.0031956525 -0.0032237284 -0.010905235 -0.0063669765 -0.007043784
-0.00044086605 -0.015813231 -0.0017448851 0.00035631855 0.022872837 -0.0069608726 -0.00502478 -0.0056068515
-0.007025257 -0.005087896 -0.0047521326 -0.013400029 -0.0007981092 0.01088907 -0.001595307 -0.014641246
0.0015384331 0.00874847 0.013735439 -0.006817635 0.012679879 -0.00182827 0.0074598244 -0.022967432
-0.011160724 0.0011114432 -0.0038231947 -0.010479344 0.020205198 -0.0037944145 -0.0143209705 0.0053925635
0.007112907 -0.0003681768 -0.0051689264 -0.0052114623 0.023469217 -0.020246897 -0.014609847 -0.018513128
-0.0006610936 -0.020784788 -0.0072455113 -0.02046112 -0.0140875075 0.0044693127 -0.0057048746 -0.011686972
0.005338635 -0.0016438719 -0.013947413 -0.0027626283 -0.0040869964 -0.010086553 -0.0100641055 0.0009454742
0.013983957 0.0017562292 -0.015373322 -0.0023900121 -0.0069636456 -0.013723306 0.007016359 -0.009035034
0.00078056374 -0.003791649 -0.013276878 0.002532888 -0.0133146 0.0036223556 -0.0111699775 -0.0022665528
-0.002606641 0.0011483496 0.0012492043 0.004459751 -0.0066882693 -0.0056114146 0.00077262876 -0.02083093
-0.0004095015 -0.004019464 -0.004208409 -0.008345423 0.0022639018 -0.0073650014 -0.007169776 -0.004103588
0.009812371 -0.00995127 0.0009315106 0.016745258 -0.0038402325 -0.0078730015 -0.009659532 0.00761915
0.0029671772 -0.0064629447 -0.01798114 0.02004641 -0.0020929896 0.009305125 0.0063486197 -0.008162
-0.01899268 -0.007230162 -0.0044680806 -0.01152317 -0.009441102 -0.008556061 -0.0070202732 0.0015839081
-0.009296388 0.0076626968 0.0153743215 -0.011575446 0.0041980995 -0.006368449 0.008956529 -0.0040056263
0.0073645865 -0.0044486676 -0.02908184 -0.006736464 -0.006228797 -0.013979158 0.0035744228 0.002721021
-0.021900963 -0.0076462487 0.0015669393 -0.00010889322 0.010940899 -0.009195991 -0.007513665 -0.005392578
-0.006529745 -0.0062303445 0.0029413966 0.0071172826 0.013194442 -0.015270028 -0.011804368 0.0038962704
