output/oi/restr_e2v/run_010/restr_oi_best_model_e2v.pth (torch, 90293 bytes, 14 tensors)

convs.0.lin_l.weight f4 [64, 32]
0.00948866 0.1360113 0.023230873 0.02850521 0.047936104 0.13838658 -0.18166862 0.046115965
0.075919494 0.017724095 0.056777522 0.15333961 -0.09095754 0.13534361 0.0034017784 0.047735836
-0.12544872 -0.16067703 0.005240316 -0.068578415 -0.14838903 -0.07700388 -0.07979198 0.16006078
-0.10318978 -0.17705882 0.14239818 0.05379953 0.061933212 0.13121106 0.0597873 -0.091071896
-0.12890022 0.10711109 0.08741454 -0.040089753 -0.07932386 0.054232255 -0.12162556 -0.035114706
0.17921007 -0.037025407 0.15733795 0.12724379 0.18549891 -0.02956744 0.20564999 -0.07171759
-0.091797076 0.094906665 0.15662774 0.03518401 -0.07302837 0.06450725 0.07751142 0.0034674814
-0.09473448 0.08702952 -0.10354001 0.01898843 0.09529382 0.18943349 -0.14941953 -0.017103208
-0.017658098 -0.073706 -0.13115095 -0.12000618 -0.16842711 0.1184004 0.033386793 -0.057549894
-0.09312485 0.00623141 0.013873926 0.11064366 -0.15381464 0.04466964 0.009632377 0.10910937
0.098990835 0.089273565 -0.11212736 0.057840902 0.038610358 0.08102859 -0.060099524 0.059328195
-0.069026075 0.06348016 -0.18938333 0.029342165 -0.10817402 0.03048509 -0.10333441 0.041813273
0.10400598 0.07808125 -0.061491556 0.1138137 -0.16306953 -0.02292794 0.1251415 0.087338276
-0.12980536 -0.09261266 -0.031943396 0.09580037 0.023931682 0.109179735 -0.01665677 0.13376911
0.14201905 -0.16118139 0.008509227 0.13513975 -0.18605654 -0.04185206 -0.024985638 -0.069911115
-0.08455745 0.012560372 -0.11682739 -0.12006163 -0.03335733 -0.04094117 -0.011904547 -0.05194565
0.00035844927 0.04873003 0.115704186 -0.102042995 0.1123903 -0.18612485 -0.12696126 0.16317804
-0.10805586 -0.01632388 0.08858787 -0.054436274 0.11452006 0.030669224 0.006044099 0.039047252
-0.07152469 -0.06629812 -0.10705829 0.07400986 -0.12870768 0.09179256 -0.00043291628 -0.032298915
0.16717455 -0.13099487 0.117884606 -0.08085215 0.048664086 0.12130473 0.19460064 0.077711545
-0.028340686 0.058014944 -0.072525166 0.05670378 -0.14243896 -0.05497958 -0.12182115 0.103613205
0.1198518 -0.18256764 0.057145476 0.0408419 0.007033655 -0.0031117212 0.041409962 -0.13566664
0.050041847 0.055638563 0.15806544 0.19260685 0.10826275 0.12079473 -0.11967847 0.16676399
0.08210815 0.13860323 -0.06333926 -0.059238803 -0.17984235 0.0375964 -0.056759555 0.022550814
0.026582282 0.14470217 -0.01556763 0.15728617 -0.07080765 -0.14380106 -0.029654924 -0.004321882
0.069975846 0.03878021 0.021041168 -0.1556864 0.043005556 0.027132582 0.012830979 -0.08113096
-0.17089339 0.084094115 0.09265701 0.044093717 -0.1171157 0.16575262 -0.14131185 0.013269281
0.07422375 -0.032437034 -0.09782293 0.024687463 -0.12071082 0.14754945 -0.074228324 0.15474926
-0.13191293 -0.10257686 -0.06788077 0.091424055 0.16951787 -0.101356395 -0.15330146 -0.15485294
0.08773967 -0.04274432 -0.15682048 -0.084620886 -0.054701645 -0.14906213 0.06238713 -0.07397856
-0.121365204 -0.05251866 0.061497148 -0.06927672 0.08287253 -0.0057654576 0.12636797 -0.14132106
-0.14418985 -0.14846598 -0.09242737 -0.11666609 0.10224092 -0.11730905 -0.16019756 -0.12658387
00000000: 5376 1b3c 8c46 0b3e ac4e be3c c283 e93c
00000010: a658 443d 36b5 0d3e 5707 3abe 18e4 3c3d
00000020: ae7b 9b3d 1f32 913c 8c8f 683d 0f05 1d3e
00000030: f247 babd 8497 0a3e 5ff0 5e3b a786 433d
00000040: a175 00be 8588 24be f5b6 ab3b d772 8cbd
00000050: 4bf3 17be 36b4 9dbd fa69 a3bd f9e6 233e
00000060: 2a55 d3bd e84e 35be d4d0 113e e55c 5c3d
00000070: aead 7d3d 315c 063e 87e3 743d e783 babd
00000080: 6bfe 03be 0f5d db3d 6506 b33d 2735 24bd
00000090: 8c74 a2bd a422 5e3d d216 f9bd 70d4 0fbd
000000a0: d882 373e f4a7 17bd 331d 213e 324c 023e
000000b0: 6df3 3d3e 6a37 f2bc e995 523e ace0 92bd
000000c0: 1b00 bcbd 6d5e c23d 0663 203e 1c1d 103d
000000d0: e68f 95bd 611c 843d 4fbe 9e3d af3e 633b
000000e0: 2704 c2bd 883c b23d c90c d4bd a08d 9b3c
000000f0: 6829 c33d dafa 413e 6f01 19be 071c 8cbc
00000100: b7a7 90bc 2cf3 96bd 6f4c 06be cdc5 f5bd
00000110: 2878 2cbe e97b f23d 97c0 083d 70b9 6bbd
00000120: 3eb8 bebd db30 cc3b 774f 633c 2599 e23d
00000130: 9681 1dbe 83f7 363d 1ed1 1d3c bc74 df3d
00000140: b5bb ca3d 0fd5 b63d 08a3 e5bd 95ea 6c3d
00000150: e525 1e3d 51f2 a53d eb2a 76bd 1f02 733d
00000160: 8b5d 8dbd e301 823d b4ed 41be fb5e f03c
00000170: 578a ddbd debb f93c fea0 d3bd 6544 2b3d
00000180: 1601 d53d 10e9 9f3d 92de 7bbd 2817 e93d
00000190: b3fb 26be 60d3 bbbc 1825 003e 69de b23d
000001a0: b2eb 04be b5ab bdbd 14d7 02bd fc32 c43d
000001b0: 600c c43c a099 df3d c773 88bc c5fa 083e
000001c0: 716d 113e bc0c 25be 496a 0b3c 1362 0a3e
000001d0: 9b85 3ebe 116d 2bbd aeae ccbc 8f2d 8fbd
000001e0: 752c adbd 05ca 4d3c 3343 efbd dfe2 f5bd
000001f0: b2a1 08bd eeb1 27bd 4a0b 43bc f6c4 54bd
00000200: 3fee bb39 2499 473d 51f6 ec3d ebfb d0bd
00000210: e32c e63d 8397 3ebe 2202 02be 2518 273e
00000220: 644c ddbd a8b9 85bc 8f6d b53d 92f8 5ebd
00000230: 7e89 ea3d 063e fb3c 940d c63b 03f0 1f3d
00000240: 897b 92bd 4fc7 87bd 6041 dbbd 7b92 973d
00000250: f2cb 03be bdfd bb3d 0af9 e2b9 de4b 04bd
00000260: ce2f 2b3e 8523 06be 7c6d f13d d095 a5bd
00000270: fe53 473d 9d6e f83d 6445 473e 3b27 9f3d
00000280: ba2a e8bc 14a1 6d3d 1388 94bd 3942 683d
00000290: 85db 11be 4532 61bd 5e7d f9bd 2933 d43d
000002a0: dc74 f53d 03f3 3abe 6011 6a3d d649 273d
000002b0: 937a e63b 05ee 4bbb 7e9d 293d 32ec 0abe
000002c0: aef8 4c3d 43e5 633d e8db 213e bb3a 453e
000002d0: dcb8 dd3d 3a63 f73d fc19 f5bd 2ec4 2a3e
000002e0: 5128 a83d 01ee 0d3e 04b8 81bd 63a4 72bd
000002f0: 9828 38be affe 193d b57c 68bd 7cbc b83c
00000300: 16c3 d93c ce2c 143e 5f0f 7fbc a00f 213e
00000310: 9a03 91bd 9640 13be e2ee f2bc 939e 8dbb
00000320: 7f4f 8f3d ffd7 1e3d 875e ac3c 416c 1fbe
00000330: 9826 303d 2645 de3c 0739 523c fd27 a6bd
00000340: adfe 2ebe 8939 ac3d f5c2 bd3d 9d9b 343d
00000350: 5bda efbd 0ebb 293e 0eb4 10be 6667 593c
00000360: 9f02 983d b2dc 04bd 6357 c8bd 5d3d ca3c
00000370: 3c37 f7bd 3417 173e 0505 98bd 9776 1e3e
00000380: 2f14 07be d113 d2bd 1305 8bbd 893c bb3d
00000390: 1896 2d3e f193 cfbd 0ffb 1cbe c591 1ebe
000003a0: dbb0 b33d ab14 2fbd 8c95 20be b74d adbd
000003b0: d50e 60bd bea3 18be a689 7f3d 1282 97bd
000003c0: 528e f8bd ce1d 57bd 6fe4 7b3d f4e0 8dbd
000003d0: 13b9 a93d 2aec bcbb 9b66 013e 78b6 10be
000003e0: 81a6 13be 7707 18be 904a bdbd a2ee eebd
000003f0: b063 d13d ba3f f0bd d40a 24be 349f 01be

convs.0.lin_l.bias f4 [64]
0.06657548 0.104023024 -0.094384685 0.07504134 0.1618004 0.11876866 -0.14204969 -0.08591745
-0.07334893 -0.103049934 0.1590486 0.10558723 0.065030955 -0.1547835 -0.16399068 -0.112566896
0.045125034 -0.14091866 -0.15106912 -0.008176031 0.05442256 -0.14995572 0.08823638 -0.13305254
-0.073723294 0.06595738 -0.14347251 0.11913647 -0.16979036 0.16337445 0.020092905 -0.0775493
-0.14735076 0.0076258313 -0.15627098 0.13702007 -0.15678106 0.03982893 -0.005959436 0.12905921
0.06381725 -0.06840018 0.10793424 -0.033317074 -0.0773527 -0.010289124 0.18186124 -0.1254825
0.090664454 -0.046742402 -0.17921413 0.1179522 0.021318614 -0.036078043 0.02779859 -0.21318838
0.07620904 -0.055616815 -0.09813731 0.14165351 -0.051479604 0.08347624 -0.11298339 -0.09877494
00000000: ba58 883d 060a d53d c24c c1bd 46af 993d
00000010: 01af 253e fc3c f33d 7975 11be 7df5 afbd
00000020: f737 96bd d80b d3bd a3dd 223e 1e3e d83d
00000030: f32e 853d 917f 1ebe 2ced 27be 7989 e6bd
00000040: 07d5 383d fb4c 10be ddb1 1abe c2f4 05bc
00000050: 31ea 5e3d fe8d 19be 46b5 b43d ed3e 08be
00000060: 3dfc 96bd aa14 873d 75ea 12be d2fd f33d
00000070: 86dd 2dbe a24b 273e e099 a43c 2bd2 9ebd
00000080: 1ee3 16be 1ce2 f93b 8005 20be fd4e 0c3e
00000090: 378b 20be a923 233d 5f47 c3bb 1928 043e
000000a0: 9eb2 823d 6515 8cbd a00c dd3d 7c77 08bd
000000b0: 186b 9ebd b793 28bc d539 3a3e 7c7e 00be
000000c0: 49ae b93d f674 3fbd e983 37be ec90 f13d
000000d0: 60a4 ae3c 92c6 13bd deb9 e33c 0e4e 5abe
000000e0: 7c13 9c3d 75ce 63bd 37fc c8bd 9e0d 113e
000000f0: 47dc 52bd 97f5 aa3d d663 e7bd 844a cabd

convs.0.lin_r.weight f4 [64, 32]
0.102475695 0.14607592 -0.0643865 -0.16162749 0.014774302 -0.018282946 -0.018027809 0.14959213
-0.018949285 0.17934753 -0.06361414 -0.100219965 0.101063155 0.15925267 0.07362074 -0.104815245
-0.04629359 0.11176138 -0.12094585 0.14421912 -0.11201737 0.15338273 -0.059576117 0.13240473
0.11409497 -0.12376987 0.06785245 -0.040058114 -0.06952534 0.018503921 0.09838118 -0.021220936
-0.103323266 0.045888923 0.058899753 0.14893244 -0.057230353 0.13564588 0.11283621 0.0059327567
-0.1767515 -0.10023897 -0.14982961 0.09094468 -0.013903651 0.1145638 0.14841849 -0.17107554
-0.04553511 -0.015065253 0.07688287 0.18610157 -0.08000216 -0.059032787 -0.14537145 -0.11435457
0.08347744 0.09097929 -0.09083813 0.103875384 -0.08444467 -0.031932008 -0.034804028 -0.10565887
0.14859231 -0.10645292 0.15416291 -0.14206567 0.070749775 0.087010525 -0.17667761 -0.14994231
0.13012162 0.13447005 0.08791319 0.16284972 -0.18839438 -0.09035206 0.15379202 -0.09359673
-0.13809353 -0.04400175 0.193322 -0.12488702 0.11394941 -0.089940086 -0.15407667 0.019093622
-0.10974792 -0.05407678 -0.123497576 0.062179606 0.124085315 -0.09833985 0.15314662 -0.034664888
-0.04069643 -0.0008889409 0.023734864 0.0044740513 -0.014603639 -0.17006084 -0.1520141 0.021360412
0.0002356316 -0.08569 -0.019591417 0.12669371 0.20181048 -0.046436723 -0.08027997 -0.18611321
0.06815107 0.15564747 -0.04553212 -0.0093901735 0.06508278 0.08744631 0.01193915 -0.17241322
-0.16089028 0.0066804504 0.05057128 -0.16275509 0.03973027 0.124706745 0.0755201 0.18046364
-0.032011945 0.071032144 0.12770127 -0.1909344 0.11738217 -0.11540316 -0.07486225 0.059561763
0.03640018 0.13899265 0.18787755 0.12955272 -0.10400239 -0.0076655187 0.05066137 0.07837556
0.13015483 0.045387283 -0.0018891437 0.22308446 0.07659642 0.048789855 0.024784476 -0.0010270773
-0.13760152 0.057822354 -0.064912416 0.1620535 0.09852036 -0.13597372 0.09527202 -0.08122196
0.041603107 -0.0071758516 0.12740836 0.051600717 -0.0072105536 0.07990888 0.14916705 -0.13323987
0.112515435 -0.10496887 0.06760017 0.06755114 0.12065764 -0.08620866 0.024587493 -0.115940005
-0.093771435 0.100036815 0.042760793 0.14764766 0.09780068 -0.010706948 0.014636294 -0.1362979
0.0040009012 -0.10247664 -0.17029652 -0.019528572 -0.13653404 -0.100344636 -0.12940997 -0.052694798
0.0044098645 0.003660673 0.038156826 -0.07044819 -0.020369263 -0.037077773 -0.021930052 -0.041220386
-0.088946894 0.19786282 0.15563713 0.0007934914 -0.15224224 -0.0828131 0.09862279 0.042060226
0.16173421 -0.17064634 -0.035302673 0.13739437 0.17164518 0.09074384 0.042539082 -0.011182061
0.0055753575 -0.028306164 -0.15759057 0.08492469 0.1363892 0.14066835 -0.10407959 -0.090803
0.022197593 -0.086561374 -0.12112163 0.19110377 0.08721728 -0.019341264 0.045955166 0.10210953
-0.11223166 0.12835613 -0.015488574 0.031506594 0.0256881 -0.16203693 0.10082312 -0.154089
-0.023955518 0.022008285 0.11652584 0.043196175 -0.05674435 -0.018846363 0.1438076 0.18636206
-0.046108894 -0.0705034 0.0033482849 0.10042962 0.03778512 0.18498537 -0.14296655 -0.07371759
00000000: c7de d13d ed94 153e 12dd 83bd ad81 25be
00000010: ea0f 723c 1ec6 95bc 0eaf 93bc ae2e 193e
00000020: 883b 9bbc e1a6 373e 2148 82bd 2040 cdbd
00000030: 33fa ce3d 2213 233e 78c6 963d 60a9 d6bd
00000040: 599e 3dbd 27e3 e43d 75b2 f7bd 2dae 133e
00000050: 5d69 e5bd 5d10 1d3e 1606 74bd 1b95 073e
00000060: a0aa e93d 0f7b fdbd 3af6 8a3d fa13 24bd
00000070: 4d63 8ebd 8995 973c 127c c93d 87d7 adbc
00000080: 269b d3bd 06f6 3b3d de40 713d bf81 183e
00000090: 606a 6abd c1e6 0a3e ac16 e73d 9267 c23b
000000a0: 58fe 34be 174a cdbd ef6c 19be 3441 ba3d
000000b0: 24cc 63bc 6da0 ea3d 04fb 173e 6d2e 2fbe
000000c0: 0683 3abd 40d4 76bc c474 9d3d 6991 3e3e
000000d0: 2cd8 a3bd 5dcc 71bd 41dc 14be bb32 eabd
000000e0: 38f6 aa3d 5a53 ba3d 5709 babd 9ebc d43d
000000f0: 54f1 acbd 23cb 02bd ab8e 0ebd ad63 d8bd
00000100: 9528 183e fd03 dabd e2dc 1d3e aa79 11be
00000110: 42e5 903d 9332 b23d faea 34be 7a8a 19be
00000120: 9a3e 053e 84b2 093e d50b b43d 14c2 263e
00000130: 75ea 40be 800a b9bd a87b 1d3e a4af bfbd
00000140: 6468 0dbe 2e3b 34bd 34f6 453e c4c4 ffbd
00000150: 4f5e e93d 8232 b8bd 46c6 1dbe 3a6a 9c3c
00000160: 84c3 e0bd 9d7f 5dbd 4cec fcbd 0bb0 7e3d
00000170: 7120 fe3d 6766 c9bd 78d2 1c3e c5fc 0dbd
00000180: 4db1 26bd d007 69ba 9e6f c23c 109b 923b
00000190: 1a44 6fbc 6e24 2ebe 96a9 1bbe 08fc ae3c
000001a0: e013 7739 3d7e afbd 2e7e a0bc ffbb 013e
000001b0: 68a7 4e3e 6f34 3ebd d369 a4bd 7694 3ebe
000001c0: ca92 8b3d 0d62 1f3e e37f 3abd 3ed9 19bc
000001d0: 1f4a 853d 0d17 b33d 6d9c 433c 178d 30be
000001e0: 6cc0 24be aee7 da3b d523 4f3d 45a9 26be
000001f0: 35bc 223d 4066 ff3d 48aa 9a3d 76cb 383e
00000200: f51e 03bd 4d79 913d 1fc4 023e 4f84 43be
00000210: 1066 f03d 7e58 ecbd 6151 99bd 09f7 733d
00000220: 5b18 153d 1754 0e3e f962 403e 78a9 043e
00000230: 34ff d4bd 082f fbbb 4c82 4f3d 5e83 a03d
00000240: 4f47 053e 04e8 393d 259d f7ba 4170 643e
00000250: 95de 9c3d dfd7 473d d008 cb3c ff9e 86ba
00000260: 6ae7 0cbe 22d7 6c3d cdf0 84bd 5af1 253e
00000270: 0bc5 c93d b23c 0bbe fa1d c33d b357 a6bd
00000280: 0568 2a3d 6823 ebbb 5677 023e 465b 533d
00000290: 8246 ecbb 44a7 a33d 3fbf 183e 0870 08be
000002a0: 7e6e e63d ebf9 d6bd f571 8a3d 4158 8a3d
000002b0: 5a1b f73d 2a8e b0bd b66b c93c f471 edbd
000002c0: 3d0b c0bd 1ae0 cc3d f125 2f3d f330 173e
000002d0: b94b c83d 326c 2fbc 11cd 6f3c ad91 0bbe
000002e0: fe19 833b 46df d1bd 3662 2ebe 62fa 9fbc
000002f0: 94cf 0bbe 7d81 cdbd 0c84 04be 80d6 57bd
00000300: a080 903b e7e7 6f3b 554a 1c3d 2447 90bd
00000310: 71dd a6bc ddde 17bd a7a6 b3bc b5d6 28bd
00000320: ca29 b6bd 8d9c 4a3e 575f 1f3e 4e02 503a
00000330: 64e5 1bbe ea99 a9bd bffa c93d 5847 2c3d
00000340: a79d 253e eabd 2ebe 8999 10bd 1cb1 0c3e
00000350: c1c3 2f3e e8d7 b93d 763d 2e3d f734 37bc
00000360: 7db1 b63b 54e2 e7bc 6c5f 21be ffec ad3d
00000370: 9ca9 0b3e 5d0b 103e ae27 d5bd ecf6 b9bd
00000380: bad7 b53c 1747 b1bd 9e0e f8bd b5b0 433e
00000390: f99e b23d 9271 9ebc 7c3b 3c3d cd1e d13d
000003a0: b6d9 e5bd ca6f 033e cac3 7dbc 0f0d 013d
000003b0: da6f d23c 02ed 25be 5a7c ce3d 82c9 1dbe
000003c0: 5d3e c4bc b84a b43c 19a5 ee3d 79ee 303d
000003d0: c36c 68bd b063 9abc 4d42 133e b2d5 3e3e
000003e0: aedc 3cbd 1664 90bd e66e 5b3b 0bae cd3d
000003f0: 92c4 1a3d ce6c 3d3e d365 12be 3ff9 96bd

convs.1.lin_l.weight f4 [128, 64]
-0.045312066 -0.09279737 0.08184723 0.064791575 -0.025655389 0.060238328 0.09423559 -0.017666359
0.003564784 -0.047157742 0.08240208 0.013703665 -0.018056685 0.13398828 -0.104248896 -0.01318329
0.09060261 0.09392003 0.08181851 0.08758311 -0.11699195 0.0984745 -0.007874691 0.06746914
0.06937183 0.063106395 0.025961803 -0.074610144 0.13572794 -0.11146227 -0.10328169 -0.044086732
-0.0537675 0.078179486 0.10622071 -0.014927116 -0.0974113 0.094126664 -0.060816377 0.113366716
0.110871315 0.07027726 0.10750425 0.07710474 0.07046897 -0.041375536 -0.09163639 -0.0064504496
0.08000323 0.16531992 0.10179764 0.076123655 0.13814178 -0.09979168 0.035663575 0.075545385
-0.1117817 -0.11568029 0.058636077 0.05793502 -0.056057792 0.0014843172 0.09361248 0.056047946
-0.061841574 0.117157616 -0.025958883 0.11482023 -0.1345892 0.124944024 0.02847494 -0.1266058
0.0024091383 -0.016711554 -0.037399687 0.1316923 0.09345424 0.1562614 0.093894936 0.04692334
-0.10732756 0.1583768 0.0004908055 0.09571093 0.12859605 0.010760037 -0.02862752 0.08974545
-0.06780077 0.009978961 0.032274943 0.14632806 0.06852075 0.06208798 0.041085266 0.12680864
0.08271219 0.12715605 0.14457549 0.029871909 -0.008997284 0.036581248 -0.005846211 -0.114979975
-0.08479284 -0.09535263 0.07603047 0.021623315 -0.058073517 0.028306128 0.0060554845 0.040208016
0.090646684 -0.07561003 0.052862402 0.15035708 0.07849528 0.085498974 0.070355654 -0.037269153
-0.028007442 0.14153227 0.090940274 -0.10665353 -0.005062217 -0.052965768 0.12345629 -0.062777415
0.029639585 -0.1324904 0.060934264 -0.030432535 0.06323945 -0.02010177 -0.036012128 -0.09013496
-0.10992148 0.02776039 0.025849808 0.014415507 0.097746685 -0.082965925 -0.029622363 -0.06602756
-0.14645506 -0.07771756 -0.16740082 0.06578171 0.10794528 -0.11754766 -0.016489662 -0.041797947
0.055707615 0.14560826 0.035061892 -0.058227517 0.006317862 -0.065218106 -0.09889334 -0.078170866
-0.12001882 0.024735566 -0.08872798 0.040144894 -0.09281027 0.09020196 -0.045052916 -0.046718094
-0.1103843 -0.085583985 0.09301995 0.062444657 0.03572892 -0.031866487 0.05873095 -0.015510793
-0.05359889 -0.11782096 -0.08876411 -0.08457626 0.034254707 -0.056452855 -0.09554822 0.06245136
-0.08051621 -0.015717693 0.033059396 0.11593902 -0.089325935 -0.12214579 0.070626944 -0.050471056
0.031679306 0.045252346 -0.101225555 -0.112296976 -0.08702609 -0.110599056 -0.12467872 -0.08340507
-0.051027372 -0.12331179 -0.0038310566 -0.022126189 0.05042735 -0.06495847 -0.07667374 0.055729292
-0.15449862 -0.052312467 -0.023975505 0.04049662 -0.1045434 -0.007250242 -0.111852616 -0.017271077
-0.017940544 0.00555065 -0.098056264 0.04850406 -0.047034733 0.101769894 -0.07032975 -0.02651309
0.1053944 0.011831924 -0.0505037 0.05772106 0.016727917 -0.13629341 0.065309405 0.034628704
0.029147495 -0.005266387 -0.06311099 0.115208864 0.055867895 -0.086933315 0.0554574 -0.12646262
-0.115448505 0.038398303 -0.025587706 0.103658326 -0.12797086 0.024027165 -0.13814507 -0.039000936
0.04696346 -0.10744048 0.015395673 -0.083655804 -0.0034092122 0.0214713 -0.1179434 0.03206896
00000000: 2599 39bd 8c0c bebd 859f a73d 72b1 843d
00000010: 402b d2bc 77bc 763d 97fe c03d 0ab9 90bc
00000020: 279f 693b 7a28 41bd 6cc2 a83d 5685 603c
00000030: 9deb 93bc 3934 093e 7280 d5bd bafe 57bc
00000040: dc8d b93d 2559 c03d 7790 a73d c65e b33d
00000050: 7a99 efbd 00ad c93d d904 01bc 432d 8a3d
00000060: d112 8e3d ed3d 813d d9ad d43c 34cd 98bd
00000070: 44fc 0a3e 5546 e4bd 5a85 d3bd 4a94 34bd
00000080: 4f3b 5cbd 911c a03d 3e8a d93d dd90 74bc
00000090: 937f c7bd 7bc5 c03d 981a 79bd cf2c e83d
000000a0: 8010 e33d 86ed 8f3d 302b dc3d 17e9 9d3d
000000b0: 0952 903d 6579 29bd dcab bbbd 4b5e d3bb
000000c0: bcd8 a33d a049 293e 487b d03d b8e6 9b3d
000000d0: 0a75 0d3e 955f ccbd f813 123d 8ab7 9a3d
000000e0: ceed e4bd cae9 ecbd 622c 703d 464d 6d3d
000000f0: db9c 65bd 6c8d c23a e6b7 bf3d 8892 653d
00000100: 974d 7dbd 55f0 ef3d b9a7 d4bc de26 eb3d
00000110: c0d1 09be a7e2 ff3d 4744 e93c f3a4 01be
00000120: a2e2 1d3b abe6 88bc 6a30 19bd 59da 063e
00000130: f064 bf3d fd02 203e fd4b c03d b032 403d
00000140: 8dce dbbd 872d 223e 66a9 003a 1804 c43d
00000150: afae 033e de4a 303c 4384 eabc 76cc b73d
00000160: 21db 8abd cc7e 233c bb32 043d 06d7 153e
00000170: 9b54 8c3d f74f 7e3d 0649 283d 20da 013e
00000180: 0265 a93d 3235 023e 990b 143e efb5 f43c
00000190: 5869 13bc 38d6 153d 9391 bfbb 9f7a ebbd
000001a0: dea7 adbd 3d48 c3bd ddb5 9b3d 6123 b13c
000001b0: 7fde 6dbd 41e2 e73c 166d c63b 29b1 243d
000001c0: f8a4 b93d 6ed9 9abd 3f86 583d 35f7 193e
000001d0: 22c2 a03d 161a af3d a016 903d 8aa7 18bd
000001e0: dd6f e5bc d6ed 103e e53e ba3d 2a6d dabd
000001f0: f4e0 a5bb a2f2 58bd a7d6 fc3d 7291 80bd
00000200: b7ce f23c 90ab 07be 3596 793d a74d f9bc
00000210: af83 813d 78ac a4bc 7481 13bd ae98 b8bd
00000220: 831e e1bd c269 e33c fac2 d33c 052f 6c3c
00000230: 6a2f c83d 0aea a9bd 99aa f2bc 7539 87bd
00000240: 51f8 15be 622a 9fbd 1f6b 2bbe 90b8 863d
00000250: 6a12 dd3d d4bc f0bd 5415 87bc 5334 2bbd
00000260: ab2d 643d 551a 153e 0f9d 0f3d fa7f 6ebd
00000270: 1106 cf3b 1291 85bd 9788 cabd 0c18 a0bd
00000280: 6dcc f5bd 3ea2 ca3c 04b7 b5bd f96e 243d
00000290: 5013 bebd cebb b83d 6889 38bd 795b 3fbd
000002a0: 2a11 e2bd a846 afbd 3e81 be3d f8c5 7f3d
000002b0: 7d58 123d 6f86 02bd dd8f 703d fb20 7ebc
000002c0: 828a 5bbd 1e4c f1bd f5c9 b5bd 5136 adbd
000002d0: aa4e 0c3d 1c3b 67bd c9ae c3bd ffcc 7f3d
000002e0: afe5 a4bd 64c2 80bc 4a69 073d 7071 ed3d
000002f0: 84f0 b6bd 9227 fabd dca4 903d bdba 4ebd
00000300: 29c2 013d 865a 393d 584f cfbd f5fb e5bd
00000310: bc3a b2bd c281 e2bd 8f57 ffbd 47d0 aabd
00000320: 1402 51bd e48a fcbd 7712 7bbb fb41 b5bc
00000330: e98c 4e3d f208 85bd 1f07 9dbd 6644 643d
00000340: e334 1ebe 9945 56bd 4768 c4bc c9df 253d
00000350: da1a d6bd 7093 edbb fc12 e5bd 137c 8dbc
00000360: 0cf8 92bc 3ae2 b53b b9d1 c8bd 31ac 463d
00000370: 7ea7 40bd bc6c d03d 0b09 90bd fb31 d9bc
00000380: 05d9 d73d b0da 413c f8dc 4ebd eb6c 6c3d
00000390: fc08 893c 8090 0bbe f0c0 853d d4d6 0d3d
000003a0: bac6 ee3c a891 acbb 5640 81bd a0f2 eb3d
000003b0: bcd5 643d 180a b2bd 4c27 633d 6b7f 01be
000003c0: 4470 ecbd 8a47 1d3d 4f9d d1bc d14a d43d
000003d0: cb0a 03be 9ed4 c43c e775 0dbe 72bf 1fbd
000003e0: c25c 403d c109 dcbd 223e 7c3c bc53 abbd
000003f0: 176d 5fbb 94e4 af3c 4f8c f1bd be5a 033d

convs.1.lin_l.bias f4 [128]
0.055410106 0.10303545 0.0997953 -0.044162307 0.027937127 0.08372886 -0.13542813 0.122320235
0.008787235 0.0077337795 -0.07213158 -0.012506234 0.039691783 -0.11026615 0.027658015 -0.119228825
-0.01526486 0.014421818 -0.049614344 0.05771229 0.058394384 -0.02932179 0.08606818 -0.06277412
-0.041973416 -0.0263589 -0.09652727 -0.053552233 0.06890035 -0.0034828526 -0.09707558 -0.01638609
0.040764976 -0.08340267 -0.055828527 -0.055523932 0.06039763 -0.07853469 -0.056325216 -0.083675034
0.066929296 0.06448752 -0.10427678 -0.039308876 -0.09893682 0.014948167 0.006745724 0.004656483
0.10644818 -0.090790495 0.12466202 0.031060036 -0.042589914 0.004013094 0.0011421004 0.04120506
0.011802563 -0.024208684 -0.012680903 0.056735437 0.071468756 -0.07439928 -0.09202851 -0.09514601
-0.0105766645 -0.063561335 0.12277323 -0.05213701 0.13807142 -0.065144785 0.09562706 -0.04363719
-0.03272519 0.01691838 -0.025485713 0.070709795 0.00087898655 -0.03172261 0.0317688 -0.0026443196
-0.11248747 -0.00066819735 -0.09318514 -0.09992048 0.0012701824 -0.0861004 0.027902145 0.004395116
-0.1262834 0.05859571 -0.11440431 0.08110991 -0.06183089 -0.07579769 -0.07428397 0.07074573
0.09189587 -0.014305372 -0.0026025032 0.037527196 -0.013221373 0.1120651 -0.12445751 0.097324945
-0.008007149 -0.09211101 -0.047539365 0.023273539 -0.13587621 -0.12210963 0.10891783 -0.019762643
-0.084353454 -0.10428729 0.08140607 -0.03327363 0.04432854 -0.06080425 0.08832779 0.09501617
0.09194618 -0.0965487 -0.052745223 -0.04603493 0.053033344 -0.03995201 -0.123628706 0.036986053
00000000: b5f5 623d 4004 d33d 7a61 cc3d 89e3 34bd
00000010: 67dc e43c 097a ab3d acad 0abe 0883 fa3d
00000020: 56f8 0f3c a56b fd3b b9b9 93bd f3e6 4cbc
00000030: da93 223d 38d3 e1bd 1093 e23c 3e2e f4bd
00000040: 7719 7abc 7d49 6c3c 6938 4bbd b963 6c3d
00000050: f32e 6f3d 4034 f0bc 8444 b03d b88f 80bd
00000060: 51ec 2bbd 9fee d7bc 17b0 c5bd 9659 5bbd
00000070: a01b 8d3d 9240 64bb 90cf c6bd 1f3c 86bc
00000080: 2df9 263d 05cf aabd 74ac 64bd 106d 63bd
00000090: 8163 773d ccd6 a0bd 45b5 66bd d15d abbd
000000a0: 3a12 893d 0812 843d 108f d5bd 5802 21bd
000000b0: 639f cabd 28e9 743c 3c0b dd3b 6995 983b
000000c0: 8101 da3d 5ef0 b9bd cd4e ff3d 9e71 fe3c
000000d0: c372 2ebd 4680 833b 88b2 953a a3c6 283d
000000e0: 8a5f 413c 4a51 c6bc 90c3 4fbc 6b63 683d
000000f0: 365e 923d a65e 98bd 7279 bcbd e9db c2bd
00000100: bf49 2dbc 722c 82bd 8870 fb3d 9e8d 55bd
00000110: 9862 0d3e a16a 85bd 1fd8 c33d e9bc 32bd
00000120: d90a 06bd 6a98 8a3c 6ac7 d0bc 4cd0 903d
00000130: ca6b 663a 91ef 01bd 0020 023d 524c 2dbb
00000140: d55f e6bd f729 2fba dad7 bebd 1ca3 ccbd
00000150: 407c a63a 6855 b0bd 0a93 e43c e804 903b
00000160: 7050 01be 0e02 703d cf4c eabd f41c a63d
00000170: 6342 7dbd d23b 9bbd 3222 98bd 23e3 903d
00000180: e733 bc3d 1461 6abc c28e 2abb 1eb6 193d
00000190: 759e 58bc 6382 e53d 94e3 febd 4d52 c73d
000001a0: 6b30 03bc b2a4 bcbd a3b8 42bd 26a8 be3c
000001b0: 2223 0bbe 9d14 fabd 5010 df3d 44e5 a1bc
000001c0: 81c1 acbd 9394 d5bd 3ab8 a63d ee49 08bd
000001d0: d891 353d e10d 79bd 33e5 b43d d697 c23d
000001e0: 474e bc3d 53bb c5bd 600b 58bd 1f8f 3cbd
000001f0: 7e39 593d b8a4 23bd 0c31 fdbd b07e 173d

convs.1.lin_r.weight f4 [128, 64]
0.1070047 -0.08874668 0.007897894 -0.055052437 -0.072637655 -0.096756525 -0.06566821 -0.1443438
0.10905076 -0.09750817 0.0012263437 -0.02404574 0.055683218 0.027841287 0.09314123 0.101472765
0.13028377 -0.09758752 0.09406089 0.06365382 -0.0745912 0.0612981 -0.07276102 0.00873753
0.053288836 0.062286768 0.05851538 -0.06483788 0.03106689 -0.091075055 -0.062388416 0.07773748
0.010367774 -0.058710724 -0.07298307 -0.08535619 -0.045734204 0.05863273 0.07517008 -0.046334412
-0.059298377 0.028890137 0.058034834 -0.037756287 -0.053410366 0.116350465 -0.075926475 0.13488802
0.01869489 0.004862115 -0.07567981 0.021962387 -0.10278359 0.0133441705 0.036607657 0.06962482
0.12668945 -0.02323831 0.11546995 -0.046527423 0.0045131 0.07784494 0.09070583 0.0393105
0.04089292 -0.04583252 0.013225714 0.03724844 -0.09316674 0.079323165 0.06500641 0.05107856
0.047184885 0.042642623 0.044371612 -0.019079791 -0.10539485 -0.05303987 0.06911033 -0.0774853
0.058694232 -0.06954985 -0.028117858 0.079167314 -0.046099074 -0.025748784 0.08617098 0.01702755
0.14447033 0.070203 0.028245393 -0.054893594 -0.05595659 -0.0035393117 0.06508101 0.102368966
0.07165735 -0.07325767 0.01744911 0.059671365 -0.030703649 0.057893224 0.042534538 0.086815365
0.012408011 0.07773349 0.059017126 0.0049316394 -0.033897847 0.008532186 -0.026726848 0.058852028
0.0030073689 -0.08329133 -0.06117183 -0.054355994 -0.025689242 -0.07929601 0.09349419 0.060465045
-0.018826572 0.05577602 -0.07807344 -0.08230444 -0.017912058 0.045261607 0.00019390974 -0.036319986
-0.040509336 -0.04287536 -0.046253856 0.05015187 -0.016949223 0.0949849 0.013332076 -0.08038694
-0.103584014 -0.016168319 0.0032344023 -0.007622934 0.08888122 -0.022092769 -0.06924777 -0.014315725
-0.09621495 -0.13826735 0.096583664 -0.0069403453 0.048449468 -0.14456555 0.047107372 -0.027103497
-0.026581695 0.052255094 0.07367315 0.032438803 -0.03672891 -0.023918038 -0.12215 -0.0633183
-0.13362607 0.07198833 -0.11264945 -0.082977265 0.030949727 -0.07331779 -0.013840831 -0.04146696
-0.087338485 0.044115853 -0.06036837 -0.055869024 -0.112343416 -0.06484192 -0.01695316 -0.07182244
-0.038914777 0.11568943 -0.07439887 -0.035861377 -0.068624884 -0.011566829 -0.030297954 0.052882083
0.015797287 -0.0060396767 -0.09173003 0.043188747 -0.008175589 -0.028958768 0.051148172 -0.064267404
-0.1508318 0.080256656 -0.11174119 -0.11419693 0.10598536 -0.104748264 -0.14431572 -0.100648776
-0.007331044 -0.09497315 -0.06200619 0.003996855 0.02425094 -0.073534705 -0.050558977 0.09824843
-0.07180353 -0.02237658 0.11758576 -0.115335055 -0.076934755 -0.031241689 0.06770844 -0.015782444
-0.118785 0.021671101 -0.059455313 0.0359028 -0.037810665 -0.1071128 -0.00083804416 -0.066444084
-0.09082855 0.00956231 -0.11403423 -0.037828278 0.016850935 -0.10243257 -0.07325188 -0.0021984407
-0.1445819 0.08033065 -0.024136018 0.09162407 0.038724177 -0.007733084 -0.07353662 0.052170258
-0.018726243 0.028472144 -0.046517298 0.06623029 0.016742762 -0.10535261 0.014921092 -0.004521899
-0.106637515 -0.08790283 0.050022468 0.08695027 0.003576822 0.000593336 0.07222178 -0.025453817
00000000: 4825 db3d d2c0 b5bd 2b66 013c aa7e 61bd
00000010: 0dc3 94bd 4928 c6bd 0e7d 86bd dcce 13be
00000020: 0156 df3d 5db2 c7bd 44bd a03a 92fb c4bc
00000030: 1614 643d 6913 e43c d4c0 be3d f4d0 cf3d
00000040: 1c69 053e f7db c7bd ffa2 c03d ef5c 823d
00000050: 45c3 98bd b713 7b3d bb03 95bd db27 0f3c
00000060: 6545 5a3d 6920 7f3d d3ad 6f3d b9c9 84bd
00000070: fe7f fe3c 8f85 babd ff8a 7fbd d434 9f3d
00000080: 99dd 293c a87a 70bd 2678 95bd 3acf aebd
00000090: ca53 3bbd e028 703d c5f2 993d 27c9 3dbd
000000a0: dbe2 72bd 02ab ec3c efb5 6d3d 56a6 1abd
000000b0: d4c4 5abd 2749 ee3d 577f 9bbd 1620 0a3e
000000c0: 0726 993c 6052 9f3b 04fe 9abd 77ea b33c
000000d0: 3480 d2bd 82a1 5a3c e9f1 153d 7597 8e3d
000000e0: e1ba 013e 455e bebc 827b ec3d 8a93 3ebd
000000f0: a0e2 933b 2b6d 9f3d fac3 b93d 0c04 213d
00000100: 567f 273d e1ba 3bbd aab0 583c d291 183d
00000110: 34ce bebd 2f74 a23d 1522 853d c137 513d
00000120: f044 413d 08aa 2e3d 02bf 353d 394d 9cbc
00000130: 41d9 d7bd 5640 59bd b789 8d3d 9db0 9ebd
00000140: 5d69 703d 2770 8ebd 6c57 e6bc 7922 a23d
00000150: 62d2 3cbd 1def d2bc 697a b03d 5c7d 8b3c
00000160: 08f0 133e 97c6 8f3d e262 e73c 1bd8 60bd
00000170: bd32 65bd ccf3 67bb 3149 853d d2a6 d13d
00000180: 17c1 923d 1e08 96bd 70f1 8e3c f669 743d
00000190: 3886 fbbc 7221 6d3d b238 2e3d 41cc b13d
000001a0: f84a 4b3c bc32 9f3d f1bb 713d 9799 a13b
000001b0: 78d8 0abd 95ca 0b3c 43f2 dabc d30e 713d
000001c0: 4717 453b a594 aabd 508f 7abd 64a4 5ebd
000001d0: 3f72 d2bc f265 a2bd e279 bf3d 32aa 773d
000001e0: 2f3a 9abc 6575 643d f8e4 9fbd 3b8f a8bd
000001f0: 4fbc 92bc 3c64 393d 4054 4b39 44c4 14bd
00000200: 1eed 25bd 139e 2fbd af74 3dbd 0c6c 4d3d
00000210: 19d9 8abc 7187 c23d c86e 5a3c e8a1 a4bd
00000220: db23 d4bd 6c73 84bc 44f8 533b cec9 f9bb
00000230: 5b07 b63d e5fb b4bc c6d1 8dbd 818c 6abc
00000240: 580c c5bd f595 0dbe a8cd c53d d66b e3bb
00000250: f372 463d fe08 14be a9f3 403d 2708 debc
00000260: dbc1 d9bc 7009 563d f3e1 963d 8dde 043d
00000270: 0e71 16bd c3ef c3bc c729 fabd 06ad 81bd
00000280: 46d5 08be 9e6e 933d c1b4 e6bd fcef a9bd
00000290: 488a fd3c a327 96bd a7c4 62bc 42d9 29bd
000002a0: 85de b2bd d3b2 343d d344 77bd ebd6 64bd
000002b0: 4e14 e6bd d7cb 84bd 5ae1 8abc a517 93bd
000002c0: 1a65 1fbd 94ee ec3d 6f5e 98bd 61e3 12bd
000002d0: 348b 8cbd cc82 3dbc 6a33 f8bc e29a 583d
000002e0: 5069 813c 7be8 c5bb f4dc bbbd afe6 303d
000002f0: e8f2 05bc f03a edbc bf80 513d a19e 83bd
00000300: a773 1abe 9a5d a43d 91d8 e4bd 14e0 e9bd
00000310: da0e d93d 4286 d6bd 80c7 13be f220 cebd
00000320: 4139 f0bb 4881 c2bd 34fa 7dbd 0df8 823b
00000330: e8a9 c63c 5d99 96bd ee16 4fbd 7936 c93d
00000340: bb0d 93bd 174f b7bc ced0 f03d c934 ecbd
00000350: f88f 9dbd 92ee ffbc b9aa 8a3d 2f4a 81bc
00000360: 8d45 f3bd 9887 b13c 6a87 73bd d00e 133d
00000370: 5bdf 1abd f55d dbbd 31b0 5bba d613 88bd
00000380: 5204 babd 3cab 1c3c c78a e9bd d3f1 1abd
00000390: f90a 8a3c 2bc8 d1bd 1505 96bd b713 10bb
000003a0: 470d 14be 6584 a43d e6b8 c5bc 67a5 bb3d
000003b0: 3e9d 1e3d cf65 fdbb 5e9a 96bd 7bb0 553d
000003c0: c767 99bc 6a3e e93c ec88 3ebd bfa3 873d
000003d0: 1e28 893c 1cc3 d7bd 9977 743c 702c 94bb
000003e0: c564 dabd 6606 b4bd 5ce4 4c3d fc12 b23d
000003f0: 1e69 6a3b 1b8a 1b3a 03e9 933d 8684 d0bc

bns.0.weight f4 [64]
0.9948625 1.0226341 0.9352677 0.99038965 0.98504984 1.0171804 1.000878 0.9664129
1.0248919 0.969241 0.93456924 0.9507873 1.0108416 1.033607 0.95189375 0.99362516
0.9676949 1.0011897 0.93151116 1.0056008 0.95216227 0.9750567 1.0291722 0.955054
0.95584524 0.9935145 1.0282359 0.9582413 0.973235 0.97532433 0.9854552 0.96266615
0.98522645 0.96866417 1.0053617 0.94483244 1.0035173 0.9758403 1.0009867 0.9727174
0.95409864 0.9821603 0.9900975 0.94222283 0.9718755 0.99226063 0.9643929 0.9573053
1.0070242 0.94125676 0.989119 0.98883575 0.9887326 0.99489045 1.0096359 0.889188
1.0214425 1.0163486 1.0154487 0.9593129 0.9224347 1.0169706 0.9736356 1.0267102
00000000: 4faf 7e3f ade5 823f b46d 6f3f 2d8a 7d3f
00000010: 3a2c 7c3f f832 823f c51c 803f d666 773f
00000020: a82f 833f 2e20 783f ee3f 6f3f cc66 733f
00000030: 4263 813f 3c4d 843f 4faf 733f 385e 7e3f
00000040: daba 773f fc26 803f 8477 6e3f 87b7 803f
00000050: e8c0 733f 519d 793f eabb 833f 6b7e 743f
00000060: 46b2 743f f756 7e3f 3c9d 833f 4d4f 753f
00000070: ee25 793f dbae 793f cb46 7c3f 4a71 763f
00000080: cd37 7c3f 60fa 773f b1af 803f 8ae0 713f
00000090: 4173 803f abd0 793f 5520 803f 0204 793f
000000a0: cf3f 743f db6e 7b3f 0877 7d3f 8435 713f
000000b0: d5cc 783f cb04 7e3f 74e2 763f f611 753f
000000c0: 2be6 803f 34f6 703f e736 7d3f 5724 7d3f
000000d0: 941d 7d3f 24b1 7e3f c03b 813f d3a1 633f
000000e0: a1be 823f b617 823f 39fa 813f 8895 753f
000000f0: ae24 6c3f 182c 823f 2f40 793f 3d6b 833f

bns.0.bias f4 [64]
0.0039553316 -0.000113440154 -0.05145874 -0.005297082 -0.003967679 0.015459995 -0.007500796 -0.036020443
0.040265154 -0.016915835 -0.048327122 -0.05182881 0.008231083 0.041454677 -0.028374828 -0.016283726
-0.0074960217 0.032562543 -0.05780278 0.01210121 -0.03617236 -0.029337073 0.037271537 -0.05539259
-0.020761188 -0.027124368 0.038141258 -0.04596379 -0.0027491844 -0.011819784 -0.00076877204 -0.02550214
-0.016674401 -0.022054372 0.04109396 -0.049372684 0.023065208 -0.028661042 0.018418478 -0.024279125
-0.014005337 0.0040412773 -0.028513284 -0.04067702 -0.03734138 0.0075134966 -0.030498276 -0.046203844
0.008295089 -0.06774395 0.0069492697 -0.00038154106 0.0060098255 0.001311171 0.0031669997 -0.08209777
0.015933465 0.017769234 0.0028590197 -0.030833343 -0.07616675 0.0072386814 -0.0050087688 0.01075603
00000000: ba9b 813b b8e6 edb8 66c6 52bd 2593 adbb
00000010: 4e03 82bb eb4b 7d3c 3dc9 f5bb 2c8a 13bd
00000020: 13ed 243d 1493 8abc a9f2 45bd 724a 54bd
00000030: aadb 063c 61cc 293d 5472 e8bc 7365 85bc
00000040: 30a1 f5bb 4d60 053d 9cc2 6cbd 2744 463c
00000050: 7829 14bd 4d54 f0bc 0aaa 183d 57e3 62bd
00000060: 5e13 aabc ec33 debc 023a 1c3d 8744 3cbd
00000070: a92b 34bb c4a7 41bc 6b87 49ba dde9 d0bc
00000080: c198 88bc 5fab b4bc 2452 283d 033b 4abd
00000090: 3ff3 bc3c 90ca eabc 59e2 963c 04e5 c6bc
000000a0: a476 65bc b16c 843b b194 e9bc f29c 26bd
000000b0: 46f3 18bd c733 f63b 85d7 f9bc 3e40 3dbd
000000c0: 20e8 073c 57bd 8abd b3b6 e33b 9309 c8b9
000000d0: 12ee c43b 99db ab3a 708d 4f3b e022 a8bd
000000e0: e686 823c c990 913c 645e 3b3b 3596 fcbc
000000f0: 50fd 9bbd 7632 ed3b 9920 a4bb 0f3a 303c

bns.0.running_mean f4 [64]
0.08295714 0.073858924 -0.043038473 0.14131477 0.010462264 0.057134233 0.02776327 0.04128443
0.047444966 -0.0009100805 0.05256378 0.05696334 -0.06151182 -0.038060766 -0.06457696 0.13114513
-0.016187062 -0.037564665 -0.15142134 -0.056572635 0.0039782254 -0.042001553 0.0044877757 -0.094112694
-0.09814015 0.10891413 0.10119224 -0.021637455 -0.015863491 -0.008644687 -0.07835926 -0.12767959
-0.033391237 0.18046871 -0.039697506 0.02806492 0.05124249 0.035790566 -0.08418594 0.011282013
-0.013695585 0.08958656 -0.10518991 -0.030490104 -0.051617954 0.081499666 0.04013139 -0.054944985
0.016844874 -0.071741104 -0.04228491 0.095865816 0.09410323 0.0057788687 0.10794718 -0.111084506
0.18125585 0.06746736 -0.01479142 0.12924273 -0.08696528 0.11492568 -0.05811991 -0.0013264661
00000000: 6fe5 a93d 5943 973d 1c49 30bd d2b4 103e
00000010: ea69 2b3c 9605 6a3d cc6f e33c dd19 293d
00000020: a755 423d 7892 6eba 1e4d 573d 6452 693d
00000030: d1f3 7bbd 9be5 1bbd ed40 84bd e94a 063e
00000040: bb9a 84bc 68dd 19bd 320e 1bbe b5b8 67bd
00000050: c65b 823b d209 2cbd 310e 933b 28be c0bd
00000060: b4fd c8bd 5f0e df3d e13d cf3d 0841 b1bc
00000070: 27f4 81bc 72a2 0dbc d27a a0bd 70be 02be
00000080: 40c5 08bd cacc 383e da99 22bd 67e8 e53c
00000090: a5e3 513d 2199 123d ae69 acbd 31d8 383c
000000a0: 7263 60bc 2979 b73d cf6d d7bd 62c6 f9bc
000000b0: 596d 53bd 4ce9 a63d d060 243d fe0d 61bd
000000c0: 43fe 893c 00ed 92bd f132 2dbd 4c55 c43d
000000d0: 32b9 c03d aa5c bd3b 6913 dd3d 4680 e3bd
000000e0: 229b 393e 542c 8a3d b657 72bc 3558 043e
000000f0: da1a b2bd 285e eb3d 250f 6ebd d1dc adba

bns.0.running_var f4 [64]
0.009789206 0.010096892 0.008773373 0.008523754 0.009486832 0.010919082 0.007231254 0.011287829
0.008175324 0.0062441896 0.00936089 0.0119599905 0.011799927 0.012864203 0.012530641 0.007459923
0.007487412 0.011352468 0.00865447 0.0078890845 0.01413798 0.0094237 0.009893551 0.0079584
0.009033696 0.0078558 0.010510878 0.010284614 0.010588744 0.012831293 0.011409335 0.0085611325
0.014361566 0.009318067 0.0077007143 0.008847677 0.010049955 0.009005899 0.009832194 0.006558452
0.011747002 0.008162183 0.008529972 0.0075141173 0.010070611 0.008659309 0.009639287 0.007861309
0.014291941 0.009102827 0.012147819 0.011520172 0.010868083 0.013047043 0.008340719 0.0061696307
0.009867658 0.009475401 0.010247071 0.006431019 0.0076354733 0.0099124415 0.011032716 0.010352872
00000000: e862 203c 6f6d 253c 32be 0f3c 37a7 0b3c
00000010: a86e 1b3c f3e5 323c 28f4 ec3b 96f0 383c
00000020: cbf1 053c 0f9c cc3b 6b5e 193c d6f3 433c
00000030: 7b54 413c 61c4 523c 514d 4d3c 5f72 f43b
00000040: f758 f53b b4ff 393c 7acb 0d3c 3841 013c
00000050: fca2 673c dd65 1a3c 8f18 223c f363 023c
00000060: 1102 143c 9db5 003c d135 2c3c cc80 283c
00000070: 697c 2d3c 583a 523c 38ee 3a3c fe43 0c3c
00000080: c64c 6b3c ceaa 183c 4656 fc3b d9f5 103c
00000090: 91a8 243c 7a8d 133c 3617 213c 48e8 d63b
000000a0: 7f76 403c adba 053c 4cc1 0b3c fc38 f63b
000000b0: 34ff 243c c6df 0d3c 1aee 1d3c b8cc 003c
000000c0: bf28 6a3c 0624 153c a507 473c 1abf 3c3c
000000d0: 0b10 323c 44c3 553c 83a7 083c 9d2a ca3b
000000e0: f5ab 213c b63e 1b3c 55e3 273c 4cbb d23b
000000f0: fe32 fa3b cb67 223c 91c2 343c 189f 293c

bns.1.weight f4 [128]
0.24344893 0.26987985 0.25931695 0.2452057 0.26103824 0.26650548 0.30135977 0.26928765
0.2634187 0.25598696 0.2639363 0.28178686 0.26459822 0.26315537 0.27821153 0.2784013
0.25909594 0.24812834 0.26319146 0.276172 0.26953053 0.2585638 0.2678438 0.24786967
0.2566545 0.26770213 0.26375222 0.27869886 0.26723474 0.26191404 0.25587964 0.24990624
0.26050958 0.25840428 0.28392434 0.23202194 0.26685694 0.25471804 0.24525921 0.25026247
0.26711154 0.2562381 0.273041 0.27906802 0.27698237 0.27652702 0.28034705 0.28409165
0.26000744 0.26658216 0.24577722 0.2700739 0.24442728 0.25194737 0.26925468 0.2628056
0.28391382 0.2501466 0.25457823 0.2678021 0.26151234 0.25100502 0.2739898 0.26640198
0.24754943 0.27413568 0.27373755 0.26185694 0.25292534 0.26180506 0.26347703 0.28493693
0.27830833 0.26126793 0.25801474 0.27992165 0.23486215 0.2700863 0.29391783 0.25486714
0.27561274 0.27595773 0.2811382 0.27532393 0.2636499 0.25129917 0.27401224 0.2555326
0.23280092 0.26441026 0.2766345 0.2999421 0.26930675 0.26893038 0.26375178 0.27482483
0.28452832 0.2488721 0.26792416 0.26673678 0.28580695 0.27472717 0.2464592 0.2919372
0.27033216 0.2713205 0.28197676 0.26216114 0.27873182 0.27354902 0.2515751 0.25243142
0.2592247 0.25541162 0.26320672 0.2681251 0.254019 0.2652129 0.26706028 0.26817933
0.25412154 0.27655688 0.27055368 0.26982284 0.25786093 0.23789641 0.25726035 0.2542368
00000000: ad4a 793e b12d 8a3e 31c5 843e 3417 7b3e
00000010: cea6 853e 6873 883e d44b 9a3e 12e0 893e
00000020: d1de 863e b910 833e a922 873e 5e46 903e
00000030: 6b79 873e 4dbc 863e be71 8e3e 9d8a 8e3e
00000040: 39a8 843e 5b15 7e3e 08c1 863e 6b66 8d3e
00000050: e8ff 893e 7962 843e d322 893e 8cd1 7d3e
00000060: 3868 833e 4110 893e 880a 873e 9eb1 8e3e
00000070: fed2 883e 9919 863e a802 833e 6ce7 7f3e
00000080: 8361 853e 914d 843e 885e 913e 2997 6d3e
00000090: 79a1 883e 676a 823e 3b25 7b3e 6722 803e
000000a0: d8c2 883e a431 833e 08cc 8b3e 01e2 8e3e
000000b0: a2d0 8d3e f394 8d3e a689 8f3e 7674 913e
000000c0: b21f 853e 757d 883e 06ad 7b3e 2047 8a3e
000000d0: 254b 7a3e 3fff 803e c0db 893e 758e 863e
000000e0: 275d 913e 3713 803e 1458 823e 5b1d 893e
000000f0: f2e4 853e bb83 803e 6448 8c3e d765 883e
00000100: 997d 7d3e 835b 8c3e 5427 8c3e 1d12 863e
00000110: 6e7f 813e 500b 863e 76e6 863e 41e3 913e
00000120: 6e7e 8e3e e9c4 853e 821a 843e e451 8f3e
00000130: b47f 703e c048 8a3e 667c 963e f27d 823e
00000140: 1d1d 8d3e 554a 8d3e 59f1 8f3e 42f7 8c3e
00000150: 1ffd 863e 49aa 803e 554b 8c3e 2bd5 823e
00000160: 5d63 6e3e c860 873e 0aa3 8d3e 0392 993e
00000170: 93e2 893e 3eb1 893e 790a 873e d7b5 8c3e
00000180: b2ad 913e 54d8 7e3e 5b2d 893e b991 883e
00000190: 4a55 923e 0aa9 8c3e cd5f 7c3e cb78 953e
000001a0: fa68 8a3e 85ea 8a3e 425f 903e fc39 863e
000001b0: f0b5 8e3e 9e0e 8c3e 74ce 803e b13e 813e
000001c0: 1ab9 843e 50c5 823e 08c3 863e b147 893e
000001d0: c70e 823e fcc9 873e 20bc 883e cd4e 893e
000001e0: 381c 823e dd98 8d3e 0386 8a3e 3826 8a3e
000001f0: 5906 843e 1e9b 733e a1b7 833e 532b 823e

bns.1.bias f4 [128]
-0.0016041676 0.010748658 -0.004644648 -0.0014109301 -0.002205519 -0.000998751 -0.007431777 0.0004212631
0.0020810151 -0.008539853 -0.003210254 -0.0046344213 0.00085598155 -0.0011916601 0.011851151 -0.007838086
-0.0015903445 -0.0010960059 0.0027589398 0.0014103266 -0.0015969136 -0.004332145 -0.00026314324 0.000967132
-0.0028754005 0.0034956094 0.0068335724 -0.0107077705 -0.0019529749 0.009314857 -0.0021432845 0.007573134
-0.0005730365 0.0028255614 -0.001711284 0.0044345963 0.0020154759 0.0028218478 0.0023232945 -0.0017323572
-0.0042317854 -0.0024555319 -0.0045983302 0.0068386504 -0.003564118 -0.0007054135 0.006177636 0.009279695
0.0036165905 0.0007712258 -0.0025245175 -0.00040911185 -0.0048476984 -0.002554927 -0.004923469 -0.0057204636
0.0038389792 0.00032652513 -0.0031217022 0.0011604633 -0.005285631 -0.0041406504 -0.010788405 0.009761343
0.0032188524 0.007192224 0.00051765103 -0.009435018 0.0028349638 0.00039560773 0.007212694 -0.008095534
0.0074315732 0.0006153378 -0.0075978027 0.0083882 0.0031123066 -0.0031860953 -0.014354112 0.0065991874
-0.009849535 0.003137023 -0.0075091976 -0.003396181 -0.0059224307 0.0015091132 0.0037183906 0.0046903295
-0.0038838286 1.0149513e-05 -0.007954793 0.013428188 0.00055015023 -0.004487883 0.0019460025 0.0018347183
-0.008896477 -0.0011980736 0.008969676 -0.00589328 -0.0013511941 -0.0015694979 -0.0005294008 -0.009074275
-0.0009723309 -0.005533319 -0.0134413 -0.006179569 -0.011848832 0.0050008837 -0.0043120226 -0.0038166076
0.0031617833 -0.0013739312 -0.0073966444 -0.0032346572 0.0010147915 -0.00047942344 -0.0047796406 -0.0006802017
-0.0036939275 -0.0075993035 -0.014558131 -0.00074975204 0.005238602 0.0017189748 -0.0021985865 0.0029873732
00000000: ef42 d2ba 241b 303c 2232 98bb f5ee b8ba
00000010: 788a 10bb 86e8 82ba 4486 f3bb fadc dc39
00000020: a461 083b bdea 0bbc 2063 52bb 58dc 97bb
00000030: f363 603a 7a31 9cba 542b 423c 516b 00bc
00000040: 1b73 d0ba dba7 8fba 54cf 343b b5da b83a
00000050: 874f d1ba abf4 8dbb 7df6 89b9 2187 7d3a
00000060: 3771 3cbb 9816 653b 29ec df3b a56f 2fbc
00000070: f7fa ffba 589d 183c 5976 0cbb 0d28 f83b
00000080: d437 16ba 0e2d 393b 2a4d e0ba 1750 913b
00000090: 1316 043b c0ee 383b 6a42 183b 4310 e3ba
000000a0: caaa 8abb fdec 20bb 97ad 96bb c216 e03b
000000b0: fa93 69bb 80eb 38ba c46d ca3b dd09 183c
000000c0: 5204 6d3b 162c 4a3a 6072 25bb 107e d6b9
000000d0: 71d9 9ebb 9070 27bb 0d55 a1bb ba72 bbbb
000000e0: 6297 7b3b 7631 ab39 7995 4cbb b01a 983a
000000f0: 1633 adbb 4bae 87bb dac1 30bc 0aee 1f3c
00000100: 62f3 523b bfac eb3b f9b2 073a 5595 1abc
00000110: cdca 393b 9269 cf39 7658 ec3b 21a3 04bc
00000120: 8e84 f33b 9f4e 213a fdf6 f8bb a96e 093c
00000130: d7f7 4b3b cfcd 50bb 822d 6bbc ff3d d83b
00000140: f25f 21bc 8396 4d3b b70f f6bb 7692 5ebb
00000150: f310 c2bb 70cd c53a 3eb0 733b 56b1 993b
00000160: d587 7ebb d447 2a37 d254 02bc e701 5c3c
00000170: f537 103a 170f 93bb 0211 ff3a ee7a f03a
00000180: 87c2 11bc ae08 9dba 8cf5 123c 6a1c c1bb
00000190: 8d1a b1ba 9cb7 cdba 7cc7 0aba 45ac 14bc
000001a0: 06e4 7eba d850 b5bb e638 5cbc fb7d cabb
000001b0: 9a21 42bc 74de a33b de4b 8dbb 0d20 7abb
000001c0: ec35 4f3b 7b15 b4ba 8d5f f2bb 8bfc 53bb
000001d0: c102 853a 205b fbb9 889e 9cbb 904f 32ba
000001e0: d215 72bb 9403 f9bb 3a85 6ebc 028b 44ba
000001f0: 94a8 ab3b 394f e13a 2916 10bb cec7 433b

bns.1.running_mean f4 [128]
0.07992062 0.10587132 -0.10631812 -0.14122432 0.012768521 0.11930028 -0.079641536 0.06823892
-0.06890848 -0.11872114 0.028241288 -0.021203013 0.03082972 -0.14378285 0.06419352 -0.049797777
-0.013523719 0.0082390485 0.05060428 0.032652795 0.078462675 -0.014208338 0.10267961 -0.034601044
-0.08460532 0.043787315 0.10290516 -0.053837217 0.1004455 -0.124902815 0.034224987 0.18205327
0.03815783 -0.06768285 -0.19180867 -0.18978374 0.03012504 0.056669697 -0.0097381435 -0.05371685
-0.0093943095 -0.07456838 -0.09573573 0.06457543 -0.04784733 -0.050503463 0.02988004 0.0017150533
0.075374156 -0.07272646 0.1579854 -0.030204702 -0.15025331 -0.029306678 -0.15737243 0.07081285
0.0068012723 -0.069154546 0.009986365 0.08045965 -0.16625607 -0.18346678 -0.052886777 0.01065464
0.028544191 0.00246911 0.027258158 -0.118677296 0.114403985 0.0207736 0.054912176 -0.06496227
0.003792007 -0.060717378 0.03201113 0.049057636 -0.07397274 0.054296114 -0.018436097 -0.12715407
-0.04311654 0.091630645 -0.08554749 -0.09750564 0.049882274 0.06820881 0.03790305 0.0071631977
-0.18570009 -0.040783882 -0.071304604 0.06875187 0.04016617 -0.005602057 -0.031258587 -0.01479565
-0.044818096 -0.07979414 0.0051855464 0.041804463 -0.029685315 0.075367324 -0.09952132 -0.01085346
-0.0679862 0.053027164 0.023545826 0.14679503 -0.08999864 -0.053789385 0.09143117 0.07186115
-0.00774582 -0.05665849 -0.010712723 -0.0073160585 0.09351966 -0.011382049 -0.016477462 -0.027130123
0.04746272 -0.08277507 -0.07679494 -0.01779663 -0.020711957 0.08392501 -0.009522817 -0.09444228
00000000: 6cad a33d 10d3 d83d 51bd d9bd 1c9d 10be
00000010: 0f33 513c b553 f43d 1a1b a3bd d9c0 8b3d
00000020: e41f 8dbd 1224 f3bd 465a e73c f1b1 adbc
00000030: 9c8e fc3c d03b 13be e477 833d c1f8 4bbd
00000040: 9792 5dbc 13fd 063c 6f46 4f3d f0be 053d
00000050: 0ab1 a03d 17ca 68bc b049 d23d d3b9 0dbd
00000060: 8e45 adbd 545a 333d f1bf d23d 6a84 5cbd
00000070: 5fb6 cd3d 0ccd ffbd 802f 0c3d 2c6c 3a3e
00000080: 624b 1c3d 4e9d 8abd 7e69 44be ab56 42be
00000090: cac8 f63c 7c1e 683d bc8c 1fbc 3306 5cbd
000000a0: 97ea 19bc 4fb7 98bd 1811 c4bd 1f40 843d
000000b0: 90fb 43bd b8dc 4ebd fcc6 f43c a4cb e03a
000000c0: c45d 9a3d 9cf1 94bd edc6 213e da6f f7bc
000000d0: 01dc 19be 8f14 f0bc 3d26 21be 5406 913d
000000e0: 35dd de3b e6a0 8dbd da9d 233c 07c8 a43d
000000f0: 083f 2abe b7de 3bbe ce9f 58bd cd90 2e3c
00000100: 82d5 e93c cbd0 213b 804c df3c 150d f3bd
00000110: a34c ea3d 662d aa3c 97eb 603d f00a 85bd
00000120: 5283 783b c9b2 78bd 1a1e 033d a9f0 483d
00000130: 057f 97bd 9a65 5e3d 4c07 97bc ad34 02be
00000140: f89a 30bd d9a8 bb3d 8633 afbd 09b1 c7bd
00000150: 5b51 4c3d 10b1 8b3d 3b40 1b3d 42b9 ea3b
00000160: 2a28 3ebe 000d 27bd 2608 92bd c8cd 8c3d
00000170: 4885 243d 7691 b7bb 0109 00bd 7469 72bc
00000180: 2e93 37bd 1c6b a3bd 84eb a93b 283b 2b3d
00000190: 9e2e f3bc 2f5a 9a3d d5d1 cbbd b6d2 31bc
000001a0: 593c 8bbd 0333 593d 2de3 c03c 7051 163e
000001b0: 3551 b8bd 4252 5cbd 4440 bb3d f02b 933d
000001c0: a6d0 fdbb bc12 68bd 6b84 2fbc 8cbb efbb
000001d0: 3c87 bf3d c67b 3abc befb 86bc fe3f debc
000001e0: 4568 423d fa85 a9bd aa46 9dbd 3dca 91bc
000001f0: 1fac a9bc e0e0 ab3d 9705 1cbc f46a c1bd

bns.1.running_var f4 [128]
0.0023136854 0.0011320647 0.0012730177 0.001983398 0.001214085 0.001525768 0.0018843058 0.0012674959
0.0015420261 0.0022613788 0.0011669329 0.0014327538 0.0017859415 0.00145289 0.0015990816 0.0012149813
0.0015677124 0.0014390935 0.0014123834 0.0017202954 0.0015624054 0.0017125468 0.0018822585 0.0013856319
0.0018053923 0.0015743201 0.0020845148 0.0013559217 0.0015307522 0.0018860206 0.001455763 0.0022997614
0.002508109 0.0015431509 0.0014857406 0.0035735315 0.0017005752 0.0018123162 0.0018883499 0.0016983566
0.0019006417 0.0017685697 0.0018180878 0.0014368781 0.0014940846 0.0012124024 0.0019882494 0.0016962576
0.002489704 0.0014538998 0.0020518831 0.0016276404 0.0018219766 0.001478082 0.0017151287 0.001848482
0.0019597495 0.0014366723 0.0016034466 0.0017921893 0.0023117037 0.0024339026 0.0019016584 0.0016954924
0.0015285196 0.0016605493 0.0023217436 0.0019006039 0.0021097632 0.0013753369 0.001413137 0.0014890761
0.0018897972 0.0013247553 0.0014910174 0.0017668424 0.0022164008 0.0014462514 0.0011826527 0.0016159273
0.0016039665 0.0022024987 0.0017644855 0.0015676789 0.0018951467 0.0014838618 0.0017084517 0.0015877752
0.0033423542 0.0016912972 0.0016272026 0.0015144926 0.0013671853 0.0020426086 0.0017678378 0.0010766245
0.0018617053 0.0013427588 0.0015742889 0.0015651112 0.0015177035 0.0013446873 0.0017091335 0.0013690215
0.0016331302 0.0018788158 0.0015485683 0.0023382367 0.001396635 0.0016430157 0.0015040118 0.0019691335
0.001954271 0.0015864294 0.0015355928 0.0016401688 0.0018242951 0.0015608874 0.0016164486 0.002101068
0.0014310328 0.0013160948 0.002063677 0.0014812703 0.0011397407 0.0016394864 0.001195576 0.0015034792
00000000: 33a1 173b ca61 943a 63db a63a e6fb 013b
00000010: ef21 9f3a 47fc c73a d0fa f63a 1b22 a63a
00000020: cf1d ca3a a433 143b c5f3 983a 3dcb bb3a
00000030: 4116 ea3a e66e be3a 4698 d13a 0240 9f3a
00000040: b37b cd3a f79f bc3a b91f b93a 897b e13a
00000050: a0c9 cc3a 8977 e03a 1db6 f63a 179e b53a
00000060: eaa2 ec3a 6b59 ce3a 5b9c 083b 2fb9 b13a
00000070: 85a3 c83a 5a34 f73a 4dcf be3a 98b7 163b
00000080: 165f 243b 8d43 ca3a 2fbd c23a e931 6a3b
00000090: d6e5 de3a 3e8b ed3a 8282 f73a 649b de3a
000000a0: f41e f93a 5acf e73a e74c ee3a a155 bc3a
000000b0: 29d5 c33a 79e9 9e3a 4a4d 023b f654 de3a
000000c0: 4d2a 233b c890 be3a e378 063b 8d56 d53a
000000d0: 64cf ee3a 34bc c13a 2bce e03a c348 f23a
000000e0: 246f 003b b94e bc3a bd2a d23a e5e7 ea3a
000000f0: f47f 173b 1c82 1f3b 1141 f93a 493b de3a
00000100: 9b58 c83a caa6 d93a 6528 183b af1d f93a
00000110: f443 0a3b a644 b43a 0239 b93a 1a2d c33a
00000120: 12b3 f73a 69a3 ad3a 3e6e c33a 6595 e73a
00000130: 0941 113b 2590 bd3a 3d03 9b3a 86cd d33a
00000140: 2f3c d23a cc57 103b 4f46 e73a 937a cd3a
00000150: 9266 f83a 247e c23a 20ee df3a e51c d03a
00000160: 660b 5b3b 84ae dd3a dc47 d53a f081 c63a
00000170: 2033 b33a 49dd 053b cbb6 e73a 861d 8d3a
00000180: 7704 f43a 82ff af3a 5f58 ce3a 6b24 cd3a
00000190: aeed c63a 3840 b03a 0105 e03a bd70 b33a
000001a0: c20e d63a 9942 f63a 54f9 ca3a 1a3d 193b
000001b0: 4b0f b73a 755a d73a 4322 c53a 940c 013b
000001c0: 3a13 003b bdef cf3a f245 c93a effa d63a
000001d0: 301d ef3a b196 cc3a 04df d33a 12b2 093b
000001e0: 7e91 bb3a d080 ac3a c13e 073b 2f27 c23a
000001f0: 5a63 953a 09e4 d63a e0b4 9c3a 6410 c53a
