output/dmd/prev_e2v/run_001/prev_dmd_best_model_e2v.pth (torch, 207541 bytes, 14 tensors)

convs.0.lin_l.weight f4 [256, 32]
000000 de d6 05 3e cd 25 1b 3e d7 1e c8 3d aa 36 f1 3d
       0.13070247 0.15151139 0.09771507 0.117780045
000010 89 fd 6b bd c9 cd 14 bd e5 c5 5e 3c a2 a8 20 be
       -0.057614837 -0.036329065 0.013596986 -0.15689328
000020 ef 2e b0 3d 56 cc 1f be 63 5c a3 3d 62 7e ea 3d
       0.08602702 -0.15605292 0.07976606 0.11449887
000030 0d 1b ec bc 67 64 2b be 68 d6 e6 3d a4 f7 16 be
       -0.028821493 -0.16737519 0.112713635 -0.14742905
000040 59 ab 80 bc 23 32 f3 3d 24 ce 1e 3e a6 99 16 3d
       -0.015706705 0.11874797 0.15508324 0.036767624
000050 76 6a 07 be e2 ee 8c bd 27 b3 69 3d 31 94 5c bc
       -0.13224205 -0.06881501 0.05705562 -0.013463066
000060 ab 29 bf 3b 70 3a 04 be 35 36 f0 3c 52 52 ed bd
       0.0058338246 -0.12912917 0.029322723 -0.11587967
000070 86 c5 d5 3d 8a 4e 37 be 84 53 be 3d 29 15 91 bd
       0.10438065 -0.17901054 0.09293273 -0.07084114
000080 80 f0 3a 3d 39 2c 21 3e 80 85 c7 bd 82 d9 1d 3e
       0.045639515 0.15739526 -0.0974226 0.15415004
000090 85 ac e4 bd 48 c9 05 3e 40 8c cc bd 8f a9 ce 3d
       -0.11165718 0.13065064 -0.09987688 0.100909345
0000a0 32 18 b1 3c 59 b5 36 3d fa b8 eb 3d a8 dd 07 be
       0.021617983 0.04460654 0.11509891 -0.13268149
0000b0 04 a8 a1 3d 44 f6 aa 3d 88 4d 04 be d4 8c b4 3d
       0.078933746 0.08347753 -0.12920201 0.08815923
0000c0 d5 d2 16 be 38 5e ab bd b3 00 ce 3d 44 ba 84 bd
       -0.14728864 -0.0836758 0.10058727 -0.0648084
0000d0 45 50 72 bd ca ee da bd 99 1c 99 3c 72 18 e1 3d
       -0.059158582 -0.10690077 0.018690394 0.10990991
0000e0 f2 93 55 3c 0c 4d 36 3e 7e 5f ab bc 74 30 f5 bd
       0.013035761 0.17802829 -0.020919558 -0.11972132
0000f0 38 09 1b 3e c1 87 bd bd 4c cc 5e 3d 3f 7f 3c bd
       0.15140235 -0.09254409 0.05439405 -0.04601979
000100 06 00 14 3e 92 a0 7e bd 4e c1 35 bd ae 7b 1b 3d
       0.14453134 -0.06216485 -0.044373803 0.037959747
000110 09 dd 1a be 22 7d da bd da 4c 71 bd 89 84 1a 3e
       -0.1512338 -0.106683984 -0.058911182 0.1508962
000120 16 47 12 3e 5d 5f 1f 3e d1 ff 05 3e 64 40 fe 3d
       0.1428493 0.15563722 0.13085867 0.12414625
000130 38 c2 b6 bd 9b 01 43 3d a5 eb a9 bd be ae 30 3d
       -0.08923763 0.047608953 -0.08296899 0.043135397
000140 de e2 22 3e 99 d2 2b be 49 d9 fa bd 9d c6 08 3e
       0.15906855 -0.16779555 -0.12248475 0.13357015
000150 d3 4f e4 bd ba bf 39 be 53 2f 73 bd 7c 0a 4c 3d
       -0.11148038 -0.18139544 -0.059371304 0.049814686
000160 a2 f4 fc 3d ed ba 9f 3c 0e 2c 0e 3d 70 33 94 bd
       0.123513475 0.019498313 0.034709983 -0.072363734
000170 94 f6 ef bd 95 77 52 3d 03 c5 3d 3d 5a b9 ff bd
       -0.11716953 0.051383574 0.046330463 -0.12486525
000180 68 05 3f 3e f2 93 c8 3d 4e 2f 35 be 18 ff 74 bd
       0.18654406 0.09793843 -0.17693827 -0.05981359
000190 7a a0 05 be e0 a1 86 3c 9c dc 6f bd f2 80 0c be
       -0.13049498 0.01643461 -0.05856 -0.13721064
0001a0 16 dd 27 bb ce 3d 4c bc 6a 21 ec bd 02 be 6d 3d
       -0.0025613955 -0.012465907 -0.11529811 0.058042534
0001b0 7c 03 10 be 70 47 1d be e7 77 b3 bd ce 56 2e 3e
       -0.14063829 -0.15359282 -0.08763104 0.17025301
0001c0 78 d2 33 3d 63 8c ad 3d 53 06 0b 3e 96 5c bf 3d
       0.04390189 0.08474042 0.13576631 0.09343831
0001d0 b5 73 e4 bd 34 35 d9 3d ba 89 97 bd 00 2f 05 bd
       -0.11154882 0.10605851 -0.07399316 -0.032515526
0001e0 0b 80 1b bd 38 b3 a6 bd 45 0c 96 3d 40 5d e0 bd
       -0.03796391 -0.08139652 0.07326559 -0.10955286
0001f0 d5 18 2b be 93 37 15 be 87 b1 bc bd da 8e ec 3d
       -0.16708691 -0.14571981 -0.09213548 0.11550684
000200 bd 4c d9 3d 8e a5 18 bd e1 b7 8a bd 95 cb fe bd
       0.1061034 -0.03726726 -0.06773353 -0.12441174
000210 3c c8 c4 bd 5b ca b3 3d 9c cc ef bd 46 3e 15 be
       -0.09608504 0.087788306 -0.11708948 -0.14574537
000220 b2 34 11 be 8e 26 03 be 5c a0 05 bd 8e 5f fa 3d
       -0.14180258 -0.12807676 -0.032623634 0.12225257
000230 e2 9e 17 3c 76 28 36 3e 38 5f 01 be 29 80 50 3d
       0.009254189 0.17788872 -0.1263398 0.050903473
000240 1d 24 d0 bc 9c ca e3 3d 76 e9 1c be 61 24 4d 3c
       -0.025407845 0.11122629 -0.15323433 0.01252088
000250 82 67 a8 3d 3b 23 5c 3d 69 05 14 bd 07 80 2f 3e
       0.082228675 0.053744536 -0.036137972 0.17138682
000260 de 5a 1d 3e f1 e6 22 3e cd ec d3 3d 38 29 c5 3d
       0.15366694 0.1590841 0.103479005 0.096270025
000270 ef b4 f3 3d 4e 55 0c be 39 7d fb bd 51 70 48 bd
       0.11899745 -0.13704416 -0.12279744 -0.04893524
000280 cc 40 c9 3d 9a 40 99 3c 37 96 f6 bd 11 97 12 bb
       0.09826812 0.018707562 -0.1204037 -0.0022367875
000290 b2 2c 00 be a2 29 0a 3e 30 c4 03 be 59 aa 84 bd
       -0.1251705 0.13492444 -0.12867808 -0.06477804
0002a0 3e 03 3a 3d ab 27 cb 3d b9 7e 4e 3b fe 89 b4 3d
       0.04541325 0.099196754 0.0031508638 0.088153824
0002b0 52 5d a0 3d dc 95 0e 3e 14 82 db bd 16 00 d9 bd
       0.078302994 0.13924354 -0.1071817 -0.105957195
0002c0 bc a1 a9 bd d9 ec 75 bd 09 07 e0 3d 62 a2 f9 bc
       -0.082828015 -0.06004033 0.10938842 -0.030472938
0002d0 b4 31 55 bc f0 ba 05 3d 0e 1f 40 bd ea b6 ff bc
       -0.013012338 0.03264898 -0.046904616 -0.03121515
0002e0 8b d2 1c 3d f5 41 8a 3d f2 97 8c 3d 5c 16 32 be
       0.038286727 0.067508616 0.06864919 -0.17391342
0002f0 ac 71 77 3c 73 f7 aa bd b6 23 06 3e 87 2f 25 be
       0.015102785 -0.083479784 0.1309956 -0.16131411
000300 7e 92 e3 bd 72 50 09 3e d5 29 c4 bd 83 df 10 be
       -0.111119255 0.13409594 -0.09578291 -0.14147763
000310 12 d4 40 3d 4b 62 1b bd 55 89 3b 3c 98 e4 8f 3d
       0.047077246 -0.037935536 0.011446317 0.07026023
000320 32 bd 7b 3d 21 11 fa bd 91 1a 42 bd 09 a9 04 bd
       0.061459728 -0.12210298 -0.047388617 -0.032387767
000330 98 1a 4e 3c a5 0b 19 be 5d 0b 16 be 14 f2 e0 3d
       0.012579583 -0.14945848 -0.14652772 0.10983673
000340 ff 4d aa 3b 81 e1 9b bd 07 e8 1f 3e a5 4f 43 3d
       0.005197286 -0.07611371 0.15615855 0.047683377
000350 48 46 36 bc 98 9c f1 bc 61 3c 20 3e 7a 73 f2 3d
       -0.011125155 -0.029493615 0.15648033 0.11838432
000360 8c 3e b8 bd 60 78 3a bd 14 c8 81 bd 27 d5 ed 3c
       -0.08996305 -0.045524955 -0.0633699 0.029032303
000370 82 cc ee 3b e5 9d 8a 3d b9 5b 13 3d d7 87 d8 3d
       0.007287563 0.06768397 0.035976145 0.105727844
000380 8b 3c c0 bd e8 09 07 be 2b 9a 14 3e 9a dc 61 bd
       -0.09386548 -0.13187373 0.14511935 -0.055142023
000390 46 fa 63 bd cf 89 9c 3c af a6 2d 3e df 5d 7f bc
       -0.0556586 0.019108681 0.16958116 -0.015586345
0003a0 0d e3 0a be 51 d1 b2 bd 30 b1 e5 bd 01 df 97 3c
       -0.13563175 -0.0873133 -0.112154365 0.018538954
0003b0 49 6f dd bc 7f 76 f1 bd 65 21 22 be 98 f1 d0 bd
       -0.027030604 -0.117901795 -0.15833052 -0.1020233
0003c0 f4 3a ce bc 7e bf 9a bd be 49 7c bd 19 c1 dd 3d
       -0.025174595 -0.075560555 -0.061593764 0.10827846
0003d0 a3 7f 8f 3d ee 66 df bd f7 06 42 ba 12 39 13 bc
       0.07006767 -0.10908304 -0.00074015505 -0.008985775
0003e0 4e de bc 3d 7b b6 2f 3e 77 78 54 bb 9f e3 d7 3d
       0.09222089 0.17159455 -0.0032420435 0.10541462
0003f0 7a 60 05 be f1 27 87 bd 2a cd 96 bc 66 dd 14 be
       -0.13025084 -0.06599415 -0.018408377 -0.14537582

convs.0.lin_l.bias f4 [256]
000000 e4 29 d6 bc 08 fb 63 bd cf b1 0b be 4a 9b 5b b9
       -0.026143022 -0.055659324 -0.13642047 -0.00020943317
000010 a6 07 0c be 82 5b 0c bc 3d c4 e8 3d 41 27 13 bd
       -0.13674793 -0.008566739 0.113655545 -0.035926107
000020 74 6e e0 bd dd 71 a1 bd da b6 97 3d 93 c0 0c bd
       -0.10958567 -0.07883046 0.07407923 -0.03436334
000030 35 1a 86 3c a6 91 17 bc 2c ba c7 bd be c8 8f bd
       0.016369918 -0.009251034 -0.09752306 -0.070207104
000040 c8 6e 8b bd a0 d5 f6 bd a4 93 31 bd 23 fd b4 3d
       -0.06808239 -0.120524645 -0.04335369 0.088373445
000050 45 5c d9 3c 35 fa 15 3e 32 75 14 3e 85 cd 77 3d
       0.026533255 0.14646228 0.14497831 0.060498733
000060 67 a6 93 bd a3 31 c7 3d c2 db b1 3d 52 70 2b bd
       -0.07209473 0.09726264 0.086844936 -0.041855164
000070 99 54 b1 bd ce 33 00 be b1 97 f2 bc fc 14 c3 3d
       -0.08658714 -0.12519762 -0.029613348 0.09525487
000080 d3 ec aa 3d f3 44 c1 3c f8 bb 17 bd 64 ad 11 be
       0.08345952 0.023592448 -0.037044495 -0.142263
000090 a9 33 0f 3e ab f2 ab bc 35 ab 9d 3d 25 26 e5 bd
       0.1398455 -0.020989737 0.07698671 -0.11188916
0000a0 82 95 00 3e 7f 6a 06 be 84 87 a0 b9 cd 7a b4 bd
       0.12557033 -0.13126563 -0.00030618545 -0.08812485
0000b0 50 ef 81 bd 90 aa dd bc 49 23 c2 3d cf d1 12 3d
       -0.06344473 -0.02705887 0.09479386 0.03584462
0000c0 09 43 7e 3d c3 69 0f be 53 e0 1b be 0a b1 17 be
       0.06207565 -0.14005189 -0.15222292 -0.14813629
0000d0 18 cc 03 be 54 e4 4d 3e e8 a4 56 3e 23 d6 bf bd
       -0.12870824 0.20106632 0.20961344 -0.09367015
0000e0 2f 86 5a 3d fd 6b ae bd 95 82 10 be 64 3d 1a 3d
       0.053350624 -0.08516691 -0.14112313 0.037656203
0000f0 00 8c da 3c 62 61 5f bd 3d 63 95 bc eb 82 a8 3c
       0.026678085 -0.05453623 -0.018235797 0.020570239
000100 a5 bd 28 3e 50 97 60 3d 0b ab be 3d da b4 b2 bc
       0.16478594 0.054831803 0.093099676 -0.021814752
000110 e9 36 3a 3d 2c 34 08 be 7e 75 23 3e e3 01 11 be
       0.045462523 -0.13301152 0.15962788 -0.14160876
000120 d0 fb 11 be d6 60 ce bd 50 75 d3 bd 5a bb 1e 3e
       -0.14256215 -0.10077064 -0.1032511 0.15501156
000130 c6 e2 14 3d 88 d2 d5 3c 36 fb 14 bd 57 66 10 3e
       0.03634908 0.026101366 -0.036372386 0.1410154
000140 51 36 d1 3d c5 a6 1b be bc c0 1e bd f8 8a 23 be
       0.10215438 -0.15200336 -0.038758025 -0.15970981
000150 5e eb f8 3d 6f 13 e6 bd 32 04 98 3c a4 29 2f be
       0.12154268 -0.112341754 0.018556688 -0.17105728
000160 09 a4 23 be f0 52 b2 bd d6 a3 11 bb 65 0b 58 bd
       -0.15980543 -0.08707225 -0.0022222898 -0.05274524
000170 c9 99 28 be 79 c0 fa 3d 5c c1 03 3e f1 c4 1d 3e
       -0.16464914 0.122437425 0.1286673 0.15407158
000180 1f 70 8c 3d df 24 27 bd f1 fb 8c 3d d2 5c d7 3d
       0.06857323 -0.040806647 0.068839915 0.10515751
000190 5d a6 88 bd aa b0 a2 3d 3d e4 d8 3d bf 18 09 be
       -0.06672356 0.07943852 0.10590408 -0.13388346
0001a0 38 72 a2 3d d6 3d b1 bd 20 9b 92 3d 75 f3 11 3e
       0.07931942 -0.086543724 0.07158494 0.14253028
0001b0 aa 35 e4 3b 16 1e 5a 3d 94 20 87 3c 77 93 16 bd
       0.006964405 0.05325135 0.016495027 -0.036761727
0001c0 60 02 af 3d c5 d1 97 bd 32 16 1b be c0 cc 14 be
       0.08545375 -0.07413057 -0.15145186 -0.14531231
0001d0 a2 77 03 3e d7 9f 05 be 02 68 3a be c9 be 44 bd
       0.12838605 -0.13049255 -0.18203738 -0.04803351
0001e0 4f cd 7e bd b6 da 9b bd 76 af 45 bd 0c 75 f1 3d
       -0.062207516 -0.07610075 -0.048263036 0.11789903
0001f0 a2 81 1e bd bf 98 d0 bd dc 06 af bd 9b 6d da 3c
       -0.038697846 -0.10185384 -0.0854623 0.026663592
000200 9e df 10 3e 6e 18 ea b9 84 90 16 be 28 bb ae 3d
       0.14147803 -0.0004465016 -0.14703566 0.08531791
000210 c0 15 0a 3e 5f 45 a7 3d ce f9 9c bd b6 ea 1b be
       0.1348486 0.08167528 -0.07664834 -0.15226254
000220 63 c1 18 3d c7 13 f3 bd 4b f9 dc bd 23 6f 97 3c
       0.037293803 -0.118690066 -0.10789736 0.018485611
000230 47 86 b0 bd 84 eb dd bd 0b fe 97 3d 5c 1b 1e be
       -0.08619361 -0.10835937 0.07421502 -0.15440124
000240 81 85 0e bc 9b a0 e8 bd cd ef 1e 3e 79 3f 79 bd
       -0.008698822 -0.11358758 0.15521164 -0.060851548
000250 93 e9 94 bd fc a3 08 3e da 2d 1d be d9 08 ae bd
       -0.07271113 0.13343805 -0.15349522 -0.08497781
000260 f9 6a da 3d 33 93 d3 3d 0b 2c 1b 3e 7a f7 43 bc
       0.10664935 0.103308104 0.1515352 -0.0119608585
000270 19 ea d3 bd b1 ee 24 3e 14 c2 ca 3c 27 66 68 3d
       -0.10347385 0.16106679 0.024750747 0.056738045
000280 11 a5 be bd 9b c2 e7 bc 07 69 14 3e c6 5a ec 3d
       -0.09308828 -0.028291037 0.1449319 0.11540751
000290 9e d4 ac 3d a7 af c3 3c 0c 87 18 bd 2a 84 6c bd
       0.08438991 0.023887469 -0.037238166 -0.05774323
0002a0 98 08 17 be cc eb e2 3d 4d 6f d8 bd 96 46 cf 3d
       -0.14749372 0.11080131 -0.10568104 0.10120885
0002b0 bc 5a a3 bd 68 32 8d bd 47 95 aa 3d f4 f9 86 3d
       -0.079762906 -0.0689438 0.08329254 0.065906435
0002c0 3c 40 51 3c f0 05 a0 bd 9e 5c 52 3e 98 13 d8 3d
       0.012771662 -0.078136325 0.20543143 0.10550612
0002d0 4a 8e da bd 90 f8 45 be 98 d6 4f 3d 11 3b 21 be
       -0.10671671 -0.193331 0.050741762 -0.15745188
0002e0 6d 03 13 be 5e 15 2a be 2e ab 34 bd e8 2b d1 b9
       -0.14356776 -0.16609713 -0.044108562 -0.000398963
0002f0 0a 02 b8 bd 76 2a e6 3d 66 4e 19 3d 31 db 16 be
       -0.08984764 0.112385675 0.037428282 -0.14732052
000300 10 b5 ce 3c fa ad 17 3d 89 5a b9 bd 59 a9 eb 3c
       0.025232822 0.03703115 -0.09050471 0.028767275
000310 e7 56 60 bd 45 d6 7f 3b 8a 4e 59 bd 70 a7 26 3e
       -0.054770377 0.0039037627 -0.053053416 0.1627481
000320 f8 01 6a bd 40 eb ff 3d 6a 95 3b 3e ab c6 bb 3d
       -0.057130784 0.12496042 0.18318716 0.09168752
000330 55 f9 46 bd 57 1a 3f 3e 09 9f b4 bd cc f7 3b bd
       -0.048577625 0.18662392 -0.08819396 -0.045890614
000340 4d e3 e2 3d 94 8d b1 bc ba a5 d3 3c 74 b8 88 3d
       0.110785104 -0.021673955 0.02583586 0.06675807
000350 0b 96 0d 3d 05 87 6b bc bf 6f fd bd 86 ee bf 3d
       0.03456692 -0.014375453 -0.123748295 0.093716666
000360 66 6c 0b 3e d6 6e f7 3d d9 43 1a 3e 9f 36 df 3b
       0.1361557 0.12081687 0.15064944 0.0068119313
000370 62 d2 d7 bc 4d 14 f5 3d 31 4c 24 be 9a a1 76 bd
       -0.026345436 0.11966763 -0.1604469 -0.06021271
000380 61 1b 00 be 13 6d e2 bc d5 2a 98 3d 9c d0 44 bd
       -0.12510444 -0.027639901 0.074300446 -0.048050508
000390 bf eb c2 3d 94 67 20 3e 06 86 cd 3c 78 95 b2 bd
       0.09517621 0.15664512 0.025088321 -0.08719915
0003a0 c4 b2 27 3c 1b 8c 7e 3d 37 58 8c 3c 44 0c b8 3d
       0.010235492 0.062145334 0.017131908 0.089867145
0003b0 81 63 e2 bb 30 78 a8 bd 2f c0 32 3e ad 7d 1f 3e
       -0.0069088344 -0.08226049 0.17456125 0.15575285
0003c0 9a 52 a1 3d fc 21 ff bd bd 37 e8 bd ee e9 3c be
       0.07877083 -0.12457654 -0.11338756 -0.18448612
0003d0 8f f9 09 be a6 d2 29 3e 26 06 d7 bd 47 b2 5d 3d
       -0.13474105 0.16584262 -0.104992196 0.054125097
0003e0 a4 ac e6 bd 21 47 ce 3d b7 a0 5d 3c f5 2d 86 bd
       -0.11263397 0.100721605 0.013527087 -0.06551734
0003f0 44 82 ba bc bb 86 36 3e b9 82 bc bd 49 85 4c 3c
       -0.022767194 0.17824833 -0.09204621 0.0124829495

convs.0.lin_r.weight f4 [256, 32]
000000 b1 81 7f bd 67 8f 82 3d 84 39 37 3d 43 ea a2 3d
       -0.062379543 0.06375008 0.044732586 0.07954838
000010 db 78 a8 3d 89 3e 25 3e 58 a4 d2 bc 19 67 fc 3d
       0.08226176 0.16137137 -0.02571313 0.12324352
000020 48 3b 6d 3d 7f 15 05 3e 53 a2 8c 3d e1 48 d0 3d
       0.057917863 0.12996481 0.068668984 0.101701505
000030 34 49 c1 bd f5 6b 12 bc c6 25 28 bd 11 62 f7 3b
       -0.094377905 -0.008936872 -0.04105165 0.007549532
000040 eb 0f 0f be 9a cb a5 3d 98 48 ce 3d be 20 c7 3d
       -0.13970916 0.080954745 0.1007244 0.09723042
000050 3d 85 5b 3d 4f cf e7 bd 2a b0 76 bd 39 35 26 3d
       0.053593863 -0.11318838 -0.060226597 0.0405781
000060 e8 44 26 3e 05 ae 54 ba 42 80 dc bd 78 03 d2 3d
       0.16237223 -0.0008113089 -0.10766651 0.10254568
000070 32 28 36 bd ad 92 01 bd cb 27 b8 bd 6e 79 f4 3d
       -0.044471927 -0.03163402 -0.08991965 0.119372234
000080 a6 61 45 bd a9 09 8b 3d 35 4e 9c bd 79 23 e3 bd
       -0.048188828 0.06788952 -0.07632104 -0.1109075
000090 80 2c 6e bd 5b dd cb 3d 14 18 43 3d 9a 34 aa bd
       -0.058147907 0.099543296 0.047630385 -0.08310814
0000a0 fe 36 0a 3e 6b 9a c2 bd ca da 93 3d cc 6b e3 bd
       0.1349754 -0.09502109 0.07219465 -0.11104545
0000b0 85 f5 f9 bd 28 cf 00 be 33 3f 11 be 15 c8 0e be
       -0.12205032 -0.12579024 -0.14184265 -0.13943513
0000c0 89 40 3f 3d e9 b0 22 bd ba 59 42 3b 5a d9 e1 3d
       0.046692405 -0.039719496 0.0029655532 0.11027785
0000d0 86 e2 e6 bc 4e ac 23 be 7b 05 36 3d a2 aa 12 3e
       -0.028184187 -0.15983698 0.04443882 0.14322904
0000e0 31 60 da bd 86 24 93 bd e9 d2 0e 3e 7f 2f d3 3d
       -0.10662878 -0.07184701 0.13947643 0.103117935
0000f0 5a d0 ee bd b9 7d 92 bd e3 88 23 3e f9 57 a3 bd
       -0.11660834 -0.07152886 0.15970187 -0.07975764
000100 e8 c0 26 be a0 fd 2a be 05 9d d8 bd 1c 7f 94 bc
       -0.16284525 -0.16698313 -0.10576824 -0.018127017
000110 cb d5 a5 3d 26 0f bc 3c 05 1c bc bd 61 84 25 bd
       0.080974184 0.022956442 -0.09185032 -0.04040945
000120 f4 1f 0f be ec bf 2b bd 29 a7 0a be 2a 41 40 3e
       -0.13977033 -0.041931078 -0.13540329 0.18774858
000130 2c 7b 05 be 65 cf b8 3c 3e 5b 87 3d a9 62 02 be
       -0.13035268 0.02255983 0.066092 -0.12732948
000140 c5 a6 97 3d 9a 31 dc bd 6e 0e f6 3d 78 03 bf bd
       0.07404856 -0.10751648 0.12014471 -0.093268335
000150 f1 b5 86 3d af fe 91 3c 2c 7f a3 bd 3e 98 16 be
       0.06577671 0.017821638 -0.079832405 -0.14706513
000160 cc 70 cd 3c 44 58 9b 3d 63 8c 06 3e 81 27 d7 3d
       0.0250782 0.07585195 0.13139491 0.10505582
000170 91 73 69 bd ba 7d d1 3d 84 af e4 bd 53 61 fa 3d
       -0.05699498 0.102290586 -0.111662894 0.12225594
000180 c2 c9 a4 bc 84 f4 17 be 02 de d0 3c 64 ef 28 be
       -0.020115737 -0.14839369 0.025496487 -0.1649757
000190 4c 76 d1 bd 09 76 b0 bd 16 00 42 3d 50 cc cd bd
       -0.102276415 -0.086162634 0.047363363 -0.10048735
0001a0 f0 f5 82 3d 96 06 d6 3c db 23 1f be 3d b1 16 be
       0.06394565 0.026126187 -0.15541022 -0.14716049
0001b0 08 35 a7 3d 6e 30 a7 3d e0 b1 0c be 19 a1 ee bd
       0.08164412 0.08163534 -0.13739729 -0.11651821
0001c0 bd 34 62 3b 52 12 c6 bd 2b 03 1c 3e 80 9c a8 bd
       0.0034516298 -0.09671463 0.15235583 -0.08232975
0001d0 59 d7 07 3c d2 c8 a0 3d 85 1d 06 be 76 30 30 3d
       0.008291089 0.078508034 -0.13097198 0.043014966
0001e0 49 01 0d bc ec 88 75 bc b8 ad f7 bd f0 67 b2 3d
       -0.008606263 -0.014986258 -0.12093681 0.08711231
0001f0 e2 0d 6d 3d 3a 90 d6 bc 58 df 0c be 64 5f df bd
       0.057874568 -0.02619182 -0.13757074 -0.10906866
000200 02 4e 14 be 8b 91 ec bd 7e 87 e6 bd 63 a1 e6 3d
       -0.14482883 -0.115511976 -0.11256312 0.11261251
000210 a8 de 06 3e 1c 28 08 3e 11 89 18 be c9 55 2d be
       0.13170874 0.1329655 -0.14896037 -0.16927256
000220 25 37 c9 3d 0f 3a 13 be c4 e5 ca bd 15 c3 97 bd
       0.09824971 -0.14377616 -0.099071056 -0.07410256
000230 91 b0 a0 bd 71 4e df bd 03 e2 9c 3d d4 55 a3 bd
       -0.07846177 -0.109036334 0.07660296 -0.07975355
000240 ac 13 1c bc b1 fe 30 3e e7 01 91 bd b7 7c 8c bd
       -0.0095261745 0.17284657 -0.07080441 -0.06859725
000250 12 3a ed 3b 5b 62 d1 3d 9b 15 d3 bc 8a bf 23 3d
       0.0072395885 0.10223838 -0.025767138 0.039977588
000260 49 d9 d5 bd 9b 3d 13 3e 13 df cf bc 63 18 0e 3e
       -0.104418345 0.1437897 -0.025374925 0.1387649
000270 0b 65 1c 3e 75 cf 1c bc 59 36 94 bd 08 3c be 3d
       0.1527292 -0.009570946 -0.072369285 0.09288794
000280 d1 1b fc bd a6 ec b5 3c 89 a7 61 bd f0 8b db bc
       -0.12309993 0.02220757 -0.055091415 -0.026800126
000290 dc 30 36 3d f0 11 30 be 2d 7b 13 bd b2 c3 b8 bd
       0.04448019 -0.17194343 -0.03600614 -0.09021701
0002a0 8c fd d9 bb f9 19 ed bd 4b 53 c4 3d fa 7f 0a be
       -0.0066525396 -0.115772195 0.095861994 -0.13525382
0002b0 bb 12 8f 3d 0e ea 07 be 0f 7c ba 3c f0 98 d2 3a
       0.069859944 -0.13272879 0.022764234 0.0016067307
0002c0 a7 50 21 be 5f b5 37 3d de f0 f3 3a 84 0b 31 3d
       -0.15753423 0.044850703 0.0018611213 0.043223873
0002d0 e5 c6 14 3e 5e 2e d2 3d d4 40 27 be fd 4d 36 3d
       0.14528997 0.1026275 -0.16333324 0.04450797
0002e0 60 6d 0d 3d c2 8d b9 3d 20 ca 4b 3e fe 72 e4 bd
       0.034528136 0.09060241 0.19901323 -0.111547455
0002f0 fc 44 c2 bd 0e f1 15 3e a3 2c cd 3d 7b 6a 7c 3d
       -0.09485814 0.14642736 0.100182794 0.061624985
000300 6e 6a 8e 3d 96 14 22 be 00 43 a7 bd 95 d3 3f 3c
       0.069538936 -0.15828165 -0.08167076 0.01170816
000310 00 39 15 3e 1b ac 0c be c7 8a 32 3c 13 42 bc 3d
       0.14572525 -0.13737528 0.010897345 0.0919229
000320 34 cc da 3d e6 de 1d be 8b 88 2a be bc 44 4e 3c
       0.1068348 -0.1541706 -0.1665365 0.01258963
000330 1b 13 3b bd c3 d3 dd 3d 50 21 17 bc 1a 9e b2 bd
       -0.045672517 0.10831406 -0.009224251 -0.08721562
000340 d1 d1 2e be 5e 64 a1 bd c8 5d f2 3d a4 74 aa bd
       -0.17072226 -0.07880472 0.118342936 -0.08323029
000350 ed d6 0c 3e e8 87 7e 3c 2d d4 18 3e 3d c5 e1 3c
       0.13753863 0.015535332 0.14924689 0.02755987
000360 50 d4 d6 3d af 6e 2f bd 5a 78 2c bd 74 8b 1f 3d
       0.10489714 -0.042830165 -0.042106964 0.038951352
000370 4d 3d 08 be d7 16 20 be 10 ce b6 bd f8 82 ea bd
       -0.13304634 -0.15633713 -0.08926022 -0.114507616
000380 27 a1 aa bd ba 39 0d be 95 15 b1 3c ca a5 1a be
       -0.083315186 -0.13791552 0.021616736 -0.15102306
000390 c5 17 76 bd 3e c8 05 3d b0 be 05 3d af b2 85 bc
       -0.060081262 0.03266167 0.032652557 -0.016320555
0003a0 ef 59 85 bc 1c 58 c6 3c 06 39 26 be b8 37 cd bd
       -0.016278235 0.024211936 -0.1623269 -0.10020393
0003b0 a8 4f ae ba b5 98 b4 3c 44 f2 07 be f1 d4 25 be
       -0.0013298886 0.022045473 -0.13276011 -0.16194512
0003c0 e8 70 5e bd 1b ca 7a 3d 94 0b 19 be 41 da 1c be
       -0.054306895 0.0612279 -0.14945823 -0.15317632
0003d0 45 7a f3 3c 59 85 f1 3d 0f 00 a2 bd c6 da 13 be
       0.029721389 0.11793012 -0.079101674 -0.14438924
0003e0 67 f3 06 be 44 d3 b6 39 ef 79 97 bc 09 4b 99 3d
       -0.13178788 0.0003487115 -0.01849076 0.07485015
0003f0 ec 98 89 bc 0f 00 37 be ee 61 13 be 4c 55 ad 3d
       -0.016796552 -0.17871116 -0.14392826 0.08463535

convs.1.lin_l.weight f4 [64, 256]
000000 a9 91 14 3d f1 ae 24 bd fa 80 33 bd e9 a3 b7 bc
       0.036271725 -0.0402059 -0.043824174 -0.022417026
000010 be b8 7f bd 17 5c 69 3c 61 a0 b6 3c b3 aa 36 3d
       -0.062432043 0.014243147 0.022293271 0.044596385
000020 22 85 c7 bc 9d c3 2a 3d b7 ab e7 bc 8d 76 3c bc
       -0.024355475 0.041690458 -0.028280122 -0.011502874
000030 40 22 8b 3c 26 c9 0b 3d 99 79 46 bd e3 59 1a 3d
       0.016984105 0.034127377 -0.04845581 0.03768338
000040 7c 7d 98 ba 0c 3f dd 3a 2e 5e 11 bd 4b 04 97 3d
       -0.0011634077 0.0016879751 -0.035490207 0.07373866
000050 88 68 e8 bc 3b 13 42 3d 2f 81 05 bd 4d b2 2c bd
       -0.028370157 0.04738162 -0.032593902 -0.04216223
000060 0d 76 bb bc 5d 79 a9 3c 2e 2e 94 3c 7a b3 a6 bc
       -0.02288344 0.020687753 0.018088426 -0.020349253
000070 68 b7 be 3c 31 ae 6f bd e3 18 de 3a 81 e3 e6 3c
       0.023280814 -0.05851573 0.0016944673 0.028184654
000080 9b a4 53 3d 1a 35 b3 3c b7 87 16 bb e8 14 50 3d
       0.051670652 0.021875907 -0.0022969076 0.050801188
000090 9e e6 32 bd 49 11 c9 3c 40 71 09 3c 5f 36 58 bd
       -0.043676965 0.024544375 0.008388817 -0.052786227
0000a0 e3 2c 37 bd eb ce 5a 3c 45 91 36 3d 95 41 b5 3d
       -0.04472054 0.013354997 0.044572134 0.088503994
0000b0 d0 b6 51 bd d4 4f 86 3c 48 06 94 3d 58 13 4d bd
       -0.051199734 0.016395487 0.072277606 -0.050067276
0000c0 f8 f4 5e 3c 03 48 6d ba fc 82 87 bd 89 b2 b1 bc
       0.01360821 -0.0009051563 -0.0661678 -0.021691578
0000d0 dd b4 71 bd 9f ca 69 bc 95 9c e4 bc 60 ed 57 3d
       -0.059010375 -0.0142695 -0.027906695 0.052716613
0000e0 7b 77 20 bc a5 f3 6d 3d e6 ea ff bb 8b 25 5a 3c
       -0.009794111 0.058093686 -0.0078099845 0.013314615
0000f0 b5 83 df bc b7 48 6d 3d 20 af 23 bc 75 47 06 bd
       -0.027284482 0.057930674 -0.0099904835 -0.03278299
000100 47 24 a5 bc 88 b9 dd bd 6d a4 54 bd b0 97 f7 3c
       -0.0201589 -0.10826403 -0.05191462 0.030223697
000110 9f 4f 75 bd b1 03 8a 3c 4f 1d 06 bc 76 26 e6 bc
       -0.059890386 0.016847463 -0.008185699 -0.028094511
000120 dd e0 0b 3d a2 3c e9 3c 28 87 07 bd 02 82 fc b9
       0.034149993 0.028471295 -0.03308788 -0.0004816205
000130 79 3e 55 3d 21 c5 ac bb 44 2c 6a bc 03 16 9d 3c
       0.05206153 -0.005272523 -0.01429278 0.019175535
000140 3c 39 4f bc de f0 31 3d ef b5 45 3c 72 68 3c 3c
       -0.012647923 0.0434426 0.012067302 0.011499511
000150 c2 92 2f bd 66 93 55 bd 6d 57 b4 3c f5 a2 a0 3d
       -0.04286457 -0.052142523 0.022014344 0.078435816
000160 78 b4 06 bd cc 27 88 3c ee dd aa bd 30 96 07 3d
       -0.032886952 0.01662054 -0.08343111 0.033102214
000170 80 bf 04 bd de 69 09 3d 0d c9 30 bd 17 22 24 bd
       -0.03240919 0.03354823 -0.043160487 -0.040071573
000180 70 77 01 bd b8 b8 d8 3d 58 cd 9c bc 0a 17 32 3d
       -0.031608045 0.10582107 -0.019140884 0.043479003
000190 e1 63 3d 3d 18 7b f8 bc 95 58 06 3d 35 03 41 bd
       0.04623783 -0.030332133 0.032799322 -0.0471222
0001a0 54 c2 45 bd 53 be ff bc bd 60 87 bd 04 3b 44 bd
       -0.04828103 -0.031218683 -0.06610248 -0.047907844
0001b0 c2 77 95 3d 6b d1 56 3d f6 a8 0e bd 1f 06 10 bd
       0.072982326 0.05244581 -0.034829102 -0.035162088
0001c0 6b 31 89 bc 97 fc 3d bd 10 a8 ab bd 8a d7 11 3d
       -0.016747197 -0.046383467 -0.08381665 0.035605945
0001d0 88 98 6e bd 07 4a 07 3d 74 c2 4f bd 3d 9a b5 3c
       -0.058250934 0.033029582 -0.050722554 0.022168273
0001e0 06 8a 43 3d c5 a9 cf 3c 55 96 8e 3d 32 cc ea bb
       0.04773905 0.025349507 0.06962267 -0.0071654553
0001f0 dc 3e 3a bd 8e 12 93 bc 8f b2 2b bc fb 9c 52 3d
       -0.045470104 -0.017953184 -0.010479583 0.05141924
000200 e9 e1 89 bd 76 0e 1d 3c 48 ac 42 bc 55 6a 47 bd
       -0.06732542 0.009585967 -0.011881895 -0.04868539
000210 67 bc 35 bc a8 b2 8d ba 5b 48 3d 3c a5 1a e3 bc
       -0.011092282 -0.001081069 0.011552895 -0.027722666
000220 85 4e 6b bd 48 1a 2c bc b9 74 02 bd 24 d1 08 bd
       -0.05744793 -0.010504313 -0.031849597 -0.033402577
000230 68 ba 1f bd a3 17 c4 3c 8f 24 2e 3d 57 22 b6 bc
       -0.03899613 0.023937052 0.042515334 -0.022233171
000240 94 e5 1f bd 18 52 9b bd df b3 a1 bd d7 dc 0a bb
       -0.039037302 -0.075840175 -0.07895636 -0.002118876
000250 35 7d c5 bb b8 9a fb bc 2e e2 8e 3d 76 93 58 bd
       -0.0060268887 -0.030713424 0.06976734 -0.052875005
000260 19 dd bf 3c e7 ca a5 3c ac f7 93 3c 74 5b 28 ba
       0.023420857 0.020238353 0.018062435 -0.0006422319
000270 ad 81 77 3c 1a 02 0c 3d 60 3d 6f bd d3 5e 85 bd
       0.015106601 0.03418169 -0.05840814 -0.06512227
000280 17 e8 46 ba 8a d8 05 bd bb e2 9c bd a3 67 38 bd
       -0.00075876847 -0.03267721 -0.07660433 -0.04502071
000290 27 3a b1 bc 8d 7f d0 3b 7e af 58 bd 42 11 d1 bc
       -0.021634175 0.0063628615 -0.052901737 -0.025520924
0002a0 01 f2 28 3d 53 cf a6 3c 3c c0 1a 3c 73 4c fe 3c
       0.041246418 0.020362532 0.009445246 0.031042313
0002b0 d7 36 29 3d 47 ee d2 bc 53 e1 32 bd 15 48 1e 3d
       0.041312065 -0.025748385 -0.043671917 0.03864296
0002c0 fb f6 88 bc 4f fe 19 bd 3f 8b 09 3d d5 e7 5d 3b
       -0.016719332 -0.037596043 0.03358006 0.0033860106
0002d0 7e 6e 54 bb 2b 02 36 3c c4 03 f9 3b 2e 0a 26 bd
       -0.0032414491 0.011108915 0.007599326 -0.04053705
0002e0 fe 0a 0c 3c a9 63 94 bc 60 69 82 bd 4f 2d e7 3c
       0.008547543 -0.018113928 -0.06367755 0.028219847
0002f0 27 bd cc bc f5 fc e2 3c e5 02 29 3d 57 0f 18 3d
       -0.024992539 0.02770851 0.041262526 0.037124004
000300 f6 5a 1d 3d 27 a9 48 3d ff da 83 bd 97 83 fa 3c
       0.038416825 0.04898944 -0.064382546 0.030580325
000310 ef 4a 02 3d 17 05 2f bd 8c 93 a3 3d a3 24 a6 bc
       0.031809743 -0.042729463 0.07987127 -0.020281142
000320 54 57 41 3d f4 a6 24 bd 30 ac 1b bd 26 ee 1f 3b
       0.047202423 -0.04019828 -0.038006008 0.0024403422
000330 68 d2 ec 3c 56 00 9e bc b7 3e 4e 3d 23 61 4f bd
       0.028908923 -0.01928727 0.05035278 -0.050629746
000340 c5 0c 1b bd 29 c1 62 bc 96 b7 b2 bc c5 5b 4d 3d
       -0.037853975 -0.013839998 -0.021816056 0.050136346
000350 af 7a ae bc db cb 36 bd 76 8b 75 3c df 7d b8 bc
       -0.021298734 -0.044628005 0.014986863 -0.022520958
000360 9a dd 40 bd bb b7 55 bd 10 df 55 bd 44 7a 0f bd
       -0.047086336 -0.052177172 -0.052214682 -0.03502871
000370 6e f5 32 3d 56 b1 11 3d 53 d5 31 bd aa 9d 46 bc
       0.04369109 0.03556951 -0.043416332 -0.012122551
000380 c1 b2 0f 3c 00 e3 99 3c 51 f2 27 3d 4a 0d 0a 3d
       0.008770646 0.018785 0.041002575 0.03370408
000390 9e 79 78 3d 47 9f 0a bc 68 fc 1a 3d c2 8a da bc
       0.06066286 -0.008460826 0.03783837 -0.026677493
0003a0 1a 37 d1 bc 93 7a 57 3d 51 30 09 3d 48 a2 14 bd
       -0.02553897 0.05260713 0.033493344 -0.036287576
0003b0 4c ea 17 3d 23 16 c5 bc be e9 35 3d 6a 83 62 3b
       0.037088677 -0.024058407 0.044412367 0.0034563192
0003c0 f5 67 e3 3b 8c d7 2a bd aa a1 ba bc 35 2c 58 bd
       0.006939883 -0.041709468 -0.022782166 -0.052776534
0003d0 ed c5 8f bc 62 f5 db 3c dc 68 a2 bc dd 17 16 3d
       -0.017550433 0.026850406 -0.019825391 0.03664385
0003e0 0c ec 60 bd 6e 08 db bc 2c ae ec bc 2d 59 88 bd
       -0.05491261 -0.026737418 -0.028891645 -0.06657634
0003f0 53 b6 87 bc 26 1c ee bc 70 fc 18 bd 07 6a 11 3c
       -0.016566431 -0.029066157 -0.03735012 0.008875377

convs.1.lin_l.bias f4 [64]
000000 9b d4 25 3d 33 7c 08 3d 1d b2 c2 3c bb e5 bd 3b
       0.04048596 0.03332157 0.023766572 0.0057952083
000010 bd 76 c4 3c 47 c0 e8 3c a8 46 2d bc 89 24 8f bc
       0.0239824 0.028411997 -0.010575928 -0.017473476
000020 6b 35 46 3d ab c9 59 3d fc 62 75 3d a6 e0 1e 3d
       0.048390787 0.05317084 0.059908852 0.03878846
000030 75 d4 05 bd 86 4f 4f 3d 7f ec e7 3b 5a 43 83 bd
       -0.032673318 0.05061295 0.007077753 -0.06409331
000040 e4 d3 83 bd db 8e 37 3c b1 d4 19 3d 2f 2b 36 bd
       -0.06436899 0.011203493 0.037556354 -0.044474777
000050 29 9a 58 3d ac df 0c 3d 71 20 b7 bd 87 93 8d 3d
       0.052881394 0.034392998 -0.089417346 0.06912904
000060 22 17 8e bd 6e fe 08 be dd 07 1c 3d d8 65 1f 3c
       -0.06938006 -0.13378307 0.038093437 0.009728871
000070 32 3e 4f bd ca 77 02 bd 04 82 45 3d 56 f2 6e bd
       -0.050596423 -0.03185252 0.048219696 -0.05833658
000080 29 d6 17 3d e3 03 5f bd f7 9d 3a bc 00 39 a8 3c
       0.037069473 -0.054447066 -0.011390201 0.020534992
000090 74 fc 98 bc 1b 99 0b 3d a9 7d 84 3d d2 6c 34 bd
       -0.018675067 0.03408156 0.0646928 -0.04404909
0000a0 48 9f 99 bc 50 80 8f bd 06 47 03 bd 26 4f 85 3c
       -0.018752709 -0.070068955 -0.032050155 0.016273092
0000b0 7a 5d 57 3d 67 e2 bd 3c 0a b0 ac bd 32 4b b8 3c
       0.05257938 0.023179246 -0.08432014 0.022496793
0000c0 01 ec 8b bd 76 4c 77 bc 06 f8 f6 3c a6 f8 ee bc
       -0.068321235 -0.015093913 0.030147564 -0.0291713
0000d0 57 86 0c bd 5b b3 1f bd 22 c3 ae bd ee 68 29 bb
       -0.034307804 -0.038989406 -0.085333124 -0.0025849896
0000e0 98 0f 88 bc 53 1e f3 bc 27 a5 1e bd 57 a4 4a 3d
       -0.016608998 -0.029677546 -0.03873172 0.049473133
0000f0 bb 43 8b bd 83 e5 fb 3d 8f 83 fb bc 12 ba aa bd
       -0.06800028 0.12299635 -0.03070238 -0.08336271

convs.1.lin_r.weight f4 [64, 256]
000000 39 2e 0c 3d fa 34 fd bb 18 47 68 bd 90 bb 56 ba
       0.03422377 -0.0077272626 -0.056708425 -0.0008191401
000010 78 ca 77 3b 71 5a 38 bd aa f5 52 bb 05 9e 10 3d
       0.003780989 -0.045008127 -0.0032189884 0.03530695
000020 3b f4 86 bc 94 32 b8 bb e1 32 80 bc 06 7c dd bc
       -0.01647388 -0.0056212638 -0.015649261 -0.027036678
000030 88 20 9f 3c 87 84 df 3a 44 bf 9f bd b2 29 03 3d
       0.019424692 0.0017053046 -0.07800153 0.032022186
000040 1c e6 d4 bb 44 aa 0a bd d7 7a 4e bd 9d a6 e8 bb
       -0.0064971577 -0.033853784 -0.050410118 -0.00709994
000050 36 f2 7d bd 16 14 18 bd d5 10 57 3c e0 50 2b bd
       -0.06199857 -0.03712853 0.013126572 -0.041825175
000060 ec b2 bf bc 5f b7 54 bc cb ae a9 3c 2e 5d 16 3d
       -0.023400746 -0.012983172 0.02071323 0.036709957
000070 34 12 62 3d 54 9e 90 3d 02 9b 4a 3d 3d 41 38 3d
       0.05519314 0.07061449 0.049464233 0.04498409
000080 4f 20 d7 3c 2f c2 2b 3b e0 36 87 3d 72 22 4b bc
       0.026260523 0.0026208272 0.066022635 -0.012398349
000090 0a 95 2d 3d 31 e2 4b 3d 59 e2 18 bd c7 e1 e5 bc
       0.042378463 0.04977626 -0.037325237 -0.02806176
0000a0 dc 3f 9e 3c 13 af a0 bd f0 a5 09 3d 00 b0 b9 3c
       0.01931756 -0.07845893 0.033605516 0.022666931
0000b0 e0 cf f5 bc f1 87 cf 3b fa 00 bb 3c 4d ea 17 3d
       -0.03000635 0.006333344 0.022827614 0.03708868
0000c0 88 cf d5 3c 28 17 be bc 5a c1 c2 3c a5 d5 17 bd
       0.026099935 -0.023204401 0.023773838 -0.03706898
0000d0 6a da 59 3d 66 02 8f bd 90 ff 01 bd 03 34 8d 3c
       0.05318681 -0.06982879 -0.031737864 0.017236715
0000e0 ed 4d fd 3c 49 0b 32 3c 11 61 7d bd 35 dc 8e bd
       0.030920947 0.010866948 -0.061860148 -0.06975595
0000f0 ee 1a 61 bd 8d 86 87 3d 2b a0 0d 3c 30 08 55 bb
       -0.054957323 0.066174604 0.008644144 -0.00325061
000100 e1 46 2c bd 10 85 e1 bc b5 0e 1c bd c6 ed b6 bd
       -0.042059783 -0.02752927 -0.038099963 -0.089320704
000110 ad f7 a0 3c 90 9c c0 bc 1c 6c 5d bd 88 ce 93 bc
       0.019649351 -0.023512155 -0.05405818 -0.018042818
000120 c8 b6 5f bc d1 cc a5 3b c1 3f b4 bc c1 0b 79 bc
       -0.013654418 0.0050598164 -0.022003056 -0.015200556
000130 85 3f fe 3c af 36 01 bd b2 da ba bc 3c 14 0e 3d
       0.031036148 -0.03154629 -0.02280936 0.034687266
000140 46 03 88 3c 42 8d ed 3c c3 71 25 3d f2 f5 93 3d
       0.016603123 0.028998021 0.040391695 0.07224645
000150 41 45 45 bd d8 95 7d bc 4d 93 44 bd 00 08 3e bd
       -0.04816175 -0.01547762 -0.04799204 -0.04639435
000160 94 96 73 3c 0d c7 b4 3c 9d 37 4b bd 95 3d a0 3b
       0.014867444 0.022067571 -0.049613584 0.0048901537
000170 d4 1f 2a bc 66 d4 dc 3c 26 57 37 bd ce ef 7c bd
       -0.010383565 0.026956748 -0.044760846 -0.061752133
000180 fb 8b 14 3d bf 63 80 bb ef 82 51 3d 9c 2f 28 bd
       0.03626631 -0.0039181407 0.05115026 -0.04106103
000190 06 c7 43 3d 00 d0 95 3c 62 ab bf 3c d5 a0 83 3c
       0.047797225 0.018287659 0.023397151 0.016067902
0001a0 2b cc 44 bc 67 1e a0 bd d3 e1 a9 bd a6 cd be 3c
       -0.012011568 -0.07818299 -0.08295026 0.02329142
0001b0 0e 94 12 bd 27 bc ab 3c be 53 0a bd 9c 1a 85 bd
       -0.035785727 0.020963741 -0.03377127 -0.06499216
0001c0 3b f2 e9 bb d1 99 8f 3c c6 02 3b bd d9 36 19 bd
       -0.007139472 0.0175294 -0.04565694 -0.037405822
0001d0 d9 13 12 bd 12 c7 65 bd d9 8e 80 3c 83 95 86 ba
       -0.03566346 -0.05609805 0.015693115 -0.0010267947
0001e0 23 86 37 3d 76 f1 15 3d 40 bd d8 3c bc 7e ef bb
       0.044805657 0.03660723 0.026457429 -0.007308809
0001f0 51 f9 94 bc 0e 1f d5 3b 51 71 b9 bc 2c 21 f7 39
       -0.01818529 0.006503946 -0.022637041 0.00047136226
000200 00 a4 9a bc ad de 7a 3d a6 31 47 bb e3 61 af bd
       -0.01887703 0.061247516 -0.0030394583 -0.08563592
000210 70 39 38 3d 30 fc 6d bc dd ac 51 bd 69 0a 6d bc
       0.04497665 -0.014525458 -0.051190246 -0.014467814
000220 fb 8a 9d bd 3c 3b 26 bd 9e a7 97 3d 20 7b 90 bd
       -0.07692524 -0.040583834 0.07405017 -0.07054734
000230 fd 85 c8 3c b4 87 92 bd 81 3a 1a bb 1c 4c 98 3c
       0.024477953 -0.071547896 -0.0023533406 0.01859098
000240 1c 87 dd bc 02 ed 5b bd 7c 27 c0 bd 6d d6 87 3d
       -0.027041964 -0.053692825 -0.09382531 0.06632695
000250 17 79 14 bd a8 46 d9 3c ac 88 ed 3c 60 fb ba 3a
       -0.036248293 0.02652295 0.028995834 0.0014265589
000260 9c 59 3a 3d 58 16 b5 bb 43 2d 56 bd 04 e9 cf bc
       0.045495614 -0.005526345 -0.05228926 -0.025379665
000270 63 dc 8c 3d 24 41 91 bd 4d 8d 3d bd 00 f5 2f bd
       0.06877973 -0.07092503 -0.046277333 -0.04295826
000280 b5 db b4 bd 50 cf 38 3d db d2 fa 3c c1 b0 d0 3c
       -0.08830968 0.045119584 0.030618122 0.025474908
000290 ca f0 83 bd 15 fd 5a 3d e0 f3 6d bd 2a 1b 88 bd
       -0.06442411 0.053464014 -0.058093905 -0.06645806
0002a0 0c 10 29 3c ca 1c 44 3d 5c 3d 9b 3c f0 7d 1e ba
       0.010318767 0.047879018 0.018950157 -0.0006045988
0002b0 36 98 9c 3c 8e 9a 2d bc 97 d1 9c 3c eb 86 a6 bb
       0.019115549 -0.010595931 0.019142909 -0.0050820014
0002c0 c6 99 ce bb 32 95 da 3d 9d e3 82 bc c7 e6 66 bd
       -0.0063049523 0.10672988 -0.015977675 -0.05637243
0002d0 6d 48 5f 3d 2c fc 98 bd cd 3b 24 bb 31 27 9a 3d
       0.05451243 -0.07469973 -0.0025060058 0.075270064
0002e0 95 1d 42 3d 77 1f 54 bd 9f b8 6c bd d9 d2 28 bd
       0.047391493 -0.05178782 -0.057793256 -0.041216705
0002f0 c1 0c b9 3c 2a d5 c8 bb 62 5c a1 3c fc e0 cb 3c
       0.02258909 -0.0061289268 0.019697372 0.024887554
000300 51 e5 98 3c f4 d7 93 3d 11 3b 69 bd 1a 28 28 3d
       0.018664034 0.07218924 -0.056941096 0.04105387
000310 87 91 be ba 88 59 94 3d 9d 0e 6d bd 78 97 bb bb
       -0.001453922 0.07243639 -0.057875264 -0.0057248436
000320 8f a8 c2 bc 33 94 0d bd c2 ca 4a 3d cf 5e 82 bc
       -0.023762016 -0.034565162 0.04950977 -0.015914349
000330 c7 1e bf bc 8e 8a ab bd 37 e2 73 3c b8 94 1f bb
       -0.023330105 -0.083760366 0.014885477 -0.0024350118
000340 39 88 0f bd f0 ce 04 3d 99 0f 47 bd e2 10 06 bd
       -0.03504202 0.032423913 -0.04859886 -0.032730944
000350 e3 d2 03 3d bc 16 d2 bc cf 36 36 bb 86 a6 a5 3c
       0.03218354 -0.025645606 -0.0027803665 0.020221006
000360 2a 15 1f 3c f0 5c 3d bd 70 87 da bc 1c 9b 4e bd
       0.009709636 -0.04623121 -0.02667591 -0.050440893
000370 4f 8b a7 bc e8 d2 84 3d 6a fa e6 3c 33 e3 eb bc
       -0.02045217 0.0648554 0.028195579 -0.02879486
000380 6a b9 4d 39 0a 8e 30 bd 14 04 96 bc 95 a2 45 3d
       0.00019619396 -0.04310421 -0.018312491 0.048250753
000390 4c 46 58 3d 38 f4 a7 3c 47 d6 66 bc 86 65 70 3d
       0.052801415 0.020502195 -0.014089174 0.05869057
0003a0 ea 6a 5e 3d 03 5b 8e 3d 45 aa 34 3c 7a 60 2b bd
       0.05430118 0.06950953 0.011026924 -0.041840054
0003b0 89 0b 34 3d 3a 46 ef 3c bb 83 3e 3d a9 6d d0 ba
       0.043956313 0.029208291 0.046512347 -0.0015901822
0003c0 6c 41 51 bd 98 b8 06 3c 19 c9 0f 3d 34 78 44 b9
       -0.05108778 0.0082227215 0.03510389 -0.00018736796
0003d0 5c 0e 0e 3a c5 51 16 3d 2c a3 83 bc 87 75 22 3d
       0.000541901 0.036699075 -0.016069017 0.039662864
0003e0 70 dd 64 bc 7e 3e 28 bd cc 36 01 3d 18 37 0f bd
       -0.01396881 -0.041075222 0.0315464 -0.03496465
0003f0 51 99 c6 bc 37 9b 5a 3d ee 77 a8 bc da 5f 18 3d
       -0.024243029 0.05337068 -0.020565 0.037200786

bns.0.weight f4 [256]
000000 ba b8 78 3f f9 13 73 3f e0 c8 70 3f 47 e0 71 3f
       0.9715687 0.9495235 0.9405651 0.94482845
000010 15 84 78 3f b9 df 71 3f e7 15 72 3f e5 13 75 3f
       0.9707654 0.94482 0.9456467 0.9573348
000020 b5 86 75 3f 43 c9 6c 3f 43 71 76 3f 84 a2 76 3f
       0.9590867 0.924946 0.96266574 0.9634173
000030 2b 74 73 3f 09 75 74 3f c6 70 6f 3f e9 9a 6f 3f
       0.95099133 0.9549108 0.93531454 0.9359575
000040 60 24 75 3f 68 7a 74 3f 3b 33 76 3f 31 52 73 3f
       0.9575863 0.9549928 0.9617192 0.9504729
000050 cc fd 72 3f e8 19 75 3f 4e e9 72 3f a6 a9 74 3f
       0.94918513 0.95742655 0.94887245 0.9557136
000060 66 e5 72 3f 98 90 73 3f a1 eb 70 3f fa 42 73 3f
       0.94881284 0.9514251 0.9410954 0.95024073
000070 12 40 75 3f b6 65 74 3f ed 5d 73 3f bc 58 73 3f
       0.9580089 0.954677 0.95065194 0.9505727
000080 a0 9d 72 3f 32 21 73 3f 93 08 77 3f 93 e6 75 3f
       0.94771767 0.9497253 0.9649746 0.96054953
000090 a1 cd 74 3f aa a8 76 3f 50 d3 75 3f 91 12 76 3f
       0.95626265 0.9635111 0.9602556 0.9612208
0000a0 5b 07 73 3f 22 fe 72 3f 9e 02 77 3f 5a 29 67 3f
       0.949331 0.94919026 0.9648837 0.9029747
0000b0 06 55 78 3f 6d 82 73 3f 4f 26 75 3f 8d c0 74 3f
       0.97004735 0.9512089 0.9576158 0.9560631
0000c0 74 47 74 3f 16 97 74 3f 01 2b 74 3f 45 f4 75 3f
       0.9542153 0.9554304 0.9537812 0.9607585
0000d0 f9 05 73 3f 24 8e 6f 3f 57 8a 6e 3f 00 cc 74 3f
       0.9493099 0.93576264 0.9317984 0.9562378
0000e0 4f c8 70 3f 01 18 70 3f 26 63 6d 3f d2 ac 71 3f
       0.94055647 0.9378663 0.92729414 0.9440433
0000f0 5c 74 71 3f c4 e4 72 3f c1 f6 6a 3f 16 77 76 3f
       0.94318175 0.9488032 0.91782767 0.9627546
000100 00 a7 72 3f b7 2a 76 3f 6f 00 74 3f 66 5d 73 3f
       0.9478607 0.9615893 0.9531316 0.9506439
000110 b6 8f 75 3f f5 be 75 3f c6 d1 7a 3f be 40 73 3f
       0.9592241 0.959945 0.9797634 0.95020664
000120 50 2b 76 3f 58 3e 73 3f 2e 7c 71 3f 6e 20 7a 3f
       0.9615984 0.95017004 0.9433011 0.97705734
000130 e4 fc 71 3f 76 70 76 3f 14 8a 70 3f ee e4 70 3f
       0.94526505 0.9626535 0.9396069 0.9409932
000140 91 9b 70 3f 9e df 73 3f ab 47 74 3f f5 c4 76 3f
       0.93987375 0.9526309 0.95421857 0.9639428
000150 23 81 72 3f 64 1b 71 3f b7 c8 6d 3f 5e 37 70 3f
       0.94728297 0.9418242 0.9288439 0.93834484
000160 8c 79 77 3f fc 08 74 3f 91 b2 72 3f fe ee 77 3f
       0.9666984 0.9532621 0.9480372 0.9684905
000170 05 81 74 3f 73 aa 75 3f 5c ea 74 3f 80 3b 73 3f
       0.9550937 0.9596321 0.95670104 0.95012665
000180 47 42 6c 3f bb d5 6d 3f 56 62 72 3f b2 e1 6f 3f
       0.9228863 0.9290425 0.946813 0.9370376
000190 ba 83 71 3f 8b b8 73 3f 45 2b 74 3f be d9 72 3f
       0.94341624 0.95203465 0.95378524 0.948635
0001a0 3d 3d 6d 3f e8 4e 6e 3f 6d 41 73 3f 4e 10 78 3f
       0.9267157 0.9308915 0.95021707 0.9689988
0001b0 1b 15 76 3f 37 ea 76 3f bc ea 76 3f 75 a2 6a 3f
       0.96125954 0.96451133 0.96451926 0.9165414
0001c0 54 6b 73 3f 66 44 74 3f ed 51 77 3f 78 e3 76 3f
       0.95085645 0.9541687 0.96609384 0.9644084
0001d0 4f ca 6b 3f 6d 03 75 3f fb 6c 73 3f f5 d6 74 3f
       0.92105573 0.9570835 0.95088166 0.956405
0001e0 40 fc 76 3f a6 be 75 3f 37 c8 74 3f 52 a1 75 3f
       0.9647865 0.9599403 0.95618004 0.9594928
0001f0 51 84 73 3f 0a 11 79 3f c4 61 73 3f 94 ed 72 3f
       0.95123774 0.97291625 0.95071054 0.94893765
000200 8a b6 73 3f 6c 54 75 3f e1 08 72 3f aa d0 74 3f
       0.9520041 0.9583194 0.945448 0.95630896
000210 da 12 77 3f 2a 02 76 3f 88 d8 70 3f 2b a3 74 3f
       0.9651314 0.9609705 0.940804 0.95561475
000220 9c df 6e 3f 93 d5 71 3f 9b 2d 74 3f b1 be 72 3f
       0.9330995 0.94466513 0.9538209 0.9482222
000230 b4 3b 78 3f 96 e0 77 3f 1d 5f 7b 3f 51 7c 6e 3f
       0.969661 0.96827066 0.98192006 0.9315844
000240 2c b2 71 3f 52 3b 76 3f ff f9 74 3f 6e f9 72 3f
       0.94412494 0.96184266 0.95693964 0.9491185
000250 ba 40 74 3f 75 2c 79 3f a1 40 77 3f cd c5 78 3f
       0.95411265 0.9733346 0.9658299 0.9717682
000260 a0 26 76 3f 49 71 73 3f 43 18 79 3f e1 c2 71 3f
       0.9615269 0.95094734 0.97302645 0.94437987
000270 e9 7b 73 3f d5 01 72 3f 5b d4 75 3f ed 9a 72 3f
       0.95110947 0.94534045 0.96027154 0.9476765
000280 4d 0b 77 3f 53 fc 74 3f aa ee 6f 3f 88 1f 78 3f
       0.9650162 0.95697516 0.9372355 0.9692311
000290 cb e3 75 3f 0d 1e 71 3f 0f f3 6d 3f 4b e1 74 3f
       0.9605071 0.9418648 0.92949003 0.9565627
0002a0 71 2e 75 3f 06 0d 78 3f a0 d7 78 3f d0 5f 71 3f
       0.9577399 0.9689487 0.9720402 0.94286823
0002b0 89 dd 74 3f c6 d7 73 3f e6 cd 72 3f 79 d4 75 3f
       0.95650536 0.9525112 0.94845426 0.9602733
0002c0 1d 58 73 3f 18 db 73 3f ef 93 77 3f eb ea 74 3f
       0.95056325 0.95256186 0.96710104 0.95670956
0002d0 7d d7 6c 3f 8a 4a 73 3f 29 5b 76 3f 28 0d 74 3f
       0.9251631 0.9503561 0.9623285 0.95332575
0002e0 0c 60 71 3f e5 10 71 3f d8 5a 73 3f 9e 37 77 3f
       0.9428718 0.94166404 0.9506049 0.9656924
0002f0 5b 95 75 3f d8 fb 76 3f 79 2d 78 3f 0c 16 75 3f
       0.95931023 0.96478033 0.96944386 0.95736766
000300 d3 00 72 3f fe 41 78 3f fc 8a 71 3f 10 78 75 3f
       0.9453251 0.96975696 0.943527 0.95886326
000310 70 98 76 3f 60 e8 74 3f 0b 8f 5f 3f 7c f9 76 3f
       0.9632635 0.95667076 0.8732764 0.9647443
000320 a0 20 72 3f 80 22 73 3f 19 82 73 3f 6a 8e 73 3f
       0.9458103 0.9497452 0.9512039 0.9513918
000330 57 1f 6c 3f d1 78 71 3f 01 fa 6c 3f 8e da 75 3f
       0.9223532 0.94324976 0.92568976 0.96036613
000340 ad 44 78 3f ed 83 79 3f b1 8f 77 3f f7 aa 71 3f
       0.9697979 0.9746693 0.9670363 0.94401497
000350 fa 93 74 3f a0 d3 74 3f 1c 52 76 3f b6 a8 75 3f
       0.95538294 0.95635414 0.9621904 0.9596056
000360 2d 55 75 3f a5 6c 6c 3f cf 1d 76 3f cf 85 74 3f
       0.9583309 0.9235328 0.96139234 0.95516676
000370 40 79 6f 3f 97 02 75 3f 71 df 74 3f d8 b5 72 3f
       0.9354439 0.95707077 0.95653445 0.9480872
000380 58 73 73 3f 6c 0f 76 3f ff b5 71 3f 66 28 75 3f
       0.95097876 0.9611728 0.9441833 0.9576477
000390 6e 9d 72 3f 3b df 71 3f 2e 23 77 3f 7c 7a 74 3f
       0.9477147 0.9448125 0.96538055 0.95499396
0003a0 63 ee 6e 3f 4b 44 72 3f b9 6a 76 3f f8 1c 71 3f
       0.933325 0.94635457 0.96256596 0.9418483
0003b0 02 e2 76 3f 74 d1 76 3f e1 ba 74 3f 02 6d 74 3f
       0.9643861 0.9641335 0.95597655 0.9547883
0003c0 72 75 73 3f 56 18 74 3f 92 c2 74 3f 47 46 7a 3f
       0.9510108 0.95349634 0.9560939 0.97763485
0003d0 33 fe 6c 3f 41 d2 6e 3f ef fb 73 3f cd 53 79 3f
       0.9257538 0.9328957 0.95306295 0.97393495
0003e0 a8 26 72 3f 55 49 6b 3f d3 92 72 3f 39 ce 74 3f
       0.94590235 0.9190877 0.94755286 0.9562717
0003f0 54 22 75 3f 3b a8 6d 3f 3c 75 73 3f b8 eb 73 3f
       0.95755506 0.92834824 0.9510076 0.95281553
