output/dmd/restr_e2v/run_004/restr_dmd_best_model_e2v.pth (torch, 273077 bytes, 14 tensors)

convs.0.lin_l.weight f4 [256, 64]
0.09248814 -0.021258648 0.05888104 -0.11461904 0.012909134 -0.08442214 -0.07922846 0.1014003
-0.08926978 0.065223716 0.006634204 0.034288958 0.023043297 0.12265597 -0.04156328 -0.08996711
0.049607445 0.000337303 0.0657477 -0.11254757 -0.08281783 -0.01326091 0.103543766 -0.026845608
-0.028596766 -0.026496913 -0.0692277 -0.07511636 0.0048980885 0.03307291 0.10369137 -0.10489178
0.0015871058 -0.10909548 0.04753023 -0.03974162 -0.10062927 0.109364375 0.051083975 0.0063434425
-0.08917341 -0.09278376 -0.08912073 0.10934537 0.0025297028 0.076956645 0.010746521 -0.018082116
-0.099207185 0.08998472 0.07130316 -0.030324806 0.10978302 0.054641448 -0.07791696 -0.058537487
-0.018265858 -0.014170031 -0.06088586 0.06589779 -0.05130709 -0.11291154 -0.10865733 -0.10776798
0.09676376 0.08112925 0.035373133 -0.11079806 -0.01022653 0.04850959 -0.005939898 -0.10782852
-0.032272775 0.08987968 0.10583526 -0.10088654 0.048707485 -0.088280946 -0.111368395 0.09877511
0.06219417 -0.102217786 -0.08829801 0.05758582 0.022184128 0.0792993 -0.0064044 -0.076619096
0.09111063 -0.12156677 0.11809224 0.07189902 0.033432476 0.116864 -0.09424496 0.10256171
0.052122105 0.07213262 0.026469957 -0.09592019 -0.035568792 -0.06125832 -0.113312975 -0.06988089
-0.09788087 -0.07930876 -0.0908748 -0.040999312 -0.091900535 -0.12012776 -0.10162295 -9.661622e-05
0.0631188 0.04225535 0.06829273 0.04964383 -0.017754674 0.08524293 0.04059874 -0.0035018057
0.004593448 -0.0068349787 -0.0839841 -0.09463483 -0.101476096 0.07602563 0.050535116 0.09811739
0.03838242 0.011635811 -0.0008560591 -0.021347508 -0.122903936 0.12348912 -0.036228888 0.031277623
-0.066033855 0.025847958 0.023777459 -0.050188668 0.029933745 0.06949933 0.12418426 0.042975277
0.04668366 0.111729 0.065590516 0.069356754 0.12034352 -0.013101672 0.076175064 0.07508836
-0.01960592 0.028300863 -0.04828917 0.08577238 -0.08673041 -0.10517375 -0.016318936 -0.05118578
-0.040193025 -0.03991586 -0.039531372 0.07712158 0.04971674 -0.007311547 0.019123297 0.051866144
-0.017838296 -0.10210635 -0.08591794 0.10646163 -0.11452796 -0.07234201 0.049787316 -0.09120707
-0.030731538 0.07436554 0.014928132 -0.11908613 0.062392063 0.09419874 -0.0025627727 0.11538504
0.06951811 0.0054075546 -0.090271756 -0.068464294 -0.06431823 0.1262902 -0.11408605 0.123729125
0.026352756 -0.005553055 -0.036116924 0.017548276 -0.06601346 0.0703304 0.056331635 -0.062044624
-0.028096708 -0.08992553 -0.10830355 -0.020918218 0.031608023 0.07855015 -0.0008508785 0.015513873
0.012264908 0.08404997 0.08355853 0.10380974 0.03537504 -0.0510508 0.10346455 0.06278934
0.028103648 -0.0173145 -0.020611405 0.0047267135 -0.021662727 0.10908461 0.10599908 -0.09236007
-0.09455382 0.07314882 0.06978642 0.005205695 -0.030236902 -0.12230782 -0.023048336 -0.117249556
0.0874642 0.106417745 0.05784103 0.06440623 -0.109413594 0.06584902 -0.06215668 0.0627788
-0.0020810943 0.009026006 -0.062218778 0.11555786 -0.09243976 -0.110248856 -0.036750734 -0.11630347
0.10476195 -0.08962317 0.049777683 0.012448146 0.094259344 -0.07496537 0.11846178 -0.07905499
00000000: 6c6a bd3d 9e26 aebc 3f2d 713d 63bd eabd
00000010: d580 533c 84e5 acbd 8842 a2bd f6aa cf3d
00000020: 13d3 b6bd 0394 853d bd63 d93b 9472 0c3d
00000030: 4cc5 bc3c 0e33 fb3d 423e 2abd ad40 b8bd
00000040: 2d31 4b3d 0bd8 b039 bba6 863d 577f e6bd
00000050: 659c a9bd 4a44 59bc c10e d43d 52eb dbbc
00000060: c443 eabc 0e10 d9bc 41c7 8dbd 9bd6 99bd
00000070: 2580 a03b 7677 073d 245c d43d 80d1 d6bd
00000080: 6f06 d03a 736d dfbd 0faf 423d 1cc8 22bd
00000090: b816 cebd 6efa df3d 6e3d 513d a7dc cf3b
000000a0: 8ca0 b6bd 6905 bebd ee84 b6bd 77f0 df3d
000000b0: 5fc9 253b 729b 9d3d 2d12 303c f220 94bc
000000c0: 232d cbbd e949 b83d 6407 923d ba6b f8bc
000000d0: ecd5 e03d b6cf 5f3d ed92 9fbd 01c5 6fbd
000000e0: 48a2 95bc 6b29 68bc 7463 79bd 6cf5 863d
000000f0: 6227 52bd 2a3e e7bd bc87 debd 75b5 dcbd
00000100: 142c c63d 1827 a63d 6be3 103d 18ea e2bd
00000110: 2d8d 27bc feb1 463d 7aa3 c2bb 33d5 dcbd
00000120: 7530 04bd d612 b83d 28c0 d83d 9a9d cebd
00000130: 8081 473d a4cc b4bd 1d15 e4bd 9b4a ca3d
00000140: 50bf 7e3d 8f57 d1bd 96d5 b4bd 1cdf 6b3d
00000150: 7dbb b53c ac67 a23d 00dc d1bb 79ea 9cbd
00000160: 3698 ba3d 00f8 f8bd 58da f13d cb3f 933d
00000170: 7ef0 083d 6556 ef3d 8003 c1bd e00b d23d
00000180: fd7d 553d 44ba 933d 86d7 d83c ce71 c4bd
00000190: 95b0 11bd 01ea 7abd a210 e8bd b61d 8fbd
000001a0: c475 c8bd a26c a2bd 911c babd e5ee 27bd
000001b0: 5936 bcbd 8b05 f6bd b11f d0bd 709e cab8
000001c0: 6e44 813d f213 2d3d 0fdd 8b3d 5457 4b3d
000001d0: 4072 91bc d893 ae3d dd4a 263d 8d7e 65bb
000001e0: a284 963b f5f7 dfbb dbff abbd e8cf c1bd
000001f0: b3d2 cfbd 53b3 9b3d e9fd 4e3d c5f1 c83d
00000200: e236 1d3d 21a4 3e3c 2769 60ba f8e0 aebc
00000210: 0fb5 fbbd dde7 fc3d be64 14bd f71c 003d
00000220: c23c 87bd 19bf d33c f2c8 c23c a292 4dbd
00000230: 9d37 f53c aa55 8e3d 5154 fe3d d806 303d
00000240: 5e37 3f3d 2dd2 e43d 5254 863d ea0a 8e3d
00000250: aa76 f63d 65a8 56bc ac01 9c3d edc7 993d
00000260: 989c a0bc 36d7 e73c ddca 45bd 6ea9 af3d
00000270: b79f b1bd 5665 d7bd 4aaf 85bc 2ea8 51bd
00000280: 71a1 24bd d07e 23bd a6eb 21bd ebf1 9d3d
00000290: c8a3 4b3d b495 efbb 76a8 9c3c 9871 543d
000002a0: 9e21 92bc 221d d1bd bff5 afbd 8e08 da3d
000002b0: a38d eabd 0c28 94bd c9ed 4b3d c6ca babd
000002c0: b5c0 fbbc f64c 983d 2095 743c 6ee3 f3bd
000002d0: d28e 7f3d 45eb c03d 31f4 27bb fe4e ec3d
000002e0: 835f 8e3d db31 b13b 66e0 b8bd 0237 8cbd
000002f0: 47b9 83bd 3852 013e f2a5 e9bd b265 fd3d
00000300: bce1 d73c 67f6 b5bb 57ef 13bd 67c1 8f3c
00000310: 1132 87bd 6209 903d 00bc 663d 8122 7ebd
00000320: 112b e6bc e02a b8bd 40ce ddbd af5c abbc
00000330: 6a77 013d e7de a03d 7d0d 5fba e62d 7e3c
00000340: c1f2 483c 6422 ac3d bc20 ab3d 339a d43d
00000350: 6be5 103d a51a 51bd 39e5 d33d b397 803d
00000360: 9f39 e63c 23d7 8dbc 40d9 a8bc 8ce2 9a3b
00000370: 0876 b1bc c167 df3d 0c16 d93d 4727 bdbd
00000380: 6fa5 c1bd 0ccf 953d 2fec 8e3d 8994 aa3b
00000390: 61b3 f7bc 867c fabd ddcf bcbc 8920 f0bd
000003a0: 6e20 b33d 8cf1 d93d b7ea 6c3d 6ae7 833d
000003b0: 3c14 e0bd dadb 863d 0198 7ebd 2c92 803d
000003c0: f862 08bb d0e1 133c 1ed9 7ebd 99a9 ec3d
000003d0: 0f51 bdbd 27ca e1bd f087 16bd 8430 eebd
000003e0: 6f8d d63d 5a8c b7bd afe3 4b3d 4ff3 4b3c
000003f0: 0b0b c13d 7287 99bd 179c f23d 95e7 a1bd

convs.0.lin_l.bias f4 [256]
-0.08613796 0.005695815 -0.02133882 0.08319063 -0.058760513 0.04905721 0.105858035 -0.040285476
-0.061312106 -0.01495826 -0.06531029 -0.030535258 0.072478496 -0.09309586 0.06324649 -0.06339204
0.006857916 0.05439649 0.091192 0.044976387 -0.09756729 -0.12502065 0.006893651 -0.03992756
-0.030021997 -0.051407665 0.10820622 0.10796374 0.106759444 0.042169116 -0.11153766 0.06544543
0.024283322 -0.013504816 0.08670242 -0.08391845 -0.05938594 -0.035639063 -0.1099596 0.012755359
0.07171576 0.08801692 0.12586589 0.10700965 0.11412093 0.004696952 0.0001510467 -0.09859188
-0.11319654 -0.101356626 0.031486407 -0.10541676 0.010210318 0.12306901 -0.023902433 0.0114985695
-0.037223093 0.014939403 -0.08613186 0.05393694 0.117468245 -0.040131338 -0.09199972 0.009867454
0.014993567 0.07087819 0.116101734 0.058575857 -0.070243165 0.040052418 -0.09496596 -0.08897364
0.11580486 -0.02086759 0.027087966 -0.07256983 -0.103537835 0.008194969 0.07275673 0.008578109
0.021074157 0.038530707 -0.039404094 -0.06171847 -0.031763155 -0.021158928 0.07024218 0.092384964
-0.038115907 0.044651154 0.007252731 0.027764179 0.09976311 0.06577363 -0.046564855 0.051821593
0.05905824 0.04371309 -0.048605606 0.044980418 0.046824943 -0.095042646 -0.028693736 -0.016664932
-0.06376983 -0.094855376 0.10896987 0.10609574 0.011238123 0.007147986 -0.107847676 0.0039169453
0.06831517 0.055192035 0.004323828 0.018527182 -0.037651774 -0.098065734 -0.0935882 0.014229653
-0.030910611 -0.012293383 -0.10993087 -0.10971065 -0.007094891 0.085152365 0.010695793 -0.06519388
-0.099464454 0.060980055 -0.11580475 -0.018238604 -0.070273794 -0.055299334 0.064111374 0.11938259
0.003455973 0.04370887 0.035310876 -0.03678387 -0.107053675 0.083905734 0.094953015 -0.035753503
-0.114331886 0.043766502 0.07214028 0.019395163 0.052771218 0.048740808 0.09262231 0.11976306
-0.058243163 -0.017873012 0.0062345555 -0.060370132 0.10201735 -0.08379637 0.03439142 0.02992243
-0.06803986 -0.060153835 -0.049709138 -0.07712044 0.08403394 -0.055798095 0.09911051 0.0115833655
-0.08818133 0.013681002 0.09338854 -0.046022788 0.10117366 0.030980298 0.035947863 0.068076156
-0.04352819 -0.007104451 0.051208515 0.04420528 0.035200965 -0.051230684 -0.064321436 -0.10905874
-0.021055017 -0.096990585 -0.01985288 0.11012569 -0.054716896 0.040159516 -0.07889453 0.11535524
-0.052845344 -0.016557174 0.060360905 -0.009670424 0.06879334 0.044973884 -0.09355459 0.043711483
-0.021970123 0.12873876 0.04522726 0.049047872 0.05656354 0.098498605 -0.045755167 0.12081676
0.02224966 -0.0004556258 0.015909329 -0.06426605 -0.010506227 -0.090302564 -0.08817374 -0.1202355
-0.058691695 -0.042859484 -0.0010998538 -0.015221554 -0.079252645 -0.028040009 -0.055411436 0.05763517
-0.008025985 0.10284067 0.05276416 0.06110931 0.079529814 0.08276414 0.03597847 0.11994872
0.04973186 0.046103783 -0.1144467 0.09111217 0.072791375 -0.040228095 0.09676646 0.05948108
0.04813007 0.10905623 0.11674289 0.0898502 0.025750093 0.12047137 0.10404599 -0.120351866
-0.02374102 0.0319021 -0.08825595 -0.00084873126 -0.068553254 0.10223964 -0.09952035 -0.07937959
00000000: 1969 b0bd f6a3 ba3b c0ce aebc d95f aa3d
00000010: ddae 70bd 37f0 483d 19cc d83d 6202 25bd
00000020: 6722 7bbd 7d13 75bc 67c1 85bd 1425 fabc
00000030: 9b6f 943d 0ba9 bebd 6087 813d b0d3 81bd
00000040: 5eb8 e03b dbce 5e3d dfc2 ba3d 2939 383d
00000050: 5cd1 c7bd 6a05 00be 23e4 e13b 158b 23bd
00000060: b1f0 f5bc d890 52bd 399b dd3d 181c dd3d
00000070: b2a4 da3d 86b9 2c3d db6d e4bd 4108 863d
00000080: d1ed c63c 4e43 5dbc 0a91 b13d 70dd abbd
00000090: ac3e 73bd 44fa 11bd 8032 e1bd dafb 503c
000000a0: b6df 923d 3742 b43d fde2 003e e027 db3d
000000b0: 3cb8 e93d e4e8 993b 4a62 1e39 8aea c9bd
000000c0: 96d3 e7bd 1094 cfbd e4f7 003d bee4 d7bd
000000d0: 2d49 273c 9b0b fc3d 09cf c3bc 7f64 3c3c
000000e0: 3e77 18bd 66c4 743c e765 b0bd fbec 5c3d
000000f0: 3193 f03d c260 24bd 596a bcbd 1aab 213c
00000100: 94a7 753c 9628 913d bfc6 ed3d 3ded 6f3d
00000110: a6db 8fbd 010e 243d 837d c2bd d037 b6bd
00000120: 192b ed3d 82f2 aabc 95e7 dd3c 7e9f 94bd
00000130: a50b d4bd 3144 063c 7b01 953d 328b 0c3c
00000140: b6a3 ac3c 60d2 1d3d 3066 21bd 82cc 7cbd
00000150: 151a 02bd 7d55 adbc 22db 8f3d 5434 bd3d
00000160: 6d1f 1cbd 21e4 363d 51a8 ed3b b471 e33c
00000170: 9a50 cc3d 53b4 863d caba 3ebd e142 543d
00000180: 0ee7 713d 7f0c 333d ac16 47bd 633d 383d
00000190: 83cb 3f3d b8a5 c2bd 200f ebbc e584 88bc
000001a0: c299 82bd 8943 c2bd 982b df3d b948 d93d
000001b0: 1b20 383c a739 ea3b 3edf dcbd b859 803b
000001c0: d3e8 8b3d 0b11 623d e6ae 8d3b 51c6 973c
000001d0: bf38 1abd b0d6 c8bd 2cab bfbd 7e23 693c
000001e0: 4038 fdbc 2f6a 49bc 7023 e1bd faaf e0bd
000001f0: 427c e8bb 5d64 ae3d 683d 2f3c 5e84 85bd
00000200: 05b4 cbbd 39c6 793d 0a2b edbd 2069 95bc
00000210: b5eb 8fbd 8e81 62bd d34c 833d dc7e f43d
00000220: 9b7d 623b 1208 333d 23a2 103d afaa 16bd
00000230: f53e dbbd c5d6 ab3d ba76 c23d 4472 12bd
00000240: d626 eabd 8144 333d 48be 933d 9be2 9e3c
00000250: a226 583d 71a4 473d c4b0 bd3d 5646 f53d
00000260: 6290 6ebd 6c6a 92bc 3e4b cc3b ac46 77bd
00000270: 79ee d03d 6e9d abbd 05de 0c3d e21f f53c
00000280: 7b58 8bbd de63 76bd cf9b 4bbd 52f1 9dbd
00000290: fd19 ac3d 8b8c 64bd 73fa ca3d 28c8 3d3c
000002a0: 6a98 b4bd 4826 603c 7e42 bf3d 6482 3cbd
000002b0: 2334 cf3d 65ca fd3c 113e 133d 836b 8b3d
000002c0: 9e4a 32bd 74cc e8bb 05c0 513d 9810 353d
000002d0: e32e 103d 44d7 51bd f5ba 83bd 305a dfbd
000002e0: 927b acbc 00a3 c6bd 82a2 a2bc 9489 e13d
000002f0: d31e 60bd 4e7e 243d 7593 a1bd 5e3f ec3d
00000300: 5c74 58bd e9a2 87bc ff3c 773d b370 1ebc
00000310: 86e3 8c3d 8936 383d 8d99 bfbd d00a 333d
00000320: b0fa b3bc 18d4 033e 3840 393d 6ce6 483d
00000330: 2caf 673d a3b9 c93d c569 3bbd c76e f73d
00000340: eb44 b63c 0fe1 eeb9 4854 823c eb9d 83bd
00000350: 4f22 2cbc 8df0 b8bd 6f94 b4bd 083e f6bd
00000360: b466 70bd 6d8d 2fbd f828 90ba d363 79bc
00000370: 364f a2bd 29b4 e5bc 1af7 62bd db12 6c3d
00000380: 6c7f 03bc 219e d23d 3b1f 583d c14d 7a3d
00000390: 87e0 a23d 3f80 a93d 295e 133d ada7 f53d
000003a0: a3b3 4b3d 52d7 3c3d 0863 eabd 0499 ba3d
000003b0: a513 953d 37c6 24bd 7e2d c63d 6fa2 733d
000003c0: 0924 453d df58 df3d e516 ef3d 6203 b83d
000003d0: dcf1 d23c b2b9 f63d 1016 d53d 0a7b f6bd
000003e0: 877c c2bc c7ab 023d 89bf b4bd 647d 5eba
000003f0: a665 8cbd 0463 d13d 53d1 cbbd c491 a2bd

convs.0.lin_r.weight f4 [256, 64]
0.03625363 -0.01714586 0.075413495 0.062705174 -0.03673166 0.11259055 0.017193146 -0.10287499
0.033025254 0.092181675 0.09023339 0.09304583 0.04680675 -0.058771145 0.02416132 -0.08705447
0.031343985 0.04424214 -0.080784746 0.020236194 0.1067958 0.018462619 0.1120548 -0.015664777
0.12262304 0.054355655 0.087191455 -0.06899472 0.06892231 0.12426823 0.032596428 -0.06748454
-0.06955499 -0.07435052 -0.08913501 0.12476366 0.01858202 -0.036918204 0.036577802 0.05261187
0.079338446 0.09518192 0.044471715 -0.06526956 0.02213697 0.037348535 -0.0066501987 0.06436716
-0.10057181 0.06592572 -0.095944494 -0.089972176 -0.059237972 -0.04659535 -0.033182207 0.05602729
0.0953729 0.0067364983 -1.2656832e-05 -0.10752748 -0.088939324 -0.056264736 0.09313146 -0.044294134
-0.002000786 -0.1221468 0.014128193 0.061956737 -0.014577283 0.012676602 -0.11172435 0.114437655
0.009889307 -0.13174517 -0.100971624 -0.06260233 -0.09188217 0.045319565 0.04576127 0.10061503
0.0044741146 0.091171056 0.07344955 0.09532921 -0.11402038 -0.11074724 0.013563862 -0.10021649
-0.017948106 -0.11276781 -0.041452 0.0966756 -0.077319115 -0.06549358 -0.032827564 0.07783741
-0.08406429 -0.045013316 -0.06084271 -0.04976482 0.091603786 -0.0006765881 -0.08240946 -0.11431628
-0.082754284 -0.016201856 0.027399402 -0.043261565 0.016583988 0.012191952 -0.10875929 0.06728638
-0.12346629 -0.008579413 0.03139681 -0.11892344 0.08578638 0.09612017 -0.009433652 0.0551621
-0.08346164 -0.04145543 -0.074987955 0.106239595 -0.066141315 0.021073828 -0.057988156 0.07959085
-0.050817456 -0.06886966 -0.09935731 -0.03549994 -0.09015921 -0.011456212 0.00031963355 -0.026365373
0.058270153 0.034415957 -0.002225114 0.03186487 -0.025909452 0.004246797 -0.112808645 -0.025550375
-0.04549147 0.033976506 -0.0749811 0.061318144 0.055515103 -0.026757887 -0.102629624 -0.06515381
-0.038761355 0.1080609 0.069071375 -0.054845445 0.07898854 0.0051098685 0.1031985 0.11178194
0.0066692233 -0.054349042 -0.045821022 -0.087859794 -0.056711685 0.03230847 -0.107077084 -0.08439964
0.06834926 0.041969053 -0.0014527461 0.015462098 0.06440772 -0.07410163 0.059281394 -0.11920021
-0.12069486 -0.03224641 0.099473655 0.06532246 -0.09787386 0.0066089835 -0.06940159 0.05444671
-0.06602317 -0.12117403 -0.04066864 0.066530704 -0.07093551 0.115011886 -0.08280073 -0.053812653
0.08252764 0.07815829 0.06286098 -0.01164472 -0.07633699 0.08651021 0.043213673 -0.019643955
-0.0944315 -0.007106649 -0.07439394 0.06717922 -0.111467145 0.11291826 0.015111669 -0.026372978
0.10582351 0.027387133 0.07034768 0.07493293 0.032999758 -0.0032633771 -0.08104941 0.077995725
-0.06138766 -0.0188449 -0.07270474 -0.08203412 0.07304003 -0.08051243 -0.09873453 0.0013909773
0.08736745 0.073457025 0.021201173 0.12027205 0.040912148 -0.058499265 0.12047609 0.09885815
-0.023825783 0.07269764 -0.09853672 0.058037054 -0.06431381 -0.0911408 -0.113172464 0.006610853
-0.001725968 0.0056129587 -0.030190388 -0.08347233 0.06234587 -0.04184227 0.100470036 -0.023282893
0.05008414 -0.095330425 -0.10139569 0.12831882 -0.03636503 -0.06221599 0.041754477 0.061007157
00000000: b07e 143d 7975 8cbc 6472 9a3d 926b 803d
00000010: f073 16bd e095 e63d a4d8 8c3c 1fb0 d2bd
00000020: 7d45 073d bfc9 bc3d 49cc b83d d08e be3d
00000030: 6fb8 3f3d 03ba 70bd f6ed c53c 9d49 b2bd
00000040: 8d62 003d 3f37 353d 7972 a5bd 60c6 a53c
00000050: c2b7 da3d eb3e 973c fd7c e53d 6b53 80bc
00000060: ca21 fb3d 09a4 5e3d 6f91 b23d 1b4d 8dbd
00000070: 2427 8d3d 5780 fe3d d583 053d 5635 8abd
00000080: d972 8ebd 1645 98bd 6b8c b6bd 1784 ff3d
00000090: 5239 983c 8b37 17bd 9bd2 153d 8b7f 573d
000000a0: 327c a23d bdee c23d f927 363d 0cac 85bd
000000b0: 9758 b53c c7fa 183d e9e9 d9bb eed2 833d
000000c0: 98f8 cdbd 1004 873d 8c7e c4bd 5543 b8bd
000000d0: 84a3 72bd c4da 3ebd 11ea 07bd df7c 653d
000000e0: de52 c33d d8bd dc3b ae58 54b7 5e37 dcbd
000000f0: d225 b6bd da75 66bd b5bb be3d c46d 35bd
00000100: 9e1f 03bb 1a28 fabd f079 673c 59c6 7d3d
00000110: 8ed5 6ebc 86b1 4f3c bccf e4bd 4a5e ea3d
00000120: c306 223c 35e8 06be 36ca cebd a735 80bd
00000130: b82c bcbd 02a1 393d 2b70 3b3d 410f ce3d
00000140: 989b 923b e4b7 ba3d b86c 963d f63b c33d
00000150: 8483 e9bd 73cf e2bd f63a 5e3c 4e3e cdbd
00000160: e807 93bc cff2 e6bd 93c9 29bd dbfd c53d
00000170: 7c59 9ebd 8021 86bd 3276 06bd 3869 9f3d
00000180: e629 acbd e25f 38bd 3536 79bd 32d6 4bbd
00000190: c49a bb3d 0f5d 31ba 4ac6 a8bd a71e eabd
000001a0: 147b a9bd c1b9 84bc b674 e03c 0a33 31bd
000001b0: 25db 873c c1c0 473c 31bd debd 71cd 893d
000001c0: e5db fcbd ab90 0cbc f199 003d 228e f3bd
000001d0: c5b0 af3d a7da c43d 9b8f 1abc a7f1 613d
000001e0: f0ed aabd 2bcd 29bd 4993 99bd 2594 d93d
000001f0: 1975 87bd 05a3 ac3c fd84 6dbd 8700 a33d
00000200: f725 50bd 890b 8dbd d87b cbbd 6368 11bd
00000210: 64a5 b8bd d6b2 3bbc 7d94 a739 32fc d7bc
00000220: afac 6e3d bff7 0c3d 38d3 11bb bd84 023d
00000230: 0f40 d4bc b728 8b3b 3808 e7bd 054f d1bc
00000240: 4355 3abd f32a 0b3d b18f 99bd bc28 7b3d
00000250: ce63 633d 5b33 dbbc 7b2f d2bd 5c6f 85bd
00000260: 3ac4 1ebd 084f dd3d 4b75 8d3d 9ea5 60bd
00000270: bec4 a13d af70 a73b bc59 d33d eeed e43d
00000280: 8089 da3b 1a9d 5ebd d3ae 3bbd d6ef b3bd
00000290: 834a 68bd e355 043d 3b4b dbbd b8d9 acbd
000002a0: b2fa 8b3d bee7 2b3d 126a beba bd54 7d3c
000002b0: 32e8 833d 98c2 97bd 0cd1 723d 3d1f f4bd
000002c0: de2e f7bd d014 04bd d8b8 cb3d c8c7 853d
000002d0: 1772 c8bd 2c90 d83b 6c22 8ebd 8303 5f3d
000002e0: 2837 87bd 172a f8bd 2994 26bd 4041 883d
000002f0: a346 91bd 5a8b eb3d 6e93 a9bd a86a 5cbd
00000300: 4004 a93d 7411 a03d 42bd 803d 7fc9 3ebc
00000310: 9156 9cbd 442c b13d d200 313d 5cec a0bc
00000320: 4d65 c1bd e5de e8bb da5b 98bd 4295 893d
00000330: e348 e4bd b041 e73d ef96 773c 250c d8bc
00000340: ffb9 d83d fb5a e03c 7212 903d 7076 993d
00000350: c12a 073d 62de 55bb 3cfd a5bd 39bc 9f3d
00000360: a171 7bbd 9f60 9abc 39e6 94bd 8101 a8bd
00000370: 0396 953d b3e3 a4bd 5435 cabd 7451 b63a
00000380: b5ed b23d a370 963d 15ae ad3c 3151 f63d
00000390: 7f93 273d ed9c 6fbd 2bbc f63d 2476 ca3d
000003a0: 4a2e c3bc 80e2 943d 9fcd c9bd 43b8 6d3d
000003b0: f5b6 83bd 07a8 babd f7c6 e7bd db9f d83b
000003c0: e039 e2ba e9ec b73b d551 f7bc 8af3 aabd
000003d0: 625e 7f3d cd62 2bbd 3cc3 cd3d c4bb bebc
000003e0: 0725 4d3d 993c c3bd 8ba8 cfbd 0266 033e
000003f0: 7ff3 14bd 32d6 7ebd be06 2b3d a4e2 793d

convs.1.lin_l.weight f4 [64, 256]
0.018082757 -0.01677883 -0.05123188 -0.043952957 0.048238 0.017710323 0.038851555 -0.040165246
-0.07165998 -0.05514814 -0.020082356 0.015222115 -0.035493128 0.0067949346 0.0019377576 0.028083019
0.031942766 0.04208554 -0.041628394 0.05606203 -0.029424658 -0.06369669 0.010076232 -0.039992403
0.005790678 -0.07651982 -0.07000577 -0.06461081 -0.029762128 -0.02917652 -0.044780515 0.035826202
-0.054715693 -0.06586725 0.01748187 0.020092025 -0.0043988214 0.0330743 -0.017757261 -0.034826856
-0.021677565 0.013859814 0.024877941 0.0046306765 -0.002847697 -0.031585038 -0.021100176 -0.025309995
-0.023202335 0.02991749 -0.05736594 0.013454549 -0.032736715 0.028102046 0.027852485 -0.051412195
-0.051571887 -0.07685176 -0.08744406 0.0110425735 -0.05969526 -0.040416665 -0.013251393 0.03834051
0.015947515 0.03325519 -0.009131042 -0.013990136 -0.006658897 -0.024665784 -0.0074240053 0.055878315
0.007963702 -0.0045193513 0.00034417515 -0.0007733851 0.013211768 -0.01333408 -0.05543911 -0.031472817
0.036922526 -0.010471098 0.032318663 0.014702514 -0.045943588 -0.034202848 -0.01794446 -0.03840021
-0.06205803 -0.054540176 -0.019954937 -0.044715844 -0.07517571 -0.0024309214 -0.0567505 -0.0094463
0.0030797562 -0.039815735 0.036312785 -0.058402296 0.037328485 -0.04796373 0.01861975 -0.06203751
0.015439274 -0.04694072 0.023643639 -0.058975965 0.009879688 -0.038024735 -0.05755098 0.004696671
-0.007250959 -0.057856984 0.0037316326 -0.06827408 0.0084135765 0.045205344 -0.08392937 -0.033459228
0.041151643 0.02791932 -0.085825704 0.018472115 -0.07782905 -0.045932945 -0.009476869 -0.015527704
0.033516765 -0.059687227 -0.06688739 -0.01746232 -0.005922071 -0.0332948 -0.0665178 0.036819126
-0.03019596 -0.029572796 -0.028674783 0.0011104249 0.036201898 0.049030907 -0.06569198 0.010731175
-0.016192805 0.012083762 -0.038465206 0.021490473 -0.017954484 0.009339876 -0.0010098815 -0.007770328
-0.018081196 -0.06480623 0.04198758 -0.06815955 -0.04753577 -0.00016556545 0.0069502676 -0.043496434
0.0012518674 0.04197299 -0.06325338 -0.051351175 -0.06666659 0.008957934 -0.032224797 0.0029040556
-0.05230509 -0.041300803 0.034826905 -0.0066465684 -0.08900875 -0.06740213 -0.044599656 0.019346077
0.033248674 -0.024232585 0.023501696 -0.07027077 -0.0019856882 -0.052930612 -0.037631344 0.022115193
0.015694162 -0.048577074 -0.0836135 0.02789331 -0.052845597 0.041431364 0.014759856 -0.06617674
-0.0070285043 -0.06923479 0.029055204 -0.033364568 -0.02610696 0.027892739 -0.07335164 -0.033457566
-0.010114518 -0.01873439 0.0021206841 0.028228475 -0.07361315 -0.039183065 -0.0012663263 -0.054872192
0.033281755 -0.053259145 -0.040745154 -0.018675087 0.05888257 -0.07718715 0.036308743 -0.016421884
-0.041889124 -0.05652663 -0.0387727 0.030541116 -0.016896341 -0.067568116 -0.032946087 -0.05363898
-0.046840765 -0.01646019 -0.057377532 -0.035356976 -0.056111827 0.01950807 -0.038568772 -0.08303596
0.010919174 -0.058107186 0.021176938 0.01885535 -0.07230165 -0.009347533 -0.007923923 0.01415234
-0.026666677 -0.057895895 0.032317415 0.025279768 -0.05614713 -0.019581167 -0.03138039 0.022146279
-0.040541563 -0.040878978 -0.060466953 0.03676626 0.012065363 0.052530635 -0.013872297 0.021317776
00000000: 4a22 943c c273 89bc 85d8 51bd 0408 34bd
00000010: 3695 453d 3d15 913c cf22 1f3d 5084 24bd
00000020: 78c2 92bd 04e3 61bd c183 a4bc 2e66 793c
00000030: 3e61 11bd 0ba8 de3b 5bfc fd3a 5c0e e63c
00000040: 6bd6 023d e361 2c3d 8982 2abd 4da1 653d
00000050: fb0b f1bc 6973 82bd c816 253c 13cf 23bd
00000060: babf bd3b 6cb6 9cbd 2f5f 8fbd ac52 84bd
00000070: b5cf f3bc 9903 efbc c66b 37bd 7fbe 123d
00000080: 901d 60bd 69e5 86bd 2336 8f3c 0898 a43c
00000090: fd23 90bb eb78 073d ad77 91bc 9ba6 0ebd
000000a0: 2695 b1bc 4614 633c d3cc cb3c eebc 973b
000000b0: 6da0 3abb 505f 01bd 47da acbc e856 cfbc
000000c0: d312 bebc 8615 f53c 8cf8 6abd 7870 5c3c
000000d0: ef16 06bd 4336 e63c e52a e43c 9895 52bd
000000e0: 0b3d 53bd 7564 9dbd df15 b3bd e9eb 343c
000000f0: 0483 74bd f28b 25bd 5f1c 59bc f00a 1d3d
00000100: 5da4 823c 9836 083d 5e9a 15bc e236 65bc
00000110: e032 dabb e60f cabc 1245 f3bb a9e0 643d
00000120: 307a 023c 1117 94bb 6872 b439 ffbc 4aba
00000130: 2c76 583c 2f77 5abc 1f14 63bd a4e9 00bd
00000140: 133c 173d f88e 2bbc 9360 043d d0e2 703c
00000150: 582f 3cbd 4918 0cbd 4300 93bc 8a49 1dbd
00000160: 9030 7ebd 8565 5fbd 8978 a3bc f627 37bd
00000170: b9f5 99bd 1850 1fbb 3673 68bd a7c4 1abc
00000180: bcd5 493b d315 23bd b7bc 143d 3f37 6fbd
00000190: c1e5 183d 9e75 44bd 7288 983c 0b1b 7ebd
000001a0: 02f5 7c3c ea44 40bd 4eb0 c13c c890 71bd
000001b0: 6ade 213c d3bf 1bbd 94ba 6bbd 88e6 993b
000001c0: 7499 edbb 72fb 6cbd 688e 743b 48d3 8bbd
000001d0: 19d9 093c 3d29 393d 29e3 abbd 8b0c 09bd
000001e0: a08e 283d 0fb7 e43c 63c5 afbd d552 973c
000001f0: d664 9fbd 2f24 3cbd df44 1bbc e967 7ebc
00000200: e048 093d 987a 74bd 42fc 88bd 240d 8fbc
00000210: ef0d c2bb 2160 08bd 7c3a 88bd a7cf 163d
00000220: 855d f7bc a642 f2bc 61e7 eabc ad8b 913a
00000230: 7148 143d a2d4 483d 8489 86bd cfd1 2f3c
00000240: c6a6 84bc f9fa 453c b18d 1dbd ca0c b03c
00000250: 4815 93bc 4706 193c 005e 84ba 3c9e febb
00000260: 041f 94bc 21b9 84bd 2bfb 2b3d 3c97 8bbd
00000270: deb4 42bd a39b 2db9 12bf e33b 5129 32bd
00000280: b315 a43a dfeb 2b3d fd8a 81bd 9c55 52bd
00000290: 7e88 88bd 4cc4 123c 26fe 03bd f851 3e3b
000002a0: dd3d 56bd 082b 29bd a8a6 0e3d 75cb d9bb
000002b0: 384a b6bd 210a 8abd 21ae 36bd aa7b 9e3c
000002c0: c32f 083d 6a83 c6bc a186 c03c 1fea 8fbd
000002d0: 5222 02bb c5cd 58bd 5323 1abd ec2a b53c
000002e0: 0b91 803c c1f8 46bd 8e3d abbd 8380 e43c
000002f0: a074 58bd efb3 293d 53d3 713c ac87 87bd
00000300: 5e4f e6bb f8ca 8dbd 2e05 ee3c 49a9 08bd
00000310: 43de d5bc 507f e43c 6239 96bd cd0a 09bd
00000320: 5db7 25bc dd78 99bc 2dfb 0a3b 673f e73c
00000330: 7ec2 96bd 6c7e 20bd dcfa a5ba aac1 60bd
00000340: 7352 083d 4326 5abd 64e4 26bd 7ffc 98bc
00000350: da2e 713d 4c14 9ebd 7ab8 143d 3087 86bc
00000360: ee93 2bbd 7888 67bd 1fd0 1ebd 5d31 fa3c
00000370: 326a 8abc 2761 8abd 7af2 06bd 8cb4 5bbd
00000380: 1adc 3fbd 85d7 86bc b404 6bbd 7ad2 10bd
00000390: 84d5 65bd 63cf 9f3c 4afa 1dbd c20e aabd
000003a0: 56e6 323c cd01 6ebd 427b ad3c 8976 9a3c
000003b0: e312 94bd 6526 19bc 58d3 01bc 37df 673c
000003c0: 1374 dabc 3f24 6dbd 445f 043d 8417 cf3c
000003d0: 88fa 65bd af68 a0bc b988 00bd 1d6c b53c
000003e0: e90e 26bd b770 27bd 32ac 77bd 3898 163d
000003f0: cdad 453c 5d2a 573d a148 63bc 9ea2 ae3c

convs.1.lin_l.bias f4 [64]
-0.049649917 -0.06669889 0.019987684 -0.03949819 -0.05457249 0.00235177 -0.041170307 0.03773984
0.034479763 0.021343514 -0.06283378 0.036656216 -0.004633245 -0.041270647 -0.020440876 0.008923727
-0.04486426 -0.057565067 -0.046707742 0.020703629 0.0016725743 0.02782283 -0.032120503 -0.020048006
-0.011145161 0.022792835 -0.014095414 -0.05310389 0.073990405 0.025448915 0.04536606 0.024044137
0.03446608 -0.0061181765 0.026864467 0.053504683 -0.043721236 0.0075998 -0.0766876 0.049653515
0.06333001 0.00093885855 -0.03178057 -0.07125557 0.0319927 0.05341522 0.027505172 -0.051662643
-0.0023197175 -0.020320727 0.029938538 -0.057837043 -0.022922853 0.06731609 0.0002250998 -0.055199504
-0.03126743 0.008696137 -0.053300034 0.03152596 0.05803503 0.048118338 0.009524159 -0.028118813
00000000: b65d 4bbd 6d99 88bd 36bd a33c dbc8 21bd
00000010: 6787 5fbd 2720 1a3b 32a2 28bd 1795 1a3d
00000020: a73a 0d3d 98d8 ae3c ffae 80bd d424 163d
00000030: 7ad2 97bb 690b 29bd a073 a7bc d334 123c
00000040: 96c3 37bd 59c9 6bbd 9e50 3fbd a89a a93c
00000050: 483a db3a b4ec e33c ca90 03bd b73b a4bc
00000060: 329a 36bc 0ab8 ba3c 74f0 66bc 7783 59bd
00000070: 4888 973d 3e7a d03c c3d1 393d 36f8 c43c
00000080: 4e2c 0d3d fc7a c8bb df12 dc3c ba27 5b3d
00000090: 0a15 33bd be07 f93b 630e 9dbd 7c61 4b3d
000000a0: 2ab3 813d bb1d 763a 582c 02bd 71ee 91bd
000000b0: c70a 033d ebc9 5a3d 8752 e13c 359c 53bd
000000c0: 6706 18bb a777 a6bc aa41 f53c 89e6 6cbd
000000d0: b5c8 bbbc 05dd 893d c408 6c39 e018 62bd
000000e0: 4712 00bd 3e7a 0e3c 2351 5abd 5d21 013d
000000f0: 24b6 6d3d bc17 453d 380b 1c3c 6d59 e6bc

convs.1.lin_r.weight f4 [64, 256]
-0.0697811 -0.041070387 -0.0038854326 -0.0052655814 -0.046710435 0.046174027 0.028435653 -0.00031394965
0.004303864 0.0010169228 -0.030319382 -0.058947925 0.016598718 0.007522049 0.008380343 0.026712043
-0.040038433 -0.014929645 0.07679805 0.018480305 0.0334735 0.01402507 -0.045866154 -0.070685565
-0.014553895 -0.045336653 -0.05314592 -0.0416085 0.023306688 0.0385948 -0.016027112 0.06401436
0.031551044 0.031567965 0.026006052 -0.0367366 -0.06180385 0.008699707 0.030806452 -0.03075307
0.055864386 -0.011592973 0.045395862 0.012914267 -0.009609598 -0.05651678 -0.0013034822 -0.010066235
-0.04860891 0.03142321 -0.047191396 -0.021076508 -0.036074743 0.043564387 0.02223662 0.050778054
-0.047502726 -0.079560235 -0.022969812 0.04053469 -0.009992378 -0.055917524 0.034255713 0.027210586
0.00038828969 -0.02336642 -0.032788772 -0.005285517 -0.0069781183 -0.006147536 -0.0018971391 -0.05635716
0.00017610192 -0.033875983 0.0017557011 0.020167647 -0.042475022 -0.032362502 -0.057399802 0.01333672
-0.048490357 -0.019975072 -0.012446053 0.036032643 0.041823074 0.012396979 0.03434518 0.0050975424
-0.04571284 0.032356832 0.047946528 -0.07575441 0.020778716 -0.07293602 0.018448142 -0.016443774
-0.05708534 0.04112005 -0.009696843 -0.014878586 -0.011110345 -0.017298792 -0.033054072 0.032397453
0.03283374 -0.032594528 0.06857668 -0.05951388 -0.02277441 -0.005703814 -0.0013085162 0.006688002
0.043824896 0.03254422 -0.051591914 -0.02842609 0.00929847 0.039215367 -0.08492809 0.018255234
0.003121241 0.03893026 -0.024768012 -0.008250193 -0.06957559 -0.0129771745 -0.04398187 -0.06550884
-0.029120967 -0.016779438 0.028877646 -0.020216972 0.026333008 -0.006940036 -0.0009463002 0.031312883
-0.05937519 0.010734996 -0.056439165 -0.06794186 -0.024006512 0.0408891 0.06189566 -0.024293886
-0.04292604 -0.032296732 -0.009117773 -0.03927247 -0.010662021 -0.006375503 0.02589012 -0.057665747
-0.057597738 0.043229498 -0.034512352 0.03918203 0.064967774 0.023670739 0.07529594 -0.043050986
-0.073712215 -0.02308752 -0.07199804 -0.03249328 0.0026589409 -0.019584462 0.03151169 -0.047440782
-0.006919465 -0.038203195 0.032851335 -0.0138965 0.05215353 -0.075303495 0.026920967 0.011618424
-0.021635417 0.025246706 -0.057946537 -0.026182007 0.034967955 0.054679953 -0.05689575 -0.019843955
-0.07733223 -0.05498382 -0.06890174 0.060363065 0.023505442 0.040590707 0.044912733 -0.0012912329
-0.037363056 0.031156195 -0.06257909 -0.035601385 0.013727985 0.03439671 -0.06902917 -0.03972131
-0.067882575 -0.0071040145 -0.07073062 0.004131132 -0.03277708 0.00442276 0.0035884832 0.03246033
-0.026135996 0.040643387 0.0036231352 -0.0524763 0.026717307 -0.05664167 -0.0427519 -0.06733487
-0.02512229 -0.041380905 -0.0005414996 0.01774234 -0.02227776 -0.04952736 -0.0070092403 -0.031641167
-0.025301022 -0.06931106 0.024869233 0.035150826 -0.006663058 -0.04625541 -0.060013402 0.031238465
-0.05572438 -0.05818421 -0.0018669389 0.020389536 -0.06469057 -0.07587735 -0.037249833 -0.0033984564
-0.07045919 -0.04800467 0.025362352 0.051801912 0.0007127458 -0.006608362 0.017321892 0.016097203
0.036316626 0.063334234 -0.021745164 -0.05570766 -0.025943968 -0.04471656 0.009191954 -0.048254043
00000000: 65e9 8ebd 6c39 28bd bea2 7ebb e68a acbb
00000010: 7153 3fbd fa20 3d3d e3f1 e83c 9c99 a4b9
00000020: 6e07 8d3b 444a 853a 5a60 f8bc 6173 71bd
00000030: 09fa 873c 857b f63b b54d 093c 37d3 da3c
00000040: 57ff 23bd 789b 74bc 4c48 9d3d 0264 973c
00000050: 821b 093d 68c9 653c 26de 3bbd 98c3 90bd
00000060: 7673 6ebc edb2 39bd 89af 59bd ad6d 2abd
00000070: abed be3c 9515 1e3d 4a4b 83bc f619 833d
00000080: ab3b 013d 694d 013d a50a d53c 1e79 16bd
00000090: 0926 7dbd 3789 0e3c d05d fc3c dded fbbc
000000a0: 0ed2 643d 74f0 3dbc 03f1 393d 5d96 533c
000000b0: 9371 1dbc 247e 67bd 9bd9 aaba daec 24bc
000000c0: 231a 47bd a0b5 003d c44b 41bd a4a8 acbc
000000d0: 1cc3 13bd 9270 323d 9229 b63c a6fc 4f3d
000000e0: 3892 42bd 7af0 a2bd 302b bcbc b407 263d
000000f0: 12b7 23bc c609 65bd b84f 0c3d bce8 de3c
00000100: 5c93 cb39 ef6a bfbc 854d 06bd 2132 adbb
00000110: b3a8 e4bb 4571 c9bb 6da9 f8ba c4d6 66bd
00000120: 00a8 3839 8bc1 0abd 8e1f e63a 9f36 a53c
00000130: 4afa 2dbd 8b8e 04bd 0e1c 6bbd 4282 5a3c
00000140: d39d 46bd c3a2 a3bc 88ea 4bbc f796 133d
00000150: ac4e 2b3d b31c 4b3c 88ad 0c3d 4909 a73b
00000160: 633d 3bbd 9988 043d 9463 443d 2125 9bbd
00000170: 2038 aa3c 7b5f 95bd 8f20 973c 18b5 86bc
00000180: 51d2 69bd 7f6d 283d 82df 1ebc 50c5 73bc
00000190: 2a08 36bc 32b6 8dbc b563 07bd 31b3 043d
000001a0: ac7c 063d d781 05bd ee71 8c3d d4c4 73bd
000001b0: 6691 babc 0fe7 babb 8582 abba 0727 db3b
000001c0: bc81 333d 174d 053d 0b52 53bd d5dd e8bc
000001d0: 9c58 183c 4ba0 203d c7ee adbd 008c 953c
000001e0: bc8d 4c3b 5675 1f3d 49e6 cabc d12b 07bc
000001f0: a67d 8ebd 379e 54bc 5526 34bd 8029 86bd
00000200: 188f eebc 0875 89bc d090 ec3c 109e a5bc
00000210: 52b8 d73c 3e69 e3bb 2211 78ba f041 003d
00000220: 6633 73bd d6e1 2f3c c12c 67bd 1a25 8bbd
00000230: 4ea9 c4bc 547b 273d 4e86 7d3d f903 c7bc
00000240: 37d3 2fbd 9449 04bd b662 15bc 2bdc 20bd
00000250: c2af 2ebc 98e9 d0bb 8417 d43c eb32 6cbd
00000260: 9beb 6bbd 6a11 313d d35c 0dbd 567d 203d
00000270: d30d 853d 23e9 c13c c234 9a3d 3b56 30bd
00000280: 6ef6 96bd 0a22 bdbc b573 93bd ac17 05bd
00000290: a041 2e3b 986f a0bc 6712 013d 4451 42bd
000002a0: aebc e2bb f47a 1cbd 1f8f 063d 25ae 63bc
000002b0: f19e 553d b838 9abd 5c89 dc3c 345b 3e3c
000002c0: c23c b1bc 2ed2 ce3c 5959 6dbd a67b d6bc
000002d0: 8f3a 0f3d 16f8 5f3d 850b 69bd ca8f a2bc
000002e0: 5c60 9ebd b736 61bd 5b1c 8dbd 433f 773d
000002f0: 7c8e c03c 7142 263d 6af6 373d 963e a9ba
00000300: 010a 19bd 473b ff3c 7729 80bd c2d2 11bd
00000310: 58eb 603c 91e3 0c3d 2a5f 8dbd d0b2 22bd
00000320: 0506 8bbd cbc8 e8bb 37db 90bd 725e 873b
00000330: 4241 06bd cdec 903b c22c 6b3b 1ff5 043d
00000340: 281b d6bc ae79 263d 1f72 6d3b 64f1 56bd
00000350: 41de da3c 1901 68bd 9e1c 2fbd dde6 89bd
00000360: 43cd cdbc 067f 29bd 6cf3 0dba 6258 913c
00000370: d97f b6bc 33dd 4abd c5ad e5bb 2b9a 01bd
00000380: 1744 cfbc f5f2 8dbd 90ba cb3c 50fa 0f3d
00000390: c855 dabb 5076 3dbd 9dd0 75bd cfe7 ff3c
000003a0: 3f3f 64bd 9152 6ebd 13b4 f4ba f507 a73c
000003b0: 7d7c 84bd 9665 9bbd 4893 18bd a3b8 5ebb
000003c0: e84c 90bd 8ba0 44bd b5c4 cf3c 3e2e 543d
000003d0: 90d7 3a3a f58a d8bb a4e6 8d3c 48de 833c
000003e0: bec0 143d 61b5 813d ea22 b2bc b72d 64bd
000003f0: 7288 d4bc b628 37bd d999 163c 08a6 45bd

bns.0.weight f4 [256]
0.9930658 0.99158126 0.9924378 0.9882967 0.9836863 0.9930319 0.9924581 0.99734396
1.0013837 0.98959476 0.99936604 0.996755 0.9953594 0.9906894 0.9905934 0.9906588
0.9889806 0.9946907 0.9958332 0.9915598 0.9902917 1.0080988 0.9920308 0.9950285
0.9942188 0.9905617 1.0008426 0.9863215 0.99653894 0.9938779 0.9950556 0.98797524
0.99167985 0.99297005 0.9878893 0.99148816 0.9926412 0.98974645 0.99554694 1.0087223
0.9895442 0.9923603 0.98990136 0.9977746 0.993651 0.9984735 0.9934345 0.98693556
0.9918624 0.996594 0.9939213 1.0033523 1.0055296 0.98977715 0.99526817 0.99328053
0.9890001 1.0008451 0.9891761 0.9853503 0.99426144 0.99128914 0.9917783 0.9915204
0.99184394 0.99481404 0.99206233 0.99648356 0.984327 0.9934886 0.98850435 0.9936701
0.99496156 0.99846655 0.99107647 0.9910489 0.99968857 1.0014704 0.99358255 0.99270386
0.9892229 0.9927081 0.98886317 0.99112725 0.9883098 0.9881363 0.9945417 1.0016575
0.984324 1.0032111 0.99153894 0.9912979 0.9980354 0.9882985 0.9941534 0.9941903
0.99760413 0.99538285 0.99041843 0.9926169 0.984711 0.9916257 0.99462867 0.9953503
0.99472135 0.9975866 0.9979418 0.9925245 0.9958346 0.99202394 0.99310917 0.9942936
0.99312294 0.9967114 0.98908234 1.0028226 0.9941404 0.98792666 0.9991094 0.9883336
0.99227774 0.99108166 1.0075961 0.9901267 0.99472964 1.0030061 0.9929971 0.9982643
0.9931051 0.99445397 0.99851733 0.9968745 0.9909383 1.0005152 0.9924889 0.98885274
0.98851085 0.9953777 0.9850425 0.9949337 0.9867937 0.9900582 0.9983019 0.9989019
0.99236923 0.9933111 0.99398416 0.9926969 0.9888481 0.9964453 0.9871142 0.9892408
0.992255 0.9964723 0.9905116 0.9918641 0.99683833 0.99186116 1.0017344 0.98956865
1.0003185 0.9908831 0.996724 0.9922257 0.9908078 0.9902275 1.0046786 0.99425894
0.9947042 0.9969142 0.98898935 0.9903117 0.9912904 1.0053294 0.99591947 0.99889034
0.9913618 0.9922439 0.9929837 1.0002416 0.9976912 0.99306333 1.0052706 0.9884126
0.9960626 0.99454737 1.0018954 0.99355143 0.9933276 0.9897246 0.99617225 0.9898971
0.9912335 0.9972002 0.9940037 0.98863566 0.9936713 0.9895142 1.0019588 0.9992934
0.9940881 0.99798924 0.99360377 0.9964665 0.997893 0.9937663 0.98958975 1.0008099
0.9920089 1.0013186 0.9977497 0.99800783 0.98764175 0.9948043 0.9936713 0.99463964
0.9943481 0.99122155 0.989413 0.99300385 1.0037975 0.99725723 0.9886082 0.99358624
0.99579686 1.0040962 0.9937922 1.0005398 0.9925311 0.9962011 0.99018747 0.99187905
0.99456096 1.003275 0.99586177 1.0023702 0.9948375 0.99556214 0.99660516 0.9960443
0.9961063 0.9921678 0.9853946 0.9955351 0.9915569 0.9941563 0.98757434 0.99181813
0.9944893 0.98442566 0.98938227 0.99315995 0.9923733 0.991389 0.99141943 0.9991587
00000000: 8f39 7e3f 45d8 7d3f 6710 7e3f 0301 7d3f
00000010: ded2 7b3f 5737 7e3f bc11 7e3f ef51 7f3f
00000020: 572d 803f 1556 7d3f 74d6 7f3f 562b 7f3f
00000030: e0cf 7e3f d29d 7d3f 8797 7d3f d19b 7d3f
00000040: d52d 7d3f 0da4 7e3f edee 7e3f ddd6 7d3f
00000050: c283 7d3f 6209 813f bbf5 7d3f 30ba 7e3f
00000060: 2085 7e3f 7495 7d3f 9c1b 803f 917f 7c3f
00000070: 2d1d 7f3f c86e 7e3f f7bb 7e3f f2eb 7c3f
00000080: bbde 7d3f 4933 7e3f 50e6 7c3f 2bd2 7d3f
00000090: bc1d 7e3f 0660 7d3f 2adc 7e3f d01d 813f
000000a0: c552 7d3f 530b 7e3f 2d6a 7d3f 286e 7f3f
000000b0: e95f 7e3f f69b 7f3f b951 7e3f cfa7 7c3f
000000c0: b2ea 7d3f c920 7f3f a071 7e3f d96d 803f
000000d0: 32b5 803f 0962 7d3f e5c9 7e3f a247 7e3f
000000e0: 1c2f 7d3f b11b 803f a53a 7d3f eb3f 7c3f
000000f0: eb87 7e3f 20c5 7d3f 2fe5 7d3f 48d4 7d3f
00000100: 7ce9 7d3f 22ac 7e3f ccf7 7d3f 8c19 7f3f
00000110: dbfc 7b3f 4555 7e3f 9f0e 7d3f 2a61 7e3f
00000120: cdb5 7e3f 819b 7f3f 30b7 7d3f 61b5 7d3f
00000130: 97eb 7f3f 2f30 803f 6d5b 7e3f d721 7e3f
00000140: b63d 7d3f 1e22 7e3f 2326 7d3f 84ba 7d3f
00000150: df01 7d3f 80f6 7c3f 499a 7e3f 5036 803f
00000160: a8fc 7b3f 3969 803f 7fd5 7d3f b3c5 7d3f
00000170: 3f7f 7f3f 2101 7d3f d680 7e3f 4183 7e3f
00000180: fc62 7f3f 69d1 7e3f 108c 7d3f 241c 7e3f
00000190: 0516 7c3f 2fdb 7d3f fc9f 7e3f 47cf 7e3f
000001a0: 0fa6 7e3f d661 7f3f 1d79 7f3f 1616 7e3f
000001b0: 04ef 7e3f 48f5 7d3f 673c 7e3f 068a 7e3f
000001c0: 4e3d 7e3f 7a28 7f3f 8034 7d3f 7e5c 803f
000001d0: fc7f 7e3f c3e8 7c3f a2c5 7f3f 6e03 7d3f
000001e0: ea05 7e3f 87b7 7d3f e9f8 803f f278 7d3f
000001f0: 9aa6 7e3f 8162 803f 0f35 7e3f 408e 7f3f
00000200: 233c 7e3f 8994 7e3f d59e 7f3f 2b33 7f3f
00000210: 22ae 7d3f e210 803f c113 7e3f 7425 7d3f
00000220: 0c0f 7d3f 13d1 7e3f bf2b 7c3f fab3 7e3f
00000230: 839e 7c3f 7474 7d3f b790 7f3f 09b8 7f3f
00000240: e90b 7e3f a349 7e3f bf75 7e3f 6221 7e3f
00000250: 2625 7d3f 0a17 7f3f 84b3 7c3f e33e 7d3f
00000260: 6c04 7e3f cf18 7f3f 2b92 7d3f ceea 7d3f
00000270: cc30 7f3f 9dea 7d3f d538 803f 5f54 7d3f
00000280: 700a 803f 84aa 7d3f 4e29 7f3f 8102 7e3f
00000290: 94a5 7d3f 8d7f 7d3f 4f99 803f c187 7e3f
000002a0: efa4 7e3f c535 7f3f 682e 7d3f 1185 7d3f
000002b0: 35c5 7d3f a2ae 803f 94f4 7e3f 47b7 7f3f
000002c0: e3c9 7d3f b203 7e3f 2e34 7e3f eb07 803f
000002d0: b168 7f3f 6639 7e3f b5ac 803f 9c08 7d3f
000002e0: f5fd 7e3f a89a 7e3f 1c3e 803f 6359 7e3f
000002f0: b84a 7e3f 975e 7d3f 2505 7f3f e569 7d3f
00000300: 7bc1 7d3f 8348 7f3f 0777 7e3f 3a17 7d3f
00000310: 3e61 7e3f cd50 7d3f 3040 803f b1d1 7f3f
00000320: 8f7c 7e3f 397c 7f3f d15c 7e3f 6e18 7f3f
00000330: ea75 7f3f 7867 7e3f c155 7d3f 8a1a 803f
00000340: 4cf4 7d3f 352b 803f 866c 7f3f 717d 7f3f
00000350: 17d6 7c3f 7fab 7e3f 3e61 7e3f b4a0 7e3f
00000360: 998d 7e3f b2c0 7d3f 2c4a 7d3f 8035 7e3f
00000370: 707c 803f 404c 7f3f 6d15 7d3f ab5b 7e3f
00000380: 8bec 7e3f 3986 803f 2a69 7e3f b011 803f
00000390: 8516 7e3f 0907 7f3f ed7c 7d3f c9eb 7d3f
000003a0: 8c9b 7e3f 516b 803f ccf0 7e3f ab4d 803f
000003b0: acad 7e3f 29dd 7e3f 8421 7f3f c2fc 7e3f
000003c0: d300 7f3f b5fe 7d3f d242 7c3f 63db 7e3f
000003d0: acd6 7d3f 0781 7e3f acd1 7c3f cbe7 7d3f
000003e0: da96 7e3f 5203 7c3f 2848 7d3f bb3f 7e3f
000003f0: 2d0c 7e3f abcb 7d3f aacd 7d3f ddc8 7f3f

bns.0.bias f4 [256]
-0.0034406679 0.0009223813 -0.0025663073 -0.0068894504 -0.011092047 0.0008435054 -0.003433567 0.0030116832
0.007663889 -0.002409632 0.0048145913 0.0036413658 0.00030240856 0.0003718665 -0.0016655916 -0.0013059862
-0.0014296613 0.0017749227 -0.00021023833 -0.0014690807 -0.0006564042 0.018088318 -0.0016891899 0.0042866375
0.0003235382 0.00045297664 0.008648765 -0.0072365776 0.0025382491 0.00045609736 -0.0012809483 -0.0028643885
0.00027569933 0.0021182592 -0.0042206845 0.00022407732 -0.0018826026 -0.0019358393 0.0022381234 0.013557162
-0.0041291486 0.0050337766 -0.004469851 0.006018343 -0.0013547825 0.006327153 -0.0004791801 -0.0066966484
0.0012890073 0.00026750079 -0.00030016433 0.009621042 0.0128792925 -0.0022015325 0.004556558 0.0017912029
-0.0046236305 0.0077569266 -0.002573249 -0.008857669 0.0011191178 -0.0022948675 -0.0049166963 -0.0054999785
0.0041408106 -0.0014674988 -0.0052175736 0.0049484866 0.0032226634 -0.00092315796 -0.002030366 0.0028156736
-0.00075100904 0.002639106 0.0006329623 -0.0075884853 0.0036760303 0.0036562912 0.0015945609 0.000835352
-0.007340024 -0.0009298675 -0.003083949 0.0010808473 -0.005781488 -0.006661435 0.0022068298 0.008379162
-0.010133316 0.009206216 -0.0005646367 -0.000305464 0.005130497 -0.007003485 -0.0006800942 0.000429694
0.0014136672 0.0018523987 -0.000540953 -0.001284833 -0.008896403 0.0008696076 -0.00051247043 0.0010064542
0.00012134914 0.004739034 0.002071354 -0.00073978095 -0.0008259543 -0.00071109494 -0.0008286791 0.00061117037
-0.0005541185 0.0024159541 -0.0037699174 0.011467585 0.0018853011 -0.007654039 0.0056259143 -0.0030184179
-0.0028434203 -0.0016758589 0.010661175 -0.0045929044 0.0019767156 0.0090553155 -0.00078507507 0.005168216
0.00056786864 0.0010397136 0.008916365 0.003965384 -0.0017425535 0.00597945 -0.0024957089 -0.005121971
-0.0011508442 0.0012503567 -0.0038575612 -0.0045879567 -0.0005080633 -0.0071165683 6.10218e-06 0.0063978694
-0.0012497873 -0.0019574407 0.0010869466 0.0018671278 -0.0065740873 0.0065177027 -0.005051528 5.4323067e-05
-0.0014449718 0.0021324228 -0.0031294764 -0.00082588836 -0.0008471581 -0.0039650453 0.0045837015 -0.0044815675
0.0071882447 -0.0019396668 0.004087727 0.0017706039 -0.005926876 -0.0065556774 0.010273439 0.004611289
0.0012900797 0.0061174366 -0.006745478 0.0031882022 -0.00046675844 0.009695406 0.0027020818 0.0072479607
-0.0033753926 -3.4898017e-05 -0.0010807995 0.0070408215 0.008053708 0.00081008684 0.012419179 -0.0027101184
0.0036685804 -0.00059874204 0.0073795635 0.00028961623 -0.0005464309 -0.0055609 0.0008650715 -0.0033375623
0.0007450317 0.0064628073 -0.004239236 -0.00377332 0.0044075227 -0.0070644612 0.009284329 0.008131893
0.0023187737 -0.0036806716 0.0021291696 -0.0015287055 0.004052946 0.00033353895 -0.00205099 0.007980754
-0.00254191 0.006636189 0.005761579 0.004547695 -0.00701883 0.0014244299 0.0024479541 0.0039643794
-0.0021798345 0.0027780558 -0.0025758145 -0.00044783024 0.011185358 -0.00020662762 -0.005339929 0.00019533567
0.0034522607 0.009741337 4.020353e-05 0.009862092 -0.0029578106 0.0036390407 -0.0038168845 -0.0031665112
-0.0007954698 0.008454412 -0.0006511094 0.009029551 0.0031863567 0.004225593 0.0038502126 -0.0005041774
0.0014529994 -0.0018869945 -0.008371678 -0.0012660952 0.00154331 -0.0009702986 -0.006713703 0.00069103786
0.0026689088 -0.010419968 -0.0016288813 -0.0022521338 -0.0006025641 -0.0047952607 -9.547008e-05 0.008177181
00000000: d47c 61bb f6cb 713a 7e2f 28bb e6c0 e1bb
00000010: 6bbb 35bc b01e 5d3a b205 61bb a95f 453b
00000020: 5c21 fb3b ebea 1dbb b8c3 9d3b fba3 6e3b
00000030: 978c 9e39 14f7 c239 fb4f daba a02d abba
00000040: 7963 bbba 86a4 e83a 6c73 5cb9 2b8e c0ba
00000050: 8a12 2cba f42d 943c cf67 ddba ec76 8c3b
00000060: 90a0 a939 7f7d ed39 8db3 0d3c d020 edbb
00000070: c158 263b 5a20 ef39 7ee5 a7ba 77b8 3bbb
00000080: bd8b 9039 7ed2 0a3b ab4d 8abb 4cf6 6a39
00000090: a9c1 f6ba fdbb fdba 7bad 123b dc1e 5e3c
000000a0: cf4d 87bb 61f2 a43b d477 92bb 8535 c53b
000000b0: f592 b1ba 0254 cf3b 773a fbb9 8f6f dbbb
000000c0: e8f3 a83a 593f 8c39 605f 9db9 93a1 1d3c
000000d0: ab03 533c 9647 10bb 2e4f 953b ccc6 ea3a
000000e0: d381 97bb d12d fe3b f4a3 28bb c21f 11bc
000000f0: 5daf 923a 7d65 16bb 3d1c a1bb 2a39 b4bb
00000100: a3af 873b 1759 c0ba 2ef8 aabb ea26 a23b
00000110: 5233 533b 1500 72ba e40f 05bb 2a87 383b
00000120: 5ddf 44ba daf4 2c3b 62ed 253a d4a8 f8bb
00000130: 8ee9 703b 639e 6f3b 9600 d13a 86fb 5a3a
00000140: 9684 f0bb 5ac2 73ba 141c 4abb 38ab 8d3a
00000150: a372 bdbb 2b48 dabb 76a0 103b c148 093c
00000160: 3506 26bc abd5 163c 2104 14ba af26 a0b9
00000170: ba1d a83b 7e7d e5bb 5948 32ba 8d48 e139
00000180: cd4a b93a 30cc f23a bece 0dba d767 a8ba
00000190: 38c2 11bc 61f6 633a 4f57 06ba 00eb 833a
000001a0: d37c fe38 e649 9b3b 8ebf 073b dced 41ba
000001b0: db84 58ba c668 3aba b73b 59ba f336 203a
000001c0: 4342 11ba fc54 1e3b b810 77bb 8ae2 3b3c
000001d0: 351c f73a bcce fabb 9759 b83b a6d0 45bb
000001e0: ad58 3abb 7ea8 dbba 35ac 2e3c 1380 96bb
000001f0: c98b 013b bf5c 143c 7fcd 4dba 235a a93b
00000200: 05dd 143a 0047 883a f215 123c 0df0 813b
00000210: 6566 e4ba 43ef c33b 0c8f 23bb 35d6 a7bb
00000220: ecd7 96ba 02e3 a33a 23cf 7cbb 9256 96bb
00000230: 8d2f 05ba 1a32 e9bb 54c1 cc36 38a5 d13b
00000240: e7cf a3ba 6848 00bb e077 8e3a 6aba f43a
00000250: 716b d7bb 7492 d53b 4a87 a5bb f3d8 6338
00000260: 3565 bdba 1ec0 0b3b e717 4dbb 6e80 58ba
00000270: d113 5eba 36ed 81bb e032 963b 1dda 92bb
00000280: 5e8b eb3b 6b3c feba 57f2 853b 9c13 e83a
00000290: 3d36 c2bb 02d1 d6bb ed51 283c 4c1a 973b
000002a0: e417 a93a c774 c83b 2c09 ddbb 28f1 503b
000002b0: 42b7 f4b9 7bd9 1e3c 6915 313b 4d80 ed3b
000002c0: b135 5dbb 765f 12b8 9da9 8dba b1b6 e63b
000002d0: b3f3 033c 025c 543a d079 4b3c 3e9c 31bb
000002e0: 916c 703b e6f4 1cba 44d0 f13b a2d7 9739
000002f0: 5b3e 0fba 3638 b6bb f7c5 623a 01bb 5abb
00000300: 3b4e 433a f5c5 d33b 4ae9 8abb ce49 77bb
00000310: fb6c 903b ff7c e7bb 4c1d 183c a23b 053c
00000320: 91f6 173b 6c37 71bb 8a89 0b3b d85e c8ba
00000330: 93ce 843b d7de ae39 e769 06bb b5c1 023c
00000340: 2c96 26bb 6374 d93b a1cb bc3b d504 953b
00000350: 37fe e5bb f0b3 ba3a db6d 203b a0e7 813b
00000360: 8edb 0ebb 0b10 363b ffce 28bb c2ca eab9
00000370: cb42 373c 2eaa 58b9 92fa aebb 05d3 4c39
00000380: 533f 623b 219a 1f3c 36a0 2838 9d94 213c
00000390: d4d7 41bb f97c 6e3b b224 7abb 3e85 4fbb
000003a0: 1387 50ba 6084 0a3c 36af 2aba aff0 133c
000003b0: 32d2 503b d876 8a3b d953 7c3b c62a 04ba
000003c0: 9272 be3a 0755 f7ba 5d29 09bc 1bf3 a5ba
000003d0: e448 ca3a a35b 7eba 9ffe dbbb c426 353a
000003e0: dce8 2e3b 83b8 2abc 3080 d5ba 8998 13bb
000003f0: 64f5 1dba 9021 9dbb 1c37 c8b8 95f9 053c
