output/dmd/restr_e2v/run_007/restr_dmd_best_model_e2v.pth (torch, 273077 bytes, 14 tensors)

convs.0.lin_l.weight f4 [256, 64]
000000 c3 30 df bd 2d 6d 4e bd b2 d9 ec bd 7e 4d ca bd
       -0.108979724 -0.050397087 -0.115649596 -0.09878062
000010 73 64 a8 3d 00 06 c1 bd fd 10 e5 bd 6b b1 b0 bd
       0.08222284 -0.094249725 -0.11184881 -0.0862759
000020 84 4e e0 bd 9d 6f 6b bd 10 b1 0f 3c 07 0f da 3d
       -0.10952476 -0.05747949 0.008770242 0.106473975
000030 de 90 78 bd e9 aa 80 3d f4 90 dd 3d 1b 45 9b 3d
       -0.06068503 0.062825985 0.10818663 0.0758154
000040 b0 7d 6c bc 5d 7d 00 be af 46 56 bd bf 4a a1 3d
       -0.014434263 -0.12547822 -0.052313503 0.07875585
000050 9b 20 c8 3d 12 dd db bd d8 ce e3 bd 94 99 3d bd
       0.09771844 -0.10735525 -0.11123437 -0.04628904
000060 21 d3 f8 3d 2f 71 94 3d c7 c0 d9 3d 38 ca c8 3d
       0.12149645 0.072481506 0.106324725 0.09804195
000070 4a c9 27 3c 45 36 69 bd de 9b e7 bd 8f 52 af 3d
       0.010240862 -0.05693652 -0.11309026 0.08560669
000080 f3 ec 45 3d 26 e3 63 bc 57 b0 f1 bd 21 dd 2f bd
       0.048321676 -0.013909137 -0.11801212 -0.042935494
000090 f3 86 bf bd 82 71 90 3d 5b 95 9c bd 59 07 3c bd
       -0.093519114 0.070529 -0.07645675 -0.045905445
0000a0 f1 2e 2c bc 7c 50 bb bd 2c 5e c1 3d 6c 6b 14 3d
       -0.010509239 -0.091462106 0.0944179 0.036235258
0000b0 5f a3 f4 bd c9 63 71 3d bf 38 8e bd 6e 4d d3 bc
       -0.11945223 0.058933053 -0.06944417 -0.025793757
0000c0 08 c0 f8 3d 85 9a 41 3c d4 63 8c bd 41 7c d5 bd
       0.12146002 0.0118166255 -0.06854978 -0.1042409
0000d0 6b 1c a4 3d 11 a9 bd 3d d4 fa cc bd 42 09 25 bc
       0.08013233 0.092607625 -0.10008779 -0.010073008
0000e0 38 5c 1a bc 05 e3 ec bd 78 db 69 3d 43 b8 94 3d
       -0.009421401 -0.11566738 0.057094067 0.07261708
0000f0 0b 40 cc 3d 3e b1 fb 3c 25 80 f2 3d d1 7a 99 3d
       0.09973153 0.030724164 0.11840848 0.074941285
000100 65 1f f7 bd cd 53 d6 3c bc 81 bc bb 68 78 0c bd
       -0.12066535 0.026163006 -0.00575277 -0.034294516
000110 bf f6 2c 3d 64 3e 59 bd 1d 96 22 3d 8c 66 12 3d
       0.042227503 -0.053038016 0.03969394 0.035742328
000120 74 ad 62 bb d6 4b ac bd dd 31 a8 bc a9 4c d7 bd
       -0.003458825 -0.08412902 -0.02053159 -0.10512669
000130 20 ac e3 3c 46 3f f6 bc 23 af bc 3c 5e 85 46 3d
       0.027792037 -0.030059468 0.02303273 0.048467033
000140 77 cf 35 bd 5a 5c 8a bd c4 8e b2 bd 77 59 85 bd
       -0.044387307 -0.06755896 -0.08718637 -0.06511205
000150 79 f4 24 bc 36 1f f9 bc 0f e2 8c bd 52 b9 1c bc
       -0.010068052 -0.03041039 -0.06879055 -0.009565668
000160 3f 71 cb 3c b6 89 2c 3d 25 96 19 bd ec 2b e2 3d
       0.024834273 0.04212352 -0.037496705 0.11043534
000170 38 8c 8f 3c e5 7c de bc 05 74 1e bd 8c 03 9d bc
       0.017522916 -0.027159164 -0.038684864 -0.01916673
000180 15 46 de 3d 52 67 07 3d c7 fc 64 bc e1 bf 95 3a
       0.10853211 0.03305752 -0.013976282 0.0011424982
000190 a7 f1 5d bd ce 74 88 3d 24 da 94 bc e3 0a 22 3d
       -0.054185536 0.06662904 -0.018170424 0.039561164
0001a0 65 04 36 3d 8f 88 8d bc 81 17 35 bd c7 f2 80 bd
       0.044437785 -0.01727703 -0.04421187 -0.06296306
0001b0 20 ce 61 3d ab 48 00 3d 7d 8f b1 3b 41 d2 e0 bc
       0.055128217 0.0313193 0.0054187165 -0.027444007
0001c0 f8 2a 3b 3c 49 81 d1 3d ec 29 ca 3d 58 26 d6 3d
       0.011423819 0.10229737 0.09871277 0.10456532
0001d0 45 01 0f bc 9d 57 7a bd aa ea 89 bd 71 94 be 3d
       -0.00872833 -0.06111871 -0.06734212 0.09305657
0001e0 c0 e6 6a ba 16 fa e9 3d 4a 52 66 bd e0 48 ba bd
       -0.0008960776 0.11424653 -0.05623082 -0.09095931
0001f0 fa b0 90 bd 1c ae b5 3b d3 7f c3 3d 45 ef e1 3d
       -0.070650056 0.005544437 0.09545865 0.11031965
000200 55 d9 7c 3c 15 f4 87 bd ca 95 11 bd 2e a0 48 bd
       0.015432675 -0.06638352 -0.03554324 -0.048980884
000210 81 c2 14 3c 3e e0 79 bb 09 92 26 bd df c6 80 bd
       0.0090795765 -0.0038128044 -0.040666614 -0.06287932
000220 6a b0 dc 3d 27 c4 5a bd 8b f3 61 3a b0 6d 69 3c
       0.10775836 -0.05340972 0.00086193596 0.014247343
000230 45 0d 6e bc 2f 5c 90 3d 4f f9 24 bd fb e1 cd 3d
       -0.014529531 0.070488326 -0.04027682 0.10052868
000240 d2 06 52 bd 6e 32 51 bd 3f 25 bc bd e3 fb 87 3c
       -0.051276036 -0.051073484 -0.09186792 0.016599601
000250 25 82 db bd 4c 30 e9 3d 33 3b 7d bc ff 8c fd bb
       -0.107181825 0.11386165 -0.015456009 -0.0077377553
000260 37 05 b9 3d 8a 84 b6 3d 5e 1a a4 3d e8 db ec bd
       0.09034198 0.089119986 0.08012842 -0.11565381
000270 db 04 3e 39 51 97 2b 3d 21 f0 f4 3d b0 65 17 3c
       0.00018121621 0.041892353 0.119598635 0.009240553
000280 03 e4 fd 3d 5c 66 b0 bd e4 d0 25 3c 68 2e cb 3d
       0.123970054 -0.086132735 0.010120604 0.09920961
000290 c4 77 cc bd b2 7d eb 3d 2e b3 ff 3c 3b c9 ad bd
       -0.09983781 0.11498584 0.03121337 -0.08485647
0002a0 2d ff 9d 3d 55 40 80 bd 66 43 ec 3d 21 5a b7 bd
       0.077146865 -0.0626227 0.11536293 -0.089527376
0002b0 7f 9b 35 3d 44 8c 88 3c 29 2c de 3d 83 85 4a bd
       0.044337746 0.016668446 0.10848267 -0.049443733
0002c0 68 83 67 3d 02 9f 9d bd 59 0e a6 bc c1 9e 0e 3c
       0.056521803 -0.07696344 -0.020270513 0.008704842
0002d0 21 53 a0 bb da 35 0b bd 95 00 7f 3d 4b 85 e1 3d
       -0.0048927222 -0.033986904 0.062256414 0.11011752
0002e0 14 2c fd bd 8d 42 59 3d 8e 63 97 3c 3a d5 89 3d
       -0.12361923 0.053041983 0.018480089 0.06730123
0002f0 15 28 f3 bd 21 2d 76 3d 54 ed 6d bd ff 52 46 3a
       -0.118728794 0.060101632 -0.05808766 0.0007565468
000300 50 f5 66 bd 81 5d e5 3d 87 9e 0f bd 49 13 c1 3c
       -0.056386292 0.11199475 -0.035063293 0.023568766
000310 e2 eb d9 bd 02 9d 3d bd 7f 14 e8 3d 9f 80 97 bd
       -0.10640694 -0.046292312 0.11332034 -0.073975794
000320 fc 60 8b 3d 69 d4 a7 3d 40 cd da 3c 79 a6 89 bd
       0.06805608 0.08194811 0.026709199 -0.06721205
000330 6f 9c 8a bc 7b 3e 95 bd 01 87 cd bd 17 19 9b 3d
       -0.016920296 -0.07287308 -0.100355156 0.07573145
000340 9d 52 83 3d 7c 53 cb bd 03 76 bc bd 1b 8b b3 bc
       0.064122416 -0.09928033 -0.092021964 -0.021916917
000350 2c c9 4e bc c1 3b ac 3d 96 8c a9 3d 74 2b c1 bd
       -0.012621205 0.08409835 0.08278768 -0.09432116
000360 f0 b4 8a 3c 55 52 81 3d 12 d0 b6 3d de af 3d 3d
       0.01693198 0.06314532 0.08926405 0.0463103
000370 0c d6 52 bc 9f 09 78 bd e4 20 8f bd 45 b9 fd bc
       -0.012868416 -0.06055605 -0.06988695 -0.030972132
000380 40 d2 63 3d c6 9a 94 3d ea 02 cd 3d 25 9a 55 bc
       0.055620432 0.07256083 0.100103214 -0.013037239
000390 92 a7 dc bb ad c8 c3 bc 26 b6 a8 bd 50 24 98 3c
       -0.006733843 -0.0238994 -0.08237867 0.018572003
0003a0 68 76 50 3d 25 87 28 3d d2 aa b6 bc e4 be b2 bc
       0.05089417 0.04114451 -0.02229825 -0.02181954
0003b0 e0 17 80 3c 41 47 88 bd e3 27 15 3d 01 66 bc bd
       0.015636384 -0.066542156 0.036414992 -0.09199143
0003c0 ea 48 ac 3d 66 b3 b2 bd 63 43 1d 3d 3b 2b 3b 3d
       0.08412345 -0.08725624 0.038394343 0.045695525
0003d0 a0 11 99 3b 37 eb b5 bd 0e b5 5b 3d 52 39 ca bd
       0.0046712905 -0.08882754 0.053639464 -0.09874214
0003e0 34 0f 85 3d ea 6a 73 b9 50 2a fe 3b da 6e e1 bd
       0.064970404 -0.00023214114 0.007756509 -0.110074714
0003f0 0f e0 9b 3d 6e f0 06 3d 2e 1e 26 bd f1 04 93 3d
       0.07611095 0.032944135 -0.040556125 0.07178677

convs.0.lin_l.bias f4 [256]
000000 e5 9a 6a bc df a3 ba bd 96 be d7 3b 65 ca a7 bd
       -0.014319156 -0.09113287 0.006583999 -0.081929006
000010 54 79 de bd 79 41 f1 bd 0a cf d7 bd 51 4d 7d bd
       -0.10862985 -0.11780066 -0.105375364 -0.061841313
000020 5c 04 ad 3b 76 3d 51 bd e4 6d da 3b a9 50 0b 3e
       0.0052800607 -0.051084004 0.006665932 0.13604988
000030 89 37 07 3d a9 62 6d 3c 69 d8 b7 bd 7e 85 f8 bc
       0.033011947 0.014488854 -0.08976824 -0.030337092
000040 b5 f9 53 3d f3 ca ce bd c8 97 a3 3c c2 c1 a6 bd
       0.05175181 -0.10097303 0.019969836 -0.08142425
000050 5b ba a1 bb e3 9b c4 bb 94 ba 0d be cb cd 5c 3c
       -0.0049355454 -0.0060000285 -0.13840705 0.013476799
000060 71 ba 24 bd 29 e7 bc bd 57 bc fe 3d 36 2c 20 bc
       -0.040216867 -0.09223778 0.12438267 -0.009776166
000070 ad b3 59 3c 69 ed 1a 3c a7 9d b2 bd e9 65 46 3d
       0.013287467 0.009456017 -0.08721476 0.048437033
000080 8d 4c f2 3d 8c f4 77 3c 72 52 8a 3d 54 7a 14 3c
       0.11831007 0.015133988 0.067540064 0.009062368
000090 eb 6c b5 bc 04 e3 25 bd 07 00 be bd dc e4 c5 3c
       -0.022146663 -0.040499702 -0.09277349 0.02415698
0000a0 23 f3 2b bb de 01 01 be 42 73 62 bc 1c 18 1e 3d
       -0.002623745 -0.12598369 -0.013821425 0.03859721
0000b0 f9 e3 a5 3d 5f 86 ca bd bb 4f 3f bc c5 cb df 3d
       0.08100123 -0.098889105 -0.011676724 0.10927538
0000c0 2f fa ef 3d 88 6e 10 3b 2a 63 65 3d 22 00 c7 bd
       0.117176406 0.0022038538 0.056002773 -0.09716822
0000d0 49 db ad bd 68 0b 3e 3b 22 a9 d1 3d 5d 2a 8b 3d
       -0.08489091 0.0028998498 0.10237338 0.067951895
0000e0 88 96 89 3d 7a 33 e8 3c f4 b9 ea bd fb 31 81 3d
       0.06718165 0.028344858 -0.11461249 0.06308361
0000f0 f1 ec 8f 3d e0 7a a4 bd d5 5f d9 bd a2 b8 e0 3d
       0.07027615 -0.08031249 -0.10613982 0.10972716
000100 23 d0 da bd 3c 05 90 bd da 8a ee 3d c3 9c cf bc
       -0.1068423 -0.070322484 0.116475776 -0.025343304
000110 fd 5b 82 bb dc 0b d2 bd b3 80 b3 bc 61 8b 28 3d
       -0.003978251 -0.10256168 -0.021911955 0.041148547
000120 aa 20 c3 bd 92 d6 c7 bd a5 e4 91 bd 94 c7 a3 3d
       -0.095277146 -0.09757723 -0.071236886 0.07997051
000130 70 bb fc bc 19 87 f9 bd ba 4a 68 bd 15 76 d4 3c
       -0.030851096 -0.12183971 -0.05671189 0.025935212
000140 76 b7 19 3d c9 ff 7e 3d 19 e4 a8 3d a4 78 78 bd
       0.037528478 0.062255654 0.08246631 -0.060661927
000150 e3 44 39 bd cf 13 70 3c 83 03 fa b9 b2 b5 0a bd
       -0.04523171 0.01465316 -0.00047686332 -0.033864684
000160 cc 21 56 bd 5f 3b 2d 3d 95 16 e1 bd 1e fa 95 3d
       -0.052278325 0.04229295 -0.10990635 0.07323097
000170 08 2d 7f 3c 3f 27 f6 bd 49 eb 03 3e e1 6a b3 3d
       0.015574701 -0.12019204 0.12882723 0.0876062
000180 ea a2 9c 3d 89 b1 df bd 1a 19 bd bd d6 6a c5 bd
       0.07648261 -0.10922534 -0.09233303 -0.09639518
000190 9b 75 fa 3d 2c bc b0 bd 2f f6 b9 3d cb 37 08 3e
       0.12229463 -0.08629641 0.09080159 0.13302533
0001a0 2f 0e c0 3d 71 bd 98 bd 0c da 26 ba 2d af 17 3d
       0.09377705 -0.07458008 -0.0006364889 0.037032295
0001b0 c8 36 27 3d ee 19 75 bd 8d ac 9e 3c a4 f5 48 3d
       0.040823728 -0.05983918 0.019369388 0.049062386
0001c0 6a cb 64 bd 95 e5 9a bd a5 91 e7 bd 5e 39 a2 bc
       -0.055858053 -0.075633205 -0.11307076 -0.019802745
0001d0 fb b6 a9 bd 78 7c a6 bd 52 1d b3 bd 6d 0a 96 3d
       -0.08286854 -0.08129209 -0.08745827 0.07326207
0001e0 b0 3f 9f bd 61 02 22 bd 57 e6 cf 3d 49 b5 6c bc
       -0.07775819 -0.03955305 0.10151356 -0.014447519
0001f0 e3 9a 63 3d 6d 7e 8a bd ec 67 4a 3d 1f 20 91 bc
       0.055567633 -0.06762395 0.049415514 -0.017715512
000200 9e f5 9e 3d 96 fe b8 3d df ca d8 3d a0 ae a0 bd
       0.077616915 0.090329334 0.105855696 -0.07845807
000210 9f 22 90 bd bb b5 14 3d 51 f4 f4 3c 3a fb f6 bd
       -0.070378534 0.036306124 0.029901655 -0.120596364
000220 75 0b ee bd 14 94 d9 bb 36 e5 08 3d 5b 36 89 3d
       -0.11623279 -0.0066399667 0.033421718 0.066998206
000230 88 8b 07 be 66 1b 31 3d 14 8d 86 3d cb fe e8 bc
       -0.1323682 0.04323902 0.06569877 -0.028441807
000240 4d 0a 61 3d 7a a9 dc bd 27 9b 79 3d 78 16 bf bc
       0.054941464 -0.107745126 0.06093898 -0.023326144
000250 d9 4e ce 3c f1 e1 c5 3d 3b da da 3a 2e 2d ab bd
       0.025184082 0.096622355 0.0016697118 -0.08358227
000260 96 e9 31 bd 38 c2 d1 bd 37 49 e4 bc 21 1c ce 3c
       -0.043435656 -0.102421224 -0.027866943 0.025159897
000270 b4 74 d0 bd 03 d5 e6 bd b7 c6 b1 3c 4c 29 9d bd
       -0.10178509 -0.112710975 0.0217012 -0.076738924
000280 1b 60 89 39 73 4d 66 bc 22 64 4f 3c 4c 4b fa 3d
       0.0002620228 -0.014056551 0.012658151 0.12221393
000290 8a 66 e3 bb 90 4c b0 bc 66 e0 a7 bb ce 97 22 3d
       -0.006939714 -0.021520883 -0.005123186 0.039695553
0002a0 0e 71 3b bd 5c ea 02 3e 8a 60 2e 3d 99 d2 e5 bd
       -0.045762114 0.12784714 0.042572536 -0.11221809
0002b0 ad ef f3 3c 42 fc 00 bd 4d f3 86 3c 5d 3c d6 bc
       0.029777372 -0.03149057 0.016473437 -0.02615183
0002c0 46 c7 0e 3d a7 58 a8 3d 32 61 ac 3d 57 ff 82 bd
       0.03485801 0.08220034 0.08416976 -0.063963585
0002d0 67 f5 e3 bd 29 ef e3 bd a3 de 02 3e f5 e3 c2 bd
       -0.11130791 -0.111296006 0.12780242 -0.095161356
0002e0 c4 7f eb 3c 66 b4 51 3d b8 a1 bd 3a 08 72 c4 3c
       0.028747447 0.051197432 0.0014467752 0.023980156
0002f0 f9 be ab 3d 35 3e c5 3d fa 33 05 3c 16 62 8c bd
       0.083860345 0.09631006 0.008130068 -0.06854646
000300 90 89 20 bd fd b0 cd 3d 82 61 e8 bd 2a 85 b2 3d
       -0.03919369 0.100435235 -0.11346723 0.08716805
000310 9a 6d 3e bd 53 8d b6 3d 6a ff 68 bd 28 34 3a 3d
       -0.046491243 0.08913674 -0.056884207 0.045459896
000320 03 53 38 3d 3a 63 83 3d 88 01 0c bc 0c c6 a2 bc
       0.04500104 0.0641541 -0.008545287 -0.019869827
000330 00 07 da bd 9e c7 97 3c 64 e0 88 bd a5 33 c1 3c
       -0.106458664 0.018527802 -0.06683424 0.023584196
000340 b5 06 b1 3d 38 46 f2 3c eb 04 d8 bd f3 ef ce bd
       0.086438574 0.029574499 -0.10547813 -0.101043604
000350 08 a9 c0 bd 19 52 89 bd cc e2 c1 3d b3 05 bc bd
       -0.0940724 -0.06705112 0.09467086 -0.091807745
000360 3d c3 e3 bd 0d 15 9a bd d1 e4 a7 bd 93 08 45 3d
       -0.11121223 -0.07523546 -0.0819794 0.04810388
000370 63 12 e8 bd 89 00 04 3e f6 53 5c bd 7c 17 d4 bd
       -0.11331632 0.12890829 -0.05379101 -0.10356042
000380 27 58 a0 3d 8b f3 f4 bd e3 5e 55 bd 7f 3f 70 3a
       0.07829314 -0.11960515 -0.052092444 0.0009164735
000390 5e eb a3 3d d7 6d 35 3c ad 3e a3 bd 2d aa 64 3d
       0.08003877 0.011073551 -0.07970939 0.055826355
0003a0 13 b8 ba bd 53 02 00 bd 16 42 f6 bd 31 58 f8 3d
       -0.091171406 -0.031252217 -0.12024324 0.12126196
0003b0 1b 8e ca bd 84 bb 5c bd 8d 44 b7 bd 27 ed 90 bd
       -0.09890386 -0.053889766 -0.08948622 -0.07076483
0003c0 60 76 97 bd e3 b4 b0 3d 5c f5 f4 bd ec c7 b5 3c
       -0.07395625 0.086282514 -0.11960861 0.022190057
0003d0 8a 39 28 bd 3c 32 68 3c f9 a1 67 3d ce fe e5 3b
       -0.0410705 0.014172133 0.056550954 0.0070189005
0003e0 20 45 d6 bd ad a6 a3 3b 5e f6 6e bd 05 ff 53 bd
       -0.10462403 0.0049942345 -0.058340423 -0.051756877
0003f0 b8 73 39 3d 49 ab 39 3c b7 56 b2 3d 81 dd 25 3c
       0.045276374 0.0113323415 0.08707946 0.010123611

convs.0.lin_r.weight f4 [256, 64]
000000 d5 99 bf 3d 8f 7d b6 bd ad a1 76 3d f1 d6 ba bd
       0.09355513 -0.08910667 0.06021278 -0.09123028
000010 97 6b e2 3c f2 f6 4b bd 95 30 6e bd 46 19 da bd
       0.027639193 -0.049796052 -0.0581518 -0.10649352
000020 58 0c 25 3d 7d 96 7f 39 f9 3c 9c bb 99 e5 60 3c
       0.040294975 0.00024374756 -0.0047680107 0.013726615
000030 a9 ec a6 bc b1 fd a6 3d 01 65 9c 3d 43 4b 4f 3d
       -0.02037652 0.081538565 0.076364525 0.050608885
000040 61 19 17 3d a2 57 67 bd 1a 5f b7 3d d6 0f fc bd
       0.036889438 -0.056480058 0.08953686 -0.12307708
000050 cf 9b b8 bd a0 fb b9 bd 3e 36 e6 3d 1d fa 4e bd
       -0.09014093 -0.09081197 0.112408146 -0.050531495
000060 88 4e f1 bd c9 db 29 3d a6 05 eb bc 19 aa e3 3d
       -0.11782557 0.04146937 -0.028689217 0.11116428
000070 40 07 61 bd bc 95 ed bd 99 17 f5 3d 61 ad 8f 3d
       -0.054938555 -0.11600825 0.119673915 0.07015491
000080 29 7a f5 bc 0f ed de ba 05 7c 17 3c 07 9f ac bd
       -0.029965477 -0.0017007905 0.009245877 -0.084287696
000090 ba 15 19 bd 0d dc a9 3b 0a 18 db bd 7f bd cd bc
       -0.037374236 0.005183703 -0.106979445 -0.025114773
0000a0 97 6e 18 bc bf 9b 51 3d 7d d0 09 3c 9a 4b ca bd
       -0.00930371 0.05117392 0.008411524 -0.09877701
0000b0 c0 bd fa bd a4 78 f8 bd cb 69 c2 bc fe 3a d7 bc
       -0.12243223 -0.121323854 -0.023732087 -0.026273247
0000c0 34 44 3d bd 8f 8e cc 3d a5 83 f7 bd 95 61 be bd
       -0.04620762 0.099881284 -0.12085656 -0.09295956
0000d0 c8 1d 97 bd df 26 a0 bb f5 8e be bd 05 1d a9 bc
       -0.07378727 -0.0048874463 -0.09304611 -0.02064372
0000e0 10 b3 be bd ab 2b f8 3c 20 ed a7 3d 25 6a 69 bd
       -0.09311497 0.03029426 0.08199525 -0.056985993
0000f0 99 70 ba bd 57 62 e2 3d 4a 7a 9e 3c 38 6f 43 3d
       -0.091035075 0.11053913 0.019345421 0.04771349
000100 04 6c 04 3d 4b 6c 9f 3c 34 f0 6f bd a3 db d3 bd
       0.032329574 0.019460818 -0.058578685 -0.10344627
000110 7b 7d 5d bd 52 8c 11 3d 42 bd c8 3d 57 4b d7 3d
       -0.054074746 0.03553421 0.09801723 0.10512417
000120 65 05 e1 bc 77 8f 62 bd 71 f5 03 bd 41 0d 97 bb
       -0.027468393 -0.0553126 -0.032216493 -0.0046097343
000130 6a b9 bf bd f1 3b 7c 3d f1 30 79 3c a7 4d 14 bc
       -0.09361537 0.061580602 0.015209422 -0.009051717
000140 bd a3 bb 3d 12 41 70 bd fb 4c 91 3d 31 0f ea 3c
       0.0916209 -0.058655806 0.07094761 0.028571697
000150 74 02 df bd a5 5f e2 bd 5f dc 68 bd 03 38 83 3d
       -0.1088914 -0.11053399 -0.056850787 0.06407168
000160 05 fc 6a 3c 13 15 6b bd 09 40 0a 3d 87 53 a4 bc
       0.014342313 -0.057393145 0.033752475 -0.02005936
000170 db 84 aa 3d 00 bf 99 bc 67 f8 a4 bd 22 60 6a bd
       0.083261214 -0.018767834 -0.080551915 -0.057220586
000180 a4 d5 a9 3d 33 00 47 3d e8 7c ea bd 3b 42 bf 3c
       0.08292702 0.048584174 -0.11449605 0.02334701
000190 f2 2d 5b bc 0f b9 3c 3d f1 e2 70 3d 67 96 f1 bc
       -0.013377653 0.046074923 0.05881018 -0.029490663
0001a0 33 2e 01 be 96 a1 36 3b 79 b3 f1 bd 78 ec bf bd
       -0.1261528 0.0027867309 -0.1180181 -0.09371275
0001b0 18 f3 8f 3d 59 19 dd 3d 82 dd fb bd d7 10 40 bd
       0.07028788 0.1079585 -0.12298109 -0.04689106
0001c0 f7 4e a8 3d bb 21 3d 3d 84 c9 b2 3c 75 ad fb 3d
       0.08218186 0.046174746 0.021824606 0.12288944
0001d0 aa d3 82 bd b4 4a c2 bd 6f 47 a3 bd 78 91 af bd
       -0.06388028 -0.09486905 -0.07972609 -0.08572668
0001e0 38 e3 e4 3d 7a 16 d9 bd d9 3e c8 3d 2a c9 8a 3c
       0.11176151 -0.1059999 0.09777612 0.016941626
0001f0 5d 6e 3a 3d 8b 59 c4 3d b2 8a 1d 3c 82 13 ee 3d
       0.045515407 0.095873915 0.009615587 0.116248146
000200 cc d9 99 bd 5f a0 95 bc 9a 4b 84 bd 0a 8a 37 3d
       -0.075122446 -0.018264947 -0.06459732 0.04480938
000210 a4 64 fd 3c 11 aa a4 bc 12 a2 6b bc ef 23 90 3d
       0.030931778 -0.020100625 -0.014381902 0.07038104
000220 ab c8 7e bd 1b c7 1c 3c 0c a2 33 3d 43 e3 5c bd
       -0.06220309 0.009568955 0.04385571 -0.05392767
000230 f3 f0 db 3d 75 5f cd bd 75 d7 b9 3d ca e8 8d 3d
       0.10739317 -0.100279726 0.09074298 0.069291666
000240 b8 74 7d 3d 4f dc 30 bd 1a 91 c5 bd c2 55 c6 3d
       0.06187889 -0.043178853 -0.096468166 0.09684326
000250 f7 03 3a 3b 9a 01 1d bd 6a 9b da bd 99 94 ba 3d
       0.002838371 -0.038331605 -0.10674174 0.09110374
000260 2f 34 52 bd 37 b8 45 3c c4 1a 88 3d 86 c0 d1 bd
       -0.051319297 0.012067846 0.0664573 -0.10241799
000270 69 d2 8b 3c a4 44 a2 3d b1 ea 3f 3d a5 3b 18 bb
       0.017068105 0.079232484 0.04685468 -0.002322891
000280 e0 4a 1b bd 1b d2 44 3d cf 61 50 bd 18 77 1b 3d
       -0.037913203 0.048051935 -0.050874528 0.037955374
000290 56 0a aa bc c8 66 df ba e4 3e 95 bd 45 e9 67 bd
       -0.020756882 -0.0017044181 -0.07287386 -0.056618948
0002a0 3e e7 8e 3d 95 99 85 3c 70 14 d7 3d b2 61 e2 bd
       0.069777 0.016308585 0.10501945 -0.1105379
0002b0 59 2c 02 be e0 22 a9 bd 13 ec 9b bd e7 fd 20 3d
       -0.1271223 -0.08258605 -0.07613387 0.03930464
0002c0 b8 0d 8e bd 5b 5c a9 bd 62 ab 87 bd 5e 9e 36 bd
       -0.069362104 -0.082695685 -0.066244856 -0.044584624
0002d0 9d df eb b9 de ce 81 bd c2 f2 e1 bd 00 22 8f bc
       -0.00044989298 -0.06338285 -0.110326305 -0.017472267
0002e0 34 5e 9d 3d 94 a3 a1 3d 4e d8 ab 3d ae 56 b6 3d
       0.076839834 0.07892528 0.08390866 0.089032516
0002f0 fa b3 b2 bd 0b 45 1c bd 6c 21 cd bd aa 7d ac bd
       -0.08725734 -0.038151782 -0.1001614 -0.08422406
000300 20 9e ad 3d 14 03 5c 3b e0 5b 15 bd f3 31 1a bb
       0.084774256 0.003357117 -0.036464572 -0.0023528307
000310 49 3c 58 bd bc 8f cd 3d 43 ba 7e 3d 79 17 9d bc
       -0.052791867 0.10037181 0.06218935 -0.019176232
000320 8e e9 85 bd ed e8 d1 3d cb 1c 97 3d 9a 05 da 3a
       -0.06538688 0.10249505 0.07378539 0.001663375
000330 92 38 ab 3c 74 ac e9 bd a4 29 9e 3d 56 21 83 bd
       0.020900998 -0.11409846 0.07722786 -0.06402843
000340 50 95 5d bd c6 ce 70 bc 08 24 9c 3d 5c c8 e8 bd
       -0.054097474 -0.014697736 0.0762406 -0.113663405
000350 ce e3 d0 3d aa ff 78 bb bc 40 dd bd a1 e9 25 bd
       0.101997 -0.0037994185 -0.10803363 -0.04050601
000360 1f 29 dd 3b ca 1e fd 3d fa 20 b4 bc 1b ff f6 bd
       0.006749287 0.12359388 -0.02198838 -0.12060376
000370 17 85 0b 3c c8 d8 8e bd da a3 82 3d 02 78 f4 3c
       0.008515618 -0.069749415 0.063789085 0.02984238
000380 8c 39 88 bd 49 76 c6 3d f1 cb 41 bb cb f5 bd bb
       -0.06651601 0.0969053 -0.0029571021 -0.005797123
000390 1d 38 6d 3c 09 43 91 bd 4e c2 e1 bd 45 af 00 3e
       0.0144787105 -0.07092864 -0.11023389 0.1256686
0003a0 d3 43 62 bd 8e a3 9c bc 23 34 00 be b2 99 72 bc
       -0.055240463 -0.019120958 -0.12519889 -0.014807152
0003b0 40 b9 c8 bd 7b f0 03 3d 93 10 ff 3d 25 d6 be 3d
       -0.09800959 0.032211762 0.12454333 0.093181886
0003c0 20 02 f1 3d 0e f9 d3 3d 52 66 b3 bd b6 22 a1 bc
       0.117679834 0.10350238 -0.087597504 -0.019669872
0003d0 e9 a3 e9 bd 7a 94 d5 3d 9a 4a 60 bd 51 c0 a7 3d
       -0.114082165 0.1042871 -0.054758646 0.08190978
0003e0 e6 ab 13 3c 3b 3a 86 3d 39 7a f1 bd f3 53 fd 3d
       0.009013152 0.06554075 -0.1179089 0.12369528
0003f0 db af e1 3b 57 b8 41 3d 15 31 a4 3d d7 72 6d bd
       0.0068874187 0.04729494 0.08017174 -0.057970848

convs.1.lin_l.weight f4 [64, 256]
000000 1b 60 ce 3d f6 42 93 3d 78 c7 45 3d 93 9f cc 3d
       0.100769244 0.07190506 0.04828593 0.09991374
000010 e0 fb b8 3c a7 c0 a3 3c a9 a9 05 3c 3f 6c 5d 3d
       0.02258104 0.019989325 0.008158126 0.05405831
000020 4b f1 00 bd 78 7e 0a bc 33 c2 24 3d 84 c7 29 3d
       -0.031480115 -0.008453004 0.040224265 0.04145004
000030 85 08 dd bc cc 00 8c 3d ab 44 c3 3d 26 2d cd 3d
       -0.026981601 0.068360895 0.09534582 0.10018377
000040 2f 3d d2 3c 46 7e 92 3d 23 a0 e1 3c 7a 8e 22 3d
       0.02566394 0.07152991 0.02754218 0.039686657
000050 54 52 30 3e a3 f9 cb 3d 07 ac e1 3d be 58 7c 3d
       0.17218906 0.09959724 0.1101914 0.06160807
000060 be 99 0e 3e 5b 39 32 3d ce 36 38 bc 21 ce 9d 3c
       0.13925835 0.04351173 -0.011243535 0.019263329
000070 33 af 42 3d a6 9e 38 bc 46 d6 11 3d ec 07 07 3c
       0.047530364 -0.0112682935 0.035604738 0.008241635
000080 f0 0a 07 3c 4b 46 96 3d ab e5 8d bc 3c 1a 87 3d
       0.008242354 0.07337626 -0.017321428 0.06596801
000090 0b 2f 58 3d 35 e7 66 3d 4b 8a b9 3d 88 45 e3 3b
       0.05277924 0.05637284 0.090595804 0.006935779
0000a0 e4 bd 93 3c d2 12 4d 3b f2 a6 19 bd fa 55 44 3c
       0.018034883 0.0031291735 -0.037512727 0.011983389
0000b0 1a c5 52 3d 96 13 74 3d 39 19 a3 3d a9 3d 42 bd
       0.051457502 0.05958899 0.07963795 -0.047422085
0000c0 39 d9 c5 bb da c1 0f 3d aa d6 a6 bb 3c d8 12 bb
       -0.006037858 0.03509698 -0.005091508 -0.0022406718
0000d0 63 1b 64 3c 77 49 0e 3b cd 74 ff 3d 12 e2 25 3d
       0.013922545 0.002171127 0.1247345 0.0404988
0000e0 c2 4b 98 3d 33 ca 77 3d 2d b9 90 3d 0b e1 a4 3c
       0.07436325 0.060495567 0.070665695 0.02012684
0000f0 d8 28 39 bc 44 dc 1c bd 4f 11 ce 3d 7d d7 dd bc
       -0.011301242 -0.038296 0.10061895 -0.027080292
000100 f7 af 98 bc 1d 30 0e 3e e2 ad 8d 3d a1 41 84 3d
       -0.018638594 0.13885541 0.06917931 0.0645783
000110 97 d3 5c 3d 9f bc c3 3d 2c 57 af 3d ee a6 4c 3d
       0.053912725 0.09557461 0.085615486 0.049963884
000120 a8 a0 5c bc da db 4b 3c 52 01 ac bc ad 47 c0 3d
       -0.013466038 0.012442553 -0.020996723 0.09388671
000130 96 f9 8d 3d eb 92 2e 3d dd e0 37 3d fb fa f8 3c
       0.0693237 0.04262058 0.04489218 0.030393114
000140 f2 d4 5a bc c8 d6 52 3c 9c d1 a0 bc 94 44 88 3d
       -0.013356434 0.012868591 -0.0196312 0.06653705
000150 18 08 d8 3c d8 a2 6f 3d 8b 93 b8 bb 1f 3e e5 3d
       0.026371047 0.05850491 -0.005632823 0.11193489
000160 9f 9e 91 3d c1 e6 23 3d 54 d6 bd 3d bb 81 de bb
       0.07110333 0.040014986 0.092693955 -0.0067903674
000170 81 fa 85 3d ca f3 35 3d 1c ca 0b 3c a1 84 00 3d
       0.065419205 0.04442195 0.008532073 0.031376485
000180 17 53 76 3c 1f 62 f0 3d f9 4e 97 3c d8 d2 5f 3c
       0.015034459 0.11737465 0.018470274 0.013661109
000190 d4 0d 9c 3d 8a b1 0f bc 65 fe 1b bd d4 01 ab 3d
       0.07619825 -0.008770356 -0.038084406 0.08349958
0001a0 22 db 7e 3c 5b 46 9d 3d 0d 0b bf bc c6 39 bc 3d
       0.015555175 0.07679435 -0.0233207 0.09190707
0001b0 47 17 7b 3d f5 90 8c 3d fa 80 3d bc 66 32 32 bb
       0.061301496 0.06863586 -0.011566395 -0.0027190684
0001c0 a0 92 78 3c ab 33 79 3d 31 83 a9 bc c4 6a 89 3d
       0.015171677 0.06084029 -0.02069244 0.06709817
0001d0 d9 71 ea 3c bc a7 37 3d 6e de 23 3d 05 54 02 3b
       0.02861874 0.0448377 0.040007047 0.0019886505
0001e0 25 0f 06 3d 5a 7a e1 3d 4a 09 b5 3d 01 de 2e 3d
       0.032729287 0.11009665 0.088396624 0.04269219
0001f0 23 a8 d5 3c ef ed 16 bb f6 d5 d2 3d d4 c1 71 3c
       0.02608115 -0.0023030003 0.10294716 0.014755685
000200 35 b6 22 bd bf b9 a6 3d 18 de 66 3c 43 04 c7 bc
       -0.039724547 0.08140897 0.014091037 -0.024294024
000210 8e 52 ae 3d f0 f8 e6 bc 78 4a 25 3d 0e 3c b2 3d
       0.0851184 -0.028194875 0.040354222 0.08702861
000220 8b 1d 01 bd f9 cd 00 3d 17 0c d4 3d 91 63 8a 3d
       -0.031522315 0.03144643 0.103538685 0.06757272
000230 76 94 c1 3d 5f 76 e5 3d 09 e3 79 3d 08 b0 9d 3d
       0.09452145 0.11204218 0.061007533 0.07699591
000240 90 45 64 3d 0b a2 c1 3d 6c a7 71 3d dc 1e b2 3d
       0.055730402 0.09454735 0.058997557 0.08697292
000250 8c 04 6e 3d c3 d7 f4 3c 17 8a b5 bc f6 c5 bb 3d
       0.058109805 0.02988804 -0.022160573 0.091686174
000260 b0 a5 13 bd 10 c3 b6 3d 33 8c b8 3d a9 a4 cf 3d
       -0.036046684 0.08923924 0.09011116 0.10138828
000270 ed 3d c1 3d 31 11 40 bb ee 18 ec 3b a5 f8 55 3d
       0.094356395 -0.0029307122 0.0072051203 0.05223908
000280 65 af 48 3c 2d 4e 0f 3d 3c 7f aa 3b 42 5f 43 3d
       0.012248849 0.034986664 0.005203156 0.047698267
000290 ba 7a 4b 3d c1 96 a5 3d 5b 06 75 3d 56 91 98 3d
       0.049677588 0.08085395 0.059820514 0.07449596
0002a0 f3 56 3a 3c c1 b2 d2 3c 4c ad 90 3c fb 0c 0e 3e
       0.011373269 0.025720002 0.01766076 0.13872139
0002b0 bb 29 54 bb 89 f4 61 3d 65 83 60 3d d7 03 b1 3d
       -0.0032373506 0.055164848 0.054812808 0.086433105
0002c0 d2 3f 59 3d d8 bf 0b 3d e5 75 8e bc 04 63 60 3d
       0.05303938 0.034118503 -0.0173902 0.05478193
0002d0 0b 83 37 3d 14 26 51 3c 12 89 bd 3d 06 cf 36 bd
       0.044802707 0.012765426 0.0925466 -0.044631027
0002e0 7c 09 fc 3c d1 ec 2f 3d 28 62 a8 3d 60 6e 92 3d
       0.030766241 0.042950455 0.08221847 0.071499586
0002f0 e4 56 82 3d 6d 4a ac 3c c9 98 b7 bc 20 72 d9 3c
       0.06364229 0.021031583 -0.02241172 0.026543677
000300 4c 41 33 3d f4 8d 65 3d d8 93 87 3d c0 83 9a 3b
       0.043763444 0.05604358 0.06619996 0.004715413
000310 53 95 85 3c e4 40 4b 3d 9b 22 54 bb 6c 88 14 bd
       0.016306555 0.04962243 -0.003236926 -0.036262915
000320 3f e4 9f 3d f7 33 9d bc a3 ae e4 bc 90 5e 30 3d
       0.07807206 -0.019189818 -0.027915305 0.04305893
000330 e4 71 01 3d ba 46 16 3d b6 25 c6 3d 00 97 a2 bb
       0.031602755 0.036688544 0.096751615 -0.0049618483
000340 6d 9d b7 3d be dc 24 3d 7a 75 df 3d e9 b3 77 3d
       0.089655735 0.04024958 0.10911079 0.06047431
000350 47 2a ad 3c a3 58 ad 3d 3d 4d 67 bc 28 9c 98 3d
       0.021138323 0.08464172 -0.014117536 0.074516594
000360 de f6 34 ba 45 eb a0 3d bc fe b9 3c 93 f3 c0 bc
       -0.0006903241 0.07857374 0.022704475 -0.023553645
000370 8b 86 93 3d 7e c0 9c bc f2 91 98 3d ac 2e e9 3d
       0.072033964 -0.019134756 0.07449712 0.11385855
000380 b3 c0 3c 3d ab e5 c7 3d 33 61 ba 3d 7d bb 7a 3b
       0.04608221 0.097606026 0.091005705 0.0038258724
000390 99 3b 1f 3d b8 1b 79 3d 81 e1 1c 3d 09 5d 25 bc
       0.038875196 0.06081745 0.038300995 -0.010092982
0003a0 d1 92 c2 3d 1a b7 8c 3d 3f e0 c1 3c 0b be 18 bc
       0.09500659 0.06870861 0.0236665 -0.0093226535
0003b0 ae c1 04 3d 9b 62 0a 3e 85 16 c6 3d 16 bf d4 3c
       0.03241127 0.13514178 0.09672264 0.025970023
0003c0 13 b7 2f 3d f2 37 72 bc 4a 78 10 bc cc 93 87 3d
       0.042899203 -0.014783846 -0.008817742 0.06619987
0003d0 e9 23 0b bc 53 f5 0c 3c ad c7 cb 3d 38 bb b3 3c
       -0.008492448 0.008603412 0.099501945 0.021939859
0003e0 2e 45 c1 3d 57 4b c3 3d 8d d3 27 bd 60 3a 8d bb
       0.09437023 0.09535854 -0.040973235 -0.0043099374
0003f0 d4 d5 7d 3d 6e 3e ac 3c c5 cf 52 3d 84 b3 ee 3c
       0.0619715 0.021025863 0.051467676 0.029138334

convs.1.lin_l.bias f4 [64]
000000 ac 1b 7f 3d 36 c6 7f bd 2f b5 9d bc df 10 eb bb
       0.06228225 -0.062444888 -0.019251434 -0.007173642
000010 67 ed d8 bc ac 6d 5d bd 31 ba a3 39 44 ea 1d 3d
       -0.02648039 -0.05405967 0.00031228506 0.03855349
000020 8f 03 ed bb b7 f8 cb 3c e3 08 82 3c 7f 55 67 3d
       -0.0072330902 0.02489887 0.015873378 0.05647802
000030 10 13 45 bd 96 6e 67 ba c7 ae 9c bd 0f af e2 3c
       -0.048113883 -0.0008828429 -0.07650524 0.027671365
000040 75 a4 73 bd 08 88 7c 3d fe e3 15 3c cc 24 4c bd
       -0.05948301 0.061653167 0.009148596 -0.04983978
000050 f7 63 4d 3c f1 63 19 3d 3c 65 0f 3d 29 8c 4a bd
       0.0125360405 0.037448827 0.035008654 -0.049450073
000060 1f 3d 51 bd bc 02 63 bc d7 ac 8e 3b b4 62 76 bb
       -0.05108368 -0.013855632 0.0043541 -0.0037595453
000070 ae 70 4d bd a6 c2 8e 3d 55 97 41 3c 7a bd cb bc
       -0.050156288 0.0697072 0.0118158655 -0.024870623
000080 53 3c 46 3a e6 b1 38 3d db ca d8 bc 29 f2 55 3c
       0.00075620896 0.045091532 -0.026463917 0.013058224
000090 c9 2b fd 3c 3b 2d 0a bd e4 26 ba bb a6 1d 06 bd
       0.030904667 -0.03373454 -0.0056809057 -0.03274312
0000a0 c6 ca 7c bd 6c 34 bb bb 63 16 8c 3d 4d da 13 3d
       -0.061716817 -0.0057130363 0.068402074 0.03609686
0000b0 9c 28 ed 3b 41 58 85 3d 7c 10 55 3c 88 49 35 3c
       0.007237507 0.06510974 0.013004418 0.0110648945
0000c0 c8 44 6e bc f4 10 18 bd 22 4e c8 3c eb e2 19 3d
       -0.014542766 -0.037125543 0.02445132 0.03756992
0000d0 44 9f 98 bc bc 6c d3 3c 00 2f c0 3b a4 65 21 3d
       -0.018630631 0.025808685 0.005864978 0.039403573
0000e0 32 71 1e 3c 0a f0 d1 bc c7 ab bd bc eb 0c 0a 3d
       0.009670543 -0.025627155 -0.023153199 0.033703726
0000f0 f1 e0 45 3d 4a 98 00 bd f9 2b ff 3c d7 5e 92 3c
       0.048310224 -0.031395234 0.031148897 0.017867489

convs.1.lin_r.weight f4 [64, 256]
000000 aa 05 b4 3d 0d 11 7e 3c 1d 77 9f bc ee 52 82 3d
       0.08790143 0.015506995 -0.019465977 0.06363474
000010 00 3a 30 bc 90 2e 54 3d a5 25 a6 bc d7 7e b6 3d
       -0.010756016 0.051802218 -0.020281622 0.089109115
000020 c8 f4 c5 3c e2 e1 da 3a ca 7e ab 3d fd 54 30 3c
       0.024164572 0.0016699398 0.083737925 0.01076245
000030 c1 f0 3c ba 15 6e 07 3d 8c af 38 3d 29 54 26 3d
       -0.0007207506 0.033063967 0.04508929 0.040607605
000040 7e 5e 28 bd 45 51 83 bd 21 1f b8 3d fe 1a 8a 3d
       -0.04110574 -0.06411985 0.08990312 0.067434296
000050 d7 65 64 3d 5c 83 92 3b 70 a7 48 3d 0d c5 3a bc
       0.055761185 0.0044712257 0.048987806 -0.01139952
000060 24 e5 6a 3d 72 c3 70 3d c3 da 48 bd 09 6e 0f bc
       0.05734743 0.05878014 -0.049036752 -0.008754262
000070 e3 fb 28 bd a5 64 53 3d 33 b7 2e 3d e2 e4 c9 3b
       -0.041255843 0.051609654 0.04265518 0.006161318
000080 ee aa 89 b9 c5 41 7c 3d 93 72 f9 3c 59 df 5a 3d
       -0.0002625803 0.06158616 0.030450141 0.053435657
000090 79 03 b5 bc ef 1b 8a 3d d0 7b 30 3d 32 66 73 3c
       -0.022096382 0.06743609 0.043086827 0.014855908
0000a0 17 d9 05 bc 07 c5 a1 3c b3 15 3a 3d eb be 6e 3d
       -0.008169434 0.01974727 0.04543085 0.058287542
0000b0 ec d5 dc bc e9 48 cd 3c 29 40 0b bd fc d4 3d bd
       -0.026957475 0.02505918 -0.033996735 -0.046345696
0000c0 32 2b 18 bd ec f9 f6 bc 63 96 37 3d 2e cd e8 3c
       -0.03715057 -0.030148469 0.044821154 0.02841815
0000d0 65 ff b0 3c 9d 73 99 3c 59 ab 26 bd 4a b3 a2 3d
       0.021606157 0.018731887 -0.040690754 0.07944353
0000e0 3b a9 68 bc 34 3b 63 3d fb 3b c3 bc 82 09 45 3d
       -0.014200504 0.055476382 -0.023832312 0.04810477
0000f0 22 38 d9 bc ef 4b 81 3d c5 5f db 3d be 97 b9 bc
       -0.026516024 0.06313311 0.10711626 -0.022655364
000100 de 93 b3 ba 59 55 87 3d 2e 6c 11 3d 42 d4 90 3d
       -0.0013700684 0.06608076 0.03550356 0.07071735
000110 c9 f5 9d 3d 50 b6 a2 3c 08 15 a6 3d b1 b6 77 3d
       0.077128954 0.019862324 0.0810948 0.060476962
000120 60 f6 4d bd 81 29 6e 3c 8a a5 9a 3c 7b 5c 1e 3d
       -0.05028379 0.0145362625 0.018877763 0.038662415
000130 6d e2 81 3c 9e 30 a6 3d 5b 86 d7 3d c8 78 23 3d
       0.015855039 0.08114742 0.10523673 0.039910108
000140 59 4c 99 3d d6 60 ef bc 43 9c 1d 3d 72 9c 91 3d
       0.07485265 -0.02922098 0.0384791 0.07109918
000150 c6 93 a6 3d 24 ce a3 3d 82 90 4c 3d c5 c0 25 bd
       0.08133654 0.079983026 0.0499425 -0.040467042
000160 92 30 0a bb d7 34 82 3d 19 10 fe 3c 1f a4 13 bd
       -0.002108608 0.06357735 0.031013535 -0.03604519
000170 67 17 70 bb 09 7b 84 3d a2 d1 16 bd d5 33 81 3d
       -0.0036635043 0.064687796 -0.036821015 0.06308714
000180 9c a0 cc 3d d0 ed 5c 3d 92 08 9f bc 5e 04 26 3d
       0.09991571 0.053937733 -0.019413266 0.04053151
000190 1f 0e 85 bd 40 97 13 3d f2 ed c2 3d ab d6 22 bd
       -0.06496834 0.036032915 0.09518041 -0.039755505
0001a0 b0 c8 0a 3d c0 01 49 3c a7 a7 65 3c ec 7e ab bc
       0.033882797 0.012268484 0.014017022 -0.020934545
0001b0 c5 fc 4c 3d ae a7 db 3c 25 4c 68 bc 28 34 78 bb
       0.050045747 0.026813354 -0.0141783105 -0.0037872884
0001c0 c8 0c 87 3d a6 1c b1 3d 6a dc a7 3d f4 35 dd 3c
       0.06594235 0.086480424 0.081963375 0.027003266
0001d0 d7 2b 93 3c 80 90 c3 3c d5 99 e4 bb 1f cf 21 3c
       0.01796524 0.023872614 -0.006976346 0.009876042
0001e0 5e dd 17 3d a5 5f 8a bb f0 1c 40 bd 6e 28 d8 3d
       0.037076347 -0.0042228275 -0.046902597 0.10554586
0001f0 29 76 85 3b 2d e2 c2 bc 02 7b 4d bd e7 71 42 3c
       0.0040729237 -0.02378949 -0.050166138 0.011867977
000200 9b 4f f1 3c ef 07 7f 3d 7b 02 ce bc a6 71 5e bc
       0.029456904 0.062263425 -0.025147667 -0.013576901
000210 3e 72 51 bd ab 53 c9 3d 67 d5 c6 3c 91 9a 92 3d
       -0.05113434 0.098304115 0.02427168 0.071583875
000220 c9 79 f6 bc dc e7 b2 3d c9 49 3c 3d 00 2f 6d bd
       -0.030087369 0.0873563 0.045968805 -0.05790615
000230 cf 60 5b 3d 11 de 94 bc 6c 0b 78 bc c7 8f b5 3d
       0.05355912 -0.018172296 -0.015139442 0.08865314
000240 ea e8 4e bc 66 af a2 3d 13 72 52 3d b6 62 a4 3c
       -0.012628773 0.07943611 0.05137832 0.0200666
000250 4e 77 3c bb f9 1b b1 bb c8 71 76 3d 5e 7a 34 bd
       -0.0028757635 -0.005404946 0.060167104 -0.04406201
000260 a8 60 75 bc c3 ce 2b 3d 39 88 ff ba 6d 18 18 3d
       -0.014976658 0.04194523 -0.0019495554 0.03713267
000270 ca 7e 65 3d 21 9a 0f bd ec b1 95 bd 2e 85 ea 3b
       0.05602912 -0.0350591 -0.073093265 0.0071569895
000280 c0 48 07 3d b4 45 d5 bb 41 c0 50 3c 30 ad 38 bc
       0.033028364 -0.0065085534 0.012741149 -0.01127176
000290 68 d0 89 3d 63 2c 44 3c 69 9a 11 3d 46 4d 05 3d
       0.067292035 0.011973473 0.035547648 0.032544397
0002a0 b3 18 2e 3d 4c 9a 57 3d f3 8e 3c 3d 44 e6 85 3d
       0.042504024 0.052637383 0.046034764 0.0653806
0002b0 34 ae 90 3d 75 91 25 bd de 06 93 3d dd 91 c6 3c
       0.070644766 -0.04042192 0.07179044 0.024239475
0002c0 ff 1f 6d 3d 58 34 46 bb d4 f6 10 bd bd e0 62 bc
       0.057891842 -0.0030243602 -0.035391644 -0.013847527
0002d0 8e 3e 47 bd fc 83 c3 3d de b6 5c 3c 37 45 82 bb
       -0.04864364 0.095466584 0.013471333 -0.003975536
0002e0 9b 38 0d 3d 38 1c 02 3d 93 c6 5f bc 4e 1d 11 3d
       0.03447781 0.031765193 -0.013658184 0.035428338
0002f0 60 3e 7d 3d d4 32 1f bc 4a ec a9 3c 75 d9 d9 3c
       0.061827064 -0.009716708 0.020742554 0.02659295
000300 c3 54 1b ba 76 39 59 3d 5c 53 aa 3d 3c 86 52 3d
       -0.0005925411 0.053033315 0.08316681 0.051397547
000310 d1 d3 7f 3d 5c 78 07 3d e9 ab 66 3d 8b cb 2f bc
       0.062457863 0.033073768 0.05631629 -0.010729681
000320 70 3f 16 bc 24 73 51 bd 9e 19 16 3c f2 d8 66 3d
       -0.009170398 -0.051135197 0.009161381 0.05635924
000330 a4 73 51 3d 1b 63 1c 3d d2 d9 a9 3d 49 b2 58 3c
       0.051135674 0.03818045 0.08293499 0.0132261
000340 4b 8f 4a bb b7 9c a6 3c 79 4a 87 3d df d7 7d 3d
       -0.0030908163 0.0203384 0.066060014 0.06197345
000350 0e 36 05 3d d5 3b ac 3d 0d ab 0a bd ff d9 2f 3d
       0.032522254 0.084098496 -0.033854533 0.042932507
000360 45 1d d2 3d 4f 53 50 3d ac 53 92 3d fe 25 31 3d
       0.10259489 0.0508607 0.071448654 0.043249123
000370 71 64 ba bc fd af aa bc f4 0a c7 3d e0 4f 2b 3d
       -0.022752972 -0.02083587 0.09718886 0.04182422
000380 04 b2 23 3d ff 92 1a 3d ff 06 b4 3d 70 a6 8b bd
       0.03996469 0.037737843 0.08790397 -0.06818855
000390 af 46 1c bc 80 93 8d 3d cc 83 9e 3d c7 ce 5e 3d
       -0.009538337 0.06912899 0.07739982 0.054396417
0003a0 3c d1 8c 3d 07 f9 33 3d cf f7 16 3d ca 45 b1 bd
       0.06875846 0.043938663 0.036857422 -0.08655889
0003b0 53 43 b6 3c 49 7e 0b bd 4e 2f 2e 3d 29 03 92 3d
       0.0222489 -0.03405598 0.042525582 0.07129509
0003c0 dc d9 6e bd 43 5c 71 3d 34 97 5e 3d df dc 65 3d
       -0.058313236 0.05892588 0.054343417 0.056118842
0003d0 2e 55 86 3d c1 5c 96 3d a1 36 7e 3d ba e4 91 3d
       0.065592155 0.0734191 0.062063817 0.07123704
0003e0 b7 0c 27 3b 12 a7 a6 bc ba 08 bb bc e1 1c 2f bd
       0.0025489756 -0.020343337 -0.02283131 -0.04275215
0003f0 3e e3 b9 bc 93 24 11 3a a6 69 53 3d 9f 0c ab 3c
       -0.022691365 0.0005536761 0.051614426 0.020880042

bns.0.weight f4 [256]
000000 cb c9 7f 3f 65 3e 7c 3f 31 b9 7c 3f 84 57 7f 3f
       0.99917287 0.98532706 0.9872008 0.99742913
000010 4d 54 7b 3f 91 3c 7e 3f 74 e0 7b 3f ec 68 7f 3f
       0.9817551 0.99311167 0.98389363 0.99769473
000020 be ef 7c 3f 98 ca 7d 3f f3 e4 7d 3f a4 8b 7c 3f
       0.9880332 0.9913726 0.99177474 0.98650575
000030 83 a2 7c 3f 56 29 7d 3f af ac 80 3f 8e 16 80 3f
       0.98685473 0.988912 1.0052699 1.0006883
000040 fc 6d 7e 3f 9e a5 7c 3f 3a d6 7d 3f 90 02 7d 3f
       0.9938657 0.9869021 0.9915501 0.98832035
000050 71 ae 81 3f 86 5d 7e 3f 11 f7 80 3f a4 04 7e 3f
       1.013136 0.99361455 1.0075399 0.9922583
000060 63 82 80 3f f0 65 7d 3f f0 8d 7d 3f 37 58 7f 3f
       1.0039791 0.9898367 0.99044704 0.9974398
000070 87 dd 7d 3f a8 6e 7f 3f c2 1e 7f 3f 64 d9 7c 3f
       0.9916615 0.99778223 0.9965631 0.9876921
000080 15 33 7e 3f 63 73 7d 3f 59 c5 7d 3f f7 b1 7e 3f
       0.99296695 0.9900419 0.99129254 0.994903
000090 0a ba 7e 3f 86 ea 7f 3f b0 47 7f 3f c8 8a 7b 3f
       0.99502623 0.9996723 0.9971876 0.9825864
0000a0 ad dc 7c 3f 1c 90 80 3f 1c 58 7d 3f a1 4e 7e 3f
       0.98774225 1.0043979 0.9896257 0.9933873
0000b0 34 38 7e 3f 40 6c 7d 3f c9 68 7d 3f ec dc 7c 3f
       0.9930451 0.989933 0.98988014 0.987746
0000c0 97 39 7d 3f 2a fa 7d 3f e0 78 7d 3f 17 95 7e 3f
       0.98916 0.99209845 0.99012566 0.99446243
0000d0 de 77 7c 3f 1b e5 7e 3f cb 06 7f 3f e6 ed 7f 3f
       0.986204 0.9956834 0.9961974 0.9997238
0000e0 bd 3f 7e 3f 88 36 80 3f ea ba 7e 3f 80 3d 7d 3f
       0.99316007 1.0016642 0.9950396 0.98921967
0000f0 31 4e 7e 3f ce 55 7c 3f f2 d1 7f 3f c2 98 7b 3f
       0.9933806 0.9856843 0.99929726 0.98279965
000100 81 80 7c 3f fb 49 80 3f 07 9e 7d 3f d8 51 7e 3f
       0.9863358 1.0022577 0.99069256 0.99343634
000110 39 85 80 3f ad 69 7e 3f 0f 06 7e 3f 44 16 7e 3f
       1.0040656 0.9938 0.99227995 0.99252725
000120 e6 15 7e 3f 14 79 7e 3f 20 ff 7d 3f ac 6a 80 3f
       0.99252164 0.994035 0.99217415 1.0032554
000130 9a 39 7f 3f c2 79 7f 3f 9d 3a 80 3f b1 42 7d 3f
       0.9969727 0.9979516 1.0017887 0.9892989
000140 9a da 7e 3f 48 c8 7d 3f 36 a6 7e 3f cc be 7e 3f
       0.9955231 0.9913373 0.9947237 0.9950988
000150 11 28 80 3f 99 5f 7d 3f cd 6a 7f 3f 00 9c 7e 3f
       1.0012227 0.98973995 0.9977234 0.9945679
000160 ba ff 7e 3f 97 ad 7e 3f 28 8c 80 3f 3c 16 7d 3f
       0.9960896 0.9948363 1.0042772 0.9886205
000170 99 92 7d 3f 32 c7 7d 3f 28 81 7f 3f 4c 5f 7e 3f
       0.99051815 0.9913207 0.9980645 0.9936416
000180 48 96 80 3f a3 57 80 3f c9 46 7f 3f a7 55 7e 3f
       1.0045862 1.0026745 0.99717385 0.99349445
000190 0b 4b 80 3f e1 47 7e 3f b8 e7 7f 3f 29 3d 7e 3f
       1.0022901 0.9932843 0.9996295 0.99312073
0001a0 f6 97 7e 3f 70 2c 7d 3f 59 35 7d 3f 00 ab 7c 3f
       0.99450624 0.9889593 0.9890953 0.98698425
0001b0 a1 7d 7d 3f ab 68 7d 3f e9 43 7f 3f 1a 16 7d 3f
       0.9901982 0.98987836 0.99713 0.9886185
0001c0 35 65 7d 3f 42 94 80 3f a7 17 7f 3f 1e 9a 7d 3f
       0.98982555 1.0045245 0.99645466 0.9906329
0001d0 05 23 80 3f 99 1e 7f 3f c2 f4 7e 3f 23 22 7b 3f
       1.0010687 0.99656063 0.9959222 0.98098963
0001e0 d0 9f 7d 3f 81 e6 7d 3f 29 c3 7d 3f ee 13 7f 3f
       0.9907198 0.99179846 0.99125916 0.99639785
0001f0 b9 b2 7d 3f 3d 77 7f 3f 83 13 7d 3f ef 45 7f 3f
       0.99100834 0.9979132 0.988579 0.99716085
000200 ae 4e 7e 3f 29 8e 7f 3f cf e5 7c 3f 90 c4 7e 3f
       0.99338806 0.99826294 0.9878816 0.9951868
000210 a9 59 7e 3f f0 4d 7e 3f 16 96 7c 3f 94 ad 7f 3f
       0.9935556 0.99337673 0.9866651 0.99874234
000220 ed 15 7d 3f 57 7b 7e 3f 9a a6 7d 3f 7c a0 7d 3f
       0.9886158 0.9940695 0.9908234 0.99073005
000230 ad 8c 7e 3f c3 d0 7f 3f 79 9f 7e 3f 81 31 7f 3f
       0.99433404 0.9992792 0.99462086 0.9968491
000240 35 ec 7d 3f 4c 03 7e 3f ce 65 80 3f be 46 7e 3f
       0.9918855 0.9922378 1.0031068 0.99326694
000250 eb 35 7e 3f 4c 27 7f 3f 0d 23 7e 3f 1f 00 7f 3f
       0.9930102 0.9966934 0.99272233 0.9960956
000260 6d 6b 7d 3f 48 6f 80 3f b5 b3 7e 3f 74 bb 7c 3f
       0.98992044 1.003396 0.9949296 0.9872353
000270 fd 6f 80 3f b3 31 7d 3f 12 43 7c 3f 78 f5 7e 3f
       1.0034176 0.9890396 0.9853984 0.99593306
000280 06 09 7e 3f 3d 5a 7e 3f b0 76 7e 3f e8 21 7f 3f
       0.9923252 0.9935644 0.9939985 0.9966111
000290 88 ce 7c 3f 33 c3 7e 3f 31 19 7d 3f ef de 7e 3f
       0.9875264 0.995166 0.98866564 0.9955892
0002a0 6b 5a 7f 3f 55 0c 7e 3f ed 88 80 3f ca 82 80 3f
       0.9974734 0.9923757 1.0041786 1.0039914
0002b0 99 df 7d 3f 3a f9 7d 3f 3b af 7f 3f a2 6a 7e 3f
       0.9916931 0.99208415 0.99876755 0.9938146
0002c0 0a 08 80 3f f5 6a 7d 3f cd a1 7d 3f c0 c3 7d 3f
       1.0002453 0.9899133 0.99075013 0.99126816
0002d0 71 f7 7c 3f 92 1d 7d 3f 9b 0f 7d 3f 40 8b 7f 3f
       0.98815066 0.98873246 0.9885194 0.99821854
0002e0 d0 76 7c 3f 35 e9 7e 3f 38 8a 7f 3f d4 2e 7f 3f
       0.98618793 0.99574596 0.9982028 0.9968083
0002f0 7a 4c 80 3f 2d 93 7e 3f 08 ee 7c 3f ba 92 7d 3f
       1.0023339 0.9944332 0.98800707 0.9905201
000300 f7 b7 7e 3f bc 5e 7d 3f af dc 7e 3f 42 c1 7c 3f
       0.9949946 0.9897268 0.99555486 0.9873239
000310 20 78 7f 3f 00 16 7d 3f f4 9f 7e 3f 41 e0 7c 3f
       0.9979267 0.98861694 0.9946282 0.98779684
000320 1f 16 7d 3f a5 94 7c 3f 7d ec 7b 3f 08 c3 7f 3f
       0.9886188 0.98664314 0.9840773 0.9990697
000330 08 94 7f 3f ab 9c 7f 3f 06 bc 7e 3f a4 fd 7d 3f
       0.9983525 0.9984843 0.9950565 0.9921515
000340 aa a0 7b 3f 76 26 7e 3f b4 a6 80 3f e6 28 7e 3f
       0.9829203 0.99277437 1.0050874 0.99281156
000350 49 7d 80 3f 96 e5 7e 3f d7 3e 7d 3f 7d f7 7f 3f
       1.0038234 0.9956907 0.9892401 0.9998701
000360 8e 1f 80 3f 99 a5 7e 3f 2b 62 7f 3f 9d ae 7d 3f
       1.000963 0.9947143 0.9975917 0.99094564
000370 90 1f 7e 3f 90 13 7c 3f 6b 04 80 3f ae 6a 80 3f
       0.9926691 0.9846735 1.0001348 1.0032556
000380 04 0c 7d 3f 8b 62 7f 3f e6 05 7f 3f e2 cf 7c 3f
       0.9884646 0.9975974 0.99618375 0.98754704
000390 ab 3b 7b 3f 6a 8d 7f 3f 5b 98 7e 3f 68 f4 7e 3f
       0.9813792 0.99825156 0.99451226 0.99591684
0003a0 6e df 7e 3f 1d 68 7e 3f 93 07 7f 3f a1 fb 7d 3f
       0.99559677 0.99377614 0.9962093 0.9921208
0003b0 9b 59 7e 3f df 09 80 3f ce 05 80 3f cb 60 7e 3f
       0.9935548 1.0003012 1.0001771 0.99366444
0003c0 40 73 7e 3f a0 ce 7c 3f 1b a7 7f 3f 6a 26 7f 3f
       0.9939461 0.98752785 0.9986436 0.9966799
0003d0 0e dd 7c 3f 37 ae 7f 3f bf 07 80 3f 1e 1b 80 3f
       0.987748 0.99875206 1.0002364 1.0008276
0003e0 86 f9 7f 3f c0 de 7f 3f ac a7 7e 3f c9 d4 7c 3f
       0.9999012 0.99949265 0.99474597 0.98762184
0003f0 22 e0 7d 3f 52 33 7e 3f 13 e4 7e 3f 0b 06 7d 3f
       0.99170125 0.9929706 0.99566764 0.98837346
