output/dmd/restr_e2v/run_010/restr_dmd_best_model_e2v.pth (torch, 273077 bytes, 14 tensors)

convs.0.lin_l.weight f4 [256, 64]
-0.069069915 -0.100516215 -0.055472475 0.08525567 0.0021341783 -0.04103373 -0.097721815 -0.09338141
-0.10509285 -0.05371335 0.027340585 0.019378781 -0.045718104 -0.00037667592 0.083199404 -0.039572183
0.04229072 0.047141507 -0.09027129 0.116553485 -0.09185773 -0.07927979 0.010813014 0.062720954
-0.003646124 -0.11779994 -0.01784934 -0.02563468 0.06031547 0.04700464 0.12203481 0.013640073
0.082873985 0.08258964 -0.01184212 -0.076656595 0.124238685 0.020923069 -0.029985419 -0.12162625
0.02212735 0.115882166 -0.11162863 -0.006371602 -0.10330234 0.04011421 0.00015359784 0.019278223
-0.019383572 0.024544103 0.034790333 0.047544084 0.017281573 0.055906795 0.03709309 0.09440079
-0.11545841 0.027551526 -0.01754725 -0.119460925 0.0872611 0.06717227 -0.07749911 -0.10637849
-0.018858528 0.09162128 0.02804307 0.0004917784 -0.0300991 0.07102667 0.036972325 0.08339548
-0.036959466 -0.049258832 0.12055403 0.018658128 -0.082516864 0.06628168 0.004656623 0.04054664
0.12053883 0.102522604 -0.07796467 -0.030863931 -0.104235984 0.039189 -0.07606841 0.030410876
0.07702283 -0.08103509 -0.039128363 0.11925902 0.042533863 0.07919904 0.09057728 0.04333109
0.013659747 -0.05771945 0.04397736 0.09188461 0.07681129 -0.0044183065 -0.065729104 -0.08647451
-0.0910648 0.031082585 0.009145497 -0.107060626 0.06162352 -0.10012787 -0.047612626 -0.030594457
-0.09850948 -0.07049558 0.037810814 0.005387496 0.066837765 0.07751137 -0.1242901 0.09015077
-0.063657425 0.054990545 0.05507972 -0.06346937 -0.10996234 0.104887284 -0.022511398 0.018481102
-0.02626147 -0.08912673 0.06124041 0.06326436 0.058909006 -0.11775305 -0.04476232 -0.11521452
0.08832845 0.11304743 0.003503348 -0.07006311 -0.049348645 0.04497481 -0.06991537 0.07074369
-0.0456331 0.098581135 0.09234798 0.11563241 0.10889016 -0.019695183 -0.064876355 0.019989284
0.07824967 -0.10960722 0.025478153 0.038367607 -0.117126465 0.07898819 -0.09117286 0.10119052
-0.059224997 -0.02397454 0.06995666 -0.11687771 -0.009933507 0.09747771 0.048619773 -0.059145074
0.049135465 -0.024246976 -0.09704405 -0.09814622 0.10560413 -0.0026128998 0.096830435 0.09461327
0.03757174 0.1091713 0.08080132 -0.095339194 0.08927367 -0.07585622 -0.1138018 -0.0871969
-0.019573288 0.09158244 0.03069554 0.113429666 -0.02442149 -0.05042422 0.07885595 0.047855996
-0.06951324 -0.0044560083 -0.090367734 0.056520987 0.11475717 0.01187228 0.021811703 0.06482008
-0.08261949 -0.05789369 0.052492965 0.08459842 -0.09216601 0.08582575 0.037226968 -0.02092017
0.053766984 0.08382136 0.058686934 -0.045122247 0.11188445 -0.018935455 -0.013642756 0.12105646
-0.057192955 0.002396899 -0.10434259 0.12148586 0.025826303 0.113967724 0.028169628 0.120195426
0.014288255 -0.020684114 0.08803136 -0.04595904 -0.11970553 -0.0649942 0.105342306 -0.11187143
0.060715277 0.016882097 0.110089555 0.115977615 0.018912274 -0.027388206 -0.009330787 0.00835605
0.0425827 -0.036630403 0.037933886 0.06614576 0.004673235 0.07347158 0.017306285 -0.022998571
-0.097958595 0.04247979 -0.012121083 0.04194243 -0.054030977 0.11460086 -0.067075886 -0.057297137
00000000: 8774 8dbd 72db cdbd 1b37 63bd 869a ae3d
00000010: 92dd 0b3b fc12 28bd 6022 c8bd c13e bfbd
00000020: ec3a d7bd 8802 5cbd 5df9 df3c 40c0 9e3c
00000030: e842 3bbd 967c c5b9 7364 aa3d 7116 22bd
00000040: 0939 2d3d 7417 413d 27e0 b8bd 98b3 ee3d
00000050: e81f bcbd 715d a2bd 1129 313c d873 803d
00000060: cff3 6ebb 1841 f1bd c738 92bc d2ff d1bc
00000070: 5b0d 773d f087 403d 63ed f93d 9d7a 5f3c
00000080: d6b9 a93d c224 a93d 7405 42bc 22fe 9cbd
00000090: da70 fe3d db66 ab3c fba3 f5bc 2f17 f9bd
000000a0: 6b44 b53c a153 ed3d 8d9d e4bd dfc8 d0bb
000000b0: 2d90 d3bd cc4e 243d 1b0f 2139 5ded 9d3c
000000c0: 4cca 9ebc b710 c93c 4f80 0e3d 96bd 423d
000000d0: 1692 8d3c 86fe 643d edee 173d 3455 c13d
000000e0: 7575 ecbd bdb3 e13c 40bf 8fbc eea7 f4bd
000000f0: f3b5 b23d 9d91 893d dab7 9ebd f7dc d9bd
00000100: 337d 9abc f0a3 bb3d 95ba e53c b1ea 003a
00000110: 6392 f6bc 6e76 913d 4b70 173d 40cb aa3d
00000120: cf62 17bd a1c3 49bd 08e5 f63d eed8 983c
00000130: 9afe a8bd b0be 873d 9696 983b 3c14 263d
00000140: 10dd f63d 5ff7 d13d f1ab 9fbd 5bd6 fcbc
00000150: ad79 d5bd a584 203d c1c9 9bbd 3b20 f93c
00000160: 25be 9d3d baf5 a5bd 1045 20bd 133e f43d
00000170: fd37 2e3d 1b33 a23d 9580 b93d f17b 313d
00000180: 22cd 5f3c 3b6b 6cbd 9b21 343d 002e bc3d
00000190: 3d4f 9d3d 71c7 90bb fb9c 86bd 8c19 b1bd
000001a0: 2f80 babd e8a0 fe3c ffd6 153c 9a42 dbbd
000001b0: f268 7c3d d70f cdbd 7505 43bd 3aa1 fabc
000001c0: 57bf c9bd fd5f 90bd 83df 1a3d 9889 b03b
000001d0: 3de2 883d 48be 9e3d cf8b febd f8a0 b83d
000001e0: d35e 82bd c43d 613d 469b 613d 3bfc 81bd
000001f0: ef33 e1bd 25cf d63d d369 b8bc ae65 973c
00000200: 4b22 d7bc 1388 b6bd 39d7 7a3d bf90 813d
00000210: 924a 713d 8328 f1bd b258 37bd 97f5 ebbd
00000220: 8ce5 b43d 6985 e73d 6d98 653b 3f7d 8fbd
00000230: ce21 4abd 8237 383d ca2f 8fbd 11e2 903d
00000240: c6e9 3abd e8e4 c93d f020 bd3d afd0 ec3d
00000250: ce01 df3d cb57 a1bc e5dd 84bd 91c0 a33c
00000260: 5d41 a03d c079 e0bd 8fb7 d03c 5a27 1d3d
00000270: 00e0 efbd 8fc4 a13d d6b8 babd fa3c cf3d
00000280: e995 72bd 4166 c4bc 7045 8f3d 955d efbd
00000290: 26c0 22bc 65a2 c73d 8725 473d 1b42 72bd
000002a0: 4542 493d 98a1 c6bc 08bf c6bd e300 c9bd
000002b0: fa46 d83d 2f3d 2bbb 094f c63d 9ac4 c13d
000002c0: d3e4 193d 3495 df3d 2a7b a53d 3241 c3bd
000002d0: 1dd5 b63d 825a 9bbd eb10 e9bd 4a94 b2bd
000002e0: 2958 a0bc 938f bb3d 3775 fb3c d04d e83d
000002f0: 940f c8bc a089 4ebd 3a7f a13d a604 443d
00000300: f55c 8ebd b503 92bb b812 b9bd 8d82 673d
00000310: cf05 eb3d f483 423c 75ae b23c 64c0 843d
00000320: 6834 a9bd ef21 6dbd dd02 573d f041 ad3d
00000330: 88c1 bcbd 69c5 af3d 4e7b 183d c760 abbc
00000340: c53a 5c3d 88aa ab3d b661 703d 1bd2 38bd
00000350: ad23 e53d 871e 9bbc de85 5fbc 73ec f73d
00000360: 2943 6abd 4b15 1d3b 91b1 d5bd 94cd f83d
00000370: af91 d33c e967 e93d fec3 e63c 0529 f63d
00000380: 4919 6a3c bb71 a9bc c949 b43d 8c3f 3cbd
00000390: 2c28 f5bd ae1b 85bd b5bd d73d d91c e5bd
000003a0: 95b0 783d 534c 8a3c a276 e13d ac85 ed3d
000003b0: eaed 9a3c 3b5d e0bc 28e0 18bc d0e7 083c
000003c0: 326b 2e3d c309 16bd 9060 1b3d 6e77 873d
000003d0: f021 993b 4578 963d e9c5 8d3c 8067 bcbc
000003e0: 849e c8bd 4aff 2d3d 8297 46bc d3cb 2b3d
000003f0: 964f 5dbd dbb3 ea3d 155f 89bd 67b0 6abd

convs.0.lin_l.bias f4 [256]
0.11918291 0.027307136 0.07878869 0.0692586 -0.039308544 0.11013055 -0.016169615 -0.12439139
-0.010228242 -0.07743374 0.011197416 -0.08832998 -0.054793052 0.12698287 -0.05291524 0.093696
0.016022006 0.11035065 -0.10407173 0.016659234 0.02856244 0.09378856 -0.016999882 0.043528773
0.047476277 -0.0042350427 -0.033773396 0.09713253 -0.12566204 -0.08102148 0.09628527 -0.113390096
-0.053340517 0.0117682135 0.04880082 0.08714837 -0.0529724 -0.034866385 0.06860033 0.022365293
-0.017923355 -0.09796263 0.08972116 0.115521215 0.104245484 -0.054367986 -0.102760054 0.01160958
0.10742654 -0.117256954 -0.08675332 -0.022022983 -0.07614307 0.01079202 -0.09643875 -0.032889485
-0.010520173 0.071912006 0.092223965 -0.09358025 -0.09889717 -0.11168337 -0.114473514 -0.12638421
0.07882447 0.03719195 -0.022832379 -0.091469206 -0.027590502 -0.09311136 -0.0010204792 0.014613098
0.04870275 -0.07102209 0.09635575 -0.06409337 0.092915565 -0.013170049 0.055440348 -0.05252439
0.0773756 -0.10472457 0.105068065 -0.09093286 0.050452042 0.029935429 -0.04408374 0.11023826
-0.118590675 0.11244364 -0.011048947 0.06095055 -0.009239871 0.05002568 -0.12006998 0.043005273
0.0019970515 -0.06697498 0.024116503 -0.113901526 -0.09769793 0.072706275 0.032178875 -0.029878754
0.12125948 0.023191163 0.014998699 -0.043508623 0.062413152 0.05647805 -0.0012907776 0.0060592648
0.0772452 0.017103722 0.10417419 0.06920207 -0.060763005 0.03892923 -0.043102477 0.0016952252
-0.05121013 0.040771883 0.10227755 -0.047711477 0.054285686 -0.12557255 -0.074385725 -0.052135937
-0.094595656 -0.0629541 0.06380928 0.0805862 0.08296089 0.010129381 0.078007214 -0.019345894
-0.0763613 -0.068814695 0.03378159 0.08039645 0.054420006 -0.07111103 0.073644854 -0.10876425
0.10226862 0.09874011 -0.011443021 -0.017348243 0.055967234 0.011696673 -0.0844005 0.03815695
0.09496042 0.026541438 -0.069269836 0.09776069 -0.07840001 -0.12050367 -0.06970125 0.03680639
-0.04773694 0.057266373 -0.079115294 0.06308145 0.014708018 -0.0662518 0.040452085 -0.108905934
-0.07945687 -0.07286856 0.068593904 -0.09957473 -0.10063534 -0.07642485 -0.052705783 0.1292475
0.03218151 0.019225754 -0.063699186 -0.070275284 0.07808442 0.0096920645 0.09069319 -0.014978121
-0.054740794 0.099884294 -0.0342104 0.054359127 0.10189241 0.027875382 -0.010979118 -0.015848074
-0.123197876 0.067080386 0.09313581 -0.098421484 -0.0335735 0.0031237146 0.07531244 -0.11931796
-0.11266385 0.08731866 0.11782718 -0.05173419 -0.01323154 -0.03398028 0.056722604 0.06176101
-0.0014560302 -0.04341436 0.049740717 0.10658699 0.03620958 0.10367478 -0.056617506 0.04991493
0.043756615 0.05733503 0.1174927 -0.09636811 -0.038941223 0.08663525 0.046647374 0.041704524
-0.037052866 0.10695543 -0.08200006 0.09000191 -0.0085963 -0.0055786306 -0.05217957 -0.093925804
-0.09905961 0.062042464 -0.025467437 0.03923277 -0.091179356 -0.09263582 -0.093898006 -0.10183588
-0.04150669 0.005306634 0.049241085 0.10937517 0.09353613 -0.013950104 -0.022607561 0.09170925
-0.029716264 0.04404639 0.00086684094 0.062228013 0.069185175 0.061049823 0.0043500992 -0.12338983
00000000: 2b16 f43d 37b3 df3c f75b a13d 74d7 8d3d
00000010: ff01 21bd 208c e13d 2476 84bc eac0 febd
00000020: 5b94 27bc 9595 9ebd 5e75 373c 59e6 b4bd
00000030: ae6e 60bd cc07 023e a7bd 58bd b0e3 bf3d
00000040: 9540 833c 86ff e13d 8f23 d5bd f278 883c
00000050: c7fb e93c 3714 c03d 5643 8bbc 3a4b 323d
00000060: 7c76 423d 1dc6 8abb f955 0abd 6bed c63d
00000070: 8dad 00be 97ee a5bd 3631 c53d 1139 e8bd
00000080: 967b 5abd 77cf 403c 5ee3 473d d87a b23d
00000090: 96f9 58bd 0ed0 0ebd 547e 8c3d 6b37 b73c
000000a0: 00d4 92bc a2a0 c8bd babf b73d 6396 ec3d
000000b0: a87e d53d f7b0 5ebd dd73 d2bd 1c36 3e3c
000000c0: 7202 dc3d 6a24 f0bd baab b1bd 8b69 b4bc
000000d0: e6f0 9bbd 03d1 303c ae81 c5bd 20b7 06bd
000000e0: ce5c 2cbc 9a46 933d ebdf bc3d 01a7 bfbd
000000f0: 998a cabd 40ba e4bd 1771 eabd dd6a 01be
00000100: b96e a13d 9656 183d f80a bbbc 3554 bbbd
00000110: 7a05 e2bc 2bb1 bebd 9ac1 85ba c76b 6f3c
00000120: 897c 473d 0874 91bd 2a56 c53d 6343 83bd
00000130: 844a be3d 30c7 57bc 6b15 633d d123 57bd
00000140: 1977 9e3d d679 d6bd ed2d d73d 023b babd
00000150: cda6 4e3d 253b f53c 2791 34bd 99c4 e13d
00000160: abdf f2bd da48 e63d a506 35bc 49a7 793d
00000170: d462 17bc bae7 4c3d 40e7 f5bd 4c26 303d
00000180: f7e0 023b 2e2a 89bd f98f c53c 3445 e9bd
00000190: da15 c8bd 07e7 943d ffcd 033d 4ac4 f4bc
000001a0: e456 f83d 65fb bd3c 1abd 753c 1936 32bd
000001b0: efa4 7f3d 8755 673d 4f2f a9ba cc8c c63b
000001c0: bb32 9e3d 1b1d 8c3c 4759 d53d d1b9 8d3d
000001d0: a1e2 78bd 4274 1f3d 398c 30bd 5232 de3a
000001e0: b7c1 51bd 6b00 273d e476 d13d 1c6d 43bd
000001f0: ab5a 5e3d 1796 00be 8b57 98bd 7e8c 55bd
00000200: 5ebb c1bd 14ee 80bd 71ae 823d 610a a53d
00000210: 66e7 a93d b4f5 253c 3fc2 9f3d 487b 9ebc
00000220: 5063 9cbd b8ee 8cbd 915e 0a3d e5a6 a43d
00000230: 83e7 5e3d a9a2 91bd 1dd3 963d cbbf debd
00000240: 3672 d13d 4138 ca3d 827b 3bbc e71d 8ebc
00000250: e63d 653d 67a3 3f3c 2bda acbd 764a 1c3d
00000260: 9c7a c23d 6e6d d93c 58dd 8dbd c236 c83d
00000270: 2f90 a0bd a1ca f6bd 87bf 8ebd 4cc2 163d
00000280: cf87 43bd 2590 6a3d 3307 a2bd d930 813d
00000290: e6f9 703c 06af 87bd 16b1 253d 130a dfbd
000002a0: 49ba a2bd 1d3c 95bd f67a 8c3d d6ed cbbd
000002b0: e719 cebd a284 9cbd 05e2 57bd 7559 043e
000002c0: c2d0 033d 547f 9d3c b874 82bd 7dec 8fbd
000002d0: b9ea 9f3d 77cb 1e3c 5abd b93d cb66 75bc
000002e0: e237 60bd 2390 cc3d 3420 0cbd ada7 5e3d
000002f0: f8ac d03d ea5a e43c c2e1 33bc d2d3 81bc
00000300: 2b4f fcbd 7161 893d fdbd be3d 3491 c9bd
00000310: 5e84 09bd 3cb7 4c3b 693d 9a3d fa5c f4bd
00000320: 4ebc e6bd 20d4 b23d 604f f13d 3be7 53bd
00000330: 1ac9 58bc e82e 0bbd f655 683d 1df9 7c3d
00000340: 44d8 beba 42d3 31bd ecbc 4b3d 484a da3d
00000350: 7f50 143d 7153 d43d c2e7 67bd 9973 4c3d
00000360: 233a 333d 23d8 6a3d 03a0 f03d a55c c5bd
00000370: d580 1fbd d26d b13d 5111 3f3d 5dd2 2a3d
00000380: bfc4 17bd 730b db3d a6ef a7bd ec52 b83d
00000390: 7fd7 0cbc f2cc b6bb 3fba 55bd 2c5c c0bd
000003a0: c4df cabd 3d20 7e3d 16a1 d0bc 8bb2 203d
000003b0: 3ebc babd d9b7 bdbd 994d c0bd 548f d0bd
000003c0: eb02 2abd 46e3 ad3b 05b1 493d 1700 e03d
000003d0: df8f bf3d fa8e 64bc 7e33 b9bc 0fd2 bb3d
000003e0: 866f f3bc fd69 343d b63c 633a cde2 7e3d
000003f0: f5b0 8d3d 610f 7a3d 478b 8e3b cfb3 fcbd

convs.0.lin_r.weight f4 [256, 64]
-0.03636104 -0.04948535 -0.123096384 0.12699468 0.12184513 -0.07562857 -0.091720715 -0.1181259
0.016180722 -0.12107588 0.023785323 -0.08419872 -0.08192204 0.11553865 0.09091724 0.042450175
0.091525584 -0.00065229833 -0.022847155 0.032886095 -0.028730545 -0.07549027 -0.0028266222 -0.11832577
0.040502112 -0.09261914 -0.026563978 0.061783478 0.084334895 0.0706347 0.11339126 -0.009206128
0.07844329 -0.121104516 -0.043756004 -0.1060295 0.088522695 0.09719485 0.06366681 -0.08450081
-0.026552133 0.119907156 0.04311817 -0.057767734 -0.11569561 -0.00021765943 -0.0031137953 -0.059692554
0.09550216 0.017856147 -0.07910726 -0.014291763 0.02447905 0.058700703 0.07158598 0.09072114
-0.10209969 0.0015006032 -0.02970593 -0.05604153 0.009400866 0.020364247 0.06744063 -0.046393927
0.07365309 -0.09432617 0.007587828 0.041461933 0.013237352 0.09679126 0.0018653604 0.083863646
0.022466995 -0.10028197 0.05030748 -0.04867255 0.06332152 0.064703874 -0.12010801 0.07730552
0.043824222 -0.061457302 0.08659609 -0.0154158035 0.010309024 0.076759495 -0.040412996 -0.018623924
0.03992446 0.017904349 -0.07570864 0.020778548 0.059705287 -0.09697817 -0.12274012 0.0021315617
0.08825988 0.0462413 -0.010115478 0.118114054 0.037506144 0.029051656 -0.0842041 -0.0799606
0.02819371 -0.018849313 -0.09834744 0.121614166 -0.01636988 -0.08506003 0.077281944 0.048244946
-0.06448117 0.102906756 0.083365075 0.020745836 -0.04989044 -0.10786538 0.08752574 0.09599983
0.11478029 -0.051100053 0.010652435 -0.07512779 -0.096582346 0.05418241 0.06385498 -0.06595486
0.11228054 0.044426166 0.0005790419 -0.06557029 0.017279563 0.076288186 0.007818955 -0.03437279
-0.048456278 -0.11398164 -0.052780103 -0.03434712 0.07626525 0.034262806 -0.07164441 0.03534244
-0.12208424 -0.109930746 0.012356532 0.101509355 0.029451571 0.049523514 -0.06511526 -0.015781112
-0.044881735 -0.020797752 0.094311155 -0.09817882 0.020377468 0.09310269 0.11268988 0.032630567
-0.010015159 -0.027644685 -0.09584671 -0.1268851 -0.06441444 -0.032063365 0.10802636 -0.027420733
-0.016383087 0.07738759 0.048248384 -0.0224728 -0.025506062 -0.07551761 -0.048647083 -0.100155964
-0.00025357335 -0.123577625 -0.042953774 -0.043077413 0.09221604 0.038570188 0.047074486 0.08314917
-0.091280885 -0.02537512 0.09048305 0.00750818 -0.0072872927 0.018995056 -0.040039532 -0.05629352
-0.029511722 -0.00604357 -0.05928805 0.105428144 0.036268227 -0.025872406 -0.013893481 -0.017257798
-0.049708553 -0.056455158 0.022664372 -0.09004584 0.08667915 0.087728195 -0.11520525 -0.0079760235
0.085658975 0.0015446221 -0.05284512 0.07415305 -0.11658529 -0.008591963 -0.035738062 0.12704548
-0.07014575 -0.054971803 0.074151255 0.06309549 0.018616093 -0.032190777 -0.06795762 0.049748756
-0.053125765 -0.09559212 0.0030699924 0.0031683103 -0.024495013 0.08351013 0.01935536 0.010174788
0.04140003 0.07282014 -0.049045548 0.099394485 -0.07905234 -0.029421642 0.08829447 0.008766453
-0.07646345 0.07755736 0.08129772 0.045209017 -0.09480196 0.10143016 0.028756501 -0.055494573
0.029835038 -0.08013604 0.056144603 0.106232814 -0.052497886 -0.043241315 0.12195424 -0.0023604108
00000000: 50ef 14bd 26b1 4abd f519 fcbd e50a 023e
00000010: f189 f93d 27e3 9abd 12d8 bbbd feeb f1bd
00000020: 6f8d 843c a2f6 f7bd 70d9 c23c 6170 acbd
00000030: bec6 a7bd 879f ec3d d132 ba3d 3ce0 2d3d
00000040: c471 bb3d 00ff 2aba f529 bbbc 92b3 063d
00000050: 525c ebbc a59a 9abd da3e 39bb c854 f2bd
00000060: 8be5 253d 1baf bdbd b39c d9bc ac10 7d3d
00000070: c6b7 ac3d eda8 903d ad39 e83d 4dd5 16bc
00000080: e0a6 a03d a505 f8bd 7f39 33bd ff25 d9bd
00000090: 634b b53d 180e c73d bf63 823d c30e adbd
000000a0: dc83 d9bc e291 f53d ae9c 303d dc9d 6cbd
000000b0: d2f1 ecbd 823b 64b9 d110 4cbb 2e80 74bd
000000c0: a396 c33d 0e47 923c fd02 a2bd 0028 6abc
000000d0: 4a88 c83c 2670 703d ac9b 923d 01cc b93d
000000e0: a419 d1bd e3af c43a da59 f3bc ce8b 65bd
000000f0: 1706 1a3c ecd2 a63c 501e 8a3d 8f07 3ebd
00000100: 6ed7 963d 142e c1bd 51a3 f83b fdd3 293d
00000110: 7ae1 583c 7f3a c63d 1c7f f43a b4c0 ab3d
00000120: b40c b83c a260 cdbd 370f 4e3d de5c 47bd
00000130: b7ae 813d 7783 843d 30fb f5bd 5b52 9e3d
00000140: 0781 333d a7ba 7bbd 4a59 b13d 9192 7cbc
00000150: 2ee7 283c 1534 9d3d 1988 25bd 3391 98bc
00000160: d587 233d 24ac 923c 220d 9bbd c637 aa3c
00000170: 888d 743d 7e9c c6bd 2c5f fbbd acb1 0b3b
00000180: 99c1 b43d 8467 3d3d 64bb 25bc c8e5 f13d
00000190: 0ba0 193d bdfd ed3c 3373 acbd 62c2 a3bd
000001a0: 7ff6 e63c e069 9abc 626a c9bd d910 f93d
000001b0: 201a 86bc f433 aebd ff45 9e3d 7e9c 453d
000001c0: b40e 84bd c7c0 d23d 4fbb aa3d 2cf3 a93c
000001d0: eb59 4cbd 86e8 dcbd b240 b33d 8f9b c43d
000001e0: ee11 eb3d 4a4e 51bd 8d87 2e3c 99dc 99bd
000001f0: f7cc c5bd 60ee 5d3d 66c6 823d 5713 87bd
00000200: 57f3 e53d 36f8 353d d8ca 173a b749 86bd
00000210: df8d 8d3c fb3c 9c3d 131b 003c 7cca 0cbd
00000220: 177a 46bd 356f e9bd f32f 58bd 91af 0cbd
00000230: f530 9c3d 2857 0c3d 4eba 92bd 3cc3 103d
00000240: 4d07 fabd 5f23 e1bd 0d73 4a3c 23e4 cf3d
00000250: 6c44 f13c 2bd9 4a3d 265b 85bd 6447 81bc
00000260: e9d5 37bd 0c60 aabc 3526 c13d fa11 c9bd
00000270: a6ee a63c a0ac be3d f4c9 e63d a1a7 053d
00000280: 9f16 24bc 1b77 e2bc 484b c4bd 2bee 01be
00000290: b8eb 83bd e054 03bd ed3c dd3d 72a1 e0bc
000002a0: d335 86bc 637d 9e3d 19a0 453d e118 b8bc
000002b0: 17f2 d0bc faa8 9abd 2a42 47bd 921e cdbd
000002c0: 0af2 84b9 4416 fdbd 4cf0 2fbd f171 30bd
000002d0: c3db bc3d c6fb 1d3d 2dd1 403d 1d4a aa3d
000002e0: 79f1 babd 7cdf cfbc 2d4f b93d 2e07 f63b
000002f0: 3eca eebb 859b 9b3c 7e00 24bd 0994 66bd
00000300: 91c2 f1bc 2409 c6bb 07d8 72bd b6ea d73d
00000310: fe8d 143d 5ef2 d3bc 7ca1 63bc 3a60 8dbc
00000320: 329b 4bbd 863d 67bd a2aa b93c f469 b8bd
00000330: d784 b13d d7aa b33d bbf0 ebbd dead 02bc
00000340: f96d af3d eb74 ca3a 2074 58bd 8edd 973d
00000350: 45c4 eebd 4ec5 0cbc 1362 12bd 3618 023e
00000360: 93a8 8fbd 1d2a 61bd 9ddc 973d 3538 813d
00000370: c780 983c 7ada 03bd 5d2d 8bbd 5ac5 4b3d
00000380: 679a 59bd cdc5 c3bd ed31 493b 6da3 4f3b
00000390: c4a9 c8bc 5c07 ab3d 228f 9e3c 27b4 263c
000003a0: 1493 293d ba22 953d fce3 48bd 568f cb3d
000003b0: 31e6 a1bd a805 f1bc bbd3 b43d 2ba1 0f3c
000003c0: df98 9cbd 65d6 9e3d 6b7f a63d 172d 393d
000003d0: 8827 c2bd 9eba cf3d c192 eb3c 474e 63bd
000003e0: 9c68 f43c 5d1e a4bd e2f7 653d 9790 d93d
000003f0: 0608 57bd ce1d 31bd 25c3 f93d 1fb1 1abb

convs.1.lin_l.weight f4 [64, 256]
0.033377655 0.081854075 0.014151033 0.022472775 0.06599585 0.058283776 0.037302192 -0.01998278
-0.0043196185 0.035137884 0.0065583442 -0.04051036 -0.0053691897 -0.00851319 0.02203082 0.021685634
0.0534249 -0.0014746947 0.024093483 0.026201403 0.006635758 -0.026908275 0.08186296 0.028140057
0.07198928 -0.043891642 0.023442933 -0.028804116 0.12328091 0.027593415 0.027630651 0.002812659
0.07220247 0.009525935 -0.028085662 0.03815176 0.0032500057 -0.03578774 0.035236116 -0.02332329
0.020322384 0.012973111 0.007031079 0.06485882 0.06650336 0.03769364 0.07055231 0.012958681
0.025583783 -0.025881693 -0.050954547 -0.05542174 0.020492906 -0.026953414 0.029246379 -0.013485072
-0.006742735 -0.019176325 -0.047837075 0.072673045 0.07065686 0.06859884 -0.008302017 0.06305338
-0.0013602936 0.02697349 0.09215248 0.022563215 -0.036041576 -0.034196656 -0.044123705 0.016765203
0.03306704 0.0020579214 -0.023631556 -0.04983384 -0.01828601 0.0031650888 0.029589374 -0.0368216
0.06862008 0.06780427 -0.021282699 -0.006339715 0.006424785 -0.020955984 -0.0052619204 0.009612439
-0.022401925 -0.015242479 0.022599827 0.052019067 0.035898343 0.008068043 0.04273744 0.033576787
0.06314754 -0.029337782 0.044133093 -0.034083474 0.09777678 -0.019560112 -0.012497811 -0.031120317
0.050214294 0.044769645 0.03976585 0.07407116 0.0076980963 -0.007577004 -0.001040943 0.053284217
0.03037704 0.021562194 -0.018712087 0.0072368835 0.047860414 0.07003755 0.0318226 0.08546556
-0.0013726433 0.04387234 0.02609724 0.024747962 -0.035449676 0.07856955 -0.04161092 0.06361486
0.00061466 -0.0041728523 0.008845264 -0.033098187 -0.006484113 -0.0011452493 -0.008127444 -0.027185362
-0.02628265 0.037027683 -0.032878183 0.015698528 0.011800534 -0.04423592 0.021698548 0.029509729
-0.024927232 0.026442362 0.053356122 0.03901965 0.04681413 0.06909535 -0.025390683 -0.028486943
0.051052313 0.0036438827 -0.03405258 -0.01158616 -0.034685593 0.055048067 0.0095161265 -0.0043218234
-0.012400835 0.067592114 -0.021649836 -0.009820137 -0.033370506 0.07091524 0.06425276 0.005818891
0.05489284 0.07794001 0.04701995 -0.043153916 0.049226638 0.023790965 -0.006684683 0.07492044
-0.015919125 -0.051246513 -0.03605248 0.014264182 -0.017247917 0.014471839 0.013498897 0.032451134
0.09216447 0.050528996 0.041209836 0.038008776 0.0068845544 0.06505478 -0.022102779 0.03743617
0.0016470723 0.043736465 -0.026372619 0.042863227 -0.018985055 -0.048556767 -0.0153292045 0.056300476
0.054042477 0.0055345576 0.0388927 0.02479703 0.0651991 -0.045362823 -0.043354627 -0.00014867503
-0.032034475 0.043994054 0.03126822 0.07776313 0.08895438 0.062424805 0.07598422 0.020578204
-0.010200396 -0.030184185 -0.013066511 -0.04352001 0.058703806 -0.013957496 -0.02804685 0.06428597
0.059941497 0.035439733 0.061185457 0.0014761057 -0.027840164 -0.0068400553 0.06423561 0.06356
-0.014738824 -0.043151952 0.021377776 0.070908 0.07664145 0.038066085 0.00421653 0.079300724
0.039636433 -0.021347612 0.023471056 0.0020710037 -0.04899922 0.049043473 0.05927538 0.010754539
0.0320877 -0.020346377 0.016702425 0.018154912 0.04218697 0.0115447175 0.05892551 0.0036357553
00000000: 02b7 083d 1ca3 a73d bcd9 673c d318 b83c
00000010: d528 873d f8ba 6e3d 2fca 183d edb2 a3bc
00000020: 968b 8dbb beec 0f3d 61e7 d63b 31ee 25bd
00000030: 07f0 afbb e87a 0bbc fa79 b43c 12a6 b13c
00000040: 11d4 5a3d 8b4a c1ba b25f c53c 53a4 d63c
00000050: c670 d93b be6e dcbc c4a7 a73d fa85 e63c
00000060: 1e6f 933d b9c7 33bd 650b c03c 9cf6 ebbc
00000070: b47a fc3d 960b e23c ad59 e23c 9654 383b
00000080: e3de 933d ab12 1c3c e713 e6bc 0545 1c3d
00000090: 0cfe 543b 2a96 12bd bf53 103d 7c10 bfbc
000000a0: 217b a63c 2c8d 543c f764 e63b b3d4 843d
000000b0: ea32 883d a564 1a3d bb7d 903d a650 543c
000000c0: 1595 d13c d805 d4bc b7b5 50bd e801 63bd
000000d0: bde0 a73c 68cd dcbc 1a96 ef3c 7ef0 5cbc
000000e0: 29f2 dcbb ab17 9dbc cff0 43bd 9bd5 943d
000000f0: 8bb4 903d 8c7d 8c3d 2f05 08bc 2122 813d
00000100: e14b b2ba 82f7 dc3c 70ba bc3d 7ed6 b83c
00000110: 55a0 13bd cb11 0cbd 0fbb 34bd 2e57 893c
00000120: 4e71 073d 31de 063b f796 c1bc 921e 4cbd
00000130: 8bcc 95bc 616d 4f3b 6a65 f23c 3fd2 16bd
00000140: af88 8c3d f7dc 8a3d 0e59 aebc 62bd cfbb
00000150: 0187 d23b e2ab abbc 306c acbb 7e7d 1d3c
00000160: 3e84 b7bc 97bb 79bc 4623 b93c f211 553d
00000170: 240a 133d d32f 043c 740d 2f3d d087 093d
00000180: 7f53 813d ca55 f0bc e7c4 343d 1d9b 0bbd
00000190: 313f c83d 873c a0bc 9ec3 4cbc 09f0 febc
000001a0: 81ad 4d3d 6060 373d 84e1 223d 9fb2 973d
000001b0: 5040 fc3b 8448 f8bb 4070 88ba 8d40 5a3d
000001c0: 45d9 f83c 33a3 b03c 174a 99bc 6123 ed3b
000001d0: 4809 443d d96f 8f3d 6a58 023d 9108 af3d
000001e0: 44ea b3ba 7cb3 333d e1c9 d53c 3dbc ca3c
000001f0: ae33 11bd 12e9 a03d 3670 2abd 8248 823d
00000200: 2221 213a 6cbc 88bb baeb 103c f791 07bd
00000210: af78 d4bb 311c 96ba f928 05bc d6b3 debc
00000220: b64e d7bc 57aa 173d 46ab 06bd 339a 803c
00000230: 0757 413c b930 35bd 27c1 b13c 63be f13c
00000240: 3234 ccbc a79d d83c f38b 5a3d 12d3 1f3d
00000250: 2cc0 3f3d dd81 8d3d 1f00 d0bc 735d e9bc
00000260: 3b1c 513d 35ce 6e3b b87a 0bbd e1d3 3dbc
00000270: 7b12 0ebd 157a 613d 87e9 1b3c 159e 8dbb
00000280: df2c 4bbc bc6d 8a3d ff5a b1bc a4e4 20bc
00000290: 83af 08bd 023c 913d f396 833d 65ac be3b
000002a0: 51d7 603d 039f 9f3d fe97 403d 29c2 30bd
000002b0: dfa1 493d 45e5 c23c 2f0b dbbb e36f 993d
000002c0: d368 82bc dde7 51bd c4ab 13bd 51b4 693c
000002d0: 814b 8dbc 4b1b 6d3c 7a2a 5d3c 7beb 043d
000002e0: bac0 bc3d 7ef7 4e3d a5cb 283d 17af 1b3d
000002f0: d497 e13b 713b 853d e310 b5bc ab56 193d
00000300: 93e2 d73a 0225 333d 640b d8bc 5a91 2f3d
00000310: 8c86 9bbc 76e3 46bd 5827 7bbc 549b 663d
00000320: a55b 5d3d 3c5b b53b f44d 1f3d 2423 cb3c
00000330: 1b87 853d 5ece 39bd 9f94 31bd a6e5 1bb9
00000340: 9536 03bd 1c33 343d 1b13 003d 4742 9f3d
00000350: b72d b63d 27b1 7f3d 9d9d 9b3d 9f93 a83c
00000360: 901f 27bc d344 f7bc eb14 56bc 0a42 32bd
00000370: 6773 703d fbad 64bc 82c2 e5bc 5da8 833d
00000380: 3785 753d 4129 113d 9a9d 7a3d e379 c13a
00000390: 0e11 e4bc 8b22 e0bb f68d 833d bf2b 823d
000003a0: 1c7b 71bc 1ac0 30bd 7220 af3c 3738 913d
000003b0: 31f6 9c3d 2feb 1b3d d12a 8a3b 6b68 a23d
000003c0: d059 223d 30e1 aebc 5f46 c03c adb9 073b
000003d0: 68b3 48bd cfe1 483d beca 723d ce33 303c
000003e0: 646e 033d 72ad a6bc 86d3 883c 9cb9 943c
000003f0: 3fcc 2c3d 0e26 3d3c e05b 713d da45 6e3b

convs.1.lin_l.bias f4 [64]
-0.02687781 -0.008357679 0.051027276 -0.0007268792 -0.009990739 -0.03629031 0.020534284 0.03809622
0.06380728 0.013251664 -0.016428122 -0.089428164 -0.04522348 -0.042255696 -0.04893671 0.004333268
-0.0029879212 0.007825757 -0.024761856 0.00042514264 -0.0313591 -0.034880716 -0.003598565 -0.050735705
-0.0029683688 0.021240117 0.022677073 -0.016825994 0.063053906 -0.039171834 0.009241658 -0.0371631
0.06348379 0.03934426 -0.03298742 0.067391835 -0.023071142 -0.05239368 -1.4369871e-06 -0.050071705
0.030121021 0.046390235 -0.075926825 -0.032613277 0.022611566 -0.064279474 0.031027108 -0.015024139
0.0037907409 0.035591934 -0.00046962485 0.012292187 -0.05087153 0.06014897 -0.043030336 0.06698087
0.024500776 0.02822078 0.0039178412 -0.04285574 0.011314965 0.044908404 -0.012629095 -0.02063234
00000000: da2e dcbc a5ee 08bc fa01 513d 0a8c 3eba
00000010: 32b0 23bc 26a5 14bd 8437 a83c c80a 1c3d
00000020: 64ad 823d 821d 593c 4594 86bc 1d26 b7bd
00000030: 413c 39bd 4f14 2dbd dc71 48bd 16fe 8d3b
00000040: 00d1 43bb 9b37 003c 60d9 cabc aee5 de39
00000050: 6672 00bd 15df 0ebd e7d5 6bbb 3ed0 4fbd
00000060: f788 42bb c1ff ad3c 45c5 b93c abd6 89bc
00000070: 6822 813d a572 20bd 536a 173c 5638 18bd
00000080: ca03 823d 7227 213d d11d 07bd bb04 8a3d
00000090: b1ff bcbc c19a 56bd 80de c0b5 fd17 4dbd
000000a0: 5cc0 f63c b003 3e3d 867f 9bbd 8095 05bd
000000b0: e43b b93c f5a4 83bd 902c fe3c ce27 76bc
000000c0: 146e 783b d9c8 113d fb37 f6b9 2b65 493c
000000d0: aa5e 50bd c45e 763d 9440 30bd 442d 893d
000000e0: dab5 c83c 442f e73c 3c61 803b 8089 2fbd
000000f0: 6762 393c e0f1 373d 44ea 4ebc 2705 a9bc

convs.1.lin_r.weight f4 [64, 256]
-0.0046416125 0.02877152 -0.023490362 0.0076490333 -0.042932477 -0.001369626 -0.049240768 -0.0034350299
0.03432614 0.06732418 -0.030416617 0.0011156646 0.037319113 -0.034715727 -0.06746473 0.076116875
-0.045452345 0.0094507765 0.038572125 0.0195306 -0.021311216 0.018604847 0.057193153 -0.019060766
-0.050932433 -0.04529166 0.015596485 0.020994753 0.05234293 -0.025039414 -0.047067672 0.04380015
0.026059292 -0.018145181 0.045053 0.015379093 0.08174991 0.024189854 0.077761434 0.061392527
0.068150625 -0.026894819 0.078646205 0.019106498 -0.013667763 -0.026280103 0.07867589 -0.034637596
-0.028922178 0.056143418 0.011949241 -0.049672727 0.018975055 0.016558304 0.07535822 0.070873804
-0.00062959135 0.05155739 0.031953193 0.0017244723 0.030711696 -0.020250615 0.020001262 0.022187743
-0.05020171 0.034965064 -0.011926892 -0.022031287 -0.015924344 0.059917215 0.059656247 0.025210189
0.031008516 0.06563584 0.029060498 -0.021604586 -0.03337125 0.01931617 0.054279517 0.054889023
-0.0425675 0.07907926 -0.0034606522 -0.032713383 -0.034515124 -0.03285329 0.0031765809 0.028990595
0.0013274692 0.006199428 0.05526113 0.0026001625 0.01418344 -0.047021348 0.05878063 -0.040433645
-0.028656647 0.03872895 0.067395 0.060284182 0.026089285 -0.05527065 -0.0038310508 0.06836651
0.051083513 0.019152861 -0.0049611647 -0.022450222 0.015736965 -0.014143895 0.067120455 0.054274965
0.023938965 0.04206406 0.0049170437 0.034896877 -0.031250443 -0.011932287 0.08799223 0.057892162
-0.030813692 0.012237393 -0.042051084 0.031541094 -0.0018490879 0.044282574 0.010398578 -0.018106315
0.018468885 0.04174411 0.0395208 -0.046687778 0.007108593 -0.018199533 -0.030768286 0.07147844
0.045690265 0.03345943 -0.056764387 0.024082106 0.06683608 -0.02359902 0.07514457 -0.03855086
0.048607044 0.072431535 0.047810312 0.0620939 -0.025431875 0.015018767 0.014088582 -0.015296395
0.07643601 0.06502284 0.04632189 -0.008060615 0.06205682 0.015840933 -0.031832825 0.05825839
0.035630155 0.06445871 0.070050515 -0.041675653 0.031329636 -0.013025041 -0.0056964345 0.01918816
-0.02501972 0.019495906 0.07640334 0.04232948 0.046241865 -0.022700157 0.0017819268 -0.025000006
0.057825953 -0.014637522 0.0063520074 0.014136165 0.06241984 0.074794665 0.014466904 0.044876885
-0.038086955 -0.026840273 0.041182794 0.06298561 -0.02793665 -0.007302891 -0.04692344 0.0030854633
0.023329481 0.03182482 0.06058834 -0.048648693 0.013327488 0.008792535 0.047291193 0.04735292
0.0118619725 0.03909322 -0.021326767 -0.008850014 -0.017673511 0.04898874 0.0181579 0.034337282
0.010029749 -0.027821643 -0.008230515 0.030812856 0.008217958 0.030353956 -0.025270948 0.039598845
-0.020869765 0.04195912 0.079731025 0.032566383 -0.00490048 0.042343635 0.049599696 0.01575732
0.03329816 -0.017317316 0.021661106 0.029900998 0.039072715 -0.003365863 0.04481101 0.0033800898
0.019977061 -0.005206316 -0.053605586 0.008588899 0.0045228153 -0.0025109183 -0.030125828 0.037105378
0.05693056 0.03255102 -0.022607494 -0.033028383 -0.0055685556 0.00231 0.073479354 0.03336104
0.034447957 0.07028516 -0.0001058816 0.041816916 0.054380827 0.037615262 -0.04270003 0.029623609
00000000: ab18 98bb 40b2 eb3c dc6e c0bc bea4 fa3b
00000010: f7d9 2fbd 0685 b3ba b0b0 49bd 3d1e 61bb
00000020: 9199 0c3d 42e1 893d 452c f9bc 7e3b 923a
00000030: eddb 183d 1432 0ebd f32a 8abd 2ae3 9b3d
00000040: 3d2c 3abd 6ed7 1a3c cefd 1d3d a3fe 9f3c
00000050: dc94 aebc 3169 983c 5e43 6a3d 5325 9cbc
00000060: 879e 50bd bf83 39bd 6688 7f3c 30fd ab3c
00000070: 8a65 563d 751f cdbc 08ca 40bd c967 333d
00000080: 4c7a d53c 34a5 94bc 7f89 383d 97f8 7b3c
00000090: 7f6c a73d cd29 c63c 6341 9f3d bb76 7b3d
000000a0: 8e92 8b3d 8652 dcbc 4311 a13d 3b85 9c3c
000000b0: c1ee 5fbc 5f49 d7bc d320 a13d 27e0 0dbd
000000c0: 34ee ecbc a4f6 653d c0c6 433c a175 4bbd
000000d0: 9371 9b3c 48a5 873c 6955 9a3d 4926 913d
000000e0: 290b 25ba d72d 533d 5ae1 023d b007 e23a
000000f0: 1897 fb3c 9ee4 a5bc b0d9 a33c 12c3 b53c
00000100: 4fa0 4dbd 8737 0f3d 0369 43bc f57a b4bc
00000110: c573 82bc c16b 753d 1c5a 743d 9985 ce3c
00000120: 9205 fe3c 156c 863d 4810 ee3c 1afc b0bc
00000130: 4bb0 08bd f23c 9e3c 3354 5e3d 50d3 603d
00000140: 425b 2ebd 4ff4 a13d 1ccc 62bb 78fe 05bd
00000150: bb5f 0dbd 2c91 06bd 2f2e 503b af7d ed3c
00000160: 7afe ad3a 9224 cb3b 7f59 623d 7d67 2a3b
00000170: a961 683c 7599 40bd f5c3 703d c09d 25bd
00000180: 58c1 eabc 3fa2 1e3d 6406 8a3d 8cec 763d
00000190: 32b9 d53c 7a63 62bd 5e12 7bbb be03 8c3d
000001a0: f23c 513d 76e6 9c3c 4491 a2bb 87e9 b7bc
000001b0: cfea 803c ccbb 67bc 7376 893d 6d4f 5e3d
000001c0: a61b c43c 5d4b 2c3d 271f a13b 07f0 0e3d
000001d0: 7700 00bd a47f 43bc 4535 b43d 5520 6d3d
000001e0: ff6c fcbc 597f 483c c23d 2cbd 3c31 013d
000001f0: 185d f2ba a561 353d cc5e 2a3c b253 94bc
00000200: 0f4c 973c dffb 2a3d 90e0 213d af3b 3fbd
00000210: 33ef e83b 3017 95bc c60d fcbc 4a63 923d
00000220: b725 3b3d c10c 093d c681 68bd d647 c53c
00000230: 5be1 883d bb52 c1bc 65e5 993d 82e7 1dbd
00000240: 2e18 473d fc56 943d bfd4 433d 2c56 7e3d
00000250: 8256 d0bc 4611 763c ccd3 663c bb9d 7abc
00000260: 7c8a 9c3d b22a 853d 06bc 3d3d ab10 04bc
00000270: 4b2f 7e3d d8c4 813c 2363 02bd 59a0 6e3d
00000280: edf0 113d ee02 843d a576 8f3d 17b4 2abd
00000290: 8153 003d fb66 55bc 28a9 babb 7d30 9d3c
000002a0: 28f6 ccbc e1b5 9f3c 5b79 9c3d ad61 2d3d
000002b0: 1c68 3d3d aef5 b9bc 8b8f e93a d0cc ccbc
000002c0: e8da 6c3d 38d2 6fbc 8024 d03b 609b 673c
000002d0: f2ab 7f3d f22d 993d 9806 6d3c d3d0 373d
000002e0: 1101 1cbd 22e0 dbbc 4aaf 283d 99fe 803d
000002f0: 67db e4bc 174d efbb cb32 40bd 7c35 4a3b
00000300: 781d bf3c be5a 023d 7b2b 783d da43 47bd
00000310: 895b 5a3c 910e 103c 69b4 413d 23f5 413d
00000320: b858 423c 3620 203d 79b5 aebc a6ff 10bc
00000330: 0ac8 90bc 6ba8 483d e0bf 943c 40a5 0c3d
00000340: d153 243c 37ea e3bc 48d9 06bc 3e6b fc3c
00000350: 9da4 063c dca8 f83c 0505 cfbc 6632 223d
00000360: 12f7 aabc 54dd 2b3d 054a a33d 5464 053d
00000370: 3594 a0bb 8570 2d3d 0d29 4b3d 7f15 813c
00000380: a763 083d 0bdd 8dbc a272 b13c f0f2 f43c
00000390: b60a 203d d095 5cbb c08b 373d 7f84 5d3b
000003a0: efa6 a33c be99 aabb 8891 5bbd 74b8 0c3c
000003b0: 2034 943b 388e 24bb 71ca f6bc cffb 173d
000003c0: 0530 693d 3854 053d 5a33 b9bc c548 07bd
000003d0: 6e78 b6bb 5e63 173b 587c 963d 96a5 083d
000003e0: 4d19 0d3d aaf1 8f3d c00c deb8 3748 2b3d
000003f0: 6ebe 5e3d 7612 1a3d 3ae6 2ebd 36ad f23c

bns.0.weight f4 [256]
0.9915709 0.9969572 0.9956751 0.9991077 0.9878467 0.99100196 0.998465 0.99120706
0.98976284 0.9861543 0.9958152 0.9966215 0.9989818 0.9856633 0.99395037 0.991567
0.9839368 0.9910809 0.99473256 0.995181 0.996849 0.9934342 1.0069742 0.9858244
0.9915524 0.9918526 0.9997268 0.99476486 1.0250719 0.9922476 0.98959 0.99975187
0.99387914 0.99347186 0.9839583 0.9940862 1.0041099 0.9967772 1.0023217 0.98519725
0.9990056 0.99436253 0.9832467 0.9895533 0.9957813 0.99301565 0.99255306 0.99245465
0.99658805 0.9935415 0.99389005 0.9945372 0.99703103 0.98668545 1.0029767 1.0025152
0.9956206 0.9911141 0.9951447 0.99241924 0.9903837 0.9919005 0.9931319 0.99017245
0.986276 0.9962637 0.9955685 1.0014262 0.9890173 0.9969074 0.9834536 0.9986842
0.9887332 0.992179 0.99404407 0.9874493 0.9931996 0.99124753 0.9887471 0.98595995
0.99689645 0.99515617 0.98349047 0.98693687 0.996237 0.99901867 0.9926192 0.99871683
0.9913172 0.99405986 0.9882594 0.9959335 0.9928299 0.9893457 0.98988575 0.99540627
0.99109685 0.9920975 1.004031 0.9925525 0.9900987 0.98572695 0.9935992 0.99109477
0.9925207 0.9964603 0.99408907 0.99699646 0.99038893 0.99288976 0.9992557 0.99584335
0.99472165 0.9936108 0.99442464 0.9955968 0.9934136 0.99314165 0.9997036 1.0056554
0.9863941 0.9979439 0.9906322 0.98978007 0.9954922 0.992156 0.9878104 0.9884159
0.9975692 0.9961649 0.9823371 0.98911154 0.9903707 0.99145186 0.9947444 0.99303454
1.0015471 0.9970369 0.988192 0.99408954 0.99597996 0.9929277 0.99590516 0.9978813
0.9804811 0.99937165 0.988287 1.0001521 0.9958418 0.99843985 1.0097487 0.9883404
0.9965131 0.9858363 0.9946372 0.98557174 0.99243665 0.9926789 0.98935056 0.99241996
0.98769337 1.0042355 0.99837756 0.9883709 0.9937888 0.9913023 0.98741895 0.99376553
0.98892605 1.0047215 0.99558794 0.98950464 0.9977912 0.99025124 1.0024252 0.9901963
0.9946225 0.9863863 0.9956734 1.0003567 0.99322456 0.99922645 0.9967825 0.9982273
1.003521 0.9933492 0.9952654 0.99908483 0.9930326 1.00106 0.98572576 0.990032
0.98504436 0.9952901 0.9947112 0.99136066 0.9898578 0.9977703 0.98942095 0.99216366
1.0018699 0.9932751 0.9890399 0.9956846 0.9920451 0.99647856 0.9943326 0.9911815
1.0012954 0.99359715 0.9908201 0.99160945 1.0039573 0.99645686 0.986837 1.0052284
0.9942208 0.98989916 1.0083954 0.99320745 0.99682856 0.99016166 0.9951729 0.9938839
0.9868394 0.9921178 1.0005184 0.99361575 0.99058694 1.0025617 0.98972195 0.98727596
0.99331844 0.98867935 0.999381 0.9928538 0.99634737 0.99648684 0.9888373 0.99591815
0.9967313 0.9938969 0.99559224 0.99933946 0.9935257 0.99274194 1.0005536 0.9874985
0.99894226 0.99610627 0.99464244 0.9919755 1.001917 0.98963636 0.9921095 1.0003494
00000000: 97d7 7d3f 9638 7f3f 90e4 7e3f 86c5 7f3f
00000010: 85e3 7c3f 4eb2 7d3f 679b 7f3f bfbf 7d3f
00000020: 1961 7d3f 9c74 7c3f bfed 7e3f 9622 7f3f
00000030: 45bd 7f3f 6e54 7c3f 8873 7e3f 56d7 7d3f
00000040: 48e3 7b3f 7ab7 7d3f cba6 7e3f 2fc4 7e3f
00000050: 7f31 7f3f b451 7e3f 88e4 803f fd5e 7c3f
00000060: 61d6 7d3f 0dea 7d3f 18ee 7f3f e9a8 7e3f
00000070: 8e35 833f f003 7e3f c555 7d3f bdef 7f3f
00000080: dd6e 7e3f 2c54 7e3f b1e4 7b3f 6f7c 7e3f
00000090: ac86 803f ca2c 7f3f 144c 803f e335 7c3f
000000a0: d5be 7f3f 8b8e 7e3f 0eb6 7b3f 5d53 7d3f
000000b0: 86eb 7e3f 4636 7e3f f517 7e3f 8211 7e3f
000000c0: 6520 7f3f bc58 7e3f 946f 7e3f fd99 7e3f
000000d0: 6d3d 7f3f 6b97 7c3f 8a61 803f 6b52 803f
000000e0: fee0 7e3f a7b9 7d3f cec1 7e3f 300f 7e3f
000000f0: c989 7d3f 31ed 7d3f e43d 7e3f f17b 7d3f
00000100: 957c 7c3f 230b 7f3f 94dd 7e3f bc2e 803f
00000110: 3d30 7d3f 5335 7f3f 9dc3 7b3f c5a9 7f3f
00000120: 9e1d 7d3f 71ff 7d3f ac79 7e3f 7ac9 7c3f
00000130: 5442 7e3f 66c2 7d3f 881e 7d3f df67 7c3f
00000140: 9b34 7f3f 8ec2 7e3f 08c6 7b3f e5a7 7c3f
00000150: 6309 7f3f b0bf 7f3f 4b1c 7e3f e8ab 7f3f
00000160: f7c6 7d3f b57a 7e3f 91fe 7c3f 7ff5 7e3f
00000170: 1a2a 7e3f c345 7d3f 2769 7d3f f2d2 7e3f
00000180: 86b8 7d3f 1afa 7d3f 1684 803f ec17 7e3f
00000190: 1c77 7d3f 9a58 7c3f 845c 7e3f 63b8 7d3f
000001a0: d615 7e3f 0618 7f3f 9f7c 7e3f 293b 7f3f
000001b0: 218a 7d3f 062e 7e3f 39cf 7f3f 97ef 7e3f
000001c0: 14a6 7e3f 475d 7e3f 9d92 7e3f 6fdf 7e3f
000001d0: 5b50 7e3f 883e 7e3f 93ec 7f3f 51b9 803f
000001e0: 5384 7c3f 4079 7f3f 129a 7d3f 3a62 7d3f
000001f0: 94d8 7e3f f0fd 7d3f 24e1 7c3f d308 7d3f
00000200: b260 7f3f aa04 7f3f 727a 7b3f 6a36 7d3f
00000210: ef88 7d3f cacf 7d3f 92a7 7e3f 8337 7e3f
00000220: b232 803f cf3d 7f3f 27fa 7c3f a77c 7e3f
00000230: 8bf8 7e3f 8230 7e3f a4f3 7e3f 2675 7f3f
00000240: cf00 7b3f d2d6 7f3f 6000 7d3f fc04 803f
00000250: 7def 7e3f c199 7f3f 723f 813f e003 7d3f
00000260: 7c1b 7f3f c55f 7c3f 8ba0 7e3f 6e4e 7c3f
00000270: 5410 7e3f 3420 7e3f 1446 7d3f 3c0f 7e3f
00000280: 79d9 7c3f ca8a 803f ac95 7f3f e005 7d3f
00000290: f168 7e3f fdc5 7d3f 7dc7 7c3f 6b67 7e3f
000002a0: 422a 7d3f b79a 803f dade 7e3f 2d50 7d3f
000002b0: 3e6f 7f3f 1b81 7d3f 784f 803f 817d 7d3f
000002c0: 959f 7e3f d083 7c3f 74e4 7e3f b00b 803f
000002d0: f743 7e3f 4ecd 7f3f 232d 7f3f d38b 7f3f
000002e0: 6073 803f 224c 7e3f b7c9 7e3f 06c4 7f3f
000002f0: 6237 7e3f bc22 803f 8658 7c3f bd72 7d3f
00000300: de2b 7c3f 55cb 7e3f 65a5 7e3f d0c9 7d3f
00000310: 5267 7d3f e06d 7f3f b14a 7d3f 70fe 7d3f
00000320: 463d 803f 4747 7e3f b831 7d3f 30e5 7e3f
00000330: abf6 7d3f 3819 7f3f 958c 7e3f 12be 7d3f
00000340: 732a 803f 625c 7e3f 63a6 7d3f 1eda 7d3f
00000350: ac81 803f cc17 7f3f 5aa1 7c3f 53ab 803f
00000360: 4185 7e3f 086a 7d3f 1a13 813f d842 7e3f
00000370: 2830 7f3f 3c7b 7d3f a7c3 7e3f 2d6f 7e3f
00000380: 82a1 7c3f 6ffb 7d3f fd10 803f 9a5d 7e3f
00000390: 1b97 7d3f f153 803f 6b5e 7d3f 1ebe 7c3f
000003a0: 1e4a 7e3f 171a 7d3f 6fd7 7f3f ab2b 7e3f
000003b0: 9f10 7f3f c319 7f3f 7124 7d3f 7ef4 7e3f
000003c0: c829 7f3f 0770 7e3f 22df 7e3f b6d4 7f3f
000003d0: b357 7e3f 5624 7e3f 2412 803f b4cc 7c3f
000003e0: aeba 7f3f d200 7f3f e3a0 7e3f 1bf2 7d3f
000003f0: d13e 803f cf58 7d3f e3fa 7d3f 730b 803f

bns.0.bias f4 [256]
-0.0030898745 0.002153765 0.0028222986 0.0085826395 -0.004738066 -0.0020332595 0.0031176973 -0.0019379501
-0.00407675 -0.007598923 0.0022598375 0.0054125846 0.0062240213 -0.007345649 -0.00086081075 0.0019666553
-0.008017456 -0.0033861073 0.00050134916 0.0040249117 0.0028511265 0.0025989173 0.015911538 -0.009365139
-0.00028513357 -0.0022876982 0.009593426 0.0013845115 0.027106445 0.0026208628 -0.005473169 0.012018879
0.0007538175 -0.0009794158 -0.008861107 0.0003826575 0.0126108145 0.0021626463 0.009346186 -0.0062278397
0.008667435 0.004269929 -0.00957774 -0.004445857 0.0047753653 0.0009620226 -0.00046128256 0.00039927984
0.0011618369 -0.0008926445 0.0037921588 0.0013575609 0.0063636797 -0.007591316 0.013987751 0.011585063
0.003721661 -0.0024095126 -0.0032798396 -0.0009378637 -0.0025500664 0.0014136357 0.0016379117 -0.0031965321
-0.00348406 0.0014266274 0.0065932632 0.011324046 -0.0051614163 0.0052310545 -0.009477031 0.0016892448
-0.00095626997 0.0022015707 -0.000909372 -0.005807934 -0.0016302996 -0.0019472245 0.0020383107 -0.007254882
0.0061580264 -0.00025361314 -0.008660996 -0.0055362964 0.005967163 0.0046921438 0.0046359813 0.0061778254
0.00076704734 0.002925385 -0.0045682252 0.0047717793 -0.0011779648 -0.0068633086 -0.003584792 0.0026327807
0.002151285 -0.001996903 0.012215296 -0.002346928 -0.0025570593 -0.00278385 -0.0019520348 0.00058353436
0.005272069 0.003638186 0.0018381685 0.004767886 -0.005366289 0.001609333 0.005777934 0.001119262
0.00013289029 -0.00017415591 -0.0011642976 0.004866365 0.0001910042 0.00283414 0.009201004 0.014395108
-0.0073714973 0.0067715147 0.0008268572 -0.0013139128 0.0019298657 -9.03093e-05 -0.0059154257 -0.0024492326
0.0036955494 0.00079773215 -0.005731328 -0.0019172456 -0.005966143 -0.004453506 0.0045619295 0.00030655257
0.009566561 0.004987514 -0.0049828794 0.0021218802 0.0030203694 -0.0012027979 0.0045850337 0.0064563346
-0.012010267 0.0064918953 -0.0055563943 0.007532755 -0.0023038622 0.007627317 0.017509675 -0.004933632
0.0019700052 -0.009770995 -0.00011159618 -0.009498612 0.0018469415 0.00019660388 -0.0040203426 0.002267634
-0.004086161 0.012440975 0.0034394222 -0.0041836444 0.0028220455 0.0016359697 -0.0046958625 0.00298018
0.0005760835 0.013617402 0.003998172 -0.004603131 0.0084738815 -0.0023466104 0.01065909 -0.005587375
0.0008244651 -0.004430372 0.0023556645 0.0068200114 -0.001674238 0.00914407 0.0028997888 0.005124529
0.010929872 -0.0025631103 0.0022733884 0.009169452 -0.00019801955 0.007123947 -0.007711973 -0.0029774795
-0.007247422 -0.0003556569 0.005792261 -0.0035085673 -0.0013107785 0.0062662074 -0.005444734 -0.0019279282
0.0073252576 0.0013975083 -0.0012741304 0.003959342 -0.0019898543 0.004184622 0.0005086432 -0.0024177453
0.0076800454 0.0018566106 0.00063670747 -0.0033691328 0.012247323 0.0031760607 -0.0007839383 0.012894886
0.0045736283 -0.004453937 0.014958622 0.0019407929 0.0051525906 -0.006586971 0.0012263993 0.0016098368
-0.0052246107 -0.00049094635 0.008792666 -0.0025009138 -0.0009453715 0.0118633155 -0.0039313613 -0.00031237424
-0.0057745213 -0.0030459217 0.0071785063 0.0011177427 0.004744277 0.0069545615 -0.006958997 0.0015862389
0.0034342748 0.00078615657 0.0051278863 0.0056738774 0.00087252626 -0.00066050753 0.008460353 -0.003724635
0.008823159 0.004882866 0.004283608 0.0017947769 0.013104572 -0.003544865 0.0008448172 0.008275491
00000000: 7e7f 4abb 2e26 0d3b 50f6 383b 339e 0c3c
00000010: c741 9bbb 6f40 05bb 4852 4c3b d102 feba
00000020: 4296 85bb 6300 f9bb c819 143b 0d5c b13b
00000030: e0f2 cb3b c5b3 f0bb 08a8 61ba 00e3 003b
00000040: a65b 03bc 74e9 5dbb f96c 033a 68e3 833b
00000050: f7d9 3a3b 9952 2a3b ea58 823c 3d70 19bc
00000060: fb7d 95b9 35ed 15bb bf2d 1d3c 7f78 b53a
00000070: 560e de3c c8c2 2b3b 4558 b3bb d5ea 443c
00000080: d69b 453a be5f 80ba 2d2e 11bc 6c9f c839
00000090: 979d 4e3c 2fbb 0d3b bf20 193c e812 ccbb
000000a0: db01 0e3c c3ea 8b3b f4eb 1cbc 8dae 91bb
000000b0: ab7a 9c3b 3e30 7c3a 4cd8 f1b9 6f56 d139
000000c0: c748 983a 5c00 6aba de85 783b 2ff0 b13a
000000d0: 6a86 d03b 93c0 f8bb e12c 653c 47cf 3d3c
000000e0: 1ce7 733b eae8 1dbb 94f2 56bb f8da 75ba
000000f0: 041f 27bb be49 b93a 32af d63a e97c 51bb
00000100: d454 64bb acfd ba3a 4d0c d83b 7e88 393c
00000110: 1921 a9bb 4469 ab3b 8d45 1bbc a669 dd3a
00000120: 31ae 7aba 3a48 103b ec62 6eba 7b50 bebb
00000130: c7af d5ba 033a ffba 2e95 053b 5cba edbb
00000140: 45c9 c93b 61f7 84b9 dae6 0dbc d269 b5bb
00000150: 3188 c33b 8ec0 993b 6ee9 973b 5b6f ca3b
00000160: ad13 493a d1b7 3f3b 0db1 95bb 965c 9c3b
00000170: f165 9aba 9be5 e0bb d4ee 6abb bb8a 2c3b
00000180: 93fc 0c3b 79de 02bb aa22 483c ebce 19bb
00000190: 5694 27bb 4171 36bb 6bdb ffba 54f8 183a
000001a0: 52c1 ac3b a26e 6e3b b3ee f03a ed3b 9c3b
000001b0: b2d7 afbb 41f0 d23a d354 bd3b 33b4 923a
000001c0: 7758 0b39 9f9d 36b9 589b 98ba 0776 9f3b
000001d0: 4d48 4839 fbbc 393b cfbf 163c 76d9 6b3c
000001e0: 9a8c f1bb 95e3 dd3b 73c1 583a 9937 acba
000001f0: 8cf3 fc3a 7064 bdb8 30d6 c1bb 4e83 20bb
00000200: 0831 723b e61e 513a ddcd bbbb 164c fbba
00000210: a37f c3bb b7ee 91bb 3d7c 953b cab8 a039
00000220: 11bd 1c3c 4d6e a33b 6c47 a3bb 3e0f 0b3b
00000230: 64f1 453b 33a7 9dba 0d3e 963b a98f d33b
00000240: b6c6 44bc f7b9 d43b 6a12 b6bb 54d5 f63b
00000250: 65fc 16bb 93ee f93b 7370 8f3c 4eaa a1bb
00000260: 341b 013b 8616 20bc be08 eab8 11a0 1bbc
00000270: 1315 f23a 7427 4e39 14bd 83bb 969c 143b
00000280: 34e5 85bb 3bd5 4b3c ee67 613b f416 89bb
00000290: 11f2 383b 096e d63a c0df 99bb 204f 433b
000002a0: 4f04 173a 861b 5f3c 1903 833b ddd5 96bb
000002b0: 09d6 0a3c 97c9 19bb 77a3 2e3c 4c16 b7bb
000002c0: eb20 583a a72c 91bb 7e61 1a3b 677a df3b
000002d0: 1b72 dbba 02d1 153c 620a 3e3b aaeb a73b
000002e0: 3513 333c dbf9 27bb 21fd 143b 783b 163c
000002f0: 78a3 4fb9 0070 e93b b8b4 fcbb d121 43bb
00000300: c87b edbb 7677 bab9 02cd bd3b feef 65bb
00000310: 6ece abba c254 cd3b bd69 b2bb 89b2 fcba
00000320: b708 f03b 992c b73a b900 a7ba 5ebd 813b
00000330: 3768 02bb 271f 893b 7856 053a 0973 1ebb
00000340: e4a8 fb3b 8459 f33a b7e8 263a abcc 5cbb
00000350: ffa8 483c 7525 503b 3581 4dba 1245 533c
00000360: 60de 953b 55f2 91bb 0215 753c 3462 fe3a
00000370: 10d7 a83b 85d7 d7bb 22bf a03a 2901 d33a
00000380: 3633 abbb dab2 00ba 1d0f 103c 5fe6 23bb
00000390: cfd2 77ba 5a5e 423c a6d2 80bb 29c6 a3b9
000003a0: 3238 bdbb 169e 47bb ad39 eb3b 3981 923a
000003b0: e175 9b3b 17e3 e33b 4c08 e4bb 58e9 cf3a
000003c0: 9211 613b 1316 4e3a d407 a83b efeb b93b
000003d0: 3fba 643a e925 2dba 4b9d 0a3c 0219 74bb
000003e0: 038f 103c 7300 a03b 825d 8c3b b83e eb3a
000003f0: 8fb4 563c f750 68bb b976 5d3a ed95 073c
