output/dmd/prev_e2v/run_004/prev_dmd_best_model_e2v.pth (torch, 207541 bytes, 14 tensors)

convs.0.lin_l.weight f4 [256, 32]
0	0xbcb2859d	-0.021792227
1	0xbdd87b65	-0.10570411
2	0x3c6648f2	0.014055477
3	0xbd5c871f	-0.0538398
4	0x3e00b1f0	0.12567878
5	0x3e02ceca	0.12774196
6	0x3e156579	0.1458949
7	0x3de66734	0.11250153
8	0x3db66577	0.08906072
9	0x3e2e473b	0.1701936
10	0xbe2c4dd5	-0.16826566
11	0xbe07fd35	-0.13280185
12	0xbd43044b	-0.047611516
13	0x3de50b9c	0.11183855
14	0x3c85217f	0.016251324
15	0x3dbf3dc3	0.09337952
16	0xbb37b848	-0.0028033424
17	0x3e24da9a	0.16099015
18	0xbb23020c	-0.0024873046
19	0xbd031bc3	-0.032008898
20	0x3d6d5be5	0.057948966
21	0x3df7b552	0.12095131
22	0xbd5317f7	-0.051536527
23	0xbe215ccc	-0.15758055
24	0xbdb5fa2b	-0.088856064
25	0x3d35f2fe	0.04442119
26	0x3deb96ba	0.11503358
27	0xbe31a6a7	-0.17348729
28	0xbd289ab3	-0.041163158
29	0xbc07e10b	-0.0082934005
30	0xbdd19729	-0.1023391
31	0x3e148a79	0.14505948
32	0x3e053058	0.13006723
33	0x3df3885f	0.11891245
34	0xbe0e4b55	-0.13895924
35	0x3dd2ce1e	0.1029322
36	0xbd6a6048	-0.057220727
37	0x3e2afb23	0.16697364
38	0x3d4613d3	0.04835875
39	0xbdf6e213	-0.12054839
40	0x3c1b4aea	0.00947831
41	0x3e0acf49	0.13555636
42	0x3e02e9c2	0.12784484
43	0xbe306483	-0.17225842
44	0x3bd3ec21	0.0064673577
45	0xbdde4797	-0.108534984
46	0x3e0be0c6	0.13659963
47	0xbe037eef	-0.1284139
48	0x3e19a8ee	0.15005848
49	0xbc13174a	-0.0089777205
50	0xbd156f6a	-0.036483206
51	0xbcd2f342	-0.02575076
52	0x3e110a41	0.14164068
53	0x3e07bbcc	0.13255233
54	0xbdd075e8	-0.10178739
55	0x3c52c7e1	0.012865038
56	0xbd4facf8	-0.050702065
57	0xbd67f521	-0.056630258
58	0xbe131015	-0.14361604
59	0xbd07b135	-0.033127982
60	0x3d35a9a8	0.04435125
61	0x3daf75f3	0.08567419
62	0x3dc05977	0.09392064
63	0xbcfd49e6	-0.030919027
64	0x3e28531d	0.16437955
65	0x3dd5a003	0.104309104
66	0xbd6bb451	-0.05754501
67	0xbd11353a	-0.03545115
68	0x3e27e67d	0.16396518
69	0xbdfac0de	-0.12243818
70	0x3dae0d9a	0.08498688
71	0x3d96168c	0.07328519
72	0xbde7e131	-0.11322249
73	0x3cd3ed65	0.025870034
74	0xbc6905c6	-0.014222568
75	0x3d4c3673	0.049856614
76	0x3d2da347	0.04239204
77	0xbc83dcaf	-0.016096441
78	0xbb515ef6	-0.003194747
79	0x3dc026d2	0.093824044
80	0xbb919cce	-0.0044437414
81	0xbe373de8	-0.17894709
82	0x3d852b51	0.065024026
83	0xbda94112	-0.08264364
84	0xbd84a736	-0.064772055
85	0xbd56c96f	-0.052438196
86	0x3c244bf8	0.010027878
87	0x3dcd0827	0.100113206
88	0xbe16c4fd	-0.14723583
89	0x3de124d1	0.1099335
90	0xbc4c5ca6	-0.012473261
91	0xba803587	-0.0009781577
92	0x3e2f56ca	0.17122951
93	0xbc90b754	-0.017665543
94	0xbd45ceae	-0.04829281
95	0x3d91556a	0.070963696
96	0x3e058fb8	0.13043106
97	0xbd3bc8a4	-0.045845643
98	0xbe2b78eb	-0.16745345
99	0xbe137425	-0.14399774
100	0xbdaf7351	-0.08566917
101	0x3dfd8f97	0.12380903
102	0x3d176392	0.036960192
103	0xbcdd8ced	-0.027044738
104	0x3e177052	0.1478894
105	0xbc09188b	-0.008367668
106	0x3d3e01fb	0.046388607
107	0x3e284e42	0.16436103
108	0x3dd06a98	0.10176581
109	0x3e2a1edb	0.16613333
110	0x3e21a477	0.15785395
111	0xbd8a984e	-0.06767331
112	0x3e02ae4f	0.12761806
113	0x3a6c60d8	0.00090171164
114	0xbd33a914	-0.043862417
115	0xbe059330	-0.13044429
116	0x3d97a8a4	0.074052125
117	0xbd7c4089	-0.061584983
118	0xbdb98a28	-0.09059554
119	0xbdc991f7	-0.09842294
120	0xbae978f0	-0.0017812531
121	0xbe018631	-0.12648846
122	0x3d80988f	0.06279098
123	0xbc917569	-0.01775618
124	0x3da6ff6a	0.08154185
125	0xbd2ef711	-0.04271609
126	0x3b68f7c6	0.0035548075
127	0x3db8d83c	0.090256184
128	0xbdcc4c1c	-0.09975454
129	0xbe1a36ce	-0.15059969
130	0x3db49408	0.08817297
131	0x398ca63c	0.00026826735
132	0x3d8bd17b	0.068270646
133	0x3cae0f2c	0.021247469
134	0xbe1bda27	-0.15219937
135	0x3d8c00a9	0.068360634
136	0x3ddd27c9	0.10798604
137	0x3e2d33f3	0.16914348
138	0x3da90fc8	0.08254963
139	0xbdc268b0	-0.09492624
140	0x3e1a6dbd	0.15080924
141	0x3d504dcc	0.050855443
142	0x3c75db59	0.01500591
143	0xbdf7b660	-0.12095332
144	0xbe0bd506	-0.1365548
145	0xbc869762	-0.016429607
146	0x3d857691	0.06516755
147	0xbce871a7	-0.028374506
148	0x3ddd74c3	0.10813286
149	0x3d55e866	0.052223586
150	0x3e276380	0.1634655
151	0xbcc45819	-0.02396779
152	0x3dbedaf4	0.09319106
153	0xbe0f6d30	-0.14006495
154	0x3dc2a815	0.09504715
155	0xbdfa67ad	-0.12226806
156	0x3dd97498	0.106179416
157	0x3dba906c	0.091095775
158	0x3dc1b89c	0.094590396
159	0xbe034481	-0.12819101
160	0x3daf46b0	0.085584044
161	0x3e0068e5	0.12540014
162	0xbe0096e5	-0.12557562
163	0x3d9f2c09	0.07772071
164	0xbe0ac225	-0.13550623
165	0xbd3abe2b	-0.045591515
166	0x3e2fd320	0.17170382
167	0xbe18ca04	-0.14920813
168	0x3dffad0c	0.12484178
169	0xbdec93cd	-0.11551628
170	0xbd1403a5	-0.03613629
171	0xbdb2ee16	-0.087368175
172	0x3d8a1426	0.06742124
173	0x3e07712c	0.13226765
174	0x3e17dcf3	0.14830379
175	0x3dfd70dc	0.12375042
176	0x3e286282	0.16443828
177	0x3d018183	0.031617653
178	0x3d8d7ccb	0.06908568
179	0x3dc78219	0.09741611
180	0xbccb896b	-0.0248458
181	0xbd8e6470	-0.06952751
182	0xbc82b59d	-0.01595574
183	0x3dbc6134	0.091982275
184	0xbd4fed3e	-0.05076336
185	0x3dc10bbb	0.094260655
186	0xbd7d9c98	-0.061916918
187	0xbd042473	-0.032261323
188	0x3e24f776	0.16110024
189	0x3e0a0355	0.13477834
190	0xbc401bd9	-0.011725389
191	0x3de82284	0.11334708
192	0xbcc0a6b2	-0.023516987
193	0xbdcf2249	-0.10113961
194	0xbdcd3e02	-0.10021593
195	0xbdf3a139	-0.11895985
196	0x3d4bc37c	0.049746975
197	0xbc31e1e9	-0.010857084
198	0xbc3251e7	-0.010883785
199	0xbd0f5694	-0.034994677
200	0xbde823e4	-0.113349706
201	0xbe267153	-0.16254167
202	0x3d972654	0.073803574
203	0xbcd09052	-0.025459442
204	0x3c88f4e1	0.01671833
205	0x3e313628	0.17305815
206	0x3dfe37cb	0.124129854
207	0x3d0e2799	0.034705732
208	0x3d6c7d9d	0.05773698
209	0x3da0b896	0.07847707
210	0x3e00906a	0.1255509
211	0x3d845dd6	0.0646321
212	0x3d76bbe0	0.060237765
213	0xbd925b8d	-0.07146368
214	0x3c7e2b1f	0.015513211
215	0xbe093ccc	-0.13402098
216	0xbde842e8	-0.11340886
217	0x3d1f6ed7	0.038924064
218	0x3c0017a4	0.007818136
219	0xbd4b4a8f	-0.04963165
220	0x3e0d60c1	0.1380644
221	0xbd848d2b	-0.06472238
222	0x3cf70ff0	0.030158967
223	0xbab65c57	-0.0013913017
224	0xbd2dfa2b	-0.042474907
225	0x3dd53474	0.10410395
226	0xbd834aa6	-0.064107224
227	0xbcd93284	-0.026513346
228	0x3e2e6513	0.17030744
229	0xbd06b273	-0.032885026
230	0x3e24e81c	0.16104168
231	0xbcbdc2d1	-0.023164185
232	0xbdcbeb25	-0.0995696
233	0x3cad7028	0.021171644
234	0xbc8c7895	-0.017147342
235	0xbdddae18	-0.108242214
236	0x3e269297	0.16266857
237	0xbe0a5f2d	-0.13512869
238	0x3dc64f98	0.0968315
239	0xbc30e815	-0.01079752
240	0x3df55ae8	0.119802296
241	0xb7e23e2c	-2.697025e-05
242	0xbd3d3f5d	-0.046203006
243	0xbe35632d	-0.17713614
244	0xbda5f9dc	-0.081042975
245	0x3e1ee329	0.15516342
246	0x3e2b9736	0.16756901
247	0xbdb84c7d	-0.08998964
248	0x3d8a2c06	0.06746678
249	0xbd9fb5f0	-0.07798374
250	0xbcd3e0dc	-0.025864057
251	0x3e07d317	0.13264118
252	0x3d91e9ae	0.07124649
253	0xbd88160a	-0.066448286
254	0xbe1e42c8	-0.15455163
255	0x3dc91fd2	0.09820522

convs.0.lin_l.bias f4 [256]
0	0xbdf77402	-0.120826736
1	0x3e10dd88	0.14147007
2	0xbd9bbc3c	-0.07604262
3	0x3de24a0d	0.1104928
4	0xbd789d0b	-0.060696643
5	0xbe2cbcb6	-0.16868863
6	0x3e19191f	0.14950989
7	0x3c96a4d6	0.018389147
8	0xbdba672b	-0.09101709
9	0xbd48295e	-0.048867576
10	0xbc856f59	-0.016288446
11	0xbd40dcfb	-0.047085743
12	0xbe025012	-0.12725857
13	0xbe18510f	-0.14874671
14	0x3d61993a	0.05507777
15	0x3c8b6449	0.017015593
16	0x3de1697a	0.11006446
17	0x3d360eff	0.044447895
18	0x3d351fb7	0.0442197
19	0xbd6c7151	-0.057725254
20	0xbdba6c7c	-0.09102723
21	0xbe19bfea	-0.15014616
22	0xbce1e312	-0.027574096
23	0x3de19138	0.110140264
24	0x3b1a1012	0.0023508114
25	0xbdc11c35	-0.09429208
26	0xbc95aa7d	-0.018269772
27	0x3d3d333f	0.04619145
28	0xbce2882e	-0.027652826
29	0x3e136179	0.14392652
30	0x3e08f713	0.13375501
31	0xbe177ce0	-0.1479373
32	0xbdbb4d6e	-0.09145628
33	0xbd56e5cd	-0.05246525
34	0x3d5a1182	0.053239353
35	0xbdd9b203	-0.10629656
36	0x3d76ffe0	0.060302615
37	0x3e255f05	0.16149528
38	0xbdf27978	-0.118395746
39	0xbd9021c8	-0.07037693
40	0xbdd56b63	-0.10420873
41	0xbde2f0ba	-0.11081071
42	0x3d49cbb2	0.049266525
43	0xbdfc2cdc	-0.12313244
44	0xbdfd48a9	-0.123673744
45	0x3cb38034	0.021911718
46	0x3d44c26e	0.048036985
47	0x3ccaf4cc	0.024774931
48	0x3ca65668	0.020304874
49	0xbdfbdc9d	-0.12297938
50	0xbe04741c	-0.12934917
51	0x3d6a3b07	0.0571852
52	0x3e1f1834	0.15536577
53	0x3c5f0217	0.013611338
54	0xbe0df418	-0.13862646
55	0xbe46fc03	-0.19432072
56	0x3e0d2c50	0.13786435
57	0xbc948a24	-0.018132277
58	0x3d4f96e4	0.05068101
59	0xbdadddc5	-0.08489565
60	0x3d3671ac	0.044542
61	0xbda9dd54	-0.08294168
62	0x3d33db02	0.043910034
63	0x3c939a67	0.01801796
64	0x3e022cd8	0.12712419
65	0xbd62b677	-0.055349793
66	0x3e2ca7e0	0.16860914
67	0x3e070dfc	0.13188928
68	0x3c869804	0.016429909
69	0xbd129ce5	-0.035794158
70	0x3e213804	0.15744025
71	0xbdcad5f0	-0.099040866
72	0xbdf63f5a	-0.12023802
73	0x3d8b9fd4	0.06817594
74	0x3e42a1e0	0.19007063
75	0xbde25e4f	-0.11053144
76	0xbde11f48	-0.109922945
77	0x3d9ee85a	0.07759161
78	0x3d93b606	0.072124526
79	0x3d1847d3	0.037177872
80	0xbde9a76b	-0.114088856
81	0x3de6e244	0.112736255
82	0xbd939ea6	-0.07207994
83	0x3ddf425c	0.10901329
84	0x3dea3fb0	0.11437929
85	0x3c123ea4	0.0089260675
86	0xbdfb1ef2	-0.12261762
87	0x3db0ee6b	0.086392246
88	0x3dc521b0	0.09625566
89	0x3a3516a1	0.0006907974
90	0x3b60c041	0.003429428
91	0x3cbf53f9	0.023355471
92	0xbc7fac22	-0.0156050045
93	0xbe0cddd9	-0.13756503
94	0x3b179755	0.0023130972
95	0x3d24e86e	0.040260725
96	0x3db16fdb	0.08663913
97	0x3e03685c	0.12832779
98	0xbd9a5f0d	-0.07537661
99	0x3d568874	0.052376226
100	0x3e12aebd	0.1432447
101	0x3c99124f	0.018685488
102	0xbdac1ac2	-0.08403541
103	0x3de6a72a	0.11262353
104	0x3c77a9e3	0.015116188
105	0x3dc53250	0.09628737
106	0x3dd0119b	0.10159608
107	0x3e00c469	0.12574925
108	0x3e0015af	0.12508272
109	0x3e341ed3	0.17589884
110	0xbdbc5bae	-0.09197174
111	0xbbb96d95	-0.005658815
112	0xbcb83473	-0.022485947
113	0xbde8c914	-0.113664776
114	0xbe2b0274	-0.16700155
115	0xbe00517e	-0.12531087
116	0x3ca6247d	0.02028107
117	0xbd5a19cf	-0.05324727
118	0xbc38d7f9	-0.011281961
119	0xbe068b2a	-0.13139024
120	0xbc5d8de6	-0.013522601
121	0x3d9ce444	0.07660726
122	0x3bfb305d	0.0076656775
123	0x3d1e681f	0.038673516
124	0x3d05ccbe	0.03266596
125	0xbd9cda1c	-0.076587886
126	0x3cf58a1e	0.029973086
127	0x3e210282	0.15723613
128	0x3d69fa7c	0.057123646
129	0xbd9fd6d3	-0.07804646
130	0x3dd28615	0.1027948
131	0x3d89c62c	0.067272514
132	0x3d587a85	0.05285122
133	0xbdda6de9	-0.10665495
134	0x3c9094d8	0.0176491
135	0xbc98aa42	-0.018635873
136	0xbb607092	-0.0034246785
137	0x3d77002d	0.060302902
138	0xbcadcccc	-0.021215819
139	0xbe01d012	-0.12677029
140	0xbe1f0150	-0.15527844
141	0x3bb39ca6	0.0054813204
142	0xbe2168e0	-0.15762663
143	0xbe1deee2	-0.15423158
144	0xbe31b78b	-0.17355172
145	0xbe28ecba	-0.16496554
146	0x3d8a03c1	0.06738997
147	0xbb351859	-0.002763292
148	0xbdcc849d	-0.099862315
149	0x3e012861	0.1261306
150	0x3a0be2fd	0.0005336253
151	0x3da7399b	0.08165284
152	0xbdfa0ef9	-0.12209887
153	0xbdc4931f	-0.095983736
154	0xbdeeab03	-0.11653712
155	0x3e1b2e2a	0.15154329
156	0x3e2bdba5	0.16783006
157	0xbe069405	-0.13142402
158	0xbd8b8445	-0.06812338
159	0x3d1133f2	0.03544993
160	0x3d8b0579	0.06788153
161	0xbdff9917	-0.124803714
162	0x3cf150db	0.0294575
163	0x3dd4d154	0.10391489
164	0x3e03399f	0.1281495
165	0x3d4e20ae	0.050324135
166	0x3e34cbc5	0.17655857
167	0x3d01d503	0.031697284
168	0x3df571ee	0.11984621
169	0xbddcb337	-0.1077637
170	0xbd6d54d4	-0.057942227
171	0x3e4ec60a	0.20192733
172	0x3db30955	0.08742014
173	0xbe25d5a8	-0.16194785
174	0x3c855c84	0.016279466
175	0x3dc26f41	0.09493876
176	0xbbf50ec3	-0.0074785664
177	0x3da6118f	0.08108818
178	0xbdb982b7	-0.09058135
179	0x3db2a39f	0.087226145
180	0x3df7f45b	0.12107154
181	0x3db70696	0.08936803
182	0x3c6dfe5a	0.014525974
183	0xbd2c1b27	-0.042018082
184	0x3dadfa1e	0.08494972
185	0x3dc4d88d	0.09611616
186	0xbd8e032b	-0.06934198
187	0x3d66eb91	0.056376997
188	0x3ddc13b1	0.10745943
189	0x3d6cf5b0	0.057851493
190	0xbd94a0a1	-0.072572
191	0x3e2b4256	0.16724524
192	0x3bbddb6b	0.005793979
193	0x3db666ab	0.08906301
194	0x3db9209b	0.09039422
195	0xbe0b8a06	-0.1362687
196	0x3df1b267	0.11801606
197	0xbe267ede	-0.16259333
198	0x3e159511	0.14607646
199	0xbdfbd6d1	-0.12296832
200	0xbd9cf700	-0.07664299
201	0xbe0cc320	-0.1374631
202	0x3dedd433	0.116127394
203	0x3cf717a5	0.030162642
204	0x3a02e4fd	0.00049932284
205	0xbd086b72	-0.033305593
206	0xbd8102d2	-0.06299366
207	0xbd73d5e6	-0.05953016
208	0xbd9d726a	-0.076878384
209	0x3d128955	0.0357755
210	0x3da8d099	0.08242912
211	0xbe036f7f	-0.12835501
212	0x3e1ec4b1	0.1550472
213	0xbdfc9beb	-0.123344265
214	0xbe01e2eb	-0.12684219
215	0x3b3e6e05	0.0029057276
216	0xbdc1ec5d	-0.09468911
217	0x3bc3c1fd	0.005974053
218	0xbe060c6d	-0.13090678
219	0x3d349cda	0.044094898
220	0x3e2746a9	0.16335548
221	0x3d578aae	0.05262249
222	0xbc70cb9b	-0.014696981
223	0x3d80e0ee	0.06292902
224	0x3d94ed7c	0.07271859
225	0xbd982d52	-0.07430519
226	0xbde4b663	-0.111676
227	0xbdd2aedf	-0.1028726
228	0x3c48fc80	0.012267232
229	0x3df21acf	0.118215196
230	0x3d242260	0.040071845
231	0xbcd13182	-0.025536302
232	0xbd97750a	-0.0739537
233	0x3d8ab90d	0.06773577
234	0x3e15ce83	0.14629559
235	0x3e050f37	0.12994085
236	0x3dcc5208	0.09976584
237	0xbdc4708d	-0.0959178
238	0x3dad274f	0.08454763
239	0x3d66f738	0.05638811
240	0xbde64bfc	-0.112449616
241	0xbe1696d3	-0.14705972
242	0xbd62f0cd	-0.055405427
243	0x3df77fc4	0.12084916
244	0x3dddf5a2	0.10837866
245	0xbdf3c708	-0.119031966
246	0x3d80385e	0.06260751
247	0x3d84a504	0.06476787
248	0xbd9ff788	-0.07810885
249	0x3d8573e4	0.06516245
250	0xbe2080f9	-0.15674199
251	0xbc54b355	-0.012982209
252	0x3be5057f	0.0069891806
253	0x3de56b15	0.11202065
254	0x3e1a58b6	0.15072903
255	0xbdb335e2	-0.08750512

convs.0.lin_r.weight f4 [256, 32]
0	0xbcc0da4b	-0.02354159
1	0x3a11847f	0.00055510545
2	0x3e3324f4	0.17494565
3	0xbdbc602d	-0.091980316
4	0x3dc4aa11	0.0960275
5	0x3dd9e159	0.10638685
6	0xbae6ba10	-0.0017603058
7	0x3de5c175	0.112185396
8	0x3e13d82e	0.14437935
9	0x3df70557	0.12061565
10	0x3d935c11	0.07195295
11	0xbe11d427	-0.14241086
12	0x3d41b0ac	0.047287628
13	0xbc3cf485	-0.011532907
14	0x3e219710	0.15780282
15	0x3d635d3a	0.05550883
16	0xbe1bef7d	-0.15228076
17	0x3e1a4a5c	0.15067428
18	0xbe03e105	-0.12878807
19	0xbe03ea1b	-0.12882273
20	0x3d01032a	0.031497158
21	0x3e294c0e	0.16532919
22	0xbe001f4d	-0.1251194
23	0x3e29161b	0.16512339
24	0x3d1d432c	0.03839414
25	0xbcf729aa	-0.030171234
26	0xbe002c58	-0.12516916
27	0xbdeff6bb	-0.11716982
28	0xbd60793f	-0.05480313
29	0xbd186b93	-0.037211966
30	0xbddd16bc	-0.10795352
31	0x3dd384ac	0.103280395
32	0x3e07bfc5	0.13256748
33	0xbe14b3c8	-0.14521706
34	0x3d64ac2c	0.05582826
35	0xbd914997	-0.07094114
36	0x3d6b9b82	0.05752135
37	0x3e316503	0.17323689
38	0x3e025e29	0.12731232
39	0xbe058459	-0.13038768
40	0x3c1861ca	0.0093006585
41	0x3dbbf4ad	0.091775276
42	0xbdf94e2d	-0.12173114
43	0xbc6e08fb	-0.014528508
44	0x3e1f1a35	0.15537341
45	0x3c4d4955	0.012529691
46	0xbcfc1a0f	-0.030774144
47	0x3cc64301	0.024201872
48	0xbd22426f	-0.039614137
49	0x3cf3af84	0.029746778
50	0x3cd2414c	0.025665902
51	0x3cd4c0fc	0.025970928
52	0x3dcaf2c2	0.09909584
53	0x3d0fed0a	0.035138167
54	0xbe1f3487	-0.15547381
55	0xbce3ef0f	-0.027823953
56	0xbe1fb3ed	-0.1559598
57	0xbe04c219	-0.12964667
58	0xbdad1d0a	-0.084528044
59	0xbd97b425	-0.07407407
60	0x3d421650	0.04738456
61	0xbdf273b1	-0.11838473
62	0xbd062ea4	-0.032759324
63	0x3d8ede89	0.06976039
64	0x3d974568	0.07386285
65	0xbe22b2be	-0.15888497
66	0xbd4906e7	-0.04907885
67	0xbc2b876e	-0.010469301
68	0xbd3bfa42	-0.04589296
69	0xbe12fccd	-0.14354248
70	0xbe1eebdb	-0.15519659
71	0xbdc8ce27	-0.098049454
72	0xbdf8a87b	-0.1214151
73	0x3d0a8a1b	0.033823114
74	0x3e271499	0.16316451
75	0xbdf2ea97	-0.11861151
76	0xbb78a6ff	-0.0037941334
77	0x3d45f3a7	0.048328068
78	0xbe25bf5e	-0.16186282
79	0xbcdea30e	-0.02717736
80	0xbd39f368	-0.045398146
81	0xba989ed2	-0.0011644012
82	0xbcb9aaa5	-0.022664377
83	0xbce5e133	-0.028061485
84	0x3db8b437	0.09018748
85	0xbe0d288a	-0.13784996
86	0x3d77e68c	0.0605226
87	0x3dc1aaec	0.09456429
88	0x3d661e8a	0.056181468
89	0xbde74722	-0.112928644
90	0xbcc481c5	-0.02398766
91	0x3d766ba5	0.06016125
92	0xbdcc1c96	-0.0996639
93	0x3dc490f8	0.09597963
94	0xbd9b842e	-0.07593571
95	0x3e1b2e76	0.15154442
96	0x3d78b1d0	0.06071645
97	0xbe361bee	-0.17784092
98	0x3d9ac1fe	0.07556532
99	0xbc8b7bf0	-0.017026871
100	0x3d6bdb4f	0.057582196
101	0xbe084dd0	-0.13310933
102	0x3b849eb2	0.0040472383
103	0x3d7f46f2	0.062323518
104	0xbdd4730b	-0.10373505
105	0x3dc2b0bb	0.09506365
106	0x3daeffdf	0.08544897
107	0x3cceed48	0.025259629
108	0x3d154c10	0.036449492
109	0x3dce8b10	0.10085118
110	0x3e1d9bb8	0.15391433
111	0x3c94951b	0.018137505
112	0x3e1e7427	0.15473996
113	0xbe06f4fd	-0.13179393
114	0x3de42436	0.11139719
115	0x3dfd80c0	0.12378073
116	0x3e0780e2	0.13232759
117	0x3d142160	0.03616464
118	0xbe290914	-0.1650737
119	0x3d1f1ea4	0.03884758
120	0x3d2d7754	0.04235013
121	0x3c666275	0.01406156
122	0xbe29ce85	-0.16582687
123	0x3dabaac9	0.08382184
124	0x3c697c47	0.014250821
125	0xbd931d83	-0.07183363
126	0x3d0c6c31	0.034282867
127	0xbd980240	-0.07422304
128	0xbe0ee5d4	-0.1395486
129	0xbe239e53	-0.15978365
130	0x3d992d48	0.0747934
131	0xbce903bd	-0.028444165
132	0x3d2de56b	0.04245512
133	0x3e3acbee	0.18241856
134	0x3e0b860f	0.13625358
135	0xbdcb78ff	-0.099351875
136	0x3df0328a	0.117283896
137	0xbce32cb2	-0.027731273
138	0xbdd73b17	-0.10509317
139	0xbe01c6ed	-0.1267354
140	0x3c90b618	0.017664954
141	0x3df2e5ae	0.11860214
142	0xbd8e8c50	-0.06960356
143	0x3ccf2d82	0.025290255
144	0xbda6523a	-0.08121152
145	0xbd7d2daa	-0.061811127
146	0x3df2eb51	0.11861289
147	0x3e0530c9	0.13006891
148	0x3d300146	0.042969964
149	0x3e158239	0.14600457
150	0xbe0df3aa	-0.13862482
151	0x3dc9c3db	0.098518096
152	0x3decea77	0.11568158
153	0xbe0b17fb	-0.13583367
154	0xbdc436c6	-0.0958076
155	0xbe388830	-0.18020701
156	0x3d6655aa	0.05623404
157	0xbd52e369	-0.051486406
158	0xbe083025	-0.13299616
159	0xbe2291a1	-0.15875866
160	0xbd96cd62	-0.073633924
161	0x3e220bd9	0.15824832
162	0x3d38c526	0.04510989
163	0xbe236bef	-0.15959142
164	0xbc29ec0c	-0.010371219
165	0x3d938a25	0.07204083
166	0xbe06d958	-0.13168848
167	0x3da760dc	0.08172771
168	0xbdbcf661	-0.092266805
169	0xbccc564e	-0.024943497
170	0x3e03fdf6	0.12889847
171	0x3ca55cb1	0.0201858
172	0x3e0a3734	0.13497621
173	0x3e313e2d	0.17308874
174	0xbdd81943	-0.10551693
175	0xbe103baf	-0.14085267
176	0xbd635e45	-0.055509824
177	0x3df9ed03	0.122034095
178	0x3d2cda64	0.04220046
179	0x3dea98ea	0.11454947
180	0xbd4c24d0	-0.049839795
181	0xbd8e8209	-0.06958396
182	0xbd84b771	-0.06480301
183	0x3dad5d2d	0.084650375
184	0x3df63793	0.12022319
185	0x3d110d7d	0.035413254
186	0xbe35c57b	-0.17751114
187	0x3e00bb0d	0.12571354
188	0x3ca3c85f	0.019993005
189	0x3d94df85	0.072691955
190	0x3e1388a9	0.144076
191	0xbd459190	-0.048234522
192	0x3de12f69	0.10995371
193	0x3dbd59a4	0.09245613
194	0xbdbd0b01	-0.092306145
195	0xbe225486	-0.15852556
196	0xbdb0eb8c	-0.08638677
197	0x3d1633f6	0.036670648
198	0x3dfcea7d	0.123494126
199	0xbdf359db	-0.11882373
200	0x3de5c60f	0.11219417
201	0x3d3fc88f	0.046822127
202	0xbb9a5df6	-0.004710908
203	0xbe05dc14	-0.13072234
204	0xbd9c2e5c	-0.0762603
205	0x3e11441c	0.14186138
206	0xbcf04999	-0.02933197
207	0xb9c8bc18	-0.00038287113
208	0x3d197ff1	0.03747553
209	0x3cb61d00	0.022230625
210	0x3dcc2415	0.099678196
211	0x3c524c93	0.0128356395
212	0x3e26dce9	0.16295208
213	0xbdb3986a	-0.08769305
214	0xbda3f882	-0.080063835
215	0x3c1d1218	0.009586833
216	0xbd562667	-0.052282717
217	0xbce5f195	-0.028069297
218	0x3d186636	0.03720685
219	0x3e15442d	0.14576788
220	0x3ce4423a	0.02786361
221	0xbddb49d2	-0.107074395
222	0x3dfa6ba7	0.12227564
223	0xbd669fbc	-0.05630468
224	0xbda35015	-0.07974259
225	0xbd2e1956	-0.04250463
226	0x3d72af0f	0.05924898
227	0x3c301f5c	0.010749664
228	0xbe1d178c	-0.15341014
229	0xbc0e3947	-0.008680648
230	0x3d814671	0.06312264
231	0x3dcde19a	0.10052796
232	0xbd349ae2	-0.04409302
233	0xbcadfcaa	-0.021238644
234	0xbcc8d528	-0.024515703
235	0xbcf97a4b	-0.030453822
236	0x3d4589fa	0.048227288
237	0xbe03c4c7	-0.12868033
238	0x3d935425	0.07193784
239	0xbdc43339	-0.095800824
240	0xbda50c4b	-0.08058985
241	0x3df796df	0.12089323
242	0x3cd23364	0.02565927
243	0xbe037346	-0.12836942
244	0x3df375be	0.11887692
245	0x3df4cdaa	0.1195329
246	0x3cc0174f	0.023448614
247	0x3e1368ba	0.14395419
248	0xbe00b8a5	-0.12570436
249	0xbd0ea3f2	-0.03482432
250	0xbd64fe4e	-0.055906586
251	0xbdcb0031	-0.09912146
252	0xbdb09e69	-0.08623964
253	0x3db7dc9f	0.08977627
254	0xbcf52fd9	-0.029930042
255	0xbe09aa7e	-0.13443944

convs.1.lin_l.weight f4 [64, 256]
0	0x3cd4a48e	0.025957372
1	0x3d4430ed	0.04789822
2	0x3d39bd56	0.04534658
3	0xbd0664c9	-0.03281096
4	0xbd206484	-0.03915836
5	0x3d0f8510	0.035039008
6	0xbd80c4bb	-0.06287523
7	0xbdc623d6	-0.09674804
8	0xbb613251	-0.0034362266
9	0xbd62e939	-0.0553982
10	0xbbabeb8b	-0.005246585
11	0xbd548c16	-0.05189141
12	0x3d3bb8a5	0.045830388
13	0xbcef7bd4	-0.02923385
14	0xbcecbd74	-0.028898932
15	0x3bf2ff9c	0.007415725
16	0xbd6f76d6	-0.05846294
17	0xbd092a91	-0.03348786
18	0x3c50d4c6	0.012746042
19	0xbd4d7fa7	-0.050170567
20	0xbd06f549	-0.032948766
21	0xbb91f270	-0.0044539496
22	0x3c617598	0.013760947
23	0xbd06297d	-0.03275441
24	0x3d3d2e09	0.04618648
25	0x3c340242	0.010986866
26	0xbd175817	-0.036949243
27	0x3c43d1b7	0.011951855
28	0xbda633f9	-0.08115382
29	0xbce41e14	-0.027846374
30	0x3a3b3313	0.00071410945
31	0x3c8b6866	0.017017554
32	0xbd18aad4	-0.03727229
33	0xbc8c65fd	-0.017138476
34	0x3ca15448	0.019693509
35	0xbcad5dac	-0.02116283
36	0xbdc47e77	-0.09594434
37	0xbbd9ed8f	-0.0066506336
38	0x3c55d960	0.0130523145
39	0xbd840470	-0.06446159
40	0xbcd00ad4	-0.025395788
41	0xbc899353	-0.016793882
42	0x3b92f814	0.0044851396
43	0xbd82e010	-0.06390393
44	0xbd3f4d67	-0.046704676
45	0x39e3ce8b	0.000434507
46	0xbd6f4995	-0.058419783
47	0xbc5fbd4c	-0.013655972
48	0xbc162196	-0.009163281
49	0xbd1f7521	-0.038930062
50	0x3c36bb6d	0.011153084
51	0x3ae1a22d	0.001721447
52	0xbd1d5a73	-0.038416337
53	0xbd969fb1	-0.073546775
54	0xbd5f021f	-0.054445382
55	0xbc8407cc	-0.016117
56	0xbce740f8	-0.028229222
57	0xbcc1af79	-0.023643242
58	0x3d5fbbcf	0.054622468
59	0xbd996ee7	-0.07491856
60	0xbc2f5cfa	-0.01070332
61	0xbccbb6dd	-0.02486747
62	0x3d0cf276	0.034410916
63	0xbb96cb2e	-0.0046018576
64	0x3d0c108b	0.034195464
65	0x3d4e8f40	0.050429583
66	0xbbfdefda	-0.00774954
67	0x3bb65d0e	0.005565292
68	0x3b4be16e	0.0031109708
69	0x3b70c8a1	0.0036740678
70	0xbd8c58af	-0.068528526
71	0x3cd3eb3e	0.025869008
72	0xbd228580	-0.039678097
73	0xbcb7a968	-0.022419646
74	0x3d73750b	0.059437793
75	0xbbdb769c	-0.006697489
76	0x3d0eb21b	0.034837823
77	0x3d2c3e9c	0.042051896
78	0x3b2ccd67	0.0026367547
79	0xba0708c4	-0.00051511475
80	0x3be82e7e	0.0070856204
81	0xbd5f5e86	-0.054533504
82	0x3cd60aee	0.026128259
83	0x3bc02083	0.0058632507
84	0xbd6af0d4	-0.057358578
85	0xbb48e737	-0.0030655393
86	0xbdad52bf	-0.08463048
87	0x3af19e65	0.0018434046
88	0xbceb47a4	-0.028720684
89	0x3d237532	0.039906688
90	0xbcee6a23	-0.029103344
91	0xbcd33a60	-0.025784671
92	0xbcd20747	-0.025638236
93	0x3db3a5ef	0.08771884
94	0xbd16e64f	-0.036840733
95	0xbd9f5f08	-0.07781798
96	0xbd93c175	-0.072146334
97	0xbd2db622	-0.042410024
98	0x3d17d7cd	0.037071038
99	0xbd1a6a6b	-0.037699144
100	0xbd73a941	-0.059487585
101	0xbd44eaae	-0.04807537
102	0x3ba33c64	0.0049815644
103	0xbd634e8a	-0.055494823
104	0xbd31fce4	-0.043454066
105	0xbd4b524d	-0.049639035
106	0xbd42f370	-0.04759544
107	0x3b45f860	0.0030207857
108	0xbd6753de	-0.056476466
109	0xbd588ce4	-0.05286874
110	0xbd5873ae	-0.052844696
111	0xbd2ee38a	-0.042697467
112	0xbd8da725	-0.06916646
113	0xbccb3168	-0.024803832
114	0x3d7a6898	0.061134905
115	0xbd9eae70	-0.07748115
116	0x3d6a1eab	0.057158154
117	0xbd8ee1e6	-0.069766805
118	0xbc92a5e2	-0.017901365
119	0xbd12036a	-0.035647787
120	0x3c9251ad	0.017861212
121	0xbcd34070	-0.025787562
122	0xbd743fc4	-0.059631124
123	0xbd87a33a	-0.0662293
124	0xbd1daf11	-0.038497034
125	0xbd88e794	-0.06684795
126	0xbcc3c2e9	-0.023896651
127	0xbd14f5ce	-0.03636723
128	0x3d50956c	0.05092375
129	0xbd1774de	-0.036976688
130	0xbce70c18	-0.028204009
131	0xbd61ce48	-0.055128366
132	0xba61c548	-0.0008612466
133	0xbdb2d5dc	-0.08732197
134	0xbd76ff53	-0.06030209
135	0x3d964a0e	0.073383436
136	0x3c2a7c6e	0.010405643
137	0x3d82c3cb	0.06385001
138	0xbca30d8d	-0.019903922
139	0xbcf9c7f8	-0.03049086
140	0x3d9f85a1	0.077891596
141	0xbd8dd8db	-0.069261275
142	0xbba56ff0	-0.0050487444
143	0x3d36f5fd	0.044668186
144	0xbc0b361f	-0.00849679
145	0x3c82a7f3	0.015949225
146	0xbc2e8a0d	-0.010653031
147	0xbda2af81	-0.07943631
148	0xbc256dd1	-0.010096983
149	0x3d5b0074	0.05346723
150	0x3cab1e2f	0.020888416
151	0xbc453764	-0.012037132
152	0x3cf00cdc	0.029303007
153	0x3d07960d	0.033102084
154	0xbbfc53a1	-0.007700399
155	0xbcb406d8	-0.02197592
156	0xbd879f03	-0.06622126
157	0xbd31dd10	-0.043423712
158	0x3cb231a3	0.021752184
159	0x39d8c3d3	0.0004134463
160	0xbd36ac21	-0.04459775
161	0xbd2e722d	-0.042589355
162	0xbcf78418	-0.030214354
163	0xbd99a83f	-0.075027935
164	0xbd4e46fd	-0.05036067
165	0xbd1885c2	-0.037236936
166	0xbc3d3e65	-0.011550521
167	0x3b05cc1a	0.0020415843
168	0xbca68728	-0.02032812
169	0x3c53df52	0.012931662
170	0x3ca265f9	0.019824015
171	0xbd206616	-0.039159857
172	0xbb207c0e	-0.0024488005
173	0xbdd8b4f8	-0.10581392
174	0xbcf0c33c	-0.02938997
175	0x3d53a051	0.05166656
176	0x3c6e6ef6	0.014552822
177	0x3d2259ad	0.039636303
178	0xbc1b3608	-0.009473331
179	0x3d252b79	0.040324662
180	0xbc37eb04	-0.011225466
181	0xbd09e790	-0.0336681
182	0x3d067ebc	0.032835707
183	0xbae1b02e	-0.0017218643
184	0xbc9fe641	-0.019518973
185	0x3ccf78cb	0.025326153
186	0xbc63c73f	-0.013902484
187	0x3d35f801	0.044425968
188	0x3d92852f	0.07154309
189	0xbc4bbde3	-0.012435409
190	0xbc6c86e1	-0.0144364545
191	0x3d0b31ec	0.033983156
192	0xbcfacc8e	-0.030615117
193	0x3b5a1132	0.003327441
194	0xbd84acf9	-0.064783044
195	0x3d05253e	0.03250622
196	0xbc95075c	-0.018191986
197	0x3d120da5	0.035657544
198	0x3d0df226	0.03465476
199	0x3c82a90a	0.015949745
200	0xbd8125e8	-0.06306058
201	0xbc574c84	-0.013140801
202	0x3cb05a0a	0.021527309
203	0xbb8c773a	-0.004286674
204	0x3d005174	0.03132768
205	0xbd522c5c	-0.051311836
206	0xba3d51d1	-0.00072219694
207	0x3bf154de	0.0073648533
208	0x3d1cb116	0.03825482
209	0xbd60a6f1	-0.054846708
210	0xbcb6cede	-0.022315439
211	0xbb590414	-0.0033114003
212	0xbd95af2b	-0.07308801
213	0xbce8d887	-0.02842356
214	0xbcc534b0	-0.024072975
215	0xbcc07ec9	-0.023497956
216	0x3d3f8a40	0.046762705
217	0x3d3c25fc	0.045934662
218	0xbd8c7f1c	-0.06860182
219	0x3d312293	0.043245863
220	0x3d921b47	0.07134109
221	0x3afef17c	0.001945063
222	0xbd87e935	-0.066362776
223	0xbd97f2db	-0.07419368
224	0xb9a72a1c	-0.00031884096
225	0xbd0143f3	-0.031558942
226	0x3cff722e	0.031182375
227	0xbc808f88	-0.015693441
228	0x3d60a28f	0.054842528
229	0x3d5a57e5	0.05330648
230	0xbcdda5c1	-0.027056577
231	0xbc952ee2	-0.018210832
232	0xbd03d65e	-0.03218686
233	0x3c2f7af5	0.010710468
234	0x3d9b477d	0.07581995
235	0xbd1976e8	-0.037466913
236	0xbd9c6d2b	-0.0763801
237	0x3d4b42d3	0.049624275
238	0xbd0cde53	-0.034391712
239	0xbda48f4a	-0.08035143
240	0xbd1bcf3c	-0.03803943
241	0xbcdea69e	-0.027179059
242	0xbc7fbea5	-0.015609418
243	0xbd41f64e	-0.047354035
244	0xbd7af795	-0.06127127
245	0x3cc5a4c3	0.024126416
246	0xbd8580b7	-0.06518691
247	0xbd52d296	-0.05147036
248	0x3cfa8aba	0.030583728
249	0xbc92b464	-0.017908283
250	0x3c1f4241	0.009720386
251	0xbd598bf9	-0.053112004
252	0xbd6f1dbf	-0.058377977
253	0xbd17ce00	-0.03706169
254	0x3b890958	0.004182022
255	0xbca66752	-0.020312939

convs.1.lin_l.bias f4 [64]
0	0xbd7ab3ba	-0.061206557
1	0x3ddf3252	0.1089827
2	0xbd8b337d	-0.0679693
3	0x3dcb18d3	0.09916844
4	0x3d5ac32a	0.05340878
5	0x3d4159a6	0.047204636
6	0x3cc0dc0b	0.023542425
7	0xbc8b042d	-0.016969765
8	0xbd23d5bd	-0.03999876
9	0xbc57621f	-0.0131459525
10	0x3d1c7441	0.038196806
11	0xbc8fdfe5	-0.017562816
12	0xbd2bdd78	-0.041959256
13	0x3dcd9771	0.10038651
14	0x3c8cdd8f	0.017195491
15	0x3d0ff7a6	0.035148285
16	0xbd907b32	-0.07054748
17	0xbd029a23	-0.031885277
18	0xbd2f8a1b	-0.042856317
19	0x3b4fdb59	0.0031716435
20	0xbd42bf3d	-0.04754566
21	0x3c8cc779	0.01718496
22	0x3d55487e	0.052071087
23	0x3d8fa00c	0.070129484
24	0xbc979e73	-0.018508172
25	0x3d91feff	0.07128715
26	0x3cd839c7	0.026394738
27	0xbd48dab9	-0.049036715
28	0x3ccf047e	0.025270697
29	0x3b88ca81	0.004174531
30	0xbd5845fe	-0.052801125
31	0x3cbdb031	0.023155304
32	0xbd06aa31	-0.03287715
33	0x3d349c84	0.044094577
34	0xbc8f4b6b	-0.017492017
35	0x3bcac49f	0.00618799
36	0xbcf46f78	-0.029838309
37	0xbb232353	-0.002489288
38	0xbde245c7	-0.11048465
39	0xbdd5a64f	-0.104321115
40	0xbd91e163	-0.07123067
41	0x3bf76c54	0.0075507555
42	0x3d5a6098	0.053314775
43	0x3cc5d74b	0.024150511
44	0x3bbae814	0.0057039354
45	0x3d65c04c	0.05609159
46	0x3c9b49ea	0.018956143
47	0x3d703432	0.058643527
48	0x3daa323e	0.08310364
49	0xbd8fffa7	-0.07031184
50	0x3c9a7c18	0.018858
51	0x3d55652e	0.052098446
52	0x3c1a6d19	0.009425425
53	0xbbe6f187	-0.0070478353
54	0x3d98bf8f	0.07458412
55	0xbbfdcd7a	-0.007745442
56	0x3cb58406	0.02215768
57	0x3d950685	0.07276634
58	0x3d35a18e	0.044343524
59	0xbd6a3727	-0.057181504
60	0x3c821243	0.015877848
61	0xbc097017	-0.008388541
62	0xbc266336	-0.01015549
63	0x3b950fd3	0.0045490055

convs.1.lin_r.weight f4 [64, 256]
0	0x3c5b428f	0.013382568
1	0x3c9e76d0	0.019343764
2	0x3d836f4e	0.06417714
3	0xbd8e7c35	-0.06957284
4	0xbcd862ea	-0.026414353
5	0xb9932e57	-0.0002807255
6	0xbd7a097f	-0.061044212
7	0xbce9a8b9	-0.028522836
8	0xbd35081f	-0.044197198
9	0x3b9ac7d6	0.0047235293
10	0xbdc0081a	-0.09376545
11	0x3c5c377a	0.013440961
12	0x3d4ba51f	0.04971802
13	0xbd67a668	-0.05655518
14	0x3d41c1d2	0.047303982
15	0xbd9444a5	-0.072396554
16	0xbd90d03b	-0.07070967
17	0xbda92ab1	-0.08260096
18	0xbc41bc08	-0.011824615
19	0xbc4fb738	-0.01267796
20	0xbc138d62	-0.009005876
21	0x3c3324b8	0.010934047
22	0x3cea2cac	0.028585754
23	0xbd5c5df5	-0.053800542
24	0xbc400d73	-0.011721957
25	0x3c821bcf	0.0158824
26	0x3d15206b	0.03640787
27	0xbcd5e5e7	-0.026110603
28	0x3b0371ee	0.002005692
29	0xbd11d543	-0.035603773
30	0xbdb6522c	-0.08902392
31	0x3ca7f35b	0.020501783
32	0xbd604a49	-0.054758344
33	0x3d0824cd	0.03323822
34	0xbd1c84bc	-0.038212523
35	0xbb9d5102	-0.0048009166
36	0x3b2b0d59	0.0026100485
37	0xbda12190	-0.0786773
38	0x3cf760dc	0.030197553
39	0xbc871c0d	-0.016492868
40	0xbc98a3a9	-0.018632727
41	0x3d00bd56	0.031430565
42	0xbc69f7e0	-0.014280289
43	0xbd2a0663	-0.041509997
44	0x3d47c9fc	0.04877661
45	0xbdab8e68	-0.08376771
46	0x3b72d3cb	0.0037052508
47	0xbd3e5149	-0.04646424
48	0x3d80be85	0.06286339
49	0x3d3fe7dc	0.046851978
50	0xbd372dfe	-0.044721596
51	0x3d5440b7	0.05181953
52	0x3b3dfedf	0.0028991026
53	0xbcdf532e	-0.027261343
54	0x3c5b15b4	0.013371874
55	0x3d0e37a5	0.034721036
56	0xbc6d3178	-0.014477126
57	0xbd596e3f	-0.053083654
58	0xbd09493a	-0.0335171
59	0xbc4ddccb	-0.012564848
60	0xbd938e7a	-0.072049096
61	0xbd78fcef	-0.06078809
62	0x3ce87434	0.028375722
63	0xbd4d9980	-0.050195217
64	0x3cdc218e	0.026871469
65	0x3cfeec09	0.03111841
66	0x3d04ca73	0.032419633
67	0x3cf2882b	0.029605946
68	0xbd5c6672	-0.053808637
69	0xbd70b622	-0.058767445
70	0xbd3677bc	-0.04454778
71	0x3c1dd74b	0.009633849
72	0xbd3bad3f	-0.045819517
73	0xbc1b2b04	-0.009470705
74	0xbc83598b	-0.016033908
75	0xbd957d3f	-0.072992794
76	0xbcf9a336	-0.030473333
77	0x3c9c8c69	0.019109922
78	0x3c9ebde5	0.019377658
79	0x3d40b82e	0.047050647
80	0x3cb6ebc2	0.022329215
81	0x3bd2b711	0.0064305146
82	0xbcb7e57c	-0.022448294
83	0x3bcf40a9	0.0063248468
84	0xbbce1d4f	-0.006290115
85	0x3baf40c7	0.0053482982
86	0xbc563d95	-0.013076206
87	0xbb1a8eb3	-0.002358359
88	0xbdb7eeec	-0.089811176
89	0xbd3be201	-0.04586983
90	0xbd9eccb1	-0.077538855
91	0xbd3b6de7	-0.045759108
92	0xbd7df41a	-0.06200037
93	0x3cd6ab71	0.026204797
94	0x3cbbfd81	0.022948029
95	0x3d0e6287	0.03476193
96	0x3cc38e85	0.02387167
97	0xbc52b78b	-0.012861143
98	0xbd9c283e	-0.07624863
99	0xbd11a9dc	-0.03556238
100	0x3c726327	0.014794148
101	0x3caa1d80	0.02076602
102	0xbd9f0db0	-0.077662826
103	0xbd71d8a4	-0.059044495
104	0xbd297f82	-0.041381367
105	0x3d4e3fc9	0.0503538
106	0xbdc9b5e1	-0.09849144
107	0xbcd3ecd5	-0.025869766
108	0xbdd43865	-0.10362319
109	0xbd8380c2	-0.06421043
110	0xbe2f438b	-0.1711561
111	0x3ce1c678	0.027560458
112	0xbd74e960	-0.059792876
113	0xbccedc41	-0.02525151
114	0xbd0c78b1	-0.034294788
115	0xbd83e882	-0.06440832
116	0x3d5b1e90	0.053495944
117	0xbb6cd9ff	-0.0036140678
118	0x3d472c74	0.04862638
119	0xbd44a981	-0.048013214
120	0xbdb6d149	-0.08926637
121	0x3c9832c8	0.018578902
122	0xbc6677a2	-0.014066609
123	0xba576a30	-0.00082174223
124	0xbc55ead2	-0.013056474
125	0xbda04fe6	-0.078277394
126	0xbcb8ebfd	-0.022573465
127	0x3aee12d8	0.0018163575
128	0xbd04e31f	-0.032443162
129	0xbca1d1fc	-0.019753449
130	0x3d52ee16	0.051496588
131	0xbd6e4d8d	-0.058179427
132	0xbd701e28	-0.05862251
133	0x3bdb7deb	0.00669836
134	0xbd19827d	-0.03747796
135	0x3cdf73b0	0.027276844
136	0xbd840805	-0.06446842
137	0xbd169090	-0.03675896
138	0xbbfb8403	-0.007675649
139	0xbc2f8369	-0.010712483
140	0x3cadd0a5	0.021217654
141	0x3c5dd64a	0.01353986
142	0xbcb57335	-0.022149662
143	0x3cba7ce1	0.022764625
144	0xbd7ca83d	-0.061683882
145	0xbd82ede2	-0.06393029
146	0xbd75d2f6	-0.06001564
147	0x3c0b0ab7	0.008486441
148	0xbd822ec4	-0.06356576
149	0x3d0b8050	0.034057915
150	0xbd9bfaf9	-0.076162286
151	0xbcc8791c	-0.024471812
152	0x3d1e0999	0.03858337
153	0x3c8adaed	0.016950095
154	0xbd0de579	-0.03464267
155	0xbd806f7f	-0.06271266
156	0xbde06a4b	-0.10957774
157	0xbdb0d812	-0.08634962
158	0x3b0730a2	0.0020628353
159	0xbd2c3914	-0.04204662
160	0xbcf7f698	-0.030268952
161	0xbc770723	-0.015077385
162	0xbca453d5	-0.020059505
163	0xbd1e657e	-0.03867101
164	0x3c4dc351	0.012558774
165	0xbd34afd3	-0.04411299
166	0xbd5deae8	-0.054179102
167	0x3d600fa0	0.0547024
168	0xbd295815	-0.041343767
169	0xbc37d464	-0.011220071
170	0x3ca07da7	0.019591166
171	0xbda1795b	-0.07884475
172	0xbd58477d	-0.05280255
173	0xbcf99954	-0.03046862
174	0xbd99dd19	-0.07512874
175	0x3d3dd1e1	0.046342734
176	0xbd3f8000	-0.04675293
177	0xbd933b4e	-0.07189046
178	0x3cee506a	0.029091079
179	0x3bc45f95	0.0059928396
180	0xbcee7832	-0.029110048
181	0xbbdf5cd3	-0.0068164854
182	0xbd59b4b7	-0.05315086
183	0xba5d4fae	-0.0008442354
184	0xbdd4daf8	-0.103933275
185	0x3c5473f4	0.0129670985
186	0x3cc60174	0.024170615
187	0x3ca04609	0.019564645
188	0x3cfea14f	0.031082777
189	0x3d0caced	0.034344602
190	0xbb4f2401	-0.0031607153
191	0xbcd2e01f	-0.025741635
192	0xbdb2a868	-0.08723527
193	0xbba84eec	-0.0051363613
194	0xbd8316b3	-0.06400814
195	0xbcb20ce8	-0.02173467
196	0xbd4b50d7	-0.04963764
197	0xbd7d132a	-0.061785854
198	0xbcb4abba	-0.022054542
199	0xbc9e3bcb	-0.01931562
200	0xbd6e0eaf	-0.058119472
201	0xba9b800f	-0.0011863726
202	0x3cdced23	0.026968544
203	0xbce82b8e	-0.028341081
204	0x3d41afb6	0.04728671
205	0xbd98d1cc	-0.074618906
206	0x3d5995cc	0.053121373
207	0xbd9ea48a	-0.07746227
208	0x3cc3cb0c	0.023900531
209	0x3a147c56	0.00056642795
210	0xbb802333	-0.003910446
211	0xbd261ef2	-0.040556855
212	0xbd30bee9	-0.043150816
213	0xbd95e3c7	-0.07318836
214	0xbd54a1aa	-0.051911987
215	0xbd4baea9	-0.049727116
216	0xbbf258a1	-0.0073958193
217	0xbcb0ee12	-0.021597896
218	0xbc18a339	-0.009316259
219	0xbd3a3ae0	-0.045466304
220	0xba8f41bf	-0.0010929628
221	0xbd90973a	-0.07060094
222	0xbd91ccdc	-0.07119152
223	0x3c3c6601	0.011498929
224	0xbd8feb34	-0.07027283
225	0xbd6b7598	-0.057485193
226	0x3c9e3d3e	0.019316312
227	0xbbc9c871	-0.0061579277
228	0x3c99091d	0.018681103
229	0x3c661b0b	0.0140445335
230	0xbd6e46f8	-0.05817315
231	0xbd5c1780	-0.05373335
232	0xbd0c0131	-0.034180824
233	0xbc4eceec	-0.012622576
234	0x3d84662b	0.064647995
235	0xbd338a10	-0.04383284
236	0x3d4027c7	0.046912935
237	0xbd5ad513	-0.05342586
238	0x3cd7b910	0.026333362
239	0xbdab2df4	-0.08358374
240	0xbc9a743a	-0.01885425
241	0xbcb6a9ff	-0.022297857
242	0x3c7c6218	0.015404247
243	0xbb02bb1e	-0.0019947956
244	0xbdbd5bfe	-0.09246062
245	0xbc91e64e	-0.017810013
246	0xbc900cae	-0.017584171
247	0xbd2c8b60	-0.042125106
248	0x3cf3be1c	0.029753737
249	0xbbf6b9ec	-0.007529488
250	0xbd811f06	-0.063047454
251	0x3ce4eba5	0.027944395
252	0xbd341861	-0.043968562
253	0xbc7b0b3c	-0.015322503
254	0xbd82a289	-0.06378657
255	0x3c1222bb	0.008919413

bns.0.weight f4 [256]
0	0x3f7512aa	0.95731604
1	0x3f75db21	0.9603749
2	0x3f778054	0.9668019
3	0x3f730158	0.94923925
4	0x3f740ffd	0.95336896
5	0x3f75d9df	0.9603557
6	0x3f750df4	0.95724416
7	0x3f75fde7	0.9609055
8	0x3f748ef7	0.9553065
9	0x3f707f9b	0.9394471
10	0x3f797b39	0.9745365
11	0x3f7aa371	0.9790564
12	0x3f731a3e	0.9496192
13	0x3f743926	0.953997
14	0x3f78b1a7	0.97146076
15	0x3f76081f	0.9610614
16	0x3f7507f9	0.9571529
17	0x3f73cb95	0.95232517
18	0x3f7502b0	0.95707226
19	0x3f777411	0.9666148
20	0x3f6f30fc	0.9343412
21	0x3f7725c2	0.9654199
22	0x3f755672	0.9583503
23	0x3f720616	0.94540536
24	0x3f75e507	0.96052593
25	0x3f75c3fc	0.96002173
26	0x3f73e8f1	0.95277315
27	0x3f767e32	0.9628631
28	0x3f749947	0.9554638
29	0x3f747b16	0.95500314
30	0x3f722038	0.9458041
31	0x3f7432d8	0.9539008
32	0x3f70be43	0.94040316
33	0x3f75054c	0.9571121
34	0x3f728a4f	0.9474229
35	0x3f742ff7	0.9538569
36	0x3f73f823	0.953005
37	0x3f763ca0	0.96186256
38	0x3f738e04	0.95138574
39	0x3f72aad4	0.94791913
40	0x3f773455	0.9656423
41	0x3f775461	0.96613127
42	0x3f6fb035	0.93628246
43	0x3f7683c4	0.9629481
44	0x3f726a72	0.9469367
45	0x3f72acba	0.9479481
46	0x3f74aa4c	0.9557235
47	0x3f730482	0.94928753
48	0x3f77dd83	0.96822375
49	0x3f74ca25	0.9562095
50	0x3f746a07	0.95474285
51	0x3f76fcea	0.96479666
52	0x3f771e91	0.96531016
53	0x3f735561	0.9505215
54	0x3f6e8587	0.93172497
55	0x3f72f34d	0.949025
56	0x3f72a8e3	0.9478895
57	0x3f7491c5	0.95534927
58	0x3f759db2	0.9594375
59	0x3f73828d	0.9512108
60	0x3f753040	0.9577675
61	0x3f74e1be	0.95656955
62	0x3f75e754	0.96056104
63	0x3f739fc3	0.9516565
64	0x3f753c0d	0.95794755
65	0x3f7855f6	0.97006166
66	0x3f7410f4	0.9533837
67	0x3f7759da	0.9662148
68	0x3f787f06	0.9706882
69	0x3f763261	0.9617062
70	0x3f762923	0.9615652
71	0x3f756b6e	0.9586705
72	0x3f70bcd9	0.9403816
73	0x3f73cbc6	0.9523281
74	0x3f709c58	0.9398856
75	0x3f6ffc27	0.9374413
76	0x3f75562c	0.9583461
77	0x3f748d70	0.95528316
78	0x3f72bd40	0.9482002
79	0x3f76fe45	0.96481735
80	0x3f75c5bf	0.9600486
81	0x3f7668e7	0.9625382
82	0x3f77ffe3	0.9687483
83	0x3f73fdef	0.95309347
84	0x3f7a6364	0.9780791
85	0x3f735883	0.95056933
86	0x3f76edb5	0.9645646
87	0x3f761964	0.96132493
88	0x3f78d050	0.9719286
89	0x3f778238	0.96683073
90	0x3f76d4ca	0.9641844
91	0x3f76dcb6	0.9643053
92	0x3f74b71f	0.9559192
93	0x3f773be1	0.9657574
94	0x3f7749cc	0.9659698
95	0x3f755fed	0.95849496
96	0x3f765ba9	0.9623361
97	0x3f729a8e	0.9476708
98	0x3f759ac9	0.9593931
99	0x3f781a07	0.96914715
100	0x3f782678	0.969337
101	0x3f787fd9	0.9707008
102	0x3f72e977	0.9488749
103	0x3f799e77	0.97507423
104	0x3f76b7eb	0.96374387
105	0x3f7396fb	0.9515225
106	0x3f77c27d	0.9678114
107	0x3f761ec3	0.9614069
108	0x3f6a43a9	0.9150949
109	0x3f74e9e2	0.95669377
110	0x3f721436	0.9456209
111	0x3f76ad12	0.96357834
112	0x3f790c14	0.97284055
113	0x3f771688	0.96518755
114	0x3f77c41e	0.96783626
115	0x3f748c91	0.9552699
116	0x3f741254	0.95340466
117	0x3f7485a4	0.9551642
118	0x3f75236b	0.9575717
119	0x3f7678ff	0.96278375
120	0x3f74c0ab	0.9560649
121	0x3f72e7a4	0.94884706
122	0x3f775c52	0.96625245
123	0x3f749e1b	0.9555375
124	0x3f762d9a	0.9616333
125	0x3f76dfe4	0.9643538
126	0x3f73329f	0.94999117
127	0x3f781844	0.96912026
128	0x3f719227	0.94363636
129	0x3f78166b	0.9690921
130	0x3f75bb92	0.95989335
131	0x3f736093	0.95069236
132	0x3f76d08d	0.96411973
133	0x3f75cf8f	0.96019834
134	0x3f79d082	0.9758378
135	0x3f71dec3	0.9448053
136	0x3f74628c	0.9546287
137	0x3f73ae55	0.95187885
138	0x3f70e009	0.9409185
139	0x3f7396ff	0.95152277
140	0x3f729200	0.9475403
141	0x3f72b3ab	0.948054
142	0x3f75647c	0.9585645
143	0x3f780bed	0.968932
144	0x3f6f327c	0.9343641
145	0x3f7946ce	0.97373664
146	0x3f71648f	0.94294065
147	0x3f721b7a	0.94573176
148	0x3f7a70fe	0.9782866
149	0x3f7340f0	0.9502096
150	0x3f757a2e	0.95889556
151	0x3f7a0c3b	0.9767491
152	0x3f71c7d7	0.94445556
153	0x3f770754	0.96495557
154	0x3f73b649	0.9520002
155	0x3f757c48	0.95892763
156	0x3f70efed	0.941161
157	0x3f782587	0.9693226
158	0x3f73a347	0.95171016
159	0x3f726152	0.9467975
160	0x3f71f804	0.94519067
161	0x3f77887f	0.9669265
162	0x3f7300f2	0.9492332
163	0x3f7310ab	0.9494731
164	0x3f7458e7	0.95448154
165	0x3f768918	0.9630294
166	0x3f75b536	0.9597963
167	0x3f789140	0.97096634
168	0x3f71556e	0.9427098
169	0x3f771e19	0.965303
170	0x3f79acbd	0.975292
171	0x3f78c33d	0.9717291
172	0x3f768a78	0.96305037
173	0x3f75efde	0.96069133
174	0x3f77ea53	0.96841925
175	0x3f71e561	0.9449063
176	0x3f6ee76f	0.9332189
177	0x3f771eac	0.96531177
178	0x3f75f1ad	0.9607189
179	0x3f758238	0.95901823
180	0x3f71f572	0.94515145
181	0x3f75a966	0.95961607
182	0x3f74eb8e	0.9567193
183	0x3f7772c0	0.9665947
184	0x3f752b7e	0.9576949
185	0x3f7432c8	0.95389986
186	0x3f717680	0.9432144
187	0x3f768754	0.96300244
188	0x3f71db64	0.9447539
189	0x3f7693dc	0.96319366
190	0x3f74ffdf	0.9570293
191	0x3f72dfe5	0.94872886
192	0x3f77b75b	0.96764153
193	0x3f77a260	0.9673214
194	0x3f75b880	0.9598465
195	0x3f75bf97	0.9599547
196	0x3f7385f8	0.95126295
197	0x3f752a2b	0.9576747
198	0x3f775146	0.9660839
199	0x3f7380e1	0.9511853
200	0x3f70ee26	0.94113386
201	0x3f6f4f6b	0.9348056
202	0x3f72fabe	0.9491385
203	0x3f75f22b	0.96072644
204	0x3f76bd0d	0.9638222
205	0x3f78f512	0.9724895
206	0x3f7032e1	0.93827635
207	0x3f77fda1	0.9687138
208	0x3f75fec4	0.96091866
209	0x3f76a4cb	0.96345204
210	0x3f751bbd	0.9574545
211	0x3f76de07	0.96432537
212	0x3f76487d	0.9620436
213	0x3f7517ac	0.95739245
214	0x3f745f42	0.9545785
215	0x3f730fd3	0.9494602
216	0x3f720e0a	0.9455267
217	0x3f753de4	0.9579756
218	0x3f74f4f9	0.956863
219	0x3f78ea7d	0.972328
220	0x3f786d0e	0.97041404
221	0x3f789398	0.9710021
222	0x3f764292	0.9619533
223	0x3f789215	0.97097903
224	0x3f71e689	0.94492394
225	0x3f784a85	0.9698871
226	0x3f73d17b	0.95241517
227	0x3f75c954	0.9601033
228	0x3f77bf8d	0.9677666
229	0x3f75ba1b	0.959871
230	0x3f7377bd	0.9510458
231	0x3f76ac01	0.9635621
232	0x3f72f79d	0.9490908
233	0x3f710f62	0.941641
234	0x3f75323a	0.95779765
235	0x3f71cf88	0.9445729
236	0x3f7b7ed2	0.9824039
237	0x3f7a7e48	0.9784894
238	0x3f72dc07	0.94866985
239	0x3f75d532	0.96028435
240	0x3f776835	0.9664338
241	0x3f73e460	0.9527035
242	0x3f74bc89	0.9560018
243	0x3f774592	0.9659053
244	0x3f78d951	0.972066
245	0x3f71d767	0.944693
246	0x3f6d7342	0.92753994
247	0x3f729a05	0.94766265
248	0x3f75a834	0.9595978
249	0x3f71ce9b	0.9445588
250	0x3f779987	0.9671864
251	0x3f761938	0.9613223
252	0x3f7a9755	0.97887164
253	0x3f73f8ee	0.9530171
254	0x3f714014	0.942384
255	0x3f76bf29	0.9638544

bns.0.bias f4 [256]
0	0xbbd6e20e	-0.0065577095
1	0xbb93d58e	-0.0045115417
2	0x3c0d3a4d	0.008619857
3	0xbc99744d	-0.018732214
4	0xbc8fe06e	-0.017563071
5	0xbbb19046	-0.00541881
6	0xbaaf5f19	-0.0013379782
7	0x3bee8f45	0.0072802627
8	0xbb459c19	-0.0030152856
9	0xbc299a52	-0.010351734
10	0x3cd4081b	0.025882771
11	0x3c6d4e8b	0.014484058
12	0xbc85a8d1	-0.01631585
13	0xba69899a	-0.0008908749
14	0x3bc29858	0.005938571
15	0xbbb513e3	-0.0055260523
16	0xbc3dcf35	-0.011585047
17	0xbc1bc0fa	-0.009506458
18	0xbc2bd26d	-0.010487181
19	0x3c2e6614	0.0106444545
20	0xbc845dcf	-0.016158013
21	0x3b9a1df9	0.00470328
22	0xbb8695b3	-0.004107201
23	0xbc3e24f0	-0.011605486
24	0xbbb27b3d	-0.00544682
25	0x3c04ae51	0.008098201
26	0xbc8f906e	-0.017524924
27	0x3b996c1a	0.004682076
28	0xbc021d51	-0.00794156
29	0xbc482e10	-0.012218013
30	0xbc3cdde4	-0.011527512
31	0xbc8adb74	-0.016950347
32	0xbb94ee04	-0.0045449752
33	0xbbc793ad	-0.0060906024
34	0xbccab299	-0.024743365
35	0xbc16b616	-0.009198686
36	0xbc667d66	-0.014067983
37	0xbb87d851	-0.00414566
38	0xbc1c97c4	-0.009557668
39	0xbc23692c	-0.009973805
40	0xbc35474b	-0.011064361
41	0x3a5ffe47	0.0008544665
42	0xbc20f9b7	-0.009825162
43	0x3bc3e240	0.005977899
44	0xbc37595f	-0.011190741
45	0xbc2ddc8b	-0.010611664
46	0xbbf9a60e	-0.007618672
47	0xbb59bbba	-0.0033223466
48	0x3c56c539	0.013108545
49	0x3b2d1b4b	0.0026413973
50	0xbbc58380	-0.006027639
51	0x39785c58	0.00023685524
52	0x3bbbe82c	0.005734464
53	0xbc366c5b	-0.011134232
54	0xbb1c95c7	-0.0023892985
55	0xbcd4920a	-0.025948543
56	0xbb8a7bfd	-0.0042262063
57	0xbb890715	-0.0041817524
58	0xbb0cba34	-0.002147329
59	0xbc95666a	-0.018237311
60	0xbc2a8fa3	-0.010410222
61	0xbbdcb13e	-0.006734996
62	0xbb7f8991	-0.0038991908
63	0xbc1ae0d8	-0.009453021
64	0xbab0261b	-0.0013439091
65	0x3bdd3ea4	0.006751852
66	0x3b545ff3	0.0032405823
67	0xbb824661	-0.003975675
68	0x3c2b1f3d	0.0104444595
69	0x3bb3c5b2	0.0054862136
70	0xbb0aa423	-0.0021154962
71	0xbc24a309	-0.010048636
72	0xbc1dce0f	-0.009631648
73	0xbb940814	-0.0045175646
74	0xbc30c084	-0.010788087
75	0xbc626ec6	-0.013820356
76	0x39bb5fcf	0.00035738802
77	0xbc9562aa	-0.018235523
78	0xbc00114b	-0.007816623
79	0xbbe9084e	-0.0071115857
80	0x39e56a25	0.00043757368
81	0x3c06c4ae	0.008225603
82	0x3b020da5	0.0019844559
83	0xbbbfde43	-0.005855353
84	0x3c1a6779	0.009424084
85	0xbc724df9	-0.014789098
86	0x3c3ac456	0.011399349
87	0xbb26c9e7	-0.0025449933
88	0x3badfa15	0.005309353
89	0x3c270bd0	0.010195687
90	0x3aad4d39	0.0013221867
91	0xbb189e36	-0.002328766
92	0x3b76865c	0.0037616706
93	0x38ae305c	8.305974e-05
94	0x3c1f10f7	0.009708635
95	0x3a6d9dd7	0.00090643525
96	0x3c16cfbe	0.009204803
97	0x3b7a3451	0.0038178156
98	0x398ff15a	0.00027454906
99	0x3b7b1a02	0.0038315062
100	0x3addf591	0.0016934146
101	0xba2a404c	-0.00064945663
102	0xbb05bff5	-0.0020408605
103	0x3c813c2a	0.015775759
104	0xba882771	-0.0010387731
105	0xbbd477df	-0.0064840163
106	0x3c97745f	0.018488107
107	0xbc29ca7f	-0.01036322
108	0xbceb16ca	-0.02869739
109	0xbb4066ba	-0.0029358105
110	0xbb963a02	-0.004584552
111	0x3c2a4005	0.01039124
112	0x3bab94e7	0.0052362564
113	0x3b0cd6fc	0.0021490445
114	0x3c07620d	0.008263123
115	0x3a6b70de	0.0008981357
116	0xbc79818a	-0.015228638
117	0xbbac8f10	-0.005266078
118	0xbc43fa39	-0.011961513
119	0xbbfccdd5	-0.007714967
120	0x3c013aec	0.007887583
121	0xbc37cb32	-0.011217879
122	0xbb2e2b03	-0.002657593
123	0xbbff629c	-0.0077937376
124	0xbb2f1173	-0.0026713281
125	0xb99b8f4b	-0.00029670665
126	0xba031bae	-0.0005001378
127	0x3bfbcdc2	0.0076844404
128	0xbc325796	-0.01088514
129	0x3c31985b	0.010839547
130	0x3bc5d49e	0.006037309
131	0xbba20dde	-0.0049455008
132	0x3ae57b27	0.0017508016
133	0x3c107ca4	0.008818779
134	0x3c98ac2e	0.01863679
135	0xbc1c54b1	-0.009541676
136	0xbca326df	-0.019915996
137	0xbc5f68d4	-0.013635833
138	0xbc05b265	-0.008160208
139	0xbb7c24a0	-0.0038473979
140	0xbbbc3d8d	-0.005744642
141	0xbc909c98	-0.017652795
142	0xbccc409f	-0.024933157
143	0x3b56444e	0.0032694521
144	0xbc9763df	-0.01848024
145	0x3c35cb46	0.011095827
146	0xbd28e38d	-0.041232634
147	0xbc8afb7a	-0.016965616
148	0x3c37166a	0.0111747775
149	0xbca8a5f5	-0.020586947
150	0xbbb64a98	-0.0055630915
151	0x3c8b8908	0.017033115
152	0xbca0408d	-0.01956203
153	0xbb2ae2ad	-0.002607505
154	0xbc712499	-0.014718198
155	0xbbd43c19	-0.0064768908
156	0xbc2e9d92	-0.010657685
157	0x3bd2f602	0.006438018
158	0xbc5c19b9	-0.013433867
159	0xbb9c5ad5	-0.00477157
160	0xbc7bad79	-0.015361183
161	0xbb5d9ea9	-0.0033816493
162	0xbcc2ecda	-0.02379458
163	0xbb9a16c9	-0.0047024232
164	0xbc5d8632	-0.013520764
165	0x3b0509de	0.002030007
166	0xba9a49f8	-0.0011771312
167	0x3c6d5b01	0.014487029
168	0xbc65dc1c	-0.014029529
169	0xbc346ebb	-0.011012728
170	0x3b90ad59	0.004415196
171	0x3c84d2f9	0.01621388
172	0x3b92f069	0.0044842255
173	0xb9c1e250	-0.00036980445
174	0x3bece3a5	0.007229286
175	0xbcc2c0a5	-0.0237735
176	0xbcf4d938	-0.029888734
177	0x3b704925	0.0036664691
178	0xbbc47bc6	-0.0059962003
179	0x3a66d6e7	0.00088058267
180	0xbc4dfbfb	-0.012572284
181	0x3c4d519d	0.012531665
182	0x3b97a83b	0.004628209
183	0x3c52a4ae	0.0128566455
184	0x3cc27e22	0.023741785
185	0xbb686107	-0.0035458223
186	0xbccfabcd	-0.025350476
187	0x3ac86eb8	0.0015291786
188	0xbb9c4845	-0.0047693574
189	0x3a500c18	0.00079363724
190	0xbc996aa3	-0.018727606
191	0xbbe06b05	-0.006848695
192	0xb9469c2c	-0.0001894093
193	0x3c338a36	0.010958245
194	0xbc4d97da	-0.012548411
195	0xb98ea3d4	-0.00027206412
196	0xbc3c31af	-0.011486455
197	0x3c45abcb	0.012064884
198	0xbc16daa5	-0.009207402
199	0xbc01d52e	-0.007924361
200	0xbc2183a0	-0.009858042
201	0xbc51c749	-0.012803861
202	0xbc5b3ff0	-0.013381943
203	0xbc11e77d	-0.008905289
204	0xbc2212c3	-0.009892168
205	0x3c180085	0.009277468
206	0xbc11a313	-0.008888978
207	0x3b943994	0.0045234654
208	0xbb871116	-0.00412191
209	0xbac2746f	-0.0014835725
210	0x3b8a5051	0.0042210002
211	0xbc80a54f	-0.015703825
212	0xbc36e0b9	-0.0111619765
213	0xbb897cc5	-0.004195782
214	0xbc02d91c	-0.007986333
215	0xbc73a388	-0.014870532
216	0xbbc9feac	-0.0061643925
217	0xba290c58	-0.0006448678
218	0xbc963a16	-0.018338244
219	0xba42a226	-0.00074246747
220	0x3bc9ce20	0.006158605
221	0x3a6908df	0.00088895665
222	0xbb5f48fa	-0.0034070597
223	0x3c583b08	0.013197668
224	0xbc9a7125	-0.01885278
225	0x3c646e47	0.013942308
226	0xbc69e924	-0.014276776
227	0x3c8b4832	0.017002199
228	0x3ab8af74	0.0014090375
229	0xbbc53ac1	-0.006018967
230	0xbc0950b0	-0.008381054
231	0xbc19e5c4	-0.009393159
232	0xbc38f353	-0.011288482
233	0xbcd395d8	-0.025828287
234	0xbcc04c41	-0.02347386
235	0xbbd550ce	-0.006509877
236	0x3c719415	0.014744778
237	0x3c372a0a	0.0111794565
238	0xbc5a2b19	-0.013315939
239	0x3b2e6a6b	0.0026613723
240	0xbb3720ce	-0.0027943137
241	0xbba70e6b	-0.0050981543
242	0xbb886c45	-0.0041632974
243	0x3c9653a6	0.018350434
244	0x3c5b563a	0.013387257
245	0xbc87f8d5	-0.016598145
246	0xbd2810ba	-0.041031577
247	0xbc5be137	-0.013420395
248	0xbb9655fb	-0.0045878864
249	0xbc3d52e9	-0.011555412
250	0xbc343f9e	-0.011001496
251	0xbb569e98	-0.0032748338
252	0x3c3abdf5	0.011397828
253	0xbb5196a8	-0.0031980667
254	0xbc91775c	-0.01775711
255	0x3a89b645	0.0010506591
