output/dmd/restr_e2v/run_002/restr_dmd_best_model_e2v.pth (torch, 273077 bytes, 14 tensors)

convs.0.lin_l.weight f4 [256, 64]
000000 9b ba 0a 3d c6 2b 9f bd f1 8e 29 bd eb c6 20 3d
       0.033869367 -0.07772021 -0.041396085 0.039252203
000010 01 ff e6 bd b6 2b 35 3d d2 6f 42 bd b1 bf 9a bc
       -0.11279107 0.04423114 -0.04746992 -0.018890234
000020 cd 57 88 bd bb 86 99 bd 26 81 ba 3c 0a 2b 79 bd
       -0.06657372 -0.07496401 0.02276666 -0.06083206
000030 aa 55 de bd 06 cf bc 3d 20 ed bf bd 69 36 8c bd
       -0.10856183 0.09219174 -0.093714 -0.068463154
000040 69 86 ea 3d d5 3e b1 3c f6 87 89 3d 3b 42 f5 3d
       0.11451418 0.021636406 0.067153856 0.11975523
000050 a4 72 7c 3c fc b1 d0 bd 45 97 c3 3b 04 fd fe bd
       0.015408192 -0.10190198 0.0059689605 -0.12450603
000060 08 a8 16 bd 14 6c d0 bd 21 4e e6 bd 15 f4 ef 3d
       -0.03678134 -0.10176864 -0.11245371 0.11716477
000070 f2 9f 00 3e 1e 45 e4 bd c4 ef 84 bd ba 04 13 bd
       0.12561014 -0.111459956 -0.06491044 -0.03589318
000080 ff c9 b2 bd 53 c1 70 bd 17 1a f9 3d 3d 0f d1 bd
       -0.08729934 -0.05877812 0.12163179 -0.102079846
000090 62 0b 8f bc 50 69 b8 3c cf b7 e4 bb 2f cd d7 bc
       -0.017461482 0.022511154 -0.0069799195 -0.026342956
0000a0 2b f3 59 3d 86 a2 d6 3d bc 52 df bd 89 f1 b6 3d
       0.05321042 0.10480218 -0.10904452 0.08932788
0000b0 5b bd 84 3d 9d 93 f7 3c a7 50 05 ba 1b 51 92 3c
       0.06481429 0.030221755 -0.00050855655 0.01786094
0000c0 8e 75 df bc c3 46 a1 3d 66 77 0b 3c bd 70 a0 bd
       -0.027277734 0.07874825 0.0085123535 -0.07834003
0000d0 7e 4a e0 3d f4 34 b4 bd 49 2e 98 bd 94 57 90 bd
       0.10951708 -0.087991625 -0.07430703 -0.07047954
0000e0 89 3a 2f 3d 01 79 87 3d 87 71 89 3c 82 98 14 3c
       0.042780433 0.066148765 0.016777767 0.009069564
0000f0 bc f4 d6 bd a8 d3 ee bd c9 af e4 bd 7e ce a5 3d
       -0.10495898 -0.11661464 -0.11166341 0.08096026
000100 6a bb cd 3c 83 8f 98 bc df f0 74 3c 63 ce dc bd
       0.02511378 -0.01862312 0.014950006 -0.10781553
000110 ad 49 9e 3c 91 1b 87 3d 06 ab 14 3b 00 8b 4a 3d
       0.01932224 0.06597055 0.0022684946 0.049448967
000120 dd 71 40 3d 56 b7 62 3d 51 2d c1 bc b0 56 6d 3c
       0.04698359 0.055350624 -0.023581179 0.014486
000130 92 71 0c 3d 33 2a e0 3d 13 cb 98 bd ae 19 fd 38
       0.034287997 0.10945549 -0.07460608 0.00012068763
000140 9e 94 da 3d cd f0 ab 3c 93 8d b3 3d 69 6c df bd
       0.10672878 0.020988846 0.087672375 -0.109093495
000150 e3 a1 a4 3d 2e cf 4c 3d a8 8e ab 3c 0c fa 00 3e
       0.0803869 0.05000227 0.020942047 0.12595385
000160 7c 22 29 3d 4d 69 ab bd 0e 1b 10 3d 55 31 8c 3d
       0.041292652 -0.08369694 0.03518205 0.06845347
000170 73 28 a8 bd 29 f8 8b bd 2d 66 b1 bc ad 59 e8 3d
       -0.0821084 -0.06834442 -0.021655167 0.11345229
000180 10 55 f2 bd f7 87 3f 3d 50 3d d2 bd 36 1c 35 bd
       -0.11832631 0.046760526 -0.10265601 -0.044216357
000190 e1 ee f5 3d 6a d4 54 bd eb d6 c7 3c 81 b1 cd bd
       0.12008453 -0.051960386 0.024394473 -0.10043622
0001a0 2c 98 21 3d e0 1d d1 3d ac 87 ae 3d 81 84 43 3d
       0.039451763 0.10210776 0.08521971 0.047733787
0001b0 bf c1 5c bd f9 1c d1 bd 47 2d a6 3d 80 3a 04 3e
       -0.05389571 -0.10210604 0.08114105 0.12912941
0001c0 99 8c fe bb 75 3f ab 3d ad c0 e8 3d e8 40 b3 3d
       -0.0077682254 0.08361713 0.11364875 0.08752614
0001d0 7b fb b3 bd 67 eb c4 3d 73 07 1a bd e4 c4 cd bd
       -0.087882005 0.09615212 -0.03760476 -0.100473195
0001e0 e9 80 41 bb 90 3a 2d bd cb 96 13 bd c4 f6 d3 bd
       -0.00295263 -0.042292178 -0.03603248 -0.10349801
0001f0 6d 1a 37 3d e7 2a 52 bc 36 2c 05 3e 8f 07 e9 bd
       0.044702936 -0.0128276115 0.13005146 -0.11378395
000200 78 7c f4 bd 7b 78 d2 bc 22 23 a2 3d e1 65 b9 3d
       -0.11937803 -0.025692215 0.07916857 0.09052635
000210 69 ea a5 3d 5c 9e 52 3d bc 1a 74 3c f4 e3 de bd
       0.08101351 0.051420555 0.014898952 -0.10883322
000220 2f 0c ab bd e5 b7 01 3e 8b f7 79 bd cb 22 9e 3d
       -0.08351933 0.12667806 -0.06102709 0.0772148
000230 b5 40 a9 bc e3 38 4a 3d 35 55 9c 3d 5b d0 cc 3d
       -0.020660738 0.049370658 0.076334395 0.10000678
000240 93 fd 9d 3d 90 5c 8a bd e4 65 d6 bc ff b8 89 3c
       0.07714381 -0.06755936 -0.026171632 0.016811846
000250 be 4d 95 3d ea 8f e9 bd 90 aa 5b bd d4 c1 fd bd
       0.07290219 -0.114044026 -0.053629458 -0.123904854
000260 3d 29 b6 3c c3 84 0e bd 2c 47 37 3d b5 42 9c bd
       0.02223646 -0.03479458 0.04474561 -0.07629911
000270 ba df a0 3d 10 5c ea 3d d0 26 56 3d d9 07 ce bc
       0.078551725 0.11443341 0.05228311 -0.025150226
000280 5f 58 9d 3d 53 49 a0 bd 75 7d 92 3d 52 cc 12 bd
       0.07682871 -0.078264855 0.07152835 -0.035839386
000290 77 1d d8 bd 19 1c 29 3c 82 35 cd bd a2 38 37 bd
       -0.10552495 0.01032164 -0.100199714 -0.044731744
0002a0 85 10 73 3d 04 7b b8 3d df 20 de 3c 0d 31 81 bd
       0.059341926 0.09007838 0.027115284 -0.06308184
0002b0 06 47 62 bd 9f fa da 3d c8 6e 0a bd 02 28 ab 3c
       -0.055243514 0.106923334 -0.033797055 0.0208931
0002c0 cb ed 72 3d 6d 96 de 3d 0f 6d b7 3d 2f ba ee 3d
       0.05930881 0.10868535 0.08956348 0.116566055
0002d0 b3 7e 92 bc b2 d4 26 bd 6c 3e b6 3d 9f 1b a0 bd
       -0.01788268 -0.040730186 0.08898625 -0.07817768
0002e0 2f ca cb bd 78 b2 2d bd ce 56 a2 3d e0 7d 5c bd
       -0.09950673 -0.04240653 0.07926713 -0.05383098
0002f0 f0 6a bc 3d f2 fd 05 3d 72 03 ed bd 3a b8 9d 39
       0.09200084 0.032712884 -0.11572923 0.00030082633
000300 52 c0 89 bc 1c 9d b2 bd a5 22 cc bc 9f 88 38 bd
       -0.016815338 -0.087213725 -0.024918864 -0.045052167
000310 97 81 8a bd aa a1 e7 3d 3c 01 25 3c f5 48 7e 3c
       -0.067629986 0.11310132 0.010071095 0.015520324
000320 24 ba d7 bd a6 c5 92 bd ce 9f 9b bd c7 b6 cb 3d
       -0.105335504 -0.07166605 -0.0759884 0.099469714
000330 39 b9 68 bd f4 24 1c bc 15 ea d4 3d 04 4b a4 bd
       -0.056817267 -0.009530295 0.1039621 -0.080221206
000340 87 cf 09 bd 7a 21 e0 3d 48 f5 a0 bc 37 52 f7 3d
       -0.03364518 0.10943885 -0.01964821 0.12076228
000350 05 d5 fa 3c 80 f9 85 3c b2 b7 db 3d 1a f3 bd bd
       0.030619154 0.016354322 0.107283965 -0.092748836
000360 5b 93 2b bc a6 56 59 3d 6c 3a 67 3d 6f 92 b6 3d
       -0.010472144 0.05306115 0.0564522 0.08914649
000370 a3 a3 b2 3d 24 59 cb bd 3c ff 01 3d 0a e6 18 bd
       0.087226175 -0.099291116 0.03173755 -0.037328757
000380 b1 ed ad bd cc f7 7b 3d 6e b6 90 bd 26 93 e7 3d
       -0.08492602 0.061515614 -0.07066046 0.11307363
000390 ac 02 f2 3d 1c b0 9d bd 58 86 40 bd ad 18 df 3d
       0.11816916 -0.07699606 -0.04700312 0.108933784
0003a0 3a d1 93 3d 41 95 91 bd bd 81 43 bd dd 88 8b bd
       0.07217641 -0.07108546 -0.04773115 -0.06813214
0003b0 7c 07 cc bd 4e 4e fe 3d 85 96 03 bd b1 90 74 bd
       -0.09962365 0.12417279 -0.03212597 -0.0597083
0003c0 f8 9f 40 bc ca 81 80 3d a9 81 58 3d 6f ba 59 bd
       -0.0117568895 0.06274755 0.05285803 -0.053156313
0003d0 be 8d b6 3d ca 45 ab 3d e9 09 18 bc d7 ea 3f bc
       0.08913754 0.083629206 -0.0092797065 -0.011713705
0003e0 1a 16 ff bd 3b 98 b3 3d 80 b7 02 3e 61 e7 8e bd
       -0.124553874 0.0876927 0.12765312 -0.06977726
0003f0 b1 52 d1 bd d4 2e ff bc cd 0c eb bb 80 e2 8b bd
       -0.1022085 -0.03115026 -0.007173157 -0.06830311

convs.0.lin_l.bias f4 [256]
000000 79 cc e2 bd 43 ac eb 3b 7c 73 a8 bd 67 78 74 bd
       -0.11074156 0.007192166 -0.08225152 -0.059685137
000010 ed 5d 9d bd 68 b0 cc 3c 0b a6 02 3e df 07 e0 bd
       -0.076839305 0.02498646 0.12758653 -0.10939001
000020 18 54 25 3d b9 b6 88 3d 03 d2 f2 bc 66 22 8b 3d
       0.0403634 0.066754766 -0.029641157 0.0679367
000030 01 66 06 bd 9f 96 c8 bd 9d a5 9e 3d 09 41 6f bd
       -0.032812122 -0.09794354 0.07746432 -0.05841163
000040 55 1c 08 bd cc 24 ea bd 6c af ad bb b3 14 f9 bc
       -0.033230145 -0.114328 -0.005300453 -0.030405378
000050 17 d1 55 3d 5d 9f 9d bd 16 10 6c 3d 8c 8b 2b 3d
       0.052201357 -0.07696412 0.05763253 0.04188113
000060 7a 27 82 3d f3 cb b3 3d 9e 15 b4 bd 56 e9 65 3d
       0.06355186 0.087791346 -0.08793186 0.05613073
000070 ed 72 cd 3d ae 35 e6 bd 90 56 01 3e bc 18 34 bd
       0.10031686 -0.11240707 0.12630677 -0.0439689
000080 10 4c de bd 52 57 9a bd 74 f0 a7 bd b5 6c cd 3d
       -0.108543515 -0.07536186 -0.0820016 0.100305
000090 ba 1c 3c bd 3e 20 9c bd b3 c6 b5 bd 3b af 00 be
       -0.045925833 -0.07623337 -0.088757895 -0.12566845
0000a0 cd f5 33 3c b0 c1 ca bd a8 00 06 3d 15 ba e9 3d
       0.010983896 -0.09900224 0.03271547 0.114124455
0000b0 95 0c e0 3d dc 49 04 3d b6 72 97 bd 00 0a 72 3d
       0.109399 0.032297 -0.07394926 0.059091568
0000c0 bb 0e fd 3d f2 69 57 bd de b2 a5 bd c0 58 39 bd
       0.12356325 -0.05259127 -0.08090757 -0.045250654
0000d0 b0 16 a1 bd dd ae af 3d ff e4 9b bd 2b 73 ff 3c
       -0.078656554 0.085782744 -0.07612037 0.031182846
0000e0 e0 b3 89 3d b4 f4 be 3d bd fc 8e bd 7b c9 19 3d
       0.067237616 0.09324017 -0.069818 0.037545662
0000f0 d0 13 ad bd 47 5d bf 3d 17 38 4c bd 3d 18 48 3c
       -0.084510446 0.09343963 -0.04985818 0.01221281
000100 b6 f1 89 bd a7 84 bc bd bc ca d1 3d 7a 83 4d bd
       -0.06735556 -0.09204989 0.10243747 -0.050174214
000110 9b d5 8d 3d f4 f5 a1 3d 32 1d aa 3d 9d dd fd bd
       0.06925508 0.0790824 0.0830635 -0.12395785
000120 fd 40 8b 3c d4 28 cf bd 4e 47 42 3d ff 07 97 bc
       0.016998762 -0.10115209 0.047431283 -0.01843643
000130 e1 f0 74 3d 33 7e b2 bc 6e 56 cc 3b 1b 15 db bd
       0.059800033 -0.021788692 0.006235889 -0.10697385
000140 ba 55 05 3d 0b ad 8c bd 2d 54 4f 3c 2f 9b 89 3c
       0.03255246 -0.06868943 0.012654346 0.01679763
000150 93 4a a8 bd ab 33 26 bd ef 30 a7 bd 52 17 53 bd
       -0.08217349 -0.04057662 -0.0816363 -0.05153591
000160 4f c6 b7 bc 4c 53 b2 3d 92 e8 c4 bd c1 87 d5 3d
       -0.022433428 0.08707294 -0.09614672 0.10426284
000170 f2 0c 42 bc 46 17 ea bd bb de 37 bd 96 3d dc 3d
       -0.011843907 -0.1143022 -0.044890147 0.10753934
000180 ba 67 73 3d 4c 02 2a 3c ab 02 67 3d b8 44 d1 3d
       0.059425093 0.010376524 0.05639903 0.10218185
000190 8e 84 b9 3d 99 c7 f8 bd ab 93 01 be 37 c7 0d bc
       0.09058486 -0.12147445 -0.12653987 -0.008653454
0001a0 66 55 ac 3d 80 2a 80 3c ce 32 6a bb 65 e1 16 3d
       0.08414726 0.015645266 -0.0035735848 0.036836047
0001b0 92 45 54 3d 6a f3 44 bd 76 04 1c 3d 40 87 e3 3b
       0.05182416 -0.0480837 0.03809019 0.0069436133
0001c0 7f f8 aa bc bf a0 60 bb 1e 6a cb bd 26 a7 ba bd
       -0.020870445 -0.00342755 -0.099323496 -0.09113912
0001d0 8b 7b bb 3d 58 52 5e 3d 1e 4f bc bb 01 ae b4 3d
       0.09154423 0.054277748 -0.005746736 0.08822251
0001e0 c0 b5 36 3d 31 d1 0f 3e e6 e8 da bd ac 5d cf bd
       0.044606924 0.14044644 -0.10688953 -0.10125288
0001f0 74 9e 8f bd 1c c3 f2 bd 4e 51 1b 3d c0 c2 84 3a
       -0.070126444 -0.118536204 0.037919335 0.0010128841
000200 7a 0b b9 3d e7 92 f1 bc 07 75 ce 3d f9 35 fd bd
       0.09035392 -0.029488994 0.10080915 -0.1236381
000210 cb 72 38 bd a8 d9 66 3d ed 44 27 3c 11 04 bb bd
       -0.04503135 0.056359917 0.010209304 -0.09131635
000220 a0 94 e2 3d fd 32 74 bc 98 32 04 3e 18 b0 24 3d
       0.11063504 -0.014904735 0.12909925 0.040207
000230 eb c1 30 3d 1e 5b a2 3c e2 f6 02 be 0c cd bd bd
       0.043153685 0.019818839 -0.12789491 -0.09267625
000240 9d e0 f1 bc 01 fc 70 3c d4 7e ad 3d 01 d9 76 bd
       -0.02952605 0.01470852 0.08471456 -0.060265545
000250 6c 81 53 bd 49 8b 97 3b a1 f6 8b bd 66 cf c3 bd
       -0.0516371 0.0046247584 -0.0683415 -0.095610425
000260 3a 82 05 3a 34 8d 8b 3d 81 19 95 bd 6a ca 54 bd
       0.00050929526 0.06814042 -0.07280255 -0.05195085
000270 a0 e3 23 3d 0b 6e 09 bd 9b 7e a5 bd 4a 19 d4 bd
       0.040012002 -0.03355221 -0.08080789 -0.10356386
000280 da 93 dd bd b8 db d3 bd 3a 50 c5 3b 6c 4f c0 3d
       -0.10819216 -0.103446424 0.0060215266 0.093901485
000290 85 5f 6c bd c1 7f ca 3c ff 0c eb 3d 51 25 25 bc
       -0.057708282 0.024719121 0.11477088 -0.010079698
0002a0 07 91 13 bd 95 b5 94 3d 55 69 66 bd b5 94 df bd
       -0.03602698 0.072611965 -0.056252796 -0.109170355
0002b0 3c aa e0 bd 93 d9 b0 bd 45 28 3c 3d 85 32 77 3d
       -0.1096997 -0.08635249 0.04593684 0.060350914
0002c0 ad 7b 53 ba 7b 18 85 bd d7 a3 06 bd b1 89 e1 3d
       -0.00080674404 -0.0649881 -0.032871094 0.11012591
0002d0 9e d6 99 3d 35 1c 26 3d fc 41 1f bd 77 d9 4e 3d
       0.07511638 0.040554244 -0.038881287 0.05050036
0002e0 75 a7 8a bd 60 39 cc bd 35 e0 8d bc 7f 47 7f 3d
       -0.06770221 -0.09971881 -0.017318824 0.062324043
0002f0 9d aa a0 bd 72 3e 86 3d 1c 85 de 3d 5d f5 df bd
       -0.07845042 0.06554879 0.10865232 -0.10935471
000300 92 76 41 3d d3 e1 23 bb 14 31 86 bc ef 22 3c 3d
       0.047232218 -0.0025006428 -0.016380824 0.045931753
000310 bf 13 c0 bd cd 81 90 3d b8 64 a1 3d 42 68 f8 bc
       -0.09378766 0.070560075 0.07880539 -0.030323151
000320 9a 6d 1f bd 86 55 80 bd 19 0d 1b bd c1 f7 b2 3c
       -0.038922884 -0.06266312 -0.037854288 0.021846654
000330 5f d5 82 3d a8 8b d5 3d 71 09 dd 3d ba 4c 1e 3d
       0.063883536 0.10427028 0.107928164 0.03864739
000340 e1 c7 cb bd 0a a4 6d 3b 14 13 0c bd cb 8c d6 3d
       -0.09950233 0.0036261105 -0.03419788 0.10476073
000350 94 e4 9b bd 8e 07 e0 3d d5 9e bc bd b9 ff 85 bc
       -0.07611957 0.10938941 -0.09209982 -0.01635729
000360 39 c7 90 3d 64 17 e0 3c 62 ca 90 bd f7 1a 72 3d
       0.07069249 0.027354904 -0.070698515 0.059107747
000370 2c a4 77 bb cb d7 99 3d 6c e5 3b 3d 8b ef 98 bd
       -0.0037787063 0.07511862 0.04587309 -0.07467564
000380 0a 1a 50 bd 27 70 8a bc c8 2d 9a 3d c0 2e bc bd
       -0.050806083 -0.016899182 0.07528263 -0.09188604
000390 22 6a a9 3d 2a ea db bd f0 82 b6 3d 17 db a5 3d
       0.08272196 -0.107380226 0.08911693 0.08098429
0003a0 1b fd 03 3d 9a df ad 3c c4 7a 28 3d cd 5b bf 3d
       0.032223802 0.021224786 0.041132703 0.093436815
0003b0 b2 0c 01 be 8a 51 a8 bd 29 46 a2 3d 22 df 8a bb
       -0.12602499 -0.08218677 0.07923538 -0.0042380253
0003c0 38 11 0e 3d b1 cb aa 3d ee ca 28 3d 0a 2a db 3d
       0.03468439 0.08339632 0.041209154 0.10701378
0003d0 c8 4b 9b bd 9c 87 0f 3d a6 75 b7 3d 98 e9 1f 3d
       -0.075828135 0.035041437 0.089579865 0.03904113
0003e0 f4 12 f2 3d d7 9e 78 3d f5 e6 92 bd 15 59 11 bd
       0.11820021 0.060698356 -0.07172958 -0.035485346
0003f0 64 c4 95 3d 2c 24 80 bd 84 65 ca bd 06 aa ec bd
       0.07312849 -0.06256899 -0.09882644 -0.11555867

convs.0.lin_r.weight f4 [256, 64]
000000 ab f5 ab 3d 01 0d cd bd f8 0e 91 3c 5c 4e 4c 3d
       0.08396467 -0.10012246 0.017707333 0.049879417
000010 2d a4 22 bd ff 6d b5 3d 90 ad 09 bd 27 ed e6 3d
       -0.03970735 0.08858871 -0.033612788 0.11275702
000020 18 c4 82 3d 4e 3b 87 3c fe 73 ce bc b2 9f 7c bd
       0.06385058 0.01650777 -0.025201794 -0.061675735
000030 87 f2 a7 bd 48 7b f5 3d 8d 3d c9 3c 9d f5 b2 bc
       -0.08200555 0.11986405 0.024565483 -0.021845633
000040 c1 42 9a 3d bc c9 27 3d 6b 6f fc bb 5a 34 f0 3d
       0.075322635 0.040963873 -0.0077037117 0.11728735
000050 f1 56 a3 bc 44 fe b9 bc 3d 5a e8 bd f6 ac 1d 3d
       -0.019938918 -0.022704251 -0.113453366 0.038495027
000060 b6 e4 db bc 35 47 da bd ac b3 65 3c 7d f4 ad 3d
       -0.026842456 -0.10658113 0.014019888 0.08493898
000070 b9 20 0f bd 8c 21 df bc 16 dc cd 3d 76 e2 df 3d
       -0.034943316 -0.027237676 0.10051744 0.10931866
000080 85 40 f9 bd fe 60 de 3d 21 69 fa 3d 81 44 b3 bd
       -0.12170509 0.108583435 0.12227083 -0.087533005
000090 20 f3 87 bd 75 0e ec 3d 2a f3 81 bd 98 9a 59 3c
       -0.06638169 0.11526195 -0.06345208 0.013281487
0000a0 69 50 85 bc 44 28 3a 3d 37 19 eb bd 3c 27 25 bd
       -0.016273694 0.045448557 -0.11479419 -0.04032062
0000b0 48 9d a2 bd 1e 64 96 3d 95 65 a3 3c 13 28 46 bb
       -0.07940155 0.073433146 0.019945899 -0.0030236288
0000c0 6b c3 60 bd 27 c3 d6 3d 3f 6e b6 bc 56 45 38 bd
       -0.054873865 0.10486441 -0.022269366 -0.044988
0000d0 12 34 5d bc 75 43 b2 bd 0c ae ab bd 8d 3f b1 bb
       -0.013501184 -0.08704273 -0.08382806 -0.005409187
0000e0 4d cf c5 bd e5 93 8d bd 99 f1 b2 3d e4 85 58 bd
       -0.0965868 -0.06912974 0.08737487 -0.052862063
0000f0 4c 26 c6 bb c6 a6 c3 3c 44 c3 a8 3d d6 1c f2 3d
       -0.006047046 0.023883235 0.08240369 0.11821906
000100 aa 7f cb 3b 0a 63 83 bc 27 a7 7a 3d 6a 7b 7e 3d
       0.006210287 -0.016038436 0.061194565 0.062129416
000110 18 b6 d8 3c 7e ca ee 3d f8 3a 60 3d 32 43 e4 bd
       0.026454017 0.11659716 0.054743737 -0.11145629
000120 4c a6 4a bc 15 fe a7 3d 84 27 e3 bd 65 e3 dc bd
       -0.01236875 0.08202759 -0.110915214 -0.107855596
000130 77 93 0e bd 98 c2 e3 bd 12 5e c7 3d 2d ae 06 3e
       -0.034808602 -0.111211 0.09734739 0.1315238
000140 0b d2 dd 3d d6 9c 13 3d eb 51 a9 bd 9f a0 32 bd
       0.10831078 0.036038242 -0.08267578 -0.04361021
000150 8b 4e c6 ba d6 5d 09 bd 97 51 82 3d ea e3 a6 3d
       -0.0015129609 -0.033536755 0.06363218 0.0814894
000160 91 8f 3f 3c 2e 00 f2 3c 4e a9 eb 3d d2 f7 4b 3d
       0.011691944 0.029541101 0.11506902 0.049796887
000170 97 49 d7 bd 0e 87 45 3d 54 51 a1 3c 96 2a ff 3d
       -0.10512083 0.0482245 0.0196921 0.124592945
000180 3e 10 d8 bd 5d e9 f6 3d c4 3c e7 3d c3 8f 9e 3d
       -0.10549973 0.12056229 0.11290887 0.07742264
000190 07 4f b9 bd 40 19 54 3c d8 01 09 bd 02 4d b3 bd
       -0.090482764 0.012945473 -0.033449024 -0.087549224
0001a0 63 ab 49 bd b5 47 f8 3c 61 c3 94 bb 08 10 ef 3d
       -0.049235713 0.03030763 -0.0045398925 0.116729796
0001b0 15 54 a4 bd db f6 2f bc e1 42 f8 bd 9d 51 b0 bb
       -0.0802385 -0.010740007 -0.12122131 -0.005380823
0001c0 ae d2 c1 bd 9e 6a c2 bd c7 0f 7a 3d f5 09 db bc
       -0.09464012 -0.09492992 0.061050203 -0.026738146
0001d0 8e 95 33 3b b0 df cf bd 97 cb e3 bd d9 3f 25 3a
       0.0027402374 -0.10150087 -0.11122816 0.00063037645
0001e0 04 b8 a9 bb b1 07 20 bd 9b 8f 9f bd dc c5 b6 bd
       -0.005179407 -0.039069835 -0.077910624 -0.089244574
0001f0 1b e3 85 bc aa 70 c7 3d 33 61 19 3d 64 f9 f1 bd
       -0.016343644 0.09738286 0.037446212 -0.118151456
000200 42 18 43 3d 94 a3 fb 3c 80 46 83 bd ec 39 f6 bd
       0.047630556 0.030717649 -0.06409931 -0.120227665
000210 cb dd ed bd cc bf 44 3c 6e 8d fa bc 01 97 e0 bd
       -0.11614569 0.012008619 -0.030585017 -0.10966302
000220 45 a8 4f 3d 3a 9b df 3d c3 5f 03 3d 34 c8 a7 3d
       0.050697584 0.10918279 0.032073747 0.081924826
000230 43 d5 f2 bd 74 c9 1e bd 27 5e 69 3d ae e6 85 3d
       -0.11857083 -0.03876634 0.056974556 0.06538139
000240 e6 2a 6d 3d 67 51 7f 3d d3 d1 97 bd 14 1d 1a 3d
       0.05790224 0.06233349 -0.07413068 0.037625387
000250 e5 d3 d1 3d 42 98 2a 3d 29 46 6f 3c 66 9e 36 bd
       0.10245494 0.04164911 0.01460413 -0.044584654
000260 60 ee c6 bd 7b ae 96 3c 5e 85 f4 3c 9f 42 af 3c
       -0.09713435 0.018393746 0.02984875 0.021394072
000270 13 aa 63 3c 18 b3 6d 3c b9 71 a2 3d 72 59 c1 3d
       0.013895529 0.014508031 0.07931847 0.094408885
000280 89 40 ad 3d ba 05 20 3d 62 ca ab 3d 4b 80 98 bd
       0.08459575 0.03906796 0.08388211 -0.07446345
000290 76 cb 92 3d ba 93 d3 bd 72 92 63 3d 7d e5 91 3d
       0.07167713 -0.10330911 0.055559583 0.071238495
0002a0 8e bf bc bd 6f 84 ac 3d 79 cc 80 3d 1f 2c 3c bd
       -0.09216224 0.08423697 0.06289 -0.045940515
0002b0 8f 86 f8 3c 99 4e af 3c 11 96 16 3d 8f 4b e4 3b
       0.0303376 0.021399783 0.03676421 0.006967015
0002c0 f6 98 9b bd d9 0d 88 3d cd fa 2d bd e1 ef 8d bd
       -0.07597534 0.06643266 -0.04247551 -0.06930519
0002d0 5a 11 69 bd 74 78 aa bd bb 84 b3 3d b0 18 e0 bb
       -0.056901313 -0.08323756 0.08765551 -0.0068388805
0002e0 e7 5d 46 bd 37 e6 5d bc bb f8 14 3d 79 93 da 3d
       -0.048429396 -0.013543657 0.03637002 0.106726594
0002f0 21 fb 64 3d d0 b1 d3 bc 65 09 80 bd 6a 12 4a bd
       0.055903558 -0.025841624 -0.06251792 -0.049333967
000300 88 ff d5 3d 98 15 e1 3d c0 1c 6f 3d 1b c4 ba 3d
       0.10449129 0.10990447 0.058377028 0.091194354
000310 18 cf c8 3d d1 46 1c bb 0f 4d fe bd 32 3c e0 3d
       0.09805125 -0.002384592 -0.124170415 0.10948981
000320 33 42 89 bd ad e1 e6 bd 3e 08 4b bd d2 90 e5 3b
       -0.067020796 -0.11273513 -0.049568407 0.0070057893
000330 20 3c 66 3d 19 32 71 3d 4d d6 a5 bd e3 07 cf bd
       0.056209683 0.058885667 -0.08097515 -0.10108926
000340 0a 86 b0 3c 37 14 b3 bd 22 8f aa 3d ac d4 be 3d
       0.02154829 -0.0874409 0.08328082 0.09317908
000350 d6 45 22 3d 59 0d 35 3d 8b ae d1 bd 45 14 b2 bd
       0.039617382 0.044202182 -0.102383696 -0.08695272
000360 60 7e bc 3d d5 7c e3 3d c0 aa 8a bd 18 51 41 3c
       0.092037916 0.11107794 -0.06770849 0.011799119
000370 ab 48 85 bd 84 3a f7 3d 8d 4f c4 3d 0f 17 5e 3d
       -0.06508001 0.12071708 0.095854856 0.05422121
000380 24 19 3a 3d f3 c8 71 3d 19 3f 9e 3b 6e 10 f4 3d
       0.045434132 0.05902953 0.004829299 0.11917196
000390 fa 47 e5 bc 9a 71 5f 3d 40 96 03 be d8 0e d0 3d
       -0.027988423 0.0545517 -0.12850285 0.10159081
0003a0 b1 3b d2 3d 98 85 86 bc 90 27 e5 bd 00 ef d6 3b
       0.102652915 -0.016421124 -0.111891866 0.0065592527
0003b0 8e 2f 62 3d a4 52 6b 3d 72 b4 ee 3d 55 77 6b 3d
       0.055221133 0.05745186 0.11655511 0.05748685
0003c0 e7 37 e8 bd bf 07 a2 bd 80 a6 dd 3d a9 d4 86 bd
       -0.113387875 -0.07911634 0.10822773 -0.065835305
0003d0 c5 6e 3e 3d 7c 94 95 3b bb 0f cc 3d 5f 9e eb 3d
       0.046492357 0.00456482 0.09963938 0.11504816
0003e0 c0 cc 43 3d e4 c7 41 bd 0a c0 f9 bc d8 12 b3 bd
       0.047802687 -0.04730977 -0.03048708 -0.087438285
0003f0 e1 49 af bd 38 b5 f4 3d 5d 15 cc bd 20 85 da 3d
       -0.08559013 0.11948627 -0.09965012 0.10669923

convs.1.lin_l.weight f4 [64, 256]
000000 87 95 7d 3c ab 8b 1d 3d 2c e2 18 bd 20 1e 24 3d
       0.015477545 0.038463276 -0.03732507 0.040067792
000010 24 d7 4f bd 32 c3 37 3d 43 33 24 bd a0 bc 0f 3d
       -0.050742283 0.044863887 -0.04008795 0.035091996
000020 38 a0 09 3d 22 01 6d bd 3c b6 ca bc e6 b0 a3 3c
       0.033600062 -0.05786241 -0.0247451 0.019981813
000030 3f 76 8d 3c 5f da 24 bd f5 24 2d 3d 04 ac 2d 38
       0.017268298 -0.040247317 0.042271573 4.1406616e-05
000040 5f 50 32 bc 0f a9 c7 3b f3 bf 1c 3d 9a c7 26 3d
       -0.01088342 0.0060931514 0.038268995 0.0407177
000050 08 09 94 3c 9c a3 0f bd a5 14 27 3c 02 9c d8 3c
       0.018070713 -0.03506814 0.010197793 0.026441578
000060 b3 ce 12 3d 69 a3 06 3d 63 6c c3 3b d6 01 a9 3c
       0.035841655 0.032870684 0.0059638484 0.020630758
000070 e7 dd 54 3d b0 f1 aa ba 58 c2 bd bc fc f4 d9 3c
       0.051969435 -0.0013041999 -0.02316396 0.026606075
000080 cf 43 41 bd 20 67 27 bd 26 9e 3b bd f7 cc 0a bd
       -0.047183808 -0.040869832 -0.04580512 -0.033886876
000090 a6 ce 99 3b 56 4a 1d bd f7 77 da bc 15 3a 56 bd
       0.004693824 -0.03840097 -0.026668532 -0.052301485
0000a0 b6 c3 55 3d fc 85 92 bd 61 e6 7d bc af e3 9c 3c
       0.052188598 -0.07154462 -0.015496821 0.019151537
0000b0 b1 e3 1c bd 94 16 be 3c 5d ba fa 3b a9 35 41 bc
       -0.03830308 0.023204125 0.0076516108 -0.011792579
0000c0 5c 8d 9f 3c da 56 6f 3c 71 12 1d 3d d3 8b d0 3a
       0.019476585 0.014608109 0.038347665 0.0015910811
0000d0 69 d7 f6 3c dd 3f 7c 3d b6 c1 ca 3c 19 e9 45 bd
       0.030132012 0.061584342 0.024750572 -0.048318002
0000e0 3d a6 91 3c 3d c4 16 3d 8b c1 59 bd 64 07 ea bc
       0.017779464 0.03680824 -0.053163093 -0.028567977
0000f0 94 4f 1a bd 28 a0 67 bd ab f6 53 bd 97 4d 85 3c
       -0.037673548 -0.05654922 -0.051748913 0.01627235
000100 c2 ad 35 3d 21 81 81 bd 2a 05 c4 bb 6b c7 20 3d
       0.04435516 -0.063234575 -0.005982061 0.03925268
000110 28 0e 90 3c ff 90 fe 3c dd 9a cd 3c 6c cc 17 bd
       0.017584875 0.031074999 0.025098259 -0.037060186
000120 d6 39 4c 3c 15 eb f7 bc 0b 77 5c bd 66 7f c4 bc
       0.012464961 -0.030263463 -0.053824466 -0.02398653
000130 9a 95 64 bd 23 b4 2c 3d 87 62 95 bb 29 a1 0e bc
       -0.055806734 0.04216398 -0.0045588645 -0.008705416
000140 5b 2b 4c bd 17 bb 0c bd 92 ba b8 bb 30 34 a3 bb
       -0.049846034 -0.03435811 -0.0056374753 -0.0049805865
000150 ab b7 18 bd b2 24 fc 3c 54 4d 17 3c 80 eb a8 3c
       -0.037284534 0.030779216 0.009234745 0.020620108
000160 02 7e 60 bd 98 d6 20 bd cc 80 26 3d 31 98 5d bd
       -0.05480767 -0.039267153 0.040650174 -0.05410022
000170 2c d6 8d bd 46 79 e2 3c df 79 82 bc 3f 67 0e 3d
       -0.06925616 0.027645718 -0.015927253 0.034766432
000180 42 0b 4a 3c ba e0 76 bd 4d 09 68 bd 48 7b 00 bd
       0.012331786 -0.06027291 -0.056649495 -0.03136757
000190 ba 9e 87 bd 0b 52 08 bd 2c cb c2 3b 3b 36 5e bd
       -0.066220716 -0.033281367 0.00594463 -0.054250937
0001a0 a9 9a 56 3c 87 ce 0f bd a4 59 6f bd 31 9b 4e bd
       0.013098397 -0.03510907 -0.058435097 -0.05044097
0001b0 53 47 0b 3d 00 d5 0c bd f4 23 38 bd f9 e6 ab 3b
       0.034003567 -0.03438282 -0.044956163 0.00524604
0001c0 cb 03 09 3d c2 1d 03 bd 79 0f a3 3c f2 c7 11 3c
       0.033450883 -0.0320108 0.019904839 0.008897768
0001d0 bd 23 76 bd ba 3a 45 bc fc 7f 34 3d eb 38 22 bc
       -0.060092676 -0.012037927 0.044067368 -0.009901266
0001e0 a0 21 5d bd e2 c3 f5 bc b5 2d 2a 3d 92 5d 16 3d
       -0.053987145 -0.03000063 0.041547496 0.03671033
0001f0 12 b6 23 3d 01 ce 5b 3c 15 b0 5e 3d e1 7b bb bc
       0.039968558 0.013415814 0.054367144 -0.022886219
000200 30 b4 4f bd 0f 54 47 bd c9 6a 39 3d 7d f3 79 3c
       -0.05070895 -0.04866415 0.045267854 0.015255806
000210 0d 46 c9 bb a2 7c 88 bc 3e 56 47 bd 7c 74 ea 3c
       -0.006142384 -0.016660992 -0.04866623 0.028619997
000220 93 7c e0 bc 45 48 bd bc c4 73 83 3d dc cd 13 3d
       -0.027403152 -0.02310575 0.06418565 0.036084995
000230 97 24 2a 3c 45 e0 64 bd 43 08 3d 3d f6 8c c8 bc
       0.0103847 -0.055877943 0.046150457 -0.024481278
000240 5d cb 41 bd 61 7a d8 3b de e0 bc 3c d7 2d 01 3b
       -0.047313083 0.0066063856 0.023056444 0.001971116
000250 3c f7 e8 3c 4b b3 87 3d 46 00 73 3d 8c cc 71 bd
       0.028438203 0.06625994 0.059326433 -0.05903296
000260 0f 36 e7 bb 0f 53 e0 bc bc 4f 21 3b fc 00 10 3c
       -0.007056005 -0.027383355 0.0024614176 0.008789297
000270 bf 84 17 bd af b7 5f bd 5e dc 18 bb 9b 85 9b 3c
       -0.03699183 -0.054618534 -0.0023324708 0.018984606
000280 34 e2 d9 bc 20 01 7b bc 1f 37 60 bb a2 c8 76 bc
       -0.02659712 -0.015320092 -0.0034212542 -0.015062483
000290 34 21 97 bc fb bd 33 bd a5 b1 74 ba 34 11 a7 3c
       -0.01844845 -0.04388235 -0.00093343324 0.020393945
0002a0 93 f2 53 3d 5f 09 e7 3b 3f 44 65 bc f9 a4 c9 3b
       0.05174501 0.0070506777 -0.013993322 0.0061536995
0002b0 2a 16 e2 bc 34 27 e0 3c 37 df 1e 3b 4c 5a 0b 3d
       -0.02759846 0.027362444 0.0024241933 0.03402166
0002c0 87 b2 49 bd c9 91 61 bd 39 55 d6 3c e9 5b 9d bc
       -0.049242523 -0.055070672 0.026163684 -0.019208865
0002d0 58 d2 fc bc e5 61 32 3d a2 f3 41 bb 32 fb 1b bd
       -0.030862018 0.04355039 -0.002959468 -0.038081355
0002e0 ec e4 30 bd a5 12 5b bd 4b 29 1a 3d 2c 34 1f bd
       -0.043187067 -0.053484578 0.037637036 -0.038868114
0002f0 65 78 7d bc 1f c3 4b bc e1 cb 72 bd f6 51 c1 bc
       -0.015470599 -0.012436657 -0.059276465 -0.023598652
000300 d1 87 26 bd 41 51 84 3b 58 d4 49 bc 64 df e4 bc
       -0.04065687 0.0040380065 -0.012318693 -0.027938552
000310 d4 32 0f bd ae 46 23 bd 55 41 ed bc f5 87 16 bc
       -0.034960583 -0.039862327 -0.028961817 -0.009187688
000320 88 3d db 3c 80 cf 84 3c ac 7c 8a bc f9 f6 e7 3c
       0.026762739 0.016212225 -0.016905151 0.028316008
000330 ea a2 37 3d a2 97 1f 3c 96 44 69 bc 34 8e 52 3d
       0.0448331 0.009740742 -0.014237544 0.051405147
000340 29 18 f0 3c 02 21 87 bd ec 67 4c 3c cb f6 4c 3d
       0.029308395 -0.065980926 0.012475949 0.050040048
000350 d2 b0 14 3d 54 a1 a0 ba 29 0c 63 bc be 70 1b bc
       0.03630144 -0.0012255111 -0.01385788 -0.009487329
000360 be a1 a1 3c d7 cb 4c bb 1b af 51 3d 1b 51 16 3d
       0.019730445 -0.0031249428 0.051192384 0.036698442
000370 0b 35 96 3c ae f7 c4 bb 13 4b 42 3d 79 ca cc bc
       0.01833584 -0.006010971 0.047434878 -0.02499889
000380 9a af 05 3d 98 a7 27 3d fe 2c 77 bd a8 89 92 3b
       0.03263817 0.040931314 -0.060345642 0.0044719763
000390 6c 89 ce 3a b4 6e ca bc 76 d6 d9 bc db 36 39 bd
       0.0015757508 -0.02471099 -0.02659152 -0.04521833
0003a0 b9 24 2e 3d 0a 09 ad ba af 7a cd 3c 58 09 24 bd
       0.04251549 -0.0013201546 0.025082914 -0.040047973
0003b0 e4 b1 e9 3c c7 53 60 bc ab 31 02 bc ce 8e 1d bd
       0.028527208 -0.013691849 -0.007946412 -0.038466267
0003c0 95 cb 4d bd 21 10 0d 3d 10 ed 88 bd bb f9 61 3d
       -0.05024298 0.03443921 -0.06685841 0.055169802
0003d0 cc 42 a8 bc c4 65 78 bd 02 fa 50 3d f2 4e e9 bc
       -0.020539664 -0.060643926 0.051019676 -0.028480027
0003e0 64 09 33 3d dc 27 0a 3d 3d 68 70 bc eb d4 2d bd
       0.043710127 0.03372942 -0.01467329 -0.042439383
0003f0 60 a5 01 bc 9d bf b5 bc 54 26 f1 bc 7c f3 2f 3c
       -0.007912964 -0.022186095 -0.029437222 0.010739204

convs.1.lin_l.bias f4 [64]
000000 3a 76 66 3c 71 e9 4f bd 89 a2 81 3d a3 51 18 bc
       0.014066273 -0.050759736 0.06329829 -0.009296807
000010 55 4d 75 3c ce 74 d1 bc 68 49 3a 3d 06 28 32 bd
       0.014972051 -0.025568392 0.045480162 -0.0434952
000020 09 3c 14 bc ce 6d 79 bd 5d 9b 54 bd f2 9d 48 bd
       -0.009047517 -0.060895734 -0.05190598 -0.048978753
000030 b9 68 69 3d bd ad cf bb b4 03 ef bc 48 85 20 3d
       0.056984637 -0.00633785 -0.02917657 0.039189607
000040 78 8e 53 3c 34 9e 76 bc 03 d7 91 bc 8b 58 45 bd
       0.012912385 -0.015052367 -0.01780272 -0.048180144
000050 62 9c 49 3d ed 45 86 3d ce af 0a bc eb ff b0 bc
       0.049221404 0.06556306 -0.008464767 -0.021606406
000060 16 f3 a0 3c ae 93 99 bb 76 58 19 bd ba 1c 09 bd
       0.019647162 -0.0046867942 -0.03743788 -0.03347466
000070 72 65 3b 3a 1a 8d 23 bd 3a bc 84 3d a8 14 8e bd
       0.00071486004 -0.039929487 0.06481214 -0.069375336
000080 0d 7a c0 bc e0 46 65 3d 41 c3 d1 bc 58 c0 80 bd
       -0.023495698 0.055975795 -0.0256058 -0.06286687
000090 f0 15 95 3c 2b 5b 1b 3c 84 b2 2a bd a3 a6 26 bd
       0.018198937 0.009482185 -0.041674152 -0.04068626
0000a0 a1 81 36 3c f5 97 40 bd 25 90 67 3d 65 18 28 bd
       0.011139304 -0.047019918 0.05653395 -0.04103889
0000b0 01 bc 86 bd 5d 34 99 bc 0f 48 ba 39 10 4b bd bb
       -0.06578828 -0.018701727 0.00035530372 -0.0057767704
0000c0 61 f5 42 bc 3b 60 2a 3d 9d a3 5f 3d a2 e4 a9 bc
       -0.011899323 0.04159568 0.054599393 -0.020738903
0000d0 25 08 21 3d 00 36 68 3c 0b d8 28 bb 68 5f 51 bd
       0.039314408 0.014173031 -0.0025763537 -0.051116377
0000e0 cc 62 16 bd a0 97 4c 3d 3d a6 24 bd 6a 41 5e 3c
       -0.036715314 0.04994929 -0.0401976 0.013565401
0000f0 e4 bf 7c 3d 96 5e 95 bd ba 0d 2f 3d 73 28 3a 3d
       0.06170644 -0.072934315 0.0427377 0.04544873

convs.1.lin_r.weight f4 [64, 256]
000000 03 57 73 bd cf f4 22 3d 80 24 75 3d 6d 57 b6 3b
       -0.059409153 0.03978425 0.059849262 0.005564621
000010 d7 b3 c6 bb 84 0b d2 3c c5 2e d5 3c 07 35 24 bd
       -0.006063919 0.025640257 0.026023278 -0.040089633
000020 c0 24 38 3c 58 6c 5e bd 84 4e 38 bd 43 8f b9 3c
       0.011239231 -0.054302543 -0.044996753 0.02265132
000030 9c cc 64 bd 53 1a f0 bb d0 0a 8f bc c3 ad 3b 3c
       -0.055859193 -0.007327357 -0.01746121 0.011455002
000040 eb 6c 20 3d 4e b2 11 3d e9 e0 53 bd b8 b4 ba bc
       0.039166372 0.035570435 -0.051728163 -0.022791252
000050 e0 7b 70 bd b4 67 24 3d 6e 6e 50 3c 8a 9f 17 3c
       -0.058711886 0.04013796 0.012721641 0.009254346
000060 89 6b 1d bd c2 52 80 bd c3 95 f7 bc c3 cf 4e bd
       -0.03843263 -0.06265785 -0.03022278 -0.050491106
000070 f2 78 6e 3d 73 a8 59 bd 87 bf 6a 3c a1 8e 41 3d
       0.05822081 -0.05313916 0.01432789 0.047255162
000080 14 5d 46 bd bb b0 40 bb cc 46 bb bc c0 53 32 bd
       -0.04842861 -0.0029402215 -0.022860907 -0.0435369
000090 fc 65 de bc e4 8f ea 3c 7e b9 27 bd bf 97 59 ba
       -0.02714824 0.028633066 -0.040948384 -0.0008300505
0000a0 b8 bf a3 3c b9 5b 3a b9 c1 e4 9c bd fb e8 73 bd
       0.01998888 -0.00017772512 -0.07660819 -0.05954836
0000b0 41 cc 10 3c 02 97 33 bd 29 3a 2d 3d a8 ed 32 3d
       0.00883776 -0.043845184 0.042291794 0.043683678
0000c0 47 d5 38 bd 72 4e e7 bc 8d 89 61 bd cb d0 57 bd
       -0.045125272 -0.028235648 -0.05506282 -0.052689355
0000d0 90 8e 02 bd 75 00 f5 bc 4d 6d b6 3b 1e 26 5c 3c
       -0.03187424 -0.029907444 0.005567229 0.013436822
0000e0 0e 90 1f bd 80 de 07 3d 52 db 44 3c 38 ac f9 bc
       -0.03895574 0.033171177 0.012015181 -0.030477628
0000f0 98 5d b2 3c c5 83 d4 bc 13 49 a1 bc d5 83 ff 3c
       0.021773145 -0.025941739 -0.019688165 0.031190792
000100 c8 1b 0b 3d e3 83 01 3d a7 d6 1f 3d c4 28 83 bc
       0.03396204 0.031619918 0.039023068 -0.01601065
000110 e9 af 24 bd 57 6e 09 3c 2a 1f 43 3c 9f 98 13 bd
       -0.040206823 0.0083881235 0.011909286 -0.036034223
000120 45 92 dd 3c 1a 2e 3f 3d 8d 23 da bc 4c a7 c6 3b
       0.027047286 0.046674825 -0.02662828 0.006062424
000130 db 0d 69 bc c2 a5 4d 39 c6 01 51 3c 04 cd 2e bd
       -0.014224495 0.00019612073 0.0127567705 -0.042675987
000140 ff c4 6b bd 45 64 2e bd 44 ad 99 bc 16 ad 06 3d
       -0.057560917 -0.042576093 -0.018759377 0.03287991
000150 36 16 49 3d 63 cb 76 3b 54 52 82 3d ec ea 23 bb
       0.049093448 0.003765785 0.06363359 -0.002501185
000160 f4 80 77 bc 67 bb ea bc 8c ea 8d 3d 42 4e 62 bc
       -0.015106428 -0.028653814 0.06929502 -0.013812603
000170 a4 cd ba bc 86 01 f7 3c 94 69 2f bd 8f d0 ea ba
       -0.022803135 0.030152094 -0.042825297 -0.0017914939
000180 7b f7 0b bd 1e 48 c1 3b 93 4d 37 bd 02 80 56 bd
       -0.034171563 0.0058984896 -0.044751715 -0.05236817
000190 7f 31 84 bc ec ae 4b 3c e7 82 1b bd 7b fc 1c bd
       -0.016136883 0.012431841 -0.037966635 -0.03832672
0001a0 9c 91 cf 3c 0c 84 14 bd eb 7d 1a 3d 6f 0a 1f bd
       0.025337987 -0.036258742 0.03771774 -0.03882831
0001b0 d7 21 f6 3c 88 31 5a bc 94 ed 4e bc 18 b1 20 3d
       0.030045433 -0.013317473 -0.012629885 0.03923139
0001c0 21 5d 4f bd c3 3f df bc ee 66 eb 3b 27 b5 6f bd
       -0.050625924 -0.027252084 0.007183901 -0.05852237
0001d0 5e 79 3e bc 9d d2 1c bd 3a 0a f2 bc 1b 8b 30 bd
       -0.011625616 -0.038286794 -0.029545892 -0.04310141
0001e0 a6 96 52 3c 3a e0 2b bd c2 ad 27 bb e7 75 06 3d
       0.0128533 -0.041961886 -0.0025585745 0.032827284
0001f0 fa a3 4d bd dc ba 0d 3d f3 86 5c bd c0 c5 47 bd
       -0.05020521 0.03460203 -0.053839635 -0.048772573
000200 bd 03 38 3d c3 be 61 bb 24 48 00 bd 58 91 00 bc
       0.04492544 -0.0034445978 -0.0313188 -0.007847153
000210 f8 7a 14 bd c9 9a fd bb 32 ac 09 bd ac a5 9d 3d
       -0.036250085 -0.007739399 -0.033611484 0.07697615
000220 77 e1 d4 ba 58 50 ee bc ef c7 7a bc d8 a8 04 bd
       -0.001624151 -0.029091045 -0.015306457 -0.032387584
000230 48 fa 69 3d e3 cf 8a bd 8f 81 32 3c 51 6d 1e 3b
       0.057123452 -0.067779325 0.010895147 0.0024174044
000240 fb 81 99 bc c2 d2 f1 bb ae 73 56 3d f6 15 38 bd
       -0.018738737 -0.0073798606 0.052356414 -0.04494282
000250 be dc c1 ba ae 9b 09 3d c5 6a f1 3c 6b c7 a9 bc
       -0.0014790518 0.033595733 0.029469857 -0.020724973
000260 60 0f 17 3d 91 94 1d 3c 65 b4 2a bd 5d 40 60 bb
       0.036879897 0.0096179405 -0.041675944 -0.003421805
000270 a2 dc 22 3d 7e 0d 76 bd 27 ac a7 bc 7a fa 78 3c
       0.039761193 -0.06007146 -0.02046783 0.015196437
000280 16 7c e4 3c 71 76 01 bd e6 f1 35 bd 75 33 28 3d
       0.0278912 -0.031607095 -0.044420145 0.0410647
000290 5a 01 fa 3c 51 7a 88 bd 86 23 c9 bc 4a 6d bf bc
       0.030518223 -0.06663955 -0.024553072 -0.023367543
0002a0 c3 98 e9 bb bd cb ea 3c fe 15 fa bc 01 a0 17 bd
       -0.0071288063 0.028661603 -0.030528065 -0.037017826
0002b0 04 4f 3f bc 43 c1 d8 bc 3d c6 c8 bc d1 9a 1b bd
       -0.011676554 -0.026459342 -0.02450859 -0.03798944
0002c0 62 cb 14 bd 5d 5e 04 3d 7b fb 4e bc 64 39 f8 3c
       -0.036326773 0.032316554 -0.0126332 0.030300803
0002d0 d0 f5 3a 3d 05 b2 58 bd a0 ac 48 3c c4 51 64 bd
       0.04564458 -0.052904148 0.012248188 -0.05574204
0002e0 a4 ba 95 bd 79 b3 a5 3b 78 09 ff 3b 6d b2 15 3d
       -0.073109895 0.005056795 0.007783111 0.036547113
0002f0 6f 24 ca bc 76 a2 69 3c 2c c1 84 bd 0c 4c 1a bd
       -0.024675576 0.014259925 -0.06482157 -0.03767018
000300 b9 01 14 3d 47 3c 50 bd 3e b6 09 3d d2 6f ab bb
       0.036134455 -0.050838735 0.033621065 -0.005231836
000310 6d 1e 0f 3d 32 87 7b bb 99 70 4c 3d aa a6 43 3d
       0.034941126 -0.0038380143 0.04991207 0.047766365
000320 b5 54 ab ba 43 26 26 3c 54 76 55 3d 95 15 2e 3d
       -0.0013071509 0.010140958 0.0521148 0.04250105
000330 9e cd 2e bd f2 d4 ec 3c c4 a7 c2 3c f9 26 2a 3d
       -0.04267656 0.028910134 0.023761638 0.041541073
000340 df d4 83 3b c3 40 fa bc ac 19 66 bd f6 2c b1 3b
       0.004023179 -0.030548459 -0.056176826 0.005406971
000350 e1 17 bd 3c 27 f0 22 3d 3b 0d 22 bb d4 ed 0d 3c
       0.023082675 0.03977981 -0.0024727124 0.00866266
000360 25 7f 60 bd 63 6f 7f bd 68 59 1f 3d 2e 12 cb bc
       -0.054808754 -0.062362086 0.038903624 -0.024788942
000370 dc 98 36 3d 3e 18 ec 3c 8d 8b 20 bc 45 2b c5 bc
       0.04457937 0.028820153 -0.0097988965 -0.024068484
000380 bc 7d f5 3b 96 8c 05 3c a3 a4 09 bc 4a 77 87 bd
       0.0074917953 0.008151194 -0.008401069 -0.066145495
000390 7e 13 3c bd 1e f5 54 3d 0e f7 1e bd 33 1f 2b 3d
       -0.045917027 0.051991574 -0.03880983 0.0417778
0003a0 59 a3 a3 3c fe a2 e5 3c 59 86 2f bc d9 30 74 3c
       0.019975351 0.028031822 -0.010713183 0.014904224
0003b0 34 3a 20 bd 3f a7 2d 3d e8 8b 02 3d 02 6a 51 bc
       -0.039118007 0.042395826 0.031871706 -0.012781622
0003c0 f9 19 68 3d 90 e8 4d bd a4 c4 15 bd 4b 3c 67 bc
       0.056665394 -0.050270617 -0.036564484 -0.014113496
0003d0 6f d0 08 3d 0f 89 61 bc b5 2c 6a bd 4a cb 77 3c
       0.033401903 -0.0137655875 -0.057171542 0.0151241515
0003e0 95 b8 e7 3c cc 1f f6 bb b8 5c f2 bc 50 1c 70 3d
       0.028286258 -0.0075111147 -0.029585227 0.05862075
0003f0 c0 0d 24 bd 92 6d f0 3b d4 69 92 3c 6e 81 ff 3c
       -0.040052176 0.0073372805 0.017872728 0.031189647

bns.0.weight f4 [256]
000000 1d e2 7e 3f 08 aa 7e 3f e0 04 7d 3f 05 8a 7d 3f
       0.9956377 0.994782 0.98835564 0.99038726
000010 df 40 7d 3f 35 3b 80 3f 70 54 7d 3f f3 cb 7d 3f
       0.9892711 1.0018069 0.98956966 0.99139327
000020 5e 14 7f 3f 8d d4 7d 3f 91 da 80 3f 82 65 7e 3f
       0.9964045 0.9915245 1.0066701 0.9937364
000030 8e f2 7f 3f 56 4d 7c 3f f6 8e 7c 3f 2b e2 7f 3f
       0.99979484 0.98555505 0.9865564 0.9995448
000040 f8 8d 7e 3f 22 0b 80 3f ea dd 7d 3f 2b a0 7c 3f
       0.9943538 1.0003397 0.9916674 0.98681897
000050 b8 70 7d 3f cc 52 7e 3f aa 76 7e 3f 2d 3f 80 3f
       0.9900012 0.9934509 0.99399817 1.001928
000060 e9 6e 7e 3f c5 5f 80 3f 37 8a 7e 3f 23 6c 7e 3f
       0.99387985 1.0029227 0.9942965 0.99383754
000070 53 79 7d 3f 9c 51 7f 3f f6 3b 7d 3f 70 bc 7d 3f
       0.9901325 0.997339 0.9891962 0.9911566
000080 bc fc 7c 3f 4f f2 7d 3f 4b 54 80 3f ba aa 7d 3f
       0.9882314 0.9919786 1.0025724 0.99088633
000090 eb 62 7d 3f 45 0a 7f 3f 12 8e 7c 3f bd 07 81 3f
       0.9897906 0.99625045 0.9865428 1.0080487
0000a0 d9 97 7e 3f 19 b7 7b 3f 75 f4 7f 3f 6c 5d 7f 3f
       0.9945045 0.9832626 0.99982387 0.99751925
0000b0 d9 be 7e 3f ea 4e 7f 3f df 0f 7d 3f b3 54 7f 3f
       0.9950996 0.9972979 0.9885234 0.99738616
0000c0 a1 05 7d 3f ed ef 7c 3f bc 5a 7e 3f bf c1 7d 3f
       0.98836714 0.988036 0.993572 0.9912376
0000d0 e1 82 7e 3f 16 18 80 3f 61 df 7f 3f 93 7a 7d 3f
       0.99418455 1.000735 0.99950224 0.9901516
0000e0 ef e0 7d 3f 08 d2 7c 3f 6d f1 7e 3f 26 4c 7e 3f
       0.99171346 0.9875798 0.99587137 0.99334943
0000f0 f8 3a 7c 3f ff a8 80 3f 55 d0 7e 3f 76 2f 7d 3f
       0.9852748 1.0051574 0.9953664 0.98900545
000100 c3 ad 7c 3f ef f5 7d 3f f4 82 7b 3f 38 61 7d 3f
       0.9870264 0.9920339 0.98246694 0.9897647
000110 7d 07 7e 3f 4d fc 7d 3f 5c 91 7e 3f 20 1f 7d 3f
       0.99230176 0.99213105 0.9944055 0.9887562
000120 75 de 7d 3f bb 11 80 3f 06 be 7c 3f d2 3b 7e 3f
       0.9916757 1.0005411 0.9872745 0.9931003
000130 52 a8 80 3f 3e 5a 7f 3f cd a7 7e 3f 4a 3a 7f 3f
       1.0051367 0.99747074 0.99474794 0.9969832
000140 cd 0c 80 3f 4c 99 7d 3f 75 56 7e 3f 06 85 7e 3f
       1.0003906 0.9906204 0.9935067 0.9942173
000150 92 30 80 3f 02 a2 7d 3f 8f 20 7e 3f d2 97 7e 3f
       1.0014822 0.9907533 0.9926843 0.9945041
000160 e6 12 80 3f 1f a0 7d 3f cc 8d 7e 3f d1 12 7d 3f
       1.0005767 0.9907245 0.99435115 0.98856837
000170 37 ea 7d 3f 57 12 7e 3f eb 40 7f 3f 82 54 7e 3f
       0.9918551 0.99246734 0.9970843 0.993477
000180 a0 76 7f 3f 01 78 7b 3f bd 58 7e 3f fa 35 7f 3f
       0.9979038 0.98229986 0.99354154 0.99691737
000190 8a 58 7d 3f 02 c1 7d 3f fd ea 7b 3f 6f 90 7f 3f
       0.98963225 0.9912263 0.9840544 0.99829763
0001a0 e6 84 7e 3f e2 fa 7d 3f 90 b1 7f 3f a5 0e 7e 3f
       0.99421537 0.9921094 0.99880314 0.99241096
0001b0 75 43 7e 3f 80 7c 7e 3f 52 48 7e 3f 4f d9 7e 3f
       0.9932168 0.9940872 0.993291 0.99550337
0001c0 cd 33 7e 3f b4 b4 7e 3f f8 a5 7d 3f 5c c3 80 3f
       0.9929779 0.9949448 0.99081373 1.0059619
0001d0 0e 78 7c 3f 76 10 7e 3f 0c 92 7e 3f 9c 19 7d 3f
       0.9862069 0.9924387 0.994416 0.988672
0001e0 85 44 7f 3f 41 32 7e 3f d0 3f 80 3f 87 52 7a 3f
       0.9971393 0.9929543 1.0019474 0.97782177
0001f0 53 f1 7e 3f e3 ff 7d 3f d0 36 7e 3f c9 6d 80 3f
       0.9958698 0.9921858 0.9930239 1.0033504
000200 3a e6 7e 3f 63 35 7d 3f 33 1d 7f 3f ab 26 80 3f
       0.9957005 0.98909587 0.9965393 1.00118
000210 cc 7a 7f 3f 38 a9 7d 3f a8 40 7e 3f c2 95 7c 3f
       0.9979675 0.9908633 0.9931741 0.9866601
000220 63 fc 7c 3f f5 2e 7f 3f ec 1e 7c 3f ee c6 7d 3f
       0.9882261 0.99681026 0.98484683 0.9913167
000230 8b 76 7d 3f f3 32 7f 3f 52 d2 7e 3f b7 d3 7d 3f
       0.9900901 0.9968712 0.99539673 0.99151176
000240 3f de 7f 3f 9a 91 7f 3f 63 07 7e 3f ae b1 7f 3f
       0.99948496 0.99831545 0.9923002 0.9988049
000250 7a 2a 7e 3f 2c 30 7c 3f d0 8d 7d 3f e3 30 7f 3f
       0.99283564 0.98511004 0.99044514 0.9968397
000260 99 66 7e 3f 01 10 7f 3f f1 6d 7e 3f a8 c6 7f 3f
       0.993753 0.99633795 0.9938651 0.999125
000270 2b 93 7c 3f 73 1c 7d 3f 9f 37 7e 3f 03 d0 7e 3f
       0.9866206 0.98871535 0.9930362 0.9953615
000280 97 8a 80 3f 42 22 81 3f 93 b1 7f 3f 53 6e 7f 3f
       1.0042294 1.008858 0.9988033 0.99777716
000290 65 c9 80 3f 01 3e 7f 3f ec ac 7c 3f e0 c5 7f 3f
       1.0061461 0.99703985 0.9870136 0.9991131
0002a0 c7 6d 7d 3f 9b 85 7d 3f 1c e9 7c 3f 67 9c 7e 3f
       0.9899563 0.9903199 0.98793197 0.994574
0002b0 17 9b 7d 3f 6b 0a 7d 3f 16 14 7d 3f 7a 88 7e 3f
       0.99064773 0.9884402 0.98858774 0.99426997
0002c0 c0 d3 7b 3f e2 f1 7f 3f 91 44 7b 3f 35 c7 7e 3f
       0.9836998 0.9997846 0.981515 0.99522716
0002d0 79 ac 7d 3f 7b cb 7c 3f 1d 0b 80 3f b4 8a 7d 3f
       0.990913 0.98747987 1.0003392 0.9903977
0002e0 d3 48 80 3f e4 ba 7e 3f 37 70 7d 3f 9d 9f 7f 3f
       1.0022224 0.9950392 0.9899935 0.99852926
0002f0 22 23 80 3f c5 f1 7f 3f b0 37 7e 3f 50 ef 7c 3f
       1.0010722 0.99978286 0.9930372 0.9880266
000300 8d c7 7c 3f 53 cd 7e 3f 77 0e 80 3f e1 44 7d 3f
       0.9874199 0.9953205 1.0004414 0.98933226
000310 55 50 7e 3f eb 52 7f 3f e0 d9 7d 3f 43 4c 7f 3f
       0.99341327 0.997359 0.99160576 0.9972574
000320 75 06 80 3f fb b6 7e 3f 10 e0 7e 3f 7a c1 7e 3f
       1.000197 0.99497956 0.9956064 0.9951397
000330 0d 82 7e 3f 81 5a 7f 3f 86 3f 7e 3f b8 05 7e 3f
       0.9941719 0.99747473 0.9931568 0.99227476
000340 b7 ab 7e 3f c9 1f 80 3f 6e 84 7e 3f 41 57 7e 3f
       0.99480766 1.00097 0.9942082 0.9935189
000350 3e 9f 80 3f 6e 70 7d 3f 27 83 7d 3f eb 94 7e 3f
       1.0048597 0.9899968 0.9902825 0.9944598
000360 32 cd 7d 3f 4d cd 7d 3f a4 0c 7f 3f 9a 87 7d 3f
       0.9914123 0.9914139 0.99628663 0.99035037
000370 4c 60 7d 3f c8 6b 7f 3f df ce 7f 3f 74 db 7b 3f
       0.9897506 0.99773836 0.99925035 0.98381734
000380 13 44 80 3f 13 d6 7f 3f 1d b1 7e 3f 45 78 7f 3f
       1.0020775 0.99936026 0.99489003 0.9979289
000390 48 61 7f 3f f9 ea 7f 3f b6 c0 7e 3f 53 db 7d 3f
       0.99757814 0.99967915 0.99512804 0.9916279
0003a0 3f e6 7f 3f 0c 9f 7e 3f a4 6c 7e 3f ed c3 7d 3f
       0.999607 0.99461436 0.9938452 0.99127084
0003b0 83 81 7f 3f 6d fe 7f 3f 4c 4c 7e 3f 03 a3 7d 3f
       0.99806994 0.999976 0.9933517 0.9907686
0003c0 f4 cc 7f 3f 5c 72 7e 3f f3 36 80 3f 49 00 7f 3f
       0.9992211 0.9939325 1.0016769 0.9960981
0003d0 01 be 7e 3f ce ae 7c 3f a9 37 7e 3f fc 36 7d 3f
       0.9950867 0.9870423 0.9930368 0.98912024
0003e0 13 5f 7d 3f f7 e9 7d 3f 41 10 7e 3f 62 2f 7d 3f
       0.98973197 0.9918513 0.9924355 0.98900425
0003f0 df 38 7f 3f 4c ee 7e 3f 95 6f 7d 3f f3 cd 7d 3f
       0.99696153 0.9958236 0.98998386 0.9914238
