output/oi/restr_e2v/run_007/restr_oi_best_model_e2v.pth (torch, 90293 bytes, 14 tensors)

convs.0.lin_l.weight f4 [64, 32]
000000 5d ea d7 bd de 9b 2a 3e 8b 15 bb bd 51 7e 08 be
       -0.10542748 0.16661021 -0.09134968 -0.13329436
000010 45 23 24 be ce af 9b 3b 65 9c a9 bc 18 66 de 3d
       -0.1602908 0.004751182 -0.020704458 0.108593166
000020 91 db e2 bd 09 12 09 be 18 df 84 3d d6 fc e5 3d
       -0.11077035 -0.13385786 0.06487864 0.11229865
000030 d6 39 f5 3d e9 6b f8 3c d4 f7 0b be 0c cd 6a bd
       0.11973922 0.030324893 -0.13668758 -0.057324454
000040 ec 50 08 3e ea bc 12 3e 49 3b 3b 3c 0f 50 c6 bd
       0.13312119 0.14329877 0.011427709 -0.09683239
000050 ee fe 04 bd c9 93 a8 3c 77 28 2f 3e ed 88 22 3e
       -0.032469682 0.020578282 0.1710528 0.15872546
000060 84 4c cb bd e3 2a c3 3d 4a 0b b6 3d 44 46 87 3d
       -0.099267036 0.09529664 0.08888872 0.06605199
000070 66 9e cd bd 41 41 0a 3e 18 c4 98 3d 1a f6 9f 3d
       -0.10039978 0.13501455 0.07459277 0.07810612
000080 83 a7 ed bc df 84 66 bd f1 5b d8 3d d6 4c 8d 3d
       -0.02901054 -0.05627906 0.105644114 0.06899421
000090 08 fe 63 bc 15 ce 02 3e 3a 45 09 bd 50 8b cc 3d
       -0.013915546 0.12773927 -0.033513285 0.09987509
0000a0 b1 50 05 be 85 35 08 3e 56 c5 cf bc 81 9d de 3d
       -0.13019063 0.13301666 -0.025362652 0.10869885
0000b0 10 05 94 3d 95 9a 2c be 37 2c 11 bd 46 f8 29 bd
       0.07227528 -0.16855843 -0.035442557 -0.041496538
0000c0 d3 20 43 3c f5 7d 02 be 93 8f 84 bd f4 e4 26 bd
       0.011909681 -0.12743361 -0.06472697 -0.04074569
0000d0 e2 e8 98 3a ad 1c 44 bc 89 57 49 be 40 ff 11 be
       0.0011666084 -0.011969727 -0.19662298 -0.14257526
0000e0 4e 7f 0a 3e 5e 26 25 be 3b f2 34 bd 07 75 e2 3d
       0.13525125 -0.16127917 -0.04417632 0.110574774
0000f0 32 63 a7 3d 86 c0 5f bd e4 c3 5a 3d 51 6f e4 bd
       0.08173217 -0.054626964 0.053409472 -0.111540444
000100 65 c5 a9 3d 03 26 e2 3d 87 1e 16 be 99 d8 f3 bd
       0.08289603 0.110424064 -0.14660083 -0.11906547
000110 fb 54 2b 3c f0 8e 0a be 44 37 12 be 67 16 25 3e
       0.010457273 -0.13531089 -0.14278895 0.16121827
000120 00 d6 8e 3d de 5b 18 bd 09 09 ed bd 25 6d b9 3d
       0.06974411 -0.037196986 -0.11573989 0.09054021
000130 22 54 06 bd ae cd 3a 3e a7 c3 5a bc 61 84 f7 bd
       -0.03279508 0.18242523 -0.013352311 -0.12085796
000140 e3 88 cf 3d 19 eb 05 3e 9a c0 54 bd 80 89 57 3e
       0.10133531 0.13077964 -0.05194149 0.21048546
000150 ce 3d 14 be 77 60 44 3e c3 09 20 3e f8 71 65 3d
       -0.14476702 0.19177423 0.15628724 0.056016892
000160 ab 36 52 be dd 1f f2 3d 7b 0b 80 3d d5 7d 5e 3d
       -0.20528667 0.11822484 0.0625219 0.05431922
000170 6c fa 49 3d 79 dd 39 be 44 9c e9 3d 4f 35 42 3c
       0.049311087 -0.18150891 0.114067584 0.01185353
000180 a2 a6 20 ba 8f de 36 3d c8 02 a9 3d 95 7c 95 3d
       -0.0006128346 0.044645842 0.082524836 0.07299153
000190 4b b7 0e be 5c 45 27 3d 28 99 cd 3d 61 e9 a0 3b
       -0.13937108 0.04083763 0.10038978 0.0049106334
0001a0 00 51 63 be e2 bd 8b 3d f1 20 28 bd b6 08 23 3d
       -0.22198868 0.06823327 -0.04104704 0.03980323
0001b0 5b 2a 04 3e 79 14 0e be 13 48 83 3d 9d c9 85 bd
       0.12906782 -0.13874997 0.064102314 -0.06532595
0001c0 d0 ab 3d 3d 08 eb 2b be d7 86 f3 3d 78 57 4e bd
       0.04630643 -0.16788876 0.11890953 -0.050376385
0001d0 06 61 81 bd 74 94 ac bc c4 84 6f 3d 87 e2 83 bd
       -0.06317334 -0.021066882 0.058476225 -0.06439691
0001e0 ab 9b 0a 3e f1 2f 3b 3d d6 f6 77 3d b6 4c 7b 3d
       0.13535945 0.045700017 0.060538135 0.061352454
0001f0 ff 4f 16 be b5 3e 0f be cd d4 1c be 60 03 67 3d
       -0.14678954 -0.13988765 -0.15315552 0.056399703
000200 80 26 69 3d 6e 7a 71 3a 97 12 6d 3d 44 35 ea bd
       0.056921482 0.0009211664 0.057879057 -0.11435941
000210 30 a1 f9 3d bf 5a f6 3d bd 47 d8 bd cf f5 c7 bc
       0.12188947 0.12029027 -0.10560558 -0.024409203
000220 4e 58 39 3e 24 6a ef 3d c8 10 dd 3d 2c d8 ea 3d
       0.18100092 0.116901666 0.107942164 0.11467013
000230 b9 6d 9b bb 2b 1d b8 3c c5 fe 0b 3e cd a4 1b bc
       -0.0047433046 0.022474846 0.13671406 -0.009499741
000240 34 d4 a0 bd 15 2a dc 3c 13 71 9a 3c 6a 5e 61 3d
       -0.078529745 0.026875535 0.018852746 0.05502168
000250 a7 ae 8c 3d d9 ff e7 3d 65 37 b7 3c bf 27 d8 bc
       0.0686925 0.11328096 0.022365281 -0.02638614
000260 27 30 00 be f1 51 3a ba 23 19 2a 3e 2b e6 d9 3c
       -0.12518369 -0.0007107547 0.16611151 0.02659901
000270 08 b4 38 be 43 d2 f6 bd 0c a8 56 bd 0e 68 1c bd
       -0.18037426 -0.12051823 -0.052406356 -0.03818517
000280 65 c6 5f bd 68 f4 0c 3e 09 94 29 3d e6 ec fa 3d
       -0.054632563 0.13765109 0.041400943 0.12252216
000290 cf 80 c5 bd 19 46 3b bb 47 aa f6 3d f1 b4 08 be
       -0.09643709 -0.0028575717 0.120441966 -0.13350274
0002a0 81 cf 13 bb 4f 03 06 be d7 3d 17 3e a9 8a 8d 3d
       -0.0022554102 -0.130872 0.14769684 0.06911213
0002b0 8d 57 05 be d1 d4 07 3e c0 3c a5 3c 8d 33 5e 3b
       -0.13021679 0.13264777 0.02017057 0.0033905238
0002c0 93 be 91 3d 33 fa b3 3d 4e 32 35 3e 9d e3 11 be
       0.07116427 0.08787956 0.17694971 -0.14246984
0002d0 9a 6c 25 3e 91 55 b4 3c c6 d1 c4 3d b4 f9 9a bd
       0.1615471 0.022013457 0.096103236 -0.07567158
0002e0 ce e3 ad bd ea 90 8c bd 20 0b 4e 3c 7c 3e 95 3d
       -0.08490716 -0.06863578 0.012575895 0.072873086
0002f0 6e e4 07 3d 5f 55 01 bd 37 30 00 be 71 e6 bc 3d
       0.033176832 -0.031575557 -0.12518393 0.09223641
000300 60 dd 83 3c 6b 3c f7 bd 55 92 8f bd 83 c8 0d 3e
       0.01609677 -0.12072071 -0.070103325 0.1384602
000310 6c 4d d3 bd bd a5 d4 3c 04 49 b2 3c 5b 2a a0 3c
       -0.103175014 0.025957936 0.021763332 0.019551447
000320 c0 87 90 bd 1d d7 ff 3c 56 10 91 bd a6 14 cf bd
       -0.07057142 0.031230504 -0.07083194 -0.1011136
000330 1e b4 38 3e 31 9e 53 be c5 57 25 3c e1 9d aa bd
       0.18037459 -0.20665814 0.010091727 -0.08330894
000340 42 9e 0e 3e 5d 2a 2f 3e 4f c3 83 bd 4b 35 16 3e
       0.13927558 0.17106004 -0.064337365 0.14668767
000350 20 0c 91 3d 6a c1 8f 3d 60 4b c5 bd 11 70 07 be
       0.07082391 0.07019313 -0.09633517 -0.13226344
000360 e2 c2 0f 3e 55 c7 be bc c7 9f ca bc 03 9e 47 3e
       0.14039186 -0.023288408 -0.02473439 0.1949387
000370 66 80 3c be 93 d4 2e 3e a1 b4 0f be 9e 98 90 3d
       -0.18408355 0.17073278 -0.14033748 0.070603594
000380 9a 6e 12 3e 5f d1 1e 3e 35 02 08 3e 2f c6 25 3e
       0.14300004 0.15509556 0.13282092 0.16188882
000390 b3 6a a5 3a ce 8d de bd 32 af 97 3c 7f 33 18 be
       0.00126203 -0.10866891 0.018516157 -0.14863394
0003a0 16 ec 11 3d 8f d0 8f bb db 55 c1 bd 95 df a8 bd
       0.03562554 -0.004388876 -0.09440204 -0.0824577
0003b0 1e f0 8c 3d b7 36 a2 3d 8a b8 ed 3d 31 b3 26 3e
       0.06881736 0.07920592 0.11607464 0.16279294
0003c0 43 81 0c be f7 14 62 bd e2 2c c5 bc 87 da b0 3d
       -0.13721184 -0.055195775 -0.024069253 0.08635431
0003d0 3f f6 d7 3d 7f 5b 18 be ff b5 09 bd 5d e3 d7 bb
       0.105450146 -0.14878653 -0.03362083 -0.006588383
0003e0 cb 8e 92 bd 78 ab 04 be 3a 0c 72 bd a9 61 76 bc
       -0.07156142 -0.12956035 -0.05909369 -0.015037932
0003f0 c6 78 c2 bd ae 49 d9 bd 5b cf e3 bd 3f 8d 2a 3d
       -0.09495692 -0.106097564 -0.11123534 0.04163861

convs.0.lin_l.bias f4 [64]
000000 1e 44 9f bd ee 34 cf bd 90 e1 15 3e a6 69 ed bd
       -0.07776664 -0.101175174 0.14636827 -0.115924165
000010 8c e3 19 be 82 fc ea 3c d7 a1 e4 3d e3 5f 8a bd
       -0.15028208 0.028684858 0.11163681 -0.0675657
000020 87 03 03 3e e1 f3 0e 3d d1 cf 88 bb 96 b7 bb bd
       0.12794314 0.03490055 -0.0041751643 -0.091658756
000030 9d 67 40 3d 50 aa 12 be 97 ab 18 bd 34 9c b5 bb
       0.046973813 -0.14322782 -0.037273016 -0.0055423025
000040 63 6b f6 3c 8b fe 6f 3d 86 96 5a 3d 4c 54 e0 bd
       0.030080503 0.05859236 0.053366207 -0.10953578
000050 0a fc 16 3e 24 11 29 3e 38 af be 3d 1f 55 97 3c
       0.14744583 0.16510445 0.09310764 0.018473206
000060 9e 34 2c 3d 15 b4 08 3c b7 5a 1b be 13 fa 1b 3e
       0.042042367 0.008343716 -0.15171324 0.15232114
000070 29 99 73 3d ef bf 35 be aa f6 1e 3e e2 cc e5 3d
       0.059472237 -0.17748998 0.15523782 0.11220719
000080 3d b1 d0 bb 6e 24 24 3e 7c 55 19 bd 70 a7 b5 3a
       -0.0063687847 0.16029522 -0.03743504 0.0013859104
000090 ee 4e 1d 3e d5 71 a1 bd 1e c9 8e 3d 30 69 a8 bd
       0.1536214 -0.0788304 0.06971954 -0.08223188
0000a0 1c c7 ca 3d 98 92 00 3e eb 2e e8 bd ad 10 1e bd
       0.09901258 0.12555921 -0.11337074 -0.038590122
0000b0 35 f9 05 be eb 0e c7 3d d7 e1 0b 3e b6 e5 27 3d
       -0.13083346 0.09719642 0.1366037 0.040990554
0000c0 11 c7 1e bd 7c b3 42 bc b5 70 24 3e 0f 4a b0 bc
       -0.038764063 -0.011883613 0.1605862 -0.021519689
0000d0 20 fd 99 bc b0 c6 d0 bd c4 f3 a4 3d bc fa e3 bd
       -0.018797457 -0.10194147 0.08054307 -0.11131808
0000e0 2f 81 0e be 61 41 98 3c a2 0b cf 3c 09 39 17 be
       -0.13916467 0.018585863 0.025274102 -0.14767851
0000f0 2d 07 03 be 84 2c bd 3d 5a ee 72 bd 93 d5 00 be
       -0.12795706 0.09237006 -0.05930934 -0.12581472

convs.0.lin_r.weight f4 [64, 32]
000000 e3 ec dc bc d1 95 f4 3c 8d 9e 11 3d f3 b1 5c be
       -0.026968425 0.029856594 0.035551596 -0.21552257
000010 c5 09 10 3d 30 36 ff 3d 1f 4d 64 3d 63 0e 48 3d
       0.035165567 0.12461507 0.05573761 0.048841845
000020 06 bd b6 bc 07 32 8c bd 2f fc 37 bd 6b a6 9e bd
       -0.02230693 -0.068454795 -0.044918235 -0.077465855
000030 c5 94 e9 3d 7b 49 ef bc e1 59 32 3d de 29 83 3d
       0.11405329 -0.029209843 0.043542746 0.0640447
000040 91 4d 85 bc cf 93 ed 3d c8 f7 3d 3e fc d0 0a 3e
       -0.016272338 0.11600458 0.18551552 0.13556284
000050 87 df d7 bd 71 94 c6 3d 68 bd 07 3e 5e c9 49 3d
       -0.10540681 0.09696282 0.13255847 0.049264304
000060 c2 c9 3c 3e 37 8e 80 bd b5 76 c7 bd f3 96 47 bc
       0.1843634 -0.06277125 -0.097394384 -0.012181985
000070 2a b1 44 3c da 7f 7e 3d c2 53 fb 3d 0e 03 d3 3d
       0.01200513 0.062133648 0.12271835 0.10303317
000080 0e 45 c5 3d f8 88 e6 3d 52 f2 db 3c 07 e4 1a 3e
       0.09632312 0.112565935 0.026848946 0.15126048
000090 59 93 c4 bd 79 85 00 3e 91 ac a6 3d 61 79 83 3d
       -0.09598417 0.12550916 0.08138383 0.064196356
0000a0 04 a6 a0 3d 84 99 3b be 81 ff a4 bd 37 47 88 bd
       0.07844165 -0.1832028 -0.08056546 -0.06654208
0000b0 e3 02 9b 3b 9e 91 da 3b 60 60 1a 3e be 6b f1 bc
       0.0047305687 0.006670191 0.15075827 -0.02947032
0000c0 79 27 aa bd 20 f1 a4 bd 9d 31 ba bd 53 30 2b be
       -0.0830831 -0.080538034 -0.09091494 -0.16717653
0000d0 21 d4 b0 3d 15 2a 30 3e 16 3a 1a be 37 34 30 bd
       0.086342104 0.17203553 -0.1506122 -0.043018546
0000e0 b1 b7 c5 3d 5e 2a 6d be cc 81 fd 3c 99 6a 47 3b
       0.09654177 -0.23160693 0.030945681 0.0030428527
0000f0 d9 f6 30 be d4 6c 8b bd 75 d2 f1 bc 8a 07 17 3e
       -0.17281665 -0.06807867 -0.029519299 0.1474897
000100 52 05 14 be 62 9c e9 3d fe ff f1 3d 8f 3b 48 be
       -0.14455155 0.11406781 0.11816405 -0.1955397
000110 fd 46 0d 3d 17 1a 91 3d db e9 a4 3d 2e ce 15 be
       0.034491528 0.07085054 0.08052417 -0.14629433
000120 94 95 a4 3d 9e 37 15 3d 6c db 3e 3d 91 44 be 3d
       0.08036342 0.036429994 0.046595976 0.09290422
000130 ea 39 84 3d b0 96 a2 3d f6 17 69 3d 64 40 3f 3a
       0.06456359 0.079388976 0.056907617 0.0007295667
000140 fe 04 0c 3d c1 e6 9d bd 6c ea 76 bd 8c 8a 00 3c
       0.03418445 -0.077100284 -0.060282156 0.007845532
000150 27 b1 1f 3e 9c d8 e7 bd 48 27 13 be 5d 45 0d be
       0.15594922 -0.11320612 -0.14370453 -0.13795991
000160 d8 81 16 be 76 3b 3b 3e d5 9b 18 be fe 86 43 3d
       -0.14697969 0.18284401 -0.14903195 0.04773616
000170 2c 83 90 3d f5 c3 34 bc 07 4c ad 3c cb d1 8d 3d
       0.07056269 -0.011033048 0.021154417 0.069247805
000180 35 a2 04 be 77 57 1c be 0e 21 df bd f4 e3 3a be
       -0.12952502 -0.1526774 -0.108949766 -0.1825102
000190 b0 6d 8f bd 67 49 8e 3c a1 a2 09 bd cd b8 95 3d
       -0.07003343 0.017368985 -0.03360236 0.073106386
0001a0 c1 36 1c be 67 23 40 bc 3b b8 21 3e 74 68 0f 3d
       -0.15255262 -0.011727191 0.15792935 0.035011724
0001b0 be d3 3f 3d 14 e7 e8 3c 10 45 bc 3c da f3 0e 3e
       0.046832792 0.0284305 0.02298215 0.1396021
0001c0 29 dc 1c be f4 83 4b be 47 11 aa bd 8b fc e9 bd
       -0.1531836 -0.19874555 -0.08304077 -0.11425122
0001d0 c1 d5 aa 3b 6a 22 86 3c d3 ec eb 3d 4b 01 0d be
       0.0052134697 0.016373832 0.1151978 -0.13770024
0001e0 e7 60 c2 bd b5 5d 1f bd aa 80 d7 bd cb dc 9a 3d
       -0.09491139 -0.038907725 -0.105225876 0.07561644
0001f0 d6 c3 eb bd 5b 25 21 3d 79 29 1f be f0 17 46 3e
       -0.11511962 0.039342266 -0.15543164 0.19345069
000200 6d 31 dc 39 33 19 e7 3d 3c 2b 03 be 71 6e 26 3c
       0.00041998495 0.11284103 -0.12809461 0.010158167
000210 5a 96 9f bd be 0d 22 3e 3e 74 b2 bd 4a bb 47 3a
       -0.07792349 0.15825555 -0.08713578 0.0007619156
000220 90 9d 45 bd e2 6c ea 3d f3 88 19 be 02 01 f6 bd
       -0.048245966 0.11446549 -0.14993648 -0.12011911
000230 fa 82 0e be 1c 91 ec 3d e4 28 f6 3d d1 91 dd bd
       -0.13917151 0.11551115 0.12019518 -0.10818828
000240 01 4c d1 3d 0e 51 8a bd db 33 82 bc 3a e9 d7 3d
       0.10219575 -0.06753741 -0.015893867 0.10542531
000250 45 97 d4 bd 81 d5 0d 3e fa 9f df bd c9 d2 c4 3b
       -0.10380415 0.13850977 -0.10919185 0.006006573
000260 29 46 2f bc d3 e4 cc bc 81 69 08 3e d4 28 ba 3d
       -0.01069788 -0.025011456 0.13321497 0.090898186
000270 4c 3c 8f bc a9 e6 04 be 7d 6f 23 3d af 2c a3 bd
       -0.017484806 -0.12978615 0.039901245 -0.07967507
000280 6b 14 1e be 12 d6 a5 3d ff 23 e7 bd 4e 4c 5a bc
       -0.15437476 0.08097471 -0.112861626 -0.0133238565
000290 51 10 78 bd 2b de 06 3e 83 cd 19 3e 3a 34 1e 3d
       -0.060562436 0.13170688 0.15019803 0.038624026
0002a0 41 ae 9f bd ac e6 a6 bd 37 09 f8 3d ad 8a 22 3e
       -0.07796908 -0.08149466 0.121111326 0.15873213
0002b0 41 3f bf 3d 3e 84 31 bd c5 a6 9d bd 5d 88 4c 3d
       0.093382366 -0.043339007 -0.076978244 0.049934734
0002c0 b6 d9 cc 3c 5f b6 63 3d bd fb f1 3d 58 c2 6f 3d
       0.025006156 0.055593845 0.118155934 0.05853495
0002d0 62 66 54 3d f4 a9 d6 3d 47 71 e2 bd 8f 69 d1 bc
       0.051855452 0.10481635 -0.11056762 -0.02556303
0002e0 30 06 88 bc 94 f8 b2 bd 8f 55 7d 3d c9 df c4 3d
       -0.016604513 -0.08738819 0.061849173 0.09612996
0002f0 a9 df c5 bc c7 92 3a bd f2 7c 5b be da 52 ea 3d
       -0.024154501 -0.045550134 -0.21434382 0.11441584
000300 f4 23 c0 3b f6 16 02 bd 24 dd 9a 3d 85 03 4a bc
       0.005863661 -0.03176018 0.075617105 -0.012329941
000310 e6 6b d5 bd e1 9c f4 bd 85 74 56 bd 27 4c 79 bd
       -0.104209706 -0.11943985 -0.052357215 -0.06086364
000320 06 59 1f 3e 92 a7 31 3e fa b5 23 bd 1a b7 42 3d
       0.15561303 0.17349079 -0.03996847 0.0475379
000330 58 ab 7d bd db 32 12 3c 81 33 7a 3d 5e 4f 2d 3b
       -0.061930984 0.008923258 0.061084274 0.0026445012
000340 52 42 8a bd 8b 62 d7 3d 39 92 b3 bd 08 cf a2 3c
       -0.06750931 0.105168425 -0.08768124 0.01987411
000350 32 ec ca 3c 12 cb 12 3d 1b ab 54 3e 5c f7 5e be
       0.02477083 0.035838194 0.20768397 -0.21774048
000360 2a fc b3 bd 13 14 a7 bc ba b8 1f 3e 0b b7 0a 3e
       -0.08788331 -0.020395314 0.15597811 0.13546388
000370 52 68 c0 3d 15 f0 88 bd 14 a1 11 3d fb fb 55 3e
       0.093948975 -0.06686417 0.035554007 0.20896904
000380 a9 2f cf 3d bf 53 a4 3d 6a 7a 1d be f0 aa 01 be
       0.10116512 0.08023786 -0.15378729 -0.12662864
000390 23 45 c6 bd 9b 7c 39 bd b9 97 ee bd 9c 06 03 be
       -0.096811555 -0.04528485 -0.116500326 -0.1279549
0003a0 8d 6f 12 bd 93 a0 27 3e 0a 5d 94 3d a6 a3 6f 3d
       -0.035750914 0.16369848 0.07244308 0.058505677
0003b0 78 5e c3 bd 98 a0 a0 3d be 30 a5 bd e5 a2 43 3e
       -0.09539503 0.07843131 -0.080659375 0.19105108
0003c0 82 ac 00 bd 1e 17 6f 3d 9d 45 73 3d 39 50 9b bd
       -0.031414516 0.058371656 0.05939256 -0.07583661
0003d0 ed 64 df 3d 50 33 95 3d 02 73 c6 3c 98 d6 ab bd
       0.10907922 0.07285178 0.024224762 -0.0839054
0003e0 7d fb 1a 3e 99 06 ce 3d 0d 70 e5 bd 7f b8 3a 3e
       0.15134998 0.10059852 -0.112030126 0.18234442
0003f0 f1 b3 7f bd 33 c6 16 be fa b4 11 be 64 bc 46 3e
       -0.062427465 -0.14724045 -0.14229193 0.19407803

convs.1.lin_l.weight f4 [128, 64]
000000 33 01 e0 3d 9e 6f 8d 3c b8 41 c2 3d 96 47 18 bd
       0.10937729 0.017265137 0.09485191 -0.037177645
000010 81 0d 7a bd 94 15 90 3d 78 3b bc 3c c8 09 24 3d
       -0.061048035 0.07035366 0.022977576 0.04004839
000020 24 63 8f 3d 7d 57 c6 3c 28 39 8e 3d b0 23 b4 bc
       0.070013314 0.02421164 0.069444954 -0.021989673
000030 ed 10 99 bb 24 91 98 bd df fb 13 bd 65 8b f4 3c
       -0.004671207 -0.074495584 -0.036128875 0.029851625
000040 8f 9c 93 bd f7 cc 5d 3d ee 7f bb bd 04 78 a3 3d
       -0.072075956 0.054150548 -0.0915526 0.079818755
000050 fc b1 77 3d a0 98 e5 bb 6f 54 3a 3d c0 fd c4 bb
       0.060472474 -0.0070067197 0.04549068 -0.0060116947
000060 a5 9e 7e bd 5c fe 0c 3e 51 1a 70 bd ef a3 ec bd
       -0.062163014 0.13768905 -0.058618847 -0.11554705
000070 cb dc 8a 3d aa 0f 38 bd be 6f 66 3d 41 72 08 3c
       0.06780394 -0.044936813 0.05625891 0.0083280215
000080 dd f2 57 3d e5 36 11 3d 27 28 9d 3c 96 20 d3 3d
       0.052721847 0.035452742 0.019184185 0.1030895
000090 a5 b9 ff 3d 80 10 fe bd e7 74 21 bd 8a 81 83 3d
       0.12486581 -0.12405491 -0.039418127 0.06421192
0000a0 cf df d9 bd d1 d6 c7 3d 43 7c 56 bc e0 f7 f1 3d
       -0.10638391 0.0975777 -0.01309115 0.118148565
0000b0 86 46 39 3d ac 83 c9 3d d1 c7 c6 3d 10 28 e7 bd
       0.045233272 0.098395675 0.09706081 -0.11286938
0000c0 d8 61 df bc b0 8d d7 3c 35 f1 ec bd d0 43 82 3d
       -0.027268335 0.026312679 -0.11569444 0.063605905
0000d0 49 20 8f 3d 20 69 86 3a 6e 16 a5 bd 89 5d a2 3d
       0.0698858 0.0010254718 -0.08060919 0.07927997
0000e0 9e 6c 62 3d 0f bf ea 3c 4f b9 46 bd 47 81 67 3d
       0.055279367 0.028655557 -0.048516568 0.056519773
0000f0 b7 a7 4c 3d e2 aa e9 bc b7 ac cb 3c 17 af 18 3e
       0.049964633 -0.028523866 0.02486263 0.14910541
000100 bf f1 a9 3d da e7 83 bd a4 d3 a0 bd 72 87 99 3d
       0.082980625 -0.064407066 -0.07852867 0.07496537
000110 1c f8 7d 3d 4e ae d3 bc 84 16 94 bc cb 3e d5 bb
       0.062004194 -0.02583995 -0.018077143 -0.0065077296
000120 c7 69 da 3d f8 aa 11 3d 36 6a 8f bd 2c 36 03 bd
       0.10664707 0.03556344 -0.0700268 -0.032034084
000130 c0 e7 a4 3d d2 10 b1 bc e8 7f 40 bc a4 d4 bc bb
       0.08052015 -0.021614466 -0.011749245 -0.0057626534
000140 07 cd ca 3d 21 c5 d1 bd b0 42 a9 3c d9 ef dc 3d
       0.09902387 -0.102426775 0.020661682 0.10787935
000150 25 b1 e0 3d da b5 98 bd da c4 6a bd b2 6d c1 bc
       0.10971288 -0.074565604 -0.05731664 -0.023611877
000160 7a 21 85 bd 5b cd dc 3d 48 aa bb bd 41 9c ca bd
       -0.06500526 0.10781356 -0.09163338 -0.09893084
000170 e2 b9 96 3d d5 ab e3 bb 57 45 90 3c db fb f9 bc
       0.07359673 -0.006947974 0.017611189 -0.030515602
000180 48 07 bf 3a 50 da 99 3b 8d e3 08 3d b1 fb 4f bc
       0.0014574314 0.0046952143 0.033420134 -0.012694285
000190 7a 95 5f bd 91 a1 6d bd d0 30 7c 3d 9f 80 09 be
       -0.05458591 -0.05801541 0.06156999 -0.13427971
0001a0 ec 6b 98 3d 51 8c 23 bc a8 e7 06 bc ad 1a d1 3d
       0.074424595 -0.0099821845 -0.008233942 0.10210166
0001b0 1b 79 e7 3d d7 0d 87 3d 6c 79 7c 3d 1b 0b 0f 3d
       0.11302396 0.065944366 0.061639234 0.0349227
0001c0 97 63 14 bd 92 96 5b bd 99 33 94 3c 6b 83 22 bd
       -0.03622779 -0.053610392 0.01809101 -0.03967611
0001d0 90 5d ee 3d a4 7d 12 bd ea a4 cf 3d f6 9f ab bd
       0.116389394 -0.03576435 0.10138877 -0.083801195
0001e0 44 3b b0 bc d4 45 2f bd 6d 15 81 bd c4 0a 8e bd
       -0.021512635 -0.042791203 -0.06302915 -0.06935647
0001f0 ae de 51 3d fc f4 82 bd 0f 64 54 bd 0d 0f ea 3d
       0.051237755 -0.06394383 -0.051853236 0.11428652
000200 79 31 00 3e 7f 7b 19 3d cf 52 cf bc d2 83 37 bd
       0.12518872 0.03747129 -0.02530804 -0.044803448
000210 04 27 f9 bd a9 bb b9 bd 89 7b af 3d 45 78 fb 3d
       -0.12165645 -0.090689965 0.08568484 0.12278799
000220 c3 d8 de 3d 28 f5 9f bb 87 ed b2 3d b1 19 e2 3d
       0.10881188 -0.00488152 0.08736711 0.110400565
000230 01 fe ab 3c 0f 56 9e bd f3 30 c8 3d 1a 55 92 3d
       0.020995142 -0.07731258 0.09774961 0.07145138
000240 87 e9 a7 3d 40 46 31 bd 40 51 02 3e c6 b0 34 3d
       0.08198839 -0.043279886 0.12726307 0.044113897
000250 0f 2d d1 bd 07 4b 17 3e 0f 6d 7e bd 23 ad 91 3d
       -0.10213672 0.14774714 -0.062115725 0.07113101
000260 d2 57 d1 3d 78 f4 f7 3c 7e d2 c0 bd d3 15 a2 3d
       0.102218285 0.030267939 -0.09415148 0.07914319
000270 f3 5e dd 3d 24 6a c4 3c 85 45 d6 bd 9a 25 1f bc
       0.10809126 0.023976393 -0.104624785 -0.009713555
000280 bf 16 79 3c 0c 97 b4 bd c0 f2 5a bd fe 8d cf 3d
       0.015203177 -0.088178724 -0.05345416 0.10134505
000290 01 cb ad 39 08 b2 70 bd 96 11 6a bc 14 4e 88 3d
       0.0003314838 -0.058763534 -0.014286419 0.06655517
0002a0 e6 b5 a0 3c 59 9d b9 3d 3d f7 05 3d ef 3b 8e 3d
       0.019617986 0.09063215 0.032706488 0.06945025
0002b0 06 e2 9c bd 4d 21 73 bc e8 18 fe 3c 25 85 0d 3d
       -0.07660298 -0.0148394825 0.031017736 0.034550805
0002c0 38 0f 58 3d ec 94 01 3d a3 c4 c0 bd 82 fe 48 3d
       0.05274889 0.031636164 -0.094125055 0.049070843
0002d0 e7 64 05 3d 25 44 3a bd 3b 83 ea 3d cc 53 d5 3d
       0.03256693 -0.045475144 0.114508115 0.104163736
0002e0 22 ee 43 bd 39 4a b5 3c ec 0a 23 3c ab 69 d6 3c
       -0.047834523 0.022130119 0.009951334 0.026173433
0002f0 0d f7 86 3c 57 7b f1 3d ff f6 88 bd 3b d2 8c 3d
       0.016475225 0.11791103 -0.06687736 0.06876036
000300 37 43 0d be 8f 8f f8 bd ed fc 91 bd b5 be a5 bb
       -0.13795172 -0.12136757 -0.0712832 -0.0050581344
000310 6f 6b a2 bd c4 94 cc 3d 38 0a e1 bd 23 48 9c 3d
       -0.079306476 0.09989312 -0.10988277 0.076309465
000320 2d db 99 3d 15 be 3a bd f3 50 14 bd 73 f5 63 3d
       0.075125076 -0.045591433 -0.03621001 0.055654
000330 7b 0c 86 3c 8f 56 7a 3c 9f 91 70 bc 64 d6 04 be
       0.016363373 0.015279426 -0.014683156 -0.12972409
000340 a3 de c2 3d 2a 16 89 bc 6d 4d d5 3d 3b 4a 6e bd
       0.09515121 -0.016734201 0.104151584 -0.05817626
000350 7a 3e 02 3e 24 9f 91 3a a1 e4 fc bc 59 f5 af 3c
       0.12719145 0.001111005 -0.030870738 0.021479296
000360 b3 e4 76 bd 89 0e da 3d da 65 b3 bd 86 e9 c5 bd
       -0.0602767 0.106473036 -0.08759661 -0.09663682
000370 9c a4 bb 3d b4 9e 26 be 5c a8 16 3c 60 95 98 3d
       0.09162256 -0.16271478 0.009195413 0.07450366
000380 08 6d 31 bd 1c ec bf bd f7 42 d6 bd a3 a6 e4 3d
       -0.04331687 -0.09371206 -0.10461991 0.11164596
000390 bc 7b 09 be a2 60 c3 3d 3f f3 85 3d 29 b2 ab 3c
       -0.13426107 0.095399156 0.06540536 0.020958977
0003a0 f6 94 82 bd 9d f0 8c bd f9 2c 8d bd 46 f4 bd 3d
       -0.06376068 -0.06881831 -0.068933435 0.09275107
0003b0 9b 43 5f bd 8e e8 0b be 18 0d 77 bd 37 d2 e8 bd
       -0.054507833 -0.13662931 -0.06031522 -0.1136822
0003c0 7d 61 8c 3d 6b b7 fd bc 3f 21 09 3e 5e c8 48 bd
       0.06854532 -0.03097125 0.13391589 -0.04901921
0003d0 48 d8 81 3c eb 88 03 be 37 49 97 3d 34 08 91 3c
       0.015850201 -0.12845199 0.073870115 0.017704107
0003e0 4a 65 54 3d 67 5f e2 bd bc 85 32 3d 4e 9f 9c bd
       0.05185441 -0.11053353 0.04358457 -0.076475725
0003f0 da 18 be bd 20 f0 d3 3d f0 c7 8b 3c 3e f4 d2 bd
       -0.09282084 0.103485346 0.017063111 -0.10300492

convs.1.lin_l.bias f4 [128]
000000 c4 2e 05 3e 41 ed c9 3d e1 50 c9 3d 73 c0 3b 3d
       0.13006121 0.09859706 0.098298796 0.04583783
000010 21 7c ea bd e8 68 09 bd 27 8e af 3c 17 2e 53 bd
       -0.11449457 -0.033547312 0.021430088 -0.051557627
000020 81 5f bd bc b2 1f 7b 3d 61 d7 57 bc fe 82 76 bc
       -0.023116829 0.061309524 -0.013173909 -0.015045879
000030 fe 99 08 3e 03 3a 9c bd 1d 08 d3 3d 1f dc e5 3d
       0.13339993 -0.07628252 0.10304282 0.112236254
000040 b0 f7 3e bd 7e 78 08 bd 4f 8c a1 bd 2e 2c a3 3d
       -0.046622932 -0.033318035 -0.0788809 0.07967411
000050 66 b2 df 3d a5 c8 dd bd bb a8 99 bc 00 84 cf bb
       0.10922699 -0.108292855 -0.018757215 -0.0063328743
000060 f3 db af bb c2 cf 93 3d ea bc 9d 3d f2 4a 10 be
       -0.005366796 0.07217361 0.07702048 -0.1409109
000070 28 3d ec 3d 82 1d 02 bd 67 73 fe 3d 29 91 a2 3b
       0.11535102 -0.031766422 0.12424355 0.004961152
000080 1c ad 20 3e 7c f8 e5 3d b1 24 8a 3d 7f 5f dd 3c
       0.15691036 0.11229035 0.067452796 0.027023075
000090 d3 96 de 3d 13 ec ff 3d f7 f8 0c bd 36 ed e3 bc
       0.10868611 0.124961995 -0.03441712 -0.027823072
0000a0 a9 b0 33 3d 22 48 15 3e 81 4e b8 3c bd 9a a0 3d
       0.043869648 0.14578298 0.022498371 0.07842014
0000b0 1f b5 fd 3d 2d dd 82 bd 81 b4 a2 3d 5f 19 0d 3d
       0.12388062 -0.06389842 0.07944585 0.034448024
0000c0 0e 3d 6b bd 89 fa 60 3d 2e 1d 9b bd dc 59 ca bd
       -0.057431273 0.05492643 -0.07573925 -0.098804206
0000d0 80 67 10 be da c4 75 3b 75 88 c0 3d 84 e1 ec bd
       -0.14101982 0.0037501366 0.09401027 -0.11566451
0000e0 cc 08 25 3d 75 f6 47 bd 47 d0 8a 3c f8 03 dc bd
       0.040291592 -0.048819024 0.016945018 -0.107429445
0000f0 09 08 59 bd 03 cd 5f bd fe c5 b0 3d 4e 39 f5 bc
       -0.05298618 -0.054638874 0.08631514 -0.029934552
000100 2f 77 cb 3d ef 81 9f 3c be 64 1a bb 49 c2 57 3d
       0.09934842 0.019471137 -0.0023558582 0.05267552
000110 cf 0f 3f 3c 90 ef 92 3c 71 e5 cb bd a8 ab 6f 3d
       0.011661484 0.017936498 -0.09955872 0.058513314
000120 71 c6 8f 3c e7 57 fa 3d 2d bd a9 3d a7 04 b4 3d
       0.017550679 0.12223797 0.082880355 0.0878995
000130 0f 22 ca bd 4b 65 2e bd 15 d9 0b 3d 83 94 57 bc
       -0.098697774 -0.04257707 0.034142572 -0.013157967
000140 c9 7f 06 bd d2 0b 5f bc c5 3f bc 3d a6 10 ed bc
       -0.03283671 -0.013613658 0.091918506 -0.028938603
000150 f6 29 44 bd de e5 c7 bd 8b 40 cc 3d 2e a9 16 3d
       -0.04789158 -0.097606406 0.09973248 0.036782436
000160 2c 75 fe bd 7f 8c 60 bb 52 49 59 bc 86 02 94 3d
       -0.124246925 -0.003426343 -0.01326211 0.07227044
000170 02 58 c2 bc 30 58 b4 bd 7a d1 58 bd e4 93 25 bd
       -0.023723606 -0.08805883 -0.052934147 -0.040424243
000180 db 92 35 3d e9 3e 8d 3d 02 9e df bc e7 6d 01 be
       0.044329505 0.06896765 -0.027297024 -0.1263958
000190 dc 84 92 bd d3 b2 cc 3d 88 17 e9 3d 15 0c 6f 3d
       -0.07154247 0.099950455 0.11381441 0.05836113
0001a0 10 19 ce 3d 92 ee ac bd 8e 6c 3e bd f5 fb f7 bc
       0.10063374 -0.08443941 -0.046490245 -0.03027151
0001b0 0b f1 f0 bb 23 f4 3b bb 84 5b 0a 3c af 76 6b 3c
       -0.0073529533 -0.0028679452 0.008444671 0.014371558
0001c0 f6 19 97 3d af 85 ea 3d 2d 7b fe 3c 5e db e3 3b
       0.073779985 0.11451279 0.031064594 0.006953641
0001d0 40 f2 81 3d 3a 5c 15 bd 82 38 4a 3d 32 00 0a be
       0.06345034 -0.036464907 0.049370296 -0.13476637
0001e0 96 27 32 3b 34 56 27 bc d2 20 4d bd 06 e5 ce 3c
       0.002718424 -0.0102134235 -0.050080128 0.025255691
0001f0 19 0a 73 ba 14 f9 d3 bc 0e 45 19 3e 43 fa c3 bd
       -0.0009271219 -0.025875606 0.14967749 -0.09569218

convs.1.lin_r.weight f4 [128, 64]
000000 45 aa b6 bd 13 f6 55 bc f8 dc ad 3d 70 c9 dc bd
       -0.08919195 -0.013059157 0.08489412 -0.10780609
000010 31 c7 42 bd af 9d 05 3e a8 3f 4b bd 94 9d b5 bd
       -0.047553245 0.13048433 -0.049621254 -0.08867946
000020 13 94 14 3d 6a f5 f2 bc 49 f3 03 bd 13 3c 0e be
       0.036274027 -0.029658038 -0.032214437 -0.13890104
000030 53 22 8e 3c d6 37 7a 3d 30 74 d4 3b 6a f9 1d bd
       0.017350351 0.061088406 0.006483577 -0.038567938
000040 e4 fb 6c bd 3b f9 7e bd 26 48 71 bc c3 04 22 bd
       -0.05785741 -0.062249403 -0.014726674 -0.039555322
000050 48 ca c8 bd c2 37 e8 bc 7f 5c ed bd 38 59 5d bd
       -0.09804207 -0.0283469 -0.11589908 -0.054040164
000060 51 c4 37 39 bf 28 da 3c b0 a1 e8 bc 61 ae af bc
       0.00017525374 0.026630757 -0.028397411 -0.021445455
000070 77 6e 88 3d 06 62 8a 3d a3 b8 19 3c e3 c6 90 3c
       0.066616945 0.06756978 0.0093824 0.017672962
000080 fb 17 86 bd 79 13 93 bd 3f c1 b3 bd 32 20 15 bd
       -0.06547543 -0.071814485 -0.08777093 -0.036407657
000090 eb 74 ab bd af ac fa bc 3f e4 e6 3d 32 24 c7 bc
       -0.0837191 -0.03059992 0.11274003 -0.024309251
0000a0 07 e0 ea bd 6f cd b1 bb 1e 94 89 3d c2 65 0a 3d
       -0.11468511 -0.005426101 0.06717704 0.03378845
0000b0 2d 23 a0 bd 5e 3f eb bd 30 62 54 3d ec 72 99 bd
       -0.07819209 -0.11486696 0.05185145 -0.07492623
0000c0 ef fa 21 3d fe 78 b8 3d 56 43 0e 3d 80 09 b3 bc
       0.03954595 0.090074524 0.034732185 -0.021855116
0000d0 06 ea eb 3d 76 b6 85 bd a1 0d ba bd 88 2b af 3d
       0.11519246 -0.06528942 -0.09084631 0.08553225
0000e0 32 ac 52 3d 9f 4c 51 3d de c0 5d 3d 59 8f 16 3d
       0.05143375 0.051098462 0.05413901 0.0367578
0000f0 36 c4 3a bc 60 1d 06 bd 38 ae a6 bd e9 62 99 3d
       -0.011399319 -0.032742858 -0.08138698 0.07489569
000100 a1 95 20 3c 87 a1 c5 3d a1 44 33 3d 53 5c 28 bd
       0.009801299 0.096499495 0.04376662 -0.041103672
000110 99 e6 c6 3d fd 9a f6 3c 33 4e b9 3d 6a fa 93 ba
       0.09711952 0.030103201 0.090481184 -0.0011289839
000120 24 f9 8c bd 53 c3 1b bc 1f 1d f9 3c 97 78 b1 bc
       -0.06883457 -0.009507018 0.030409394 -0.021663947
000130 7f 77 0e 3e f7 2a 74 3d 8f a5 8c 3d 25 fa df bc
       0.13912772 0.059611287 0.06867515 -0.027340958
000140 6c 05 15 3e 9b ea 77 bd 29 c1 aa bc 9e e4 f0 bc
       0.1455285 -0.06052647 -0.020844059 -0.029405888
000150 97 ef 9d 3d 77 43 7f bd 4f 5c 12 bd fd 3d b4 3d
       0.07711714 -0.0623202 -0.035732564 0.08800886
000160 4f c5 40 3d d0 49 00 3d fd e2 31 3d 2a a5 e9 3d
       0.04706317 0.031320393 0.043429364 0.11408456
000170 eb 56 91 3c 15 bf cd 3d cd 10 d1 3d 93 c9 e0 3d
       0.017741641 0.10046212 0.102082826 0.10975947
000180 20 c1 05 3c c4 6c 91 3d 0e dd b0 bd 8c 27 14 3d
       0.00816372 0.071008235 -0.08635913 0.036170527
000190 11 86 8a bd c0 16 50 bd 56 3b 2d bc fd 7b 41 3d
       -0.067638524 -0.050802946 -0.010573229 0.047237385
0001a0 bd 22 42 3c fb e7 70 bd 1b aa 3e 3d 65 1c 8b 3c
       0.011849103 -0.058814984 0.046548944 0.016981313
0001b0 61 fd 02 3e 53 33 71 3d 7e 87 e4 bb 92 8f 0b 3e
       0.12791969 0.058886837 -0.0069741597 0.13628986
0001c0 55 84 12 bc 4a e5 94 38 d0 67 8c bd bc dc 45 bd
       -0.008942683 7.099898e-05 -0.06855738 -0.04830621
0001d0 ac 0e a6 bd 33 de da bd 27 70 d8 bd 54 ff 8e bd
       -0.08108267 -0.106869124 -0.10568266 -0.06982294
0001e0 d2 7c 7f bd 9e e2 1c 3d d8 7e 46 3d d8 7a a8 bd
       -0.062374897 0.038302056 0.04846081 -0.082265556
0001f0 a8 e4 04 3a eb 27 62 bd e4 36 08 3d 86 2d cc 3b
       0.0005069473 -0.05521385 0.033255473 0.0062310128
000200 66 03 8c bd 3a f4 12 3e c0 1e 73 3d e0 08 06 3d
       -0.06836586 0.14350978 0.059355497 0.032723308
000210 ba 0f 69 bc 56 88 e9 3d 41 87 d3 3b e1 9f 8b bd
       -0.014224941 0.11402957 0.0064553325 -0.06817604
000220 82 d3 52 3d b2 3f d1 bd 36 9e ca bd f8 b8 e5 bd
       0.05147124 -0.10217227 -0.098934576 -0.112169206
000230 71 74 c1 3d b8 9c af 3d 2d 9c 35 3d 9a 9d 8e bd
       0.094460376 0.085748136 0.044338394 -0.06963654
000240 21 47 a5 3d 8d 2a 83 bc 0d 9e 4c 3d 54 23 db bc
       0.080702074 -0.0160115 0.049955416 -0.026750244
000250 74 28 c9 3a 53 8d ce bc f5 79 9f 3a f5 0c 3c 3d
       0.0015347139 -0.025213873 0.0012167083 0.045910794
000260 3b e5 fa 3d dc ac 8b 3c 18 c4 26 bd 0d 37 97 bd
       0.122507535 0.0170502 -0.040714353 -0.07383547
000270 a0 a4 a0 bd d4 bf cc bd 79 c9 ca 3d 99 f4 c5 bb
       -0.078439 -0.09997526 0.09901709 -0.006041121
000280 b5 c4 b2 3d a4 c5 80 3c 62 f5 73 3d 42 a9 19 3d
       0.08728925 0.015719242 0.059560187 0.037514932
000290 86 25 33 3d 5a 7f cc 3d d0 81 80 bd ee 2d ea bc
       0.043736957 0.09985228 -0.0627476 -0.028586354
0002a0 38 60 82 3d 78 6e 28 3e 27 af 86 3d c0 c9 0c be
       0.063660085 0.1644839 0.065763764 -0.13748837
0002b0 e7 13 8e bc ec 2a 18 bd 11 69 a3 bd ee 6b 4a bb
       -0.017343475 -0.03715031 -0.07979024 -0.0030887085
0002c0 57 97 d6 3c d8 9e d4 bd 9b a3 50 3c be 39 82 bd
       0.026195211 -0.103818595 0.012734319 -0.0635867
0002d0 94 e2 c0 bd e4 7f 3b bd bc b2 71 3d e4 68 da bc
       -0.09418216 -0.045776263 0.059008345 -0.026661344
0002e0 d2 6d 2f 3d 07 6f fe b9 73 7a 05 3e 39 27 09 3e
       0.042829342 -0.00048529377 0.13034992 0.13393869
0002f0 6b 0c d9 ba c6 33 ea bc 9d c0 45 3c d4 b7 90 3d
       -0.0016559487 -0.02858914 0.012069848 0.070663124
000300 77 dc 7b bb c0 4e 4b bc 21 9f 00 be cb ff bc 3d
       -0.0038430968 -0.012408912 -0.12560703 0.09228476
000310 4b 13 5e bc 26 4e 9e bc 56 53 c0 bd 63 33 a9 bd
       -0.0135544045 -0.019324373 -0.09390895 -0.08261754
000320 d5 90 6f bd 97 ff 42 3d e7 79 8c bc df b2 a9 bd
       -0.058487732 0.04760703 -0.017147971 -0.0828607
000330 df 0e bf 3d c9 80 c8 3d ca 33 bd bd fd 4a d0 3d
       0.09329008 0.09790189 -0.092383936 0.10170553
000340 2f 91 dc bd ac 00 7b 3d 28 dc 8d bd 71 be 9f 3d
       -0.10769879 0.061279938 -0.06926757 0.07799996
000350 95 b5 b8 3c 52 74 3c 3d 42 35 84 3c e0 32 b8 3d
       0.022547523 0.04600937 0.016138677 0.08994079
000360 f1 5a 9b 3d de 69 0a 3d d2 b0 e7 bd 68 36 79 bd
       0.07585705 0.03379237 -0.11313023 -0.0608429
000370 a3 1c 85 bd 7f 00 85 bd 37 ee f6 bd 50 03 3e bd
       -0.06499603 -0.06494235 -0.120571546 -0.046389878
000380 de 6f db 3d ec 15 d5 bd 19 63 04 be 7f ed ce bd
       0.10714696 -0.10404572 -0.12928428 -0.101038925
000390 52 d1 de bc f9 ea b4 bd a1 b9 b5 3c 06 52 4e bd
       -0.027199421 -0.0883388 0.022183241 -0.050371192
0003a0 f0 15 e8 bd 58 03 ff 3c bd 5b 22 3d 69 74 88 bc
       -0.11332309 0.031129524 0.03963827 -0.016657071
0003b0 e1 cb 84 bb 13 2a a7 bd c5 46 b4 bd 51 d3 3f bc
       -0.0040526246 -0.08162322 -0.08802561 -0.011708097
0003c0 4c 86 03 be a2 6e 35 bd fe df 03 bc 03 b7 fe 3d
       -0.12844199 -0.04429496 -0.008049009 0.124372505
0003d0 0a 2f d1 3b 86 d8 e1 bd fd a6 d3 bd d4 92 86 3d
       0.0063837813 -0.11027627 -0.10334585 0.06570974
0003e0 d7 0b ef bd 5a 39 fe ba 9e af 53 bd c5 4d 9c 3d
       -0.1167218 -0.0019395754 -0.051681153 0.07632021
0003f0 d7 85 70 3c 42 17 fb bd d6 ee 2d bd c0 72 fc 3d
       0.014680347 -0.122602955 -0.0424641 0.12326574

bns.0.weight f4 [64]
000000 e1 9f 7b 3f ca 83 7c 3f 16 e6 74 3f 51 f0 7a 3f
       0.9829083 0.98638594 0.95663583 0.98022944
000010 a8 7a 75 3f b5 2d 7b 3f 2d 5d 81 3f 5a 09 7e 3f
       0.95890284 0.9811662 1.010656 0.9923302
000020 81 2e 70 3f b8 68 7b 3f 9d f6 75 3f b7 13 77 3f
       0.9382096 0.98206663 0.96079427 0.9651446
000030 78 bb 86 3f ee c4 7d 3f 69 41 6c 3f d6 1a 78 3f
       1.0525961 0.99128616 0.9228731 0.9691595
000040 ef e2 82 3f 4e f2 7b 3f ce 95 7f 3f a1 41 66 3f
       1.0225505 0.984166 0.9983796 0.8994389
000050 6a 3f 84 3f 98 f5 75 3f c3 5d 80 3f 82 7a 7a 3f
       1.0331852 0.9607787 1.0028614 0.9784318
000060 22 4a 7b 3f 19 74 7b 3f 04 60 70 3f fc 25 76 3f
       0.9815999 0.98224026 0.9389651 0.9615171
000070 20 5a 7f 3f e3 ea 80 3f 84 a8 80 3f 3b 02 81 3f
       0.99746895 1.0071682 1.0051427 1.0078806
000080 28 13 75 3f 39 cd 77 3f 29 e1 7f 3f c1 82 78 3f
       0.95732355 0.9679752 0.9995294 0.97074515
000090 be 2b 7d 3f 54 49 75 3f 44 41 61 3f 0e 08 81 3f
       0.9889487 0.95815015 0.8799021 1.0080583
0000a0 9a 74 75 3f f0 6a 82 3f 67 f7 78 3f 86 6b 82 3f
       0.95881045 1.0188885 0.97252506 1.0189064
0000b0 1c 18 78 3f 49 68 79 3f 75 dc 7a 3f b2 ee 85 3f
       0.9691179 0.9742475 0.9799264 1.0463469
0000c0 9d ab 88 3f 3d 50 75 3f 91 42 68 3f 54 4c 74 3f
       1.0677372 0.9582556 0.9072657 0.9542897
0000d0 cd 88 73 3f a0 0c 82 3f 2f 13 78 3f 76 d0 7e 3f
       0.95130616 1.0160103 0.9690427 0.99536836
0000e0 8e 50 6e 3f c8 47 83 3f 40 b6 81 3f 2d 9b 80 3f
       0.93091667 1.0256281 1.0133743 1.0047356
0000f0 da 92 81 3f 1e 36 78 3f e9 85 7a 3f 18 24 72 3f
       1.012294 0.96957576 0.9786058 0.94586325

bns.0.bias f4 [64]
000000 42 db 63 3c e0 41 db b9 2e 42 c7 bc b4 69 ff 3b
       0.013907256 -0.00041820016 -0.02432355 0.007794583
000010 77 3e 12 bd 2c c0 c9 bc 34 73 84 3c b1 15 aa 3b
       -0.035704102 -0.024627768 0.016168214 0.005190574
000020 5e af 31 bd 5f 7e 0b ba d8 d9 27 bd 7f aa 34 bd
       -0.043380134 -0.000532126 -0.040979236 -0.04410791
000030 02 7c e8 3c 1f 5d 01 bb 04 f0 87 bd e2 9d 7d bc
       0.028379444 -0.0019739342 -0.06637576 -0.015479537
000040 37 be 7a 3a 51 4c d5 bc 32 1b 93 3c 4a be 99 bd
       0.00095650874 -0.026037367 0.017957304 -0.07506998
000050 16 be 0c 3d fb 20 8b bc 6e 4b 84 bb 9f ce 26 bd
       0.034360968 -0.0169835 -0.004037312 -0.040724393
000060 9b 9b b8 bc eb 28 b1 bc 6b a5 66 bd 41 de 1f bd
       -0.022535136 -0.021625957 -0.0563101 -0.039030317
000070 9a 0e ef ba 12 aa d4 3b 35 f6 81 3c 8d db 31 bc
       -0.0018238605 0.0064900005 0.015864471 -0.010855568
000080 d7 9a 00 bd c2 26 1a bd 68 b4 5b 3c ab 74 d3 bc
       -0.031397667 -0.03763462 0.013409711 -0.025812468
000090 c8 fd ae bc 00 7b 15 bd 1b d7 f4 bd b6 79 f9 3b
       -0.021361247 -0.036494255 -0.119550906 0.007613386
0000a0 34 9a 96 bc 3b 60 6a 3c e8 ee 2d bc 6a 61 12 3c
       -0.018384077 0.01430517 -0.010616042 0.008934358
0000b0 c0 80 e6 bc d3 b4 6f bb 4c 71 83 bc 3b 30 13 3d
       -0.028137565 -0.0036576285 -0.016045235 0.035934668
0000c0 1a 68 4e 3d 98 c6 22 bd 7c 91 8e bd 7c b3 71 bd
       0.050392248 -0.039740175 -0.06961343 -0.05900906
0000d0 29 7a 4f bd 69 8d af 3c 85 16 27 bd 38 95 71 3b
       -0.05065361 0.021429734 -0.04079296 0.0036862623
0000e0 e1 a6 8f bd 19 02 96 3b 57 d3 09 3d 98 a5 1b 3c
       -0.070142515 0.004577887 0.033648815 0.00949993
0000f0 16 71 e7 3c 8b 97 bb bc 54 d4 70 bc e9 d1 13 bd
       0.028252166 -0.02289941 -0.0146990605 -0.036088858

bns.0.running_mean f4 [64]
000000 e2 a8 ab 3d 05 f9 a4 bd 7f 3a 81 3d b8 4c 3b 39
       0.08381821 -0.08055309 0.06309985 0.0001786229
000010 f8 7f 0d 3b 6a 55 a0 bd 2c 6f d3 bc f2 43 00 39
       0.0021591168 -0.078287914 -0.025809847 0.00012232343
000020 5d e9 ea 3d 8e a6 a5 3d 37 23 1d bc 82 2c 8d 3b
       0.11470292 0.080884084 -0.009590915 0.0043082843
000030 21 71 5c 3e 26 70 03 bc f2 13 0d 3d 6d 95 91 3c
       0.2152753 -0.008022344 0.03444285 0.017771447
000040 91 da 5b 3c 47 68 c7 3d e1 87 70 3d dd 3d 4d bd
       0.0134188095 0.09736686 0.058723334 -0.050107826
000050 ad d9 35 bd b3 e3 7c 3d f8 c7 13 bd 55 d9 9d 3b
       -0.044397045 0.06174059 -0.036079377 0.0048171678
000060 c5 97 4a 3d 19 3c 6c 3b 5f a6 5d be 0f 4d 0a 3d
       0.049461145 0.0036046563 -0.21645497 0.033764895
000070 88 55 11 bd 29 2c 76 bd 27 e1 ca 3d 4d a0 7d 3d
       -0.03548196 -0.06010071 0.09906226 0.061920453
000080 6a 64 2f bc a0 4e 6e 3c e7 16 dd 3d 11 c2 8e bd
       -0.010705093 0.014545113 0.10795384 -0.06970609
000090 e1 a6 aa 3d ea 55 b9 bd 8d 40 93 bd 63 15 08 3d
       0.08332611 -0.0904959 -0.071900465 0.03322352
0000a0 e4 fd 11 3d 77 74 0a bd 69 be 6d bd f9 38 66 3d
       0.03564252 -0.033802476 -0.058042917 0.056206677
0000b0 9a 5f f4 bc cf aa 2c bc 72 39 dd 3c 61 bb f4 3d
       -0.029830743 -0.010538771 0.027004931 0.11949802
0000c0 8f a2 0d 3d c5 40 05 3e 8b f6 e0 3c 4e f7 0f bd
       0.034578856 0.13012989 0.02746131 -0.035147958
0000d0 ea 24 84 bd 74 d3 2c bd c8 a2 3c bd 07 4a cf 3d
       -0.06452353 -0.042193845 -0.046053678 0.101215415
0000e0 2a 87 0c be 61 a3 62 bc 94 b1 60 3d e5 99 e9 bd
       -0.13723436 -0.013832898 0.05485685 -0.11406306
0000f0 44 0a 48 3d f5 36 48 3d 00 13 b3 bc 31 17 c0 bd
       0.048837915 0.048880536 -0.021859646 -0.093794234

bns.0.running_var f4 [64]
000000 9b bd 29 3c f1 07 45 3c b8 f1 0f 3c 8b bf 2e 3c
       0.010360147 0.012025819 0.008785658 0.010665785
000010 e3 96 fd 3b c2 58 50 3c 40 a8 0f 3c d1 5f 3d 3c
       0.0077389344 0.012716474 0.008768141 0.011558489
000020 b4 ac 47 3c 67 de 17 3c 7b e9 2b 3c 08 43 33 3c
       0.012187172 0.009269333 0.010492678 0.010941274
000030 aa a9 4f 3c 46 e5 45 3c 97 ae 13 3c d7 c0 01 3c
       0.012674728 0.012078589 0.009013793 0.007919512
000040 bf b9 8c 3c 58 49 22 3c 4e c3 1d 3c f3 4b 2e 3c
       0.017178414 0.009905182 0.009629084 0.010638225
000050 8e c4 32 3c 40 4f 34 3c ad 11 1f 3c fe 09 1d 3c
       0.01091112 0.011005223 0.009708804 0.009584902
000060 a5 ea 3c 3c 97 df 2e 3c e0 4b e9 3b a4 4d 43 3c
       0.011530553 0.010673425 0.0071196407 0.011920366
000070 10 23 d3 3b c0 77 5d 3c 9a 98 0b 3c d4 c5 14 3c
       0.0064433888 0.01351732 0.00852027 0.009080369
000080 35 79 17 3c e3 4d 2b 3c 13 95 35 3c 9f 1d f7 3b
       0.009245207 0.010455581 0.011082905 0.007541373
000090 85 20 14 3c 28 72 4f 3c e4 a3 6d 3c 51 f6 5f 3c
       0.009040956 0.012661494 0.014504407 0.013669566
0000a0 8f 91 24 3c b0 da 53 3c 43 84 36 3c 11 27 10 3c
       0.0100444695 0.012930557 0.011139932 0.008798377
0000b0 8d 18 fa 3b 3b 5e e8 3b e6 3b 44 3c 26 fb 0d 3c
       0.007632321 0.0070913113 0.0119771715 0.0086658355
0000c0 e9 a1 a0 3c 6b 52 ed 3b 0c 8b 28 3c ed cf 23 3c
       0.019608455 0.007242491 0.010287058 0.009998304
0000d0 e2 dd 13 3c fa c3 52 3c 3d c2 0b 3c 8c 99 38 3c
       0.009025069 0.012864107 0.008530197 0.011267077
0000e0 8d 8b 5c 3c 57 48 1d 3c 36 ff 04 3c 36 e7 13 3c
       0.013461006 0.009599767 0.008117488 0.009027293
0000f0 09 ca 27 3c cb 98 18 3c 0e f9 04 3c 0e 40 01 3c
       0.01024104 0.009313772 0.00811602 0.007888807

bns.1.weight f4 [128]
000000 85 64 8b 3e af 9d 88 3e bd ab 87 3e 05 57 7e 3e
       0.27225128 0.26682803 0.26498213 0.24837883
000010 d1 f6 7a 3e 04 a4 7e 3e bc 4d 86 3e 29 f4 82 3e
       0.24508215 0.24867254 0.26231182 0.25576904
000020 d9 53 81 3e 40 b3 8c 3e 39 32 84 3e 06 4a 89 3e
       0.25259283 0.27480507 0.25819567 0.26814288
000030 10 1f 79 3e 42 78 88 3e 93 1e 8f 3e eb 59 85 3e
       0.24328256 0.2665425 0.27953014 0.26045164
000040 ed 08 8c 3e c1 eb 7d 3e 05 cb 7c 3e 64 09 79 3e
       0.2735056 0.24796964 0.24686821 0.24319988
000050 7b 51 83 3e fa 15 87 3e 42 52 88 3e 4b d3 85 3e
       0.25648102 0.26383954 0.26625258 0.26137766
000060 c3 9e 8e 3e b6 94 81 3e 79 c9 83 3e 5c 9c 71 3e
       0.278555 0.2530877 0.2573965 0.23594803
000070 44 c3 86 3e e5 9d 82 3e f9 96 8a 3e 2d 6a 83 3e
       0.2632085 0.2551109 0.27068308 0.25666943
000080 e9 b1 80 3e 4d 25 84 3e f7 9e 88 3e af 31 88 3e
       0.25135735 0.25809708 0.2668378 0.26600406
000090 e8 ad 85 3e 3d ff 8c 3e d4 7b 7f 3e 62 27 96 3e
       0.26109242 0.2753848 0.2494958 0.29326922
0000a0 bc 74 82 3e b4 9a 8c 3e 17 d2 89 3e 38 67 8a 3e
       0.25479686 0.2746178 0.26918098 0.27031875
0000b0 ed 9f 8f 3e 68 ac 88 3e 11 c5 83 3e ec 75 8b 3e
       0.280517 0.26694036 0.25736287 0.27238405
0000c0 23 5d 82 3e f1 7f 87 3e 57 ab 85 3e c5 c9 91 3e
       0.25461683 0.264648 0.26107284 0.2847425
0000d0 db f9 71 3e 8c 7d 85 3e 2c 52 8e 3e 9f 33 74 3e
       0.23630469 0.26072347 0.27797067 0.23847817
0000e0 d0 3b 7f 3e ec 07 89 3e 46 38 81 3e fb 6c 83 3e
       0.2492516 0.26763856 0.25238246 0.25669083
0000f0 39 32 77 3e 19 6e 7d 3e dc 7a 88 3e 28 aa 8d 3e
       0.24140252 0.2474903 0.26656234 0.2766888
000100 d4 3d 83 3e e1 64 92 3e 66 72 86 3e 97 9d 85 3e
       0.2563311 0.2859259 0.26259154 0.26096794
000110 dd 8f 7a 3e c6 53 8b 3e 25 51 86 3e 6d 8c 89 3e
       0.24468942 0.27212352 0.26233783 0.2686495
000120 ab 0e 84 3e 7a ce 91 3e 30 88 87 3e 82 28 88 3e
       0.2579244 0.28477842 0.2647109 0.26593405
000130 81 57 88 3e 0e 51 82 3e ea 51 82 3e ce d2 87 3e
       0.2662926 0.25452465 0.2545312 0.2652802
000140 29 3c 7e 3e d3 97 89 3e 2d a0 89 3e 24 51 80 3e
       0.24827637 0.26873645 0.26880017 0.25061905
000150 d9 96 85 3e 8b 06 86 3e d8 21 81 3e 7d f7 82 3e
       0.2609165 0.26176867 0.25221133 0.25579444
000160 8f 0f 7e 3e 43 83 7f 3e 1d f8 88 3e 0a 4b 88 3e
       0.24810623 0.24952416 0.26751795 0.2661975
000170 e7 d0 88 3e ec c7 87 3e 07 b2 85 3e f1 0b 7e 3e
       0.2672188 0.26519716 0.26112387 0.24809243
000180 6a 0b 80 3e 34 6d 86 3e 51 b1 8d 3e d6 ee 85 3e
       0.25008708 0.2625519 0.27674344 0.2615878
000190 d3 a5 84 3e 28 f3 80 3e 41 b6 87 3e f4 ea 8d 3e
       0.25907764 0.25185513 0.26506236 0.27718318
0001a0 26 ba 90 3e 3a 18 70 3e 03 40 83 3e 21 5d 87 3e
       0.2826702 0.23446742 0.25634775 0.2643824
0001b0 50 a6 80 3e e4 75 7d 3e ed 78 7d 3e 7d f0 8a 3e
       0.25126886 0.24752003 0.24753161 0.27136603
0001c0 eb 3c 87 3e 78 e5 8c 3e 75 43 89 3e ca 8f 92 3e
       0.26413664 0.2751882 0.26809278 0.28625327
0001d0 01 8a 8b 3e 48 d4 86 3e 19 a1 84 3e 30 7a 7f 3e
       0.27253726 0.26333833 0.25904158 0.24948955
0001e0 49 d8 86 3e 5a e9 81 3e c9 c5 87 3e 63 60 86 3e
       0.26336887 0.25373346 0.26518086 0.26245412
0001f0 90 68 84 3e b6 73 88 3e aa 83 79 3e 48 66 7d 3e
       0.25861025 0.2665078 0.24366632 0.24746048

bns.1.bias f4 [128]
000000 fc 6b ed 3a 45 e4 88 3b 08 01 44 3c c5 06 3f 3a
       0.0018113847 0.0041776025 0.0119631365 0.00072870805
000010 f8 16 46 bb 2b 0b ff ba 59 e5 96 bb 9e 96 96 b9
       -0.0030226093 -0.0019458284 -0.004604977 -0.00028722448
000020 42 82 0f 3a 93 73 75 3c ee cc af bb 1d c0 ed bb
       0.0005474427 0.014981168 -0.0053650057 -0.0072555677
000030 af fe 6b 39 be 60 1c 3c 93 5e b1 ba 74 39 0a bb
       0.00022506223 0.0095445495 -0.0013532214 -0.0021091374
000040 96 02 6a 3c 5e 6e 04 bb 86 fb ae bb c8 7e c5 bb
       0.014282843 -0.0020207386 -0.0053400425 -0.0060270764
000050 ca 35 41 bb e2 9c f3 bb 11 b5 b4 ba 82 99 d4 bb
       -0.0029481524 -0.0074344734 -0.0013786872 -0.006488026
000060 b0 b9 3a 3c 18 ee 22 bb d8 b7 26 bb b3 f4 b3 38
       0.01139681 -0.0024861153 -0.002543917 8.580964e-05
000070 53 6f c6 bb d7 4b c9 3b a5 c4 2a 3c db 61 9b 3b
       -0.0060557513 0.006143074 0.01042286 0.00474189
000080 fc 5c bd 3b ab 11 45 bb cc 7c 8f bb b6 d9 dd b9
       0.005778907 -0.0030070345 -0.0043788906 -0.00042314612
000090 38 5b 32 3b f5 6d 0d 3c 81 dc ce bb 6b 70 7c 3b
       0.0027215015 0.008632173 -0.006312907 0.0038519155
0000a0 e3 77 8c bb 89 e8 11 3c c7 3d 11 3c b6 c0 a9 bb
       -0.0042867525 0.008905538 0.0088648265 -0.0051804436
0000b0 09 c3 f7 3b ab 5f 72 bb e6 54 9f bb f4 ff bf 3b
       0.007561092 -0.0036983292 -0.0048624156 0.0058593694
0000c0 60 8a 42 3b e2 4b 55 3a 96 d5 50 3b e0 2c a2 bb
       0.0029684529 0.00081366126 0.0031865588 -0.004949197
0000d0 16 4c 0f bc 1e 35 16 bc 3d b1 1f bb ff f2 38 3a
       -0.008746168 -0.009167938 -0.0024367117 0.0007055252
0000e0 7a a5 e9 3a b0 3f ca bb 90 e7 88 3b 39 40 eb 3b
       0.0017825805 -0.006172143 0.004177995 0.007179287
0000f0 e7 a6 e8 39 44 c9 07 ba f6 35 23 3c 4e 27 4c bc
       0.0004437484 -0.0005179832 0.009961596 -0.012460543
000100 67 d8 e7 b8 a0 60 b7 bb 9d 59 d1 bb eb 6e b8 3b
       -0.000110552464 -0.0055962354 -0.0063888566 0.005628457
000110 c1 60 24 bb 2f 2c ac ba 6a b5 06 bc ce f5 9b bb
       -0.0025082084 -0.0013135726 -0.008221963 -0.004759527
000120 fc 63 0f 3c 50 0c 99 3a 54 13 4b 39 74 9f f7 bb
       0.0087518655 0.0011676643 0.00019366789 -0.00755685
000130 a4 50 0d 3c 84 7e ff ba 53 e8 43 3b 8f 3f cf 3b
       0.008625183 -0.0019492661 0.0029893115 0.0063247154
000140 83 5b 26 ba 9a b6 55 3b 44 a5 e8 3b 5b dc 97 bb
       -0.0006346034 0.003261006 0.0070997793 -0.0046344227
000150 9f bd 8e bb 80 f7 82 3b c8 87 05 3c 43 49 15 3b
       -0.0043561007 0.0039967895 0.008150049 0.0022779263
000160 61 14 12 3b a2 b1 a3 ba a9 8e d7 3a f6 aa c1 ba
       0.0022289979 -0.0012488852 0.0016445714 -0.0014775682
000170 84 c4 ed ba 87 37 ae bb b8 95 85 bb 7d ec 07 3b
       -0.0018140231 -0.005316678 -0.0040766858 0.0020740323
000180 81 f9 27 bb 6c f6 4d bb f3 8b 42 3a fd f3 9d bb
       -0.0025630894 -0.0031427396 0.0007421367 -0.0048203454
000190 4a 5e b4 bb 7b b8 23 3a 81 b7 3b 3b b4 45 28 bc
       -0.005504404 0.0006245446 0.0028643312 -0.010270525
0001a0 3a 0a 01 3c d1 63 e4 b9 3d 29 06 bb b7 18 3c bb
       0.007875973 -0.00043561918 -0.0020471357 -0.0028701255
0001b0 75 6a 82 3b 48 c2 e7 bb 6f ce 90 3b 2c 25 0e 3c
       0.003979976 -0.0070727207 0.00441914 0.008675855
0001c0 f0 65 9f 3b 15 28 cb bb f0 6a b2 b7 a3 ff b7 bb
       0.004864447 -0.0061998465 -2.126905e-05 -0.005615191
0001d0 3c 66 81 3b c6 de 86 ba cb 60 5f bb aa a8 f9 bb
       0.003948955 -0.001028978 -0.0034084793 -0.0076189833
0001e0 c8 f6 1d 3b 86 98 a2 36 90 57 17 ba 3b 0e a8 3b
       0.0024103392 4.8457323e-06 -0.00057732407 0.0051286495
0001f0 9a 31 e5 bb 95 9a 09 bc 48 7a fe ba 33 d5 80 bb
       -0.0069944384 -0.008398672 -0.0019415105 -0.0039316653
