output/oi/prev_e2v/run_010/prev_oi_best_model_e2v.pth (torch, 404149 bytes, 14 tensors)

convs.0.lin_l.weight f4 [256, 128]
000000 80 04 93 bd b8 03 cb bc df ab 8b 3d 24 15 92 bc
       -0.07178593 -0.024782047 0.06819891 -0.017832346
000010 fe 62 5c 3b 2e 0a 79 bd 73 e2 30 bd b7 56 9e 3d
       0.003362834 -0.060800724 -0.04318471 0.07731383
000020 bf 1d 70 bc 4d cf 0e bd 16 8c a0 bd 0a a2 80 3c
       -0.0146555295 -0.034865666 -0.07839219 0.015702266
000030 3b 41 2a bd 88 08 79 3d c5 3c 82 3d d5 3b c4 bc
       -0.041566115 0.06079915 0.06359247 -0.023954311
000040 98 37 be 3c 33 82 84 bd 73 8a 04 bd 75 29 96 bc
       0.023219869 -0.06470146 -0.032358598 -0.018330315
000050 15 b9 8d 3d 88 45 a1 3d 0e 68 af bd 02 22 ac 3d
       0.06920067 0.0787459 -0.08564769 0.08404924
000060 1f 5f 2a bb af b5 23 bd 26 9c 75 3d 59 63 3c 3d
       -0.0025996638 -0.03996819 0.059963368 0.045993183
000070 8a 70 26 3c 1e fa c7 3c 72 d3 47 bd 7b a5 74 3d
       0.010158667 0.024411257 -0.048785634 0.059728127
000080 b3 aa f0 3c dd 45 ea 3c 92 ad 9d 3d 7d e7 82 3d
       0.02937827 0.028597767 0.076991215 0.06391809
000090 ba 4d cf bc 76 dc 92 bd b1 d0 d9 3c f8 37 84 3d
       -0.025305618 -0.07170956 0.02658877 0.06455988
0000a0 5f 5d 31 3b 47 25 86 3d 0a 11 93 3d 94 67 ed 3c
       0.002706371 0.06550079 0.07180984 0.028980054
0000b0 46 3d 92 3c b9 f4 97 3c 83 74 a7 bd b2 44 42 bc
       0.017851483 0.01854931 -0.0817652 -0.011857199
0000c0 6d 2a a4 3d 20 a3 a2 bd e2 53 2c 3d 02 6c a9 3d
       0.080159046 -0.0794127 0.042072184 0.08272554
0000d0 a8 d3 83 3d a8 ab b2 3c b9 8d 80 bd 24 9f a9 3d
       0.064368546 0.021810368 -0.062770315 0.08282307
0000e0 eb 2d 9d 3d e7 e8 8e bd 9b 25 a4 3d 07 0c 47 3c
       0.07674774 -0.06978016 0.08014985 0.012148864
0000f0 3e 00 8d 3d 77 a3 51 3d 9f f7 88 3d be af 0c 3d
       0.06884812 0.051181283 0.06687855 0.03434729
000100 73 3d 0a bd 84 6f 6b 3c aa ec 98 3a ab 19 70 3d
       -0.03375001 0.014369849 0.0011667211 0.05861823
000110 26 36 9b 3d 15 9f 0d bd 10 2e db 3c 0d 9f 37 3d
       0.07578687 -0.03457554 0.026755363 0.044829417
000120 bc 26 90 ba 27 8c 89 bd 23 af 8a 3d ef 20 44 bd
       -0.0010997872 -0.06716185 0.06771686 -0.04788297
000130 15 f2 46 bd 4e 4d 4b bd 37 b5 3f bd c7 4b 96 3c
       -0.04857071 -0.04963427 -0.04680368 0.01834668
000140 37 2e 81 3a b2 59 6a bc 86 11 7c 3d 9e 07 48 bd
       0.0009855692 -0.014303612 0.06154015 -0.04883539
000150 b8 72 6f 3d c9 4b a8 3d 42 26 36 3d 34 a5 7d 3d
       0.058459014 0.0821758 0.04447008 0.061925128
000160 6e 1d f3 3c 5b cb 1f 3d d2 76 38 3c 8c 5d 85 3d
       0.02967712 0.039012294 0.011258798 0.06511983
000170 61 1f fe bc 2e 2a 86 3d 08 c6 16 3d dc 67 89 bd
       -0.031020822 0.06551014 0.03680995 -0.06709263
000180 28 14 56 bd 2b 3c ab bb 99 ad 9f 3d 33 8f bf 3c
       -0.052265316 -0.0052256784 0.07796783 0.023383712
000190 fb 83 00 bd c6 ec 11 bd 33 91 a8 bc 2e 33 5e 3d
       -0.031375866 -0.035626195 -0.020577049 0.054248028
0001a0 42 19 6a bd 8a 93 95 3d 1b a5 ae 3d f8 71 b2 bd
       -0.057152994 0.073035315 0.08527585 -0.08713144
0001b0 77 b4 c0 3c df 6e 39 3d 29 04 9c bc 03 46 a2 bd
       0.023523552 0.04527175 -0.019044952 -0.0792351
0001c0 35 b5 61 bd f2 42 3f 3d d7 41 ac 3c b0 ae da bc
       -0.055104453 0.046694703 0.021027489 -0.026694626
0001d0 02 47 4a 3d 96 70 22 bd 46 39 9e bd 23 ad 64 3d
       0.049384125 -0.03965815 -0.07725768 0.05582918
0001e0 2c b8 af bd 8f c4 8a 3d 12 6e af bd 48 33 57 3d
       -0.0858005 0.06775772 -0.08565916 0.05253914
0001f0 bc d1 df 3c 85 f1 0f 3d 1b f6 a0 3d e5 87 f7 bc
       0.027321689 0.03514244 0.07859441 -0.030216167
000200 8f 46 84 3d 1a b5 2a bd 8a f3 1e 3d c2 f2 86 bd
       0.064587705 -0.04167662 0.038806476 -0.06589271
000210 9a 94 89 3d 36 4f cc 3c 10 52 9b bd eb ac 90 3d
       0.067177966 0.024940114 -0.075840116 0.070642315
000220 de ee 94 bd 72 37 6d bd f7 8b f4 bb e4 8c 25 3d
       -0.07272123 -0.057914205 -0.007462974 0.040417567
000230 ba 6d 6f bd fa 1c 87 bd 74 bd 80 3d ef 5f 98 3d
       -0.058454253 -0.06597324 0.06286135 0.07440173
000240 ed ca 8a 3c d4 ef 19 3d fe 13 94 bd bd 47 28 3c
       0.016942466 0.037582234 -0.07230376 0.01027101
000250 b0 60 8e bd 61 e8 80 bc b9 18 8b bd 99 60 50 3d
       -0.069520354 -0.015735807 -0.06791825 0.050873373
000260 2b 23 4f 3c ab 45 b3 3c 71 ed 19 3d 07 a9 cf 3b
       0.012642662 0.021883806 0.037579957 0.0063372883
000270 46 00 c6 bc 01 d9 b0 bd a6 73 5d 3c 83 9c b4 3d
       -0.024170052 -0.0863514 0.013516342 0.08818915
000280 35 45 8f bc 4d 3e 3f bd 2b 6c 99 bd c5 42 95 bd
       -0.017489055 -0.046690274 -0.074913345 -0.07288126
000290 dd 72 92 3d 67 75 6e 3d db b2 35 3b 75 3a 79 3d
       0.07150815 0.058217432 0.0027725014 0.060846765
0002a0 86 38 80 3d 5a 95 8d 3d 7e 48 2a 37 fe 6b 29 3d
       0.06260781 0.06913252 1.0149668e-05 0.041362755
0002b0 9e c8 15 bd 8a fe 3f bc 3d a2 71 3d 2b dd 08 bd
       -0.036568277 -0.011718402 0.058992613 -0.033414047
0002c0 43 14 9b bd 7a 51 ba 3c f9 42 25 bd e0 66 11 bd
       -0.07572224 0.02274393 -0.040347073 -0.0354985
0002d0 62 6a 88 bd 60 a2 63 bc dd 2f 78 3a 54 e8 77 3c
       -0.06660916 -0.013893694 0.00094675814 0.015131075
0002e0 0b ed 1f bd 11 40 d4 3b cd eb 4b bd 55 f1 91 bd
       -0.03904442 0.006477364 -0.049785424 -0.071261086
0002f0 20 4a 8e bd 8b 3d 9b 3d 76 66 5e bd 07 fb 82 3d
       -0.06947732 0.07580098 -0.054296933 0.06395536
000300 58 7a 6b bc 50 be 3c 3d bd 82 83 bd 8b a4 e4 bc
       -0.014372431 0.046079934 -0.06421421 -0.027910491
000310 15 5f d0 3b 53 18 23 3d db 43 2f 3d 70 9f 69 3d
       0.006358991 0.03981812 0.04278932 0.057036817
000320 6f e3 35 3d 81 7f 8e bd 82 10 b4 3c 5c 6a 62 3d
       0.04440635 -0.06957913 0.021980528 0.055277213
000330 52 86 cd bc 70 8c 9a 3d 42 6f a1 bd 0b 89 fa bb
       -0.025088463 0.075463176 -0.07882549 -0.0076457313
000340 2d b5 35 bd 80 e5 19 3c c8 de 1c 3b 31 e1 36 bc
       -0.044362236 0.009393096 0.00239365 -0.011162088
000350 bc c9 6a bd 62 d2 09 3b 73 71 2b bd 36 31 2d 3d
       -0.057321295 0.002102994 -0.04185624 0.04228326
000360 1d ad 57 bd 2b cd 4b 3d d3 d0 9a bd e3 8e 8a bd
       -0.052655328 0.04975621 -0.07559361 -0.06765535
000370 82 b0 56 3c 87 c4 7b 3c c5 46 20 3c 05 60 47 3d
       0.013103606 0.01536668 0.009782498 0.048675556
000380 57 d4 80 3d 89 6c 43 bd b7 57 6f 3d ea fc 93 39
       0.062905006 -0.04771093 0.05843326 0.0002822646
000390 db 48 85 bd 43 27 0e bd f5 cf 9b 3d f1 f3 99 3d
       -0.06508037 -0.03470541 0.07608024 0.07517231
0003a0 24 aa 5d bd 5a f4 94 bd e2 70 46 3d 74 f1 95 bd
       -0.054117337 -0.07273169 0.048447497 -0.07321444
0003b0 ec 8a 57 bd f4 c4 13 bd 53 ec a2 bd 2b bd 64 bc
       -0.05262272 -0.0360765 -0.079552315 -0.013961117
0003c0 1d 39 b3 bd c5 e5 6f 3d e4 92 18 3d 42 00 b1 bd
       -0.08751128 0.058568735 0.03724946 -0.08642627
0003d0 2a 24 80 bd 48 0a d0 3c 81 18 8c 3d 92 8f 12 3d
       -0.06256898 0.025395527 0.06840611 0.03578145
0003e0 70 5e 6a bc e0 19 f9 3c 6f 4f 28 bd 8a c1 31 bd
       -0.014304742 0.030407846 -0.04109138 -0.043397464
0003f0 fa 81 06 bc c2 bb a4 bd 5c 64 90 3d 24 73 5b bd
       -0.0082097 -0.080436245 0.07050392 -0.053576604

convs.0.lin_l.bias f4 [256]
000000 12 0c a8 3d f0 27 69 bc 74 2b 30 3d 8f 8a e5 bc
       0.08205427 -0.014230713 0.04301019 -0.028020171
000010 f5 06 15 3d e3 3b a9 3d bf 27 64 3d b1 9d ac bd
       0.036383588 0.082633756 0.055701967 -0.08428515
000020 bb e8 8d bd 68 cd 2d bd 20 3a 9f bd d3 99 4b 3d
       -0.069291554 -0.04243222 -0.07774758 0.049707245
000030 81 5c 25 3b d9 20 85 bd aa d7 b4 bb 6a 0f 9f 3d
       0.0025232139 -0.06500406 -0.005518873 0.07766612
000040 07 1e 96 bc c8 46 98 bd ec 2c 32 3d db b8 30 3d
       -0.018324865 -0.074353755 0.043499872 0.043145042
000050 ec d2 74 3b aa d5 6a 3d d4 97 89 3d 5d 7c 90 bd
       0.0037357165 0.057332672 0.06718412 -0.070549704
000060 b1 e1 45 bc 5f 61 87 3c ac cd 9b 3c 95 a4 54 3d
       -0.012077735 0.016525922 0.01901897 0.05191477
000070 e2 d1 2f 3d 1f 20 90 3d 6c 03 72 3c 84 f3 67 3d
       0.04292477 0.070373766 0.014771324 0.05662872
000080 88 bf c1 bc 6a f0 2f 3c 4a c3 0a bd 96 65 86 3d
       -0.0236509 0.0107384715 -0.03387765 0.06562345
000090 9a 3d a3 3c 16 0a 9d bd cb 0c ac bd 4f 43 b2 bc
       0.019926835 -0.07667939 -0.084008776 -0.02176061
0000a0 4f 9e 65 bc 5a 32 13 b8 9e b7 09 3a fa cb 55 3d
       -0.0140147945 -3.5094425e-05 0.00052534963 0.05219648
0000b0 60 9d 1d bd 3d 9f a6 3c 5b 10 ee bb 95 58 1a 3d
       -0.038480163 0.020339603 -0.0072651333 0.037682135
0000c0 d2 1b 97 bc 3e 25 a5 bd 7e c0 55 3c 98 d8 e7 bc
       -0.018445883 -0.08063744 0.013046382 -0.028301522
0000d0 87 00 87 3d af 9b 6d bc 9c dc 07 3d ad 3c 1b bd
       0.065918975 -0.01450245 0.033169374 -0.03789966
0000e0 9e 8f 58 bc 28 02 80 3d 62 8a 23 3d 34 0a 0a 3d
       -0.013217835 0.06250411 0.039926894 0.033701137
0000f0 95 b8 37 bd ca b0 5e bd 9f 01 6e bd 8f 6e 25 bc
       -0.044853766 -0.054367818 -0.058107015 -0.01009716
000100 9f 98 b3 3d ac 86 5b 3c ab cb 57 3d 93 b6 04 bb
       0.087693445 0.0133988075 0.052684467 -0.0020250424
000110 10 84 9b bc 76 07 74 bc 7d c4 2f 3d 70 aa b4 3d
       -0.01898387 -0.014894357 0.042911995 0.08821571
000120 3e 64 01 bc 98 0f d6 bb a3 74 32 bd 93 a5 7d 3d
       -0.007897435 -0.0065326206 -0.043568265 0.061925482
000130 cf 20 1b 3d 5b 45 af bd 61 5a 15 bd 4a d0 19 bc
       0.037873086 -0.085581504 -0.036463145 -0.009388039
000140 5b c1 82 bc 9e 0c 29 bd 80 df b2 3d ae 50 99 3b
       -0.01596134 -0.0412718 0.087340355 0.004678807
000150 88 4e ce bc 04 73 84 3d 25 76 19 3d 39 b4 a3 bd
       -0.025183931 0.0646725 0.037466187 -0.07993359
000160 10 ad 3f bc 13 e7 01 3d 45 50 62 3d 0a 26 95 3c
       -0.011698976 0.03171451 0.055252332 0.018206615
000170 b3 34 47 bd ae 41 52 3c f2 37 12 3d 1d 47 54 3d
       -0.048634242 0.012833042 0.035697885 0.05182563
000180 33 02 2f 3d 58 5d 66 3d 4a 77 7b 3d 2f 55 3e 3d
       0.042726707 0.056241363 0.06139306 0.046467956
000190 3a 97 68 3d f2 9c 45 bc 7d ab b0 ba df 67 1c bd
       0.056784846 -0.012061344 -0.0013478842 -0.038184997
0001a0 ab 88 56 3d c0 b1 86 bd 1a 34 38 3c ca d9 a5 3d
       0.05237643 -0.06576872 0.011242891 0.080981806
0001b0 fe d8 84 bd 13 2d a3 bd da f0 75 3d b4 0c 07 3d
       -0.064867005 -0.079675816 0.060044147 0.0329711
0001c0 78 56 93 3d 3e 85 9c bc f9 64 ca bc ec 94 04 bd
       0.07194227 -0.019106504 -0.02470635 -0.032368585
0001d0 bb 3b 37 3d 06 7d 7b bd b0 0f 35 3d 76 ee 2d 3d
       0.044734698 -0.06139853 0.044204414 0.042463742
0001e0 aa 7d 34 3d 34 a6 a7 bd d7 01 12 bc 7c 4f a9 bd
       0.044065155 -0.081859976 -0.008911571 -0.082671136
0001f0 8a c2 f7 3b 91 87 12 bd 8d 77 87 bd 72 e8 bf bc
       0.0075610327 -0.035773817 -0.066145994 -0.023426268
000200 e4 d9 5c 3d d4 21 30 3c df c7 74 3d 74 e3 20 bd
       0.053918734 0.010750253 0.059760924 -0.039279416
000210 b9 81 1b bb e5 d6 11 bc 12 f5 16 3d b4 6b c0 3c
       -0.0023728444 -0.0089013325 0.03685481 0.023488857
000220 d8 f9 9e bd d1 c5 dc 3c fb bc a0 3d 7e e8 93 3d
       -0.07762498 0.026949795 0.07848545 0.07222079
000230 6c 40 2b 3c d6 f2 16 bd 7b 42 4e bd 0f e4 b0 3d
       0.010452371 -0.03685268 -0.05035637 0.08637249
000240 dd 67 3d 3a 00 19 66 bd 18 39 5d bc 0e 47 11 ba
       0.00072252547 -0.056176186 -0.013502382 -0.0005541899
000250 83 75 49 bb 81 ea e1 3c ef 7a 8c bc c2 35 14 3d
       -0.0030740208 0.02757764 -0.017148463 0.03618408
000260 7c 85 12 bd 16 f7 97 bc df 41 65 3d 88 55 de bc
       -0.035771832 -0.018550437 0.055971023 -0.027140394
000270 9a 7c 3b 3d ca b1 a9 bc 53 ed aa bd fd 89 9c 3c
       0.045773126 -0.02071466 -0.08346047 0.019108767
000280 37 21 79 bd 09 f7 90 bd 7a ae 34 bc 76 6b 81 3d
       -0.06082269 -0.07078368 -0.011027927 0.06319325
000290 30 d9 a7 bd b7 72 94 bd ff 74 5a 3d df b2 ca bc
       -0.08195722 -0.072484426 0.053334232 -0.024743496
0002a0 a2 1e 13 3d 84 9f 95 bd 51 4f 77 3c cb 88 c0 3b
       0.035917886 -0.07305816 0.015094594 0.005875682
0002b0 d2 03 9d 3c 75 8a 9e bd f5 b0 8f bd 3a 19 02 3d
       0.01916686 -0.07741252 -0.07016174 0.03176234
0002c0 04 27 57 bc d7 e4 23 3d 79 d0 cc bb 6d fe 46 3d
       -0.013131861 0.04001316 -0.006250438 0.048582483
0002d0 8c b6 9b bd f2 88 83 bd 60 89 21 bd 27 7a 8c bd
       -0.076031774 -0.064226046 -0.03943765 -0.06859236
0002e0 ff ab 58 3d 74 08 ee bc bb 78 54 3c 89 58 82 bd
       0.052898403 -0.029056765 0.0129682375 -0.06364543
0002f0 3b f6 0f bd 14 b4 9f bd 46 1b 90 bc d4 23 f2 bc
       -0.035146933 -0.07798019 -0.01759113 -0.0295581
000300 9d d8 5b 3d 7f 4c 16 3b cf e4 a6 bc 1d 11 94 bd
       0.053673375 0.0022933779 -0.020372776 -0.072298266
000310 a2 db 85 bd 78 f7 59 3c 13 c8 b4 bc 3b 11 a7 bd
       -0.06536032 0.01330363 -0.02206806 -0.08157583
000320 12 ab a2 bd 21 4e d1 3c b8 10 02 bd 0c b8 60 3d
       -0.07942785 0.02554995 -0.031754225 0.05486302
000330 71 0e 83 3d 70 96 93 bc 84 b3 91 bd 0d f5 aa 3d
       0.06399239 -0.01801607 -0.07114318 0.08347521
000340 a8 b3 6c bd 39 25 f1 bc 5a d7 d9 ba 92 a8 86 bd
       -0.05778852 -0.029436694 -0.0016619966 -0.06575121
000350 d0 7f 60 bd 36 f4 06 bd 45 3a 8c 3d 71 35 a8 bd
       -0.05480939 -0.03294774 0.068470515 -0.08213318
000360 f6 3e ca 3c 5a a9 22 3d b9 7a 85 3d d5 a7 38 bd
       0.024688225 0.039712287 0.06517548 -0.045081932
000370 a7 73 0b bd 60 0f b0 bd ce c1 30 39 64 20 c9 3c
       -0.03404584 -0.085966825 0.00016856866 0.024551578
000380 33 cc 37 3c 9b 94 fa bc 4f fc 04 bd f5 be 69 3d
       0.0112181185 -0.030588439 -0.032467183 0.057066876
000390 b4 00 86 3d 46 2f 8a 3d b5 3e 9a 3d d4 c3 f3 3c
       0.06543103 0.06747298 0.07531492 0.029756464
0003a0 8f 9f dc bc 4e 74 ca bc 31 f3 ad 3d e5 63 05 3d
       -0.026931552 -0.024713662 0.08493651 0.03256597
0003b0 5b 03 50 3a cd 87 86 3d 07 1b 2b bd 43 f7 3d 3d
       0.00079350703 0.06568871 -0.041773822 0.046378385
0003c0 7a 7d de bc fa af ed 3c 11 e1 94 bd f8 33 91 3d
       -0.027159441 0.029014576 -0.072694905 0.070899904
0003d0 f2 a8 af 3d 94 88 84 3d 3d 53 99 bd 79 35 9e 3d
       0.08577146 0.06471363 -0.074865796 0.07725043
0003e0 f5 3c 8a bc 27 92 4e 3d 0a 21 63 3c 33 59 aa bd
       -0.01687477 0.05043235 0.013862858 -0.08317795
0003f0 0f c4 90 bd 8e 33 93 3d 9e 3d 74 bc 84 f5 a1 bd
       -0.07068645 0.07187568 -0.014907269 -0.079081565

convs.0.lin_r.weight f4 [256, 128]
000000 87 ad fa bc a1 d3 89 3d 37 5b 20 3d 13 3d 99 bc
       -0.030600322 0.06729818 0.03914949 -0.01870588
000010 9b b2 a6 3c e7 ad 38 bd 23 47 6d bd ef c2 9a bd
       0.020348838 -0.04508772 -0.05792917 -0.07556712
000020 05 c8 e4 3c 66 7c a2 bc 4e fe ac bd d7 12 74 3d
       0.027927408 -0.019834708 -0.08446942 0.05958828
000030 67 9e 80 bd a6 f3 65 3d d9 bc b2 3d 66 ce 02 ba
       -0.06280213 0.056140564 0.08727426 -0.0004989862
000040 31 96 a2 3d c5 39 82 3d 66 a0 7a 3d c4 64 77 bd
       0.07938803 0.06358675 0.061188124 -0.060398832
000050 cc c6 1a 3d 16 fd 4e 3b 14 6c 57 3d 61 98 24 bc
       0.037787244 0.0031583956 0.052593306 -0.010046096
000060 65 0d 99 bd 99 65 62 3d 61 39 a9 bd 77 14 a3 bb
       -0.07473258 0.055272672 -0.08262897 -0.004976805
000070 79 45 30 3d 13 ab 20 3d 5f ff 93 bd 0c 31 8f 3d
       0.043035004 0.03922565 -0.072264425 0.06991777
000080 fb 73 b3 bd 15 a7 8d 3d 2b 3f 72 bd a6 3b a9 bd
       -0.08762356 0.06916634 -0.059142273 -0.0826333
000090 01 2b 74 bb b3 ac 64 bd 0f 64 36 3c 8a d5 d0 3c
       -0.0037257078 -0.05582876 0.011132254 0.025492448
0000a0 85 36 df 3c 99 c3 05 3d 2f dd 15 3d 52 e5 5a 3c
       0.027247677 0.03265724 0.03658789 0.013360338
0000b0 49 4c 83 3d 26 e5 12 39 cd d8 8a bd ba 73 42 3d
       0.064110346 0.0001400901 -0.06779633 0.047473647
0000c0 f8 52 e9 bb 43 ef 8a 3d e5 01 9c 3d d6 25 b5 3b
       -0.0071204863 0.06783917 0.07617549 0.005528192
0000d0 bc 97 f3 bb 03 84 94 bd 2f 09 4d bd db 34 8d 3c
       -0.0074338596 -0.07251742 -0.050057586 0.017237118
0000e0 5a da 68 bd 12 b8 c9 3b 2e 37 44 3d d8 5a 67 3d
       -0.05684886 0.006155976 0.047904186 0.05648312
0000f0 03 6d 93 3d b8 4c 44 bc 92 fc 4b 3d 94 73 5e 3d
       0.07198527 -0.011981182 0.049801417 0.054309443
000100 63 0b 38 3c 9b 38 62 3d e5 f1 9c 3d bc a7 72 3d
       0.011233184 0.055229764 0.07663325 0.059241995
000110 94 99 60 bb 03 62 12 3d e1 0c 42 3d d1 c3 92 3d
       -0.0034271227 0.035738003 0.047375564 0.07166255
000120 7e 02 93 3c fe 0c 93 bd aa e3 32 bd 4b 56 67 3d
       0.017945524 -0.071802124 -0.04367415 0.05647878
000130 f1 c3 46 bd e5 c8 6a bb fd af 94 3d a8 fd 42 bd
       -0.048526708 -0.003582531 0.072601296 -0.047605187
000140 20 d4 77 bd 33 35 13 bd 81 2a b3 bc 56 70 77 ba
       -0.060505033 -0.035939407 -0.021870853 -0.00094390416
000150 cc 0a 55 3d b7 38 4b bd df 85 7c bd 58 c4 9f bc
       0.05201225 -0.049614634 -0.061651107 -0.019502804
000160 08 61 ae bd 4e f9 6d bc 48 a1 b0 3d 63 c8 2f 3d
       -0.08514601 -0.014524771 0.08624512 0.042915713
000170 37 6c 7e bd e8 71 63 bd 66 dd e2 bc 94 3c 88 3c
       -0.06211492 -0.05552855 -0.027693462 0.016630448
000180 da 29 44 bd 65 e7 c9 bc be 6c 31 3d 05 2d 81 bc
       -0.047891475 -0.02464647 0.043316595 -0.015768537
000190 67 bf b3 bd 97 1c 49 3c 05 5a 93 bd 9a ad 98 3d
       -0.087767415 0.012274883 -0.07194904 0.07454987
0001a0 75 fb ed 3b c5 ed 29 3d d2 ac d2 bc 78 08 2d bd
       0.007262642 0.04148652 -0.025717173 -0.042244405
0001b0 5a 83 36 bc e1 45 9b bb 88 ae 9f bc cd 66 8c bd
       -0.011139715 -0.004738555 -0.019492403 -0.06855545
0001c0 78 39 a6 3d f8 4c 1b bc 8d b5 26 3d 26 53 3b 3d
       0.0811643 -0.0094788 0.040700484 0.045733593
0001d0 9b 63 a7 3d 5f 8d 77 3d cd c2 61 bc f6 4d 14 bd
       0.08173295 0.060437556 -0.013779354 -0.03620716
0001e0 b5 98 b3 3a e2 fc c9 bc bc a3 6d 3b 9f b2 30 bd
       0.0013702126 -0.024656717 0.0036260923 -0.043139096
0001f0 72 6d 22 3d 24 2a 11 bd 37 59 95 3d ad 51 a2 bd
       0.039655156 -0.03544058 0.07292407 -0.07925735
000200 0c 3e 14 3d b5 32 0c 3d 71 84 ad bd 58 ad 08 bd
       0.036191985 0.034228045 -0.08472527 -0.03336844
000210 07 94 b3 bd 31 ff 1d bd ae 9e 51 3d ca 20 28 3d
       -0.08768468 -0.038573448 0.05117672 0.041046895
000220 54 ed a0 3d b1 2f 49 ba 71 11 7a bd 4d 8b 2c 3d
       0.07857767 -0.0007674648 -0.06105179 0.042125035
000230 98 4c e0 3c 98 f6 ae bb 2c 96 4b 3c 1e 8f 98 3b
       0.027380273 -0.005339455 0.0124259405 0.004655733
000240 39 66 2b bc c2 1a ac 39 16 41 0d bd 25 bf 81 3c
       -0.0104613835 0.00032826333 -0.0344859 0.015838215
000250 8a fe 52 3a 64 12 20 3c ed cb 95 bd 15 c1 73 bd
       0.00080487935 0.00977001 -0.073142864 -0.05951031
000260 3c 19 71 bd 40 88 88 bd 0a 77 95 bd 4b 1b 01 3d
       -0.058861956 -0.066666126 -0.072980955 0.03152017
000270 f7 d8 57 3d 51 43 97 bd 44 ee 43 bd 55 f4 62 bc
       0.05269715 -0.073858865 -0.04783465 -0.013852199
000280 3e e3 dd 3c bf ab 4d 3d 2d f9 a1 3d 6f 1f 0f bb
       0.027085897 0.050212618 0.07908855 -0.0021838804
000290 8f bf 84 3d 3a f3 aa 3d 98 47 4e 3c ea 83 af 3d
       0.064818494 0.08347173 0.0125903115 0.085700825
0002a0 49 3b 32 3d 52 9f 3c 3d c8 0a 95 3d e6 9c 55 bd
       0.04351357 0.046050377 0.07277447 -0.052151583
0002b0 88 b7 a5 3d 89 74 2c bd cb e8 51 bd dd 1f 82 3d
       0.080916464 -0.042103324 -0.0512474 0.06353734
0002c0 d2 89 8e 3d 78 f7 87 bd 29 98 9a bd c7 b5 92 bd
       0.06959881 -0.06638998 -0.075485535 -0.071635775
0002d0 d3 13 9a bb 5c d0 b0 bd 74 9e b0 bd 6c 2f 9b 3d
       -0.0047020703 -0.086334914 -0.086239725 0.075774044
0002e0 16 fa 99 bc 18 af 14 3d 34 30 cb bb 3b 21 6f 3d
       -0.018796008 0.036299795 -0.0062008146 0.0583813
0002f0 66 55 a1 3d 43 d2 1f bc e7 e6 3d 3d 51 f6 75 bd
       0.078776166 -0.00975472 0.046362784 -0.06004936
000300 ef ca 86 bd 98 d3 85 3c f2 88 3a bc 37 af da 3c
       -0.06581675 0.016336247 -0.011385189 0.026694877
000310 d6 8a 85 3d cf b5 6d 3d e1 2a 48 bc 66 58 6c 3d
       0.065206215 0.058034714 -0.012217254 0.05770149
000320 0f d1 fb bc cf 62 15 3d 99 aa 05 bd 70 ae 84 3d
       -0.030739335 0.036471184 -0.032633398 0.06478584
000330 2f a2 d9 bc 0e 6a 1e 3c 96 86 73 3c cd 7b 57 bd
       -0.026566593 0.00966884 0.014863631 -0.0526083
000340 82 27 90 3d 1c ab ae bd 8b 27 d1 3c 59 22 4f bd
       0.070387855 -0.0852873 0.02553155 -0.050569866
000350 b0 07 2e bd 8f 1e 25 3d 8c 0d 23 bc 0d 5d 93 bd
       -0.0424878 0.040312346 -0.00995196 -0.071954824
000360 96 56 a5 bc 9c 61 6e 3d 92 6c 67 bd e3 41 07 3c
       -0.020182889 0.058198556 -0.056500025 0.008255455
000370 93 7e a0 bc 08 9a ee 3c f7 83 5f bd 9a b4 a9 3c
       -0.019591605 0.029126182 -0.05456921 0.020716
000380 5f a4 56 3d ae f1 b2 bd ce f3 99 3d d5 bc 83 bc
       0.05240285 -0.08737503 0.07517205 -0.016081253
000390 d8 55 70 bc cc d6 8d 3c 45 e8 3c 3c a1 d4 c0 3b
       -0.014668904 0.017314337 0.011529987 0.0058847223
0003a0 19 dd 60 3d 17 7e 19 3d 63 13 f6 3c 9c ac 26 bd
       0.054898355 0.037473764 0.030038541 -0.040691957
0003b0 e3 36 80 bd e2 33 c6 bc ce c1 a1 bd 66 60 15 3d
       -0.06260469 -0.024194662 -0.078982934 0.036468886
0003c0 82 66 9a 3d 47 4f a0 3d e0 2b 9e 3a 82 c3 f5 3c
       0.07539083 0.07827621 0.0012067519 0.030000452
0003d0 f9 c7 0d bd 19 66 6f bd 01 32 23 bc ed 59 2b 3d
       -0.034614537 -0.058446977 -0.009960652 0.041833807
0003e0 2f 33 86 bd 8b 75 a9 bd a6 dc 6c 3d cc b8 1a bd
       -0.06552731 -0.08274373 0.057827614 -0.037773892
0003f0 b1 51 b3 3c 56 dd 01 3c 51 4f 9c bd 05 15 af 3d
       0.02188954 0.007926306 -0.07632316 0.08548931

convs.1.lin_l.weight f4 [64, 256]
000000 c7 01 12 3b 27 8c dd 3c b5 78 c4 bc 8c ea 7c 3d
       0.0022278891 0.027044369 -0.023983339 0.06174712
000010 2d ac a3 bb f1 47 65 3d b7 57 1b 3d ed b4 a9 3c
       -0.00499489 0.05597681 0.03792545 0.020716155
000020 dc 38 ec bc 0a 19 6a 3c ce 9d 75 39 aa 1e 65 bd
       -0.028835706 0.014288196 0.00023423808 -0.055937447
000030 33 43 3a bc 58 12 6d bd 68 a7 81 3c b4 93 0d bd
       -0.011368561 -0.057878822 0.015826896 -0.03456469
000040 7d 3b 91 bc 97 7b 73 3d ed 59 7b 3d 75 95 f2 3c
       -0.017728562 0.059444036 0.061365057 0.029612282
000050 88 a2 6b 3d e0 ba 16 bd 35 fe 2b 3d 87 00 03 bd
       0.05752805 -0.03679931 0.041990478 -0.031982925
000060 04 9c 03 bd fb 49 20 3d ee fc 33 3d 18 bc 75 3c
       -0.03213121 0.039133053 0.043942384 0.014998458
000070 2d f8 23 bd 67 26 59 bd 16 b9 56 3d 09 12 45 bc
       -0.0400316 -0.05301514 0.052422605 -0.012028226
000080 10 c5 6a bd 1a 26 43 3d 18 3c 44 3d 0f 4a e7 3b
       -0.05731684 0.04764376 0.047908872 0.007058389
000090 c8 69 74 3d fe a2 86 bc ed 80 7e 3a 94 b4 d0 3c
       0.059671193 -0.016435143 0.00097085425 0.025476731
0000a0 f7 fd 43 bd cf 6b f0 bc 81 c1 da 3a 5b 36 27 bd
       -0.04784962 -0.029348282 0.0016689749 -0.04082332
0000b0 f3 33 35 3d b4 48 13 bd e4 c8 15 3a 3d 11 3b bd
       0.044238996 -0.035958007 0.0005713834 -0.045670737
0000c0 0a 5c f8 bc 2c 6b ad bc bb c1 fb bb 91 c7 fb 3c
       -0.030317325 -0.021169268 -0.0076830066 0.03073481
0000d0 39 6d 4e 3c 5c 2f 29 3d f7 4c 07 bd c2 36 7c 3d
       0.012599283 0.04130493 -0.033032384 0.06157566
0000e0 80 4b 2d bd c7 24 df bc e8 ef 44 bd 70 c3 44 3b
       -0.04230833 -0.027239216 -0.048080355 0.0030023716
0000f0 ec 2c 4f bc 7a 25 8a bb 9d 83 51 bd 96 f0 4a bc
       -0.012644988 -0.0042158933 -0.051150907 -0.012386462
000100 c7 c8 f5 3c 89 aa 7e 3d 3d ac 03 3c c7 06 32 bd
       0.030002965 0.062174354 0.00803667 -0.043463495
000110 46 ff e4 bc c3 5b 8b 3c bb ce 04 bd 2a a2 15 3d
       -0.027953755 0.017011529 -0.032423716 0.036531605
000120 cc 2b 13 bd a6 2c 68 bd e0 b6 a8 bc 9c 34 aa 3b
       -0.03593044 -0.056683205 -0.020595014 0.00519426
000130 73 19 0f bd e8 21 3e bd 8d 81 d0 3c 80 66 32 3d
       -0.03493638 -0.046419054 0.0254524 0.043554783
000140 33 9f 18 bd 13 fd 66 3b fa 20 e2 bc 56 f5 49 3c
       -0.0372612 0.0035246059 -0.027603615 0.012326559
000150 b2 a7 7c bc 9a ce 68 bd 93 f0 cc bc 47 f2 ea 3c
       -0.015420841 -0.056837656 -0.025017058 0.02867998
000160 c7 90 39 bd 93 70 4f 3c c2 1a f6 bc 57 9d 41 3d
       -0.045304086 0.012661117 -0.030042056 0.04726919
000170 54 55 2b bd d8 0f c6 3b f1 ad 29 bd 24 ed 66 3c
       -0.041829422 0.006044369 -0.04142565 0.014094625
000180 2e f7 42 3d a6 59 df 3c 9c f6 e4 3c 25 26 52 bd
       0.04759901 0.027264427 0.027949624 -0.05130591
000190 f9 d7 1e 3d c8 12 3a bd 3b 20 b5 bc 93 6e 6d bd
       0.038780186 -0.045428067 -0.022110095 -0.05796678
0001a0 69 75 29 3d 4e 32 74 bd 78 35 41 bd 2f 19 20 3d
       0.041371737 -0.059618287 -0.047170132 0.039086517
0001b0 6f c4 4c 3c 7f 85 48 3d f5 a9 7e 3c 44 07 02 3d
       0.012498005 0.048955437 0.015543451 0.03174521
0001c0 63 6f 51 3c b8 66 58 3d 71 10 be b8 bc e5 7b 3d
       0.012782904 0.052832335 -9.0629685e-05 0.06149839
0001d0 cb 0f 43 bd 08 86 39 bd 8e a3 93 3c 67 9e 19 3d
       -0.047622483 -0.045293838 0.018022325 0.03750458
0001e0 00 58 70 3c 5f e0 0a 3c 90 d0 35 3d bb c3 4e 3d
       0.014669418 0.008476346 0.044388354 0.050479632
0001f0 23 c3 4a 3d b3 8f 1b 3d 50 ae fd 3c 3d 2a ed bb
       0.049502503 0.03797884 0.030966908 -0.007237701
000200 a7 2c 72 3d 79 7b 76 bc 57 7e 67 3d a6 70 42 3b
       0.059124615 -0.015044087 0.05651697 0.0029669194
000210 76 0c 6b bd c3 88 db bb 45 25 e6 bc 5b 5b cf bc
       -0.05738493 -0.006699653 -0.028093943 -0.025312116
000220 1a 32 ca 3c 49 2b 58 bd e4 c5 0d 3d 6f 9d c2 3b
       0.024682093 -0.052775655 0.03461255 0.0059391777
000230 d9 82 0d bc 10 23 3b bd 94 e7 e2 bc eb 3e e6 3b
       -0.008637154 -0.045687735 -0.027698316 0.0070265434
000240 8e 98 c6 3a ae ea 51 bd 5a e3 39 3c 25 db 73 bd
       0.0015151666 -0.0512492 0.011345709 -0.059535164
000250 7f 3d 2d bd 39 42 41 3c ff 0d 53 3d bf 6d d6 3c
       -0.042294975 0.011795574 0.05152702 0.026175378
000260 d7 30 2f bd e6 2a 4f 3d 41 17 42 3d fd b3 90 3c
       -0.042771187 0.05057802 0.047385458 0.01766395
000270 fd da 88 bc 3c 1d f4 3c ce 87 16 bc a5 e2 07 bd
       -0.016705984 0.029799096 -0.009187652 -0.03317513
000280 dc 42 14 3c 0b f7 0c bd 45 26 f2 3b f5 3f 63 3d
       0.009049144 -0.034415286 0.007389816 0.055480916
000290 8c d7 e9 3c 36 a2 3d bd ca 12 2d 3d b2 df 65 bd
       0.028545164 -0.046297275 0.042254247 -0.056121536
0002a0 e4 b7 09 bd 07 1b 9a 3c b9 c6 c9 bc b6 71 2f 3c
       -0.033622637 0.018811716 -0.024630891 0.010708263
0002b0 74 28 30 3d 1b 47 b4 bc fa 88 c5 bc 6e 68 4c 3d
       0.04300733 -0.022006562 -0.024113167 0.04990428
0002c0 fd 9e 08 bd ff fd c9 3b 4b 96 37 3b 1d 54 ea bc
       -0.033354748 0.006164312 0.0028013166 -0.028604561
0002d0 0c b8 25 bc 9f 41 76 3b 92 7a 0c bd 2a ea df bb
       -0.010114681 0.0037575734 -0.03429658 -0.0068333345
0002e0 52 79 ad 3c 5f 82 28 3c 40 53 0a 3d 7a 5f 06 bd
       0.021176014 0.010284989 0.0337708 -0.032805897
0002f0 51 76 60 3b 8a a9 7a bd 42 23 1d bd 5b b3 63 3d
       0.003425021 -0.06119684 -0.038363703 0.05559097
000300 8b e9 b7 3c f6 53 26 bc e4 d4 69 3d b5 3a 58 3d
       0.02245023 -0.010151854 0.057087794 0.052790362
000310 d6 a8 34 3d 91 e2 cf bb dd 04 54 bc 3e 45 7a bd
       0.044106327 -0.0063441475 -0.012940613 -0.06110119
000320 71 53 64 bb d9 37 4d 3d d0 99 bb bc 86 7b c5 bb
       -0.0034839774 0.05010209 -0.022900492 -0.006026688
000330 78 ff 52 bd 2f 6e 26 3c c1 58 17 bd 1c d1 33 3c
       -0.051513165 0.010158106 -0.036949877 0.0109751485
000340 0d af 3e 3c bc c0 14 bd 75 d2 04 ba c0 7e 56 3c
       0.011638415 -0.03631662 -0.0005066761 0.013091743
000350 85 a7 6a 3d 1e 94 1a bd 90 0f 52 bd 89 87 45 bd
       0.057288665 -0.03773891 -0.051284373 -0.04822496
000360 11 e6 93 bc 44 e2 7b 3b 67 10 65 3c cb 8e 35 3d
       -0.01805404 0.0038434425 0.013980961 0.04432563
000370 dc a1 96 3c c7 56 c2 bb 69 98 64 3d b5 68 51 bd
       0.018387727 -0.005930755 0.055809412 -0.051125247
000380 2d 4f 0d 3c 25 1a 38 3d 9d b8 1a 3d 18 34 3b 3d
       0.008624834 0.04494681 0.037773717 0.045703977
000390 4d 77 0d bd c4 c9 f1 bc d9 71 17 bd 87 01 5a bd
       -0.034537602 -0.029515155 -0.036973808 -0.053224113
0003a0 ae cc 38 bd cb 2f a9 3c 65 3b 46 bd 28 d1 33 bd
       -0.045117073 0.020652672 -0.048396487 -0.04390064
0003b0 39 a7 1c 3c 88 10 5e bd a6 7c 36 3d 48 c8 de bc
       0.009561353 -0.054214984 0.044552468 -0.02719511
0003c0 85 4b 00 b9 61 2f 0a bd a3 fb 3b 3b 47 f2 a3 bc
       -0.00012235164 -0.03373659 0.0028683923 -0.020012988
0003d0 56 22 6d 3c 23 dc fd 3c 75 4d 65 bd b2 cf 77 3d
       0.014473518 0.030988758 -0.055982072 0.060500808
0003e0 74 b4 0a 3d 45 31 56 bd a1 93 3a bc 78 f2 3d bd
       0.0338635 -0.05229308 -0.011387737 -0.046373814
0003f0 f0 81 5f bc 1f 40 bd 3c d5 47 7f 3d 36 1a 6c bd
       -0.013641819 0.023101864 0.062324364 -0.057642184

convs.1.lin_l.bias f4 [64]
000000 bb 2c a0 bc 2f cb a1 3c ee f9 57 bb 35 5b 2d 3d
       -0.01955258 0.019750206 -0.0032955366 0.04232331
000010 66 9b c6 3c a6 3f 58 bd 78 79 02 3d 6e d9 c6 3b
       0.024244022 -0.052795075 0.031854123 0.0060684
000020 1d be 22 bd 65 06 6c bb 89 15 fb bc f7 fe 66 3c
       -0.039732087 -0.0036014554 -0.030649917 0.014098874
000030 b4 17 0a bc c1 c1 b4 ba 5e 2d 6c 3d 41 5a f3 bc
       -0.008428503 -0.0013790653 0.057660453 -0.029706122
000040 30 74 e3 bc f7 80 be bb 9d d5 56 bb f9 51 00 bd
       -0.027765363 -0.0058137137 -0.0032781132 -0.031328175
000050 5c ac 36 3d 25 3b a0 3c ac 2c 36 3d b7 70 1b bd
       0.04459797 0.019559452 0.044476196 -0.03794929
000060 67 f8 e7 bb 0b fd 24 3d 44 38 50 bd 84 3b 7c 3d
       -0.0070791724 0.040280383 -0.05083491 0.061580196
000070 c0 86 23 bd e1 28 07 bd 8c 49 23 bd a4 f3 49 bd
       -0.03992343 -0.03299797 -0.03986506 -0.04930462
000080 87 e0 d4 bc b7 b7 c3 bc 81 6e 0d bd 01 a3 f8 ba
       -0.02598597 -0.023891313 -0.034529213 -0.0018969477
000090 4d bd 44 3d 4f 9a 72 3d bf 92 27 3d 07 98 e2 bc
       0.048032094 0.05922919 0.040911432 -0.027660383
0000a0 10 26 10 3d 74 7c 3a bd 3b ff 67 bc d0 5d ea bc
       0.03519255 -0.045528844 -0.014159973 -0.028609186
0000b0 40 3e 39 bd fd ae a5 3c 48 11 b8 3c 2b 8a 21 3c
       -0.04522538 0.020225042 0.022469178 0.009859602
0000c0 94 dc 7b bc 45 5f 40 3d 6c 5b d7 3b f1 83 af bc
       -0.015372414 0.046965856 0.0065721776 -0.02142522
0000d0 59 1a 8e bc 85 a5 11 bc a1 ec 51 3d ca 58 29 3d
       -0.017346548 -0.008889561 0.051251058 0.04134444
0000e0 be ae 32 3c ef 8a 0b bd 52 c1 ae bc 59 3b 1c bd
       0.01090592 -0.034068044 -0.021332417 -0.038142536
0000f0 40 b3 c4 3c c5 99 54 bb 74 f9 9a bc cc 6d f8 bc
       0.024011254 -0.0032440287 -0.018917777 -0.030325793

convs.1.lin_r.weight f4 [64, 256]
000000 32 97 11 bd 9e 76 c3 bc a4 aa f6 bc 3d 5d 39 3d
       -0.03554458 -0.023860272 -0.030110665 0.045254935
000010 b5 c0 e9 bc 60 46 63 bd 5c e7 29 3d 32 98 0b 3d
       -0.028534273 -0.055487037 0.041480407 0.03408069
000020 88 cf 8a 3b b9 8b bb 3c 34 fb 58 3c d3 3e 00 bd
       0.0042361654 0.022893773 0.013243485 -0.031309914
000030 c1 ab 03 3d 03 1e cc 3b 69 c0 c6 3c 18 15 cd bc
       0.03214622 0.0062291636 0.02426167 -0.025034472
000040 f9 0b 4d 3d 5d 41 77 3c 50 e9 c4 3c 4d bb 47 bd
       0.050060246 0.015091267 0.024037033 -0.04876261
000050 fc aa b1 39 96 5f 55 bc 9e d9 e8 bc 19 f9 56 3d
       0.00033887464 -0.013023278 -0.02842408 0.05248365
000060 ac 88 78 3d 91 46 25 bd 70 46 da 3c 90 b2 b8 3b
       0.060677215 -0.0403505 0.026644915 0.0056365207
000070 39 c5 01 3d 76 01 e5 ba a1 22 d6 bb d9 ec 65 3d
       0.031682227 -0.0017471749 -0.00653489 0.05613408
000080 23 56 ba bc e3 71 a1 3c 86 fe 0b bd 83 b3 04 3d
       -0.022746151 0.019707626 -0.03417828 0.03239776
000090 e6 92 01 3d 17 32 d2 3c 2a 4a 8b 3c 37 2e 23 3d
       0.031634234 0.02565865 0.017003138 0.039838996
0000a0 fc 20 38 bd 9c f2 a5 bb 93 4f bd bb 1f d0 24 bc
       -0.04495333 -0.0050643217 -0.0057773083 -0.010059386
0000b0 cc 41 05 bd dd 2d 29 bd 4b f1 04 3b ef 4f 3e bd
       -0.032533452 -0.041303504 0.0020285423 -0.04646295
0000c0 f7 bd 73 3d 74 04 84 3a 0c 3b 18 bd 32 f7 2d bd
       0.059507336 0.0010072128 -0.037165686 -0.042472072
0000d0 23 4f fe bc d0 7c 7e bd c0 62 fc bc d8 87 f8 bb
       -0.031043595 -0.06213075 -0.030808806 -0.007584553
0000e0 16 8e 17 bd 36 f2 47 3b 8f 9d 36 3d a8 fd 18 3d
       -0.037000738 0.003050936 0.044583853 0.03735128
0000f0 6a 63 5d bd 99 b3 67 bb 8e 40 4c bb 0d 5f 7b 3c
       -0.054049887 -0.0035354851 -0.0031166407 0.015342486
000100 28 e4 cf ba ef 51 62 bb c8 e6 09 3c 34 7f e8 bc
       -0.0015860843 -0.00345337 0.008416839 -0.028380968
000110 34 6d 74 3d 75 af 26 bd ae 6f df 3c 60 86 96 3c
       0.059674457 -0.040694673 0.027274933 0.018374622
000120 4e 37 5d bd c6 ee 24 bd ef 44 c8 bc 75 d1 15 bd
       -0.05400782 -0.040266775 -0.024446933 -0.036576707
000130 66 fe 5a bd 2c fd 78 bc 2d 3a 44 3d 91 c0 39 3d
       -0.05346527 -0.01519708 0.047907043 0.04534966
000140 0c 50 0a bd db a8 ac 3c b7 b5 69 bc 36 4e a2 bb
       -0.033767745 0.02107661 -0.014264516 -0.004953171
000150 75 bb 70 bc e9 4a 65 bd 15 82 01 3d 00 b8 4b 3d
       -0.014693131 -0.055979643 0.031618197 0.049736023
000160 fe 5f 43 bd 21 ab dd 3c 28 fe c5 bc 5c 00 d5 bc
       -0.047698967 0.02705914 -0.024169043 -0.026001148
000170 08 ca ea 3c de b4 af bc e8 d7 ad b9 08 31 3b 3c
       0.02866079 -0.021448549 -0.00033157994 0.011425264
000180 7b 23 5e bb 2e e3 95 3c 0c 16 3f bc 9f 3e 58 3d
       -0.003389566 0.018296804 -0.011662971 0.052794095
000190 fc fd 51 3d 00 64 04 3d da 73 70 bd 9a 4c 4c bd
       0.05126761 0.03232193 -0.058704235 -0.04987774
0001a0 08 6c 96 3c 8b 47 47 bd 4c b7 ca 3c e2 3b 21 bd
       0.01836206 -0.048652213 0.024745606 -0.03936375
0001b0 6f 13 fa bc 72 6a ad 3c d5 ff 78 3d 79 ff 46 bd
       -0.030526845 0.021168921 0.060790855 -0.04858348
0001c0 e2 8a 85 3b 98 05 95 bc eb 4b a2 3c bc d0 47 3d
       0.004075394 -0.018191144 0.019811591 0.04878305
0001d0 56 43 07 bd ef 35 a1 3c ce a6 25 bc a2 63 2a 3d
       -0.0330232 0.019679038 -0.01011057 0.041598924
0001e0 5d 46 18 3c f5 32 de bc fe f0 6d bc 40 bb 39 bd
       0.00929412 -0.027123908 -0.014522789 -0.04534459
0001f0 d2 88 51 bc d8 45 ad bc 78 f4 3c bc 43 4c 68 3d
       -0.012788968 -0.021151468 -0.011532895 0.056713354
000200 87 97 96 3c 67 d6 1f bd 6e 12 71 3d 4e f8 69 3d
       0.0183828 -0.03902283 0.058855467 0.057121567
000210 d6 50 70 3c 16 69 62 bd 17 15 64 bd 95 d7 6b 3c
       0.01466771 -0.055276 -0.055684175 0.0143946605
000220 74 ac 0d bc 6a 34 9e 3c 9a d3 f3 3c c1 e0 96 bc
       -0.008647073 0.019312102 0.029763985 -0.018417718
000230 78 29 82 3b 34 62 51 3d 24 c5 92 bb ea e7 b6 bc
       0.0039722286 0.051119044 -0.0044790674 -0.022327382
000240 bd 28 22 bd 89 0e 33 bd 8e bb 4b bc e9 b4 a6 3b
       -0.039589632 -0.043715034 -0.012434853 0.005087484
000250 db 37 5d 3c e4 fe 03 3c 24 dc 2c 3d 43 d9 05 3c
       0.0135020865 0.008056376 0.04220213 0.008169475
000260 aa 3f 43 3d 8e 88 e8 bb 32 dc 1a bd 71 aa 21 bd
       0.047668137 -0.0070963567 -0.03780765 -0.039469186
000270 53 b7 78 3d 1b e2 ac bc 7d 2a 7a bd 07 ca 16 bd
       0.060721707 -0.02110391 -0.061075676 -0.036813762
000280 1f aa 3a 3c d1 fa d7 bc ef f3 28 3d 95 c7 d3 3c
       0.011393099 -0.026364716 0.04124826 0.025852004
000290 e2 9d dc ba c7 23 5b bd f8 e7 45 bd 89 31 08 3d
       -0.0016831721 -0.053500917 -0.048316926 0.033250365
0002a0 7f d5 84 3c e6 69 57 bd 19 d5 10 3d bf 2c 5f bd
       0.016215084 -0.052591227 0.035359476 -0.054486033
0002b0 78 68 3f bd 8d a5 08 3b f8 f8 43 bd 86 ac 7b bd
       -0.04673049 0.002085063 -0.047844857 -0.061443828
0002c0 db a1 af 3c ae 1a 50 3d 37 30 46 bd 30 13 8f 3c
       0.021439483 0.050806694 -0.048385825 0.017465204
0002d0 43 f9 75 3d e3 0f fa 3b 1a 87 19 3d 21 60 63 3d
       0.060052168 0.0076312884 0.03748236 0.055511598
0002e0 7a 04 6d bd b3 1a 70 bd 4a 41 20 bd f0 32 91 3c
       -0.057865597 -0.058619212 -0.039124765 0.017724484
0002f0 9c c8 c9 3c 98 c7 d4 bc 85 c7 48 bd 36 ef 0d bd
       0.02463179 -0.02597408 -0.0490184 -0.034651957
000300 99 e6 61 bd fb e2 10 3d 26 1a 38 bd 9b 51 73 bc
       -0.055151556 0.035372715 -0.044946812 -0.014850999
000310 91 a5 2e 3d aa 4a 71 bc f1 05 2a 3d ad 8d 5f bd
       0.042638365 -0.014727274 0.041509572 -0.054578472
000320 12 4d 5c 3d bd 40 a6 3a 92 a0 97 bc 55 1c 7d bd
       0.053784437 0.0012684088 -0.018509183 -0.061794598
000330 fe 8f 88 bb 7c 9d 9d bc 3c 15 e3 3c 52 90 36 3c
       -0.004167556 -0.019240133 0.027720086 0.011142807
000340 98 bc 41 3c a4 e8 fd bc a6 0a 40 3d 08 bf 68 3c
       0.011824749 -0.03099472 0.046885155 0.014205702
000350 f5 8c 13 bd 5c e9 77 bc ee 43 11 bd 08 5c 5d bc
       -0.0360231 -0.015131321 -0.035465173 -0.0135107115
000360 49 9b 6f 3d 1f 08 b8 bc 3e ce 21 bd 89 4f 30 bd
       0.0584977 -0.02246481 -0.03950333 -0.0430446
000370 52 20 79 bd 70 f0 57 bd 0b 35 98 3c 58 e0 d6 bc
       -0.06082184 -0.052719533 0.01857998 -0.026230022
000380 d9 a7 8e bb e4 25 ac 3b d6 35 65 bd 54 38 23 3d
       -0.004353505 0.0052535404 -0.055959545 0.03984864
000390 7f 6f 91 3b bd 30 4d 3c eb 02 1a bd ae 31 e3 bc
       0.00443834 0.012523827 -0.03760044 -0.02773365
0003a0 d3 57 6b 3d 8c ff 15 3c c8 b1 69 bd 42 50 9e bb
       0.057456803 0.009155165 -0.05705431 -0.004831345
0003b0 c1 e1 cd bc 35 65 3d 3d 41 1a 0b 3b fe 0f 65 3b
       -0.025132062 0.046239097 0.0021225365 0.003495216
0003c0 6d 02 94 3c 78 89 1a bd 0d bb dc 3c f6 fb dc bc
       0.018067563 -0.037728757 0.026944662 -0.026975613
0003d0 a7 03 7d bc 36 d5 3d bd b6 11 e9 3c 48 13 00 3d
       -0.015442765 -0.046345912 0.028450828 0.031268388
0003e0 34 2a 3f bc b2 02 49 3c 13 3d 91 b9 dc aa 24 3d
       -0.011667777 0.012268709 -0.0002770206 0.040202007
0003f0 fd c1 32 bd e2 88 a4 bc 8d 02 1d 3d f5 16 64 3c
       -0.043642033 -0.020084802 0.03833251 0.013921489

bns.0.weight f4 [256]
000000 a7 00 80 3f 79 ff 7f 3f 7a fe 7f 3f 3a 00 80 3f
       1.0000199 0.99999195 0.99997675 1.0000069
000010 f0 ff 7f 3f 34 00 80 3f 4d fe 7f 3f 9e fe 7f 3f
       0.99999905 1.0000062 0.9999741 0.9999789
000020 2d 00 80 3f 3f ff 7f 3f 6d ff 7f 3f 04 00 80 3f
       1.0000054 0.9999885 0.99999124 1.0000005
000030 ad ff 7f 3f 71 00 80 3f 4b 00 80 3f 58 00 80 3f
       0.99999505 1.0000135 1.000009 1.0000105
000040 6e ff 7f 3f c9 ff 7f 3f 1c 00 80 3f 23 fe 7f 3f
       0.9999913 0.9999967 1.0000033 0.99997157
000050 2b 00 80 3f 31 ff 7f 3f 89 fc 7f 3f 1f ff 7f 3f
       1.0000051 0.99998766 0.99994713 0.9999866
000060 43 00 80 3f 43 00 80 3f 2c 00 80 3f 5d 00 80 3f
       1.000008 1.000008 1.0000052 1.0000111
000070 dd 00 80 3f c3 ff 7f 3f 6a 00 80 3f 47 00 80 3f
       1.0000263 0.99999636 1.0000126 1.0000085
000080 80 fe 7f 3f 93 ff 7f 3f 2c 00 80 3f 9c 00 80 3f
       0.9999771 0.9999935 1.0000052 1.0000186
000090 22 fe 7f 3f 48 00 80 3f 81 00 80 3f ab 00 80 3f
       0.9999715 1.0000086 1.0000154 1.0000204
0000a0 ed ff 7f 3f bd fe 7f 3f 5f fd 7f 3f 3b fe 7f 3f
       0.99999887 0.99998075 0.9999599 0.999973
0000b0 01 00 80 3f 6d fc 7f 3f 54 00 80 3f 5e 00 80 3f
       1.0000001 0.99994546 1.00001 1.0000112
0000c0 75 00 80 3f ef fd 7f 3f 94 00 80 3f e0 fe 7f 3f
       1.000014 0.99996847 1.0000176 0.99998283
0000d0 3b 00 80 3f 50 00 80 3f 0a 00 80 3f 5c 00 80 3f
       1.000007 1.0000095 1.0000012 1.000011
0000e0 67 00 80 3f 15 ff 7f 3f c1 ff 7f 3f 07 00 80 3f
       1.0000123 0.999986 0.99999624 1.0000008
0000f0 0e fe 7f 3f 49 ff 7f 3f c1 ff 7f 3f 49 00 80 3f
       0.9999703 0.9999891 0.99999624 1.0000087
000100 7c fe 7f 3f 90 00 80 3f 1e 00 80 3f 30 00 80 3f
       0.9999769 1.0000172 1.0000036 1.0000057
000110 d0 00 80 3f 48 ff 7f 3f 4f ff 7f 3f 9b 00 80 3f
       1.0000248 0.99998903 0.99998945 1.0000185
000120 61 00 80 3f 60 00 80 3f a5 ff 7f 3f fd fe 7f 3f
       1.0000116 1.0000114 0.9999946 0.99998456
000130 b5 fd 7f 3f ac 00 80 3f ef ff 7f 3f 4a fd 7f 3f
       0.999965 1.0000205 0.999999 0.99995863
000140 11 00 80 3f 18 ff 7f 3f 84 ff 7f 3f 08 00 80 3f
       1.000002 0.9999862 0.9999926 1.000001
000150 b1 ff 7f 3f 6e ff 7f 3f 34 00 80 3f 4e 00 80 3f
       0.9999953 0.9999913 1.0000062 1.0000093
000160 d9 ff 7f 3f 5b 00 80 3f 10 00 80 3f 9c fd 7f 3f
       0.9999977 1.0000108 1.0000019 0.9999635
000170 18 00 80 3f 44 fe 7f 3f df fd 7f 3f 6a ff 7f 3f
       1.0000029 0.99997354 0.9999675 0.99999106
000180 f3 ff 7f 3f 22 00 80 3f 0b 01 80 3f 80 ff 7f 3f
       0.9999992 1.000004 1.0000318 0.9999924
000190 d0 ff 7f 3f 87 00 80 3f b1 fe 7f 3f 0c 01 80 3f
       0.99999714 1.0000161 0.99998003 1.000032
0001a0 ca fe 7f 3f 40 00 80 3f 58 00 80 3f 02 fe 7f 3f
       0.9999815 1.0000076 1.0000105 0.9999696
0001b0 33 00 80 3f 04 00 80 3f 8d 00 80 3f 79 ff 7f 3f
       1.0000061 1.0000005 1.0000168 0.99999195
0001c0 85 ff 7f 3f 98 00 80 3f e5 fe 7f 3f 32 00 80 3f
       0.99999267 1.0000181 0.99998313 1.000006
0001d0 f2 fe 7f 3f 39 00 80 3f 64 00 80 3f e9 ff 7f 3f
       0.9999839 1.0000068 1.0000119 0.9999986
0001e0 d8 ff 7f 3f f9 fe 7f 3f 46 00 80 3f 8b ff 7f 3f
       0.9999976 0.9999843 1.0000083 0.999993
0001f0 ee fe 7f 3f 13 ff 7f 3f 57 00 80 3f de ff 7f 3f
       0.99998367 0.9999859 1.0000104 0.999998
000200 6f 00 80 3f b6 00 80 3f e2 ff 7f 3f 7d 00 80 3f
       1.0000132 1.0000217 0.9999982 1.0000149
000210 05 ff 7f 3f 0f ff 7f 3f 0c 00 80 3f 0a 00 80 3f
       0.99998504 0.99998564 1.0000014 1.0000012
000220 28 00 80 3f 3c 00 80 3f 5a 00 80 3f c0 fd 7f 3f
       1.0000048 1.0000072 1.0000107 0.99996567
000230 26 00 80 3f 88 fd 7f 3f d6 ff 7f 3f 81 00 80 3f
       1.0000045 0.99996233 0.9999975 1.0000154
000240 ff ff 7f 3f 4e 00 80 3f e0 fe 7f 3f 26 00 80 3f
       0.99999994 1.0000093 0.99998283 1.0000045
000250 d0 ff 7f 3f 4d fe 7f 3f 92 ff 7f 3f 94 fe 7f 3f
       0.99999714 0.9999741 0.99999344 0.9999783
000260 f9 fe 7f 3f 27 00 80 3f 46 ff 7f 3f df fd 7f 3f
       0.9999843 1.0000046 0.9999889 0.9999675
000270 d1 fe 7f 3f 55 fe 7f 3f ba fe 7f 3f 08 00 80 3f
       0.99998194 0.99997455 0.99998057 1.000001
000280 64 00 80 3f df fe 7f 3f 97 00 80 3f 3d 00 80 3f
       1.0000119 0.9999828 1.000018 1.0000073
000290 b4 ff 7f 3f 40 ff 7f 3f 5b ff 7f 3f 37 00 80 3f
       0.99999547 0.99998856 0.99999017 1.0000066
0002a0 7f 00 80 3f 78 ff 7f 3f 46 ff 7f 3f 9e ff 7f 3f
       1.0000151 0.9999919 0.9999889 0.99999416
0002b0 d4 fe 7f 3f b9 ff 7f 3f 63 00 80 3f f6 fe 7f 3f
       0.9999821 0.99999577 1.0000118 0.99998415
0002c0 0e 00 80 3f 4d 00 80 3f 66 00 80 3f 2a ff 7f 3f
       1.0000017 1.0000092 1.0000122 0.99998724
0002d0 e8 00 80 3f 29 ff 7f 3f 6c 00 80 3f ee ff 7f 3f
       1.0000277 0.9999872 1.0000129 0.9999989
0002e0 6a 00 80 3f c7 ff 7f 3f 4d 00 80 3f 8a fe 7f 3f
       1.0000126 0.9999966 1.0000092 0.9999777
0002f0 19 00 80 3f 8e fd 7f 3f d8 fe 7f 3f 6a 00 80 3f
       1.000003 0.9999627 0.99998236 1.0000126
000300 8b 00 80 3f a9 fd 7f 3f 65 fc 7f 3f 98 ff 7f 3f
       1.0000166 0.9999643 0.999945 0.9999938
000310 ec 00 80 3f 37 00 80 3f 89 00 80 3f 83 00 80 3f
       1.0000281 1.0000066 1.0000163 1.0000156
000320 13 00 80 3f 7a 00 80 3f 0a 00 80 3f ad 00 80 3f
       1.0000023 1.0000145 1.0000012 1.0000206
000330 ac ff 7f 3f 42 00 80 3f 47 fd 7f 3f b6 fe 7f 3f
       0.999995 1.0000079 0.99995846 0.99998033
000340 9b fc 7f 3f 47 00 80 3f 07 ff 7f 3f 89 00 80 3f
       0.9999482 1.0000085 0.99998516 1.0000163
000350 8c 00 80 3f a4 00 80 3f 65 ff 7f 3f b6 ff 7f 3f
       1.0000167 1.0000196 0.99999076 0.9999956
000360 19 ff 7f 3f 57 fe 7f 3f 5b ff 7f 3f 92 fc 7f 3f
       0.99998623 0.99997467 0.99999017 0.99994767
000370 32 00 80 3f 80 ff 7f 3f f7 ff 7f 3f 4a 00 80 3f
       1.000006 0.9999924 0.99999946 1.0000088
000380 64 ff 7f 3f 35 00 80 3f 87 ff 7f 3f 75 fe 7f 3f
       0.9999907 1.0000063 0.9999928 0.99997646
000390 16 01 80 3f fd ff 7f 3f 73 00 80 3f 6d ff 7f 3f
       1.0000331 0.9999998 1.0000137 0.99999124
0003a0 d0 00 80 3f 72 ff 7f 3f 41 00 80 3f f7 00 80 3f
       1.0000248 0.99999154 1.0000077 1.0000294
0003b0 7c ff 7f 3f 55 fe 7f 3f 2a 00 80 3f 3b ff 7f 3f
       0.99999213 0.99997455 1.000005 0.99998826
0003c0 b1 00 80 3f 85 fe 7f 3f 53 00 80 3f 08 ff 7f 3f
       1.0000211 0.9999774 1.0000099 0.9999852
0003d0 fd fd 7f 3f ba fe 7f 3f b5 ff 7f 3f b5 00 80 3f
       0.9999693 0.99998057 0.9999955 1.0000216
0003e0 0b 00 80 3f 1a 00 80 3f a4 ff 7f 3f 33 01 80 3f
       1.0000013 1.0000031 0.9999945 1.0000366
0003f0 3c 00 80 3f 1b ff 7f 3f 5b ff 7f 3f c4 00 80 3f
       1.0000072 0.99998635 0.99999017 1.0000234
