output/dmd/prev_e2v/run_010/prev_dmd_best_model_e2v.pth (torch, 207541 bytes, 14 tensors)

convs.0.lin_l.weight f4 [256, 32]
-0.08945229 0.08569506 -0.0009812698 -0.110096365 0.09899124 0.11099119 0.093040586 -0.015574316
-0.04321998 -0.1434076 0.15055056 -0.104024544 -0.14455445 0.0064476356 0.13462304 -0.112620756
0.06957855 0.071732536 0.02929596 0.16854595 -0.17610411 -0.1526964 -0.0073355325 -0.030041113
-0.09970606 -0.030580228 -0.04415864 0.10453569 -0.12757024 -0.09368183 -0.13971962 -0.050831154
0.11648437 0.09414617 0.16012765 0.050687555 0.05499625 -0.1084811 0.0019679137 -0.117074534
0.07722009 0.16897482 0.1000414 0.06558149 0.15014657 0.00034466852 -0.03191826 0.15253913
-0.045256108 0.006547203 0.07111574 0.014213595 0.073157154 -0.0031210643 0.058415886 0.12630585
0.12506683 -0.056355778 0.10247867 0.10068623 0.12669784 -0.07847285 -0.00206894 0.042788118
-0.060833473 0.02920969 0.14984167 0.04339766 -0.11089584 0.04343149 -0.10548286 -0.04287465
0.003410505 -0.09430534 -0.14590542 -0.12882124 0.041279703 -0.03438592 0.03364894 0.11792772
-0.017613104 0.15865907 0.077436514 0.0021935478 0.14423032 0.024264835 0.15776591 0.0058788853
-0.0061823763 -0.12132276 0.11692467 -0.060090985 0.15281583 -0.13369915 0.1562035 -0.032905225
0.1749085 0.11011366 -0.10996011 0.063541576 -0.109444916 0.069005474 -0.083317526 0.11274879
-0.032085974 0.12537478 -0.091160215 0.02119242 -0.11869759 -0.15950999 0.1567921 0.040548343
-0.0556297 -0.14450203 0.10630113 -0.066276655 0.066608384 0.037856527 -0.05478064 0.13895696
-0.14172432 -0.05154788 -0.0682842 0.14797817 0.066206515 0.035911262 -0.10007045 0.16477498
-0.09442816 -0.15947767 -0.08168198 0.118283086 0.14375733 0.11789624 0.11706687 0.14703996
-0.04110272 -0.10086866 -0.13725379 -0.11064423 0.046354756 -0.1765557 -0.10531797 -0.13561708
0.10225194 0.053996664 -0.032530572 -0.005594759 -0.029350761 -0.0735896 0.15955243 -0.07218289
-0.027581837 0.1480891 -0.06790583 -0.01282184 -0.06629966 0.052467167 -0.035304084 -0.12610401
-0.15803632 0.1331521 -0.065621495 0.10585324 0.14198907 0.039248668 0.13464762 -0.11612784
-0.07431763 -0.0066385204 -0.018088203 -0.060181607 -0.07534857 0.1709298 -0.033889767 -0.116200514
-0.12290016 0.05885848 -0.013332587 0.03258616 -0.058858454 -0.12885873 0.08539509 0.102145344
-0.15976103 -0.14757511 -0.007088393 0.05652131 0.05856589 0.06651211 -0.13227354 0.13564108
0.07706268 -0.1399505 -0.09525107 -0.05590825 -0.13452056 -0.13866211 -0.1499852 0.14232595
0.13333888 -0.030701492 -0.00918071 0.12759449 0.064161725 -0.06385569 0.07842911 0.08898427
0.12219306 0.10246553 0.09438859 -0.16444376 0.041794058 -0.12706435 0.056846555 -0.0829223
0.14028682 -0.046769034 0.07182434 -0.08162934 0.13450001 -0.13960251 -0.035877664 0.06128112
0.097788304 -0.13257451 0.13426419 0.07764389 -0.0111036915 -0.13686466 -0.06873889 0.1637652
-0.121848494 -0.10080823 -0.13920467 0.08745135 -0.021139883 0.08996059 0.07493423 -0.08372582
0.011682726 -0.12673189 0.1541153 -0.1473427 0.14125906 -0.12959418 0.077971086 0.08075472
0.035448167 0.07556013 0.13934965 0.019097693 -0.019529354 0.11074327 -0.013222635 -0.04832778
00000000: c332 b7bd e480 af3d f39d 80ba 347a e1bd
00000010: ebbb ca3d 594f e33d 108c be3d 6a2b 7fbc
00000020: 6f07 31bd 71d9 12be ed29 1a3e d20a d5bd
00000030: 1506 14be b046 d33b 9fda 093e b6a5 e6bd
00000040: 337f 8e3d 82e8 923d 15fe ef3c 4f97 2c3e
00000050: a354 34be 725c 1cbe e85e f0bb c818 f6bc
00000060: b132 ccbd 6383 fabc b1df 34bd cf16 d63d
00000070: c6a1 02be 42dc bfbd a912 0fbe 5434 50bd
00000080: 5b8f ee3d b5cf c03d 81f8 233e c19d 4f3d
00000090: bf43 613d 572b debd 1df8 003b c6c4 efbd
000000a0: 9125 9e3d bc07 2d3e 81e2 cc3d 974f 863d
000000b0: 06c0 193e a0b4 b439 b9bc 02bd 3833 1c3e
000000c0: 785e 39bd eb89 d63b 21a5 913d 23e0 683c
000000d0: 6bd3 953d c58a 4cbb 7f45 6f3d 5256 013e
000000e0: 8511 003e 51d5 66bd 56e0 d13d 9534 ce3d
000000f0: 14bd 013e 60b6 a0bd 0e97 07bb 9842 2f3d
00000100: 852c 79bd 2949 ef3c 1870 193e bfc1 313d
00000110: 5c1d e3bd 38e5 313d 6607 d8bd 549d 2fbd
00000120: c782 5f3b 2823 c1bd 3b68 15be b7e9 03be
00000130: e814 293d 40d8 0cbd 79d3 093d 1784 f13d
00000140: 5b49 90bc 8677 223e 0997 9e3d a0c1 0f3b
00000150: 1db1 133e 0cc7 c63c 638d 213e aaa3 c03b
00000160: 8895 cabb 1178 f8bd 3476 ef3d f721 76bd
00000170: c17b 1c3e 6ee8 08be cff3 1f3e a1c7 06bd
00000180: 371b 333e 4583 e13d c432 e1bd 1622 823d
00000190: a824 e0bd be52 8d3d 61a2 aabd d6e8 e63d
000001a0: 956c 03bd 3f62 003e 35b2 babd ba9b ad3c
000001b0: b917 f3bd 9656 23be 1c8e 203e 0516 263d
000001c0: f8db 63bd 57f8 13be 68b4 d93d 0ebc 87bd
000001d0: fa69 883d 720f 1b3d aa61 60bd bc4a 0e3e
000001e0: 2e20 11be df23 53bd 96d8 8bbd 9787 173e
000001f0: 4897 873d b017 133d bcf1 ccbd c6ba 283e
00000200: 8d63 c1bd 1d4e 23be e248 a7bd 673e f23d
00000210: 1f35 133e 9573 f13d c1c0 ef3d a591 163e
00000220: 535b 28bd 3a94 cebd 428c 0cbe 7199 e2bd
00000230: 7cde 3d3d 04cb 34be f3b0 d7bd 34df 0abe
00000240: 7769 d13d 9b2b 5d3d c73e 05bd 3d54 b7bb
00000250: 0271 f0bc 25b6 96bd b661 233e 9fd4 93bd
00000260: 4ef3 e1bc aba4 173e 3612 8bbd b212 52bc
00000270: 1ec8 87bd d0e7 563d 049b 10bd 6921 01be
00000280: 46d4 21be 0659 083e 9064 86bd 95c9 d83d
00000290: 9565 113e 36c3 203d 11e1 093e 6fd4 edbd
000002a0: d733 98bd f287 d9bb b62d 94bc fd80 76bd
000002b0: 5a50 9abd 3908 2f3e ffcf 0abd 89fa edbd
000002c0: 14b3 fbbd 9715 713d ec70 5abc 1179 053d
000002d0: 9015 71bd 8bf3 03be 9fe3 ae3d 9431 d13d
000002e0: 6598 23be ee1d 17be c045 e8bb e482 673d
000002f0: c9e2 6f3d 8037 883d b772 07be 7fe5 0a3e
00000300: 0ad3 9d3d 2f4f 0fbe fe12 c3bd 0d00 65bd
00000310: c2bf 09be 71fd 0dbe b895 19be e5bd 113e
00000320: fd89 083e b281 fbbc b06a 16bc 21a8 023e
00000330: 3967 833d c6c6 82bd 719f a03d 633d b63d
00000340: 5b40 fa3d 73d9 d13d ce4e c13d f263 28be
00000350: 3f30 2b3d 281d 02be efd7 683d 2bd3 a9bd
00000360: 59a7 0f3e e390 3fbd a418 933d 492d a7bd
00000370: 5fba 093e f6f3 0ebe 75f4 12bd e901 7b3d
00000380: 3c45 c83d 9dc1 07be 8d7c 093e c303 9f3d
00000390: 42ec 35bc 4026 0cbe fac6 8cbd 11b2 273e
000003a0: b48b f9bd 8c74 cebd ab8b 0ebe b219 b33d
000003b0: 8c2d adbc 423d b83d 1e77 993d 7178 abbd
000003c0: e868 3f3c 01c6 01be 67d0 1d3e 01e1 16be
000003d0: 37a6 103e 56b4 04be 4eaf 9f3d bb62 a53d
000003e0: 1932 113d 45bf 9a3d adb1 0e3e c472 9c3c
000003f0: 06fc 9fbc 5ecd e23d c0a3 58bc 5af3 45bd

convs.0.lin_l.bias f4 [256]
-0.0025877145 -0.13943948 0.03808745 -0.048662547 -0.07538759 0.119833164 -0.1306564 -0.14257956
0.0966188 0.13722493 -0.023991268 0.013162476 -0.0920642 -0.031848572 -0.03151143 0.108592235
0.033008292 0.08529632 0.06790206 -0.1466293 -0.04392948 0.039306246 -0.019191658 0.125454
0.16686237 0.08049833 -0.096774615 -0.07774481 0.07477011 -0.034042295 0.075924374 0.07626762
-0.100339785 -0.17467916 -0.033903033 -0.13128 -0.10839958 -0.0917687 0.069030404 0.07411579
0.14091958 0.15103105 0.17331938 0.107937425 0.0010414614 -0.15552771 0.078600265 -0.13464671
-0.1524022 -0.0017620206 -0.068020776 0.011288059 -0.15417439 -0.11751594 0.11440133 0.087842554
-0.062316384 0.0009983113 -0.01746426 -0.11936894 0.13859077 0.07878708 0.15873219 0.015007035
-0.08620778 0.124656454 -0.045993574 -0.12592775 0.0691727 0.0073990934 -0.16896994 0.048008006
0.12684247 0.061656717 -0.11286257 -0.0053648213 -0.11712368 -0.1306591 -0.101050414 0.08028892
-0.16510403 0.057409827 -0.16614084 0.088417105 -0.15105595 -0.1944225 0.104930274 0.07014801
-0.09469792 0.15515319 0.02954764 -0.0014939157 0.010333333 0.13661037 -0.123327926 -0.025550665
0.026109852 0.14978871 0.1109326 -0.039914556 -0.020667028 -0.037382722 0.12084164 -0.040397406
0.016591689 -0.042448115 0.04149504 -0.10678432 0.12746488 -0.021350332 -0.0595336 0.07066869
0.16522883 -0.039928433 -0.055216245 -0.15942314 0.12915109 -0.07842308 0.13472536 -0.012858311
0.10488638 0.09273075 0.06046002 0.16710678 0.16155085 0.031282455 0.19324511 0.1481831
0.085048735 -0.0626548 -0.003619634 0.02736646 -0.025934301 0.051953997 0.10756773 0.04292552
-0.002315095 0.056726243 0.08871268 -0.016525961 0.13883771 0.034527943 -0.12563148 0.038644746
-0.07675876 0.0990769 -0.01805143 -0.075320125 0.061321955 0.019889463 0.0071623605 0.073164724
-0.13738385 0.070273094 -0.14458443 0.099723324 0.06667237 0.08680875 -0.14422403 0.05806127
0.08993406 -0.10060765 0.06268982 0.056080833 -0.098501146 -0.05215992 -0.045710064 -0.0019567201
-0.13611238 0.19211146 0.16398901 0.11652497 -0.10457173 0.077029064 0.15760267 -0.15109763
0.08854858 0.10263081 0.165809 0.105813146 0.17182317 0.044519585 0.080514185 0.102285974
0.04090177 0.16019188 -0.15652746 0.046126734 -0.1700738 -0.028301017 0.06016864 0.11793719
-0.02105033 -0.02016206 -0.07027381 -0.039497495 -0.018806085 -0.12557016 0.1103628 -0.09052854
0.18424483 -0.1168214 -0.044928733 -0.00093531434 0.054216713 0.0038597186 0.07898013 -0.038965635
0.03797414 0.035337284 0.007285977 -0.1668285 0.09872667 0.06388976 -0.08753428 0.060626518
0.15408316 -0.10043147 -0.077289045 0.14543106 0.16744216 -0.17241943 0.08015489 0.06574534
0.025508126 0.18768519 -0.02811577 -0.013162853 0.10106691 -0.050092436 0.03381948 -0.15331756
0.114885695 -0.018333256 -0.13786478 0.16728473 -0.072866194 -0.16629855 -0.057512797 0.06328323
0.1651065 -0.09505274 0.017152717 0.0803524 -0.09195209 0.10873287 -0.13331439 -0.0896241
0.16101849 0.13944945 0.18627097 -0.04286395 0.10606829 0.10137921 0.1824125 0.17528866
00000000: a596 29bb 39c9 0ebe 9601 1c3d 6152 47bd
00000010: cf64 9abd 176b f53d cbca 05be 6000 12be
00000020: 14e0 c53d b184 0c3e 5689 c4bc 6da7 573c
00000030: 288c bcbd a673 02bd 2112 01bd 9b65 de3d
00000040: b433 073d d6af ae3d 3c10 8b3d fe25 16be
00000050: 66ef 33bd 96ff 203d d337 9dbc 0377 003e
00000060: f8dd 2a3e 4fdc a43d c531 c6bd ac38 9fbd
00000070: 1221 993d ef6f 0bbd 3d7e 9b3d 3332 9c3d
00000080: f27e cdbd 18df 32be e8dd 0abd 446e 06be
00000090: 9900 debd 3af1 bbbd d05f 8d3d 05ca 973d
000000a0: 394d 103e e2a7 1a3e a37a 313e 4c0e dd3d
000000b0: a581 883a a842 1fbe 2df9 a03d d4e0 09be
000000c0: 530f 1cbe 9af3 e6ba 7a4e 8bbd 8df1 383c
000000d0: e4df 1dbe 32ac f0bd 3f4b ea3d cce6 b33d
000000e0: 773f 7fbd c5d9 823a 3511 8fbc b477 f4bd
000000f0: bdea 0d3e 1f5b a13d b18a 223e 11e0 753c
00000100: b48d b0bd e24b ff3d c263 3cbd 34f3 00be
00000110: 6baa 8d3d 1874 f23b 7506 2dbe 0ba4 443d
00000120: fee2 013e c18b 7c3d 7e24 e7bd 62cb afbb
00000130: 8ade efbd 80cb 05be 85f3 cebd 846e a43d
00000140: 0811 29be 9126 6b3d d320 2abe 0714 b53d
00000150: 69ae 1abe b116 47be afe5 d63d c3a9 8f3d
00000160: fcf0 c1bd 7ae0 1e3e e40d f23c 7ecf c3ba
00000170: 244d 293c 97e3 0b3e 5a93 fcbd a14f d1bc
00000180: 54e4 d53c 3662 193e a230 e33d 727d 23bd
00000190: e64d a9bc a01e 19bd d27b f73d c077 25bd
000001a0: 4beb 873c 13de 2dbd b4f6 293d bdb1 dabd
000001b0: 2786 023e e4e6 aebc 81d9 73bd bfba 903d
000001c0: bf31 293e ff8b 23bd 6e2a 62bd d23f 23be
000001d0: 2f40 043e 489c a0bd 72f5 093e aaab 52bc
000001e0: acce d63d 9fe9 bd3d eda4 773d 0a1e 2b3e
000001f0: 966d 253e 0822 003d 0ce2 453e 50bd 173e
00000200: 082e ae3d 2951 80bd 6237 6dbb a02f e03c
00000210: 2c74 d4bc b7cd 543d 784c dc3d acd2 2f3d
00000220: d9b8 17bb c759 683d feae b53d 7461 87bc
00000230: 792b 0e3e 2c6d 0d3d 8aa5 00be f449 1e3d
00000240: b233 9dbd d4e8 ca3d 98e0 93bc 7041 9abd
00000250: bb2c 7b3d 3aef a23c 3cb2 ea3b 63d7 953d
00000260: 5aae 0cbe 57eb 8f3d f10d 14be be3b cc3d
00000270: 868b 883d c9c8 b13d 77af 13be a7d1 6d3d
00000280: 592f b83d 620b cebd 8563 803d 04b5 653d
00000290: f8ba c9bd a4a5 55bd 7a3a 3bbd 513c 00bb
000002a0: 0b61 0bbe deb8 443e bcec 273e a5a4 ee3d
000002b0: b429 d6bd 6ac1 9d3d 9862 213e 56b9 1abe
000002c0: f558 b53d 1a30 d23d d6c9 293e 90b4 d83d
000002d0: 6af2 2f3e 2b5a 363d 9fe4 a43d 4f7b d13d
000002e0: 9d88 273d 5709 243e bc48 20be 63ef 3c3d
000002f0: d427 2ebe 89d7 e7bc 6473 763d 0e89 f13d
00000300: be71 acbc e82a a5bc b7eb 8fbd 20c8 21bd
00000310: 380f 9abc 7795 00be e405 e23d 0767 b9bd
00000320: adaa 3c3e 0f40 efbd 3107 38bd e22f 75ba
00000330: 5812 5e3d 55f3 7c3b 56c0 a13d 6e9a 1fbd
00000340: c68a 1b3d d4bd 103d 34bf ee3b 17d5 2abe
00000350: 3531 ca3d a2d8 823d 2c45 b3bd 8353 783d
00000360: fac7 1d3e 04af cdbd b849 9ebd e1eb 143e
00000370: f575 2b3e b88e 30be 3f28 a43d 7ea5 863d
00000380: 6bf6 d03c 8c30 403e 0b53 e6bc 02a9 57bc
00000390: 2bfc ce3d ba2d 4dbd 4c86 0a3d 47ff 1cbe
000003a0: 3149 eb3d a02f 96bc 6d2c 0dbe b04c 2b3e
000003b0: df3a 95bd 2b4a 2abe 8a92 6bbd a39a 813d
000003c0: ae11 293e 03ab c2bd db83 8c3c cd8f a43d
000003d0: 6151 bcbd 57af de3d 9183 08be d78c b7bd
000003e0: 08e2 243e d6cb 0e3e d1bd 3e3e 1c92 2fbd
000003f0: 553a d93d e79f cf3d 58ca 3a3e df7e 333e

convs.0.lin_r.weight f4 [256, 32]
-0.101171665 -0.03575943 0.060465965 -0.17492232 -0.021065021 -0.031485546 0.11262085 0.014579038
0.009839105 -0.025500251 -0.11389234 0.15853725 0.06763212 -0.054411434 0.006907264 -0.112828195
-0.034679428 0.04396934 0.0949039 0.14310057 -0.05762714 -0.070344634 -0.12555727 0.021142766
-0.12647703 0.04497272 0.062336866 0.0029174802 0.13139276 -0.009693338 -0.14299116 0.14733201
-0.0113722775 0.03417547 0.012181411 0.055721257 0.06817245 -0.11697075 -0.10496688 -0.13161132
0.066721275 0.02192225 0.12508522 0.0019700837 0.1405594 0.14283642 -0.1348763 0.11403339
-0.101120695 -0.0905968 0.037462417 0.008363792 0.013787682 -0.06478798 0.135702 0.17010722
0.03719737 -0.002898172 0.06420662 0.08811612 -0.05134861 -0.0020599912 0.15448996 0.005616249
0.10940052 -0.14339109 0.1283755 0.09870139 -0.10542572 0.027866982 -0.08886182 -0.1395323
-0.112736024 -0.12775831 -0.15896039 0.096515 -0.089709535 -0.14579788 0.11000722 -0.11243382
-0.04746632 0.110616654 -0.032124367 -0.06596412 -0.076898076 0.1052775 -0.09988284 -0.14649682
-0.07319476 -0.08415722 -0.15650669 0.16981944 -0.14876196 -0.07270266 -0.10284109 -0.10774742
-0.049230203 -0.14102325 -0.048985224 0.07209421 0.10552946 0.11531054 -0.1257622 0.05281177
-0.11172853 -0.041677054 0.14369982 -0.022368046 0.10249375 -0.14500226 0.04800728 -0.13088198
-0.09751908 0.14838043 -0.08826184 0.09261468 -0.010270318 -0.057242528 0.06337999 0.005067331
-0.0125597045 0.15876313 0.08135784 -0.1271373 0.1149576 -0.089449175 0.11553629 0.10567799
0.027064268 0.047693223 -0.13446984 -0.117763065 -0.06385876 -0.044606864 0.021598833 0.18312459
0.037755173 -0.12982959 0.003567949 0.053085946 0.09813526 -0.15602855 0.096744195 -0.14885728
-0.11091671 0.032777045 -0.04686715 -0.087200046 -0.14773233 0.037258398 -0.040159367 -0.028201926
-0.09012791 -0.029105773 0.08293109 0.03576948 -0.0036482909 -0.03972948 0.123389885 0.0874355
0.024402095 0.05162037 -0.0212259 -0.043263685 -0.13005278 0.008623411 0.08457271 0.04979665
-0.029734466 -0.030174538 0.14963157 -0.14321783 -0.09166438 0.13928492 -0.11393672 0.07070138
0.106800154 0.13314928 -0.10032808 0.06450437 -0.065260716 -0.033365604 -0.104831904 -0.055405006
-0.018607095 -0.11014856 0.11134995 -0.14896064 0.029292297 0.020061275 -0.07015588 0.08899759
0.079779714 -0.16037063 0.1355045 -0.115738735 0.036357936 -0.10321823 -0.04225076 0.12340748
-0.0016469107 0.13295718 0.12475988 0.113322735 0.15068354 -0.12904035 0.115035444 -0.1247918
0.14762324 -0.0641033 -0.02607632 -0.12845667 0.1514763 -0.02681396 0.014743841 -0.14416035
-0.16392277 0.095007315 0.042277046 -0.027187435 0.105447896 -0.15106235 0.109261215 0.11445261
0.039735913 -0.07378651 0.08834281 0.16131437 0.07007238 -0.036662787 -0.16415945 0.07958794
-0.15006784 0.13316137 -0.07153537 0.121215366 0.14452288 0.12435307 -0.12078401 0.12065913
-0.12761194 -0.069204964 0.105654515 0.10728875 0.15176512 0.10610734 -0.061958402 -0.12899941
0.012008633 0.15783708 -0.02882682 0.1454155 0.036837105 0.12843508 0.07310109 -0.03426893
00000000: 1733 cfbd 7b78 12bd 29ab 773d d61e 33be
00000010: 8d90 acbc fdf6 00bd c3a5 e63d ebdc 6e3c
00000020: 3334 213c e7e5 d0bc 6340 e9bd 9757 223e
00000030: b582 8a3d 86de 5ebd 5456 e23b 7812 e7bd
00000040: 040c 0ebd 3219 343d fa5c c23d f588 123e
00000050: 700a 6cbd d910 90bd 1692 00be 9833 ad3c
00000060: 3283 01be 5135 383d f154 7f3d 3233 3f3b
00000070: d38b 063e ced0 1ebc 466c 12be 34de 163e
00000080: ca52 3abc 94fb 0b3d 8a94 473c f93b 643d
00000090: ff9d 8b3d 5c8e efbd e0f8 d6bd 1ec5 06be
000000a0: 2aa5 883d 4a96 b33c 5716 003e 851c 013b
000000b0: ceee 0f3e b643 123e 031d 0abe 578a e93d
000000c0: 5e18 cfbd d18a b9bd 3172 193d 4908 093c
000000d0: bbe5 613c 8faf 84bd 77f5 0a3e 9630 2e3e
000000e0: 455c 183d 42ef 3dbb c37e 833d 3976 b43d
000000f0: ec52 52bd eb00 07bb 9e32 1e3e 8308 b83b
00000100: 610d e03d 1dd5 12be de74 033e f423 ca3d
00000110: 71e9 d7bd 4c49 e43c 30fd b5bd 8ee1 0ebe
00000120: 25e2 e6bd 13d3 02be 83c6 22be a8a9 c53d
00000130: a2b9 b7bd 0a4c 15be 774b e13d b443 e6bd
00000140: 0b6c 42bd fc8a e23d d794 03bd 3218 87bd
00000150: bd7c 9dbd bb9b d73d 608f ccbd 4303 16be
00000160: 22e7 95bd 9f5a acbd 4a43 20be 26e5 2d3e
00000170: 0e55 18be 22e5 94bd 599e d2bd aeaa dcbd
00000180: 9ca5 49bd 6668 10be bba4 48bd 21a6 933d
00000190: d41f d83d ef27 ec3d cec7 00be 2851 583d
000001a0: edd1 e4bd 8fb5 2abd 0c26 133e 313d b7bc
000001b0: 3ee8 d13d 797b 14be 48a3 443d ed05 06be
000001c0: 15b8 c7bd 0af1 173e a0c2 b4bd c4ac bd3d
000001d0: d644 28bc 2477 6abd 5ecd 813d da0b a63b
000001e0: 38c7 4dbc cd92 223e f09e a63d 4830 02be
000001f0: e46e eb3d 2131 b7bd 4a9e ec3d b46d d83d
00000200: e2b5 dd3c f859 433d 76b2 09be c32d f1bd
00000210: 62c8 82bd b0b5 36bd 09f0 b03c 0385 3b3e
00000220: 2ba5 1a3d 0cf2 04be 40d4 693b a670 593d
00000230: 24fb c83d f3c5 1fbe d221 c63d 0b6e 18be
00000240: 4d28 e3bd 3941 063d c5f7 3fbd f095 b2bd
00000250: 2547 17be 439c 183d 267e 24bd ba07 e7bc
00000260: fb94 b8bd 3b6f eebc c6d7 a93d 0583 123d
00000270: 2a18 6fbb 61bb 22bd d6b3 fc3d 6211 b33d
00000280: e7e6 c73c e26f 533d f0e1 adbc 4335 31bd
00000290: 8e2c 05be 3549 0d3c 7534 ad3d 92f7 4b3d
000002a0: b295 f3bc 9830 f7bc 0539 193e b2a7 12be
000002b0: 89ba bbbd b5a0 0e3e a857 e9bd e3cb 903d
000002c0: 0aba da3d 4958 083e cf78 cdbd de1a 843d
000002d0: 69a7 85bd 5faa 08bd 1cb2 d6bd 5cf0 62bd
000002e0: e86d 98bc 9195 e1bd 710b e43d 2389 18be
000002f0: 66f6 ef3c 8b57 a43c e3ad 8fbd 5e44 b63d
00000300: 8c63 a33d 3338 24be b1c1 0a3e 6e08 edbd
00000310: 0fec 143d 1464 d3bd 220f 2dbd 10bd fc3d
00000320: 27dd d7ba ed25 083e 1c82 ff3d c015 e83d
00000330: c94c 1a3e 2723 04be b497 eb3d d892 ffbd
00000340: 8c2a 173e 9748 83bd 029e d5bc 258a 03be
00000350: 9a1c 1b3e f3a8 dbbc 2790 713c c59e 13be
00000360: 5fdb 27be 3293 c23d b22a 2d3d 2fb8 debc
00000370: 11f5 d73d 17b0 1abe 58c4 df3d 2166 ea3d
00000380: 20c2 223d 621d 97bd 13ed b43d 982f 253e
00000390: 1c82 8f3d b82b 16bd 6a19 28be 00ff a23d
000003a0: 62ab 19be 745b 083e 2381 92bd c33f f83d
000003b0: cefd 133e d3ac fe3d 9b5d f7bd 221c f73d
000003c0: b4ac 02be 55bb 8dbd 6561 d83d 34ba db3d
000003d0: 5168 1b3e ce4e d93d 18c8 7dbd 6c18 04be
000003e0: dcbf 443c 0ba0 213e 3926 ecbc cde7 143e
000003f0: 81e2 163d 7c84 033e 06b6 953d 945d 0cbd

convs.1.lin_l.weight f4 [64, 256]
0.034906488 -0.03077788 -0.0091881575 -0.022831224 0.01939419 -0.009015981 -0.05002414 -0.03224785
-0.026763992 0.0025537154 -0.0036083653 0.036413126 0.02318498 0.054454822 0.037573606 -0.0020129178
-0.0039576706 -0.03712714 0.031275444 -0.03977215 0.007898769 -0.014952158 -0.051017758 -0.020819912
-0.06548953 0.03577838 0.054101057 -0.029720204 -0.051665667 -0.050171874 0.038436837 -0.069771215
-0.007270323 -0.07434859 0.022070494 -0.03554406 -0.027802251 -0.05353418 -0.048957296 -0.0234609
0.0108107 -0.011288846 -0.009729182 -0.03857092 0.00015661794 0.01840454 0.047381982 0.07869391
0.015156217 -0.044706386 -0.05248372 0.042593252 -0.054657515 0.05621242 0.008823728 0.037325397
-0.020297315 0.014023871 -0.047123753 -0.010561552 0.06456127 0.0027654932 0.04946843 -0.0019201605
-0.042856134 0.05493964 -0.048092518 -0.03399712 0.009889555 0.058215845 -0.0034420153 -0.044293378
0.004079787 -0.007857 0.04415876 -0.019469306 -0.0490058 0.0065358933 0.018326113 0.038488843
-0.0027508375 -0.03945768 0.035404336 -0.059356026 0.06516958 0.029172381 0.0014537058 -0.003201732
-0.050306994 0.037161443 0.019207282 0.039989963 -0.0063001276 -0.024144106 -0.03148471 0.04977946
-0.027134553 -0.051151674 0.05090052 -0.009763293 0.032119133 -0.0021088275 0.03033542 0.015636712
-0.07775674 -0.03788336 -0.03375137 -0.08062051 0.0065291557 -0.04031929 -0.014377215 0.001296549
0.00500777 0.0023398644 0.056773525 0.03004067 -0.050579753 -0.0028925063 -0.040925972 -0.003417734
0.031492464 0.032356746 -0.055729207 0.036772996 0.019829363 -0.010842995 -0.008644244 -0.041825194
-0.02660777 -0.017298652 -0.010603485 0.017670518 -0.031455234 -0.0057811355 0.024826057 0.028540758
-0.001735712 0.067908056 0.002007997 0.005523353 -0.006131097 -0.02699204 -0.01860463 0.03848979
-0.055612836 0.016804926 0.031392377 0.012025848 0.051973067 0.06585112 0.05391455 0.036780335
0.054599915 -0.058976974 -0.020843163 0.016121298 0.05592412 -0.04554226 0.04311216 0.048296582
-0.06142481 0.043031 0.005328229 -0.049763698 0.04743946 0.001483631 -0.05624575 0.03666311
0.026185934 -0.009660057 0.049419347 -0.02560456 0.02727631 -0.008768696 0.004075797 0.044403505
0.028026154 0.015705008 -0.0341583 -0.054142576 -0.050958294 -0.0014853104 0.063693605 -0.05127107
0.033146966 0.059015434 -0.065207355 -0.060057897 0.044054575 -0.013505824 0.013192801 -0.02299393
0.053453024 -0.05551385 0.06348218 0.045754462 -0.0014593949 0.0044833347 0.053749263 -0.028068835
0.06644308 -0.05637921 -0.044292122 0.049398884 0.044099927 0.040914357 0.010997774 -0.016920485
0.05336663 -0.020306092 -0.019749735 0.060846344 0.0014641604 0.04148195 0.016972935 0.053799458
-0.024665017 0.049995363 -0.02581576 0.008981795 0.01993749 0.055724535 -0.050968964 0.004996204
0.061849657 0.028402993 0.029793909 0.053383004 0.022647467 0.06679065 -0.046315208 -0.029899059
0.02338452 -0.053507112 0.019397937 0.0016996767 0.04368893 0.013220165 -0.03780488 -0.0423631
0.06562968 -0.021561515 0.051295184 -0.010983266 0.038472038 -0.011754447 -0.009588779 0.024085436
-0.020229433 0.012144344 -0.0085484255 -0.013675938 -0.05584168 -0.008481779 0.008782561 -0.015828481
00000000: 1bfa 0e3d e521 fcbc ed89 16bc 8c08 bbbc
00000010: 90e0 9e3c c4b7 13bc 1de6 4cbd 5216 04bd
00000020: 2940 dbbc 3c5c 273b 537a 6cbb ee25 153d
00000030: 6dee bd3c 050c 5f3d c8e6 193d 28eb 03bb
00000040: 59af 81bb a112 18bd ae1a 003d 1fe8 22bd
00000050: d769 013c e5f9 74bc fff7 50bd 858e aabc
00000060: 601f 86bd 5a8c 123d 1299 5d3d c977 f3bc
00000070: 619f 53bd 0681 4dbd f26f 1d3d 36e4 8ebd
00000080: e43b eebb 1344 98bd 2ecd b43c a696 11bd
00000090: 8cc1 e3bc a846 5bbd 7287 48bd 1331 c0bc
000000a0: 5d1f 313c daf4 38bc 2667 1fbc 8afc 1dbd
000000b0: cf39 2439 1ec5 963c 9c13 423d 462a a13d
000000c0: c851 783c 0b1e 37bd 2bf9 56bd 4376 2e3d
000000d0: 8fe0 5fbd ff3e 663d 6691 103c 84e2 183d
000000e0: 8e46 a6bc 61c4 653c d604 41bd 5c0a 2dbc
000000f0: b338 843d 473d 353b 699f 4a3d e5ad fbba
00000100: ea89 2fbd 6308 613d a9fc 44bd 9040 0bbd
00000110: cd07 223c bd73 6e3d 6f93 61bb f96c 35bd
00000120: bcaf 853b a6ba 00bc d1df 343d 187e 9fbc
00000130: 4eba 48bd 0c2b d63b a520 963c 7aa6 1d3d
00000140: 6547 34bb 609e 21bd 2304 113d 4e1f 73bd
00000150: a177 853d ebfa ee3c 468a be3a 26d4 51bb
00000160: b50e 4ebd 9936 183d 9758 9d3c 84cc 233d
00000170: 4d71 cebb dcc9 c5bc 1cf6 00bd 8ce5 4b3d
00000180: 4849 debc 6b84 51bd 107d 503d 38f6 1fbc
00000190: 5a8f 033d 4134 0abb fd81 f83c 9018 803c
000001a0: ed3e 9fbd 952b 1bbd e03e 0abd 5e1c a5bd
000001b0: 87f2 d53b d725 25bd 698e 6bbc f7f0 a93a
000001c0: 3818 a43b 6958 193b 5b8b 683d da17 f63c
000001d0: b72c 4fbd 3490 3dbb fea1 27bd 10fc 5fbb
000001e0: 3efe 003d 8288 043d 4f44 64bd 489f 163d
000001f0: 3071 a23c d1a6 31bc 96a0 0dbc e550 2bbd
00000200: 8af8 d9bc e7b5 8dbc 3dba 2dbc c3c1 903c
00000210: 34d7 00bd ae6f bdbb 0460 cb3c 4fce e93c
00000220: d580 e3ba 6113 8b3d 9998 033b 3efd b43b
00000230: 5fe7 c8bb 691e ddbc bd68 98bc 78a7 1d3d
00000240: 49ca 63bd 7caa 893c 4b95 003d 1008 453c
00000250: b6e1 543d f4dc 863d 81d5 5c3d faa6 163d
00000260: 29a4 5f3d d791 71bd 48bf aabc d010 843c
00000270: b110 653d 858a 3abd 6096 303d a3d2 453d
00000280: 9598 7bbd 4641 303d 6d98 ae3b 05d5 4bbd
00000290: e14f 423d 6576 c23a f261 66bd 0f2c 163d
000002a0: e283 d63c 3745 1ebc f16b 4a3d a7c0 d1bc
000002b0: 9172 df3c 94aa 0fbc 438e 853b 73e0 353d
000002c0: 1b97 e53c caa7 803c 93e9 0bbd 9bc4 5dbd
000002d0: a5b9 50bd bfae c2ba cb71 823d 9d01 52bd
000002e0: 1dc5 073d 2bba 713d 6f8b 85bd 45ff 75bd
000002f0: 9272 343d 8847 5dbc 9e26 583c c45d bcbc
00000300: 8ff1 5a3d 7e62 63bd f202 823d 0869 3b3d
00000310: 2b49 bfba f0e8 923b 3028 5c3d 9df0 e5bc
00000320: 4f13 883d e3ed 66bd a86b 35bd 7c56 4a3d
00000330: 20a2 343d d095 273d 0230 343c d49c 8abc
00000340: f896 5a3d f658 a6bc 32ca a1bc 043a 793d
00000350: 12e9 bf3a fae8 293d d30a 8b3c d25c 5c3d
00000360: 4a0e cabc f0c7 4c3d 937b d3bc 6128 133c
00000370: f253 a33c 693f 643d d5c4 50bd 32b7 a33b
00000380: 1156 7d3d 65ad e83c 5b12 f43c 23a8 5a3d
00000390: 2e87 b93c 89c9 883d 04b5 3dbd dfee f4bc
000003a0: e590 bf3c 462a 5bbd 6ce8 9e3c b0c7 de3a
000003b0: 2af3 323d 6499 583c 4ad9 1abd ee84 2dbd
000003c0: db68 863d c6a1 b0bc e61a 523d 28f3 33bc
000003d0: db94 1d3d b995 40bc 411a 1dbc d24e c53c
000003e0: 32b8 a5bc 12f9 463c b20e 0cbc 0b11 60bc
000003f0: 3fba 64bd 29f7 0abc bbe4 0f3c bbaa 81bc

convs.1.lin_l.bias f4 [64]
-0.01354165 -0.094498605 0.030158961 -0.008985054 0.0043688496 0.026395952 -0.016270587 0.0086638285
0.055138826 0.015523411 0.05922122 -0.044433486 0.038795806 -0.0023531616 -0.043337025 -0.043760978
-0.099100485 0.08909031 0.05851904 0.0619846 -0.076212965 -0.03494202 -0.013275936 -0.010211367
0.10887567 -0.030643605 0.063009866 0.013401837 -0.02127925 0.0016115092 0.07677314 -0.0048883185
-0.022634909 -0.017380262 -0.0731948 -0.02699289 -0.0019819345 0.0019413601 -0.013788494 -0.017860956
0.059540257 -0.014999745 -0.056579202 0.04395115 0.016793426 0.031842507 0.035847005 -0.09018708
0.04886122 -0.051383566 0.030427177 -0.012731816 0.06101364 0.03512696 0.009919344 0.071340546
0.010876257 0.026031211 -0.009265896 -0.013691895 -0.008680072 0.015512729 0.032198668 -0.012625685
00000000: ccdd 5dbc 7c88 c1bd ed0f f73c 0c36 13bc
00000010: 9128 8f3b 533c d83c e549 85bc bbf2 0d3c
00000020: 40d9 613d e855 7e3c f391 723d e3ff 35bd
00000030: 5ae8 1e3d 8037 1abb 2a82 31bd b63e 33bd
00000040: 32f5 cabd fb74 b63d a9b1 6f3d 90e3 7d3d
00000050: 8b15 9cbd 5d1f 0fbd 5083 59bc 944d 27bc
00000060: 35fa de3d 4c08 fbbc 510b 813d 6193 5b3c
00000070: d251 aebc 4739 d33a 3c3b 9d3d 302e a0bb
00000080: d86c b9bc 0d61 8ebc 28e7 95bd 3120 ddbc
00000090: 58e3 01bb 3c75 fe3a 23e9 61bc 2451 92bc
000000a0: 7ce0 733d 7ec1 75bc 98bf 67bd 1f06 343d
000000b0: 5e92 893c 4a6d 023d 4fd4 123d 01b4 b8bd
000000c0: b422 483d 9377 52bd 6a42 f93c 1b99 50bc
000000d0: 70e9 793d 4ae1 0f3d bf84 223c fe1a 923d
000000e0: 5432 323c 683f d53c fccf 17bc f853 60bc
000000f0: dc36 0ebc 1a29 7e3c c0e2 033d f6db 4ebc

convs.1.lin_r.weight f4 [64, 256]
0.05422014 -0.009337326 -0.01807099 -0.009677904 -0.019143932 0.03527855 0.013773067 0.034804452
0.019192431 -0.0031752363 -0.055578947 0.054103896 0.03903791 0.040217422 0.049123924 -0.029079013
0.02525969 -0.050160885 -0.075140506 -0.065032385 -0.063369706 0.028304195 0.05039478 -0.0009221538
-0.021108795 0.035473827 0.04211939 -0.042027768 -0.031533577 0.027962107 0.0155099565 0.007566449
0.017458905 -0.08645693 0.04523841 0.004160408 0.0051756958 -0.039949168 0.00087723933 0.019232089
-0.035964843 0.031924713 -0.016831718 -0.013740532 -0.007917454 0.02352489 -0.05933278 0.036991987
0.022805681 -0.0024695906 -0.07401713 0.018281225 0.0007383362 0.08825354 0.0015813605 -0.0022132762
0.020555206 0.0010698341 -0.024204692 0.058489602 -0.014886849 -0.03981288 0.0010421611 -0.07654682
-0.0068281405 -0.04088095 0.00035131906 -0.024021864 -0.010488243 0.007576804 -0.01925482 -0.0022393141
0.04556241 -0.056825295 0.025876794 0.017036784 0.034300666 -0.02132244 0.058285832 -0.0471536
-0.026185675 0.010009715 0.059733503 0.043691035 0.0111878915 0.053654484 0.05865727 0.04292456
0.015214007 -0.005566048 -2.7105345e-05 -0.030123258 0.023435004 -0.020354684 0.05584495 0.027436413
-0.0368155 0.003039636 -0.022352621 0.04249788 0.054851484 -0.034957517 0.010209085 0.020697614
-0.023179103 0.00833084 -0.07189818 0.012727803 0.056193035 -0.002788178 -0.048173428 -0.00081219216
-0.008591603 0.018210454 0.009254961 -0.005651345 0.013125944 0.03724678 -0.06632815 0.019745898
0.0016479432 -0.05550692 -0.0060630757 0.037722144 -0.0477786 -0.04170365 -0.010180417 -0.038026016
-0.047934055 -0.055082805 0.019425543 0.038832787 0.038214438 0.05662407 -0.044993173 0.04292573
-0.013836625 0.01902611 0.01793621 0.03430346 0.057957612 0.041530028 -0.0765743 0.03243399
-0.02890591 0.014496729 -0.0020535465 0.05388743 0.06411827 -0.010374374 0.01633137 -0.012766231
-0.029986298 -0.049105685 0.06304231 -0.0215821 0.0428753 0.041951668 -0.009692717 0.058141664
0.012673716 0.035211693 0.0345366 -0.0006551347 -0.014644355 -0.0059758406 0.011453776 -0.006155805
0.02618547 0.002895211 0.002530061 -0.0035283607 -0.01613707 0.05043446 -0.020037016 -0.05092101
-0.042136423 0.027130924 0.06277153 0.008180838 0.017931039 0.024155172 0.014580946 -0.06308335
-0.027794288 0.011447853 0.0058198264 -0.08181816 0.026528183 -0.01245297 0.019958388 0.010439136
0.044216983 -0.011280796 0.048454843 -0.022601863 0.051272813 0.00903081 -0.022998909 -0.03726169
0.024445644 0.008708532 0.036404762 -0.041682832 0.0028852127 0.06084207 0.040570606 -0.030606965
-0.026656268 -0.012435008 -0.046094302 0.05018316 0.05079151 0.02836015 -0.048878122 0.048960075
0.013019618 -0.031307455 -0.046774026 -0.0014084773 -0.009970551 0.057100564 0.027358234 -0.03950696
0.03263535 0.010030488 0.03802579 0.054051496 0.047673278 0.041926518 0.0116161425 0.03963568
0.044654258 -0.028900154 0.032995343 0.0026355516 0.004241635 0.034440044 -0.015685229 -0.05430553
0.0767005 -0.016096162 -0.042028964 -0.0047225053 0.036067404 -0.016753763 0.020655377 -0.037399463
0.04406731 -0.025819235 0.01440611 -0.04294055 -0.051754475 -0.058289617 0.07924737 0.060243744
00000000: f015 5e3d 95fb 18bc 9d09 94bc 1290 1ebc
00000010: bcd3 9cbc 3e80 103d 6ea8 613c 1d8f 0e3d
00000020: 7239 9d3c a017 50bb c0a6 63bd 0c9c 5d3d
00000030: 37e6 1f3d 06bb 243d 2b36 493d 1c37 eebc
00000040: 69ed ce3c 8075 4dbd 44e3 99bd b32f 85bd
00000050: fac7 81bd 33de e73c c26a 4e3d b2bc 71ba
00000060: 5aec acbc 014d 113d 6285 2c3d 4f25 2cbd
00000070: 5a29 01bd ca10 e53c 791d 7e3c faef f73b
00000080: fa05 8f3c 5510 b1bd e94b 393d 0854 883b
00000090: e298 a93b bda1 23bd 89f6 653a 9d8c 9d3c
000000a0: df4f 13bd 7dc3 023d ace2 89bc f81f 61bc
000000b0: 35b8 01bc 45b7 c03c ee06 73bd e984 173d
000000c0: fbd2 ba3c dbd8 21bb 4b96 97bd 82c2 953c
000000d0: e78c 413a 46be b43d a745 cf3a 9d0c 11bb
000000e0: 6463 a83c ad39 8c3a eb48 c6bc cb92 6f3d
000000f0: f8e7 73bc d512 23bd 2099 883a 94c4 9cbd
00000100: 98be dfbb c872 27bd 3f31 b839 80c9 c4bc
00000110: e1d6 2bbc d746 f83b 49bc 9dbc 75c1 12bb
00000120: a69f 3a3d a4c1 68bd 92fb d33c ba90 8b3c
00000130: db7e 0c3d 66ac aebc 20bd 6e3d 2224 41bd
00000140: 5783 d6bc caff 233c 1eab 743d 5ff5 323d
00000150: 6b4d 373c cec4 5b3d 9b42 703d aad1 2f3d
00000160: 2c44 793c 6563 b6bb 4960 e3b7 0dc5 f6bc
00000170: c4fa bf3c debe a6bc adbd 643d 54c2 e03c
00000180: dacb 16bd a134 473b d81c b7bc 4212 2e3d
00000190: f3ab 603d 9d2f 0fbd 0244 273c 0b8e a93c
000001a0: 1ae2 bdbc 137e 083c 5a3f 93bd 4688 503c
000001b0: ab2a 663d ddb9 36bb 8051 45bd 4be9 54ba
000001c0: cbc3 0cbc 172e 953c 1fa2 173c eb2e b9bb
000001d0: 330e 573c 1490 183d 0ed7 87bd 26c2 a13c
000001e0: ccff d73a 395b 63bd c4ac c6bb 8982 1a3d
000001f0: 7eb3 43bd 72d1 2abd c4cb 26bc 2bc1 1bbd
00000200: 8056 44bd 829e 61bd 5122 9f3c 210f 1f3d
00000210: be86 1c3d a4ee 673d c34a 38bd e4d2 2f3d
00000220: 03b3 62bc a5dc 9b3c f5ee 923c c981 0c3d
00000230: f664 6d3d 641b 2a3d fdd2 9cbd 81d9 043d
00000240: 16cc ecbc b083 6d3c cb94 06bb 11b9 5c3d
00000250: 7150 833d 47f9 29bc 5ec9 853c 7429 51bc
00000260: d3a5 f5bc 0b23 49bd 541c 813d f2cc b0bc
00000270: 039e 2f3d 83d5 2b3d 34ce 1ebc f425 6e3d
00000280: 6ba5 4f3c 233a 103d 4076 0d3d 58bd 2bba
00000290: e0ee 6fbc fcd0 c3bb 9ea8 3b3c a3b6 c9bb
000002a0: e982 d63c 95bd 3d3b 61cf 253b 123c 67bb
000002b0: e331 84bc 5d94 4e3d ab24 a4bc 8d92 50bd
000002c0: 3e97 2cbd ac41 de3c 5c8e 803d ec08 063c
000002d0: 1de4 923c 11e1 c53c ece4 6e3c d831 81bd
000002e0: d9b0 e3bc c78f 3b3c 3eb4 be3b 4890 a7bd
000002f0: a251 d93c 8b07 4cbc c67f a33c e908 2b3c
00000300: de1c 353d 16d3 38bc 9678 463d 8b27 b9bc
00000310: 7103 523d f6f5 133c 3568 bcbc b79f 18bd
00000320: 3b42 c83c 3bae 0e3c 291d 153d 9ebb 2abd
00000330: d615 3d3b 8935 793d 5d2d 263d 75bb fabc
00000340: 3f5e dabc 34bc 4bbc 61cd 3cbd db8c 4d3d
00000350: c20a 503d 8c53 e83c 6d34 48bd 5c8a 483d
00000360: 3c50 553c 3f3c 00bd 1f96 3fbd a89c b8ba
00000370: 865b 23bc 48e2 693d 601e e03c 0dd2 21bd
00000380: a5ac 053d ea56 243c eec0 1b3d 1a65 5d3d
00000390: 0e45 433d 24bb 2b3d a251 3e3c 0659 223d
000003a0: 62e7 363d 04c0 ecbc 2026 073d 38b9 2c3b
000003b0: 6afd 8a3b 0111 0d3d 4f7e 80bc 7a6f 5ebd
000003c0: 2715 9d3d 19dc 83bc 9026 2cbd 3fbf 9abb
000003d0: 6abb 133d 303f 89bc 7735 a93c 2e30 19bd
000003e0: ec7f 343d dc82 d3bc 9b07 6c3c 6ee2 2fbd
000003f0: 80fc 53bd 18c1 6ebd 724c a23d 25c2 763d

bns.0.weight f4 [256]
0.95278525 0.94453096 0.9649319 0.94131434 0.9465373 0.94777036 0.9535024 0.955438
0.9594555 0.9554626 0.9578643 0.9367571 0.9463785 0.95375043 0.9571037 0.93108803
0.9526626 0.95879936 0.93396354 0.93815416 0.90317327 0.951885 0.94299406 0.9497005
0.95865417 0.9670144 0.9575266 0.9543135 0.9290719 0.96120155 0.9828959 0.96286565
0.9560983 0.9426492 0.9637888 0.9479739 0.9493552 0.9616768 0.9491657 0.9477407
0.9683297 0.96821433 0.9517863 0.9496871 0.95384455 0.94640243 0.9394548 0.9648158
0.98676884 0.946778 0.95523703 0.9553252 0.9468883 0.9472696 0.95577884 0.95468384
0.9425554 0.960024 0.9522424 0.9664267 0.96414727 0.952298 0.9716777 0.9450524
0.9517174 0.95959634 0.951098 0.95177853 0.94053334 0.97032416 0.94219965 0.95367295
0.9426076 0.94851655 0.9661549 0.95680565 0.95176065 0.9511594 0.95415205 0.9521917
0.94753176 0.95105165 0.9575638 0.95174736 0.9562514 0.94423807 0.9674573 0.96242934
0.9425443 0.9562895 0.9605886 0.9591773 0.95591456 0.9665771 0.95654625 0.961903
0.9496209 0.94890726 0.9427477 0.9520602 0.9489147 0.9586249 0.9643185 0.945736
0.9377607 0.95366687 0.9314132 0.97470886 0.9542205 0.95767087 0.9089144 0.9580355
0.95181334 0.9631613 0.94644165 0.9564374 0.95089066 0.9620381 0.94141215 0.9514817
0.9478092 0.96502006 0.94211286 0.9574083 0.9534244 0.9560082 0.93549925 0.94308656
0.95396376 0.95802623 0.94292325 0.94940645 0.95843494 0.959142 0.9558185 0.9740432
0.93957955 0.9612753 0.94094527 0.9566571 0.9412022 0.9577468 0.94942176 0.95095116
0.9309323 0.939865 0.9426748 0.9359974 0.9470128 0.95054364 0.9597852 0.9456875
0.9553347 0.9531259 0.9471506 0.9615776 0.96432596 0.92582554 0.9697273 0.94218487
0.9633 0.9519446 0.96567625 0.9584045 0.94994384 0.9627488 0.9300225 0.9513494
0.9606551 0.94581246 0.94997144 0.9518587 0.94116646 0.94370127 0.94466096 0.94610965
0.9578608 0.95381063 0.9690896 0.9466048 0.9653548 0.9351415 0.9625127 0.955684
0.94133055 0.9448705 0.9498237 0.9647246 0.9565174 0.95358515 0.94386375 0.9424384
0.95946306 0.95037043 0.8517859 0.9430243 0.957354 0.9559439 0.9485254 0.96467054
0.9609027 0.9392418 0.96028113 0.9600523 0.95062023 0.94687396 0.94997436 0.9557529
0.9661827 0.9671586 0.96966654 0.95936227 0.9546004 0.96627975 0.9706663 0.95703834
0.95967716 0.94744784 0.94960546 0.95567423 0.96727365 0.94985044 0.9366805 0.95712835
0.95846957 0.95905775 0.9542715 0.94244456 0.9600873 0.95463496 0.9470975 0.9475313
0.9558561 0.94658226 0.9501256 0.9668218 0.9521926 0.9436329 0.94896895 0.9615095
0.95897716 0.95313716 0.9778066 0.9477607 0.9575612 0.9584304 0.94394743 0.94517744
0.9563585 0.9630175 0.96087855 0.9164954 0.9475574 0.96190655 0.9628621 0.94647014
00000000: bce9 733f c8cc 713f c705 773f faf9 703f
00000010: 4550 723f 14a1 723f bc18 743f 9697 743f
00000020: e09e 753f 3299 743f 9836 753f 50cf 6f3f
00000030: dd45 723f fd28 743f c004 753f c95b 6e3f
00000040: b2e1 733f e073 753f 3c18 6f3f df2a 703f
00000050: 5d36 673f bcae 733f 0f68 713f 921f 733f
00000060: 5c6a 753f 418e 773f 7720 753f e44d 743f
00000070: a8d7 6d3f 4e11 763f 119f 7b3f 5d7e 763f
00000080: dcc2 743f 7551 713f ddba 763f 6bae 723f
00000090: f108 733f 7330 763f 86fc 723f 229f 723f
000000a0: 75e4 773f e5dc 773f 44a8 733f b21e 733f
000000b0: 282f 743f 6e47 723f 1c80 703f 2bfe 763f
000000c0: e29c 7c3f 0b60 723f 6a8a 743f 3190 743f
000000d0: 4667 723f 4380 723f ecad 743f 2966 743f
000000e0: 504b 713f 22c4 753f 28c6 733f bd67 773f
000000f0: 5bd2 763f cdc9 733f dfbf 783f f4ee 713f
00000100: c0a3 733f 1ba8 753f 297b 733f c2a7 733f
00000110: cbc6 703f 2a67 783f ff33 713f e923 743f
00000120: bb4e 713f fbd1 723f ed55 773f 37f1 743f
00000130: 96a6 733f 2f7f 733f 4f43 743f d6c2 733f
00000140: 7191 723f 1f78 733f e722 753f b7a5 733f
00000150: e4cc 743f 96b9 713f 48ab 773f c561 763f
00000160: 954a 713f 64cf 743f 22e9 753f a58c 753f
00000170: d1b6 743f 9971 773f 37e0 743f 463f 763f
00000180: 5b1a 733f 96eb 723f ea57 713f 38ba 733f
00000190: 13ec 723f 7168 753f 94dd 763f c11b 723f
000001a0: 1611 703f 8323 743f 1871 6e3f 8586 793f
000001b0: cb47 743f eb29 753f 9dae 683f d141 753f
000001c0: 0aaa 733f bd91 763f 004a 723f 15d9 743f
000001d0: 926d 733f 2148 763f 6300 713f 4e94 733f
000001e0: a0a3 723f 8e0b 773f 4f2e 713f b618 753f
000001f0: 9f13 743f f4bc 743f e17c 6f3f 1f6e 713f
00000200: f836 743f 3541 753f 6b63 713f 4d0c 733f
00000210: fe5b 753f 558a 753f 85b0 743f e55a 793f
00000220: 4988 703f 2316 763f cae1 703f 7be7 743f
00000230: a1f2 703f e52e 753f 4e0d 733f 8971 733f
00000240: 9451 6e3f fe9a 703f 2353 713f 879d 6f3f
00000250: 6e6f 723f d456 733f 7cb4 753f 9318 723f
00000260: d190 743f 0f00 743f 7678 723f f329 763f
00000270: 11de 763f e702 6d3f 0c40 783f 0733 713f
00000280: d49a 763f a4b2 733f 8f36 773f ff59 753f
00000290: 852f 733f b576 763f f415 6e3f a28b 733f
000002a0: 7eed 753f c420 723f 5431 733f 03ad 733f
000002b0: 49f0 703f 6896 713f 4dd5 713f 3e34 723f
000002c0: 5e36 753f ef2c 743f 4216 783f b154 723f
000002d0: 7e21 773f 6f65 6f3f 3b67 763f b5a7 743f
000002e0: 0afb 703f 08e3 713f a527 733f 31f8 763f
000002f0: 53de 743f 281e 743f 0ea1 713f a543 713f
00000300: 5f9f 753f 7a4b 733f a40e 5a3f 0a6a 713f
00000310: 2715 753f bdb8 743f 90d2 723f a6f4 763f
00000320: b8fd 753f 2772 703f fcd4 753f fdc5 753f
00000330: d95b 733f 5566 723f 8531 733f 39ac 743f
00000340: c057 773f b597 773f 113c 783f c498 753f
00000350: b160 743f 1c5e 773f 967d 783f 7700 753f
00000360: 67ad 753f f18b 723f 5819 733f 11a7 743f
00000370: 3f9f 773f 6629 733f 4bca 6f3f 5d06 753f
00000380: 435e 753f cf84 753f 234b 743f 0c44 713f
00000390: 48c8 753f f562 743f fb74 723f 6991 723f
000003a0: fcb2 743f 3753 723f 6e3b 733f a281 773f
000003b0: e5c2 733f ed91 713f a1ef 723f 7d25 763f
000003c0: 877f 753f cc00 743f 8951 7a3f 72a0 723f
000003d0: bb22 753f b25b 753f 8aa6 713f 26f7 713f
000003e0: e9d3 743f 5188 763f 23fc 753f 719f 6a3f
000003f0: 1f93 723f 823f 763f 217e 763f de4b 723f

bns.0.bias f4 [256]
-0.0008207971 -0.0092655625 -0.00011111799 -0.0075429673 -0.0029169368 -0.023055943 -0.009571093 -0.0061637075
0.010645733 -0.013536515 -0.004621269 -0.018837333 -0.009919507 -0.007934426 -0.00777146 -0.026381625
-0.010344013 0.012558775 -0.025894027 0.0077677197 -0.020753711 0.0095603075 -0.016891642 0.0012348193
0.0051457235 0.004933785 0.0050727585 0.0038530182 -0.009336417 -0.0021150326 0.023944383 0.003900536
0.0032019028 -0.020805975 0.0041416124 -0.008725804 -0.009901778 0.010269851 -0.0007710391 -0.009704428
0.008527016 0.015429352 0.0038502747 0.0025812231 -0.0053340183 -0.009149217 -0.011195702 0.0040806346
0.017656825 -0.008131922 0.006356398 0.00047613704 -0.016576927 -0.016548352 -0.0076637315 -0.0028484254
-0.008181664 0.011053182 -0.0051874337 0.008409498 -0.0022055875 -0.0022973213 0.012401907 -0.012319417
-0.013661542 0.0011425068 -0.00646114 -0.0035616045 -0.019508021 0.003766621 -0.020142073 -0.009281589
-0.017124077 -0.006550221 0.009634458 -0.0043939585 0.0011369606 -0.012513601 0.0028465523 -0.00042252464
-0.014933826 -0.0055531734 0.0014621842 -0.014292493 -0.0034061861 -0.0089773135 0.01347971 -0.0067860642
-0.028564338 -0.0026422483 0.01287132 0.013280041 0.0075175096 -0.00306177 -0.01620015 0.010744133
-0.006408904 -0.00833347 -0.016592463 -0.0024091695 -0.025628276 -0.009445863 0.00973525 -0.016878895
-0.014286942 0.0031169816 -0.008611904 -0.0010750188 -0.0070515894 -0.0053885705 -0.017928215 9.463023e-05
-0.0040599788 -0.00383091 -0.010199426 -0.0013334048 -0.011755186 0.010714796 -0.019983392 -0.010404684
-0.015448469 0.013299982 -0.007090423 0.002705888 0.00074209 0.001453411 -0.012872347 -0.015439852
-0.0048057316 0.0022232975 -0.018874273 -0.0040643807 0.0054698153 0.0047578095 0.0065939594 0.010746366
-0.028932104 0.0010215217 -0.009612186 0.0058351834 -0.015535692 -0.001521298 -8.596547e-05 -0.0013259634
-0.010033526 -0.014571959 -0.011273301 -0.01688116 0.0031592809 -0.011130654 0.01154515 -0.009370282
-0.00877379 -0.008035494 -0.0020082938 -0.0073312963 0.0037935586 -0.014961528 0.0007595035 -0.018692857
0.004610408 -0.00833358 0.008184526 0.006726523 -0.017910756 0.00632629 -0.015309365 -0.013265035
-0.0018966167 -0.018726481 0.007531124 0.00020958392 -0.010842177 -0.008057289 -0.013580096 -0.009857688
-0.0050051976 -0.0027932397 0.006789288 -0.0062846127 0.004035109 0.00074181776 0.003749408 -0.007934771
-0.022241794 -0.008097329 -0.012366728 0.0070134834 0.008519043 -0.0032262513 -0.004590782 -0.0068953587
0.0033253569 -0.0064128023 -0.033672027 -0.012239698 0.0033792246 -0.00093696243 -0.012245833 0.0044209394
-0.007021623 -0.011541473 -0.0005892192 -0.007056371 0.011865649 -0.006797325 -0.01721778 -0.0062968195
0.0012401518 0.0031685687 0.019946113 0.0032635885 0.0044385637 0.008968525 0.0051072007 0.003159183
0.001244279 0.0029074275 -0.010357054 0.013811223 0.0062731826 -0.00061687676 -0.021151448 -0.00018761864
-0.004199534 0.0013096514 -0.00053415314 -0.024800234 0.011888282 -0.012448607 0.0037781005 -0.013222511
0.0037569788 -0.0192053 -0.007944592 0.0021952642 -0.006415644 -0.007952603 -0.009098321 0.0050936677
0.002760907 -0.0068562524 0.02988996 -0.010319799 0.015234805 -0.0012609501 -0.010603757 -0.008087769
0.003491815 -0.010727147 -0.006443179 -0.027119137 -0.012174662 0.0082571665 0.004450375 -0.00803749
00000000: c32a 57ba 96ce 17bc 0408 e9b8 ff2a f7bb
00000010: 142a 3fbb d1df bcbc 13d0 1cbc edf8 c9bb
00000020: 716b 2e3c 42c8 5dbc 046e 97bb c050 9abc
00000030: 6e85 22bc 65ff 01bc bba7 febb 471e d8bc
00000040: ef79 29bc 52c3 4d3c b61f d4bc 5b88 fe3b
00000050: b003 aabc d6a2 1c3c 5760 8abc a9d9 a13a
00000060: 759d a83b 97ab a13b 6239 a63b eb82 7c3b
00000070: c5f7 18bc 5c9c 0abb 0327 c43c 23a0 7f3b
00000080: 04d7 513b 4b71 aabc 5db6 873b adf6 0ebc
00000090: 113b 22bc e142 283c 8f1f 4aba 52ff 1ebc
000000a0: e6b4 0b3c 65cb 7c3c e454 7c3b bd29 293b
000000b0: fdc8 aebb 99e6 15bc 2d6e 37bc d8b6 853b
000000c0: 0ca5 903c c13b 05bc 5549 d03b 08a2 f939
000000d0: 56cc 87bc 6990 87bc 0a20 fbbb a6ac 3abb
000000e0: 630c 06bc 6818 353c 59fb a9bb fec7 093c
000000f0: 9e8b 10bb a88e 16bb 5e31 4b3c 61d7 49bc
00000100: a9d4 5fbc 2bc0 953a f8b7 d3bb cf69 69bb
00000110: 49cf 9fbc 6ad9 763b fd00 a5bc ce11 18bc
00000120: cb47 8cbc 3ca3 d6bb d9d9 1d3c 32fb 8fbb
00000130: 1106 953a d905 4dbc 398d 3a3b 4c86 ddb9
00000140: 02ad 74bc 65f7 b5bb c3a6 bf3a 102b 6abc
00000150: 523a 5fbb 9515 13bc 00da 5c3c a25d debb
00000160: c2ff e9bc 9229 2dbb 3be2 523c 8794 593c
00000170: 7155 f63b faa7 48bb 2db6 84bc 2908 303c
00000180: c901 d2bb 1b89 08bc ebec 87bc 28e3 1dbb
00000190: 64f2 d1bc d2c2 1abc 9980 1f3c 9c45 8abc
000001a0: c713 6abc 4646 4c3b f218 0dbc a5e7 8cba
000001b0: 0511 e7bb 9b92 b0bb 31de 92bc 3874 c638
000001c0: 9209 85bb 0110 7bbb 7e1b 27bc a4c5 aeba
000001d0: d398 40bc 1d8d 2f3c 36b4 a3bc 6878 2abc
000001e0: 931b 7dbc 2be8 593c c756 e8bb 4455 313b
000001f0: d188 423a 6180 be3a 89e6 52bc 6ff7 7cbc
00000200: 6679 9dbb beb4 113b 389e 9abc 7f2e 85bb
00000210: 233c b33b 66e7 9b3b 2412 d83b 8711 303c
00000220: 0503 edbc 95e4 853a 6e7c 1dbc 1135 bf3b
00000230: 6a89 7ebc 4a66 c7ba 5c48 b4b8 f3cb adba
00000240: a963 24bc 3abf 6ebc a7b3 38bc 5c4a 8abc
00000250: f00b 4f3b 595d 36bc de27 3d3c d085 19bc
00000260: f1bf 0fbc 4ea7 03bc 949d 03bb 5f3b f0bb
00000270: 5a9d 783b 3221 75bc 6b19 473a c321 99bc
00000280: e812 973b 9189 08bc 6418 063c 2a6a dc3b
00000290: 94b9 92bc c44c cf3b 21d4 7abc 9755 59bc
000002a0: e597 f8ba 4768 99bc a6c7 f63b c1c3 5b39
000002b0: 63a3 31bc b802 04bc 0d7f 5ebc 2482 21bc
000002c0: a402 a4bb c90e 37bb ad78 de3b 27ef cdbb
000002d0: f338 843b 8c76 423a a1b8 753b d700 02bc
000002e0: 6c34 b6bc a9aa 04bc d19d 4abc 5dd1 e53b
000002f0: 7593 0b3c 846f 53bb 456e 96bb 76f2 e1bb
00000300: 3bee 593b 7c22 d2bb aeeb 09bd 0489 48bc
00000310: fb75 5d3b 7c9e 75ba bfa2 48bc 87dd 903b
00000320: a515 e6bb 7218 3dbc d575 1aba 2139 e7bb
00000330: 2468 423c 18bc debb 4d0c 8dbc 8d55 cebb
00000340: 978c a23a c3a7 4f3b 0866 a33c eee1 553b
00000350: 5f71 913b b8f0 123c 4e5a a73b 4c0a 4f3b
00000360: 1317 a33a 8a8a 3e3b a2b0 29bc 7848 623c
00000370: 458f cd3b e6b5 21ba cd45 adbc 7fbb 44b9
00000380: 3f9c 89bb 9ca8 ab3a 6906 0cba dc29 cbbc
00000390: 12c7 423c 3ef5 4bbc 029a 773b 3ba3 58bc
000003a0: a537 763b 6f54 9dbc 092a 02bc 6cde 0f3b
000003b0: 533a d2bb a24b 02bc 2011 15bc c8e8 a63b
000003c0: 55f0 343b 6aaa e0bb cadb f43c 6014 29bc
000003d0: 679b 793c 7746 a5ba 61bb 2dbc 9082 04bc
000003e0: efd6 643b eac0 2fbc 4e21 d3bb f428 debc
000003f0: 3c78 47bc 1149 073c 74d4 913b adaf 03bc
